try_train/cifar10_models/cifar10_net_41.pth (torch, 589402 bytes, 10 tensors)

weight f4 [32, 3, 5, 5]
000000 b4 c0 be bd dc b1 a6 3d 67 b9 31 3e d4 a8 0f 3c
       -0.09314099 0.08139393 0.17355882 0.008768279
000010 00 e4 0b 3e 99 1b 01 be 03 75 d2 bd e1 e7 72 bc
       0.13661194 -0.12608184 -0.102762245 -0.014825792
000020 44 36 6e 3e 06 cb ab 3d b9 2d ab bd 79 6d 7b 3c
       0.23262888 0.08388333 -0.0835833 0.0153459245
000030 a8 4c 60 be af 23 2f bb 34 65 c6 bd 4c e6 ab 3d
       -0.21904242 -0.002672415 -0.09687272 0.08393535
000040 bb 0f c5 3c 37 32 a9 be 4d 78 60 be 75 b4 03 be
       0.024055352 -0.33046123 -0.21920891 -0.12861808
000050 a3 c9 4f 3e 8c 57 49 bd 1f 2f a3 be 34 f2 f8 bd
       0.20291762 -0.049155757 -0.31871888 -0.121555716
000060 7f 54 ec bc 08 c6 07 be c9 02 94 bd 03 47 07 bd
       -0.028848885 -0.13259137 -0.07227094 -0.033026706
000070 ce 18 39 bd 55 32 c3 bd c0 95 9a 3d f1 35 03 be
       -0.04518967 -0.095310844 0.07548094 -0.12813546
000080 ac e8 01 be 50 ad de 3d 03 39 00 3d 11 fb e6 3c
       -0.12686414 0.108729005 0.03130437 0.02819589
000090 40 a2 a9 3d d9 9c 4c be df cb 0a 3c e6 25 18 bd
       0.082829 -0.19981708 0.008471458 -0.037145518
0000a0 f1 58 c0 3e de f9 59 3e be c6 3d be b0 bd a6 bd
       0.37567857 0.21286723 -0.18532845 -0.08141649
0000b0 94 2f cd bd 7d f7 7d 3e 48 2d ed 3d f0 2f 60 be
       -0.100188404 0.2480144 0.11580902 -0.21893287
0000c0 8d 82 2b be ac 5d a9 3d 5d 91 5e bc 1b db 4c 3d
       -0.1674902 0.082698196 -0.013584462 0.050013643
0000d0 03 a3 12 3e 12 3a cc bb 17 83 19 be 70 ff cf 3c
       0.14319997 -0.0062325085 -0.14991413 0.025390357
0000e0 e7 54 3b 3b 57 e4 b1 3a 9d 3d 31 3d b1 b4 23 bd
       0.0028584541 0.0013572079 0.04327165 -0.039967243
0000f0 00 47 42 3e 03 85 9b 3d 69 8f 2d be 1e 9e d9 bd
       0.18972397 0.07593729 -0.16949238 -0.106258616
000100 22 a4 62 bd 06 30 b5 3e 35 44 8c 3e 2e 28 0d be
       -0.05533231 0.353882 0.27395788 -0.13784859
000110 00 4f 9c bd 72 71 78 bb 8a d5 ba 3e e4 8f 4f 3e
       -0.076322556 -0.0037909416 0.36491042 0.20269734
000120 19 8d 3b be c3 e6 13 be e1 4d ab bd 2a 2f f9 bd
       -0.18315543 -0.14443497 -0.083644636 -0.12167199
000130 9d ef b8 bd 13 39 56 be 4e fe f0 3b f0 d6 6b bc
       -0.090300776 -0.2092021 0.007354534 -0.014394507
000140 b1 0a 87 bc 8b a1 9b bd b8 d4 f7 bc 9e 7b b5 bd
       -0.01648459 -0.07599171 -0.0302528 -0.08861469
000150 29 11 be 3c 23 01 84 bb 60 fb 95 bd 3d 47 29 bd
       0.023201542 -0.004028456 -0.073233366 -0.041327704
000160 b0 6f 83 bd f4 b4 4f 3d 65 3e 03 be a3 cd 0c be
       -0.06417787 0.05070968 -0.1281677 -0.13750319
000170 63 a4 5b be 0e e6 50 be 5c 98 ea bc 83 80 47 bb
       -0.21449427 -0.20400259 -0.028637104 -0.003044159
000180 24 93 3d be 3e f9 58 be ee 63 5b be 4f ff a3 bd
       -0.18513161 -0.21188828 -0.21424839 -0.080076806
000190 9f 13 84 bc 5f ab 94 bc 98 26 df bd d6 18 ab 3c
       -0.016122637 -0.018148122 -0.10896033 0.020885866
0001a0 1a 61 28 be a8 b8 44 bd 4f ec 09 3d e7 c2 1d 3e
       -0.16443291 -0.048027664 0.033672627 0.1540638
0001b0 0b 82 48 3e 45 df db 3c 18 c4 09 bd 03 99 90 3d
       0.19580857 0.026839862 -0.033634275 0.07060435
0001c0 73 7b 9c 3d 3c cc 59 3e 76 dd 20 3d 16 60 5c 3c
       0.076407336 0.21269315 0.0392737 0.013450643
0001d0 fa a2 60 bd a2 0c 01 be ee c1 89 bd 98 a1 c5 bc
       -0.054842927 -0.12602475 -0.06726442 -0.024124905
0001e0 c2 07 49 bd 93 ca 44 be 35 a4 7d be 58 b9 78 be
       -0.049079664 -0.19217901 -0.24769671 -0.24289453
0001f0 4f 73 d9 bd 8c 25 a8 bd c5 f4 65 3d a6 3f 4a bd
       -0.106176965 -0.082102865 0.056141634 -0.049377106
000200 a8 ed ea bd b1 b5 e0 bd ef de e5 3d c6 d3 57 3e
       -0.114711106 -0.10972155 0.11224162 0.21076879
000210 09 19 a2 3e 38 05 32 3e 2b 5c 8d bc 46 c9 51 3e
       0.31659725 0.17384803 -0.017255863 0.20486936
000220 44 46 b7 3e 6d 92 df 3e db d0 94 3e 54 92 25 3e
       0.35795796 0.43666402 0.29065594 0.16169101
000230 3c ee 3e 3e e0 e5 8a 3e c6 2b 75 3e bc ed 31 3e
       0.18645567 0.27128506 0.2394248 0.17375845
000240 9f ca 58 3e 2b 94 15 3d a1 3a cc bc b6 80 99 3c
       0.21171044 0.036518257 -0.0249303 0.018738132
000250 43 79 d5 3d 94 1b 3c 3d c2 81 b8 3d fc cd 2e be
       0.104235195 0.045924738 0.09009124 -0.17070764
000260 9b c5 8e 3d c3 ec cf bd ce ae 76 bd 27 21 74 3e
       0.06971284 -0.101525806 -0.0602253 0.23840772
000270 20 0f a5 be 17 9e e1 3d f7 8e a5 bc 19 7f c0 bd
       -0.32238102 0.11016481 -0.020209773 -0.09399242
000280 49 d1 3f 3d b4 5f 99 be fe b6 a1 bd d3 28 9f bd
       0.04683045 -0.29955828 -0.07896231 -0.077714585
000290 d1 f2 34 3c 64 a6 12 be 87 e7 b6 bc 8d 9c 54 3e
       0.01104422 -0.14321285 -0.022327198 0.20762844
0002a0 97 36 99 3c fd cf 88 3c c3 65 04 be 69 1c 54 bd
       0.018702788 0.016700739 -0.12929444 -0.051784907
0002b0 8b d7 b8 bc 76 33 1a be 71 97 3c be 82 d3 5c 3e
       -0.022563716 -0.15058693 -0.18417145 0.21565059
0002c0 83 eb f8 bd fa 31 11 3e 45 1f 1a 3d 98 a8 32 3c
       -0.12154295 0.14179221 0.037627477 0.010904454
0002d0 94 3d 7e 3e 07 5f 12 be 18 b3 06 3e ec 21 a4 3d
       0.24828178 -0.14294063 0.13154256 0.080142826
0002e0 20 24 a6 3d ad 26 2c 3e d7 ff 65 be 43 21 6b 3e
       0.08112359 0.16811629 -0.22460876 0.22961907
0002f0 c4 ac 28 3d 03 f0 2c bd 95 1e 26 bd e8 62 ca bc
       0.041180387 -0.04222108 -0.04055651 -0.024705365
000300 e9 52 83 3e 01 9a 5e 3e d9 8e 30 3e d8 04 b2 3b
       0.25649193 0.21738435 0.17241992 0.0054327063
000310 1e a9 b5 3d 06 3f 5b bd b1 0c 5a 3d b6 3d 9e bc
       0.08870147 -0.0535269 0.05323476 -0.019316535
000320 e2 58 9e 3d f7 b1 57 be 76 aa 3b 3e bf cb ea bd
       0.07731797 -0.21063982 0.18326744 -0.11464643
000330 c2 a8 ad bb e9 36 53 3e 3d af 73 be 4d 44 bb 3d
       -0.0052996585 0.20626415 -0.23797317 0.09143887
000340 37 1d cd bd 85 32 89 3d 20 20 c2 3d 55 45 78 be
       -0.10015338 0.06699089 0.094787836 -0.24245198
000350 dd e9 04 3c 0f fa de bd ca cb 03 3d 15 73 10 3d
       0.008112398 -0.10887539 0.03217677 0.035266
000360 35 ba ef bd 1a 5b 8d 3e 09 95 16 3e f2 20 aa bd
       -0.11705438 0.27608567 0.1470529 -0.08307065
000370 39 b9 ab bd c3 8b e5 3d e6 6c d8 bd 21 82 3e be
       -0.08384938 0.11208298 -0.10567646 -0.18604328
000380 c7 36 33 be 93 dd 26 bd eb ba d0 3d ea ff 1f 3e
       -0.17501365 -0.040738653 0.10191902 0.15624967
000390 14 6f 20 3d 2e f6 0b 3e 48 e5 0e bd de 40 d3 3d
       0.039168432 0.13668129 -0.03488663 0.10315107
0003a0 92 5b 24 bc 0d f1 2d 3d 13 e8 03 be ef 82 04 3e
       -0.010031598 0.042466212 -0.12881498 0.12940572
0003b0 a0 f6 a3 3d 34 25 3b 3e b7 20 30 3e 21 b8 bc bc
       0.08006024 0.1827591 0.1719998 -0.023037018
0003c0 61 27 dd bd fc 78 40 be 39 3e 20 bd ad e8 41 3d
       -0.107985266 -0.18796152 -0.03912184 0.047341038
0003d0 54 72 31 3e 93 eb e8 bd 06 e0 4a be cb 7e 9b be
       0.17328769 -0.11373057 -0.1981202 -0.30370173
0003e0 ba a8 e5 bd bc bb 03 be 32 fb 9f bb 3a af 71 bc
       -0.11213823 -0.12864584 -0.0048822397 -0.01475125
0003f0 a2 79 81 bc 48 aa c6 3d 79 eb ab 3d 7b 59 df bc
       -0.01580507 0.09700447 0.08394522 -0.027264347

bias f4 [32]
000000 f1 46 41 3e ec 2c c1 be 13 17 05 bd 07 00 04 3e
       0.18874718 -0.37729585 -0.03249271 0.12890635
000010 57 d0 13 bd 4e 3c e3 bd 0e ba 0a 3c 98 b1 ce bd
       -0.03608736 -0.110954866 0.00846721 -0.10092467
000020 6f bd ed 3d 01 90 86 be 6b 92 5a be dd 6e 89 bd
       0.11608397 -0.2628174 -0.21344917 -0.067105986
000030 f9 f3 dc 3d 06 53 8d 3c 39 04 81 be 34 f1 92 3e
       0.107887216 0.017251503 -0.25198534 0.28699648
000040 6d 2a 6d bd 7a 4c ca 3d 6a e2 80 be 02 c0 9b bd
       -0.05790179 0.09877868 -0.2517274 -0.07604982
000050 91 3a 12 be 85 a8 be 3c a2 4c 94 be a6 06 86 be
       -0.14280154 0.023273716 -0.28964716 -0.26176947
000060 ab f1 52 3d ee b7 e1 be 27 d9 e7 bc d2 0f 0e be
       0.051500004 -0.4408564 -0.028301788 -0.13873222
000070 63 49 e4 3e 91 69 c0 3c a3 38 35 be 36 e3 1b be
       0.4458724 0.023487838 -0.17697386 -0.15223393

weight f4 [32, 32, 5, 5]
000000 93 67 e5 3c 4c e5 17 3d af fb 1c bd 0d fe 8f bd
       0.02800349 0.03708391 -0.03832596 -0.07030878
000010 86 a9 95 bc 1a 54 bf 3b 0a 90 af 3d fa 5e 5b 3d
       -0.018269312 0.005838883 0.08572395 0.053557374
000020 29 ef ce bc d2 50 ff bb 35 66 2d 3c 86 c7 ef 3b
       -0.025260525 -0.007791617 0.01058345 0.007317486
000030 cf 88 32 3d d5 fe 65 3d db 9c 21 bd 89 59 48 bd
       0.043587502 0.05615123 -0.03945623 -0.048913512
000040 e4 78 8a bc 9b 65 10 3c 91 4e 99 3d dc a9 85 3d
       -0.016903348 0.008813287 0.074856885 0.06526539
000050 a4 30 29 bd 60 bd 5f bd 6f 0c bd bb 8c f6 de 3d
       -0.041306153 -0.05462396 -0.0057693045 0.10886869
000060 87 cd d9 3d ca 37 13 3d d3 7c b4 3a 8e 34 0f 3d
       0.10634904 0.035941876 0.0013770111 0.03496223
000070 85 c0 ed 3c e9 a9 a7 3c 97 21 0e 3d 1d c4 47 bc
       0.029022465 0.020466762 0.034700003 -0.012192753
000080 1e 40 1b bd 6f a2 00 3d 9d 48 ab 3d a8 4f bb 3d
       -0.037902944 0.03140491 0.08363459 0.091460526
000090 ac 51 35 3d b5 37 9a bd af 2a 76 bd 4d 93 c0 3d
       0.04426734 -0.075301565 -0.0600993 0.094030954
0000a0 64 c2 a5 3d 1a 28 cf 3c 39 cd 44 bd a6 fa d0 bd
       0.08093718 0.025287677 -0.048047278 -0.102040574
0000b0 76 14 63 bd 74 dd eb 3d 34 d9 fa 3c 02 96 45 3d
       -0.055439435 0.11516848 0.030621149 0.04823876
0000c0 bc df 28 3d 75 3b 15 bc 4d fc b6 bb 93 d8 55 bd
       0.041228995 -0.009108414 -0.005584276 -0.052208494
0000d0 04 5b 6c bd 56 0e 6d bc 88 08 8d bd 75 98 57 bd
       -0.057703987 -0.01446875 -0.06886393 -0.05263563
0000e0 87 f1 56 bd 84 d5 f4 bc af e2 9a bd e2 97 0a bd
       -0.052476432 -0.029886968 -0.07562768 -0.033836253
0000f0 4a 1e 71 bb aa cf 3a bd 54 43 ab bd 24 a2 4b bc
       -0.0036791735 -0.0456082 -0.08362451 -0.012428794
000100 d3 f5 c5 3c 31 cb 99 3c f2 86 52 bd a7 ff 8d bd
       0.02416507 0.018773647 -0.051398225 -0.069335274
000110 dc dc 10 bd 55 48 51 3c ad 76 5e bc e9 77 33 3d
       -0.035366878 0.012773593 -0.013578099 0.043815527
000120 95 ce b1 3b 54 a1 73 3b 8a 05 ab bc 8b ad c0 3c
       0.005426238 0.0037175016 -0.020876665 0.023520252
000130 3d 9d ee 3c e5 a5 86 3d 49 03 87 3c 03 a2 d8 bb
       0.029127711 0.065746106 0.016481059 -0.00661111
000140 03 48 6c bd 40 df 15 bd 09 9a e1 3a ba 7f ba 3d
       -0.057685863 -0.03658986 0.0017212044 0.09106393
000150 b7 3b 65 3c 50 a1 0a bc a2 b7 cc bc 06 ff 3e bd
       0.013991288 -0.008461311 -0.024989907 -0.046629928
000160 04 3c 94 bc b1 dc e7 3d d4 d4 41 3c 6a 74 27 bd
       -0.018095024 0.113213904 0.011830527 -0.040882505
000170 0f 08 ea bd 71 d7 1c bd fe a1 12 3c 23 2a f7 3c
       -0.11427318 -0.0382914 0.008949755 0.03017146
000180 3d a2 9c 3c 86 99 8d bc 25 22 af bd d2 56 bf 3c
       0.01912033 -0.01728512 -0.085514344 0.023356829
000190 56 cf 1f 3c 71 7b 54 3c be cb 8c bd 5a b8 3f bd
       0.009754023 0.012968884 -0.06874798 -0.04680667
0001a0 93 bc 6a bd 07 d8 7d bc 19 f1 08 bc 76 04 d1 bc
       -0.057308745 -0.015493399 -0.008358263 -0.025514822
0001b0 92 9d e0 bc ef 55 13 3d 65 2c e7 bc b1 0e 99 3c
       -0.027418885 0.035970625 -0.028219411 0.018683763
0001c0 0d 2a 96 bc 7d 70 c2 bb b2 b6 34 3d 15 de 30 bc
       -0.018330598 -0.00593382 0.044119544 -0.010795136
0001d0 c4 44 5a bc bc 1d f9 bc a8 1a 33 3c 7a 8c 93 3d
       -0.013322059 -0.030409686 0.010931648 0.07204528
0001e0 24 12 75 bd f9 6a 5e bc f1 b7 32 3d 29 9b ae 3c
       -0.059831753 -0.013575309 0.04363245 0.02131422
0001f0 6d ff e5 3c e5 cc b0 bb c7 ca 49 bc c6 98 31 3b
       0.028075898 -0.005395519 -0.012316412 0.0027099117
000200 ce 0a c9 bb 85 ef fd 3c 1f 05 93 3c cd b1 41 bd
       -0.006135321 0.030998 0.017946778 -0.047288705
000210 1b 33 d3 ba 8a e2 ab bc 2d 26 35 bc c0 a1 fd bc
       -0.0016113253 -0.020982046 -0.011056465 -0.030960917
000220 7c b3 05 3c bc 96 5d bd 20 73 34 bc a1 6e c7 bc
       0.008160468 -0.05409883 -0.011013776 -0.024344744
000230 01 dc 18 bd 6a 93 b9 bd 1e 25 06 be 95 2a 2a bb
       -0.037319187 -0.0906132 -0.13100097 -0.0025965322
000240 90 13 dd 3c 7f 68 ae bc 55 c8 e7 3c 3a 33 e7 3b
       0.026986867 -0.021290062 0.028293768 0.007055667
000250 ff 98 27 bd 2a b2 c2 3c bf 46 26 bd e0 b0 12 bd
       -0.040917393 0.023766596 -0.040594812 -0.035813212
000260 e9 05 73 bd 21 08 b7 bd 26 33 3b bd a3 f8 2f bd
       -0.05933181 -0.08937097 -0.045703076 -0.042961728
000270 a0 e7 bc bd 86 39 41 bd e0 ac 4e bd 5c 69 11 bd
       -0.092238665 -0.047174 -0.050457835 -0.03550087
000280 35 1f b4 bb 09 9b 6c bd a2 e9 06 bd d9 87 f6 3b
       -0.005496884 -0.05776504 -0.032937653 0.0075235185
000290 5d 0f 11 bd af 96 88 bd 5f fb 2e bd c5 6f 81 bd
       -0.035415042 -0.066693656 -0.042720195 -0.063201465
0002a0 19 ba e0 3c 07 fb 14 3c 50 0c eb bc 5c 07 59 bd
       0.027432488 0.009093053 -0.028692394 -0.052985534
0002b0 fd 63 32 bd a2 c2 8c bc 43 43 e5 3c 38 a5 9c bc
       -0.043552388 -0.017182652 0.027986174 -0.019121751
0002c0 e1 a2 e0 bb 99 01 89 bd f6 92 2a 3c 55 51 83 3d
       -0.006855354 -0.06689758 0.010411015 0.06411997
0002d0 98 50 ba 3c 4f 68 10 3c 98 12 04 bd 2a ad bf 3c
       0.022743508 0.008813932 -0.032244295 0.023398
0002e0 a5 c0 89 3d 9e e1 fb 3c ec 94 77 3d 9d 33 83 3c
       0.06726197 0.030747231 0.060444757 0.016015822
0002f0 b7 e3 55 bd f7 0f a8 3c 44 85 3a 3d 13 81 b1 3d
       -0.05221912 0.020515425 0.04553725 0.08667197
000300 e7 f8 a0 3d f1 a4 59 bd 39 1b 48 bc 44 51 d0 bc
       0.07859974 -0.053135816 -0.012213522 -0.025429375
000310 9a 09 32 bc 4d 3f 95 3c 47 1c 15 bd a1 b6 43 bc
       -0.010866547 0.01821866 -0.03640392 -0.011945398
000320 7b 51 03 3d ba c2 3e 3c d9 c5 0b 3b 03 22 0b 3d
       0.032060128 0.011643106 0.0021327643 0.033967983
000330 1f 36 02 3d 0f 38 17 bd 93 af 97 bc 93 8f 35 3d
       0.031789895 -0.036918696 -0.018516337 0.044326376
000340 d3 2f 36 ba 2e 76 37 3c 95 5d d2 bc 49 26 b2 bc
       -0.00069498754 0.01119761 -0.025679389 -0.021746771
000350 c9 75 56 3d e2 ec 64 3d c7 f0 f3 bc 09 3a b2 bc
       0.052358422 0.05588997 -0.029777898 -0.021756189
000360 43 9c 82 3b 60 6f 15 3d b7 6d ce 3d e1 14 a4 3c
       0.003985913 0.03648317 0.1007952 0.020029487
000370 ba e9 e0 bc 53 44 22 bd 2f 1b 2c 3b 6a 9b a5 3d
       -0.0274552 -0.03961594 0.002626132 0.080862835
000380 49 12 f4 3c 49 67 cc 3c 62 20 92 3c e1 33 25 bb
       0.029793875 0.024951594 0.017837707 -0.0025207924
000390 8f 6b aa 3b 4a fb 36 39 65 d7 4a 3c c9 0f a6 3b
       0.0052008103 0.00017450485 0.012380456 0.0050677997
0003a0 64 23 98 3c 80 8f 64 3d 7a 19 60 3d 6f 4c 1e 3d
       0.018571563 0.055800915 0.054711796 0.03864711
0003b0 8b 03 d3 3c 19 a5 12 bd 4c 43 74 3d 59 79 35 3d
       0.025758525 -0.03580198 0.05963449 0.04430518
0003c0 2f d8 07 bd 87 5a e7 bb 38 a5 75 bd 80 7f a8 bb
       -0.033165153 -0.0070603522 -0.059972018 -0.0051421523
0003d0 da d5 48 3b 52 16 09 3d 83 52 02 3d 8e e8 24 bd
       0.0030645044 0.033468552 0.03181697 -0.040260844
0003e0 b3 a1 75 bd 36 d7 fa bb da 62 dd 3c c1 62 18 bc
       -0.05996866 -0.0076550497 0.027024675 -0.0093008885
0003f0 17 01 16 3d e9 fc 8d 3d 86 88 59 3d 84 8a 4e bc
       0.036622133 0.069330044 0.053108715 -0.012606267

bias f4 [32]
000000 af 50 40 be 9a 87 33 be 0f 2b 3e be 3b 94 63 bd
       -0.18780778 -0.17532197 -0.18571113 -0.055561285
000010 bd f3 91 3c a1 f3 8c be 62 65 ad be 5a 32 b9 bd
       0.017816419 -0.27529624 -0.3386641 -0.09042807
000020 e5 8a ad bd 72 4e 3b bd 3c ef eb bc 51 ad 2b bd
       -0.08473758 -0.04572911 -0.0288006 -0.041913334
000030 e0 53 a2 bd 4c 32 0d be f8 f1 4d be d9 67 11 be
       -0.07926154 -0.13788718 -0.20111835 -0.14199771
000040 5b b5 16 be d2 de 16 be 46 ce 80 bd af f0 20 38
       -0.14717619 -0.14733437 -0.062893435 3.8371127e-05
000050 67 c8 39 3b d2 85 18 be 36 ad bd bd 0f df 75 be
       0.002834821 -0.14894798 -0.09261553 -0.24010871
000060 62 dd b5 bc c6 ef 87 bc 58 79 89 bc db 6b 06 be
       -0.02220029 -0.016593825 -0.016781494 -0.13127081
000070 92 0e 25 be c2 7d 67 3d 0b eb 38 be 27 98 66 3a
       -0.1611884 0.056516416 -0.18058412 0.0008796476

weight f4 [64, 32, 5, 5]
000000 45 2b c3 bc 7e d4 14 3b b0 ac 60 bd 04 af 48 bd
       -0.023824343 0.0022709663 -0.054852188 -0.048995033
000010 05 03 88 bc d9 0f b4 3c 56 2a 55 3d 97 ca bf bc
       -0.016603002 0.021980213 0.052042328 -0.023412032
000020 77 25 d2 bd f9 eb 3d 3d f7 16 8d bd 18 9d 11 bd
       -0.10261052 0.04636762 -0.06889146 -0.035550207
000030 e0 e0 a9 bd bd 45 09 bc 3e 10 3c 3d 2b c8 0c bd
       -0.082948446 -0.008378443 0.045913927 -0.034370583
000040 5e cd 15 bd c8 f7 d7 bc c8 59 fb 3c 9f a0 85 3d
       -0.036572807 -0.026363268 0.03068246 0.06524777
000050 63 69 99 bd 57 b1 35 bd 1f 9b 86 3b f2 c2 39 bc
       -0.07490804 -0.044358578 0.0041078473 -0.0113379825
000060 a6 28 1f 3c f3 8c f3 3c 3d fc 0c bd 6b f1 9a bc
       0.009714281 0.029730296 -0.03442024 -0.018913945
000070 21 e4 31 3c 3d 9b d0 3c e6 fe 9f bc c6 3c 4a bd
       0.010857613 0.025464648 -0.019530725 -0.049374364
000080 7d 35 29 bd 52 21 01 3d 4d 47 f2 3c 72 54 15 bd
       -0.041310776 0.031525917 0.029575014 -0.036457486
000090 1d 78 14 bd 71 df c6 bb 94 04 f9 ba 5e 58 54 3d
       -0.03624736 -0.0060691168 -0.0018998557 0.051842086
0000a0 e4 ac 1e bd 9b 29 5c bd 93 bc e7 bb 5a eb 03 3d
       -0.0387391 -0.053750616 -0.0070720403 0.03220687
0000b0 be da 67 3d 4a 2e 94 3c 95 73 17 3c 7f d0 49 ba
       0.056605093 0.018088479 0.0092438655 -0.000769861
0000c0 ee 5c 7a bb ed fc d9 bc 11 40 36 bd af d8 0f ba
       -0.0038202363 -0.026609862 -0.044494692 -0.00054873055
0000d0 36 63 40 bd 4c 85 b6 b8 8d b4 f3 39 33 c8 ef 3b
       -0.046969615 -8.703265e-05 0.00046483093 0.007317567
0000e0 cd d6 27 bd 58 55 17 3d 70 d8 b0 3c 45 0a 19 3c
       -0.040976334 0.036946625 0.02158758 0.009340827
0000f0 3c cd b4 bd 24 20 66 bd 87 8e fe ba 2f c9 ba 3d
       -0.08828208 -0.056182995 -0.0019421139 0.09120404
000100 56 79 61 3d b8 fc 3a 3c 9f 6f 33 bd 7f 61 b0 3c
       0.055047356 0.011412792 -0.043807622 0.021530865
000110 aa 41 67 3d 1f 01 3e 3c c2 99 6e bd df 76 c0 3c
       0.056459107 0.011596947 -0.058252104 0.023494182
000120 f6 51 a3 3d 4e d6 a1 3d 44 73 a1 bc b9 0a 01 bc
       0.07974617 0.079022035 -0.019708283 -0.007876092
000130 9c 90 50 3d 36 b7 82 bd c9 44 2e 3c b3 17 79 3c
       0.05091916 -0.06382601 0.010636517 0.015203404
000140 8d e4 a1 3d 47 9c 9b 3b 83 70 12 bd 17 8a 2c bc
       0.07904921 0.0047488543 -0.03575183 -0.01053097
000150 cb 57 bf bc 2b 17 22 3c 56 f0 b1 bd 82 e1 27 bd
       -0.023357293 0.009893219 -0.086884186 -0.040986545
000160 3c df 0b 3c 74 d3 38 3d 28 57 aa bc 0d e7 c6 bc
       0.00853711 0.045123532 -0.020793512 -0.024280095
000170 5f f3 ea 3b c8 ef 84 bb e9 5c 78 bc 14 7e d2 3c
       0.0071701254 -0.0040569045 -0.01515887 0.025694884
000180 d6 da 53 3b 34 7b 64 3c 61 e7 d7 3c 62 65 f4 bc
       0.0032326481 0.01394539 0.026355447 -0.0298335
000190 01 9b 82 3c 64 4c c0 3b d3 bd 5a 3b 51 6e b0 3c
       0.015943052 0.0058684815 0.0033377304 0.021536978
0001a0 13 bd 2e 3c 5b 9a b2 3b 03 2e 32 bc 9a 25 32 bd
       0.010665196 0.0054505295 -0.010875228 -0.04349289
0001b0 e4 26 c8 3b 5b 0f 07 bd d6 5a 12 bd 04 f4 2e 3d
       0.0061081517 -0.03297363 -0.03573116 0.04271318
0001c0 83 d9 db bb 94 25 67 3d bd 17 4f 3d bd 0b b4 3c
       -0.006709279 0.05643232 0.050559748 0.021978253
0001d0 17 e2 06 bd a1 21 19 bc f3 85 ed bb 25 eb 40 bb
       -0.03293046 -0.009346397 -0.007248634 -0.0029437032
0001e0 f0 ac ce 3c 42 96 a1 3d b4 25 9f bc 07 b1 07 3d
       0.025228947 0.078899875 -0.019427158 0.03312781
0001f0 5e 6a 82 bb 85 21 22 bd 42 4e 9a bc c1 5e 6f 3c
       -0.003979965 -0.039582748 -0.018836144 0.014609993
000200 ea d5 d1 bb 24 d9 0d bd d2 fd 60 3c be 98 71 3d
       -0.0064036744 -0.03463091 0.0137323905 0.058983557
000210 c1 ef 22 3d f2 0a d7 3d d6 84 0b 3d 17 24 00 bd
       0.03977943 0.105001345 0.03406223 -0.031284418
000220 39 36 2c bd 4a 76 02 3d 8a 14 c8 3d 85 07 0f bc
       -0.0420439 0.03185109 0.097695425 -0.00872982
000230 af 21 11 bc 06 4e 3e 3c 66 ed a2 bb 62 23 3a 3c
       -0.008858128 0.011615282 -0.0049721478 0.011360975
000240 1d 3b bb 3c d3 f6 8d 3b ee cc 7c 3c 7a 82 19 3d
       0.022855336 0.0043324023 0.015429718 0.037477948
000250 4b c9 2c bc 60 1b 28 3d 0f 06 11 bc bf 3f d0 bc
       -0.010546039 0.04104173 -0.008851542 -0.025421022
000260 6c 15 29 bc 44 c7 27 3d 45 0c eb 3b fc 95 6e 3d
       -0.010320049 0.04096152 0.0071730935 0.058248505
000270 c1 a2 1f 3d 24 44 d3 3c 8f 49 de 3b 3f ec 8f 3d
       0.038973574 0.025789328 0.006783671 0.07027482
000280 63 72 d2 ba 3f c4 3c 3d 26 7b 32 3d 8b 4a 37 3d
       -0.0016055818 0.046085592 0.043574475 0.044748824
000290 53 24 ab 3d f4 c5 ad 3c e9 f3 b0 bc 8a a5 aa 3c
       0.08356538 0.021212555 -0.02160068 0.020830888
0002a0 66 52 91 bb 1b be 32 bb bd a3 82 3c 78 5a f0 bb
       -0.0044348715 -0.0027273956 0.015947217 -0.0073350035
0002b0 96 64 5a 3d ba 23 87 3c b1 cd 65 3d 84 ab fe 3c
       0.053318582 0.016496528 0.056104366 0.031087644
0002c0 94 2a a0 3c 85 4b e7 3c 5d 7f 24 bd 78 31 81 bd
       0.019551553 0.028234253 -0.040160526 -0.063082635
0002d0 e5 e6 96 bd 63 c9 4d 3d d4 f4 32 3d d4 74 1b bd
       -0.073682584 0.050240885 0.043690518 -0.037953213
0002e0 f8 87 ec bb b7 94 94 bd eb c8 2b bd 08 a1 51 bd
       -0.007218357 -0.072549276 -0.041939657 -0.051178962
0002f0 cb 61 f0 bc e2 f1 a1 3c 62 5e bb bc 9d 3f 14 bd
       -0.029343506 0.019768659 -0.022872154 -0.03619348
000300 a2 b7 da 3d 4b 11 97 3b 04 99 41 bd 32 2e ac bd
       0.106795564 0.004610216 -0.047265068 -0.084072486
000310 40 77 25 bc 8a 0b 07 3d 2a e9 b0 3c af 88 34 3d
       -0.010099232 0.03296999 0.021595556 0.044075664
000320 82 fa 1f bc eb ce a9 3d 4b ca 8d bb ce 92 23 bc
       -0.009764316 0.082914196 -0.0043270937 -0.009983731
000330 64 96 ff bc 70 ae 08 bd be 78 81 3d 88 70 69 bd
       -0.031199642 -0.03336948 0.06321858 -0.056992084
000340 65 7f e1 bc bf 27 b2 3c 54 d4 fc 3c 58 47 09 3d
       -0.027526567 0.021747468 0.030862965 0.033515304
000350 cb b7 9d bd aa 4b be 39 cc a5 15 bd e8 bb fe bb
       -0.07701071 0.00036295998 -0.03653507 -0.007773865
000360 b2 3d d0 3d 32 cf 61 3d ad b4 de bc d6 ab 90 bb
       0.101680174 0.055129237 -0.027185762 -0.0044150157
000370 eb a7 fa bb dc ee 35 3d ec 22 50 3c 62 fd 92 bc
       -0.007649412 0.044417247 0.0127036385 -0.017943088
000380 72 bf c3 3c 44 ee b6 3c 49 a3 37 3d 33 86 16 3b
       0.023895 0.02233041 0.044833455 0.0022968173
000390 50 fd b0 3c 5f 30 16 3c 1f 32 1d bd c5 d0 2a 3d
       0.021605164 0.009166806 -0.038377877 0.041703004
0003a0 4f 66 1d bd 4c bb af bc 0e 7e 45 3d ac 0b 85 3d
       -0.038427647 -0.021451615 0.04821592 0.06496367
0003b0 b6 79 bd bd 48 68 ac bc 08 6a f4 bc 1c 3b 06 bd
       -0.0925173 -0.021045819 -0.029835716 -0.032771215
0003c0 56 fa 39 bd 3a 9d 48 3c 69 e0 c3 3c d8 0b 66 3d
       -0.045404755 0.012244517 0.023910718 0.05616364
0003d0 0a 61 0c bd a7 31 2f 3d d5 df 10 3b 7e d7 aa 3c
       -0.03427223 0.04277196 0.002210607 0.020854708
0003e0 5d 07 71 bd fd e9 c8 3c 39 16 98 bd 0a cc 6c bb
       -0.058844913 0.024525637 -0.07426114 -0.003613236
0003f0 0f 7d 01 bd 9f c9 35 3d 91 74 61 bd ac ae 01 3b
       -0.031613406 0.044381734 -0.055042807 0.001978795

bias f4 [64]
000000 49 83 e0 bd 3e 3b 0a be 83 71 d5 bd 3b fd 45 bd
       -0.10962541 -0.13499162 -0.10422041 -0.048337203
000010 1f e4 53 bd 95 c9 04 be a7 8c 6b bd 2d 7f 5f bd
       -0.051731225 -0.12967522 -0.057507183 -0.054564644
000020 08 27 98 bd e0 cf 79 bd b9 cb 0e be e7 de ca bd
       -0.074293196 -0.06098926 -0.13944902 -0.099057965
000030 a7 65 c4 bd f4 17 b0 bd c2 69 d8 bd e7 a9 99 bd
       -0.09589701 -0.08598319 -0.10567047 -0.075031094
000040 0e 10 0b be 1d f1 c8 bd 23 a4 d5 bd 4c 7a de bd
       -0.13580343 -0.09811614 -0.10431697 -0.1086317
000050 35 e4 fa bd d9 32 88 bd 87 62 de bc 79 a2 01 be
       -0.12250558 -0.066503234 -0.02714659 -0.12659635
000060 34 c4 89 bd cc 60 7a bc 1c b3 b6 bd 37 22 6f bd
       -0.06726876 -0.015281867 -0.08920881 -0.05838224
000070 0b 08 b5 bd e3 02 b5 bd 29 69 02 bd 1a fd 7c bd
       -0.08839425 -0.08838441 -0.03183857 -0.061764814
000080 67 68 aa bc 0e 23 5a bd 31 34 c9 bd 49 c1 c4 bd
       -0.020801736 -0.053256087 -0.09824408 -0.09607179
000090 79 87 7c bd 39 08 b4 bd ef 47 b4 bd 90 fb 05 be
       -0.061652634 -0.08790631 -0.08802783 -0.13084245
0000a0 f0 43 11 be 87 c2 cc bd e7 58 6f 3c 82 81 d7 bc
       -0.14186072 -0.09998041 0.014608598 -0.026306871
0000b0 6d 87 84 bd 82 e1 10 bd d1 25 5f bd d6 ea cc bd
       -0.06471143 -0.03537131 -0.054479424 -0.10005729
0000c0 52 8f 51 bd c6 5a 2f bd 26 43 fa bd 6d be 0d be
       -0.05116207 -0.042811178 -0.12219839 -0.13842173
0000d0 d0 80 a2 bd 89 ba 1c be 2a 20 02 bc 78 e9 0e 3c
       -0.07934725 -0.15305533 -0.007942239 0.0087226555
0000e0 05 00 14 3c 46 90 0d be 90 66 49 bb f3 72 f4 bd
       0.009033208 -0.13824567 -0.0030731298 -0.11935987
0000f0 9a 09 c5 bd 73 0a 7c bd c2 1b 4e bd d1 50 0a bd
       -0.09620972 -0.061533403 -0.05031944 -0.03376848

weight f4 [64, 1024]
000000 45 b1 55 bd 16 ee ae bb a2 e7 5b 3c 43 74 36 3b
       -0.05217101 -0.0053384406 0.013421925 0.0027840293
000010 d3 1d 5b 3b d9 4a e1 3c 7b 00 9c 3c c7 14 16 bc
       0.0033434525 0.02750151 0.019043198 -0.009160227
000020 80 ae ae bb 49 c2 97 3c d3 7e 36 3d e3 67 fe bb
       -0.0053308606 0.01852526 0.044554543 -0.007763849
000030 bd e5 5d bd 38 d0 7e bd 7f 34 e9 3a 4a f2 37 bd
       -0.054174174 -0.06221029 0.0017792134 -0.0449088
000040 36 7c 1e bd e3 9d ab 3c d7 b6 16 bd 73 be c1 bc
       -0.038692676 0.02094931 -0.036795463 -0.023650384
000050 77 ac 80 bc 72 34 45 bc 46 6d 8b bc 1b 82 60 bc
       -0.015707238 -0.01203643 -0.01701988 -0.013702895
000060 86 6d 28 bd a6 c6 02 3d 83 6a dc bc 78 2f 22 3d
       -0.041120075 0.031927727 -0.026906257 0.03959605
000070 95 1a 8a 3c 25 8e 16 3c 69 3e 28 3d c9 4b 2c bc
       0.016858378 0.009189163 0.041075144 -0.010516115
000080 c2 8a 4b 3c a7 79 ef 3b 2a 6e 3b bd 58 25 c1 bc
       0.012423219 0.0073082033 -0.045759358 -0.023577377
000090 1d 86 49 bd eb 1b ff 3b 78 1c 45 3d c7 b7 19 3d
       -0.049200166 0.0077853105 0.048122853 0.03752878
0000a0 7e d1 db bc 14 33 31 bd a8 64 4b bd 18 5a 7c bc
       -0.026833292 -0.043261603 -0.04965654 -0.015402339
0000b0 37 17 01 3c f1 d0 b7 3c 02 d4 f9 3c 76 d3 8d bc
       0.00787907 0.022438498 0.030496601 -0.017312746
0000c0 93 ce 18 bc ef c5 e6 bc 27 25 07 bd f5 fe 57 bc
       -0.009326595 -0.028170554 -0.032994416 -0.013183345
0000d0 23 73 10 bd 9f 18 00 bd 28 df 1d 3d ab fe 7c 3c
       -0.035266053 -0.03127348 0.038542897 0.015441577
0000e0 25 f6 4b bd d3 19 09 3d 25 ee 37 3d e3 73 cc 3c
       -0.04979529 0.033471894 0.044904847 0.024957603
0000f0 96 b6 cd 3c 1e 4c 27 3d 8a f8 e8 3d 11 70 7f 3d
       0.025111478 0.040844075 0.1137553 0.062362734
000100 1a 24 ab bb 6b 0e 95 bc 6f cc b6 3c 09 6b ee 3c
       -0.0052228095 -0.018195352 0.022314278 0.029103773
000110 b1 20 0c bd 33 91 b6 bc df a5 a1 3c d5 b2 9a 3d
       -0.034210864 -0.022286033 0.019732414 0.07553641
000120 88 33 0e 3c 2f 10 83 3d 94 65 fe bb 40 3e ea 3c
       0.008679278 0.06399571 -0.007763574 0.028594136
000130 c3 4b f0 bb 17 4a aa 3c 0d 4b 9e 3b 87 a3 1b 3b
       -0.0073332503 0.020787282 0.004830724 0.0023748593
000140 24 8f f6 bc d6 0b 83 3d ad d0 6e 3c 59 04 07 bd
       -0.030097552 0.06398742 0.014576119 -0.03296313
000150 7a a4 b1 3b 44 df 6f bc 30 5e 2e 3d fd da b5 3b
       0.0054212185 -0.014640633 0.042570293 0.005549787
000160 60 1d ad 3c a2 56 a3 3c 89 3f 8c bc 46 57 89 3c
       0.021132171 0.01993877 -0.01712014 0.016765248
000170 6f 46 3a 3d 76 cc 4f 3d 6b 9d 56 3d 34 02 41 3d
       0.045477327 0.0507321 0.05239622 0.04712124
000180 60 32 94 bb 1c fd 12 bc 29 d7 65 39 64 26 21 3c
       -0.0045226067 -0.008971479 0.00021919295 0.009835813
000190 23 d1 bc 3b 08 9b 90 bc 56 f3 fa bc 48 7c 0a bd
       0.0057622357 -0.01765205 -0.03063361 -0.03380993
0001a0 73 04 16 3d df ab 26 3d f7 67 a8 3b 04 9e 91 3d
       0.036625337 0.040691253 0.0051393467 0.07110217
0001b0 9e d5 91 bc 70 d2 9b 3c d9 dc 20 3d f2 39 2b 3d
       -0.017802056 0.019021243 0.039273117 0.041803308
0001c0 c8 32 e1 3a ae f4 50 bd 67 85 15 bd 76 2a 0f 3d
       0.0017181272 -0.051014595 -0.036504176 0.034952603
0001d0 bf 34 02 3d 61 7a b7 bc 5d 31 59 3d eb ae 44 3d
       0.031788584 -0.022397222 0.053025592 0.048018377
0001e0 54 17 eb 3b 29 07 cf bc ab 9c 0e 3d 02 49 48 3d
       0.007174412 -0.025271969 0.03481738 0.04889775
0001f0 a8 a1 79 3d 0b cc a2 bc ce 3f 88 3c 37 a7 3b 3c
       0.060945183 -0.019872686 0.016631987 0.011453441
000200 71 1c 0d 3b 97 8c 82 bb 23 eb 1e 3d 5b 7d 4f bc
       0.0021531845 -0.003984045 0.038798463 -0.012664164
000210 43 75 45 3d 38 52 0a 3d 83 22 fe 3c 99 99 18 3d
       0.048207533 0.033769816 0.031022316 0.037255857
000220 01 9b 7f 3d 16 8a ad 3d ae 84 a0 3c 35 68 90 3d
       0.062403683 0.084736034 0.019594517 0.07051126
000230 4a 56 2f bd 89 89 30 39 d1 21 99 38 c5 2d ea bc
       -0.0428069 0.00016835904 7.301907e-05 -0.028586278
000240 95 39 29 3c 34 d4 95 bc 6c fc 05 3d 04 f8 9f bc
       0.01032867 -0.018289663 0.03271143 -0.019527443
000250 e5 45 7a 3b 9e 99 e9 3c 6c 14 a8 3d 5f 4f 07 3d
       0.0038188633 0.028515633 0.0820702 0.03303468
000260 dd c2 ae 3c 1e e1 b0 3d c0 ff d6 3c 4d 7a 2b 3c
       0.021333152 0.08636688 0.026244998 0.0104661705
000270 9c d6 14 bd 3a 54 a1 3b c3 c3 92 bc 92 3d 55 bd
       -0.03633748 0.0049233707 -0.017915612 -0.05206067
000280 03 c8 97 3c 18 d0 5e bc 3f 84 84 bd e8 5d ba 3b
       0.01852799 -0.013599418 -0.064705364 0.005687464
000290 a1 cb 0e 3d 8c 4a 15 bd 44 5d 06 3a 12 8a 90 3d
       0.034862164 -0.036448047 0.0005125592 0.07057585
0002a0 0f 5c 07 3d b9 c9 7f bc 67 5c 42 bb bc c1 83 3d
       0.03304678 -0.015612059 -0.0029657127 0.06433436
0002b0 17 e8 3f 3c f3 5f 2f bd c4 f5 37 bb cb 30 38 3d
       0.011713049 -0.042816114 -0.0028070072 0.044968408
0002c0 e3 16 d5 36 60 c0 59 3c 63 03 9f bb 73 88 88 bc
       6.350559e-06 0.013290495 -0.0048526987 -0.016666627
0002d0 25 cd 01 bd 6c fb 45 3c 23 c3 0a bd 78 cc 8c bc
       -0.03168978 0.012083869 -0.033877503 -0.017187342
0002e0 01 70 8c 39 d7 bb fc 3a 75 be 53 bd 0d b4 b2 bc
       0.0002678633 0.0019282055 -0.051695306 -0.02181437
0002f0 a9 16 a1 3c 7d 1e a9 3c 9f 73 96 3d d2 06 57 3d
       0.019664126 0.02064442 0.07346272 0.05249674
000300 b3 98 c3 b9 db 9c 5f bd d5 a8 51 3c 9e ae df bb
       -0.00037307068 -0.05459295 0.0127966 -0.006826236
000310 92 62 9f 3c 59 7a 8d bd 52 0b d9 bc 12 af 0a bd
       0.019456182 -0.069081016 -0.026494656 -0.033858366
000320 83 27 fc 3c 8e a8 05 bc 32 b0 58 3c 10 4e 5f 3c
       0.03078056 -0.008157862 0.013225602 0.013629451
000330 6b bd aa 3d 44 82 1f bd 1c a7 a3 3c 13 f6 e3 bc
       0.0833691 -0.03894259 0.019977145 -0.027827298
000340 f3 34 62 3c 10 15 f3 bc c5 1e 52 bc b2 4a d5 bb
       0.013806569 -0.02967313 -0.012824719 -0.0065091485
000350 d9 9e 86 ba 31 7b 1b 3d 14 50 9f 3c b8 c7 3c 3c
       -0.0010270729 0.03795928 0.019447364 0.011522226
000360 25 ad 3c 3c af d6 d1 3c 49 87 c6 3c 9b 9a 83 3d
       0.01151589 0.025615064 0.02423443 0.06425973
000370 4e 49 76 bd fa 49 28 bd 02 b9 1a bc 1e 4e eb bc
       -0.060128503 -0.041086175 -0.009443523 -0.028723773
000380 dc 57 1e 3d 7c 99 ca 3c e4 d6 80 3d b6 1e 37 bc
       0.038658008 0.02473139 0.06290987 -0.011176756
000390 c0 23 d3 3b 54 c9 8a ba 09 c8 ec bc 31 e6 02 3c
       0.0064434707 -0.0010588565 -0.028903978 0.007989452
0003a0 c7 8a 6e 3c 06 77 70 bd dc 57 e2 3c a4 68 a2 bd
       0.014559454 -0.05870726 0.027629785 -0.07930115
0003b0 88 f8 88 bc 09 2b 32 bd 7f 9b 51 3c 7f e5 05 3c
       -0.016720071 -0.043498073 0.012793421 0.008172392
0003c0 7c 24 01 bb c4 d9 96 3b 03 82 01 bc 5d 87 fb bc
       -0.0019705584 0.0046035964 -0.007904532 -0.030704195
0003d0 e7 17 01 3d 72 4a 3b bc 19 1e f1 bc ba 43 61 3c
       0.031516936 -0.011431323 -0.029433297 0.013749057
0003e0 4d 74 1b bb 12 86 40 bd 12 4f 0b 3d 0a 33 f0 bc
       -0.0023720444 -0.04700286 0.034010954 -0.029321212
0003f0 31 75 a2 3c 7c b9 80 3d 28 01 50 bc 18 27 a8 3c
       0.019831272 0.06285378 -0.012695588 0.020526454

bias f4 [64]
000000 03 25 91 bc c3 f8 00 3c ee 1a e4 bc 1a 7a 8a 3c
       -0.017717844 0.007871809 -0.027844872 0.016903926
000010 67 bb c8 bc b2 cf 4b 3d 6a 48 48 bc a1 cc 6c bc
       -0.024503423 0.04975862 -0.012224296 -0.014453084
000020 43 95 88 3c e7 39 f0 bb 7e 17 d1 bc 42 5e 3f bd
       0.016672736 -0.0073311212 -0.025523897 -0.04672075
000030 ba 6f 7e 3c 4a fb 5d 3d 53 8b 00 3c f6 b1 bc bb
       0.015529567 0.054194726 0.0078457175 -0.0057585193
000040 6b 3c de 3c 6b 26 eb 3b da d6 b3 bc f9 c5 1a 3d
       0.027128419 0.0071762106 -0.021953035 0.037786458
000050 a4 e8 40 bd f4 d0 b3 3c 45 0a 93 3c 6a 64 11 bd
       -0.047096863 0.021950223 0.017949233 -0.035496153
000060 d6 dc bd 3c a8 39 0f bd fd 2d c1 38 62 8a 07 bd
       0.023176592 -0.034967095 9.211523e-05 -0.033090957
000070 45 d8 a3 3d da 0c ee 3c f1 24 9b bc 74 db 9f 3c
       0.080002345 0.029058862 -0.018938513 0.019513823
000080 5e d3 65 bd c8 e1 31 3d a7 a3 9f 3b 63 f8 41 bd
       -0.05610978 0.043428212 0.004871804 -0.04735602
000090 f4 ef e5 bc 9c 86 ce 3c 4d f7 3f bd 8f 1f 52 bd
       -0.02806852 0.025210671 -0.046866704 -0.051299628
0000a0 ec 02 52 bd a7 0a c5 bc a3 d5 2d bd 6b 97 3b bd
       -0.051272318 -0.024052931 -0.042440068 -0.0457987
0000b0 77 0e a7 3c 98 63 28 bc cd 34 43 bc cd 95 36 bd
       0.02039264 -0.010277651 -0.011914444 -0.044576455
0000c0 14 e8 06 bd b7 8b d3 bc 0d 17 0b 3d aa f1 87 3d
       -0.03293617 -0.025823457 0.03395753 0.06637891
0000d0 a7 06 f7 3c 0b 6c e8 39 94 51 30 ba a3 dc a4 bb
       0.03015454 0.00044330987 -0.0006726023 -0.0050311848
0000e0 00 50 d0 3b fd 62 29 bd eb 77 53 bd 7c 7a 88 3c
       0.006357193 -0.04135417 -0.051628035 0.016659968
0000f0 db f5 1a 3d 97 79 2b bd c4 a7 0e 3d 37 e3 03 3d
       0.037832122 -0.041864004 0.034827963 0.03219911

weight f4 [10, 64]
000000 13 a1 63 3d 02 8c 76 3e 9d 3c 04 be d7 13 2c bd
       0.055573534 0.24076846 -0.12913747 -0.04201111
000010 e0 70 54 be ce 37 83 be 27 73 e3 3d d1 b4 80 3e
       -0.20746183 -0.25628513 0.11105948 0.25137952
000020 d5 dd 72 3e 9d dc 7c 3d 84 16 83 be dc ef 88 3e
       0.23717435 0.06173383 -0.25603116 0.26745498
000030 94 ab be bd 16 c0 55 3d 56 e1 98 be 46 38 81 3e
       -0.0931007 0.05218514 -0.29859418 0.25238246
000040 16 81 66 3e ee 18 9b be 1b ab 71 3e d8 e0 6e be
       0.2251018 -0.30292457 0.23600428 -0.23327959
000050 1b 66 38 3d 12 39 64 be f1 d7 93 bc 4a 2f 59 3e
       0.04501925 -0.22287396 -0.018047305 0.21209446
000060 04 40 0f be 8a fe 1a bd bc 5f 4e be 4e aa 04 be
       -0.13989264 -0.037840404 -0.20153707 -0.12955591
000070 20 03 8b be 58 c1 fd bc ba 8e 38 bd 3e 8d 3a 3d
       -0.27150822 -0.030975983 -0.04505799 0.045544855
000080 ff 92 a8 3e e8 aa 90 be a1 ab b1 bd a6 92 89 3d
       0.3292465 -0.2825539 -0.08675314 0.06717424
000090 a6 2a 5e be e4 36 e5 bd 1d 94 ac 3e 73 04 88 be
       -0.21695957 -0.1119211 0.3370675 -0.26565894
0000a0 3c 22 90 3e f4 a1 a7 bd 3e 62 d0 3d b9 34 51 3e
       0.2815112 -0.08185187 0.10174988 0.20430268
0000b0 03 c7 f8 3b 3c 4b 84 be 1b 0b 89 3d b6 d2 e8 bd
       0.0075920834 -0.2583865 0.06691571 -0.11368315
0000c0 e6 6e 9c 3e 04 16 a9 bc 6d aa 93 be d1 af 14 be
       0.3055336 -0.02064038 -0.28840962 -0.14520194
0000d0 c2 05 03 3e 7c a5 1a bd d5 46 17 3e a2 d3 0e 3d
       0.12795165 -0.037755474 0.14773114 0.034869798
0000e0 0e b6 4f 3d 85 5c ac 3e fc c7 31 3e 9c d6 a0 be
       0.05071073 0.33664337 0.17361444 -0.31413734
0000f0 0f a2 2a be 05 fe a2 3b 93 df 05 be 7d c4 45 3d
       -0.16663383 0.004974129 -0.13073568 0.04828309
000100 65 83 2d 3e 28 be 99 bd d0 63 32 3e c7 cd 8a be
       0.16944654 -0.075069726 0.17420888 -0.2711012
000110 44 46 09 bd 9d 37 86 3d 2f 2c fa bd 60 01 97 be
       -0.033514276 0.06553576 -0.122154586 -0.29493237
000120 19 8b b1 be f3 a7 c2 ba b2 9a a1 be 05 28 5e be
       -0.34676436 -0.0014851078 -0.31563336 -0.21694954
000130 f3 bf df bd a7 1a 78 be ad 41 ac 3e 91 15 d2 bd
       -0.10925283 -0.24228917 0.33643857 -0.1025802
000140 c2 6c a2 bd 67 bf 97 3e ed ba b8 3d 2c 57 48 be
       -0.079309 0.29638216 0.09020028 -0.19564503
000150 37 a9 3a be 64 7c 0f be df 29 71 bd be 1a 88 3e
       -0.18228613 -0.14012295 -0.058877822 0.26582903
000160 f9 69 f0 3e 7a f2 99 3e 58 c5 66 3e ff d1 cb 3d
       0.4695585 0.30067807 0.22536218 0.09952163
000170 cb db 9d be 08 e6 7b be 27 bc d0 bd f6 f7 41 3e
       -0.3083175 -0.24599469 -0.10192137 0.18942246
000180 04 0f 9a 3e 4e c4 03 3e c5 71 d0 bd 76 fe 8f be
       0.3008958 0.12867853 -0.1017795 -0.28123826
000190 4d 71 03 be 17 b1 1f 3e c4 1d 92 be 69 d2 e0 bd
       -0.1283619 0.15594898 -0.28538334 -0.109776326
0001a0 87 66 16 3e 9a 6e 1e bd fc f1 cc 3c a0 0d a4 3d
       0.14687549 -0.038679697 0.02501773 0.08010411
0001b0 83 91 a2 be 4d 17 8b be 11 5f e6 bd 73 50 a4 3e
       -0.31751642 -0.27166215 -0.11248601 0.32092628
0001c0 b4 dc 44 bd 6c f2 49 3e 5e 6d 6d be f2 8f 75 be
       -0.04806204 0.19721383 -0.23186252 -0.23980692
0001d0 43 b6 da be b6 ce 8c 3e 0f a5 61 be 06 cb 0f be
       -0.4271718 0.27501458 -0.22035621 -0.14042291
0001e0 2a 4e e0 3e e5 da 50 3e ab 0f a8 3b cd 64 c4 3e
       0.43809634 0.20396002 0.005128821 0.38358155
0001f0 9b c1 f9 be 2f b5 30 be 6b 0a ae be d2 87 87 be
       -0.48780522 -0.17256616 -0.33992323 -0.2647081
000200 ca b8 b7 be 63 af 34 bc b2 e6 b3 be 22 f8 52 3e
       -0.3588317 -0.011028144 -0.35136944 0.20602468
000210 8d 55 f0 bd 01 d3 c6 bd 85 6a cc 3d f7 1e 7f bd
       -0.117350675 -0.097082146 0.099812545 -0.06228539
000220 d7 9c 11 3c a3 09 0c be b7 f2 67 3e 58 49 8e be
       0.008887491 -0.13675551 0.22651182 -0.27790332
000230 de 01 d1 3c 93 d5 0d 3d 88 40 b5 be 82 df 8b 3e
       0.025513586 0.03462751 -0.35400796 0.2731896
000240 d9 48 9e bd d4 dc 3b be 9b 7c 3c be d6 03 08 3e
       -0.07728738 -0.18345958 -0.18406908 0.13282713
000250 26 49 6d 3d e6 35 dd 3d d3 c7 6b be 08 59 9f be
       0.057931088 0.10801296 -0.23025446 -0.31122613
000260 8b f4 21 bd e0 3b 82 3d fc dc 3d be 11 88 2b 3e
       -0.039539855 0.063590765 -0.1854133 0.16751124
000270 18 97 23 be f2 e7 72 3e 68 93 4b bd 19 92 73 3e
       -0.15975606 0.23721293 -0.049701124 0.237862
000280 71 67 89 3e 0c 90 e9 3d 71 83 4b be 21 ee 80 bc
       0.26836732 0.11404428 -0.1987436 -0.015738549
000290 c6 0e 8a 3e 4a 74 0b 3e 57 63 32 3e ce 40 ab be
       0.26964396 0.1361858 0.17420708 -0.3344788
0002a0 0d 90 fd 3d e9 a6 fe 3d df 4f ea 3c 6a 6d 03 3d
       0.12380991 0.12434179 0.028602539 0.032086767
0002b0 c1 c6 fe 3d 78 67 9b 3e 7d 92 d9 3e 8e ec ac bc
       0.12440253 0.30352378 0.42494574 -0.021108892
0002c0 54 62 f3 3d 9c b4 9c 3e 45 92 9e 3e a3 0c 64 3e
       0.11883989 0.30606544 0.3097097 0.22270446
0002d0 e8 f4 04 be 10 09 71 3e 71 73 1f 3e 58 28 41 3e
       -0.1298405 0.23538613 0.15571381 0.18863046
0002e0 fd 08 13 3d 18 ae 18 be 55 b2 85 bd e2 e8 73 be
       0.035897244 -0.14910161 -0.06528155 -0.23819306
0002f0 36 6e a4 3e 67 96 7b 3d 4e d5 06 3e bb 35 93 bd
       0.32115334 0.06142273 0.13167307 -0.07187983
000300 48 d3 2a be e2 e2 49 3e 60 ae 7d be 13 4d 44 be
       -0.1668216 0.19715455 -0.2477355 -0.19170026
000310 1e 69 d6 bd 81 21 81 3e fa 38 b6 bc 57 37 bd bc
       -0.10469268 0.25220874 -0.022243965 -0.023097677
000320 4d 6f 4b be e2 06 5e 3e 2a 10 67 3e b7 3e e9 3c
       -0.19866677 0.21682313 0.2256476 0.028472288
000330 31 88 02 3e 22 48 83 be c9 7d 8c 3e 54 30 f6 bd
       0.12747265 -0.2564097 0.27439716 -0.120209366
000340 ca 78 ee 3d 3b 22 6d 3e 53 e1 47 bd 44 91 45 b8
       0.116441324 0.23157589 -0.04879887 -4.710375e-05
000350 97 55 2d 3d cf 39 10 3e f6 0b 79 3e 87 9b f1 bb
       0.042317953 0.14084552 0.24320969 -0.0073732766
000360 99 1a 9a bd f9 17 42 bd 6b 22 5a be 44 05 65 be
       -0.07524604 -0.047386143 -0.21302192 -0.2236529
000370 b5 b6 db 3d 9c d3 b5 3d 3e fd 94 3e b0 1f 10 be
       0.10728208 0.08878252 0.29099458 -0.14074588
000380 61 92 bb bd ba 21 1f 3d 0d a2 11 3e 93 2b df bd
       -0.09158779 0.038850524 0.14221974 -0.10896983
000390 75 5f 45 3e 1b ce db 3c ac 48 f0 3d 8e 17 c1 3d
       0.19274695 0.026831677 0.11732611 0.09428321
0003a0 3c b6 3f 3e b7 78 8a 3e 61 2f c5 be 56 e6 80 bd
       0.1872186 0.27045223 -0.3851271 -0.06293933
0003b0 10 71 53 3d 6a 74 eb 3d e0 2e 2e 3e 59 8e 65 be
       0.051621497 0.114968136 0.17010069 -0.22417583
0003c0 1e 40 82 bd 86 48 d2 bd 39 ff 45 be ee 18 95 3c
       -0.06359886 -0.10267739 -0.19335641 0.018200364
0003d0 97 ae 18 3e c1 32 61 3e c3 b3 f3 3d 8d 26 85 bd
       0.1491035 0.21992017 0.11899521 -0.065014936
0003e0 3b b8 1d be 18 da 24 be 9e b5 27 3e 0b e3 96 bd
       -0.1540231 -0.16098821 0.16377875 -0.07367524
0003f0 2b 9e 78 3d 29 24 0f be 7b e6 cc 3d 58 22 80 bd
       0.060697716 -0.13978638 0.10004898 -0.062565506

bias f4 [10]
000000 04 2a 91 bd 36 43 d3 3d ad 40 bc bc bb 76 b9 3d
       -0.07088092 0.10315554 -0.022980059 0.09055849
000010 1b 21 d9 3d 02 e9 ef bd d9 1e bb 3d ee 39 d1 bc
       0.106020175 -0.117143646 0.09136743 -0.025540318
000020 07 09 ff bb 6c 76 fa 3c
       -0.0077830586 0.030574046
