try_train/cifar10_models/cifar10_net_4.pth (torch, 589388 bytes, 10 tensors)

weight f4 [32, 3, 5, 5]
00000000: 35d0 6fbc fb46 113e 1408 023e e23b 69bd
00000010: c117 083e dc05 95bd 4843 babc 4eaa c5bb
00000020: 5602 0c3e 7731 803d b706 a9bd 2f8a 263d
00000030: 608f 83bd b98d 883c 48f3 cfbd a59b 56bd
00000040: 201f 0ebd d994 02be c3cb c2bd 8739 dbbd
00000050: 22a4 c33d 80c1 42bd 918b f5bd 9c14 da3b
00000060: 0340 13bd d90b bcbd 4262 f8bc 8b51 6bbd
00000070: c04d 9bbd d9c1 bdbd a3f3 553d 900a ccbd
00000080: a5be f7bd c694 c53c 9d94 00bb 4516 c1bd
00000090: be52 b63a d898 c8bd 1ea3 1c3a 521f 9fbd
000000a0: 2f35 ea3d 9633 f93c f221 88bd 1ed3 4bbc
000000b0: 45be 0bbe 4764 b63c 140d 913a dc76 debd
000000c0: 6709 e7bd 7ec6 8a3c 81cb 143c ff5f 963d
000000d0: 5af3 033e 62e1 a33a 3ae3 bebd 3ad7 82bc
000000e0: 0dab af3b 5a8e 8d3a b19d 82bc e9d7 fabc
000000f0: 3cc2 683d 0fcb c6bc 8df8 98bd 3d51 c9bd
00000100: 0260 8abd fbe2 b13d 9487 a03d 96bd f9bc
00000110: 8ca7 393c 8c6e a33b f499 063e 29eb 8b3d
00000120: 8c08 b4bd 1e80 93bd 1014 cebd d513 fcbd
00000130: 96b4 b6bb 802c 10be 5bcd 913c 6d8f e5bc
00000140: 6fec 153d 2ca7 8dbc 400f 923c fef5 80bd
00000150: 46af 673d 86d2 843d df3e 96bc 7a06 063d
00000160: 48a3 01bd 0053 a33d 4537 aebd 4e6b f7bc
00000170: 5b70 10bd 34a7 abbd 6224 16bc fbf2 bcbc
00000180: 5a25 abbd 7aab b8bc 5db5 b0bd b2b0 b0bd
00000190: 96c6 9ebb efd9 973c 57e4 c3bd 6fae 843c
000001a0: 8fa3 13be d0e5 43bd 2541 11bd 26b2 433d
000001b0: c7ff d83d 6323 9e3c bda4 25bd 886e d8bc
000001c0: fd3c 1bbd 4758 c13d 8d58 b6bb e51d 603b
000001d0: 46d6 8dbd ce80 bfbd 67da 95bd 1320 98bd
000001e0: 7a30 84bd df09 01be 64a1 e6bd c815 29be
000001f0: a6a2 febd 9b75 0f3a 53ba f63d eaeb 31bc
00000200: 9cf3 67bd a9e7 9b3c 16d9 0b3e 11db dc3d
00000210: 7677 283e a4b1 9f3d 1473 013d 8cce 3d3e
00000220: d46c 2e3e 8750 643e 05c4 ea3d 6f2f 0f3e
00000230: bcb0 283e 834c 2d3e c908 2e3e f87a cf3d
00000240: d1b5 353e 7b1b 8a3c b0cd b7bc 3fb9 a33d
00000250: 3866 0d3e 1071 533d 55eb 823c a26c 8dbc
00000260: 5305 893c 4232 12bd 204b 5cbc 4ea3 de3d
00000270: 68e8 debd ca00 b03d 94a4 7e3d d899 4abd
00000280: e822 86bc 4304 74bd 1223 aebd 362f e1bb
00000290: d870 693d 0fcb e9bd 0797 733d 54b5 933d
000002a0: 023b 6bbc 6c17 cb3c c241 cbbd 188a 8abd
000002b0: 1236 c4bb c2a4 34bd 904b c7bd a4ae ce3d
000002c0: 87aa 4bbc 1c22 b63c 94e7 0a3d dae0 d9bb
000002d0: f5aa 503d a5e8 87ba 41b3 e53b 19b5 983d
000002e0: 5a6c 583d e819 bc3c 52a5 8ebd 2f25 fd3d
000002f0: 4b1b 8a3c cb33 a1bd a436 b9bd 9477 edbc
00000300: c5a4 a13c 0620 c03d 88a3 db3d 63f9 87bc
00000310: ab7c cf3c 66bc bebd a407 dc3d 7d1e a23c
00000320: 64b7 9d3c 2202 b0bd 4f77 df3d 2d57 9cbd
00000330: 303e 833c d697 aa3d a7a6 a0bd 1811 ce3c
00000340: e472 3fbd e81f c13d d2ef bcbb 3a21 8bbd
00000350: 0e94 0fbd 9b24 89bd 395b 693d 8219 653c
00000360: e865 c3bd ec50 e73d 0c8f ba3d 6037 d9bd
00000370: 6f3b babd 11e2 9c3d 3b82 d5bd 1c33 d9bd
00000380: ea11 fabd ef60 38bd c93f b63d 8edc 023e
00000390: f7d4 79bc 75b2 d43d 5d29 2fbd 3af8 593d
000003a0: dd70 2ebd 0a57 8c3d 91b7 84bd 8ef6 8f3d
000003b0: 5cb4 a5bc 5623 903d defa ce3d 6b8d 4bbd
000003c0: 993e 4fbd 363c c4bd 088c 5d3c 9e6b 613c
000003d0: 432a bb3d e525 36bd 3eeb 55bd 6406 19be
000003e0: afec d1bb a5cd d9bd 326f 71ba 8301 64bc
000003f0: 9ccd f2bc 1ed0 8a3d 49ae 6c3d 7a8e 65bd
-0.014637043 0.14187233 0.12698394 -0.056941874 0.13290311 -0.07276508 -0.02273716 -0.006032265
0.13672766 0.06259435 -0.08253234 0.040659126 -0.06423831 0.016669141 -0.10153824 -0.052394528
-0.034697652 -0.12752093 -0.09511521 -0.10704332 0.0955279 -0.047547817 -0.11989511 0.006655289
-0.03594972 -0.09181947 -0.03032029 -0.057450812 -0.07583189 -0.09265489 0.052234303 -0.09962952
-0.120969094 0.024118792 -0.001961983 -0.09428076 0.0013910157 -0.09794778 0.0005975234 -0.07769646
0.11435925 0.030420106 -0.066470996 -0.012440471 -0.13646801 0.022264613 0.001106652 -0.108625144
-0.1128109 0.016940352 0.009081722 0.073425286 0.128858 0.0012503082 -0.09320684 -0.015971769
0.005360967 0.001079987 -0.015944334 -0.030620532 0.05682586 -0.024266748 -0.07469282 -0.09829948
-0.06756593 0.08685871 0.078383595 -0.03048591 0.01133145 0.0049875434 0.13144666 0.068319626
-0.08790693 -0.07202171 -0.1006242 -0.1230847 -0.0055757267 -0.14079475 0.017798116 -0.028022492
0.036602434 -0.017291628 0.017829537 -0.06296919 0.05656364 0.06485467 -0.018340526 0.03272102
-0.031649858 0.07974815 -0.085066356 -0.030202534 -0.0352634 -0.08381501 -0.009163948 -0.02306508
-0.083567336 -0.022542704 -0.08628342 -0.08627452 -0.0048454506 0.018536536 -0.09565037 0.016196458
-0.14417861 -0.04782659 -0.035462517 0.047777317 0.10595661 0.019303983 -0.04044031 -0.026419893
-0.03789996 0.09440666 -0.0055647553 0.0034197506 -0.06925635 -0.093507394 -0.073170476 -0.07427993
-0.06454559 -0.12601422 -0.112612516 -0.16512215 -0.124333665 0.00054725417 0.12047257 -0.010859469
-0.05662881 0.019031363 0.1365703 0.10783971 0.1645182 0.07797554 0.031603888 0.18535823
0.17033702 0.22296344 0.11463169 0.13982938 0.16473669 0.16923718 0.16995539 0.10130876
0.17745139 0.016858807 -0.022436947 0.07994317 0.13808525 0.051621497 0.015981356 -0.017263714
0.016726172 -0.03569246 -0.013445646 0.10870992 -0.10884172 0.085939005 0.062168673 -0.049463123
-0.016374066 -0.059574377 -0.08502783 -0.006872083 0.05699238 -0.114156835 0.059470203 0.0721232
-0.01435733 0.024791442 -0.09924652 -0.067646205 -0.005987891 -0.044102438 -0.09731209 0.10091904
-0.012430794 0.022233061 0.033912256 -0.006649119 0.050944287 -0.0010369016 0.007009894 0.07456417
0.052837707 0.022961572 -0.06965126 0.12360608 0.016858717 -0.07871207 -0.09043625 -0.028987683
0.019731889 0.09381108 0.107245505 -0.016598409 0.025328001 -0.09313278 0.10743645 0.019789929
0.019252487 -0.08594157 0.10911428 -0.07633815 0.016020864 0.08329742 -0.078442864 0.025154635
-0.046740428 0.09429914 -0.0057658935 -0.06793447 -0.035053305 -0.06696435 0.056971762 0.013983132
-0.095409214 0.112947315 0.09109315 -0.10606265 -0.09093367 0.07660306 -0.1042523 -0.106054515
-0.12210448 -0.045014318 0.08898885 0.12779447 -0.015248529 0.103856005 -0.042764056 0.053215243
-0.042588104 0.06852539 -0.06480325 0.070294484 -0.020227604 0.0703799 0.10106443 -0.049695414
-0.050596807 -0.09581797 0.013522156 0.013758568 0.0913892 -0.044469733 -0.052226298 -0.14943844
-0.0064063887 -0.10634927 -0.000920999 -0.013916376 -0.029639058 0.067779765 0.0577834 -0.05604408

bias f4 [32]
00000000: b392 413d 38ba 9cbe f2a1 21bd d2ad 963d
00000010: dc21 9b39 c4ea dfbd 7d84 2d3d 18ce 09bd
00000020: 2dde 51bc 6138 abbd 1a4b 21be 8737 c4bc
00000030: 82a3 dd3d 2e44 8ebc 7a1c b2bd 707d 673e
00000040: 9052 a13d 7281 dc3d 641e fdbd c43c 44bd
00000050: 94c9 b43c cb7f 863d 1185 17be 9d6d 06bd
00000060: 42eb d53c d698 8bbe 9be7 8c3c 03a6 b8bc
00000070: 3b13 653e 526f acbd 67ae a1bd 9b51 e6bc
0.047259044 -0.30610824 -0.039461084 0.07357372 0.0002958913 -0.1093345 0.04236268 -0.033643812
-0.0128093185 -0.08360363 -0.15751305 -0.023952259 0.10822202 -0.017366495 -0.08696838 0.22606444
0.07877076 0.10766877 -0.12359312 -0.047909513 0.022068776 0.06567343 -0.14796855 -0.03281938
0.026113156 -0.27265042 0.017200282 -0.022540098 0.22370617 -0.0841967 -0.07894593 -0.028115084

weight f4 [32, 32, 5, 5]
00000000: 2ae1 c43b 8293 823c 8af0 313c ec9a debc
00000010: bf12 87bc 706b 67bc d508 283d 9852 31bc
00000020: 016e e53b eb62 36ba a9df b33c 8cc7 d33c
00000030: 0bb7 8cbb 821c 9e3b 484f cbbb f967 a7bc
00000040: 92c7 88bc 4529 3b3c a220 263d 0376 603d
00000050: 6341 c3bc bfcf 8fbc c82f 43bc 5480 303d
00000060: 12d4 353d 0b03 1abc 905e b6bb 74cd c63c
00000070: d8d3 9fbc e013 d6bc 3351 13bc 8b28 313c
00000080: 18c5 183c 1a3d 51bb ae53 55bc f074 c03b
00000090: 6c3a 233c 3346 23bd 58b8 07bd 80d8 023d
000000a0: 0a53 dc3b cd51 ddbc d3ec b2bc 57ed cabc
000000b0: c047 7cbb 6934 b73c 84e4 f9bc 8b13 093c
000000c0: 4bee e73c c9dd febc 7ee7 bf3c 768e d0bc
000000d0: cd8a 95bc 5807 a23c e9c7 babc b425 ebbc
000000e0: 3e05 05bd 7a59 983c 21bc dabc e86e 8abc
000000f0: f928 48b8 b480 bbbc 4db7 20bd 49b5 053d
00000100: 09fe a33c 5867 ec3c 1852 14bd 3114 35bd
00000110: e59a 353b d964 f03c 9a21 16bd fdaa e53b
00000120: be08 5e3b 4d39 363c 6f9b 07bd f2c9 6b3c
00000130: be6d 933b b8bf 0c3d e98a 29ba c4c8 ee3a
00000140: 2520 13bd 5e89 84bc fccc 95bb 8c53 d63c
00000150: d4b3 aebc 3096 88bc e0f4 26bc 633b 833c
00000160: 40a6 a0bc aed8 393d 4bb2 d73b 2357 19bd
00000170: e09f 2fbd 54b7 e13c 9607 1a3d 1f30 b9bc
00000180: 960e 123c d226 e3bb 1fc8 1bbd d64a 0b3a
00000190: 1ee5 f13c 5684 f33c 6cd7 aabc c0b3 ddbb
000001a0: 5ef6 f2bc d9fa b2bb cb06 9fbc cf7e 9cbb
000001b0: 2a91 12bb 35dd 183d a4cc 263c 2cae 7b3b
000001c0: 7e7a 76bc c6ce 87ba 29df 18bc 1ffc bb3c
000001d0: ed4e 253c 0fef f4bc e4ee f53c fe24 e63c
000001e0: d1a4 71bc 7985 183b 8422 cf3c 1981 cc3c
000001f0: 2ed5 59bc 59a3 583b 9702 e23b 7fba 8e3c
00000200: 75af 1eba c60d da3b c23b 083d a7e7 dbbc
00000210: 22f4 173d eb1c a03c 4c18 acbc 0835 98bc
00000220: 3287 483c c424 d3bc cdc0 163c 6ffd 39ba
00000230: 01dd a4bb 0085 20bd 51ff 18bd 08eb 053d
00000240: 2859 b03c 2836 f9bc c6df 723a c93f d2bc
00000250: 8580 ecbc 2eb0 5b3c 6971 4a3c b948 153d
00000260: 2cd4 b73c 0141 573c 83ec 30bc 83ac 8cbb
00000270: 74c1 52bc fe75 24bc eff5 bc3c 28a3 1abc
00000280: 30f1 bc3c d1a2 b4bc 6996 65ba 8a2e 103d
00000290: 9c50 8ebc 6d02 22bd ed5b c1bc e1d0 b2bc
000002a0: 96ad b53a 4fda 9c3c 681f 8ebc 6e19 c2bc
000002b0: 7607 b3bc 4488 c7bc 228a e43b 46fc 8bbc
000002c0: 0591 863c 5e5b 0cbd 8b59 a7bc afa8 ff3c
000002d0: 6419 37bc cbab 6abc b1e7 1dbc af24 b03c
000002e0: 22b1 5c3c b41d e63b c3d4 c2bb 1f96 03bc
000002f0: daf0 c4bc c58e cbbc c95f 293d c583 383d
00000300: f21e d53c a737 7abc 51b8 9fbc 06de d8bc
00000310: 12c8 23bc 8b96 893c fa78 a7bc 0d73 f2bb
00000320: 26e0 5a3c e2b3 a43c 527a 1c3d c8f7 ba3c
00000330: d73b d5bb 23c8 00bd 1485 04bd 1519 d23b
00000340: fb9b 4f3c 1f1d 6f3c 90fa b1bc 0045 95bb
00000350: 201c e6bb b496 b23c 7504 d2bc 9bd6 f0bc
00000360: 46b8 963c 5649 393d 49a0 5f3d cea9 e03c
00000370: 2847 52bc b365 26bd 2f12 6b3c 3609 3b3d
00000380: a6c1 9c3c bf5a e73c 6192 01bb 703e 39bc
00000390: 33e0 723c 28d9 d93b 3f1e 88bb af64 95ba
000003a0: 9d84 20bc f579 7e3c b2fe 183d 70fd fb3c
000003b0: 9548 783c c4e8 e5bc 013a 71bc f3cc 6d3c
000003c0: 9233 dbbc 599a 83bc 02b5 26bd 3e1a f3bb
000003d0: 12ef d6bc af80 a43c 1aba ae3c 182c 23bd
000003e0: 119f 2cbd 373e 71bc 1dc2 c23b 1751 03bd
000003f0: 4d1f 81bc fb9e 0a3d 2b28 193d 67ee 083b
0.006008287 0.015939478 0.010860572 -0.027173482 -0.016488431 -0.014124736 0.041024048 -0.010822915
0.007001639 -0.0006957489 0.021957235 0.025851987 -0.0042942814 0.0048251757 -0.0062045194 -0.02043532
-0.016696725 0.011423414 0.040558465 0.054800045 -0.02383489 -0.017555116 -0.011913247 0.043091133
0.0443917 -0.00940014 -0.005565472 0.02426789 -0.019510195 -0.026132524 -0.008991527 0.010812889
0.009324335 -0.0031927289 -0.013020439 0.005873315 0.009962659 -0.03986187 -0.03313479 0.03194475
0.006723766 -0.027016545 -0.021841442 -0.024771376 -0.0038494915 0.022363858 -0.030504473 0.008366476
0.02831187 -0.031111615 0.023425814 -0.025458556 -0.018254662 0.019778892 -0.022800403 -0.028704502
-0.032475702 0.018597353 -0.026701035 -0.016898587 -4.7721875e-05 -0.022888519 -0.03923731 0.03264359
0.020018594 0.028857872 -0.036211103 -0.04420871 0.0027710733 0.029344963 -0.03665314 0.007008909
0.0033879722 0.01112206 -0.033107217 0.014391409 0.0044991663 0.034362525 -0.00064675376 0.0018217792
-0.035919327 -0.016178783 -0.004571555 0.026162885 -0.021325983 -0.016673177 -0.010190219 0.016019529
-0.019610524 0.045372657 0.0065825335 -0.037436616 -0.042877078 0.027553238 0.03760489 -0.022605954
0.00891461 -0.006932118 -0.038032647 0.00053135806 0.029528197 0.029726189 -0.020854674 -0.0067658126
-0.029658493 -0.0054620323 -0.019412419 -0.004775859 -0.0022364357 0.037320334 0.010180626 0.0038403375
-0.015043853 -0.0010361306 -0.009330549 0.02294737 0.010089618 -0.029899148 0.030021138 0.028093811
-0.014748768 0.0023272915 0.025285013 0.024963902 -0.013295455 0.0033056347 0.0068972814 0.017422913
-0.0006053367 0.006654474 0.033260114 -0.026843859 0.037098058 0.01954504 -0.02100768 -0.018579975
0.012239264 -0.025774367 0.009201241 -0.00070949545 -0.0050312285 -0.03918934 -0.037352864 0.032694846
0.021526888 -0.030421332 0.0009264912 -0.02566518 -0.028869877 0.013408704 0.012356141 0.036446307
0.022440039 0.013138057 -0.010798576 -0.004293026 -0.012863506 -0.010037897 0.023066489 -0.009438314
0.023064226 -0.022050293 -0.00087580696 0.035200633 -0.017372422 -0.039553095 -0.023603404 -0.021828117
0.0013860937 0.019147066 -0.01734896 -0.023693766 -0.021854144 -0.024356969 0.0069744745 -0.017088067
0.016426573 -0.034266822 -0.02042844 0.031208364 -0.011175487 -0.014323185 -0.009637759 0.021501867
0.013469966 0.007022584 -0.0059457733 -0.008031397 -0.024040628 -0.024848351 0.041351113 0.04504754
0.026015732 -0.015272058 -0.019497069 -0.026473057 -0.009996431 0.016795417 -0.020443428 -0.007398969
0.013359105 0.020105306 0.03820259 0.02282323 -0.0065073776 -0.031440865 -0.032353476 0.0064116814
0.012671466 0.014594345 -0.021725923 -0.0045553446 -0.0070223957 0.021800376 -0.02563689 -0.029399207
0.018398415 0.045235954 0.05459622 0.02742472 -0.012834348 -0.04062433 0.014347597 0.04566308
0.019135308 0.028241513 -0.0019771087 -0.01130639 0.014823961 0.0066482015 -0.0041539962 -0.0011397804
-0.0097972425 0.0155320065 0.03735227 0.030760497 0.015154024 -0.028065093 -0.014723302 0.014514196
-0.02675799 -0.01606481 -0.040699966 -0.0074189 -0.026237044 0.020080892 0.021328975 -0.039836973
-0.042143885 -0.014724306 0.0059435503 -0.032059755 -0.015761996 0.03384302 0.037391823 0.0020894052

bias f4 [32]
00000000: e90e 95bc 441e 5fbd 798d 88bd d0db d93b
00000010: 436b 683c df8d b0bd 62a2 41bd c6c2 793d
00000020: 3e63 293d 8668 3dbd 245f f2ba 61b4 8dbd
00000030: 8247 c4ba 4f3a 49bd 3c3a 19bc 1ebe c0bc
00000040: 2603 0bbd fadd 00bd 72ba 22bc 4dd7 353d
00000050: 3c6b 4b3d b710 d3bb 1a8c 5cbc 87e9 edbb
00000060: bef0 163d 8d05 83bc 5e41 7b3c eb1c 39bd
00000070: 5d3b 5a3c 8c54 143d e223 85bc c616 7ebb
-0.018195586 -0.054472223 -0.06667609 0.006648518 0.014185729 -0.0862081 -0.047274 0.060976766
0.04135441 -0.04624226 -0.0018491489 -0.0691917 -0.0014974924 -0.049127873 -0.009352263 -0.023528155
-0.03393855 -0.031461693 -0.009932147 0.04439478 0.049662814 -0.0064412015 -0.013461137 -0.0072605046
0.036850683 -0.015993858 0.015335409 -0.045193594 0.013319817 0.036213443 -0.016252462 -0.0038770898

weight f4 [64, 32, 5, 5]
00000000: eed7 ec3b 71f4 953c 8e39 d4bc 4387 a8bc
00000010: 7b3f 1f3d cfe6 90bc 18fe 143c 617d 1ebd
00000020: b949 243c 7eb9 af3c a754 dfbc c164 9bbc
00000030: f5e8 fabb 4047 94bc 0288 093c decb ecbb
00000040: 1382 0f3d 64d9 893c f2d8 e53c 774b bc3b
00000050: 8f04 0dbd 0121 30bc 9d6c 253c d131 f5bc
00000060: 22a2 733c 4093 483b 886f 1bbd 69b4 723b
00000070: ed50 6b3b 5246 6e3b 48bb d4bc d16d a3bc
00000080: 5cd7 cfbc 3d46 1b3d c098 7a3b e179 a3bb
00000090: 2f9b 833c b69d 013d ed43 993c 9cc4 203d
000000a0: 6753 02bd 0a22 04bd be5b a3bc eac8 c1bc
000000b0: 6f0f 21bb 5c8e cf3c 46e6 763c ffa9 823c
000000c0: 1e36 093d 12bd 7fbc ac3e cabc f687 52bc
000000d0: e8bf e5bc f9b1 ab3c 507d 7ebb c040 f33c
000000e0: 74c1 0bbd 4ed0 40bc 1f7c 543c 9b2b 09ba
000000f0: ea78 cfba 3bcf 95bb d2d7 9c3c 2164 0a3d
00000100: ea3e 3c3d b294 b73c b3d3 faba 50c2 9f3a
00000110: b57a 133d ed44 713c f450 91bc d8a2 553c
00000120: d45c 243d 7a28 00bc 1ba3 a6bc 06d5 853c
00000130: b280 933c e59c 46bd 8f1f 08bc a7e4 a23a
00000140: 17bf d73c 1a78 85bb bccf 26bd 6b5e 5abc
00000150: 26f2 9abc cbdc eb3c cad7 2abd 7f1f b2bc
00000160: b9b8 9e3c 6223 fa3c c4b8 21bd f848 a4bc
00000170: 1b10 f7bc 56bc c0bc ae2e d6bb 101e c13c
00000180: 6cc2 0abd 4c7e 293c 27a2 163d 83c4 b2bc
00000190: 0d2a debc aa97 3abc 27ce 003d 6e8b 063d
000001a0: ffc4 7e3c a30c 193c b01c 0bba b9ea 733c
000001b0: 5eb6 15bc 80b9 7dbc ee71 24bc 28f5 8d3c
000001c0: 555e 693c 64fb 0e3d 6c02 a93b 2284 79bb
000001d0: e3f0 bebc 1801 b33c 142c 62bc 6370 eabc
000001e0: b297 003d d82a f43c 61bf 843a a096 9d3c
000001f0: 011f 8c3c 726e 99bc 8f05 28bd 4038 d938
00000200: efb8 ef3b 6e38 d5b9 d62b adbc 1058 e93c
00000210: 19da 343c 284c e33a 9587 3f3c 080e 113d
00000220: e495 18bb e751 613c cddd 043d f4cc fe3a
00000230: 3c30 f13a 7131 003d e16e d13c 2c8c f3bb
00000240: 6a47 133c 6f3e 8e3c c31c eebc a695 fd3c
00000250: 7172 263c 3756 283d 24f6 75bc ae0c cd3c
00000260: 7e40 c7ba 0ed6 803c d22f cf3c 85de 72bc
00000270: 4fdd a63b 2a5c adbc 2aa2 9dbc 7f46 b93c
00000280: 3670 b7bc 75de bb3c 540c 183d ea7c 393d
00000290: 0e5b a83c b273 663c 2572 853c f617 58bc
000002a0: 1dba ee3c 3a95 4a3c 212e ec3c 455d c23b
000002b0: a5a3 873c 07d6 003d 771d 283d 2e89 363b
000002c0: d520 9639 ca5e aa3c ff61 cbbb bab6 803c
000002d0: d2e2 13bd 31cc a2bc 76de 173d c11c 9c3c
000002e0: c171 98bb 52fa 23bb 72b6 1e3c bfcc 82bc
000002f0: 224d 0e3c 6eb4 003d 7d07 ff3c 11a8 0a3d
00000300: a49f 3a3d 5d7e 44bc eee8 6c3c 1e5a a53b
00000310: f3c5 933c 0134 5c3c 0e47 ff3b 4c87 103d
00000320: 1dc8 a33c b79b 373d 4ea2 0a3d 31d6 0dbc
00000330: f31f 0cbd 8461 0e3c cdff 0b3d bb45 ffbb
00000340: 6b8f afbc 7002 83bc 17db 37b9 004d dd3c
00000350: dee6 afbc 6168 063b 9bbc b3bc 1237 15bc
00000360: c413 533d 6422 3a3d 5bfb 0e3c 3ded fd3c
00000370: 9933 33ba 7c2f 1f3d 3237 073d b39a 74bc
00000380: 1d56 153b 61ee 1a3c 85e0 b63c 3f3c 063c
00000390: 09cb dd3c d707 143d 9ef5 703b fcf5 0d3d
000003a0: da19 6e3c 657b d2bc c18e 9e3c 8319 0c3d
000003b0: 8852 57bc 0dd4 babc 134f 05bd 86c5 0cbd
000003c0: b8b4 e6bb 132b 233d e275 5a3d 88a2 383d
000003d0: a9ee b3bc 1da1 b13c f57e 893c 62e7 153c
000003e0: 548b fabc 8417 f9bb 6624 a0bc 0065 c0bc
000003f0: 3405 f1bc 0f00 073d 7cc3 5dbc 022f c3bc
0.0072278893 0.018305035 -0.02590635 -0.02057231 0.0388789 -0.017688183 0.009093784 -0.03869379
0.0100273425 0.021450754 -0.027262045 -0.018968942 -0.007657165 -0.01810038 0.008394243 -0.0072264513
0.035036158 0.016827293 0.02805755 0.005746301 -0.034428176 -0.010750056 0.010096696 -0.02993098
0.014870198 0.0030605346 -0.03794816 0.0037033802 0.003590639 0.0036357832 -0.025968209 -0.019949825
-0.025371246 0.03790878 0.0038238019 -0.0049888943 0.016065208 0.031644545 0.018709147 0.03925
-0.03181782 -0.032259025 -0.019941207 -0.023655374 -0.002457585 0.025336437 0.01506955 0.015950201
0.033498876 -0.015609043 -0.024688087 -0.012849798 -0.02804561 0.020958887 -0.0038832016 0.029693961
-0.03412004 -0.011768414 0.012969046 -0.0005232633 -0.0015828882 -0.004571823 0.01914588 0.033786897
0.045958437 0.02240977 -0.0019136578 0.0012188647 0.036005694 0.014725906 -0.017738797 0.013039313
0.04012759 -0.00782215 -0.020341447 0.016336929 0.018005703 -0.04848947 -0.008308305 0.0012427763
0.026336236 -0.004073155 -0.040725455 -0.013328175 -0.018914293 0.028791806 -0.0417097 -0.021743534
0.019375192 0.03053445 -0.039482847 -0.020054325 -0.030159047 -0.023527306 -0.0065363264 0.023573905
-0.03387682 0.010345053 0.036775734 -0.02182222 -0.02711966 -0.011388699 0.031446602 0.032847814
0.015549897 0.009341392 -0.0005306704 0.014887505 -0.009137718 -0.015486121 -0.010036929 0.017328814
0.014243682 0.034907714 0.0051577594 -0.0038073142 -0.023308223 0.021851107 -0.013804454 -0.028618043
0.031394668 0.029805586 0.0010127836 0.019236863 0.017104628 -0.018729422 -0.041020926 0.00010357844
0.007315747 -0.0004066857 -0.021139067 0.028484374 0.011038327 0.0017341422 0.01169004 0.035413772
-0.00232827 0.013752437 0.03243809 0.0019439743 0.0018401216 0.03129715 0.025565566 -0.0074324813
0.008989194 0.017363755 -0.029066449 0.030955147 0.010159121 0.041097846 -0.015012298 0.02503046
-0.0015201715 0.01572707 0.025291357 -0.014823561 0.0050923 -0.021162111 -0.019242365 0.022616623
-0.022392374 0.022933224 0.037121132 0.045285143 0.02055123 0.01406567 0.01628978 -0.0131893065
0.02914148 0.01236468 0.02883059 0.0059315288 0.016557524 0.031454112 0.041043725 0.0027852762
0.0002863469 0.020797152 -0.0062067504 0.01571213 -0.036104985 -0.019872757 0.03707739 0.01905668
-0.0046522324 -0.0025021029 0.009687053 -0.015966771 0.008685382 0.03142207 0.0311315 0.033851687
0.0455624 -0.011993018 0.014459832 0.005046143 0.018038725 0.013440133 0.007790453 0.03528528
0.019992882 0.044826236 0.033846192 -0.008657024 -0.034210157 0.008690242 0.034179498 -0.007790295
-0.021430692 -0.015992373 -0.00017533857 0.027014256 -0.02147239 0.0020508992 -0.02194052 -0.009107368
0.05153252 0.045442954 0.00872692 0.030996913 -0.0006835997 0.038863644 0.033011623 -0.014929461
0.0022786923 0.009456248 0.022323856 0.008193075 0.027074354 0.03614029 0.0036767493 0.034658417
0.014532531 -0.025693605 0.01935518 0.034204017 -0.013142236 -0.022806192 -0.032546114 -0.03436806
-0.0070405863 0.039836 0.053335078 0.045076877 -0.021964388 0.02168327 0.01678417 0.009149404
-0.030584015 -0.0076016802 -0.019548606 -0.02348566 -0.029421426 0.03295904 -0.013535377 -0.023826126

bias f4 [64]
00000000: 71e1 fb3b 6caa 88bc e444 42bd df55 c63b
00000010: 60e2 ae3b 4bff a8bc 10fa dabc 8e9b 893c
00000020: 02a8 82bc eff5 7039 67ae bbbb 20f3 dabb
00000030: 6b22 04bb 989a 2fbc b22e b6bc d29a 8f3c
00000040: 3484 c6bc 49cd b0bc afcb d0bc 0412 4e3c
00000050: b4af 69bc 506d 003c 18c6 9dba f737 14ba
00000060: 7363 be3a 46ec bcbb 0177 72bc d7e5 723c
00000070: ae5d de3b 3317 e8bc 1449 fa3b c270 223c
00000080: d41c 143d e018 e03b 9df4 bcbb 7496 1d3c
00000090: 8ef5 8a3b b87e 31bd 1a2a 6abc 6d54 32bd
000000a0: 8b43 fcbb d0b8 b03b b838 0e3d a540 653c
000000b0: f708 14bd 78fe c0bb f6d7 18bb 85fe 4cbc
000000c0: 27b8 cdbb be78 a73c a125 4dbd 2ca9 0fbd
000000d0: f117 a2bc 5ef7 ffbc f3df aa3c 7b3d 193d
000000e0: 887c df3c b2c6 09bd b3a8 153d fefd bdbc
000000f0: ee77 22bd b335 9f3c 6d80 753c ac23 343c
0.007686787 -0.016682826 -0.04742898 0.006052717 0.0053370446 -0.020629546 -0.026730567 0.016797807
-0.015949253 0.00022979801 -0.0057275775 -0.006681815 -0.0020162116 -0.01071801 -0.022239063 0.017529879
-0.024232961 -0.021582263 -0.025487749 0.012577537 -0.014263082 0.007838562 -0.0012037186 -0.00056540914
0.0014525488 -0.0057654707 -0.014798881 0.014825306 0.00678607 -0.028331375 0.007638106 0.009914579
0.036160305 0.006838903 -0.005766465 0.00961839 0.004240698 -0.04333374 -0.014292264 -0.043537546
-0.0076984814 0.005393125 0.03472206 0.013992463 -0.036141362 -0.00588971 -0.0023322082 -0.012511854
-0.006278056 0.020443317 -0.050084714 -0.035073444 -0.019786807 -0.031245884 0.02085874 0.037412148
0.02728106 -0.033636756 0.036537837 -0.023192402 -0.039665155 0.019434785 0.014984232 0.010994833

weight f4 [64, 1024]
00000000: 7efc 1cbd 8a39 f33b e9d4 8a3c 3ac4 ca3c
00000010: 050d 583c 6b11 e33c 4686 563c 3a98 5cbc
00000020: 018c 30b8 87bb b33b cbe2 123d 528c 06bc
00000030: 80ab 07bc b88a 24bd f270 bd3b d335 9bbc
00000040: 1116 5bbb c0b8 bd3c 59a6 a4bc b4d6 58bb
00000050: 89ae ae3a 0a6d 5abb acd2 0f3c 5472 69bc
00000060: c836 89bc b862 213c 4093 eebc d40c 043d
00000070: b2b4 c53c 901f 323b 5754 8f3a 712f 9cbc
00000080: 6f4d 11bb b870 5d3c be4d 0ebc 509a 66bc
00000090: e5d2 29bc cffa 083d e1ec af3c 4935 a63c
000000a0: 7f16 abbc 65d5 cbbc 0058 66bc 5c0d 01bc
000000b0: 0c09 ce3b eaec b83c d48a 4c3c f80d 9dbc
000000c0: 1820 c8bc d070 21bc 9a28 66bb 0ce3 e9bc
000000d0: 6262 fabc 9c56 2e3c 8fdb e73c 08b5 67bc
000000e0: 410c 3bbc f649 293c 835a be3c 23e6 f93c
000000f0: cea6 cfbb ce84 d63c 0edf e53c e2c0 cc3c
00000100: 3f85 cc3c 0d88 363c 05ef 8f3a 8cc5 a93c
00000110: e94f 20bc 4270 6abc 5b7a 0c3c 6e22 ab3c
00000120: 4352 25bc 140e 4e3c 3ed5 433b ab13 8dbc
00000130: 7416 d7bc 0c7f 923c cf68 c1bc 22ed 9a3c
00000140: 93ba a5bc 5adc bb3c c7d2 873c 4a68 25bc
00000150: 0e84 fcbc 139a 863c 9cac 3f3c b67e 183c
00000160: 4758 01bb a885 cf3c acfc 82bb 3193 55bc
00000170: fc9d ee3c 1fde 643c 1bdb 193c a068 913c
00000180: 2033 38bc b436 88bc 7719 29bc b7ce a03c
00000190: b1fb 01bb 290c 98bc abad a5bb 8e0c 84bc
000001a0: 4ed1 083d 179e f93c 3219 e1bc a6c8 d03c
000001b0: 0397 0abc 74df 383c 6509 fc3c d86e aebc
000001c0: c0bb 4c3c 65fe 22bd 6cb3 75bb 867e e23c
000001d0: bffc 063d 4762 15bc 6df1 f43c c07c 993c
000001e0: 7d03 1a3b 2858 c9bc f44a 0b3d fccb c83c
000001f0: a37e 2d3d 83b2 59bc 706d 8bbc 4f8f 733c
00000200: 931b b1bc d53b 9f3c 8194 b03c a419 63bc
00000210: 1ead 943c af24 5fbb 4cd0 173d 6a26 a63c
00000220: fb37 f03c 85a2 343d c4fa bb3c f192 153d
00000230: 5414 48bc 5fec 55bc dd1c 46bc 4f97 f9bc
00000240: 7c06 903c f1d1 1cbc 3a4f 573c 28fe b5b7
00000250: c680 f43c 53d5 e33c 05df 1b3d 0308 9e3c
00000260: 8e7e 053c df04 483d 9450 f33c 8287 05bc
00000270: 363c 04bd 9ab0 0cbd d244 0abd 4453 90bc
00000280: c274 003d a65e 02bc 0edf 8bbc d58d 87bc
00000290: e609 f53c da44 853c 6763 af3c c4f4 213d
000002a0: 0581 ef3c 3341 a0bc 5d71 583c 9a98 253c
000002b0: f34c 88bc a303 26bb b188 3f3c ee26 793c
000002c0: 4bbc 903c 4e6c cb3b 6be4 d1bc 0259 94bc
000002d0: 03b8 c6bc 3d63 63bc 575f f6bb 84d4 a8bc
000002e0: 574d f2bc 9873 df3a 88f0 83bc 620f 0f3c
000002f0: 7cca d5bb 89ff 043c 0294 d43c 23c1 e23b
00000300: 17d7 203c f6e4 e0bc ea96 473c ff16 06bc
00000310: cb07 a23c f408 e4bc 62db efbc a934 563c
00000320: fdd5 7a3a c5f6 fbbc d05a a23c 0a68 54bb
00000330: 68c9 f13c 18d4 27bc f0cb bdbc 17bb fcbc
00000340: 6980 9f3b 4989 82bc 0921 67bc 1b1e 853c
00000350: 7a73 13bc 451b f63c 4b12 0e3d 432f 643c
00000360: bb62 003c 5507 673c 019c eebb be96 c33c
00000370: 5777 ffbc 4100 a6bc 1f2f b9bb 005b 27ba
00000380: 8124 313a 1a4f 3abb a53c f33c 66f2 dfba
00000390: 52b2 d83c 9fa9 b63c 6903 2939 5e9e ec3c
000003a0: 9282 50ba 5dae c6bc 6568 373c 7153 0ebd
000003b0: d692 6a3c b188 44bc fcf9 973c 4b10 4c3c
000003c0: 3527 423c 2122 b43c 8a83 d23c a457 b4bc
000003d0: de4e 8bbc 8aed c9bc 653b 5b3c 6c11 363b
000003e0: 2a70 d33c af9e dcbc 23f0 013d 5437 b93b
000003f0: 09d1 8bb9 c87a 84bc fc5a 87bc e9a2 6bbc
-0.038326733 0.0074226307 0.016947227 0.024751771 0.013186698 0.027718266 0.013093537 -0.013464028
-4.209206e-05 0.0054850015 0.035860818 -0.008212166 -0.008280635 -0.040171355 0.0057812864 -0.018946564
-0.00334299 0.023159385 -0.020098852 -0.0033086957 0.0013327162 -0.0033329153 0.008778255 -0.014248449
-0.016749755 0.009850197 -0.029122949 0.032238796 0.024134014 0.0027179457 0.0010935169 -0.01906559
-0.0022171398 0.013515644 -0.008685527 -0.014074877 -0.010365223 0.033442315 0.021475257 0.02028908
-0.02088475 -0.024882028 -0.014059067 -0.00787672 0.0062876996 0.022573907 0.012484271 -0.0191717
-0.024429366 -0.009853557 -0.0035119415 -0.028550647 -0.03056449 0.0106407665 0.028302936 -0.014142282
-0.011416496 0.010332575 0.023236519 0.030505246 -0.0063370233 0.026186373 0.028060462 0.024994317
0.02496588 0.0111408355 0.0010981268 0.02072408 -0.009784677 -0.014308991 0.008574094 0.02089044
-0.0100904135 0.012576599 0.002988174 -0.017221292 -0.026255824 0.017882846 -0.023609547 0.018911902
-0.020230567 0.02293222 0.016579999 -0.010095665 -0.030824687 0.01643089 0.011698868 0.009307554
-0.0019736455 0.025332287 -0.003997406 -0.013035581 0.029128067 0.013968973 0.009390618 0.017750084
-0.011242658 -0.016627647 -0.010321013 0.01962982 -0.0019833858 -0.018560486 -0.005056103 -0.016119268
0.033402734 0.03047089 -0.027477834 0.025486302 -0.008458856 0.011283744 0.030766198 -0.021293089
0.012495935 -0.03979339 -0.0037490977 0.027648222 0.03295588 -0.009117669 0.029900277 0.018736243
0.0023500614 -0.024578169 0.034007028 0.02451133 0.0423571 -0.013287189 -0.017019957 0.01486571
-0.021619594 0.01943771 0.021555187 -0.013861094 0.018148955 -0.0034048965 0.03706388 0.02028199
0.029323569 0.044100303 0.022946723 0.036517087 -0.012211878 -0.013056844 -0.0120918425 -0.030467657
0.017581217 -0.009571538 0.013141448 -2.1695232e-05 0.02984656 0.027811682 0.038054485 0.01929093
0.008147849 0.04883277 0.029701509 -0.008149983 -0.032283984 -0.034348108 -0.03375704 -0.01761783
0.03136135 -0.007957136 -0.017074134 -0.016547123 0.029911947 0.016268183 0.021409703 0.039540067
0.029236326 -0.01956234 0.013210622 0.010107184 -0.016638255 -0.0025331757 0.011690305 0.0152070355
0.01766791 0.0062079793 -0.025621613 -0.018108848 -0.024257666 -0.013878641 -0.0075186896 -0.020609148
-0.029577894 0.0017048 -0.016105905 0.008731695 -0.006524382 0.008117565 0.025949482 0.0069199963
0.009816906 -0.027452927 0.012181977 -0.008184194 0.019779107 -0.0278363 -0.029279415 0.013074079
0.000956863 -0.030757317 0.019818693 -0.0032410645 0.029514983 -0.010243438 -0.023168534 -0.03085093
0.0048676026 -0.015934603 -0.014106997 0.016249707 -0.0089997 0.0300423 0.034685414 0.013927284
0.007836039 0.014100869 -0.0072817807 0.02387559 -0.031184835 -0.020263793 -0.005651369 -0.00063841045
0.00067574537 -0.0028428496 0.029692004 -0.001708579 0.026452217 0.022297679 0.00016118366 0.02888411
-0.0007954027 -0.024253065 0.011194323 -0.034747545 0.014317235 -0.01199548 0.018551819 0.012455056
0.011850168 0.02198893 0.025697488 -0.022014447 -0.01700538 -0.0246494 0.01338086 0.002778138
0.02581032 -0.026931135 0.031723153 0.0056523476 -0.0002666789 -0.016171828 -0.016522877 -0.0143821025

bias f4 [64]
00000000: 4fd3 cdbc 878b 153c e836 aabc df06 273c
00000010: 930b fcba 3059 0a3d eebf a9bc 1f70 83bc
00000020: c746 b0bc 3abd c1bc 28e3 7dbc f4ce cebc
00000030: 64a8 e4bb 2f57 173d 4ced 34bb 1be0 793b
00000040: ea23 203a 60b9 c43c 5481 27bc 4c11 cc3c
00000050: 38d6 97bc 51c4 6a3c fbcb 743c 9a5a 0ebd
00000060: ee9f 2f3d 95e9 17bc 3bca fdbb 590c 91bc
00000070: 7f5a 183d e038 ab3c f71b bcbc a05b 153c
00000080: c578 a0bc 8875 9d3c ad6b 77bc fe9f 31bd
00000090: 348f 77bb 3e91 ed3c 1a42 f2bc a23e 2dbd
000000a0: d901 0ebd 69a5 143c 5687 e0bc 58da 25bd
000000b0: f15b bf3c 80c2 963b 13fe 043c 7dcf 95bc
000000c0: d84b 95bc 35f6 92bc 8512 a43c e0c0 153d
000000d0: 039f d53b a1e6 153b f062 9d3b 4a1f 28ba
000000e0: 08c2 2cbc 15d4 bebc db8e 1fbd 7669 cfbb
000000f0: f0bd 063d 7ed4 07bd dea6 cd3c c656 d53c
-0.025125174 0.009127504 -0.020778134 0.010194509 -0.0019229524 0.033776462 -0.020721402 -0.016044674
-0.021518124 -0.0236498 -0.015496053 -0.025245167 -0.0069780815 0.03694838 -0.002760726 0.0038127962
0.0006108867 0.024014175 -0.010223705 0.024910592 -0.018534765 0.014329032 0.014941211 -0.034754373
0.04287713 -0.009271999 -0.007745055 -0.017706083 0.03719568 0.020901144 -0.022962553 0.009116083
-0.019588837 0.019221082 -0.0151013555 -0.04336547 -0.0037774565 0.028999921 -0.029572535 -0.04229606
-0.03466973 0.00907264 -0.027408283 -0.040491432 0.02335927 0.004600823 0.008117217 -0.018287415
-0.018224642 -0.017939666 0.020028362 0.036560893 0.0065192 0.0022873061 0.004803054 -0.0006413354
-0.0105443075 -0.023294488 -0.038954597 -0.0063297106 0.032895982 -0.033161633 0.025103983 0.026042353

weight f4 [10, 64]
00000000: 4087 183d 8b84 e63d 9324 18bd 6445 18bd
00000010: 3bf7 efbd 52b4 d2bd 3830 593d 6b2c 0c3e
00000020: d5e2 e43d 651a d63c 00b7 38be d5ad be3d
00000030: fa3b 43bd 6474 6e3c 9b12 14be 2709 f43d
00000040: 07f4 f63d 7863 24be 9d57 d33d e92f a4bd
00000050: b0ce f6bc f43d 16be f980 0c3c 160b 023e
00000060: 0c4c 01be c0a1 66bd 3f9d a8bd 5e57 b3bd
00000070: 1048 e3bd 7e17 40bd 1e27 24bd 1b44 fe3b
00000080: 368a 2f3e 25dd fdbd 37cf 8bbd 8155 d03b
00000090: be30 c6bd 4882 98bd 06cf d43d e007 66bd
000000a0: 8e91 023e e43a a6bd 4c14 a03d cff0 c53d
000000b0: 9432 9b3c 97dc 04be 1594 6c3d 7cb6 2ebd
000000c0: 2a8f 053e 9386 df3b 1acd 20be 0b82 48bd
000000d0: f4f3 893d 05ea 9cbc 4faa a73d 668d 093d
000000e0: c4bc 453c 03ec 3d3e b9f1 b23d 4e4f 0fbe
000000f0: d288 f4bd 13d3 38bd 76d7 b9bd f615 8b3d
00000100: dc39 9c3d f4bf 9dbc be46 a63d 9350 e3bd
00000110: bf9c 9438 89af bc3b 8700 d8bc 21b9 16be
00000120: 7d36 f4bd 4603 36bc 822b 20be 1bc5 a1bd
00000130: 0b64 19bd 2176 ffbd 8f77 0b3e 4dbe 77bc
00000140: 0b0b 63bd be35 1f3e 3e3f 3c3d 34a7 d5bd
00000150: 4848 a7bd aefc acbd d89f 4abc d711 f13d
00000160: 0cd1 6b3e da23 083e 9e7d c63d 04b4 1f3d
00000170: 3e71 49be e023 cfbd fa9a 36bd 94ca d33d
00000180: bd9b 303e 35eb c43c 8a8b acbd 5bea fdbd
00000190: f7d7 46bd a235 8a3d ccd6 a6bd 7c51 abbd
000001a0: b970 c33d 380f 943b 089a af3c 720d 863d
000001b0: e947 15be 9f1a 16be fb2e a5bc 4074 363e
000001c0: 14f0 d3bb a3e4 e53d 1fe1 03be d2aa 12be
000001d0: 7f96 55be 8b3d 093e 841c 97bd 7683 fcbc
000001e0: 2d6c 403e 26e4 df3d 9efd 0c3d 1fa7 1d3e
000001f0: 35e2 4bbe 79a0 d1bd dbea 29be 912b 11be
00000200: 87a9 35be 4535 aa3c 38af 1bbe 0ca8 013e
00000210: 7bc9 2bbd 7539 82bd 3038 6a3d b0fc 1ebd
00000220: 1f32 c9bc dd28 dfbd 0e9a bc3d a97d 17be
00000230: 6630 ecbc 5af3 e1bc 4970 1abe c0ee 003e
00000240: 7aff aabd a177 b3bd d362 7ebd 2ccb 6b3d
00000250: 700a ef3c e914 5e3d 1b88 c8bd a44c 26be
00000260: 3230 273d efe8 863d d877 79bd ebd8 8d3d
00000270: 8e32 00be 1539 c73d 1707 f8bc c346 c43d
00000280: 0b48 0e3e bf67 853d 8fe7 f1bd e2a6 c9bc
00000290: 63d6 0d3e d0ef 2c3d 68d3 c83d f066 0abe
000002a0: fadd 9d3d 8ee0 533d 1e7e 133d 9018 ee3b
000002b0: 77b8 b43d 14a7 163e b20d 573e 3978 cf3c
000002c0: 6f7b 153d e867 113e ebbb 023e 025c 703d
000002d0: a282 74bd 6100 cf3d e39d e43d 011f ca3d
000002e0: 7cb6 4b3d dde3 88bd 27c6 4abc 3820 f7bd
000002f0: daf8 3a3e da01 193d bcc4 8e3d e021 14bd
00000300: 571f d9bd 6fa5 9a3d 976e 28be 8e23 d6bd
00000310: 6d1f 10bd a07e 9e3d 6363 173c 8079 2abd
00000320: df3a d8bd 9df4 b53d 1c53 fa3d f7ee aabc
00000330: 73e3 c43d 74b3 f9bd 84a4 0b3e 9b99 83bd
00000340: 7a52 a83d 77f5 0d3e 4dc6 81bd 162e ac39
00000350: 865d fe3c 496e a53d 25db 083e 5592 13bc
00000360: 53f6 0cbd 1914 54bc 1a3c 8ebd 943a 05be
00000370: d74b 663d d8cb 723d d08b 053e 9c90 02bc
00000380: eef9 99bd b7b3 313d 6de5 a43d 2c7b 72bd
00000390: 523b ff3d 9f6f 963d 9036 563d 3d82 f03c
000003a0: 5f9e cf3d a7c0 113e 80f7 10be 8162 06bd
000003b0: d389 413d 3ed9 583d af56 fa3d 9c25 0dbe
000003c0: 7009 7fbd 61a4 ffbc 09bb 75bd 6b9a db3c
000003d0: f1ec 703d 4271 e93d f475 773d 910c 66bd
000003e0: 6ff1 bbbd 33df 1abe a43e 893d 3a34 c0bc
000003f0: e634 af3d 17b7 eebd 8fda 473d 9794 13bd
0.03723836 0.11255749 -0.037144255 -0.03717555 -0.11717077 -0.102882996 0.0530245 0.13688819
0.11176077 0.026135633 -0.18038559 0.093104996 -0.04766462 0.014554117 -0.14460222 0.11915808
0.12058263 -0.1605357 0.10319445 -0.08016951 -0.030127853 -0.1467207 0.008575671 0.12699541
-0.12626666 -0.0563066 -0.08233117 -0.08756898 -0.11097729 -0.046897404 -0.040076368 0.0077595836
0.17142567 -0.123956956 -0.068266325 0.006357849 -0.096772656 -0.07446724 0.10391049 -0.056159854
0.12750837 -0.08116701 0.07816371 0.09665071 0.018945016 -0.12974773 0.05775841 -0.0426545
0.13042894 0.0068214624 -0.1570324 -0.048952144 0.067359835 -0.019154558 0.08186781 0.033582114
0.012068931 0.18547063 0.08737511 -0.13995096 -0.11940159 -0.04512317 -0.09074299 0.06791298
0.07628223 -0.01925657 0.08118962 -0.11099353 7.086386e-05 0.00575823 -0.026367439 -0.14719059
-0.11924455 -0.011109179 -0.15641597 -0.07898923 -0.037448924 -0.12473703 0.13619827 -0.015121055
-0.055430453 0.15547845 0.04595875 -0.10432282 -0.081680834 -0.08446632 -0.012367211 0.11770981
0.23028964 0.13294926 0.09691928 0.038990036 -0.19672105 -0.101142645 -0.04458139 0.10341373
0.1724691 0.024037937 -0.084250525 -0.123982154 -0.048545804 0.06748511 -0.08146438 -0.08365151
0.095429845 0.004518416 0.021435753 0.06545533 -0.14578213 -0.14658593 -0.020164004 0.17817783
-0.0064678285 0.112252496 -0.12878846 -0.14322975 -0.20858191 0.13402383 -0.07378486 -0.030824404
0.18791266 0.10932188 0.034421556 0.15395783 -0.1991051 -0.10235686 -0.16593497 -0.14176776
-0.17740451 0.020777354 -0.1520356 0.12661761 -0.041940194 -0.06358615 0.05718249 -0.0388152
-0.024560032 -0.10896466 0.09209071 -0.1479403 -0.028831672 -0.02758186 -0.15081896 0.12591076
-0.083495095 -0.08763052 -0.062105965 0.057566807 0.029179782 0.05421916 -0.09791585 -0.16240174
0.040817447 0.06587397 -0.060905308 0.069261394 -0.12519285 0.097276844 -0.030276818 0.09583809
0.1389467 0.065139286 -0.118117444 -0.024615709 0.13851313 0.04222089 0.098059475 -0.1351583
0.07708354 0.051727824 0.036008947 0.0072661117 0.088242464 0.14712173 0.21001318 0.025325881
0.03649467 0.14199793 0.12766998 0.058681495 -0.059694894 0.10107494 0.11162927 0.09869195
0.049734578 -0.066840865 -0.012376345 -0.12066692 0.18258992 0.03735528 0.06971118 -0.03616512
-0.10601681 0.07551085 -0.16448437 -0.10456 -0.03518622 0.077389956 0.009240004 -0.041619778
-0.10558104 0.08884547 0.12222883 -0.0208659 0.09613695 -0.12192431 0.13636976 -0.06425782
0.08218856 0.13863169 -0.06336651 0.00032840733 0.031050455 0.08077676 0.13364847 -0.009007056
-0.0344146 -0.012944245 -0.06945057 -0.13010627 0.05622467 0.05927643 0.13041615 -0.007969048
-0.075183734 0.04338428 0.08051572 -0.059199497 0.12462486 0.07345509 0.05229813 0.029358977
0.10137629 0.14233647 -0.14156914 -0.032808784 0.04725058 0.052941553 0.12223565 -0.13783878
-0.06226486 -0.031206312 -0.059992824 0.02680703 0.058819715 0.11398555 0.060415223 -0.056164328
-0.09176909 -0.15124206 0.06701401 -0.023462404 0.085550115 -0.11656015 0.048792418 -0.03603038

bias f4 [10]
00000000: 4270 0cbd b524 0f3e d729 163c 7fe8 823d
00000010: 2909 923c 0119 5fbd a207 263d c6e0 95bb
00000020: 8173 b4bc 4f84 da3c
-0.034286745 0.13978846 0.009165249 0.06392001 0.017826634 -0.054467205 0.040534623 -0.004573914
-0.022027733 0.026674418
