try_train/cifar10_models/cifar10_net_18.pth (torch, 589402 bytes, 10 tensors)

weight f4 [32, 3, 5, 5]
-0.058082048 0.10966747 0.13206947 -0.028684601 0.15554842 -0.09429714 -0.05825288 -0.031336665
0.16136196 0.090770565 -0.06677749 0.024395378 -0.15722483 -0.02990151 -0.108548805 0.037582856
0.002046419 -0.22730628 -0.17464222 -0.11612811 0.16981025 -0.038415056 -0.22315624 -0.07320754
-0.03848873 -0.112268016 -0.051160578 -0.05924759 -0.063513644 -0.07708843 0.080029465 -0.09970144
-0.13349392 0.05507304 0.037929505 -0.00017461825 0.051500857 -0.14795274 -0.012332592 -0.049659126
0.28465107 0.14312327 -0.106350206 -0.04231357 -0.0981618 0.17218396 0.08327512 -0.14835376
-0.13635089 0.062392652 -0.007208136 0.053235978 0.11678545 -0.004006032 -0.0991361 0.019657692
0.010899798 -0.014198612 0.0043081674 -0.0065665366 0.15432042 0.031452775 -0.12191161 -0.11378937
-0.049248856 0.25408143 0.19034342 -0.06724509 -0.023165094 0.025686515 0.27707332 0.15254612
-0.12162176 -0.10050957 -0.07600568 -0.14060459 -0.05635204 -0.18377754 -0.01583327 -0.056559384
0.005317009 -0.044583872 0.0028409073 -0.07360621 0.040909488 0.03550103 -0.04312702 0.007867569
-0.046689846 0.07195876 -0.12133725 -0.101544075 -0.13206302 -0.15659179 -0.04219243 -0.059606284
-0.16854757 -0.14411992 -0.1718889 -0.11062685 -0.0124776345 0.008776666 -0.094647825 0.013940172
-0.16224809 -0.034911636 0.01926676 0.12613766 0.17686108 0.05363545 -0.011230434 0.045735113
0.047256805 0.17774384 0.051585298 0.016914917 -0.058164503 -0.10150176 -0.0645631 -0.05220372
-0.078122966 -0.16663855 -0.18480162 -0.20602135 -0.1220695 -0.038578976 0.09892718 -0.020978406
-0.08519636 -0.04966817 0.1413323 0.17688875 0.26043844 0.15064368 0.038176365 0.22055982
0.275154 0.34298515 0.21755148 0.18466674 0.18512364 0.21468528 0.20214078 0.13591519
0.19435468 0.0075629763 -0.036734194 0.039230216 0.115926735 0.045819335 0.042919643 -0.10563502
0.025686173 -0.07652974 -0.06325402 0.17411725 -0.21916734 0.06917899 0.019770797 -0.09445379
0.011048852 -0.1614154 -0.09050207 -0.029011553 0.028016878 -0.15381704 0.017258188 0.13461258
0.01571156 0.000730585 -0.1205909 -0.06931935 -0.026745385 -0.09465363 -0.15608102 0.16085275
-0.06730975 0.07550966 0.042565305 -0.0065089855 0.16468772 -0.06416478 0.04961776 0.09350203
0.06763788 0.10610624 -0.1168685 0.17855234 0.059843622 -0.04343624 -0.07102597 -0.01149734
0.1461737 0.19023535 0.14594163 0.010900618 0.07197279 -0.064639725 0.109220594 0.012876079
0.047065772 -0.155246 0.13561216 -0.09528508 -0.00797895 0.15976699 -0.15676148 0.03593656
-0.06379681 0.0788144 0.050414637 -0.13267797 -0.017371317 -0.06795746 0.054231554 0.013861188
-0.09669482 0.19703649 0.14195634 -0.100371286 -0.081110924 0.10219758 -0.10367046 -0.13046916
-0.15041311 -0.047701765 0.10139675 0.15082058 0.0149504505 0.1292798 -0.031581834 0.093662865
-0.002777178 0.076762214 -0.07871549 0.10590659 0.021075737 0.12507004 0.14317463 -0.022047987
-0.081807435 -0.15068355 -0.027396528 0.007702447 0.12166467 -0.10117302 -0.14891192 -0.24662936
-0.08745053 -0.13283673 -0.012841947 -0.015792923 -0.023140348 0.08327241 0.0787748 -0.036367215
00000000: 71e7 6dbd 5799 e03d 383d 073e f8fb eabc
00000010: 1648 1f3e dc1e c1bd 929a 6ebd e05a 00bd
00000020: 123c 253e ebe5 b93d a3c2 88bd d1d8 c73c
00000030: 8cff 20be 03f4 f4bc d64e debd 7bf0 193d
00000040: 371d 063b fac2 68be 69d5 32be 93d4 edbd
00000050: bde2 2d3e 1b59 1dbd 1283 64be d6ed 95bd
00000060: 5ca6 1dbd c6ec e5bd c18d 51bd 9aad 72bd
00000070: 7113 82bd 8ae0 9dbd 7de6 a33d 4530 ccbd
00000080: a1b2 08be 4594 613d f85b 1b3d bb19 37b9
00000090: 90f2 523d ec80 17be a40e 4abc 5e67 4bbd
000000a0: c9bd 913e e88e 123e 23ce d9bd fe50 2dbd
000000b0: 0e09 c9bd fe50 303e 258c aa3d 0cea 17be
000000c0: 919f 0bbe 708f 7f3d 3a32 ecbb f80d 5a3d
000000d0: 362d ef3d 0845 83bb de07 cbbd 2b09 a13c
000000e0: 1195 323c 4ca1 68bc 872b 8d3b 1a2c d7bb
000000f0: 2c06 1e3e a0d4 003d cbac f9bd 670a e9bd
00000100: 2bb9 49bd f616 823e 63e9 423e cbb7 89bd
00000110: b9c4 bdbc 876c d23c 8edc 8d3e 0d35 1c3e
00000120: d414 f9bd f6d7 cdbd dea8 9bbd a6fa 0fbe
00000130: 66d1 66bd 2e30 3cbe c6b4 81bc d0aa 67bd
00000140: 4e3a ae3b 949d 36bd 842e 3a3b dabe 96bd
00000150: b590 273d 8769 113d f5a5 30bd fae6 003c
00000160: da3d 3fbd 1d5f 933d aa7f f8bd 57f6 cfbd
00000170: 873b 07be 9959 20be f8d1 2cbd b825 74bd
00000180: bc97 2cbe 2c94 13be a503 30be 5490 e2bd
00000190: fe6e 4cbc 01cc 0f3c b8d6 c1bd 5265 643c
000001a0: 5d24 26be 81ff 0ebd 53d5 9d3c 3b2a 013e
000001b0: 121b 353e d8b0 5b3d dbff 37bc be54 3b3d
000001c0: 5a90 413d 7b02 363e 1b4b 533d 2791 8a3c
000001d0: e73d 6ebd 28e0 cfbd a939 84bd 91d3 55bd
000001e0: effe 9fbd 4ca3 2abe a33c 3dbe 43f7 52be
000001f0: 93ff f9bd fd04 1ebd 559a ca3d e8da abbc
00000200: 6e7b aebd da70 4bbd 6ab9 103e 5322 353e
00000210: 3058 853e 5642 1a3e d25e 1c3d 6fda 613e
00000220: fce0 8c3e c09b af3e d1c5 5e3e 4719 3d3e
00000230: 0d91 3d3e 75d6 5b3e fefd 4e3e 5a2d 0b3e
00000240: ea04 473e d8d2 f73b 9876 16bd ddaf 203d
00000250: ff6a ed3d 0ead 3b3d 82cc 2f3d 2c57 d8bd
00000260: cf6b d23c a0bb 9cbd 538b 81bd cb4b 323e
00000270: 676d 60be b7ad 8d3d 5ef6 a13c fd70 c1bd
00000280: 3e06 353c 144a 25be 2659 b9bd a3a9 edbc
00000290: a783 e53c 3782 1dbe 0b61 8d3c e1d7 093e
000002a0: 88b5 803c bb84 3f3a 5df8 f6bd 4ef7 8dbd
000002b0: 2319 dbbc c3d9 c1bd b4d3 1fbe 95b6 243e
000002c0: b2d9 89bd cfa4 9a3d f558 2e3d 5449 d5bb
000002d0: e6a3 283e d368 83bd fe3b 4b3d fe7d bf3d
000002e0: bb85 8a3d 3a4e d93d c158 efbd 6dd6 363e
000002f0: 961e 753d 33ea 31bd 1076 91bd 575f 3cbc
00000300: 8fae 153e 0ecd 423e b971 153e 8198 323c
00000310: 7866 933d d561 84bd 0caf df3d 31f6 523c
00000320: 0ac8 403d cff8 1ebe eadd 0a3e d324 c3bd
00000330: 24ba 02bc f599 233e 1586 20be 3732 133d
00000340: e7a7 82bd 7269 a13d 947f 4e3d bcdc 07be
00000350: 4b4e 8ebc 482d 8bbd e821 5e3d 091a 633c
00000360: ef07 c6bd efc3 493e 015d 113e 768f cdbd
00000370: 7c1d a6bd f74c d13d 2e51 d4bd b599 05be
00000380: e505 1abe ed62 43bd 19a9 cf3d b670 1a3e
00000390: bcf2 743c ed61 043e f45b 01bd 51d2 bf3d
000003a0: 5101 36bb 8235 9d3d 9635 a1bd 8ee5 d83d
000003b0: 06a7 ac3c 5c12 003e 5f9c 123e fb9d b4bc
000003c0: a88a a7bd ca4c 1abe af6e e0bc cf64 fc3b
000003d0: 542b f93d cd33 cfbd 5e7c 18be 688c 7cbe
000003e0: 4319 b3bd 5a06 08be 0867 52bc 2960 81bc
000003f0: d490 bdbc ba8a aa3d af54 a13d caf5 14bd

bias f4 [32]
0.16171487 -0.3776294 -0.007046105 0.13679038 0.0053329603 -0.08989063 0.04172913 -0.0800376
0.09107794 -0.18865982 -0.1970412 -0.08014877 0.17185266 0.004158571 -0.20278677 0.29824588
0.037843823 0.11435117 -0.20860489 -0.05510422 -0.0735139 0.054761406 -0.23084185 -0.18733235
0.05873567 -0.3835992 -0.013390836 -0.07344521 0.39124015 -0.018302036 -0.11748903 -0.12661034
00000000: 9598 253e a458 c1be 03e3 e6bb c712 0c3e
00000010: 1dc0 ae3b 9418 b8bd 2aec 2a3d c1ea a3bd
00000020: 1287 ba3d 0a30 41be 2bc5 49be 0a25 a4bd
00000030: 25fa 2f3e 9f44 883b 56a7 4fbe afb3 983e
00000040: 2002 1b3d f230 ea3d 859c 55be f6b4 61bd
00000050: 758e 96bd 7f4d 603d ce61 6cbe 0dd4 3fbe
00000060: d094 703d 1d67 c4be 3d65 5bbc 716a 96bd
00000070: a150 c83e 27ee 95bc 179e f0bd 24a6 01be

weight f4 [32, 32, 5, 5]
0.008170246 0.044424444 -0.00046727495 -0.051545743 -0.019688686 -0.03213665 0.07006685 0.036979046
0.003401864 -0.028981585 -0.010051974 0.024409728 0.045052715 0.042706 -0.029814899 -0.037204463
-0.023382751 0.026073882 0.085076295 0.06575236 -0.030471407 -0.024009006 -0.019049106 0.082188524
0.0784218 -0.00317961 -0.015408373 0.030201592 0.0045615872 -0.004637162 0.020753559 -0.0067433226
-0.01580023 0.014784974 0.026357671 0.049470324 0.028944636 -0.064381026 -0.06008173 0.04577037
0.048963677 0.006681385 -0.028501987 -0.07225867 -0.03365754 0.06416442 0.013390175 0.041725725
0.040188223 -0.020991364 0.009739843 -0.041419335 -0.032903384 -0.0012543495 -0.050360505 -0.0416323
-0.051523294 -0.0051269433 -0.03921501 -0.02723799 0.0052071223 -0.031195212 -0.06638227 0.016359141
0.023934197 0.03544788 -0.032472543 -0.05368655 -0.014259922 0.023961205 -0.021209037 0.018119525
0.005575969 0.0073338263 -0.030793894 -0.0007374796 0.015933948 0.060158752 0.011865235 -0.0030504507
-0.048093088 -0.03060787 0.004948663 0.07533535 0.007952272 -0.012679657 -0.019930601 -0.013498735
-0.0028213826 0.08540942 0.020339634 -0.028411858 -0.06920683 0.0042812508 0.05539415 -0.019119339
0.016135907 -0.017608045 -0.05687843 0.017053684 0.02882846 0.029259043 -0.034386855 -0.026477547
-0.0386831 -0.012287354 -0.013315755 -0.010474144 -0.011532903 0.036657777 -0.0049413997 0.013180659
-0.019193219 -0.0064899535 0.0109026935 0.0076201856 0.011270902 -0.027571483 0.022215577 0.055269502
-0.031924494 -0.0007484564 0.03734691 0.024007872 0.012907975 0.001687423 -0.02088709 -0.01457728
-0.013821263 0.014261094 0.029808888 -0.03656805 0.0058150073 -0.01782455 -0.030268745 -0.014937887
-8.433669e-05 -0.046120107 -0.013263399 -0.009307505 -0.020356605 -0.07551978 -0.073902 0.009922983
0.019207524 -0.04148073 -0.011824054 -0.034020748 -0.037342925 0.02206845 -0.025932733 0.00040943132
-0.014463267 -0.025384061 -0.05482515 -0.035798997 -0.049263775 -0.045896303 0.0064786933 -0.04307829
-0.0022433833 -0.048937466 -0.03412451 0.030266693 -0.042282447 -0.059615936 -0.046331547 -0.054501414
0.0069054803 0.0011948639 -0.026584119 -0.047309026 -0.03810492 -0.023879241 -0.0016834812 -0.0054792776
-0.0032193249 -0.054937907 0.0034770123 0.05471337 0.021497387 0.0058983034 -0.035729446 0.02298283
0.060882937 0.03589498 0.047743622 -0.00088347937 -0.052128572 0.00011346857 0.04076827 0.08479119
0.06439189 -0.033169713 -0.02227833 -0.03702994 0.0013762403 0.056093853 -0.009301789 0.0014128846
0.014818601 0.031677682 0.025683831 0.017449444 0.0014353102 -0.047230214 -0.014557193 0.029019907
0.005532927 0.0077244057 -0.04605124 -0.00913395 0.028306514 0.03555993 -0.040347185 -0.04711523
0.006261647 0.058226857 0.08342723 0.022113647 -0.02099721 -0.04270947 0.013805723 0.07890856
0.03058966 0.018385436 0.0027183783 0.0012431404 0.019347392 0.0035832096 -0.0030725664 -0.0094557535
-6.64167e-05 0.04200135 0.04800473 0.045593977 0.011646606 -0.042952057 0.013673616 0.04242277
-0.01379996 -0.009483757 -0.05570728 -0.009346668 -0.0030337046 0.028631676 0.027505258 -0.0360247
-0.056383938 -0.009708175 -0.0030025218 -0.023937572 0.014292026 0.050948266 0.035478424 -0.0094445655
00000000: 7fdc 053c 68f6 353d 95fc f4b9 a121 53bd
00000010: 2b4a a1bc b8a1 03bd 357f 8f3d 5777 173d
00000020: cff1 5e3b ca6a edbc 09b1 24bc e9f6 c73c
00000030: 3289 383d 7dec 2e3d 603e f4bc b563 18bd
00000040: 2f8d bfbc e598 d53c 7b3c ae3d 2ca9 863d
00000050: 2c9f f9bc 89ae c4bc df0c 9cbc 7552 a83d
00000060: 9c9b a03d 0161 50bb 6773 7cbc 5469 f73c
00000070: 5e79 953b 56f3 97bb 5e03 aa3c 17f7 dcbb
00000080: 7c6f 81bc ad3c 723c 0bec d73c 65a1 4a3d
00000090: 4d1d ed3c 33da 83bd 4318 76bd b679 3b3d
000000a0: 238e 483d 85ef da3b 007d e9bc 5bfc 93bd
000000b0: 7ddc 09bd a368 833d 7762 5b3c 98e8 2a3d
000000c0: 689c 243d 15f6 abbc dd93 1f3c 52a7 29bd
000000d0: b3c5 06bd fc68 a4ba d146 4ebd a186 2abd
000000e0: 170a 53bd ebff a7bb eb9f 20bd 3522 dfbc
000000f0: 82a0 aa3b 1a8d ffbc 6df3 87bd 9b03 863c
00000100: a611 c43c cc31 113d ee01 05bd 6ee6 5bbd
00000110: 73a2 69bc 4a4a c43c 93be adbc 666f 943c
00000120: 9eb6 b63b 9850 f03b 7a43 fcbc 6b53 41ba
00000130: e987 823c 0669 763d 6766 423c 12ea 47bb
00000140: 42fd 44bd 5bbd fabc 6528 a23b 6c49 9a3d
00000150: 3f4a 023c 56be 4fbc 8045 a3bc cc29 5dbc
00000160: f2e6 38bb 22eb ae3d 4e9f a63c fcbf e8bc
00000170: 4fbc 8dbd bc49 8c3b fae4 623d 29a0 9cbc
00000180: 732f 843c bf3e 90bc 5bf9 68bd 2bb4 8b3c
00000190: aa29 ec3c a9b0 ef3c 3bd9 0cbd 71e7 d8bc
000001a0: 2c72 1ebd e650 49bc 532a 5abc be9b 2bbc
000001b0: 80f4 3cbc 7726 163d 77eb a1bb b1f3 573c
000001c0: 193b 9dbc ada9 d4bb 36a1 323c c0b2 f93b
000001d0: 97a9 383c 97dd e1bc 71fd b53c 4662 623d
000001e0: 42c3 02bd 0f34 44ba 13f9 183d 28ac c43c
000001f0: f97b 533c 852c dd3a 671b abbc 8bd5 6ebc
00000200: 9472 62bc 5da7 693c c531 f43c 61c8 15bd
00000210: d18b be3b ca04 92bc 29f6 f7bc 0abe 74bc
00000220: eadd b0b8 70e8 3cbd ba4e 59bc 817e 18bc
00000230: e5c2 a6bc 1daa 9abd ef59 97bd 0294 223c
00000240: 1959 9d3c b3e7 29bd adb9 41bc 5759 0bbd
00000250: e5f4 18bd e5c8 b43c e270 d4bc f1a8 d639
00000260: 57f7 6cbc 3cf2 cfbc 5690 60bd f8a1 12bd
00000270: d0c8 49bd c3fd 3bbd 384b d43b dc72 30bd
00000280: ba05 13bb a772 48bd 24c6 0bbd dbf1 f73c
00000290: 5c30 2dbd d72f 74bd 26c6 3dbd e03c 5fbd
000002a0: 5e47 e23b fb9c 9c3a f0c6 d9bc 1cc7 41bd
000002b0: e813 1cbd 669e c3bc 41a8 dcba 838b b3bb
000002c0: 4ffb 52bb 9206 61bd 96de 633b 201b 603d
000002d0: 4a1b b03c 8e46 c13b 0a59 12bd 7d46 bc3c
000002e0: 6360 793d 9d06 133d d18e 433d 4c99 67ba
000002f0: c584 55bd faf5 ed38 a1fc 263d 01a7 ad3d
00000300: e5df 833d f7dc 07bd 0b81 b6bc b5ac 17bd
00000310: f662 b43a abc2 653d 8866 18bc 8a30 b93a
00000320: b8c9 723c 75c0 013d e666 d23c 23f2 8e3c
00000330: 0521 bc3a 7874 41bd 4b81 6ebc 28bb ed3c
00000340: 8e4d b53b 031d fd3b 3aa0 3cbd 90a6 15bc
00000350: 10e3 e73c 4aa7 113d 1743 25bd e6fb 40bd
00000360: 812e cd3b 497f 6e3d e5db aa3d ae27 b53c
00000370: 5702 acbc 20f0 2ebd 6631 623c d09a a13d
00000380: 2b97 fa3c 0e9d 963c d226 323b dff0 a23a
00000390: 6c7e 9e3c 48d4 6a3b 1c5d 49bb 4eec 1abc
000003a0: 3249 8bb8 9c09 2c3d 9ca0 443d c0c0 3a3d
000003b0: 68d1 3e3c 7fee 2fbd 4d07 603c 80c3 2d3d
000003c0: 3a19 62bc c361 1bbc 512d 64bd c422 19bc
000003d0: 1ed1 46bb fa8c ea3c b552 e13c a38e 13bd
000003e0: d8f2 66bd 0a0f 1fbc f5c5 44bb ba18 c4bc
000003f0: 1a29 6a3c 21af 503d d351 113d 61bd 1abc

bias f4 [32]
-0.10622051 -0.1271708 -0.09836443 -0.031601958 0.045955785 -0.20148003 -0.17838272 0.016576838
-0.0143288905 -0.049224928 0.023561064 -0.056618787 -0.025609985 -0.105532244 -0.11512587 -0.0829471
-0.06835817 -0.09765636 0.001748878 0.0052317916 0.065364756 -0.052847367 -0.060125124 -0.124166355
0.030261904 -0.04257723 0.033133775 -0.08055529 -0.06729862 0.088271916 -0.106884636 0.028881103
00000000: 248a d9bd 1039 02be 4a73 c9bd 0e71 01bd
00000010: 223c 3c3d c850 4ebe f6a9 36be 26cc 873c
00000020: b9c3 6abc 14a0 49bd 2203 c13c 1ae9 67bd
00000030: 08cc d1bc 4a21 d8bd 1dc7 ebbd 2be0 a9bd
00000040: 5eff 8bbd 0f00 c8bd 9c3a e53a 736f ab3b
00000050: f5dd 853d 7b76 58bd c345 76bd ee4a febd
00000060: d0e7 f73c 7665 2ebd 48b7 073d 2cfa a4bd
00000070: dcd3 89bd e8c7 b43d 55e6 dabd 1098 ec3c

weight f4 [64, 32, 5, 5]
-0.0059222966 0.014931026 -0.0425668 -0.031719204 0.011160387 -0.017364396 0.03272378 -0.03840748
-0.03402512 0.029109454 -0.071626484 -0.03824625 -0.05294563 -0.040133875 0.004201112 -0.0319172
-0.0072802715 -0.03581312 0.012742991 0.013667499 -0.03956637 -0.030134652 0.0054685627 -0.018082278
0.005934046 0.004625817 -0.04560256 -0.00059656997 0.022211038 0.025668016 -0.01483826 -0.034159884
-0.04102485 0.038662326 0.017702397 -0.015086796 -0.0123079885 -0.00071460166 0.01410461 0.0564239
-0.030766286 -0.05786234 -0.032528687 -0.008794108 0.024945935 0.027399523 0.004866629 0.004034232
0.021451421 -0.00846099 -0.037188355 -0.004642156 -0.037035625 0.006552432 -0.0071736258 0.038414944
-0.035405397 -0.012453051 0.014522485 0.006037831 -0.047648076 -0.038711987 -6.483286e-05 0.046505265
0.040903106 -0.0035600583 -0.031557254 -0.010599325 0.04826145 0.023194732 -0.033285897 0.0044296365
0.04023422 0.0023184128 -0.026294068 0.0061749644 0.008925149 -0.064859316 0.017875073 0.022024566
0.038897242 -0.012740547 -0.057916194 -0.00088369177 -0.014457366 0.022209762 -0.061049916 -0.044223648
0.018027358 0.036481712 -0.037035383 -0.020606833 -0.042228494 -0.02695667 -0.010828145 0.023022188
-0.013791968 0.016176164 0.034971796 -0.01938844 -0.027115112 -0.009646558 0.020802386 0.029430933
0.0098744845 -0.0012345883 -0.0015547383 0.003006602 -0.0010492471 -0.014651931 -0.01577754 0.028456029
-0.001933137 0.04508514 0.014254672 -0.0023396136 -0.021080911 0.0033027164 -0.011751553 -0.021120314
0.024280736 0.046184942 -0.0065092244 0.015996324 0.007143587 -0.034260236 -0.04424063 0.010740326
0.015634652 -0.008645948 -0.024865016 0.03224728 0.019182 0.02965531 0.029854922 0.0040423777
-0.024551135 0.009098035 0.071250334 0.021494964 -0.0031517316 0.01422923 0.017425403 0.0028051503
0.022819446 0.020787992 -0.016366938 0.030189905 0.0010756652 0.029281702 -0.008847834 0.026087627
-0.009901779 0.022336008 0.003053437 0.022608193 0.0012274809 -0.008147251 0.015760222 0.043528125
-0.010179661 0.0035429785 0.003046989 0.03343387 0.02753401 0.0032957892 -0.015534063 -0.031052373
-0.00514722 -0.0064925174 0.018671328 0.012713279 0.024307996 0.02955849 0.049432937 -0.012693667
0.00955787 0.013302027 -0.031668313 -0.033396374 -0.06037975 0.0008173972 0.037644874 0.0049661156
-0.0024341843 -0.052614447 -0.0048410334 -0.038836677 -0.024148742 0.012767736 0.003930461 0.019350862
0.046083003 -0.025917951 0.0052432534 -0.0127996085 0.007722831 0.007006609 0.017955363 0.029287929
0.009673236 0.043133587 0.012286847 -0.017988455 -0.03539177 -0.0073216357 0.03139238 -0.034396704
-0.028930608 -0.016923178 0.0034050676 0.038245104 -0.048365887 -0.011569833 -0.031368133 -0.010351551
0.07488688 0.049149834 0.004986654 0.015690157 -0.017949065 0.03392794 0.010999222 -0.016395306
0.0134026585 0.02132334 0.036085803 0.018443082 0.02373432 0.016668048 0.0045196856 0.031466063
-0.0015564652 -0.022417754 0.032749984 0.039086692 -0.047266014 -0.04332182 -0.047199782 -0.03725813
-0.027365537 0.016696751 0.04167599 0.055040076 -0.017328853 0.0176606 -0.012130169 -0.0053023347
-0.041207604 -0.010329269 -0.04932705 -0.03573346 -0.051453624 0.033898383 -0.03141663 -0.020502195
00000000: d30f c2bb 43a1 743c 865a 2ebd ffeb 01bd
00000010: 0eda 363c c73f 8ebc 5f09 063d 2951 1dbd
00000020: ed5d 0bbd f376 ee3c e8b0 92bd 1aa8 1cbd
00000030: 84dd 58bd 6b63 24bd 7ba9 893b 9cbb 02bd
00000040: 588f eebb c7b0 12bd fac7 503c a5ed 5f3c
00000050: 5910 22bd f2dc f6bc a131 b33b 4921 94bc
00000060: 6372 c23b 2a94 973b c0c9 3abd 2263 1cba
00000070: ecf3 b53c bb45 d23c 2c1c 73bc 3ceb 0bbd
00000080: ac09 28bd 635c 1e3d 9e04 913c 9c2e 77bc
00000090: 72a7 49bc 1b54 3bba 0617 673c bf1c 673d
000000a0: 9409 fcbc 1001 6dbd cd3c 05bd 2a15 10bc
000000b0: 6b5b cc3c f774 e03c 3e78 9f3b 9731 843b
000000c0: e4ba af3c f79f 0abc d152 18bd 3a1d 98bb
000000d0: abb2 17bd c9b5 d63b bc10 ebbb fd58 1d3d
000000e0: 4005 11bd e207 4cbc b8ef 6d3c ffd8 c53b
000000f0: a12a 43bd 7690 1ebd e0f6 87b8 4e7c 3e3d
00000100: 048a 273d de4f 69bb 2e42 01bd cba8 2dbc
00000110: ccad 453d e102 be3c cb56 08bd 7c26 913b
00000120: a3cc 243d 83f0 173b a866 d7bc 5b57 ca3b
00000130: ca3a 123c f6d4 84bd bf6e 923c dd6c b43c
00000140: b752 1f3d babd 50bc 8839 6dbd 8da7 67ba
00000150: 97de 6cbc 3ff1 b53c 7a0f 7abd db23 35bd
00000160: 1cae 933c d96d 153d 6ab2 17bd a9cf a8bc
00000170: c9f7 2cbd 3cd4 dcbc 8868 31bc 0799 bc3c
00000180: b5f7 61bc e083 843c 963e 0f3d 81d4 9ebc
00000190: 8320 debc 990c 1ebc c469 aa3c 2419 f13c
000001a0: 97c8 213c e9d1 a1ba 5cc8 cbba 690a 453b
000001b0: e486 89ba a70e 70bc e63f 81bc 9e1c e93c
000001c0: 5061 fdba 32ab 383d 6e8c 693c 3454 19bb
000001d0: e0b1 acbc 6372 583b 9689 40bc 8204 adbc
000001e0: 65e8 c63c 6c2c 3d3d 554b d5bb b90a 833c
000001f0: c014 ea3b 7654 0cbd aa35 35bd 31f8 2f3c
00000200: 3e14 803c bca7 0dbc b8b1 cbbc b915 043d
00000210: 9223 9d3c b1ef f23c 4f92 f43c ec75 843b
00000220: 761f c9bc ed0f 153c b2eb 913d 3516 b03c
00000230: 488d 4ebb b721 693c b8bf 8e3c 9dd6 373b
00000240: d9ef ba3c 944b aa3c f513 86bc d250 f73c
00000250: 56fd 8c3a 2ee0 ef3c 81f6 10bc b8b5 d53c
00000260: 123b 22bc 01fa b63c 2c1c 483b d134 b93c
00000270: 6de3 a03a 0c7c 05bc 951b 813c 8c4a 323d
00000280: 98c8 26bc 5131 683b feaf 473b f4f1 083d
00000290: 018f e13c 2bfe 573b 9582 7ebc 8c61 febc
000002a0: 03aa a8bb 2fbf d4bb 9df4 983c 5b4b 503c
000002b0: 9021 c73c a524 f23c 317a 4a3d 19f9 4fbc
000002c0: 9d98 1c3c bff0 593c a2b6 01bd a3ca 08bd
000002d0: c250 77bd 9946 563a 8331 1a3d ccba a23b
000002e0: d686 1fbb 3f82 57bd 88a1 9ebb 3513 1fbd
000002f0: 95d3 c5bc c42f 513c 19cb 803b b385 9e3c
00000300: 88c1 3c3d e251 d4bc 99cf ab3b 73b5 51bc
00000310: cd0f fd3b b297 e53b 2017 933c 3ded ef3c
00000320: 7e7c 1e3c d8ac 303d c64e 493c 865c 93bc
00000330: f6f6 10bd 55ea efbb 4c95 003d 8fe3 0cbd
00000340: e2ff ecbc 7aa2 8abc 8e27 5f3b e6a6 1c3d
00000350: 4f1b 46bd 668f 3dbc df7b 00bd 8d99 29bc
00000360: 4b5e 993d 5651 493d 1667 a33b a588 803c
00000370: eb09 93bc 06f8 0a3d 1536 343c 734f 86bc
00000380: d396 5b3c 49ae ae3c b5ce 133d f215 973c
00000390: 7a6e c23c 6e8b 883c df19 943b 8fe2 003d
000003a0: 4e02 ccba 70a5 b7bc d924 063d 5e19 203d
000003b0: 029a 41bd 3972 31bd 8f54 41bd fb9b 18bd
000003c0: b12d e0bc a0c7 883c 71b4 2a3d b471 613d
000003d0: 3df5 8dbc f6ac 903c 9ebd 46bc 35bf adbb
000003e0: 4ec9 28bd 183c 29bc 290b 4abd 405d 12bd
000003f0: 09c1 52bd 08d9 0a3d b9ae 00bd 38f4 a7bc

bias f4 [64]
-0.05831245 -0.0890978 -0.07879714 -0.009768908 -0.019815372 -0.073950164 -0.032463185 -0.0027750486
-0.033601478 -0.032587018 -0.08393326 -0.058178734 -0.04888698 -0.046099033 -0.06257214 -0.013033354
-0.07613376 -0.05772489 -0.05689591 -0.058678873 -0.052956622 -0.011970716 -0.021783771 -0.09345636
-0.0572229 -0.007265066 -0.058848727 -0.016856097 -0.046649627 -0.055237543 -0.011991017 -0.017138595
0.009483515 -0.023226932 -0.062031094 -0.026415594 -0.015253071 -0.0718849 -0.064587 -0.096972115
-0.06828407 -0.05608864 0.049400542 -0.0037041279 -0.032881726 -0.010808089 -0.024875212 -0.072293155
-0.01976145 -0.01368258 -0.08515297 -0.07443675 -0.04533864 -0.09888781 0.015868 0.023221066
0.030772489 -0.08283806 0.03132902 -0.084390946 -0.0607117 -0.016189573 -0.011647693 0.002815845
00000000: 09d9 6ebd e878 b6bd 6560 a1bd c50d 20bc
00000010: d953 a2bc 2f73 97bd 1ef8 04bd 97dd 35bb
00000020: b4a1 09bd f779 05bd 33e5 abbd d34c 6ebd
00000030: b73d 48bd 57d2 3cbd d225 80bd d989 55bc
00000040: 04ec 9bbd ef70 6cbd b00b 69bd 4259 70bd
00000050: 0be9 58bd d220 44bc e173 b2bc 0c66 bfbd
00000060: 8f62 6abd ca0f eebb 5d0b 71bd cc15 8abc
00000070: ae13 3fbd c340 62bd f875 44bc 3d66 8cbc
00000080: bf60 1b3c 6846 bebc 5114 7ebd 8465 d8bc
00000090: 04e8 79bc 6438 93bd 3046 84bd 5199 c6bd
000000a0: 85d8 8bbd 34bd 65bd 3958 4a3d f4c0 72bb
000000b0: fdae 06bd 6914 31bc 1ac7 cbbc 6f0e 94bd
000000c0: c4e2 a1bc e62c 60bc ae64 aebd 4b72 98bd
000000d0: 03b5 39bd b185 cabd 9cfd 813c 1b3a be3c
000000e0: 9616 fc3c 00a7 a9bd dc52 003d 29d5 acbd
000000f0: d5ac 78bd ff9f 84bc f7d5 3ebc 0a8a 383b

weight f4 [64, 1024]
-0.052569572 0.0075540445 0.017098052 0.009796777 -0.0075818715 0.029119948 0.019947316 -0.020942967
-0.016027803 -0.0025342316 0.042246226 -0.011627473 -0.030178197 -0.056004588 -0.0042897603 -0.038408127
-0.014282637 0.022327773 -0.023183044 0.00080999854 -1.4512367e-05 -0.010404255 -0.0229873 -0.00871069
-0.01602936 0.023081884 -0.03120268 0.05147729 0.013605225 0.0026060543 0.013599993 -0.019592043
0.011314804 -0.001448319 -0.031276062 -0.0123474905 -0.02621519 0.017168868 0.016493702 0.027536511
-0.015862232 -0.0356988 -0.033638928 -0.013404542 0.006722107 0.030735254 0.012946685 -0.015091765
-0.017162312 -0.031735804 -0.017809056 -0.025566086 -0.031063158 -0.007701625 0.023325397 4.3030483e-05
-0.026813325 0.022958022 0.028031038 0.0356863 0.012394898 0.03573974 0.067449704 0.032337945
0.016958676 -0.001938428 0.017991338 0.03478783 -0.022760028 -0.009708613 0.016949892 0.05550573
0.005570436 0.053896543 0.0038038115 0.009869791 -0.01763359 0.02199672 -0.0144040715 0.0070657483
-0.015402442 0.031779144 0.009333084 -0.017940955 -0.016360093 0.005063558 0.022850594 0.008640136
-0.0011644476 0.0294305 -0.015862728 -0.005641806 0.043716896 0.030319361 0.032343667 0.02368283
-0.011063206 -0.021009928 -0.008945089 0.017107574 -0.0005559956 -0.010869852 -0.019481644 -0.023559675
0.03619763 0.047798853 -0.009565578 0.05255187 -0.018454984 0.017015427 0.031235779 0.016057169
0.006389594 -0.050937787 -0.004564628 0.046309877 0.02547293 -0.01126721 0.042882524 0.03467378
-0.004474876 -0.02371004 0.044206496 0.043170836 0.05301573 -0.0048298133 -0.005030177 0.01598563
-0.012724362 -0.0033049898 0.025825473 -0.009520894 0.032773603 0.0036661322 0.04752133 0.04002693
0.043834448 0.055431396 0.027629355 0.04741431 -0.023600355 -0.0038244487 -0.0061746207 -0.017954586
0.014810996 -0.010088005 0.01665505 -0.007743587 0.021478819 0.034843627 0.060922816 0.033229344
0.019605735 0.06991358 0.032030094 0.002323425 -0.0334122 -0.012441388 -0.023833202 -0.023681138
0.025647175 -0.009312724 -0.0319801 0.00090108434 0.034631226 -0.011429132 -0.0032969404 0.06149137
0.035088614 -0.02566914 0.016000608 0.042095426 -0.015494428 -0.034993444 0.0032264171 0.020499155
0.019533401 0.005623818 -0.031584535 -0.010535974 -0.02078568 0.0077081504 -0.020238128 -0.018910944
-0.008711751 0.011057619 -0.037785962 0.0048459806 0.00894979 0.02527218 0.04920257 0.023904452
0.008584748 -0.046141222 0.0017852689 -0.014619042 0.018681454 -0.039842922 -0.021282962 -0.0063940743
0.008157561 -0.02418766 0.02757592 0.009686129 0.05501823 -0.019199373 -0.0035061392 -0.03205847
0.009790518 -0.016746426 -0.016784223 0.010826923 0.00055132346 0.016063035 0.026272712 0.010595144
0.0056744837 0.026402228 0.011022996 0.055217203 -0.04208987 -0.031352293 -0.009056217 -0.0089856945
0.016435035 0.004347493 0.04967165 -0.0014442177 0.022059085 0.0053986437 -0.0056483466 0.016556608
0.008320314 -0.04579682 0.013520139 -0.05124599 0.0054177158 -0.025526028 0.017252766 0.009385707
0.0033571133 0.018369405 0.019734224 -0.017587835 -0.013469554 -0.022417417 -0.0029936505 0.010765912
0.015321066 -0.03559852 0.023570916 0.0014710801 0.012306848 0.015662098 -0.0015740851 -0.00012577767
00000000: 3153 57bd eb87 f73b 3711 8c3c a982 203c
00000010: 5971 f8bb f58c ee3c 8e68 a33c 9690 abbc
00000020: bd4c 83bc 5a15 26bb 610a 2d3d 2881 3ebc
00000030: 4438 f7bc 1165 65bd 1e91 8cbb d751 1dbd
00000040: b901 6abc bce8 b63c 5eea bdbc 1556 543a
00000050: 247a 73b7 9c76 2abc dd4f bcbc 48b7 0ebc
00000060: 0150 83bc 3816 bd3c c39c ffbc dad9 523d
00000070: 73e8 5e3c 56ca 2a3b 81d2 5e3c 7e7f a0bc
00000080: ba61 393c 85d5 bdba 541b 00bd 214d 4abc
00000090: 3dc1 d6bc baa5 8c3c cd1d 873c 4094 e13c
000000a0: 83f1 81bc e838 12bd f9c8 09bd b99e 5bbc
000000b0: 1f45 dc3b 80c8 fb3c 551e 543c 7343 77bc
000000c0: fa97 8cbc 67fd 01bd 4ce4 91bc f86f d1bc
000000d0: 2a78 febc ea5d fcbb e714 bf3c a17b 3438
000000e0: 9ea7 dbbc 7612 bc3c 59a1 e53c cc2b 123d
000000f0: f813 4b3c d563 123d 1223 8a3d cb74 043d
00000100: ecec 8a3c da12 feba 9262 933c af7d 0e3d
00000110: 3d73 babc e010 1fbc 80da 8a3c fa59 633d
00000120: 3488 b63b 9fc2 5c3d 5e49 793b e7b4 213c
00000130: 5274 90bc 7732 b43c 0eff 6bbc cb87 e73b
00000140: 865a 7cbc d92a 023d cbe9 183c e9f8 92bc
00000150: 9a05 86bc 34ec a53b 2b31 bb3c 5b8f 0d3c
00000160: 61a0 98ba 3b18 f13c 8df2 81bc e6de b8bb
00000170: 7d10 333d 4f60 f83c cb7a 043d 7f02 c23c
00000180: 7342 35bc 031d acbc 6c8e 12bc 2f25 8c3c
00000190: 3cc0 11ba 7717 32bc f897 9fbc 3800 c1bc
000001a0: f743 143d bbc8 433d f1b8 1cbc a140 573d
000001b0: e82e 97bc f063 8b3c 2de2 ff3c 538a 833c
000001c0: cd5f d13b 24a4 50bd e092 95bb 6daf 3d3d
000001d0: 9bac d03c 1b9a 38bc 96a5 2f3d 1806 0e3d
000001e0: fba1 92bb 8f3b c2bc df11 353d e7d3 303d
000001f0: 0627 593d 6943 9ebb 2fd4 a4bb 4cf4 823c
00000200: d879 50bc 8798 58bb f18f d33c 86fd 1bbc
00000210: 9d3d 063d 7e43 703b baa5 423d 47f3 233d
00000220: c08b 333d 080c 633d f556 e23c 8235 423d
00000230: 8855 c1bc 9aa3 7abb 7954 cabb 7f15 93bc
00000240: d2a9 723c 2948 25bc 2c70 883c eabd fdbb
00000250: 59f4 af3c 31b8 0e3d 348a 793d 7e1b 083d
00000260: 359c a03c da2e 8f3d fd31 033d 9a44 183b
00000270: 3bdb 08bd f7d6 4bbc d93d c3bc f2fe c1bc
00000280: 061a d23c 6594 18bc 91fd 02bd bf36 6c3a
00000290: 79d9 0d3d 4141 3bbc 7b11 58bb 60de 7b3d
000002a0: 14b9 0f3d 1748 d2bc b513 833c 416c 2c3d
000002b0: 57dc 7dbc 4955 0fbd 4c72 533b d8ed a73c
000002c0: 8304 a03c 0148 b83b c95e 01bd 149f 2cbc
000002d0: bb46 aabc a794 fc3b 6eca a5bc 20eb 9abc
000002e0: bbbb 0ebc 042b 353c 74c5 1abd 08cb 9e3b
000002f0: 24a2 123c 9a07 cf3c a288 493d 45d3 c33c
00000300: 0ba7 0c3c 94fe 3cbd afff e93a b584 6fbc
00000310: d909 993c 5532 23bd 9b59 aebc 6285 d1bb
00000320: 4aa7 053c 3325 c6bc e5e6 e13c 92b2 1e3c
00000330: cc5a 613d 0148 9dbc 41c7 65bb be4f 03bd
00000340: 6968 203c cd2f 89bc 117f 89bc 6863 313c
00000350: b186 103a a096 833c df39 d73c 4197 2d3c
00000360: 05f1 b93b 7c49 d83c cc99 343c 6f2b 623d
00000370: 6d66 2cbd 436b 00bd 8760 14bc bc38 13bc
00000380: c4a2 863c 6a75 8e3b 8074 4b3d e84b bdba
00000390: 41b5 b43c 1be7 b03b c415 b9bb b9a1 873c
000003a0: ed51 083c 7295 3bbd 9383 5d3c 51e7 51bd
000003b0: 1887 b13b f61b d1bc ac55 8d3c 82c6 193c
000003c0: 0403 5c3b 6f7b 963c aba9 a13c 5d14 90bc
000003d0: 67af 5cbc bba4 b7bc 1f31 44bb 8263 303c
000003e0: 3505 7b3c c1cf 11bd cb17 c13c 42d1 c03a
000003f0: a9a2 493c cd4d 803c 8851 ceba 30e3 03b9

bias f4 [64]
-0.019947903 0.0022083228 -0.02531433 0.011991609 -0.012769 0.039107863 -0.017906548 -0.01925885
0.0033921956 -0.009126989 -0.024821406 -0.045852095 0.015554221 0.048590314 0.0029431984 -0.0065574097
0.02393864 0.013501656 -0.023892127 0.03330197 -0.04452056 0.016877728 0.019130664 -0.028023584
0.02994911 -0.03300641 -0.0001941247 -0.025547007 0.069238774 0.027731856 -0.028274657 0.019596888
-0.04231947 0.040224206 -0.006267422 -0.045248907 -0.021192737 0.025552897 -0.047073044 -0.04853601
-0.050701372 -0.018026035 -0.029670311 -0.035343535 0.020973919 -0.008267211 -0.0045245336 -0.03250343
-0.029949188 -0.029306566 0.030242296 0.06290653 0.017746652 -0.0016652697 -0.0053190133 -0.0043906495
-0.00062849047 -0.04178175 -0.04756158 0.01535297 0.031706788 -0.045764428 0.020768175 0.029831622
00000000: c969 a3bc 82b9 103b ff5f cfbc 7478 443c
00000010: 1135 51bc 912f 203d c1b0 92bc bcc4 9dbc
00000020: 994f 5e3b 5e89 15bc 4356 cbbc 68cf 3bbd
00000030: 22d7 7e3c a306 473d ade2 403b 8adf d6bb
00000040: f71a c43c 0d36 5d3c 6cb9 c3bc a667 083d
00000050: 315b 36bd 2943 8a3c e9b7 9c3c b791 e5bc
00000060: d657 f53c bb31 07bd f48d 4bb9 f547 d1bc
00000070: 0fcd 8d3d eb2d e33c 41a0 e7bc a789 a03c
00000080: 2e57 2dbd 23c2 243d f25e cdbb eb56 39bd
00000090: 649c adbc 4f54 d13c aacf 40bd b2cd 46bd
000000a0: 3eac 4fbd 56ab 93bc 270f f3bc 62c4 10bd
000000b0: 7fd1 ab3c 3273 07bc 8a42 94bb 5122 05bd
000000c0: 0058 f5bc 5314 f0bc b1be f73c 24d5 803d
000000d0: 6d61 913c 2e45 daba 1e4b aebb 70df 8fbb
000000e0: 48c1 24ba 5723 2bbd eecf 42bd 068b 7b3c
000000f0: fade 013d 7b73 3bbd 0522 aa3c 7261 f43c

weight f4 [10, 64]
0.033157166 0.18608408 -0.11483837 -0.0277876 -0.16604698 -0.19537464 0.091524206 0.19179067
0.19480002 0.04144654 -0.2027999 0.16892537 -0.06630091 0.03440103 -0.24145119 0.19389363
0.16884248 -0.228772 0.17661071 -0.16653036 0.014488515 -0.17399126 -0.012718322 0.15234017
-0.120913014 -0.03494845 -0.15238555 -0.11686386 -0.18126653 -0.016310813 -0.05232939 0.02365523
0.24442457 -0.1942096 -0.07882394 0.026531251 -0.15806636 -0.08601607 0.24333382 -0.19460471
0.21465638 -0.08234041 0.094755895 0.13427149 0.014077193 -0.19113751 0.061534368 -0.07563995
0.2258006 0.0007398488 -0.19498892 -0.0939486 0.09579697 -0.023237744 0.11187473 0.03445691
0.026649307 0.25000295 0.11874456 -0.23763295 -0.11379795 -0.0030001798 -0.111736365 0.046480082
0.13154997 -0.04092672 0.12486998 -0.20091328 -0.016377585 0.055312168 -0.07066567 -0.2182347
-0.22168815 -0.015812904 -0.23164082 -0.13973053 -0.08697831 -0.15470278 0.24107897 -0.07325374
-0.08358393 0.2330441 0.07446782 -0.15673532 -0.13560812 -0.12525086 -0.038996793 0.18585461
0.35824925 0.23215595 0.17174461 0.048178304 -0.25872287 -0.16777436 -0.08868949 0.16211516
0.21077587 0.082271956 -0.07851181 -0.21603104 -0.093572095 0.11972644 -0.19275218 -0.11069272
0.11059974 -0.034601565 0.031684954 0.038869463 -0.21350853 -0.21517855 -0.081193015 0.2331049
-0.033966485 0.15794562 -0.16789629 -0.20074135 -0.30911362 0.18957683 -0.14087424 -0.093054995
0.3173177 0.13698411 0.0043457095 0.28377983 -0.343016 -0.12408837 -0.23712753 -0.19539554
-0.2819791 0.0016640624 -0.2753742 0.15133676 -0.0846693 -0.09244241 0.07236549 -0.045773152
0.009158649 -0.10841368 0.15703294 -0.20425221 0.020171957 0.010800069 -0.2736657 0.20076686
-0.0641126 -0.14014018 -0.13897273 0.07971206 0.04565837 0.08131122 -0.15573128 -0.23154509
-0.0273391 0.05481489 -0.13313413 0.09771926 -0.15579282 0.1908863 -0.044720903 0.18000008
0.20452192 0.07666327 -0.15798332 -0.021403033 0.21278659 0.090709284 0.1482961 -0.27273768
0.08741788 0.09347129 0.037593044 0.033626463 0.1327453 0.20930114 0.31817898 -0.013695552
0.0922357 0.23873827 0.23679301 0.14112018 -0.09854406 0.16209413 0.121612005 0.12969601
0.033717204 -0.13082057 -0.05543456 -0.18293643 0.26040712 0.05627453 0.09495677 -0.047108825
-0.12119893 0.14756557 -0.18660109 -0.14054653 -0.07882261 0.15497568 -0.01070825 -0.027745312
-0.14109421 0.1441815 0.13177751 0.0065036113 0.115030944 -0.18834214 0.20140477 -0.09237039
0.1128915 0.14913264 -0.04926268 -0.006975449 0.008888567 0.09777813 0.18332908 0.010553445
-0.05684246 -0.03315458 -0.12222121 -0.17270416 0.07005147 0.060295396 0.21049167 -0.07321044
-0.07942891 0.03071116 0.09836023 -0.082760006 0.13304581 0.01770972 0.0782419 0.06648487
0.14363387 0.18593703 -0.25712335 -0.02918149 0.031237416 0.071997754 0.14025854 -0.1566724
-0.054371927 -0.08283853 -0.15536322 0.044038177 0.10743666 0.1775893 0.09765111 -0.052625697
-0.08530616 -0.1413077 0.11245417 -0.044006053 0.031863462 -0.12959202 0.07171643 -0.05821499
00000000: cfcf 073d d38c 3e3e 6130 ebbd d2a2 e3bc
00000010: 3808 2abe 4a10 48be 0b71 bb3d c664 443e
00000020: a879 473e d9c3 293d c7aa 4fbe c6fa 2c3e
00000030: c6c8 87bd 18e8 0c3d fb3e 77be 0d8c 463e
00000040: 0be5 2c3e 3543 6abe 70d9 343e ef86 2abe
00000050: 3d61 6d3c c42a 32be 8260 50bc 10ff 1b3e
00000060: 3ea1 f7bd 1b26 0fbd f50a 1cbe 5256 efbd
00000070: ef9d 39be 419e 85bc 5857 56bd 9dc8 c13c
00000080: 6f4a 7a3e e2de 46be 726e a1bd 1158 d93c
00000090: 26dc 21be 3129 b0bd 802c 793e 7546 47be
000000a0: e2ce 5b3e 17a2 a8bd 610f c23d 777e 093e
000000b0: 07a4 663c 8db9 43be 760b 7c3d 1ee9 9abd
000000c0: 4638 673e 6af2 413a 2dab 47be 2068 c0bd
000000d0: 3431 c43d 155d bebc 941e e53d b022 0d3d
000000e0: a64f da3c 6300 803e 5930 f33d 0d56 73be
000000f0: e60e e9bd aa9e 44bb 09d6 e4bd e661 3e3d
00000100: 09b5 063e c7a2 27bd d5bb ff3d 36bc 4dbe
00000110: 492a 86bc 038f 623d 2ab9 90bd eb78 5fbe
00000120: 3802 63be 108a 81bc 4033 6dbe 8515 0fbe
00000130: af21 b2bd 686a 1ebe 68dd 763e 0f06 96bd
00000140: 0d2e abbd 1da3 6e3e 9682 983d 397f 20be
00000150: dbdc 0abe c341 00be 1abb 1fbd ac50 3e3e
00000160: 726c b73e 4aba 6d3e d2dd 2f3e 9d56 453d
00000170: 5377 84be 0bcd 2bbe d6a2 b5bd 8401 263e
00000180: a1d5 573e 337e a83d cdca a0bd 3e37 5dbe
00000190: baa2 bfbd 2333 f53d d460 45be ddb2 e2bd
000001a0: 1e82 e23d 5fba 0dbd 15c8 013d 9635 1f3d
000001b0: fba1 5abe c457 5cbe 8648 a6bd 0db3 6e3e
000001c0: 7120 0bbd 7fbc 213e 01ed 2bbe 248f 4dbe
000001d0: 2444 9ebe 6e20 423e 5641 10be 9e93 bebd
000001e0: 7777 a23e 9045 0c3e 7466 8e3b 974b 913e
000001f0: cb9f afbe 0b22 febd 8fd1 72be c515 48be
00000200: 915f 90be ab1c da3a d9fd 8cbe 06f8 1a3e
00000210: 1967 adbd 7252 bdbd 5c34 943d a17c 3bbd
00000220: 280e 163c fe07 debd 3ecd 203e 7e27 51be
00000230: a93f a53c c6f2 303c e91d 8cbe d495 4d3e
00000240: 784d 83bd e880 0fbe de4e 0ebe 1440 a33d
00000250: 4504 3b3d 7f86 a63d 0578 1fbe 281a 6dbe
00000260: 40f6 dfbc 9485 603d 5054 08be 0921 c83d
00000270: 2788 1fbe b377 433e 442d 37bd f151 383e
00000280: 326e 513e a201 9d3d 61c6 21be 6a55 afbc
00000290: bae4 593e cac5 b93d efda 173e 46a4 8bbe
000002a0: 2508 b33d e06d bf3d 2afb 193d e7bb 093d
000002b0: 62ee 073e 0a53 563e 5be8 a23e 4f63 60bc
000002c0: 12e6 bc3d ce77 743e de79 723e cf81 103e
000002d0: 78d1 c9bd 01fc 253e b70f f93d 08cf 043e
000002e0: 0d1b 0a3d d4f5 05be 590f 63bd b053 3bbe
000002f0: 1554 853e 1f80 663d b278 c23d 2ff5 40bd
00000300: 2537 f8bd 6e1b 173e 5b14 3fbe 6eeb 0fbe
00000310: c06d a1bd f2b1 1e3e a871 2fbc 234a e3bc
00000320: 007b 10be 51a4 133e aff0 063e 3f1c d53b
00000330: 5895 eb3d c3dc 40be 0d3d 4e3e b02c bdbd
00000340: a933 e73d 3ab6 183e aac7 49bd 4f92 e4bb
00000350: 5aa1 113c e63f c83d 9eba 3b3e 5be8 2c3c
00000360: a4d3 68bd 19cd 07bd 1d4f fabd 5cd9 30be
00000370: 2577 8f3d 4ef8 763d 218b 573e 5bef 95bd
00000380: a0ab a2bd f895 fb3c 1771 c93d 147e a9bd
00000390: 293d 083e fa13 913c 4a3d a03d 3829 883d
000003a0: c214 133e 4766 3e3e aca5 83be 050e efbc
000003b0: 9ce5 ff3c 8f73 933d ef9f 0f3e bb6e 20be
000003c0: 19b5 5ebd 3fa7 a9bd 8917 1fbe 6061 343d
000003d0: c007 dc3d f8d9 353e 4efd c73d 0b8e 57bd
000003e0: ffb4 aebd f7b2 10be 5f4e e63d b13f 34bd
000003f0: 4383 023d c5b3 04be 10e0 923d d772 6ebd

bias f4 [10]
-0.06900863 0.12169783 -0.01882107 0.06945339 0.078961186 -0.10505491 0.09732193 -0.023100207
0.004251697 0.024864657
00000000: 6654 8dbd b63c f93d a52e 9abc 943d 8e3d
00000010: 67b6 a13d 0727 d7bd b850 c73d a53c bdbc
00000020: d251 8b3b f7b0 cb3c
