try_train/cifar10_models/cifar10_net_11.pth (torch, 589402 bytes, 10 tensors)

weight f4 [32, 3, 5, 5]
-0.023967786 0.13285552 0.12917086 -0.042479575 0.1579282 -0.07206887 -0.038048014 -0.02758439
0.13362038 0.074679434 -0.056967497 0.033796925 -0.11925577 -0.02605571 -0.115252376 0.010667811
-0.01364886 -0.18389556 -0.15257156 -0.124171436 0.14916024 -0.038014732 -0.17809054 -0.051828723
-0.052995935 -0.08646488 -0.032666657 -0.05815922 -0.06983764 -0.07340098 0.084459804 -0.09245539
-0.13159385 0.027678607 0.01725372 -0.018233214 0.036335498 -0.12321707 -0.01730851 -0.067383155
0.22901739 0.09806327 -0.084935226 -0.036823012 -0.12306503 0.12622796 0.05656451 -0.12672362
-0.13437787 0.032167174 0.0152789485 0.0690553 0.12062619 -0.002797711 -0.085745 0.021482803
0.016298626 -0.009493801 -0.0151006915 -0.016743254 0.13695861 0.016366664 -0.094587415 -0.11188347
-0.057352476 0.20485881 0.15102258 -0.040750008 -0.0066038207 0.01808677 0.23550528 0.12768708
-0.0991618 -0.09073002 -0.089693055 -0.14259188 -0.04436937 -0.1712335 -0.014231327 -0.058459338
0.017221354 -0.034958787 0.009325778 -0.07478321 0.042183533 0.053501938 -0.03112727 0.022211932
-0.040870506 0.07589697 -0.11140393 -0.07922049 -0.09578328 -0.13251168 -0.037066042 -0.062439844
-0.14802903 -0.106054574 -0.15046717 -0.11672537 -0.0059367823 0.016017817 -0.08920676 0.014642084
-0.15607809 -0.029965278 0.00517155 0.1026474 0.15231195 0.046023246 -0.0075623007 0.02626645
0.022943838 0.15167022 0.038961183 0.015233483 -0.06272602 -0.09588373 -0.06685522 -0.06200127
-0.083758704 -0.15852118 -0.1622689 -0.19719273 -0.13254333 -0.014140543 0.115503736 -0.0075560436
-0.068598695 -0.016128827 0.15208499 0.15845636 0.22998339 0.12694716 0.045967113 0.22284706
0.24176171 0.30294743 0.18368301 0.17963743 0.18399934 0.1975761 0.19172011 0.12509693
0.19109166 0.003595817 -0.03737246 0.049823176 0.11949001 0.042961814 0.027060067 -0.06561468
0.019821636 -0.059174236 -0.046347383 0.14323793 -0.16455783 0.07635979 0.046392966 -0.07159498
-0.010586442 -0.10984314 -0.08755417 -0.010830574 0.04584694 -0.15002896 0.033727136 0.102171116
0.0076928516 0.013883931 -0.12133618 -0.080716684 -0.029541178 -0.07254067 -0.13365895 0.13819224
-0.034339916 0.055313904 0.04323266 -0.004087115 0.119015545 -0.02385521 0.034522187 0.0975343
0.07114234 0.064957306 -0.08358629 0.15827328 0.052505277 -0.048728324 -0.087524116 -0.015838958
0.08841225 0.15549208 0.13638024 -0.0033456467 0.04759721 -0.08253298 0.11407063 0.019947747
0.035652217 -0.11939785 0.12505947 -0.084002025 0.0049120476 0.12891354 -0.11304616 0.032895666
-0.04616468 0.09417852 0.020951187 -0.09310781 -0.022240033 -0.05788248 0.06465967 0.00783134
-0.09172123 0.15883213 0.12641655 -0.096459106 -0.085683174 0.089056894 -0.10810046 -0.11470899
-0.13465165 -0.04069587 0.10721401 0.14981285 0.014008506 0.13299626 -0.028524444 0.086901635
-0.013105909 0.08429672 -0.05933135 0.094096325 0.0062727076 0.09860655 0.12473693 -0.030746376
-0.0753479 -0.13186161 -0.021003723 -0.00015487552 0.103279434 -0.09190036 -0.117820665 -0.21910645
-0.06484199 -0.12990873 -0.0035491379 -0.0056546605 -0.018947046 0.08755 0.08398212 -0.036186427
00000000: 1758 c4bc 470b 083e 5e45 043e 10ff 2dbd
00000010: eeb7 213e d898 93bd 3cd8 1bbd a9f8 e1bc
00000020: c8d3 083e 88f1 983d c056 69bd a56e 0a3d
00000030: 5f3c f4bd c972 d5bc 7009 ecbd 0bc8 2e3c
00000040: 789f 5fbc 1e4f 3cbe b83b 1cbe 984d febd
00000050: 76bd 183e 56b5 1bbd 5e5d 36be 5b4a 54bd
00000060: 4412 59bd 8014 b1bd 79cd 05bd 5d38 6ebd
00000070: 0907 8fbd 4153 96bd 43f9 ac3d 4059 bdbd
00000080: 8ac0 06be 3fbe e23c ac57 8d3c d25d 95bc
00000090: 88d4 143d 3b59 fcbd 94ca 8dbc 2e00 8abd
000000a0: 8983 6a3e 65d5 c83d 85f2 adbd bad3 16bd
000000b0: 8509 fcbd e741 013e 30b0 673d d6c3 01be
000000c0: 5a9a 09be bac1 033d 8e54 7a3c dd6c 8d3d
000000d0: dd0a f73d cd59 37bb 139b afbd b4fc af3c
000000e0: b284 853c e38b 1bbc e468 77bc 2629 89bc
000000f0: e13e 0c3e 6213 863c 0cb7 c1bd 2923 e5bd
00000100: 6eea 6abd 82c6 513e aaa5 1a3e 7be9 26bd
00000110: dd64 d8bb b52a 943c 4c28 713e 67c0 023e
00000120: 5815 cbbd a9d0 b9bd feb0 b7bd 9b03 12be
00000130: a8bc 35bd d657 2fbe 832a 69bc 0f73 6fbd
00000140: cc13 8d3c f230 0fbd 26cb 183c f127 99bd
00000150: a4c8 2c3d d924 5b3d 9efe febc ccf5 b53c
00000160: d567 27bd df6f 9b3d be27 e4bd 5a3e a2bd
00000170: 062a c4bd 24b1 07be 90d2 17bd ecc0 7fbd
00000180: ec94 17be 2433 d9bd 1114 1abe b60d efbd
00000190: 5789 c2bb cc37 833c 09b2 b6bd 5ae5 6f3c
000001a0: efd2 1fbe be79 f5bc 1b76 a93b cd38 d23d
000001b0: aaf7 1b3e df82 3c3d 2dcd f7bb bd2c d73c
000001c0: b7f4 bb3c 704f 1b3e c395 1f3d dc95 793c
000001d0: 8076 80bd b05e c4bd 64eb 88bd 0bf5 7dbd
000001e0: af89 abbd 6053 22be d229 26be e4ec 49be
000001f0: 70b9 07be bcad 67bc 398d ec3d b098 f7bb
00000200: 797d 8cbd 9a20 84bc 2bbc 1b3e 6242 223e
00000210: c480 6b3e 70fe 013e 0348 3c3d 0532 643e
00000220: 6290 773e ed1b 9b3e 6617 3c3e e0f2 373e
00000230: 536a 3c3e 6451 4a3e 4752 443e 6919 003e
00000240: 88ad 433e cca7 6b3b dd13 19bd 6313 4c3d
00000250: 2eb7 f43d baf8 2f3d 13ad dd3c fd60 86bd
00000260: fc60 a23c af60 72bd c1d6 3dbd f7ac 123e
00000270: d981 28be 8662 9c3d 8d06 3e3d 64a0 92bd
00000280: c272 2dbc 71f5 e0bd 9a4f b3bd b872 31bc
00000290: 00ca 3b3d 31a1 19be 7725 0a3d 173f d13d
000002a0: 5114 fc3b 6d79 633c 1a7f f8bd ca4e a5bd
000002b0: 5700 f2bc 3490 94bd e4dd 08be 4482 0d3e
000002c0: 03a8 0cbd d590 623d bb14 313d 35ed 85bb
000002d0: 6cbe f33d 006c c3bc 2367 0d3d 10c0 c73d
000002e0: 13b3 913d 5608 853d 4a2f abbd 6412 223e
000002f0: c60f 573d 5a97 47bd d83f b3bd b4c0 81bc
00000300: 7b11 b53d 5139 1f3e 43a7 0b3e a342 5bbb
00000310: 4bf5 423d 0d07 a9bd dd9d e93d 7569 a33c
00000320: 0f08 123d dc86 f4bd 970f 003e 4109 acbd
00000330: 3ef5 a03b e901 043e bf84 e7bd 9bbd 063d
00000340: 2d17 3dbd abe0 c03d d3a1 ab3c 4faf bebd
00000350: bb30 b6bc 2e16 6dbd 4a6c 843d 054f 003c
00000360: 57d8 bbbd e4a4 223e 5773 013e 5a8c c5bd
00000370: a97a afbd 7663 b63d c663 ddbd 8cec eabd
00000380: 1fe2 09be b6b0 26bd 0593 db3d 8a68 193e
00000390: ef83 653c 2c30 083e 18ac e9bc 7cf9 b13d
000003a0: 2bba 56bc c2a3 ac3d 6e05 73bd 93b5 c03d
000003b0: 498b cd3b 3bf2 c93d 1376 ff3d d3df fbbc
000003c0: 0050 9abd bb06 07be 0010 acbc 1566 22b9
000003d0: 2b84 d33d 4236 bcbd f64b f1bd 715d 60be
000003e0: e1cb 84bd cb06 05be a798 68bb bb4a b9bb
000003f0: d636 9bbc 6a4d b33d d1fe ab3d 3838 14bd

bias f4 [32]
0.1547704 -0.37722194 -0.0023568918 0.13603447 0.0019241847 -0.07783907 0.050535414 -0.078225255
0.07558106 -0.15527768 -0.1771012 -0.08188358 0.19120567 -0.007112351 -0.17463042 0.30150384
0.06183638 0.12915911 -0.18718216 -0.041264433 -0.020843703 0.06447614 -0.19028156 -0.14275524
0.062959746 -0.34237263 -0.0052876016 -0.068107665 0.38529733 -0.04358019 -0.09523661 -0.11671165
00000000: 227c 1e3e 3c23 c1be 1576 1abb 9f4c 0b3e
00000010: ed34 fc3a 176a 9fbd 39fe 4e3d 9034 a0bd
00000020: 3eca 9a3d 1d01 1fbe 045a 35be 94b2 a7bd
00000030: 6bcb 433e b90e e9bb 51d2 32be b65e 9a3e
00000040: 2548 7d3d 4942 043e aeac 3fbe e504 29bd
00000050: 6ac0 aabc 110c 843d 2bd9 42be 6e2e 12be
00000060: 0af1 803d 774b afbe 9e43 adbb 087c 8bbd
00000070: b145 c53e 2481 32bd 690b c3bd 8406 efbd

weight f4 [32, 32, 5, 5]
0.0036229584 0.03707649 0.0056258966 -0.05318742 -0.030776901 -0.034107346 0.06613062 0.023885638
0.009546943 -0.027150312 -0.012867472 0.028802173 0.036048256 0.036377642 -0.017720778 -0.043699507
-0.027320854 0.03019484 0.07952961 0.07155533 -0.0405578 -0.032398146 -0.013618558 0.07385776
0.07115361 -0.014537854 -0.017832607 0.022162471 -0.00837632 -0.014082469 0.0022529918 -0.0032878837
-0.01111615 -0.004010804 0.0031063498 0.03338363 0.020694392 -0.06047662 -0.06172328 0.029222464
0.0322537 -0.0029831475 -0.024725027 -0.05744687 -0.026150942 0.04894975 0.004211585 0.036437437
0.033499736 -0.029755587 0.011176361 -0.036239903 -0.023736725 0.015211314 -0.034725834 -0.038860153
-0.04843552 0.006413613 -0.027932787 -0.01642122 0.0059197596 -0.028733408 -0.05512553 0.027218089
0.02984493 0.038387224 -0.03285543 -0.051540744 -0.006439754 0.029721167 -0.020384729 0.01816811
0.0062949373 0.0097389845 -0.027626643 -0.0035164692 0.00442145 0.05198435 0.013009153 -0.0010875281
-0.0570265 -0.036163386 0.0021698135 0.06001654 0.0009096198 -0.014523778 -0.02645468 -0.0014919884
-0.003736384 0.07385254 0.016354833 -0.03975763 -0.06624629 0.010767397 0.05201351 -0.011470269
0.015004476 -0.014954906 -0.04864833 0.014752473 0.026270434 0.027610647 -0.029757202 -0.014769896
-0.034696765 -0.009893823 -0.018216379 -0.009673702 -0.0069478406 0.034393337 0.0041759983 0.0064736586
-0.017936815 -0.002201876 -0.0018184244 0.015467348 0.009554997 -0.032589093 0.028298222 0.041529045
-0.023835488 -0.00027289853 0.026070762 0.02701202 0.00017737185 0.006009678 -0.008531663 -0.0031322439
-0.015637305 0.0014910384 0.03617092 -0.037261456 0.013477227 -0.013326124 -0.034584485 -0.018931651
0.0018935474 -0.039951406 -0.007204877 -0.009986495 -0.0121828355 -0.059100494 -0.053917192 0.022812298
0.018742811 -0.03793514 -0.01112679 -0.042130508 -0.042831816 0.014524551 -0.011240464 0.017532598
0.004731479 -0.0049747317 -0.037518293 -0.02339361 -0.031864244 -0.02628121 0.017350908 -0.022856865
0.010265703 -0.037440408 -0.015280291 0.037037868 -0.024994547 -0.049827334 -0.03584506 -0.035175852
0.003796892 0.015280358 -0.024499062 -0.038259722 -0.0347062 -0.026400406 0.006981481 -0.009648849
0.0021581952 -0.057330143 -0.0104653705 0.052654434 0.014993461 -0.0021524355 -0.03614163 0.005959668
0.033025514 0.029305328 0.030871265 -0.010556972 -0.051057667 -0.026401732 0.043706518 0.07907334
0.050441 -0.024791243 -0.02997639 -0.035704095 0.006982606 0.04416475 -0.009976455 -0.007020892
0.013925452 0.027728686 0.026821462 0.004693852 -0.010102866 -0.044382997 -0.02052299 0.017526511
0.0012798114 -0.0009722158 -0.0469617 -0.0034394406 0.014970467 0.029318634 -0.039452743 -0.05107412
0.008867304 0.062404 0.07755975 0.029057585 -0.025320914 -0.049969196 0.020864768 0.07259675
0.034530453 0.014489341 -0.0047109458 -0.0020394265 0.023314048 0.0055376855 -0.008051678 -0.011189721
-0.007899763 0.034072556 0.047958344 0.04128766 0.0066632414 -0.041723814 -0.003546971 0.031196607
-0.011387121 -0.013905128 -0.05731921 -0.015758684 -0.015876977 0.03015215 0.027627937 -0.04274171
-0.05212434 -0.012070319 -0.006457657 -0.034120556 0.0013603666 0.04641678 0.035521787 -0.014448478
00000000: 286f 6d3b 85dd 173d 7159 b83b 0ddb 59bd
00000010: d71f fcbc 25b4 0bbd 7e6f 873d d0ab c33c
00000020: c86a 1c3c 556a debc 17d2 52bc 89f2 eb3c
00000030: 56a7 133d b900 153d 2a2b 91bc 41fe 32bd
00000040: fccf dfbc 2b5b f73c 6ce0 a23d 9a8b 923d
00000050: f01f 26bd ebb3 04bd 5f20 5fbc bd42 973d
00000060: fcb8 913d 2e30 6ebc b015 92bc 128e b53c
00000070: d53c 09bc 28ba 66bc eea6 133b 8979 57bb
00000080: 8320 36bc 106d 83bb e793 4b3b 46bd 083d
00000090: 4987 a93c 55b6 77bd 8dd1 7cbd f363 ef3c
000000a0: 751c 043d e980 43bb 248c cabc 694d 6bbd
000000b0: 803a d6bc 887f 483d 5601 8a3b 6c3f 153d
000000c0: 0537 093d fdc1 f3bc 0e1d 373c 4b70 14bd
000000d0: 8573 c2bc e038 793c ad3c 0ebd d32b 1fbd
000000e0: 5364 46bd 4929 d23b 4dd3 e4bc cb85 86bc
000000f0: 8bfa c13b 5362 ebbc 4fcb 61bd 78f8 de3c
00000100: 5b7d f43c ec3b 1d3d 6a93 06bd 631c 53bd
00000110: 9204 d3bb ce79 f33c e0fd a6bc 4ad5 943c
00000120: c345 ce3b 4390 1f3c 4551 e2bc 9074 66bb
00000130: d0e1 903b 8bed 543d 5824 553c 638b 8eba
00000140: 9f94 69bd 0f20 14bd 6e33 0e3b e7d3 753d
00000150: 8d73 6e3a 24f5 6dbc 7cb7 d8bc d38e c3ba
00000160: 1fde 74bb 0040 973d 92fa 853c e6d8 22bd
00000170: 23ac 87bd bc69 303c 1e0c 553d cced 3bbc
00000180: 55d5 753c 6c05 75bc 7943 47bd 5bb4 713c
00000190: 1835 d73c b92f e23c 60c5 f3bc 6ffd 71bc
000001a0: 321e 0ebd b419 22bc 843a 95bc 727e 1ebc
000001b0: b6aa e3bb 07e0 0c3d d0d6 883b fc20 d43b
000001c0: 3af0 92bc 594d 10bb 3358 eeba c26a 7d3c
000001d0: 908c 1c3c 247c 05bd acd1 e73c 5c1a 2a3d
000001e0: a442 c3bc d213 8fb9 5a92 d53c 5048 dd3c
000001f0: e5fc 3939 d5ec c43b 63c8 0bbc 5546 4dbb
00000200: ce19 80bc f26e c33a f527 143d 789f 18bd
00000210: 96cf 5c3c d155 5abc 76a8 0dbd 8d16 9bbc
00000220: e830 f83a 16a4 23bd e416 ecbb 659e 23bc
00000230: 849a 47bc 5c13 72bd 46d8 5cbd dbe0 ba3c
00000240: 868a 993c e161 1bbd 244d 36bc 0a91 2cbd
00000250: 6a70 2fbd 62f8 6d3c ec29 38bc 86a0 8f3c
00000260: 860a 9b3b 1303 a3bb c8ac 19bd f5a3 bfbc
00000270: 1584 02bd b14b d7bc 7e23 8e3c 523e bbbc
00000280: 7b31 283c 1d5b 19bd 305a 7abc 05b5 173d
00000290: 5dc1 ccbc bf17 4cbd 45d2 12bd 8e14 10bd
000002a0: 47d5 783b 775a 7a3c 42b2 c8bc 3ab6 1cbd
000002b0: 1728 0ebd aa45 d8bc e8c4 e43b 3516 1ebc
000002c0: 8270 0d3b 03d3 6abd f276 2bbc 2dac 573d
000002d0: 22a7 753c e00f 0dbb 3f09 14bd 5249 c33b
000002e0: c345 073d ba11 f03c bce5 fc3c 26f7 2cbc
000002f0: d821 51bd 7248 d8bc 9b05 333d 34f1 a13d
00000300: 399b 4e3d 0117 cbbc 0c91 f5bc 753e 12bd
00000310: 58ce e43b 19e6 343d 4974 23bc 830f e6bb
00000320: 9427 643c 4527 e33c afb8 db3c e2ce 993b
00000330: 7e86 25bc f2ca 35bd d41f a8bc c293 8f3c
00000340: 58bf a73a 4cdc 7eba e95a 40bd 3d68 61bb
00000350: b146 753c a22d f03c 3399 21bd 1933 51bd
00000360: 2b48 113c 569b 7f3d a5d7 9e3d 2c0a ee3c
00000370: ce6d cfbc 80ac 4cbd 97ec aa3c 9bad 943d
00000380: ce6f 0d3d b364 6d3c 475e 9abb e6a7 05bb
00000390: 1afd be3c 7975 b53b 2feb 03bc 1755 37bc
000003a0: 026e 01bc aa8f 0b3d f86f 443d 401d 293d
000003b0: 5257 da3b 97e6 2abd 4c74 68bb 0790 ff3c
000003c0: 0c91 3abc 56d2 63bc 8cc7 6abd 5b18 81bc
000003d0: 6f10 82bc a401 f73c fc53 e23c ee11 2fbd
000003e0: 5580 55bd 96c2 45bc c19a d3bb ffc1 0bbd
000003f0: 544e b23a 861f 3e3d 4b7f 113d 4fb9 6cbc

bias f4 [32]
-0.06228977 -0.10133761 -0.08259476 -0.007927179 0.044712402 -0.14846827 -0.108339794 0.054861154
0.009397738 -0.06339566 0.04181545 -0.08173551 -0.0074843485 -0.085822694 -0.07591891 -0.0547617
-0.04144045 -0.05705732 -0.00019279697 0.018961119 0.05791732 -0.0356732 -0.038381528 -0.071708836
0.03716923 -0.03131869 0.031159153 -0.049865562 -0.017086064 0.06256995 -0.076282375 0.01824476
00000000: 8f23 7fbd 188a cfbd 7127 a9bd 00e1 01bc
00000010: 5a24 373d 1108 18be 41e1 ddbd 17b6 603d
00000020: f8f8 193c 95d5 81bd ad46 2b3d f264 a7bd
00000030: 443f f5bb cfc3 afbd 607b 9bbd ce4d 60bd
00000040: 76bd 29bd f0b4 69bd 8b29 4ab9 5954 9b3c
00000050: b63a 6d3d 101e 12bd f335 1dbd 15dc 92bd
00000060: c33e 183d 0748 00bd 7b41 ff3c d53f 4cbd
00000070: 13f8 8bbc ad24 803d ef39 9cbd 0976 953c

weight f4 [64, 32, 5, 5]
0.0037355907 0.01477403 -0.030058231 -0.025622223 0.036496148 -0.021817902 0.010689281 -0.04452313
-0.015711928 0.026364684 -0.04110003 -0.045645963 -0.035711285 -0.04169201 0.0061832303 -0.01061474
0.006839973 -0.017446952 0.011610687 0.005412698 -0.03549508 -0.02050467 -0.0015033861 -0.032112
0.013610434 0.0058274865 -0.044406015 0.0033724203 0.009783661 0.019127617 -0.018705718 -0.027478125
-0.0303629 0.038703233 0.01671807 -0.004840711 0.006482879 0.021447698 0.01850391 0.05304281
-0.03091247 -0.04808024 -0.029842697 -0.020704748 0.012237549 0.02772466 0.01172882 0.008491783
0.02990712 -0.012175286 -0.030044103 -0.016201165 -0.040253803 0.0071211965 -0.011294133 0.033784613
-0.03999755 -0.024400124 0.0044130464 -0.0008625522 -0.021618495 -0.020605508 0.003149094 0.028078075
0.045867402 0.002975747 -0.023597516 -0.006277685 0.044889618 0.029348977 -0.025697976 0.002971042
0.033549182 -0.011525881 -0.022217762 0.016570209 0.01248425 -0.059759684 0.010265498 0.012947559
0.034686707 -0.011861616 -0.052582752 -0.0032127528 -0.011136388 0.03149476 -0.046681855 -0.038544938
0.021971619 0.034833793 -0.0415807 -0.026473233 -0.046284266 -0.030763892 -0.0070827077 0.028624533
-0.021567795 0.012846919 0.036342446 -0.018044984 -0.029773837 -0.015530533 0.024126172 0.032075338
0.013692807 0.005941156 -0.0021917454 0.0064585186 -0.007107539 -0.014799967 -0.013257264 0.022347145
0.0024002248 0.03804177 0.008444229 -0.0059329094 -0.0236349 0.012691535 -0.012151765 -0.024249777
0.029527083 0.035101138 -0.0042192927 0.015650133 0.012019205 -0.029062467 -0.050160002 0.0022803925
0.015508494 0.0041027716 -0.023683889 0.024062473 0.010205574 0.01639167 0.02379356 0.022784127
-0.011350838 0.007898667 0.04572121 0.013513478 -0.0062464555 0.016039867 0.019473977 0.0031725103
0.023427052 0.019069018 -0.023302743 0.03292661 0.013539304 0.041264754 -0.0070563876 0.036844824
-0.0046450943 0.023340654 0.007929663 0.0012056933 0.0058529074 -0.016880825 0.0046989326 0.027819842
-0.027026761 0.012203189 0.012127911 0.04266127 0.020669157 -0.0028607487 -0.0056097815 -0.034299504
0.0036768697 -0.001986012 0.027863055 0.00988565 0.02068981 0.036878202 0.047995023 -0.008819131
0.004658777 0.017188236 -0.029711772 -0.014482229 -0.04398729 -0.020205984 0.031028287 -0.0013542993
-0.008887533 -0.014454462 -0.00350492 -0.024805006 -0.009726644 0.030110016 0.025440078 0.025031136
0.0367303 -0.023548957 0.02271662 -0.0018996313 0.012495406 -0.0030934887 0.004168 0.02815183
0.017175224 0.047304798 0.014430007 -0.01243585 -0.041280985 0.0046969703 0.028695833 -0.02581649
-0.02740632 -0.023236286 -0.0029328805 0.028375963 -0.039504047 -0.008153962 -0.030077934 -0.01347341
0.063835144 0.03433079 0.0009995075 0.020862838 -0.011274298 0.03637248 0.02018763 -0.019423544
0.0017875672 0.009953074 0.027241213 0.012404652 0.023909472 0.030073669 0.00056997593 0.03175481
0.010107084 -0.028688444 0.017906608 0.031003159 -0.027886765 -0.03876729 -0.046565004 -0.04098059
-0.012268515 0.031882748 0.05149619 0.049934667 -0.019677565 0.01567648 -0.0017897466 -0.00018865286
-0.032459304 -0.010196718 -0.027999675 -0.032336015 -0.04506074 0.033242807 -0.024049694 -0.024204269
00000000: d0d0 743b c60e 723c ae3c f6bc b2e5 d1bc
00000010: fc7c 153d 75bb b2bc 1822 2f3c e35d 36bd
00000020: 4db6 80bc c0fa d73c 8158 28bd 43f7 3abd
00000030: ff45 12bd 3ec5 2abd b29c ca3b 72e9 2dbc
00000040: da21 e03b e9ec 8ebc c03a 3e3c 005d b13b
00000050: 4a63 11bd 69f9 a7bc 440d c5ba df87 03bd
00000060: 4cfe 5e3c 80f4 be3b 15e3 35bd d303 5d3b
00000070: a64b 203c 85b1 9c3c bc3c 99bc ce19 e1bc
00000080: 9ebb f8bc 4887 1e3d 55f4 883c d49e 9ebb
00000090: 556e d43b 15b3 af3c 8395 973c 6b43 593d
000000a0: 263c fdbc c9ef 44bd ac78 f4bc 019d a9bc
000000b0: 0080 483c d31e e33c 3d2a 403c 1f21 0b3c
000000c0: c7ff f43c da7a 47bc 0d1f f6bc 4eb8 84bc
000000d0: 2ce1 24bd ed58 e93b 070b 39bc bc61 0a3d
000000e0: 79d4 23bd c5e2 c7bc 519b 903b e61c 62ba
000000f0: 4519 b1bc e2cc a8bc 0861 4e3b fe03 e63c
00000100: 75df 3b3d c004 433b 944f c1bc 0ab5 cdbb
00000110: 2dde 373d 446d f03c 9084 d2bc d0b5 423b
00000120: de6a 093d 0cd7 3cbc 0602 b6bc 3fbe 873c
00000130: bd8a 4c3c 92c6 74bd 9f30 283c 0022 543c
00000140: a613 0e3d 3957 42bc 0361 57bd 0c8d 52bb
00000150: 6675 36bc a600 013d 7935 3fbd 4ce1 1dbd
00000160: d3fd b33c e1ad 0e3d 8650 2abd 65de d8bc
00000170: 9294 3dbd 8f04 fcbc 0f16 e8bb ff7d ea3c
00000180: f2ae b0bc e27b 523c d1db 143d 13d3 93bc
00000190: 43e8 f3bc c773 7ebc 40a4 c53c 6e61 033d
000001a0: cc57 603c 07ae c23b 63a3 0fbb fba1 d33b
000001b0: 5ce6 e8bb 907b 72bc ff34 59bc 5c11 b73c
000001c0: 174d 1d3b b0d1 1b3d aa59 0a3c da68 c2bb
000001d0: fa9d c1bc 28f0 4f3c 3218 47bc 78a7 c6bc
000001e0: c8e2 f13c 36c6 0f3d fe41 8abb b534 803c
000001f0: 33ec 443c 6914 eebc 9374 4dbd a372 153b
00000200: 5717 7e3c 8b70 863b b704 c2bc aa1e c53c
00000210: 4835 273c d347 863c b6ea c23c c7a5 ba3c
00000220: ddf8 39bc 6969 013c 2a46 3b3d a367 5d3c
00000230: 11af ccbb 0a66 833c e487 9f3c e4e9 4f3b
00000240: 17ea bf3c a136 9c3c 65e5 bebc 0ede 063d
00000250: f5d3 5d3c 3b05 293d 4539 e7bb 99ea 163d
00000260: e035 98bb e634 bf3c 6beb 013c 5b08 9e3a
00000270: bfc9 bf3b a849 8abc 81f9 993b 70e6 e33c
00000280: 3a67 ddbc e2ef 473c 25b4 463c 95bd 2e3d
00000290: 5d52 a93c 667b 3bbb 42d2 b7bb a37d 0cbd
000002a0: a3f7 703b c127 02bb 1041 e43c 6cf7 213c
000002b0: ad7d a93c 990d 173d 6e96 443d 1e7e 10bc
000002c0: a7a8 983b 58ce 8c3c 1a66 f3bc df46 6dbc
000002d0: 042c 34bd 0587 a5bc 092f fe3c be82 b1ba
000002e0: 049d 11bc 68d2 6cbc cdb2 65bb de33 cbbc
000002f0: 805c 1fbc 48a9 f63c b667 d03c 190e cd3c
00000300: 8372 163d bee9 c0bc 3418 ba3c 0dfd f8ba
00000310: 88b9 4c3c 21bc 4abb b893 883b ab9e e63c
00000320: 0eb3 8c3c adc2 413d d66b 6c3c bcbf 4bbc
00000330: 4016 29bd 0be9 993b 8613 eb3c 1b7d d3bc
00000340: 3883 e0bc 065a bebc 9235 40bb b574 e83c
00000350: ffce 21bd 3298 05bc 0066 f6bc 94bf 5cbc
00000360: 00bc 823d 719e 0c3d e801 833a 8be8 aa3c
00000370: d5b7 38bc 4ffb 143d 8760 a53c 201e 9fbc
00000380: cd4c ea3a 3812 233c f728 df3c e23c 4b3c
00000390: ccdd c33c 0e5d f63c 706a 153a 5511 023d
000003a0: 2f98 253c 0704 ebbc e1b0 923c 56fa fd3c
000003b0: c972 e4bc 73ca 1ebd f2ba 3ebd 43db 27bd
000003c0: e201 49bc 7c97 023d abed 523d 4b88 4c3d
000003d0: d832 a1bc f66b 803c ee95 eaba 1ed1 45b9
000003e0: 0cf4 04bd 2310 27bc 935f e5bc c572 04bd
000003f0: 9c91 38bd 9c29 083d dd03 c5bc 0848 c6bc

bias f4 [64]
-0.037074585 -0.062462382 -0.071022116 -0.0019677454 0.0022413784 -0.05115826 -0.020567141 0.014153752
-0.026326291 -0.0146091245 -0.056118514 -0.035846215 -0.03191579 -0.025226187 -0.045814276 0.0055231373
-0.04312775 -0.033557937 -0.043499574 -0.029762879 -0.032052163 0.0005302921 -0.015287197 -0.06429706
-0.03954707 -0.0043557603 -0.04142352 -0.0070784874 -0.023829853 -0.042267572 -0.0060685175 0.0026209757
0.019817088 -0.009969636 -0.041580465 -0.00506622 0.0016354383 -0.058175847 -0.05020666 -0.07808284
-0.041745905 -0.032640073 0.05321632 -9.429582e-05 -0.030839752 -0.009589101 -0.016205564 -0.0500556
-0.009867316 0.0018088726 -0.0683257 -0.053575944 -0.034999743 -0.06705399 0.024772858 0.035065714
0.037026018 -0.059367295 0.0391629 -0.06264744 -0.045982085 0.007800314 0.0023493147 0.013813532
00000000: 85db 17bd 8ed8 7fbd 0b74 91bd 4af5 00bb
00000010: 17e4 123b 538b 51bd 6c7c a8bc 23e5 673c
00000020: 3caa d7bc 1c5b 6fbc 87dc 65bd 7bd3 12bd
00000030: 22ba 02bd 26a7 cebc c0a7 3bbd 6ffb b43b
00000040: b9a6 30bd 0c74 09bd 9c2c 32bd 48d1 f3bc
00000050: 2149 03bd 4d03 0b3a 2777 7abc 2dae 83bd
00000060: 1cfc 21bd c4ba 8ebb b5ab 29bd a8f2 e7bb
00000070: d336 c3bc c320 2dbd 6ada c6bb adc4 2b3b
00000080: 7257 a23c af57 23bc 4750 2abd 8902 a6bb
00000090: 345c d63a cc49 6ebd 80a5 4dbd e5e9 9fbd
000000a0: c1fd 2abd 99b1 05bd 5bf9 593d afc0 c5b8
000000b0: a6a3 fcbc 9b1b 1dbc 88c1 84bc 1a07 4dbd
000000c0: 86aa 21bc b117 ed3a 58ee 8bbd 7372 5bbd
000000d0: e45b 0fbd 9a53 89bd 73f0 ca3c 11a1 0f3d
000000e0: 98a8 173d 1f2b 73bd 4769 203d 4d4d 80bd
000000f0: b657 3cbd c799 ff3b f6f6 193b 2752 623c

weight f4 [64, 1024]
-0.04976148 0.009124083 0.017697264 0.013866654 -0.0003692719 0.0225195 0.015313046 -0.020612972
-0.013843469 -0.008386288 0.034420658 -0.008949074 -0.023912104 -0.05549429 0.0019032126 -0.031504188
-0.003686193 0.026560042 -0.018996753 -0.0019915695 0.0033416383 -0.006692139 -0.00176477 -0.010709415
-0.014010164 0.020308664 -0.028288938 0.045680005 0.017892845 -0.0029377514 0.0013845993 -0.018347908
0.0056551048 -0.0033279 -0.02472249 -0.0124478685 -0.017104914 0.025771955 0.016893957 0.024299838
-0.019618666 -0.036134098 -0.028378336 -0.017065687 0.006809026 0.021522574 0.008357149 -0.018238477
-0.024137938 -0.024949256 -0.012947037 -0.02777061 -0.027406503 0.004076521 0.02454392 -0.0040954943
-0.019439068 0.014647766 0.020790884 0.030038314 0.006983273 0.032476354 0.04935377 0.029396227
0.017444722 -0.009671614 0.008603206 0.031309564 -0.02053178 -0.018720351 0.015679028 0.038359307
0.0026315006 0.0360364 0.005167736 0.0003102402 -0.021992398 0.017791953 -0.019990258 0.015579415
-0.015087704 0.016153716 0.009419279 -0.01594662 -0.022230448 0.012747602 0.014604233 0.010198187
-0.0053898045 0.03368397 -0.0036029653 -0.01265008 0.03820213 0.020287964 0.024104659 0.019609686
-0.013935663 -0.019821944 -0.015260908 0.018064762 -0.0038190472 -0.011927137 -0.01718563 -0.02618961
0.037705757 0.03953548 -0.016218198 0.04461991 -0.012902184 0.017480897 0.031540297 -0.0028578711
0.012282406 -0.046303537 0.00023004647 0.040700205 0.03104215 -0.0073726163 0.038762223 0.024198959
0.00030806268 -0.019257763 0.044309594 0.039846133 0.051623512 -0.009472091 -0.012887669 0.017416084
-0.019178705 -0.00073978084 0.014760375 -0.012538558 0.026949363 0.004366949 0.051762503 0.039647035
0.039474353 0.05013479 0.026178995 0.04237892 -0.014308775 -0.0031878273 -0.0054405453 -0.025408076
0.016711568 -0.009325461 0.012165968 -0.007616124 0.030574998 0.032672923 0.049532276 0.027567837
0.017264454 0.0655505 0.03330816 0.00025696863 -0.027029691 -0.018768586 -0.024821663 -0.014615983
0.03165473 -0.0043095686 -0.02263503 -0.007691053 0.039112557 0.00587234 0.001709275 0.059242547
0.032898385 -0.022630963 0.014947776 0.027144626 -0.02966483 -0.02229614 0.008549771 0.017228471
0.023606135 0.009140058 -0.02608087 -0.010017935 -0.014394885 -0.00045912265 -0.011256136 -0.015606644
-0.016547523 0.008141429 -0.030604037 0.009947381 0.003226529 0.017797353 0.038794104 0.012831139
0.00819624 -0.04309996 0.009356303 -0.010624081 0.01826366 -0.033179082 -0.020878123 0.0039372267
0.00052541716 -0.027629493 0.030266084 0.006521524 0.041811336 -0.0086565 -0.016416304 -0.0315129
0.009091958 -0.011103251 -0.012729166 0.015596035 -0.00503689 0.021069933 0.037441466 0.012848346
0.011706639 0.021056235 0.007048548 0.041803036 -0.035709187 -0.027172614 -0.0075070662 -0.0062636216
0.01039815 0.0031453224 0.037388477 -0.0026774965 0.024103113 0.017300304 0.0005142247 0.023191702
0.0027417718 -0.03162326 0.01072063 -0.041758563 0.009099195 -0.013850303 0.02238191 0.014742539
0.00616204 0.02001489 0.027857104 -0.02048674 -0.018681595 -0.022408146 0.008602489 0.0056600594
0.023802172 -0.027915541 0.023715986 0.0050146137 0.0076863104 -0.0026234488 -0.006202322 -0.011656677
00000000: b2d2 4bbd 2e7d 153c daf9 903c f630 633c
00000010: d69a c1b9 d17a b83c 92e3 7a3c 89dc a8bc
00000020: b8cf 62bc a466 09bc adfc 0c3d 239f 12bc
00000030: 51e3 c3bc fb4d 63bd 3875 f93a 890a 01bd
00000040: 0e94 71bb 7294 d93c 149f 9bbc fe84 02bb
00000050: 63ff 5a3b bb49 dbbb db4f e7ba 8b76 2fbc
00000060: e38a 65bc 5b5e a63c 34be e7bc f51a 3b3d
00000070: 0494 923c 4a87 40bb 717b b53a 5a4e 96bc
00000080: 754e b93b e618 5abb d286 cabc 25f2 4bbc
00000090: 9b1f 8cbc b51f d33c 3265 8a3c 7410 c73c
000000a0: 53b7 a0bc 5901 14bd af79 e8bc 57cd 8bbc
000000b0: 401e df3b 1c50 b03c 6cec 083c dc68 95bc
000000c0: edbc c5bc 6262 ccbc cf1f 54bc 317f e3bc
000000d0: 9a83 e0bc 5694 853b 5510 c93c 7f33 86bb
000000e0: ae3e 9fbc 2ffd 6f3c a551 aa3c e912 f63c
000000f0: f1d3 e43b ed05 053d 2e27 4a3d 5bd0 f03c
00000100: 3ce8 8e3c b075 1ebc 76f4 0c3c 753e 003d
00000110: 4332 a8bc 6c5b 99bc 4e71 803c a61e 1d3d
00000120: 4175 2c3b e79a 133d 1d56 a93b bca7 a239
00000130: 6729 b4bc 6ec0 913c 9cc2 a3bc cd40 7f3c
00000140: 6b32 77bc cc54 843c 5253 1a3c 7ca2 82bc
00000150: a11c b6bc 51db 503c 9846 6f3c 4c16 273c
00000160: f59c b0bb 34f8 093d ba1f 6cbb 4842 4fbc
00000170: d679 1c3d f232 a63c 2277 c53c 7ea4 a03c
00000180: 6852 64bc a161 a2bc e308 7abc 8dfc 933c
00000190: fb48 7abb 0a6a 43bc e1c8 8cbc 988b d6bc
000001a0: 5a71 1a3d f5ef 213d 07dc 84bc 5ec3 363d
000001b0: af63 53bc 1934 8f3c 6630 013d 1f4b 3bbb
000001c0: 253c 493c c7a8 3dbd a138 7139 42b5 263d
000001d0: 1b4c fe3c fd95 f1bb 23c5 1e3d e53c c63c
000001e0: 7983 a139 75c2 9dbc fa7d 353d b335 233d
000001f0: 2d73 533d d430 1bbc cd26 53bc 2dac 8e3c
00000200: a91c 9dbc daed 41ba 80d5 713c 866e 4dbc
00000210: e9c4 dc3c a018 8f3b eb04 543d ee64 223d
00000220: dcaf 213d 235a 4d3d 5575 d63c 8595 2d3d
00000230: 5a6f 6abc deea 50bb 9a46 b2bb 9924 d0bc
00000240: b3e6 883c d2c9 18bc c553 473c ae90 f9bb
00000250: 6b78 fa3c 0bd4 053d 5be2 4a3d f2d5 e13c
00000260: 2f6e 8d3c 573f 863d 236e 083d bfb9 8639
00000270: 5f6d ddbc 94c0 99bc cd56 cbbc e077 6fbc
00000280: 64a8 013d 4837 8dbb 196d b9bc 3b05 fcbb
00000290: 7d34 203d c26c c03b c009 e03a 50a8 723d
000002a0: 75c0 063d 9264 b9bc 84e7 743c 685e de3c
000002b0: a803 f3bc 65a6 b6bc 5714 0c3c b922 8d3c
000002c0: a761 c13c 2fc0 153c 8ca7 d5bc 4422 24bc
000002d0: 86d8 6bbc 66b6 f0b9 a86b 38bc 02b3 7fbc
000002e0: ac8e 87bc a163 053c 51b5 fabc 57fa 223c
000002f0: 2d74 533b c1cb 913c 91e6 1e3d b339 523c
00000300: 8649 063c 9589 30bd 2e4b 193c a010 2ebc
00000310: ac9d 953c cae6 07bd 9908 abbc da03 813b
00000320: 26bc 093a 3f57 e2bc 94f0 f73c 82b2 d53b
00000330: 5d42 2b3d fed3 0dbc 7c7b 86bc ac13 01bd
00000340: 70f6 143c 69ea 35bc fe8d 50bc 8386 7f3c
00000350: 7f0c a5bb da9a ac3c 395c 193d de81 523c
00000360: 34cd 3f3c 207e ac3c 82f7 e63b a939 2b3d
00000370: cc43 12bd 1a99 debc d6fd f5bb 113f cdbb
00000380: 015d 2a3c c121 4e3b a924 193d f078 2fbb
00000390: e473 c53c 5eb9 8d3c 09cd 063a 86fc bd3c
000003a0: 4caf 333b 6487 01bd 95a5 2f3c 070b 2bbd
000003b0: ca14 153c 62ec 62bc 445a b73c b18a 713c
000003c0: f0ea c93b 44f6 a33c 9534 e43c cfd3 a7bc
000003d0: 250a 99bc 4a91 b7bc 74f1 0c3c 0578 b93b
000003e0: c6fc c23c 22af e4bc 0748 c23c a151 a43b
000003f0: 72dd fb3b 2bee 2bbb d93c cbbb a6fb 3ebc

bias f4 [64]
-0.01984469 0.0015969292 -0.021530181 0.011824287 -0.0066425977 0.03919541 -0.020185312 -0.019519798
-0.008369823 -0.0126225855 -0.022910185 -0.04352524 0.0092683295 0.042592824 0.005861733 -0.005308394
0.017214052 0.02065342 -0.022606052 0.031410944 -0.038694862 0.016858013 0.019749887 -0.029252393
0.03447843 -0.027634181 0.00015546597 -0.020514037 0.06213585 0.023400942 -0.026401356 0.015847502
-0.03684084 0.03685414 -0.009076833 -0.045211732 -0.015758717 0.025987307 -0.04584127 -0.041929025
-0.047357358 -0.009972028 -0.028849127 -0.03593253 0.017659 -0.0020985461 -0.0006271514 -0.025707763
-0.029624034 -0.02784769 0.025485707 0.05657158 0.013370775 0.002124636 -0.00423763 -0.0029900325
-0.004930222 -0.03981848 -0.044286977 0.015302683 0.029865783 -0.044364695 0.021202153 0.026118373
00000000: 5591 a2bc 0d50 d13a 1060 b0bc a7ba 413c
00000010: 26aa d9bb 5e8b 203d ab5b a5bc fce7 9fbc
00000020: 9521 09bc f6ce 4ebc 24ae bbbc 8647 32bd
00000030: 31da 173c d075 2e3d c813 c03b 09f2 adbb
00000040: 7c04 8d3c 5c31 a93c 5430 b9bc c3a8 003d
00000050: 817e 1ebd d119 8a3c 84ca a13c b7a2 efbc
00000060: 4139 0d3d 1461 e2bc 9404 2339 0e0d a8bc
00000070: 2982 7e3d 55b3 bf3c a847 d8bc 9fd2 813c
00000080: 6ce6 16bd 5ef4 163d ffb6 14bc f02f 39bd
00000090: 6d18 81bc 55e3 d43c 0ec4 3bbd c5bd 2bbd
000000a0: caf9 41bd b861 23bc 0155 ecbc fd2d 13bd
000000b0: 9ba9 903c c387 09bb 6b67 24ba 1699 d2bc
000000c0: 1aae f2bc d720 e4bc 67c7 d03c 9ab7 673d
000000d0: 1811 5b3c 7a3d 0b3b d1db 8abb 6cf4 43bb
000000e0: b38d a1bb b418 23bd 4366 35bd 1bb8 7a3c
000000f0: 16a9 f43c c1b7 35bd 23b0 ad3c 33f6 d53c

weight f4 [10, 64]
0.014030401 0.1657202 -0.10290952 -0.021472787 -0.15545315 -0.15693448 0.07635176 0.16632494
0.16436957 0.036562108 -0.17407243 0.13902518 -0.040122062 0.022408912 -0.21243669 0.16638002
0.15073183 -0.20607792 0.15721522 -0.12572302 -0.002125062 -0.15254547 -0.0030166907 0.14205134
-0.12806664 -0.05141659 -0.13347116 -0.103306904 -0.14552717 -0.013440678 -0.048845492 0.013568176
0.21061061 -0.1624777 -0.074013144 0.019802243 -0.12048426 -0.077234246 0.19935 -0.14726834
0.1906333 -0.07405347 0.08099638 0.12580591 0.020894207 -0.16524291 0.0741427 -0.08737368
0.19428545 -0.0007089613 -0.1698209 -0.07057057 0.08331863 -0.03110869 0.099817604 0.04362851
0.026114676 0.21875669 0.100780025 -0.21741688 -0.10051971 -0.02093704 -0.099228516 0.048804626
0.11704544 -0.040117998 0.116587736 -0.17701228 -0.0064822906 0.047385592 -0.048174806 -0.19309129
-0.16478083 -0.016732898 -0.20263632 -0.11099371 -0.06391245 -0.13252011 0.20978859 -0.06046188
-0.0771455 0.21484292 0.060062625 -0.14324853 -0.12668504 -0.118251085 -0.026901336 0.15766723
0.31672958 0.19941548 0.15301292 0.03534133 -0.2368819 -0.13879822 -0.079371616 0.14632626
0.17607445 0.06429364 -0.06684613 -0.1836942 -0.085693724 0.1049384 -0.15442535 -0.11127852
0.09513852 -0.0312075 0.030503275 0.035314888 -0.18596594 -0.19566315 -0.07359229 0.21717146
-0.022310868 0.13995971 -0.13985318 -0.17485704 -0.27202645 0.16089132 -0.11117218 -0.08052819
0.2686458 0.11899785 0.01249638 0.2513749 -0.2867917 -0.109275356 -0.21830828 -0.1672351
-0.24287431 -0.0033135202 -0.23640876 0.12787828 -0.05994151 -0.08924706 0.04906752 -0.04219231
0.0058535445 -0.08871498 0.1314578 -0.18255411 0.024113992 -0.0065845596 -0.21000625 0.16178933
-0.051584885 -0.11351301 -0.116132036 0.06366428 0.0257369 0.07348089 -0.11874908 -0.192105
-0.0012682 0.048112106 -0.10977173 0.07570735 -0.13729401 0.15940809 -0.042502847 0.14179409
0.17266682 0.07321594 -0.14133374 -0.0140180765 0.18514657 0.06360179 0.12043413 -0.22404537
0.07287086 0.0654709 0.040553514 0.038277093 0.12598063 0.17061421 0.28045082 -0.006407356
0.07031201 0.1873858 0.19796404 0.11444404 -0.07921262 0.12928715 0.11579924 0.104753874
0.029410925 -0.1203628 -0.039798208 -0.16186327 0.23025446 0.037670925 0.056043632 -0.03496275
-0.104491144 0.10688073 -0.17935556 -0.11820094 -0.06587203 0.11159271 -0.0020302988 -0.015285773
-0.11117338 0.11267257 0.11506742 -0.00137054 0.111432575 -0.14448638 0.16218011 -0.07543343
0.10623055 0.12726986 -0.057967138 -0.007524587 0.02025115 0.082180575 0.15027225 0.0004802424
-0.060022842 -0.045586087 -0.10773293 -0.14582156 0.058730625 0.05706701 0.17816155 -0.034856744
-0.0729294 0.026554994 0.0790499 -0.06308989 0.118692674 0.024765687 0.079246536 0.057587963
0.11779199 0.15959832 -0.18390831 -0.03090756 0.027370946 0.06572489 0.14215794 -0.13773836
-0.03996092 -0.064944096 -0.11829618 0.04685918 0.09385572 0.1424413 0.08286548 -0.04144555
-0.08772758 -0.14403576 0.08844476 -0.04064522 0.05351826 -0.13109067 0.054055918 -0.047563072
00000000: c4df 653c 8eb2 293e 3ac2 d2bd b3e7 afbc
00000010: 1c2f 1fbe 6fb3 20be 505e 9c3d 1651 2a3e
00000020: 7f50 283e 26c2 153d 0b40 32be 9e5c 0e3e
00000030: 0857 24bd e592 b73c 0189 59be 865f 2a3e
00000040: 7259 1a3e 1706 53be 07fd 203e 89bd 00be
00000050: a044 0bbb e134 1cbe acb3 45bb e875 113e
00000060: e723 03be 349a 52bd aaac 08be 9292 d3bd
00000070: 1305 15be 4a36 5cbc 3612 48bd 0e4d 5e3c
00000080: 4faa 573e 8e60 26be 3494 97bd 5038 a23c
00000090: 74c0 f6bd fd2c 9ebd 6822 4c3e 83cd 16be
000000a0: 6035 433e 58a9 97bd 6ee1 a53d 44d3 003e
000000b0: 542a ab3c 7035 29be 21d8 973d f9f0 b2bd
000000c0: c4f2 463e 96d9 39ba 88e5 2dbe 4e87 90bd
000000d0: f5a2 aa3d a7d7 febc 2c6d cc3d cfb3 323d
000000e0: 72ee d53c c101 603e c265 ce3d 88a2 5ebe
000000f0: 47dd cdbd 2884 abbc 5238 cbbd 5ce7 473d
00000100: 85b5 ef3d c552 24bd 8dc5 ee3d b542 35be
00000110: 6569 d4bb 6517 423d f252 45bd b9b9 45be
00000120: 4ebc 28be 6e13 89bc e57f 4fbe ac50 e3bd
00000130: 88e4 82bd 5ab3 07be d2d2 563e e0a6 77bd
00000140: 76fe 9dbd c8ff 5b3e 3a04 763d beaf 12be
00000150: b9b9 01be a02d f2bd 3160 dcbc 8573 213e
00000160: 612a a23e 9233 4c3e 6baf 1c3e 12c2 103d
00000170: 2b91 72be 1f21 0ebe 968d a2bd 8dd6 153e
00000180: dc4c 343e 62ac 833d a0e6 88bd 551a 3cbe
00000190: 3180 afbd f2e9 d63d ae21 1ebe fee5 e3bd
000001a0: fcd7 c23d dfa6 ffbc 01e2 f93c 58a6 103d
000001b0: db6d 3ebe ec5b 48be 8eb7 96bd 3262 5e3e
000001c0: 48c5 b6bc 9951 0f3e ac35 0fbe b90d 33be
000001d0: 0d47 8bbe b2c0 243e 3dae e3bd f7eb a4bd
000001e0: f18b 893e 25b5 f33d 9ebd 4c3c 36b4 803e
000001f0: 5dd6 92be c2cb dfbd 358c 5fbe ae3f 2bbe
00000200: 0bb4 78be a527 59bb 2315 72be 86f2 023e
00000210: 3b85 75bd 2ac7 b6bd 06fb 483d d8d1 2cbd
00000220: 17cf bf3b 33b0 b5bd e09c 063e 77ef 3abe
00000230: b58a c53c 4ac3 d7bb e10b 57be 1aac 253e
00000240: ac4a 53bd 8279 e8bd a2d6 edbd 6b62 823d
00000250: 31d6 d23c 267d 963d b832 f3bd 2cb7 44be
00000260: bb39 a6ba 3311 453d 00d0 e0bd 750c 9b3d
00000270: cd96 0cbe e03b 233e 7717 2ebd 7832 113e
00000280: 92cf 303e 3df2 953d cbb9 10be 13ac 65bc
00000290: 1097 3d3e a841 823d 2ba6 f63d 266c 65be
000002a0: 513d 953d 9b15 863d 711b 263d 71c8 1c3d
000002b0: 1101 013e 7eb5 2e3e 4097 8f3e ccf4 d1bb
000002c0: beff 8f3d 10e2 3f3e 16b7 4a3e a361 ea3d
000002d0: 3a3a a2bd da63 043e 2728 ed3d 3389 d63d
000002e0: 2eef f03c c680 f6bd 7203 23bd 7cbf 25be
000002f0: d3c7 6b3e d44c 1a3d 028e 653d 1a35 0fbd
00000300: 74ff d5bd 49e4 da3d fca8 37be 5613 f2bd
00000310: eae7 86bd b88a e43d c30e 05bb 2e71 7abc
00000320: deae e3bd e0c0 e63d 78a8 eb3d b1a3 b3ba
00000330: c336 e43d 3df4 13be 8b12 263e d87c 9abd
00000340: 678f d93d 0853 023e f36e 6dbd d090 f6bb
00000350: bde5 a53c 4a4e a83d f8e0 193e 0bc9 fb39
00000360: 83da 75bd 7ab8 3abd 15a3 dcbd 3f52 15be
00000370: 868f 703d 19bf 693d fb6f 363e f2c5 0ebd
00000380: 025c 95bd dc89 d93c eae4 a13d 4635 81bd
00000390: 2515 f33d 69e1 ca3c 024c a23d 5be1 6b3d
000003a0: ed3c f13d be6d 233e 7652 3cbe da31 fdbc
000003b0: 0939 e03c c59a 863d da91 113e 490b 0dbe
000003c0: 10ae 23bd 6901 85bd 4545 f2bd 69ef 3f3d
000003d0: 6d37 c03d 22dc 113e 60b5 a93d cfc2 29bd
000003e0: 84aa b3bd 1c7e 13be 8722 b53d 9a7b 26bd
000003f0: f735 5b3d a23c 06be bd69 5d3d 7fd1 42bd

bias f4 [10]
-0.07380293 0.13377574 -0.015671695 0.069455475 0.065834746 -0.089743316 0.081734695 -0.0193166
0.008424388 0.020867253
00000000: fe25 97bd 82fc 083e ed61 80bc ac3e 8e3d
00000010: 5ed4 863d 58cb b7bd 8564 a73d d93d 9ebc
00000020: 7206 0a3c cdf1 aa3c
