try_train/cifar10_models/cifar10_net_9.pth (torch, 589388 bytes, 10 tensors)

weight f4 [32, 3, 5, 5]
000000 d1 99 43 bc fd 12 10 3e 46 93 07 3e 5b ac 30 bd
       -0.011938528 0.14069743 0.13239774 -0.04313312
000010 29 f9 1e 3e 18 3f 87 bd 69 2f 03 bd 00 fb a2 bc
       0.15524735 -0.06603831 -0.032027636 -0.019895077
000020 c2 cc 08 3e 01 05 92 3d 5c dd 6e bd 6c 0c 12 3d
       0.13359359 0.07129861 -0.058316574 0.035656378
000030 24 e1 d1 bd 92 a4 85 bc 4a 11 e9 bd de 55 d3 bb
       -0.1024802 -0.016313825 -0.11380251 -0.006449445
000040 05 65 c9 bc 12 bf 2f be e8 4e 13 be 57 17 04 be
       -0.024584303 -0.17162731 -0.14385569 -0.12899528
000050 35 9f 0c 3e ce c0 2a bd 59 23 26 be be 86 27 bd
       0.13732608 -0.04168778 -0.16224422 -0.040899985
000060 f6 86 68 bd 36 ef a4 bd 40 15 ec bc 22 99 65 bd
       -0.056769334 -0.08053438 -0.028818727 -0.056054242
000070 fd a3 90 bd 2e 42 9f bd 2f 88 a3 3d ce 29 c2 bd
       -0.07062528 -0.07776295 0.07984959 -0.0948063
000080 3c b2 03 be 57 c6 c2 3c e2 56 16 3c b0 c1 0d bd
       -0.1286096 0.023776216 0.009175988 -0.034608543
000090 76 bc cd 3c 59 d6 ec bd 05 f1 7c bc 89 aa 97 bd
       0.02511428 -0.11564321 -0.015438323 -0.07405574
0000a0 f8 ea 49 3e 90 34 96 3d ef 43 ab bd 18 e9 19 bd
       0.1971854 0.07334244 -0.08362567 -0.03757581
0000b0 9b 38 0c be f2 17 ce 3d cf f9 22 3d b6 40 fa bd
       -0.13693468 0.10063161 0.039789017 -0.12219374
0000c0 1b d9 08 be 17 bc 9d 3c e6 4d ab 3c ab 63 96 3d
       -0.13364069 0.019254727 0.020911168 0.07343229
0000d0 30 83 ff 3d d6 ee 7d ba 27 25 b2 bd 0f a6 8c 3c
       0.12476194 -0.00096867734 -0.086984925 0.017169027
0000e0 54 2d 71 3c 57 0d 96 bb 00 18 85 bc cb 36 b0 bc
       0.01472028 -0.004579227 -0.016246796 -0.021510502
0000f0 18 9e fa 3d 3f a3 d5 3b 67 51 af bd 0e b5 dd bd
       0.12237185 0.0065197046 -0.08560448 -0.10825549
000100 c5 c2 7a bd a9 e9 33 3e 5b 6b 03 3e fd ec 1d bd
       -0.061220903 0.17569603 0.12833922 -0.038556088
000110 9c 6d bc bb 4c d5 fe 3b 56 89 5a 3e 5f 78 e7 3d
       -0.005750371 0.007776892 0.21341452 0.11302256
000120 76 d2 bf bd 46 49 b3 bd 70 18 c8 bd e5 d7 0f be
       -0.09366314 -0.0875421 -0.09770286 -0.14047201
000130 ab 61 1d bd 9b 8d 29 be a0 b9 25 bc c1 f3 65 bd
       -0.03842322 -0.16557924 -0.010115057 -0.056140665
000140 9f ff bd 3c 97 15 ed bc 61 8d 54 3c c2 ca 92 bd
       0.023193179 -0.028940959 0.0129731605 -0.07167579
000150 2b 62 34 3d 07 f8 6e 3d 50 1a cc bc 24 90 e2 3c
       0.044038933 0.058342006 -0.02491489 0.027656622
000160 29 4b 14 bd 64 1c 9d 3d de b2 d7 bd 91 ec 86 bd
       -0.03620449 0.07671431 -0.10532163 -0.0658809
000170 21 78 a2 bd b7 72 f2 bd 1d 14 01 bd de aa 68 bd
       -0.07933069 -0.11838286 -0.031513322 -0.056803577
000180 8c 8c 08 be e4 18 b5 bd 08 d3 0c be d8 d1 ea bd
       -0.13334864 -0.08842638 -0.13752377 -0.11465806
000190 69 36 85 bb 30 28 87 3c 1d 47 b7 bd 60 a2 71 3c
       -0.004065324 0.016498655 -0.08949111 0.014748186
0001a0 45 08 1e be 66 65 f4 bc e6 9d 46 ba ef b2 bd 3d
       -0.15432842 -0.029833507 -0.0007576629 0.092626445
0001b0 32 b3 12 3e 8c 97 25 3d fb 2a 3b bc 2f 00 91 3c
       0.1432617 0.04042773 -0.011423822 0.017700283
0001c0 8b 57 3f 3c cd 47 10 3e 9d f7 ef 3c 34 30 5b 3c
       0.011678587 0.1408989 0.029292876 0.013378192
0001d0 f9 be 7f bd 3d 4b bf bd e9 44 87 bd ac cc 86 bd
       -0.062437985 -0.093405224 -0.066049404 -0.06582007
0001e0 9b 4c a9 bd e0 99 1b be 5e 13 1d be 9a 27 45 be
       -0.082665645 -0.15195417 -0.15339419 -0.19253388
0001f0 0f 41 0b be 57 4a 11 bc de 05 ef 3d c1 62 e4 bb
       -0.13599037 -0.008867822 0.11671041 -0.00696978
000200 5c ae 85 bd 2b 40 f7 bb 83 ff 1b 3e 87 4e 19 3e
       -0.06527397 -0.007545491 0.15234189 0.14971362
000210 c8 3a 5e 3e e4 a3 f0 3d 2e b8 35 3d 34 e7 5e 3e
       0.21702111 0.1175001 0.0443651 0.21767884
000220 ba d4 69 3e f9 f7 92 3e d5 ce 2e 3e b3 ae 30 3e
       0.22835055 0.28704813 0.17071088 0.17254142
000230 ca e5 39 3e f9 64 46 3e 01 63 42 3e ce 81 fd 3d
       0.18154064 0.19374456 0.1898308 0.12378274
000240 18 4c 42 3e ce 3d a1 3b c5 32 08 bd 4e d8 65 3d
       0.1897434 0.004920698 -0.033251543 0.056114487
000250 8e 64 fd 3d 43 94 30 3d 2b f5 c4 3c 6e 16 4a bd
       0.12372695 0.043110143 0.024042686 -0.049337797
000260 91 92 98 3c f0 f0 5a bd 6c 08 19 bd bb e8 08 3e
       0.018624576 -0.053452432 -0.037361547 0.1337003
000270 55 26 14 be 7e 4d a4 3d 8b 99 54 3d f3 36 82 bd
       -0.14467748 0.08022593 0.051904242 -0.06358137
000280 c4 72 67 bc f3 1a bf bd 2c e6 b1 bd 68 b8 1a bc
       -0.014126483 -0.09331312 -0.0868648 -0.00944338
000290 b3 f3 4d 3d 61 b9 11 be 13 23 28 3d 0e b8 bb 3d
       0.050281238 -0.14230873 0.041049074 0.09165965
0002a0 c4 6b e9 39 79 e2 8c 3c 42 18 f5 bd 14 af a7 bd
       0.00044521515 0.017197834 -0.119675174 -0.081876904
0002b0 b6 3b ea bc 7d 40 8d bd bb 25 02 be b5 0c 05 3e
       -0.028592926 -0.06897066 -0.12709706 0.12993129
0002c0 aa 16 c0 bc 2a 5d 42 3d c5 d7 29 3d dc 79 4d bb
       -0.023448307 0.04745213 0.04146554 -0.0031353151
0002d0 ab 12 d0 3d 79 ca 41 bc 3f 03 ee 3c 96 01 bf 3d
       0.10159811 -0.011828058 0.029054282 0.09326474
0002e0 c4 af 8d 3d 35 43 58 3d e2 4a 9b bd 28 21 19 3e
       0.0691829 0.05279847 -0.07582642 0.14954054
0002f0 48 d6 32 3d fd fd 5f bd 0d 8c b5 bd a5 fc 90 bc
       0.043661386 -0.05468558 -0.08864603 -0.017698595
000300 f0 eb 8b 3d 52 6a 0d 3e 8a ef 04 3e 14 d8 06 bc
       0.06832111 0.13810089 0.12982002 -0.008230228
000310 a9 e1 21 3d d3 34 b5 bd b3 6a e1 3d ad 87 99 3c
       0.039521847 -0.08847966 0.110066794 0.018741453
000320 25 d9 03 3d dc 80 da bd 85 58 f7 3d 96 ac a7 bd
       0.032189507 -0.10669109 0.12077431 -0.08187215
000330 81 45 14 3c 49 7f ef 3d 48 b4 ca bd 55 91 02 3d
       0.009049774 0.116941996 -0.09897667 0.03187688
000340 76 44 38 bd d7 22 c6 3d ff 76 51 3c d9 3f a9 bd
       -0.044987164 0.09674614 0.012784719 -0.08264131
000350 27 30 ce bc 90 3d 73 bd 80 67 85 3d c4 9f 15 3c
       -0.025169445 -0.059384882 0.06513882 0.009132329
000360 6d 64 ba bd 83 9b 14 3e 47 88 ee 3d 19 39 c7 bd
       -0.09101186 0.14512448 0.116470866 -0.097276874
000370 2c 23 b5 bd 65 79 ab 3d 1f ab e1 bd cf a6 ea bd
       -0.08844599 0.083727635 -0.11018967 -0.114575975
000380 9c 69 07 be 30 92 1f bd 93 30 d7 3d 1c 8e 15 3e
       -0.1322388 -0.038957775 0.10507312 0.14604992
000390 c2 01 27 3c 28 c3 07 3e 6d a7 f2 bc 73 cc a2 3d
       0.01019329 0.1325804 -0.02962085 0.07949152
0003a0 9d f2 a7 bc f7 4f ab 3d f4 e7 5a bd 30 f8 b6 3d
       -0.02050143 0.083648615 -0.053443864 0.08934057
0003b0 62 b0 22 39 b0 26 b9 3d 99 9b f4 3d 18 73 00 bd
       0.00015515232 0.09040582 0.119437404 -0.031359762
0003c0 5c c4 90 bd 61 9f fd bd c6 f2 6e bc 7c 66 30 3a
       -0.070687026 -0.12383915 -0.014584249 0.00067291385
0003d0 30 a0 ca 3d 0b 73 ac bd 20 ea d6 bd a2 7f 52 be
       0.098938346 -0.0842038 -0.104938745 -0.205565
0003e0 c3 db 5a bd 79 e6 01 be be d0 0f ba 54 f7 c9 bb
       -0.053432237 -0.12685575 -0.0005486122 -0.006163517
0003f0 5f a4 ac bc 4d 93 ad 3d bc 69 a9 3d 6e d8 1f bd
       -0.021074472 0.08475361 0.0827212 -0.039024763

bias f4 [32]
000000 a0 f0 12 3e 1b 4e be be da 23 c0 bb 6f fa 04 3e
       0.14349604 -0.37168965 -0.005863649 0.12986158
000010 63 23 df 3b 9b 7b a1 bd fe 23 53 3d 7f 0b 92 bd
       0.0068096383 -0.07884904 0.051547997 -0.07131099
000020 e1 b5 87 3d 6d bd 15 be 85 d7 2a be 4c ac 8d bd
       0.066264875 -0.14623041 -0.16683777 -0.06917629
000030 eb ab 3a 3e 37 56 3c bc 2b 31 20 be 94 bb 98 3e
       0.18229644 -0.011495165 -0.15643756 0.2983061
000040 e3 36 92 3d 1e 1f 06 3e 31 3d 36 be 1e 16 2f bd
       0.07139375 0.13097808 -0.1779678 -0.042745702
000050 56 b3 ce bb 8f a0 8b 3d 1e f5 36 be 70 9b 00 be
       -0.0063079996 0.068177335 -0.17866942 -0.12559295
000060 8b 6b 73 3d 2f b7 a8 be a5 32 ae bb d9 38 7d bd
       0.059428733 -0.32952258 -0.005316096 -0.061821792
000070 bd 93 bd 3e e1 bc 5d bd eb 9b b4 bd c4 8b dc bd
       0.37026778 -0.054135207 -0.088188015 -0.10768846

weight f4 [32, 32, 5, 5]
000000 69 c3 dd 3a a2 9f 06 3d d7 0e 32 3c 1b a9 3f bd
       0.0016919199 0.03286708 0.010867796 -0.04679213
000010 ac 35 0c bd 67 10 07 bd 1d 10 76 3d 20 10 9d 3c
       -0.034230873 -0.032974627 0.06007396 0.019172728
000020 ef 72 5e 3c cb dc aa bc 4e 5a 0b bc 59 e2 ec 3c
       0.013577207 -0.020857235 -0.008505417 0.028916525
000030 e2 36 02 3d ad 6a 08 3d 7d 5c 53 bc 70 83 36 bd
       0.03179062 0.03330486 -0.012900469 -0.044558942
000040 6e e4 cd bc 98 76 02 3d 9d df 95 3d e0 b6 8a 3d
       -0.025133338 0.03185138 0.073180415 0.06773162
000050 8e 8d 3b bd 13 8e 01 bd c3 2a ed bb 7e 20 91 3d
       -0.045789294 -0.031629633 -0.0072377636 0.070862755
000060 00 ea 85 3d 50 7d 74 bc a6 89 82 bc 92 40 a0 3c
       0.065387726 -0.014922455 -0.015934777 0.01956204
000070 28 f0 5a bc d7 84 88 bc 1e 20 34 bb 6e 33 6b 38
       -0.013362922 -0.016664905 -0.0027484964 5.6076264e-05
000080 a0 f8 01 bc bc db 07 bc 62 20 96 bb 81 8d cd 3c
       -0.007932812 -0.008292135 -0.004581497 0.025091888
000090 1d f3 90 3c e2 16 67 bd 71 61 6f bd 3f 54 c2 3c
       0.01769405 -0.056418307 -0.058442537 0.023721812
0000a0 ac 1a d4 3c a6 53 fa bb 90 32 be bc 21 f1 4b bd
       0.025891624 -0.007639366 -0.02321747 -0.049790505
0000b0 01 74 b6 bc e4 bb 2d 3d 24 26 53 bb a1 c8 ed 3c
       -0.022272112 0.042415515 -0.0032218779 0.029026331
0000c0 fb fe f9 3c e7 de 01 bd ea 53 7c 3c ac a4 05 bd
       0.030517092 -0.031706717 0.015400866 -0.032627746
0000d0 d3 a2 aa bc 3a cc 9e 3c dc e9 ec bc 03 d5 12 bd
       -0.020829594 0.019384492 -0.028920107 -0.035847675
0000e0 af 78 36 bd a9 0f 2a 3c 37 d6 d2 bc bb 66 6c bc
       -0.044548687 0.01037971 -0.025736911 -0.01442879
0000f0 8e 72 ab 3b f4 d5 e6 bc c3 e5 4f bd 22 ea f8 3c
       0.005232162 -0.028178193 -0.050756227 0.03038508
000100 ca 8f ea 3c 41 92 18 3d 71 f4 0f bd d5 f3 51 bd
       0.028633017 0.037248854 -0.035145227 -0.051257927
000110 21 74 51 bb b8 18 ff 3c 61 b2 b7 bc 09 9c 6e 3c
       -0.0031960087 0.031139717 -0.022423925 0.014563569
000120 c9 b3 85 3b 6e 15 2a 3c d8 6c e1 bc 19 d0 dc 39
       0.00408027 0.010381086 -0.027517721 0.00042116715
000130 8b 2a 01 3b 20 70 3f 3d 53 64 3b 3c b9 df 1d 3b
       0.0019709195 0.04673779 0.011437493 0.0024089648
000140 40 6e 60 bd 28 4b 0d bd 9c d7 1f ba 6d de 55 3d
       -0.054792643 -0.034495503 -0.0006097497 0.052214075
000150 9e d0 ec ba 1c d3 9c bc 58 25 e2 bc 78 51 51 3b
       -0.0018067544 -0.019143634 -0.027605698 0.0031939428
000160 fc 10 c4 bb 86 c0 89 3d f1 f4 19 3c 8e 76 3d bd
       -0.00598347 0.06726174 0.0093967775 -0.04625564
000170 e9 d7 82 bd b9 ff 7a 3c 75 72 45 3d 59 81 7f bc
       -0.06388838 0.015319758 0.048204858 -0.015594804
000180 a4 50 f0 3b 88 c7 9a bc d5 17 41 bd fb e0 4f 3c
       0.007333832 -0.018893972 -0.04714187 0.012687917
000190 0f a6 e7 3c bc 78 f5 3c 6e 66 df bc b5 3c 34 bc
       0.028277425 0.029964797 -0.027270522 -0.011000802
0001a0 99 1f 0a bd 4b c7 f9 bb eb ab 8a bc e4 d2 fd bb
       -0.03372154 -0.0076226345 -0.01692768 -0.0077460874
0001b0 35 5f 89 bb be 66 0b 3d 83 d2 dd 3b c4 77 e2 3b
       -0.0041922578 0.03403353 0.0067694797 0.00691125
0001c0 56 af 89 bc bf c6 cd b9 07 d2 a2 bb 4e ab 90 3c
       -0.01680724 -0.00039248724 -0.004968885 0.01765981
0001d0 fe 5a 26 3c 44 87 06 bd 0d 5b f6 3c 5a c6 18 3d
       0.01015353 -0.032843843 0.030072713 0.037298538
0001e0 1b 9d ae bc 24 5e ed b8 3a 9b c2 3c 5b 17 dc 3c
       -0.021315148 -0.00011318576 0.023755658 0.026866606
0001f0 18 b9 88 bb df e2 d6 3b bb dc b7 bb 6d 71 de 3a
       -0.0041724555 0.006557807 -0.00561103 0.0016971059
000200 3f 72 66 bc b3 ae 44 ba 31 03 22 3d ee 73 08 bd
       -0.014065324 -0.0007502839 0.039553825 -0.033313684
000210 57 27 9c 3c 8a 31 cd bb 1b fe 09 bd 0d 1e 82 bc
       0.019061727 -0.006262009 -0.0336896 -0.01588347
000220 45 e5 b5 3b 7d 70 18 bd 39 d4 41 bb d4 59 e3 bb
       0.0055510127 -0.037216652 -0.0029575957 -0.0069381986
000230 4e 9f 05 bc fb b6 5b bd e4 fa 4c bd a6 63 e9 3c
       -0.008155657 -0.0536413 -0.050043955 0.028489899
000240 f3 be bb 3c a1 95 08 bd b6 6b 0d bc ee f5 21 bd
       0.0229182 -0.033345822 -0.008631637 -0.039541177
000250 04 26 20 bd 13 0e 6d 3c e7 49 2f bb 8c ba c4 3c
       -0.039098755 0.014468688 -0.002674693 0.024014734
000260 e3 9f 42 3c 2c e2 12 3b c8 41 ea bc 83 21 88 bc
       0.01187894 0.002241264 -0.02859582 -0.016617542
000270 67 60 cf bc 5b 1c 9f bc ad 2b af 3c 2a 5e 83 bc
       -0.025314523 -0.0194227 0.02138313 -0.016036112
000280 32 6c 78 3c c1 08 08 bd 7d 8a 15 bc fe 27 23 3d
       0.0151625145 -0.033211473 -0.009127256 0.03983306
000290 28 89 9f bc 00 5f 3f bd 3c 00 08 bd 34 70 f6 bc
       -0.01947458 -0.04672146 -0.03320335 -0.0300828
0002a0 58 42 b8 3b d9 84 9c 3c 19 2a ba bc cd 5b 11 bd
       0.005623143 0.019106315 -0.022725152 -0.03548794
0002b0 3b dd 01 bd 92 90 c7 bc 33 82 1c 3c 0d 57 33 bc
       -0.031705122 -0.024360929 0.009552526 -0.0109460475
0002c0 fa ac 08 3c 7a 60 5c bd ac 7a 8c bc 58 78 3a 3d
       0.008342022 -0.053802945 -0.017148338 0.045524925
0002d0 24 7e 2c 3c 50 ab f5 ba 5a 4a f3 bc 6c e1 b5 3b
       0.010528121 -0.0018743072 -0.02969854 0.005550554
0002e0 b5 d4 a9 3c b6 fe d1 3c 8d 0b c9 3c 5a 0e 2b bc
       0.02073131 0.025634151 0.02454164 -0.010440433
0002f0 aa b5 3d bd f4 6e 06 bd 52 30 40 3d 6a 63 9a 3d
       -0.046315826 -0.032820657 0.04692108 0.07538493
000300 5e 4f 39 3d e1 78 af bc c8 7f eb bc 7b bf f5 bc
       0.045241706 -0.021419944 -0.028747454 -0.029998532
000310 a4 37 15 3c 1a e7 1c 3d 51 d3 59 bc 3c 23 1b bc
       0.009107504 0.038306333 -0.013295011 -0.00946885
000320 3d 77 4b 3c b3 db d8 3c a7 1a 04 3d c3 2f 06 3c
       0.012418565 0.026471948 0.03225198 0.008190098
000330 2d 26 62 bc 31 1e 2f bd 73 92 c0 bc f9 88 89 3c
       -0.013803047 -0.042753402 -0.023507332 0.016788946
000340 d0 98 b5 3b e0 d1 0f 3a 34 88 2f bd b4 ee 37 bb
       0.0055418983 0.0005486291 -0.042854503 -0.0028065862
000350 8a 42 4f 3c cb d0 f7 3c 87 92 0e bd 02 5a 47 bd
       0.0126501415 0.030250927 -0.034807708 -0.048669823
000360 98 7e 3f 3c 58 e9 80 3d fa ee 99 3d 1e 0c fc 3c
       0.011687897 0.06294507 0.07516284 0.030767497
000370 57 30 df bc df 0c 4a bd 12 44 c5 3c 05 56 8e 3d
       -0.02724473 -0.04932868 0.02408031 0.06950001
000380 bb c4 06 3d 17 ed 95 3c bb 29 cc bb 16 e6 c7 bb
       0.03290246 0.01830153 -0.0062305606 -0.0061004264
000390 3b 54 b9 3c 6f 8c 05 3c be 86 db bb df af 2b bc
       0.022623172 0.008151158 -0.006699412 -0.010478943
0003a0 1f 4d 38 bc fe f7 e6 3c 87 28 40 3d 7e 5b 21 3d
       -0.011248856 0.028194424 0.04691365 0.039393894
0003b0 70 a3 e9 3b 3e 17 27 bd c8 27 1a bc d8 d0 d3 3c
       0.007130079 -0.04079365 -0.009408899 0.02585642
0003c0 87 e8 5c bc 8f 74 7a bc 45 d5 67 bd e5 76 88 bc
       -0.013483173 -0.015286579 -0.056599874 -0.016658256
0003d0 51 e3 ab bc 84 1c f5 3c 40 f7 d3 3c e2 fd 3b bd
       -0.020982416 0.029920824 0.025874734 -0.04589642
0003e0 15 13 52 bd 31 44 57 bc 27 47 91 bb 86 c7 0f bd
       -0.05128773 -0.013138817 -0.004433531 -0.03510239
0003f0 b7 b5 7d bb 88 dc 31 3d b7 25 16 3d e6 33 67 bc
       -0.0038713047 0.043423206 0.03665706 -0.014111495

bias f4 [32]
000000 14 fd 45 bd 14 7f bf bd cd d7 9b bd 15 3f db 39
       -0.048337057 -0.0935041 -0.0760952 0.00041817935
000010 00 c8 2a 3d ae 57 04 be 52 81 b2 bd bf 21 87 3d
       0.04169464 -0.12924072 -0.08716072 0.065982334
000020 14 23 a6 3c a6 c5 83 bd 6b a4 1e 3d bd 16 ae bd
       0.020280398 -0.06434183 0.03873102 -0.08500431
000030 6b dd 55 bb d1 08 9e bd da 2f 7a bd 84 8b 40 bd
       -0.0032633196 -0.07716525 -0.06108079 -0.047008052
000040 f6 8b 0a bd a3 04 3a bd aa 48 18 bb 87 f7 eb 3c
       -0.033824883 -0.04541458 -0.002323667 0.028804554
000050 3b de 5b 3d c8 12 f1 bc f2 d1 08 bd 45 cf 58 bd
       0.053678732 -0.0294279 -0.033403344 -0.052932043
000060 f3 ac 0a 3d 0f 11 c1 bc 75 78 ea 3c 3d 67 35 bd
       0.033856343 -0.023567704 0.028621892 -0.04428791
000070 96 9f 99 3a 72 51 4e 3d d2 ef 86 bd 72 4f 6b 3c
       0.0011720534 0.05037064 -0.06588711 0.014362203

weight f4 [64, 32, 5, 5]
000000 3b a0 b9 3b 08 0d 7b 3c 07 68 c6 bc 87 f3 cf bc
       0.005664853 0.015322931 -0.024219526 -0.025384678
000010 b6 af 26 3d ed 7d a2 bc 42 54 d8 3b fb c4 35 bd
       0.040694915 -0.019835437 0.006601841 -0.04437731
000020 04 86 25 bc fe 1b dc 3c 76 89 0a bd 3d 1e 24 bd
       -0.010102753 0.026868816 -0.0338225 -0.0400679
000030 b1 df e5 bc 4a 4f 23 bd 09 04 cd 3b 94 ba 12 bc
       -0.028060766 -0.039870538 0.0062565845 -0.0089556165
000040 61 d2 77 3c 31 1e 24 bc 86 4c 53 3c 4d 5f 89 3b
       0.015125842 -0.010016964 0.012896663 0.004192269
000050 5c 79 11 bd 49 f5 88 bc ac ea bf 39 ce 6b 0e bd
       -0.035516128 -0.016718524 0.00036605203 -0.03477078
000060 b9 08 5d 3c d2 ea e0 3b 7a 3f 32 bd 08 c4 48 3b
       0.013490849 0.0068639303 -0.043517567 0.0030634422
000070 57 13 b0 3b 9e e3 7f 3c cd ed 98 bc a8 0e c2 bc
       0.0053733992 0.015618233 -0.01866808 -0.02368863
000080 0c 4e d9 bc 49 49 1f 3d 73 87 68 3c 30 02 26 ba
       -0.026526473 0.03888825 0.01419245 -0.00063327234
000090 6f 4b 55 3c f5 70 ed 3c 0b cb a2 3c ad 61 54 3d
       0.013018473 0.028984526 0.019872209 0.051850963
0000a0 91 10 f5 bc 50 ea 30 bd 9c 55 dc bc 70 4d bf bc
       -0.029915126 -0.043192208 -0.02689629 -0.023352355
0000b0 91 4d 03 3c f1 78 d8 3c 01 14 4e 3c ce 63 2b 3c
       0.008014099 0.026424857 0.0125780115 0.010460807
0000c0 da 46 fe 3c d9 3e 55 bc 98 4f f0 bc 4c 92 91 bc
       0.031039644 -0.013015472 -0.029334828 -0.017769955
0000d0 ed ad 15 bd 4f 44 25 3c 03 46 2c bc fb 39 00 3d
       -0.03654282 0.010087087 -0.010514739 0.031305294
0000e0 8b 8c 2b bd ca 66 c1 bc 25 73 c5 3b 43 7c 6f bb
       -0.04188208 -0.023608584 0.006025689 -0.0036542572
0000f0 7b 34 53 bc ec 8a 5b bc 9c 32 16 3c a7 96 e9 3c
       -0.01289093 -0.013399821 0.00916734 0.02851422
000100 14 61 48 3d 5f 04 0b 3c 72 a1 94 bc 3b c1 70 bb
       0.048920706 0.008484929 -0.01814339 -0.0036736268
000110 a0 d2 33 3d cf 89 e5 3c 9e 8b c6 bc 86 e6 68 3b
       0.04390204 0.028019814 -0.024236497 0.0035537793
000120 5e 27 0b 3d c7 52 4d bc 62 84 b1 bc 44 93 9d 3c
       0.03397309 -0.012531943 -0.02166957 0.01923526
000130 4f 0d 6a 3c dd b8 6a bd 6b d0 9e 3b b9 0f 0b 3c
       0.0142854 -0.057305206 0.0048466227 0.008487635
000140 30 20 0c 3d 9b 5c 0e bc 3f 74 45 bd 3c f1 8b bb
       0.034210384 -0.008689071 -0.048206564 -0.0042707007
000150 f9 5e 51 bc 12 b8 05 3d 17 e4 2e bd d7 c6 06 bd
       -0.012778991 0.032646246 -0.042697992 -0.032904472
000160 f6 8a ba 3c 83 d8 14 3d fe 13 2d bd fd 95 d3 bc
       0.02277134 0.036339294 -0.042255394 -0.025828356
000170 39 f6 2f bd 29 d8 ea bc c9 7a b8 bb 99 ba e6 3c
       -0.042959426 -0.028667526 -0.0056298715 0.028165149
000180 2f e9 d2 bc ad b3 2c 3c 84 05 11 3d ff 24 9c bc
       -0.025745956 0.010540885 0.03540565 -0.01906061
000190 b9 a2 f2 bc 83 7d 77 bc e1 d6 df 3c 7b 24 07 3d
       -0.029618608 -0.015105608 0.027324142 0.032993775
0001a0 fc 64 62 3c 2b 4b f4 3b 05 70 29 bb 43 83 10 3c
       0.013818022 0.00745525 -0.0025854122 0.008820358
0001b0 ae d3 fd bb 8b a7 6f bc 4e 6d 4f bc 94 21 a6 3c
       -0.0077461815 -0.014627348 -0.012660338 0.020279683
0001c0 e0 44 f2 3b 9f da 1c 3d 3f 91 0a 3c 3f b8 cb bb
       0.0073934644 0.03829443 0.008457481 -0.006217032
0001d0 69 85 c4 bc 5d 4d 8a 3c b8 08 33 bc 92 77 c4 bc
       -0.023989396 0.016882593 -0.010927372 -0.023982797
0001e0 6b 9e fe 3c 76 99 04 3d 90 00 31 bb 83 3b 8c 3c
       0.031081399 0.032372914 -0.0027008392 0.017118221
0001f0 78 7e 66 3c bc 5e d9 bc 08 51 4c bd 42 50 cf 3a
       0.014068238 -0.02653443 -0.049881965 0.0015816765
000200 39 56 55 3c a6 eb 5e 3b 34 60 b6 bc cd 7d ba 3c
       0.013021045 0.003401497 -0.02226267 0.022765065
000210 d9 76 0d 3c 8f a7 2d 3c 3d fe 9b 3c ed 60 e9 3c
       0.0086342925 0.010599031 0.019042129 0.0284886
000220 29 bc b6 bb 25 7c 44 3c 59 a3 2c 3d 7b b6 48 3c
       -0.0055766297 0.011992489 0.042147968 0.012250538
000230 e9 65 c5 bb 34 ce 96 3c b3 a0 b0 3c 85 ba 71 3b
       -0.0060241115 0.018408872 0.021561002 0.0036884856
000240 ec 48 b5 3c 0a 23 93 3c 85 cd dd bc 31 4b 04 3d
       0.022129498 0.017961044 -0.027075538 0.03229827
000250 4c 47 5b 3c 66 17 2f 3d ba ea fe bb ad df 12 3d
       0.013383698 0.042746924 -0.0077794464 0.035857845
000260 16 34 63 bb 20 58 ab 3c 58 78 15 3c d8 47 55 bb
       -0.0034668497 0.020916045 0.0091229305 -0.0032544043
000270 4a 81 00 3c 14 aa 9c bc a5 d7 89 bb 1d ed b4 3c
       0.007843325 -0.019124068 -0.004206615 0.02208572
000280 2a 2d cd bc ca 63 9d 3c be 78 93 3c fc 70 35 3d
       -0.02504595 0.019212622 0.01800191 0.044297203
000290 b3 1a 98 3c b9 0b e0 3a f2 d4 2b 3b 14 a0 ff bc
       0.018567419 0.0017093337 0.0026219455 -0.03120426
0002a0 22 01 24 3c ac f3 f5 b8 01 dd 01 3d e7 f9 45 3c
       0.010010036 -0.00011727898 0.031704906 0.012083507
0002b0 ce f1 a3 3c 29 8e 11 3d 80 85 36 3d a5 51 5d bb
       0.020012762 0.035535965 0.04456091 -0.0033770588
0002c0 5a 92 3a 3b 56 b5 b4 3c 86 d2 c4 bc 20 a0 64 bb
       0.002846858 0.022059124 -0.024026167 -0.003488548
0002d0 5a 4d 1e bd 84 88 b1 bc 73 0d 04 3d 3c b9 9f 3a
       -0.038647987 -0.021671541 0.03223939 0.0012185941
0002e0 d1 c3 b7 bb 9a 92 ed bb ab cd c6 3a 02 0e b0 bc
       -0.00560806 -0.0072501423 0.0015167495 -0.021491054
0002f0 f6 b7 7b bb c3 8e 08 3d 2c 5d f0 3c 94 4a e2 3c
       -0.003840921 0.033339273 0.029341303 0.027623452
000300 dc 17 17 3d 0d b1 a9 bc 30 7f b9 3c dd 03 ad 3a
       0.03688799 -0.020714307 0.022643656 0.0013200004
000310 1b 5a 60 3c e9 40 60 3a e2 48 62 3b 5e 37 f9 3c
       0.013693358 0.0008554594 0.0034528305 0.030421909
000320 06 0a 96 3c 2f 1d 45 3d a5 bb 9e 3c 3d 09 11 bc
       0.018315326 0.048123535 0.019376585 -0.0088523
000330 99 30 27 bd 8d 42 a3 3b f2 9e fc 3c 72 c6 b5 bc
       -0.04081783 0.0049822987 0.03083751 -0.022189353
000340 3c 0a d6 bc 80 61 b9 bc 28 9a b6 bb 57 61 da 3c
       -0.026127927 -0.0226295 -0.005572576 0.026657743
000350 24 6a 22 bd 55 66 d3 bb a8 5c 01 bd a5 29 4f bc
       -0.039652005 -0.006451408 -0.031582505 -0.012644206
000360 6b 8a 75 3d c5 cf 06 3d 99 40 98 3a 1d f6 ae 3c
       0.05994646 0.03291299 0.0011615931 0.02135759
000370 89 aa de bb c2 27 1d 3d cb 4d bb 3c 88 be 96 bc
       -0.0067952317 0.038367994 0.022864243 -0.0184014
000380 81 fe 1b ba 60 30 07 3c a7 db c6 3c 69 b8 16 3c
       -0.0005950705 0.00825128 0.02427466 0.00919924
000390 db 23 b5 3c 65 67 fd 3c ea 36 ee 3a 23 45 0b 3d
       0.022111824 0.030933091 0.0018174325 0.03400148
0003a0 4f 2a 42 3c ae 72 03 bd a0 94 62 3c f0 0f 0b 3d
       0.0118509075 -0.03209179 0.01382938 0.033950746
0003b0 80 05 a5 bc 64 fb 0b bd 63 52 36 bd 12 7e 2d bd
       -0.020144224 -0.03417529 -0.044512164 -0.04235656
0003c0 bc 91 04 bc a7 01 15 3d 48 04 58 3d c0 52 45 3d
       -0.008091386 0.03637853 0.052738458 0.04817462
0003d0 eb 3e ab bc f4 e6 8c 3c c0 2a ce 3b a5 0f a3 3b
       -0.020904025 0.01719997 0.0062917173 0.00497623
0003e0 72 8e fa bc f6 25 38 bc 5c c6 c6 bc b5 22 f9 bc
       -0.030585501 -0.011239519 -0.024264507 -0.030412057
0003f0 4b 88 28 bd ef f3 02 3d 7b 65 c9 bc 9f f0 cc bc
       -0.041145604 0.031970914 -0.024584522 -0.02501708

bias f4 [64]
000000 c0 2c e3 bc f0 67 53 bd cc 22 8a bd 15 4b a9 b9
       -0.0277313 -0.051612794 -0.06744918 -0.00032290132
000010 d5 18 e2 3b 0d 47 2d bd 99 48 9f bc 17 fc 88 3c
       0.006899933 -0.042304087 -0.019443797 0.016721768
000020 b2 c4 d4 bc 1a c9 08 bc 2e fb 41 bd b5 94 d5 bc
       -0.025972698 -0.008348728 -0.047358684 -0.026071886
000030 c0 30 cc bc db 86 a8 bc 2b e7 1c bd 1f 3a 15 3c
       -0.02492559 -0.020572117 -0.038306396 0.009108095
000040 67 4d 0a bd d5 e2 dc bc 5c 6e 1b bd 08 73 99 bc
       -0.033765223 -0.02696363 -0.037947044 -0.018731609
000050 1e 07 ea bc d5 7c 69 3b dc d5 12 bc 03 0d 54 bd
       -0.028567847 0.0035627384 -0.008962121 -0.05177022
000060 86 d2 ef bc 39 fa 5e bb 8c c2 07 bd 87 dd 87 bb
       -0.02927519 -0.0034023656 -0.03314452 -0.004146281
000070 7a cb 74 bc 04 bc 18 bd 14 20 54 bb b3 82 ff 3b
       -0.014941091 -0.03728868 -0.0032367753 0.007797563
000080 56 65 d1 3c c0 a4 c7 bb af 77 03 bd fb 21 31 3a
       0.025561016 -0.006092638 -0.03209656 0.00067570776
000090 57 02 16 3b d8 f6 5e bd 1f aa 29 bd 2e 47 8e bd
       0.0022889578 -0.054434627 -0.041422006 -0.0694717
0000a0 ca 7e 0b bd 57 62 b4 bc 30 a2 51 3d 31 f9 fc 3a
       -0.034056462 -0.022019548 0.051180065 0.0019300339
0000b0 94 31 fc bc 99 04 07 bc 1b e8 43 bc b8 4f 2b bd
       -0.03078536 -0.008240842 -0.011957194 -0.041824073
0000c0 c8 f2 e5 bb 7a d3 0e 3c 61 2e 7e bd 79 6c 44 bd
       -0.007017467 0.008717412 -0.06205595 -0.04795501
0000d0 9b ba fd bc ae 18 67 bd 00 df d8 3c 53 92 1e 3d
       -0.03097277 -0.05642002 0.026473522 0.038713764
0000e0 fa bd 14 3d bc 00 58 bd 64 a3 1b 3d e2 e3 5c bd
       0.03631399 -0.052735075 0.03799762 -0.053928263
0000f0 f3 8b 29 bd e2 be 65 3c bf 32 bd 3b 2f a6 81 3c
       -0.04139323 0.014022561 0.0057738717 0.015826313

weight f4 [64, 1024]
000000 f0 55 42 bd 62 04 1b 3c 09 c5 97 3c a3 9c 7d 3c
       -0.047445238 0.009461494 0.01852657 0.01547924
000010 fa ea 2a 3b 74 e1 be 3c 7c a0 68 3c 4d fc a4 bc
       0.0026079998 0.023300864 0.014198419 -0.020139838
000020 cc 19 3a bc af 9a c3 bb 25 b1 09 3d b3 02 13 bc
       -0.0113586895 -0.0059693675 0.033616204 -0.0089728115
000030 83 8b b5 bc 11 e4 5d bd 28 22 3f 3b ee 2d ee bc
       -0.022161251 -0.05417258 0.0029164646 -0.029074635
000040 c6 84 84 bb b5 e0 de 3c 46 2a 97 bc 85 6b 72 bb
       -0.004044148 0.027206758 -0.018452775 -0.0036990356
000050 97 b1 7c 3a 49 3d ac bb 0a 43 6a 3b 9d 0e 50 bc
       0.00096395 -0.005256329 0.0035745525 -0.012698797
000060 64 d6 56 bc 84 67 9c 3c 70 85 d8 bc c4 f8 29 3d
       -0.013112638 0.019092329 -0.026430815 0.041497007
000070 de 72 a6 3c 5b 32 81 bb c0 b3 5f 3a 44 b7 8f bc
       0.020318445 -0.0039427704 0.000853356 -0.017543443
000080 9a 27 eb 3a 6f 92 42 39 1e 20 ac bc d6 dc 5d bc
       0.0017940879 0.00018555833 -0.021011408 -0.013541421
000090 5f 70 81 bc f2 41 f0 3c 07 0f 97 3c c5 35 c3 3c
       -0.015800653 0.02932832 0.018439783 0.02382935
0000a0 af 60 ad bc df a6 0c bd e0 02 c7 bc 61 4b 91 bc
       -0.021164266 -0.03433883 -0.024293363 -0.017736139
0000b0 e9 37 b8 3b 32 54 a9 3c a1 69 11 3c 44 a1 9c bc
       0.0056218994 0.02067003 0.008875282 -0.019119866
0000c0 70 37 d0 bc 06 ec ac bc a3 84 49 bc 80 fd f0 bc
       -0.02541706 -0.021108638 -0.012299689 -0.029417753
0000d0 49 f5 eb bc 8d f3 aa 3b 0f 38 cb 3c a3 62 d5 bb
       -0.028803485 0.005217022 0.024807004 -0.0065120026
0000e0 ca 1e 94 bc 0a eb 3b 3c 81 6b 9c 3c ec 59 f3 3c
       -0.018081088 0.011469612 0.01909423 0.029705964
0000f0 1d 9e 81 3b 85 28 ff 3c c5 f7 31 3d 3c d7 df 3c
       0.003955616 0.03114725 0.043449182 0.027324311
000100 b0 80 a0 3c 87 ea c3 bb 80 fd 64 3b 1f 1f e8 3c
       0.019592613 -0.0059788856 0.0034941137 0.028335152
000110 58 87 93 bc 34 ea ae bc e4 4b 60 3c af 5d 00 3d
       -0.018008873 -0.021351911 0.013689969 0.031339344
000120 9e 22 cb ba b1 d3 ed 3c 67 4e ad 3b 58 c8 27 bb
       -0.0015497988 0.029031606 0.0052888873 -0.0025601592
000130 ed f9 bc bc 0d 9c 89 3c 76 f7 ac bc e0 f4 90 3c
       -0.023068393 0.016798044 -0.021114092 0.01769489
000140 14 ee 82 bc 14 41 7e 3c f4 de 4d 3c 26 30 80 bc
       -0.015982665 0.0155184455 0.012565363 -0.015647959
000150 24 35 ce bc ca d7 60 3c 2e 7b 69 3c b8 5c 17 3c
       -0.025171824 0.013723323 0.01425056 0.0092384145
000160 9b d5 ca bb 91 90 04 3d 29 19 3c bb 78 b9 6b bc
       -0.0061900145 0.03236443 -0.002870152 -0.014387481
000170 67 e2 12 3d 11 1b 9a 3c 9f 78 a8 3c 66 91 9d 3c
       0.035860445 0.018811734 0.02056533 0.01923437
000180 7a fc 66 bc c0 6b 92 bc 15 9e 61 bc ef 37 8a 3c
       -0.014098281 -0.017873645 -0.0137706 0.016872374
000190 0d 87 b8 bb 44 69 50 bc a3 20 8c bc 42 10 c7 bc
       -0.0056313337 -0.01272041 -0.017105406 -0.024299745
0001a0 06 de 17 3d 5e b2 17 3d b7 d5 a5 bc 51 79 22 3d
       0.037076972 0.03703534 -0.020243509 0.039666478
0001b0 13 95 33 bc a7 c1 a0 3c 8e 30 ff 3c 09 17 17 bc
       -0.010960835 0.01962359 0.031151082 -0.009221801
0001c0 c5 36 50 3c 61 4f 34 bd ef 0a 99 b9 52 40 13 3d
       0.012708371 -0.044021014 -0.0002919058 0.035950013
0001d0 5b 35 fc 3c fd f7 e6 bb a2 d5 1f 3d 10 b6 a7 3c
       0.03078716 -0.0070486055 0.039022096 0.020472556
0001e0 6e ed e5 3a e8 6e 95 bc 2e ac 25 3d 7d 53 11 3d
       0.0017542073 -0.01824136 0.040447406 0.03548001
0001f0 9e 76 4b 3d 26 ee 21 bc f0 53 5d bc 85 89 93 3c
       0.04967367 -0.009883439 -0.013508782 0.01800991
000200 e5 e2 ab bc 83 92 56 3b cc a3 5f 3c b1 a9 6a bc
       -0.020982215 0.0032741136 0.013649892 -0.014322684
000210 d8 1e d5 3c 78 1d 65 3b e5 78 4f 3d d2 c9 19 3d
       0.026015684 0.0034960192 0.050652403 0.037545986
000220 35 5f 19 3d 23 5f 4c 3d e1 e4 da 3c ee fc 2e 3d
       0.037444312 0.049895417 0.026720466 0.04272168
000230 71 60 61 bc 36 01 96 bb fa 29 c2 bb ce 2e e3 bc
       -0.013755904 -0.004577781 -0.005925414 -0.02773228
000240 70 7a 8c 3c 9d 42 21 bc 6c 0f 2f 3c b6 41 f6 bb
       0.017148226 -0.009842542 0.010684829 -0.0075151576
000250 f6 7d f9 3c 96 26 fa 3c 57 e4 33 3d 50 9d b3 3c
       0.03045557 0.030535977 0.043918934 0.021925598
000260 8a f0 7b 3c 5f 4f 7c 3d c7 64 01 3d de 22 83 ba
       0.015377173 0.06159913 0.03159025 -0.0010004898
000270 03 2a dd bc f7 e5 ba bc e2 83 df bc fd 7f 64 bc
       -0.026997572 -0.022814734 -0.027284566 -0.01394653
000280 01 76 06 3d 09 ae 7e bb 17 5d bb bc 8f 92 3e bc
       0.03282738 -0.0038861057 -0.022871537 -0.011631622
000290 01 61 1c 3d ed 28 35 3c ac ad ca 3b 68 f3 66 3d
       0.038178448 0.011057121 0.006185254 0.056384474
0002a0 da 82 0a 3d 48 1b 9d bc 7f 7a 53 3c 4e 49 c1 3c
       0.033816196 -0.019178048 0.012907623 0.023594525
0002b0 21 c5 f6 bc 62 2d 8d bc 31 4d 1f 3c b9 5e 86 3c
       -0.030123295 -0.017233554 0.009722994 0.01640259
0002c0 2f 12 c2 3c e0 c0 25 3c 52 b2 d1 bc 44 50 4c bc
       0.023690311 0.010116786 -0.025597725 -0.012470309
0002d0 e5 88 8d bc 62 b3 9e bb a6 b6 3b bc 7a 58 89 bc
       -0.01727719 -0.0048431614 -0.011457121 -0.016765822
0002e0 8b 15 b2 bc 52 9b e3 3b 1f d7 e0 bc 98 3e 15 3c
       -0.021738788 0.006946006 -0.027446328 0.009109162
0002f0 30 f9 d1 39 7c 26 79 3c f6 ea 12 3d 5a f2 30 3c
       0.00040049246 0.015206929 0.035868607 0.010799969
000300 85 1d e6 3b 5d e7 22 bd 36 46 40 3c 93 19 27 bc
       0.007022562 -0.039771426 0.01173549 -0.010198968
000310 b2 d8 87 3c 54 4f 02 bd 5b 22 af bc c3 c2 f6 3b
       0.01658282 -0.031813934 -0.021378687 0.0075305416
000320 e8 f8 d8 ba 47 61 f5 bc 50 3c ea 3c d7 f0 7d 3b
       -0.0016553672 -0.029953612 0.028593212 0.0038748288
000330 ce d4 18 3d 11 03 08 bc 78 d1 af bc 08 d9 00 bd
       0.03731232 -0.008301512 -0.021462187 -0.031456977
000340 30 4c 0a 3c 31 49 1f bc 3d 34 31 bc 87 99 86 3c
       0.008441016 -0.00972204 -0.010815677 0.01643063
000350 12 15 e9 bb 88 f1 c3 3c 3f f8 17 3d b0 b6 63 3c
       -0.0071131075 0.023918882 0.03710198 0.013898537
000360 5e 5e 50 3c 38 ae a2 3c 60 89 90 3b 2b 09 12 3d
       0.012717811 0.019858465 0.0044109076 0.035653275
000370 99 01 0f bd 00 13 d7 bc 66 22 f2 bb cf 9f c0 bb
       -0.034913633 -0.026254177 -0.0073893545 -0.0058784257
000380 02 9c bf 3b 09 26 d6 3a fb 93 09 3d 0b 38 42 bb
       0.005847455 0.001633824 0.03358839 -0.0029635455
000390 e9 f4 c4 3c c2 0c a6 3c 23 8a 2b 3a 45 c6 c8 3c
       0.024042564 0.020269755 0.00065437163 0.024508605
0003a0 e8 07 58 3a 09 ef e5 bc 93 8e 33 3c ea 11 26 bd
       0.0008240924 -0.028068082 0.010959285 -0.040544428
0003b0 ee 5d 26 3c f1 2e 4c bc 5f cc b8 3c 2c 0b 7a 3c
       0.0101542305 -0.012462364 0.02255839 0.015261453
0003c0 48 f7 e4 3b 75 8f 9b 3c 46 da da 3c 71 10 b8 bc
       0.006987486 0.018989304 0.026715409 -0.022468777
0003d0 2c db 93 bc 0c bd b4 bc 8a 8b 27 3c 7e 18 90 3b
       -0.018048845 -0.0220628 0.01022614 0.004397451
0003e0 33 ba cf 3c 91 6f d1 bc 7f 88 c8 3c 54 07 a0 3b
       0.025357341 -0.025565894 0.024479149 0.004883686
0003f0 87 eb b5 3b fc 79 cb bb 76 84 19 bc 77 df 50 bc
       0.0055517587 -0.00620961 -0.00936996 -0.012748591

bias f4 [64]
000000 93 8b a1 bc e8 0c 18 3b 3b b9 a6 bc 8e a0 55 3c
       -0.019719874 0.0023201052 -0.020351997 0.0130387675
000010 50 54 a9 bb cc 2f 23 3d 62 4d a3 bc 7a 5d 9a bc
       -0.0051675215 0.039840505 -0.01993436 -0.018843401
000020 30 28 45 bc 71 cc 79 bc fd 7b ae bc b8 0c 29 bd
       -0.012033507 -0.015246497 -0.021299357 -0.041271895
000030 f7 d7 bc 3b 68 e5 28 3d 4a e1 c7 3b 33 ed 6c bb
       0.0057630497 0.041234404 0.0060998546 -0.0036152124
000040 0e 10 5d 3c 6b 7f b9 3c 67 20 aa bc dc 28 fd 3c
       0.013492597 0.022643765 -0.020767404 0.030903272
000050 58 f4 0d bd 5f bc 8c 3c c5 6b 9c 3c e5 2a 02 bd
       -0.034656852 0.017179666 0.019094357 -0.03177919
000060 ab 36 13 3d f5 b4 c6 bc 8b 02 a6 b9 2e ca 9b bc
       0.035940807 -0.024256209 -0.00031663882 -0.019017305
000070 38 47 70 3d 2f f6 b4 3c af c7 c8 bc cd 72 67 3c
       0.05866167 0.022090046 -0.024509279 0.014126492
000080 2e 19 10 bd e8 70 0e 3d 77 f7 14 bc 59 13 37 bd
       -0.035180263 0.034775645 -0.009092203 -0.044696186
000090 9a f7 5f bc b8 7f d7 3c 27 a1 31 bd 61 a5 23 bd
       -0.013669873 0.026306018 -0.043366577 -0.03995264
0000a0 f6 15 39 bd a1 c4 c8 bb ed bb f1 bc 32 d5 1b bd
       -0.04518696 -0.0061269556 -0.029508555 -0.038045116
0000b0 57 6c 8b 3c 19 99 a3 3a 6a 62 18 3a 9c e2 c1 bc
       0.017019434 0.001248154 0.00058130047 -0.023667626
0000c0 e9 d1 ee bc c4 92 d5 bc 05 f1 c4 3c e9 ef 58 3d
       -0.029152827 -0.02607096 0.024040708 0.05296317
0000d0 85 2d 4d 3c bc a2 74 3b 2d ab fe ba e3 ad 04 bb
       0.01252306 0.0037328443 -0.0019429676 -0.0020245246
0000e0 40 4e d7 bb 2e 5b 1c bd e9 12 32 bd f7 ec 5e 3c
       -0.0065706074 -0.038172893 -0.043475065 0.0136063015
0000f0 0f 23 fc 3c 42 1c 2b bd 60 5c c1 3c 1f 40 c9 3c
       0.030778436 -0.041774996 0.023603618 0.024566708

weight f4 [10, 64]
000000 c3 cc 5e 3c 66 5e 1e 3e 8a 72 bd bd 23 5f b7 bc
       0.013598624 0.15465698 -0.09250362 -0.022384232
000010 0b 0b 1b be be 7f 11 be 38 48 8a 3d 25 bf 20 3e
       -0.15140931 -0.14208886 0.06752056 0.15697916
000020 de 78 17 3e f5 c6 0c 3d c5 a9 2c be 7f bf fb 3d
       0.14792201 0.034369428 -0.16861637 0.12292384
000030 0f a8 09 bd cc 8a 8b 3c a1 d5 49 be a5 ca 1a 3e
       -0.03360754 0.017033957 -0.19710399 0.15116365
000040 90 8f 12 3e 99 df 49 be 6e 86 11 3e 0a 79 e6 bd
       0.14312577 -0.19714202 0.14211437 -0.11253555
000050 a3 2c 41 bc 52 df 15 be 13 25 17 bb 54 ff 0f 3e
       -0.011790427 -0.14635971 -0.002306287 0.14062244
000060 bd 8d 04 be a7 91 6e bd e7 4a fe bd 13 33 c5 bd
       -0.12944694 -0.058244374 -0.1241663 -0.09628882
000070 c6 fc 0a be d7 fd 9a bc 47 19 3e bd b5 cb 81 3c
       -0.13572988 -0.018919868 -0.046410825 0.015844205
000080 9d 36 4f 3e 75 65 17 be 76 e7 9a bd 4a 29 85 3c
       0.20235677 -0.14784797 -0.07563679 0.01625504
000090 02 0f de bd 98 14 9a bd e1 f5 32 3e cf 9e 00 be
       -0.10842706 -0.07523459 0.17476608 -0.1256058
0000a0 e7 0d 36 3e 8c 17 96 bd f3 a7 9d 3d b8 63 fa 3d
       0.17778741 -0.0732871 0.076980494 0.12226051
0000b0 92 07 a5 3c df 06 1e be 03 8b 9f 3d 08 ae ad bd
       0.020145211 -0.15432309 0.07790186 -0.084804595
0000c0 19 02 3c 3e df a9 c5 b7 f0 cb 27 be 77 40 78 bd
       0.18360175 -2.3563332e-05 -0.1638639 -0.060608353
0000d0 69 84 9f 3d 0a 74 ee bc 35 64 bd 3d 6c a6 2b 3d
       0.07788927 -0.029108066 0.092476286 0.04190676
0000e0 02 2a e9 3c b9 de 55 3e 98 72 c9 3d b4 ae 4f be
       0.028462414 0.20885743 0.0983631 -0.20281488
0000f0 1d 4c d4 bd 7b ca fc bc 66 de c7 bd c1 95 5d 3d
       -0.1036608 -0.030858269 -0.09759216 0.054097895
000100 d0 27 f1 3d 8c ec 42 bd e1 f8 dd 3d fc ba 27 be
       0.11775172 -0.04758887 0.108384855 -0.16379923
000110 ef b6 4d bb b4 61 25 3d 34 af 1b bd 09 1b 37 be
       -0.0031389554 0.04037638 -0.038008884 -0.17881407
000120 86 34 19 be 1e da 8c bc f4 93 41 be d5 01 c5 bd
       -0.14961442 -0.01719385 -0.18904096 -0.0961949
000130 05 44 47 bd a1 aa 05 be 6a 48 46 3e 05 51 4d bd
       -0.048648853 -0.13053371 0.19363561 -0.050126094
000140 77 b4 91 bd 3e 6f 56 3e b8 b7 61 3d b8 a6 0e be
       -0.07114499 0.20940873 0.05510685 -0.13930786
000150 62 3d e5 bd 50 fc f0 bd 7e 7c bc bc 8b 8f 12 3e
       -0.111933485 -0.11766875 -0.023008581 0.1431257
000160 5d f6 97 3e d0 18 3d 3e 64 fd 0e 3e dd 43 21 3d
       0.29680148 0.18466496 0.13963848 0.03937136
000170 0d 89 6a be 20 d6 04 be 53 0b 98 bd 8d 45 0f 3e
       -0.22903843 -0.12972307 -0.07424035 0.13991375
000180 7b 8f 2e 3e bd ef 6e 3d 9f 43 80 bd 08 ae 24 be
       0.17046921 0.0583341 -0.06262898 -0.16082013
000190 89 8b af bd eb 8e c7 3d 23 89 03 be 6b 94 d6 bd
       -0.08571536 0.09744056 -0.12845282 -0.10477527
0001a0 b0 7d c3 3d 01 fe d5 bc 70 4a 13 3d e2 ff 26 3d
       0.09545457 -0.026122095 0.03595966 0.040771373
0001b0 77 40 39 be d1 b4 38 be c7 3d 82 bd 93 d7 5b 3e
       -0.18090998 -0.18037726 -0.06359439 0.21468954
0001c0 86 1c a0 bc 0a dc 06 3e f8 a4 0c be 8c 9f 2a be
       -0.019544851 0.13169876 -0.13734806 -0.16662425
0001d0 cf 75 86 be 3c 4b 1f 3e a2 cf c3 bd b8 5b 8f bd
       -0.26261756 0.15556043 -0.09561087 -0.06999916
0001e0 60 63 79 3e c8 10 de 3d 90 40 95 3c ad e9 76 3e
       0.24354315 0.108430445 0.018219262 0.24112578
0001f0 55 aa 88 be 1f 92 d1 bd f8 8b 5c be 23 21 2e be
       -0.26692453 -0.102329485 -0.21537769 -0.17004828
000200 a1 42 61 be da f6 b3 3a db 05 56 be da a0 01 3e
       -0.21998073 0.0013730184 -0.20900671 0.12659016
000210 e4 a1 57 bd 87 56 a5 bd 48 bd 3b 3d c2 76 19 bd
       -0.052644625 -0.080731444 0.04583481 -0.037466772
000220 69 ae 4a 3b 49 d5 b7 bd 0d 02 ef 3d 39 4d 35 be
       0.003092671 -0.08976228 0.11670313 -0.1770524
000230 96 30 7d 3c 81 d6 6b bc ea 65 3f be c2 47 1a 3e
       0.015453478 -0.014394403 -0.18691221 0.15066436
000240 ec 47 4d bd 8b c0 e0 bd 61 bb cc bd 01 7d 7d 3d
       -0.05011742 -0.10974225 -0.09996677 0.06188679
000250 4a a1 80 3c 18 c0 87 3d 24 49 e1 bd 9d f3 34 be
       0.015701909 0.06628436 -0.110002786 -0.17671056
000260 2f c5 ea 3b 38 19 47 3d b6 1f bf bd 26 84 9a 3d
       0.0071646194 0.048608035 -0.0933222 0.075447366
000270 51 41 05 be 3e 40 0e 3e 06 f4 1f bd cd 9e fc 3d
       -0.13013197 0.13891694 -0.03905108 0.12334976
000280 a8 6a 28 3e 79 36 94 3d a0 2c 07 be 3f e4 72 bc
       0.16446936 0.07236952 -0.13200617 -0.014824926
000290 60 19 2b 3e 58 8c 4a 3d 65 35 e0 3d 40 5f 47 be
       0.16708899 0.04945025 0.10947684 -0.19469929
0002a0 26 c9 93 3d d8 28 4d 3d d2 fd 27 3d 6d 24 14 3d
       0.072161004 0.05008778 0.041013546 0.03616755
0002b0 85 1a e2 3d 3d f6 23 3e 88 3e 85 3e 4a 52 ed ba
       0.110402144 0.16011901 0.2602427 -0.0018106189
0002c0 6a e0 67 3d db 1a 2c 3e a4 f5 2e 3e e1 a7 d2 3d
       0.056610502 0.1680712 0.17085892 0.102859266
0002d0 71 fb 8e bd 6f 08 f9 3d 35 df f0 3d f1 38 d1 3d
       -0.069815524 0.12159812 0.11761323 0.10215939
0002e0 54 cb 0a 3d 35 ef d4 bd 13 0e e9 bc a6 ee 19 be
       0.033885315 -0.103971876 -0.028449094 -0.15032443
0002f0 bf df 54 3e 6d 19 0e 3d 76 1e 60 3d 9a 78 13 bd
       0.20788477 0.034692217 0.05471655 -0.036003686
000300 d4 fb cf bd 0f 25 c5 3d ff b7 36 be 47 44 e0 bd
       -0.10155454 0.09626209 -0.17843626 -0.10950523
000310 94 48 7b bd 33 46 cc 3d 08 20 26 3b 67 40 7b bc
       -0.061348513 0.09974327 0.0025348682 -0.015335179
000320 db 78 d2 bd a7 13 da 3d b7 14 eb 3d 55 5f ca bb
       -0.102769576 0.1064828 0.114785604 -0.0061759152
000330 6d 7c da 3d 83 b7 04 be ae 08 1a 3e 1b ca 8c bd
       0.106682636 -0.12960629 0.15042374 -0.06874486
000340 ff 13 d2 3d c6 b0 00 3e 89 52 80 bd b8 df 4f bb
       0.1025772 0.12567434 -0.06265742 -0.003171904
000350 08 11 dc 3c c8 6a a5 3d 9f a1 0f 3e e7 54 9b bb
       0.02686359 0.080770075 0.14026497 -0.0047403458
000360 7c 29 81 bd d4 cd 3a bd f4 0c d1 bd 89 32 0e be
       -0.06306741 -0.04560645 -0.10207549 -0.13886465
000370 9b 7c 75 3d 65 5c 66 3d 5a 8c 27 3e 1f 02 cc bc
       0.059933286 0.056240458 0.16362134 -0.024903355
000380 11 14 95 bd c7 5e e1 3c 4e 8d 9a 3d 7d 34 71 bd
       -0.07279218 0.027511014 0.07546483 -0.058887947
000390 a8 ed f3 3d 76 05 0d 3d ec f9 9a 3d 45 dc 49 3d
       0.11910564 0.034429036 0.075672 0.04928233
0003a0 44 a8 e0 3d 99 c6 1c 3e 53 8b 27 be 7c f1 ff bc
       0.10969594 0.15310134 -0.16361742 -0.031243078
0003b0 31 51 02 3d 94 09 85 3d 8d 35 0f 3e 83 94 0c be
       0.03181571 0.064959675 0.13985272 -0.13728528
0003c0 ca 9f 22 bd 22 63 62 bd 83 c2 cb bd b1 de 36 3d
       -0.039703168 -0.05527032 -0.099492095 0.04464597
0003d0 0b 71 b8 3d 18 3e 05 3e 02 87 9e 3d 0f 78 2e bd
       0.09005936 0.13011968 0.077405944 -0.042594966
0003e0 cc 41 bd bd 2d e2 15 be 5d 00 a6 3d 41 6a 1b bd
       -0.092410654 -0.1463706 0.08105538 -0.03794313
0003f0 06 ef 8a 3d 84 98 03 be 73 36 57 3d 03 97 29 bd
       0.06783871 -0.12851149 0.05254216 -0.04140378

bias f4 [10]
000000 e9 18 98 bd c2 e2 0a 3e 1a 14 4b bc 51 8d 92 3d
       -0.07426626 0.13563064 -0.012394929 0.0715586
000010 88 40 7c 3d 2a 51 aa bd e9 cc 90 3d 93 31 89 bc
       0.06158498 -0.08316262 0.070703335 -0.016747272
000020 51 07 e3 3b da 47 b4 3c
       0.0069283624 0.022006918
