try_train/cifar10_models/cifar10_net_28.pth (torch, 589402 bytes, 10 tensors)

weight f4 [32, 3, 5, 5]
00000000: 4d65 98bd c541 bd3d b524 173e 14c6 2fbc
00000010: 763e 123e c25d e2bd 7f12 a7bd d053 b5bc
00000020: 60d0 4f3e a000 be3d 304e 92bd be39 b03c
00000030: da62 3abe cdec 30bc 30b0 c7bd 319d 793d
00000040: c136 413c da7b 8cbe 69fb 47be 906a f3bd
00000050: 2537 3f3e ff5f 36bd bb2e 89be f60e c5bd
00000060: 26f3 09bd 795b 00be e8f4 85bd a4cf 47bd
00000070: 9dfa 57bd 3e6a b8bd 8f1b 933d aa70 f0bd
00000080: c9a9 04be b453 b73d 533a 1f3d 4e1b 653c
00000090: c753 873d 4589 2ebe 9276 3d3b 0e13 22bd
000000a0: 8ac7 a73e 9e16 333e e722 13be 37ca 77bd
000000b0: 6a5c c3bd bf43 523e 2fdf c13d 25af 3bbe
000000c0: 2f1a 1cbe dc1f 943d 841c 4cbc 5287 443d
000000d0: 5c8c 023e 2599 6ebb d78e 02be 3f13 9e3c
000000e0: 0c7a 123b ebca fabb 0baa fc3c cd84 9abc
000000f0: 9732 333e b252 503d a4c4 14be 8810 dcbd
00000100: e92e 51bd d1cf 9b3e b378 683e 5212 d6bd
00000110: 082f 52bd 7aed 433c e490 a43e 608b 323e
00000120: c52e 1bbe f320 fabd 8ad0 a5bd a0e0 02be
00000130: 0c2e 8ebd 0c93 47be 2d6b c9bb 4d75 35bd
00000140: b7eb bebb b851 6fbd c61a 75bc 0063 a3bd
00000150: 3c79 ed3c 15a7 5d3c c86d 6ebd 6f02 9ebc
00000160: d4f1 6cbd ecf4 6e3d dd22 05be 224d f6bd
00000170: 2ce3 31be b6a4 37be a411 28bd a35d 18bd
00000180: edb0 33be 7f61 37be 9b43 44be a4c0 c7bd
00000190: 4318 22bc ccc7 11ba 7a4a c6bd d2c8 b03c
000001a0: 3f83 28be d0ba 27bd ad50 ef3c 932f 103e
000001b0: e71c 443e 877c 2f3d 93a6 c4bc c41e 743d
000001c0: b19a 763d 7c7d 473e a695 3d3d 8918 313c
000001d0: b813 6abd 603f ebbd 9b36 86bd 8b31 32bd
000001e0: 46ed 87bd 2486 33be 0c81 5bbe 9624 63be
000001f0: 9f31 ecbd 486e 6ebd b05f a33d 5615 04bd
00000200: b06e c7bd 0661 aebd 6ff8 013e 109a 473e
00000210: ae67 933e 10ff 2a3e 1ae6 303c c83a 583e
00000220: d7a6 a03e fafc c43e b613 813e 9d83 333e
00000230: e106 3a3e d3d1 743e 54ae 5d3e 953d 1d3e
00000240: bd19 4d3e f6b0 a83c 2af6 e9bc ed10 f33c
00000250: da43 e53d adf3 423d 7b22 873d 1094 09be
00000260: 5a66 433d 58d7 b8bd 46cd 76bd cde1 513e
00000270: cc6f 89be f1cf ad3d a4b6 66bb 9493 c8bd
00000280: 1940 ff3c c2a0 66be 361a b5bd da02 5dbd
00000290: 828e 9e3c 071a 1abe cecb 7ab9 e7d1 2e3e
000002a0: 868c 943c 95a8 bd3b b500 fdbd 4bf4 61bd
000002b0: 0db2 bdbc 02b2 ffbd 8578 2dbe 5463 3e3e
000002c0: 2775 bcbd 93ff e13d ef7a 273d e90e c13b
000002d0: d93b 513e 93df d3bd 3116 ae3d 5e96 ab3d
000002e0: ac99 923d 81a9 0d3e 72f3 2bbe ff25 4c3e
000002f0: cc52 4c3d 5cb1 2bbd 2778 70bd 3ec2 91bc
00000300: cb71 4c3e f91b 523e 8a11 223e e361 1d3c
00000310: ab1b ae3d 738c 6fbd a364 a43d 9e74 03b9
00000320: 2c91 6f3d 92dd 3abe 142e 233e 8906 ddbd
00000330: 54c8 04bc 2f44 393e ecc1 4abe 288b 6e3d
00000340: da09 b3bd 88a2 8c3d 67b7 933d 733b 3ebe
00000350: 996c 0bbc 9c4b b8bd bfce 333d 3d78 9d3c
00000360: a69d dbbd 40ef 713e 424b 163e 0a40 bcbd
00000370: 3207 adbd a764 e23d 2308 d6bd 378a 23be
00000380: a49b 23be f410 34bd 1153 cd3d 0ba2 1a3e
00000390: dd4c b23c 73b4 073e 1fa5 10bd 6654 bf3d
000003a0: 9631 04bc efdd 743d 1707 d4bd 7b1d f73d
000003b0: 819f 453d 6e5b 1f3e cef7 263e 9e25 74bc
000003c0: f5b1 b4bd 26a9 27be 2f1e f2bc ac3c c73c
000003d0: 4a10 143e ced9 d6bd 450a 32be 66ae 8abe
000003e0: 3b48 cebd b2b1 08be 77fb e7bb 8602 7dbc
000003f0: bd7c afbc eddc af3d 2145 a63d cd97 13bd
-0.074411966 0.0924106 0.14760096 -0.010728378 0.1428164 -0.11053039 -0.08157825 -0.022134691
0.20294333 0.09277463 -0.07143819 0.021511909 -0.18201771 -0.010798645 -0.09750402 0.060940925
0.0117928395 -0.2743824 -0.19529499 -0.118855596 0.1867338 -0.044525143 -0.26793465 -0.09621994
-0.03367915 -0.12534894 -0.06540853 -0.048782006 -0.052729238 -0.09004639 0.07182991 -0.11740239
-0.12955393 0.08951512 0.03887398 0.013983561 0.06607776 -0.17044552 0.0028909785 -0.039568953
0.32769424 0.17489097 -0.14368783 -0.06049558 -0.09539111 0.20533656 0.09466397 -0.18328531
-0.15244363 0.07232639 -0.0124579705 0.047980614 0.12748855 -0.00364072 -0.12749802 0.019296287
0.0022350578 -0.0076535842 0.030842802 -0.018862152 0.17499767 0.050860114 -0.14528137 -0.107453406
-0.051070128 0.3043199 0.22702293 -0.10452713 -0.051314384 0.011958474 0.32141793 0.1743598
-0.1515456 -0.12213316 -0.08096416 -0.12781 -0.069423765 -0.19489688 -0.0061468096 -0.04430132
-0.0058264392 -0.058427542 -0.014959997 -0.07977867 0.028988473 0.013528605 -0.058210164 -0.01928827
-0.057847813 0.058339044 -0.1300158 -0.12026431 -0.17371815 -0.17933926 -0.04103245 -0.037198674
-0.1754796 -0.17908286 -0.19166414 -0.0975354 -0.00989348 -0.0005561083 -0.09682174 0.021580134
-0.16456316 -0.040949643 0.029213274 0.14080648 0.1915165 0.042843368 -0.02400521 0.059599653
0.06020612 0.19481462 0.046285294 0.010809072 -0.05714771 -0.11486697 -0.06553384 -0.04350428
-0.06637053 -0.1753164 -0.21435946 -0.22181925 -0.11532902 -0.05821064 0.07977235 -0.03224691
-0.09737909 -0.085145995 0.12692426 0.19492364 0.2879004 0.16698861 0.010797048 0.21116173
0.3137729 0.38474256 0.2521035 0.17530675 0.18166687 0.23908167 0.21648532 0.15355523
0.2002935 0.020592194 -0.028559763 0.029671157 0.11194582 0.04759567 0.065983735 -0.13435388
0.047705032 -0.090254486 -0.060254358 0.20496292 -0.26843107 0.08486927 -0.0035204077 -0.09793773
0.031158494 -0.22522262 -0.0884289 -0.053957798 0.019355062 -0.15048991 -0.00023917781 0.17072259
0.018133413 0.005787919 -0.123536505 -0.055164617 -0.02315619 -0.12485124 -0.16940506 0.18592578
-0.092020325 0.11035075 0.040888723 0.00589167 0.20432986 -0.10345378 0.085003264 0.0837829
0.07158217 0.13834192 -0.16792086 0.1993637 0.04988365 -0.04191719 -0.058708336 -0.017792817
0.19965284 0.20518483 0.15827003 0.009605858 0.08501371 -0.058483552 0.080270074 -0.00012536577
0.058488056 -0.18248585 0.15935546 -0.10792262 -0.008104403 0.18092416 -0.19800538 0.05823818
-0.087421134 0.06866938 0.072127156 -0.18577366 -0.008509778 -0.08998796 0.04389834 0.019222373
-0.107234284 0.23626423 0.14677146 -0.09191902 -0.08448638 0.11054354 -0.10450771 -0.15970694
-0.15977341 -0.04396148 0.10025609 0.15100877 0.021765167 0.1325243 -0.03531372 0.093422696
-0.008068463 0.059781965 -0.10352915 0.1206617 0.048247818 0.15562221 0.16305467 -0.014901547
-0.08823005 -0.16373119 -0.029555408 0.024320923 0.14459339 -0.10490762 -0.1738673 -0.2708618
-0.100723706 -0.13349035 -0.0070795375 -0.015442496 -0.021421785 0.0858706 0.08118654 -0.03603344

bias f4 [32]
00000000: 28d6 263e 08fa b9be 3db5 e9bc 17aa 0d3e
00000010: e0df 37bc 5e00 d1bd 13ff 833c b98b b2bd
00000020: 392b d13d dfc0 71be a200 4fbe 8f4e 94bd
00000030: 1ea4 063e be0e 1f3c 98c4 71be 98ad 933e
00000040: 62d4 61bc fcd5 cf3d c434 70be 72fa 8fbd
00000050: a147 f3bd 6255 0e3d 3828 8abe d0c1 6fbe
00000060: 4c48 553d bd30 d4be ecfd bdbc 8339 d7bd
00000070: c376 cf3e 35fc 8a3b dd8a 1fbe 9e20 0ebe
0.16292632 -0.3632357 -0.028528804 0.13834415 -0.01122281 -0.10205148 0.01611284 -0.08718056
0.10213322 -0.2360873 -0.20215085 -0.07241546 0.13148543 0.009708105 -0.23610151 0.2884338
-0.013783546 0.10148236 -0.23457628 -0.070301905 -0.118788965 0.034749396 -0.2698381 -0.23413777
0.0520709 -0.41443434 -0.023192368 -0.10509016 0.40520296 0.004241491 -0.15580316 -0.1387963

weight f4 [32, 32, 5, 5]
00000000: 2421 733c 1bd6 383d f1fe 6abc 86f2 58bd
00000010: 7c95 5abc a9f4 87bc a5ac a63d a64e 483d
00000020: e343 9abb 7a4c 92bc b3b6 063c 04b1 aa3c
00000030: 50e3 303d 5d06 5f3d 33fa f4bc f1e2 1dbd
00000040: 1bc9 7fbc ada8 863c b783 a53d 9fd8 8b3d
00000050: 9689 0fbd e3bb ffbc d82b 8bbc efd9 b73d
00000060: 2303 c33d c519 413c 79d9 31bc 4fe6 083d
00000070: 4879 913c 035d 503c d78a 0f3d c120 ebbb
00000080: 7ac7 c2bc ace5 f43c a920 5c3d 32eb 903d
00000090: ca1d 0a3d ca22 9fbd a5d2 70bd 2693 8a3d
000000a0: b172 8b3d 9c07 753c 0938 1bbd 7637 b7bd
000000b0: 5b0a 4bbd 7255 c43d 4ca3 ba3c 6a6d 273d
000000c0: 07f0 303d 46f5 4bbc a2b1 013c 6c73 39bd
000000d0: 1614 33bd f946 7cbc 5376 7bbd dd91 30bd
000000e0: 5be6 55bd 5a62 b9bc 212f 6cbd 50ef 09bd
000000f0: 4255 4a3a d240 2fbd 9a60 9fbd f8b3 88b9
00000100: 7010 8d3c 0c65 023d e76d 1fbd 18bd 75bd
00000110: f93c c9bc 59db 8a3c 2009 72bc fc69 b43c
00000120: 6850 7f3b 9f00 ac3b 1131 fbbc 2724 0f3c
00000130: 0770 e23c a8e1 893d 7864 623c 39b8 35ba
00000140: 71d2 33bd 38e0 e7bc 82a9 a03b a2cd ac3d
00000150: ce12 343c a01b 79bc 0467 95bc f4b4 1bbd
00000160: ab42 77bc 51be c33d 1dd5 6c3c b285 16bd
00000170: 1873 b5bd e920 6abc 07fe 073d 4775 d4ba
00000180: a6ca 6d3c 734c c3bc 8581 8bbd e5a5 bb3c
00000190: cfc5 c73c 3f1a c53c 728e 49bd 0bda 2ebd
000001a0: 0fb7 37bd d2e9 73bc d24e 20bc 10b2 89bc
000001b0: 28a2 bbbc a2eb 103d 1af9 86bc 4235 7b3c
000001c0: 291e c6bc 42b5 50bc f3a0 b43c cd51 cdbb
000001d0: 749f b03a e2ab e1bc ae02 833c b431 803d
000001e0: 3d56 3fbd 6017 f6bb c362 303d dbb3 bc3c
000001f0: 5c2a a33c 7ce5 94bb 6d4b aebc a5ba 5abc
00000200: 7e0c 6cbc 6a39 933c 3c26 d73c 9029 0fbd
00000210: 2db8 593a 281d a2bc 452a e4bc 7547 8abc
00000220: 4d41 ca3a 40cb 52bd cf28 67bc 8d30 4abc
00000230: 3c05 04bd 1fca b5bd 6e1b d0bd 1be6 b3ba
00000240: aa98 073d b5cf 13bd 116d 5dbb 7e4b 81bc
00000250: 5c3f 0fbd b2e0 9b3c c39b 0abd a02d bfbc
00000260: ed0c 11bd d6dd 71bd a815 6abd cf70 33bd
00000270: 6394 92bd 875a 5bbd 11e1 8ebc c623 3ebd
00000280: 38b4 02bc 7e6e 6cbd 8515 1fbd 02d3 b13c
00000290: aff0 41bd dfa0 77bd 2634 55bd 5dbe 86bd
000002a0: 4960 913c 707b cebb 6da0 cfbc 22a6 6abd
000002b0: 98f2 1dbd ad4a 99bc 202c d53b b088 1abc
000002c0: a292 aebb 599f 6ebd 276a b63b 3804 793d
000002d0: cae2 be3c 8a1c 013c 0708 13bd 2721 fc3c
000002e0: 427e 8e3d 66bc 0d3d 1b40 673d 988a a63b
000002f0: df9b 65bd bded 3e3c 941a 2d3d e79c b03d
00000300: 5759 953d a8e2 2abd a8a4 a6bc ded5 dcbc
00000310: f416 62bb 6fe1 3f3d 82de 8cbc 7772 523b
00000320: 96d4 8b3c bee3 cb3c 4550 983c 09d8 eb3c
00000330: 3989 443c 1dd9 32bd 47c3 33bc c234 1d3d
00000340: a2ef 093c c30a 743c 2f5c 0fbd 6b51 7abc
00000350: 0855 273d f4b5 353d 9fc4 01bd eb63 16bd
00000360: 5cb0 d93b 563c 413d b00b ba3d e6a6 c53c
00000370: 1a41 b2bc 421b 1cbd e006 b53b 89ad a23d
00000380: a0ea 023d 8693 d73c 6639 1d3c bffa 8db9
00000390: 98dd 803c 9e60 f83a 4526 103b 56aa cbbb
000003a0: 9fdf 2d3c 3f43 363d 2608 3f3d 8a33 433d
000003b0: 905a 9f3c b310 22bd 5363 0f3d 5a32 4b3d
000003c0: fddd acbc 0aec dfbb 537b 5cbd 8dd4 b2bb
000003d0: 1711 cc3b 95ab ef3c e5ee d43c 541d 09bd
000003e0: de03 75bd 95b4 00bc 4848 103c 434d 1dbc
000003f0: 04d1 dd3c 6958 6a3d 2fa1 213d 8e87 27bc
0.014839444 0.045126062 -0.014343009 -0.052965663 -0.013341304 -0.016596155 0.08138398 0.04890313
-0.0047077998 -0.017858732 0.00822227 0.02083636 0.043185532 0.054449428 -0.02990446 -0.038546506
-0.015611912 0.016437853 0.08081763 0.068284266 -0.03504332 -0.031217521 -0.01698868 0.089771144
0.09522083 0.011785929 -0.010855072 0.033422764 0.017758027 0.012717488 0.035044517 -0.0071755354
-0.023776758 0.029894672 0.053742085 0.0707611 0.033719815 -0.07770307 -0.058794636 0.067663476
0.06808985 0.0149554275 -0.037895236 -0.08946125 -0.049570423 0.0958661 0.022782944 0.04087583
0.043197658 -0.012448614 0.007915886 -0.04527609 -0.043720327 -0.015397781 -0.06139214 -0.043107856
-0.052221637 -0.022629905 -0.057662133 -0.03367549 0.0007718393 -0.042786427 -0.07782097 -0.0002607403
0.017219752 0.031834647 -0.03892317 -0.059994787 -0.024565207 0.016950296 -0.014772683 0.022023194
0.0038957838 0.0052490975 -0.030663045 0.008736647 0.02764131 0.06732494 0.013817899 -0.00069320534
-0.043901864 -0.028305158 0.0049030194 0.08437659 0.0109908115 -0.01520434 -0.018237598 -0.038014367
-0.0150915785 0.09557784 0.014455107 -0.036748596 -0.08859843 -0.014290073 0.033201244 -0.0016209268
0.014513647 -0.023840165 -0.06811813 0.022906253 0.024386315 0.024060367 -0.049208112 -0.04268841
-0.044852313 -0.01488729 -0.009784417 -0.01680854 -0.02290447 0.035380967 -0.016476203 0.015332522
-0.024184303 -0.012738528 0.022049403 -0.006265855 0.0013475255 -0.02754778 0.015992489 0.0625948
-0.046713103 -0.0075101107 0.043062937 0.02303498 0.01991766 -0.004543958 -0.0212762 -0.013350164
-0.014407275 0.017971713 0.026263349 -0.034951746 0.00083053374 -0.019789293 -0.027852187 -0.016879776
0.0015430838 -0.051463366 -0.014108851 -0.012340677 -0.032231554 -0.08876442 -0.10161482 -0.0013725193
0.033104576 -0.036086757 -0.0033786932 -0.015783068 -0.034972534 0.019028042 -0.033839952 -0.023337185
-0.035412718 -0.05904945 -0.05714956 -0.043808755 -0.07157209 -0.05355313 -0.017441304 -0.046420835
-0.007977538 -0.05772256 -0.038838882 0.021707062 -0.047348674 -0.060456153 -0.052051686 -0.06579278
0.017746108 -0.006301336 -0.025345052 -0.057287343 -0.038561434 -0.018712366 0.0065055043 -0.009432003
-0.0053275386 -0.058257435 0.0055668536 0.06079504 0.0233015 0.007880339 -0.035896327 0.030777527
0.069576755 0.0346035 0.05645762 0.0050824396 -0.056056853 0.011653361 0.042261675 0.08623677
0.07292431 -0.041720062 -0.020342186 -0.026957449 -0.0034498544 0.04684585 -0.017195944 0.0032111683
0.017069142 0.02488887 0.018592963 0.028789537 0.011995607 -0.043664087 -0.010971851 0.038380392
0.008418949 0.014895144 -0.035000023 -0.015278201 0.040852576 0.044362977 -0.031681653 -0.036716383
0.006643338 0.04717668 0.090842605 0.024127435 -0.021759558 -0.038111933 0.005524501 0.079432555
0.031962037 0.026315462 0.009596204 -0.00027080436 0.015730664 0.0018949693 0.0021995467 -0.006215374
0.010612397 0.044497725 0.04663863 0.047656573 0.019452363 -0.039566707 0.035006832 0.049608566
-0.021101946 -0.006833558 -0.05382855 -0.005457467 0.006227623 0.029256621 0.02599282 -0.033475235
-0.05981814 -0.007855554 0.008806296 -0.00960094 0.027077205 0.05721322 0.039460357 -0.01022519

bias f4 [32]
00000000: fee2 21be afd6 20be 965e 09be 0d4e 31bd
00000010: 77b0 2b3d 2b3a 76be 1aa5 86be 6a60 09bd
00000020: 9b69 46bd ded2 07bd 951e 37bb d5bc 29bd
00000030: d7a6 4fbd 5538 00be cdbc 24be d5f5 eebd
00000040: 45e3 cbbd 0df7 febd 0f5b 84bc dd60 013b
00000050: ad60 283d d254 b8bd f214 9ebd 82a3 36be
00000060: 6576 df3b 3e1d d9bc 3d90 8b3c c60f d4bd
00000070: c0a1 efbd a91d ae3d 74d9 18be 8a3c ca3c
-0.15809247 -0.15706895 -0.13414988 -0.043287326 0.041916337 -0.24045627 -0.26297837 -0.033539213
-0.048440557 -0.033160083 -0.0027941812 -0.04143985 -0.05069622 -0.12521489 -0.16087647 -0.116679825
-0.099554576 -0.12449465 -0.016156701 0.0019741573 0.041107822 -0.09000553 -0.07718839 -0.17835811
0.0068195336 -0.026503202 0.017036552 -0.10354571 -0.11700773 0.08501751 -0.14926702 0.02468707

weight f4 [64, 32, 5, 5]
00000000: a75c 87bc cad0 543c d533 48bd c1f9 24bd
00000010: dc94 59bc d740 113c 4f3b 2d3d 1fd4 19bd
00000020: 2f0b 87bd ecc8 ee3c dc7e abbd 471d d1bc
00000030: b200 88bd c100 e9bc ecc0 393c 92c1 39bd
00000040: f77c d4bc d608 2cbd fd72 f13c 836d 3d3d
00000050: 2ac4 71bd c081 2bbd 794f 3c3c b735 4dbc
00000060: 3199 803b 41c6 0c3c ad1c 48bd ebc9 42bc
00000070: 1335 bf3c f736 c53c 2acd a6bc 0bcb 1ebd
00000080: 40bb 46bd 9418 2c3d 7713 9a3c 44a4 f4bc
00000090: 8594 e6bc c01f 8cbc 6e1b 113c 7c47 753d
000000a0: f38e 00bd 3607 60bd 72f2 bcbc 6243 483c
000000b0: ec5a 1e3d 55af cf3c 5cab d63a b00c 433b
000000c0: 3efc 043c 4f7a 08bc c803 0ebd 2b86 91bb
000000d0: 3760 24bd 985a 043c d4b6 98bb 04f2 ef3c
000000e0: 3ec9 39bd 6588 743c b844 103d 1b4d 433b
000000f0: ed6f 70bd 7654 65bd 7764 f9ba 583b 963d
00000100: 6976 273d 8c54 a3ba e342 0fbd fefd c43b
00000110: ae9d 613d e9bc f93b 5899 50bd b342 883c
00000120: c401 853d b2df 283d 9460 73bc b939 0c3b
00000130: de76 de3c b85c 81bd 9707 9c3c de8d b43c
00000140: 8ddd 663d 42b5 6839 609a 32bd 23b8 1cbb
00000150: 0828 f7bc 36ab 2f3c 1432 9ebd 54b0 2ebd
00000160: d398 683c 05a2 223d 95f6 0fbd cbec 3dbc
00000170: 1986 a7bc f53c 8cbc d02d 66bc 8c0a a33c
00000180: 6d6b 5cbb 124d ab3c 3688 0a3d ee15 0cbd
00000190: b106 51bc 5200 9a3b 8c7b 4a3c bcfd ee3c
000001a0: de7a 3a3c 4126 32bb 753e dabb 3a42 3dbc
000001b0: 7d07 b83b cef6 bfbc 669d 8dbc 6c81 2a3d
000001c0: 515b afbb 4318 703d 2098 e13c 26ba 973b
000001d0: fac3 9fbc e58c f7ba 24da 87bb ac7e fcbb
000001e0: 914a bb3c b771 723d b519 e4bb 2923 e53c
000001f0: 88b4 d73b 23e7 09bd 1a7e 05bd c99a 5a3c
00000200: 77c2 533b b7fb e4bc 3612 6bbc 731d 283d
00000210: 9c3f 013d ef29 4b3d d765 c43c 53ee 51bc
00000220: 462a 0dbd 90df b83c c959 ca3d 8f87 6f3c
00000230: b851 4ebb 9a05 883c 81e8 663c 79ba 163c
00000240: c126 8d3c 663e 933c ba31 a5bb 85a2 f33c
00000250: e1dc 83bb a62e f73c cb9f 44bc 01de 913b
00000260: 834b 64bc e0fe 133d 00f4 be38 f8f9 193d
00000270: 800b d43b 5378 303c aa92 363c cea3 6c3d
00000280: eb38 1d3c 1986 b03c 2f80 a53c e319 e33c
00000290: f395 493d 1af1 803c 0bac b1bc 4f6a 39ba
000002a0: 9f02 4bbc 9e77 98bb 48c1 9d3c 8433 493c
000002b0: a5f9 243d 3196 c13c e5a1 593d c3b7 063b
000002c0: 06ad 9d3c f6e8 823c a5be 18bd 8f04 54bd
000002d0: 64d7 8cbd fdae 063d d552 4b3d 4694 82bb
000002e0: e8d8 04bc 7cfc a0bd 8892 3ebc afe0 32bd
000002f0: af8d e6bc 0807 b13b 7899 89bc baa1 07bc
00000300: 24d3 9f3d c460 4bbc 5461 13bc 2dde 1abd
00000310: 2c0a a23b 8300 e93c 28d0 c83c f10e 1f3d
00000320: f0b0 58bb 12b0 643d a25c 2e3c a978 88bc
00000330: 5548 02bd af1f bdbc dac6 473d f168 2ebd
00000340: a9ec ecbc 740c d83a 9399 733c fa2b 2e3d
00000350: 9818 85bd e092 febb 30d4 e0bc 7859 48bc
00000360: cf5c bf3d e77f 763d d9a2 043c bebf ff3b
00000370: 7190 29bc 92ab 283d f655 233b e1aa 7cbc
00000380: e6ed bb3c b0d6 6c3c df5c 1a3d b62f fd3b
00000390: 4b45 963c 5bd4 b93b 3cd2 59bb 8fc4 063d
000003a0: 8a39 bfbc 9624 a7bc 9fc3 3c3d 428d 473d
000003b0: 939b 8cbd b0aa 21bd 28ad 3ebd 0907 30bd
000003c0: 76a5 1bbd 3a41 4f3c 8e1b 063d 69a5 843d
000003d0: 2cda c5bc 462b cc3c 8847 b2bb 82d0 f43b
000003e0: 8cc2 78bd 56ec 97ba fda5 82bd b367 a8bc
000003f0: cca7 40bd a2b0 3a3d fb43 19bd cf76 72bc
-0.016523672 0.012989232 -0.048877556 -0.040277246 -0.01328012 0.008865557 0.04229289 -0.03755581
-0.0659393 0.029148541 -0.08373806 -0.025526656 -0.066407576 -0.028442742 0.0113375 -0.04535062
-0.025938494 -0.042000614 0.029473776 0.046247017 -0.059024967 -0.041871786 0.011493557 -0.012525014
0.003924512 0.008592189 -0.048855472 -0.011888961 0.023340737 0.02407406 -0.020361502 -0.038767856
-0.04851842 0.042015627 0.01880811 -0.029863484 -0.028146992 -0.017104983 0.008856637 0.059882626
-0.031386327 -0.054694377 -0.023064826 0.012223097 0.03866093 0.02535216 0.0016377973 0.00297622
0.00811678 -0.008329942 -0.034671575 -0.004441043 -0.04013082 0.00807824 -0.0046604667 0.029290207
-0.045357935 0.014925097 0.035221785 0.0029800597 -0.05870049 -0.05598875 -0.0019027133 0.07335538
0.04088441 -0.001246111 -0.034975898 0.0060117235 0.055082016 0.007621397 -0.05092749 0.016633367
0.064944774 0.041228957 -0.014854569 0.002139671 0.02715629 -0.06316513 0.019046588 0.022040304
0.05636363 0.00022192768 -0.043604255 -0.0023913465 -0.030170456 0.010721972 -0.077243954 -0.04264863
0.014196592 0.039705295 -0.03514727 -0.0115921 -0.020449685 -0.01711891 -0.0140490085 0.01990249
-0.0033633367 0.020910773 0.033821307 -0.0342006 -0.012757943 0.004699745 0.012358557 0.029173724
0.011381833 -0.0027183446 -0.0066602775 -0.011551434 0.005616127 -0.023433115 -0.017286967 0.041627333
-0.005351462 0.058616888 0.02753836 0.004630345 -0.019502629 -0.0018886594 -0.0041458774 -0.00770553
0.022862704 0.05919048 -0.0069610723 0.027970867 0.0065828003 -0.033667695 -0.032590963 0.013342568
0.0032311955 -0.027952058 -0.014347604 0.04104371 0.031554803 0.049600538 0.023974342 -0.012813169
-0.034464143 0.02256754 0.098804064 0.014619722 -0.0031481814 0.016604234 0.014093519 0.009199732
0.017230393 0.01797409 -0.0050413283 0.029740581 -0.0040241336 0.03017361 -0.012000988 0.0044515138
-0.013934019 0.03613174 9.1053545e-05 0.037591904 0.0064710975 0.010770875 0.011143366 0.057773404
0.00959609 0.021548318 0.020202724 0.027722305 0.04921527 0.015739966 -0.021688482 -0.0007073031
-0.012390762 -0.0046529314 0.019257203 0.012280349 0.040277142 0.023631187 0.05313291 0.0020556308
0.019247543 0.015980225 -0.037291188 -0.05176216 -0.0687702 0.032881726 0.04963954 -0.0039849607
-0.008108355 -0.078606576 -0.011631615 -0.043671306 -0.028143732 0.0054024495 -0.016796812 -0.008278305
0.07803944 -0.012413207 -0.008995373 -0.03780954 0.0049450602 0.028442627 0.02451332 0.03883261
-0.0033064447 0.055831976 0.010642203 -0.016659098 -0.031807262 -0.023086397 0.048773624 -0.04258055
-0.028921442 0.0016483204 0.014868158 0.042522408 -0.064988315 -0.0077689737 -0.027444929 -0.012228362
0.09343874 0.06018057 0.0080954665 0.00780484 -0.010349379 0.041179247 0.0024923063 -0.0154216
0.022940587 0.014455482 0.037686225 0.007726635 0.018343588 0.0056710667 -0.0033236882 0.032902297
-0.023342866 -0.020403188 0.046084996 0.0487187 -0.06865611 -0.03946942 -0.046551853 -0.04297546
-0.037999593 0.012649829 0.032741122 0.06476862 -0.024151884 0.024922978 -0.005440656 0.007471145
-0.06073241 -0.0011590819 -0.06379316 -0.02055726 -0.047035024 0.045578606 -0.037418347 -0.014798834

bias f4 [64]
00000000: 7b26 a8bd fc59 e9bd 0fa3 babd 18f5 c7bc
00000010: 37c1 27bd ebbc c8bd 56d9 30bd dc1a e6bc
00000020: feae 4ebd 7e0f 4fbd f242 e6bd b7ef 9abd
00000030: 7027 8dbd b0b2 8dbd 89f5 a6bd cdf4 35bd
00000040: 784d e0bd cb79 a0bd 2dd7 9abd 3d45 abbd
00000050: 304b acbd 081b 0abd 6911 bfbc 813c eabd
00000060: a6e3 86bd c41e 08bc 6f09 97bd 8df2 0cbd
00000070: d3fb 8ebd e6b4 91bd 145c bebc 4f5c 28bd
00000080: 0956 06bb bf38 1fbd 44a9 a2bd 0c68 78bd
00000090: c28b 21bd 940e a9bd 9e5e 97bd 322e e4bd
000000a0: f53a cebd e85e 9fbd b573 0d3d 779e 78bc
000000b0: d113 37bd 66ff 9cbc aee8 0cbd 85d0 babd
000000c0: a3e6 0cbd 35b3 eabc 6c60 d0bd e738 d0bd
000000d0: dde5 7fbd 2b44 06be 4209 dc3b c217 5f3c
000000e0: 4e55 ab3c 8cae debd cba0 723c 6b85 d1bd
000000f0: 6beb 99bd 9d31 28bd 6bbf 04bd 9118 5abc
-0.082104646 -0.11394116 -0.09113132 -0.024408862 -0.04095575 -0.09801658 -0.043176018 -0.02808898
-0.050459854 -0.050551884 -0.112432376 -0.07565253 -0.06892288 -0.069188476 -0.08152301 -0.044422913
-0.10952276 -0.0783573 -0.07560573 -0.083628155 -0.084127784 -0.033717185 -0.023323731 -0.114373215
-0.06586389 -0.008308116 -0.07374846 -0.034411002 -0.069816254 -0.07114582 -0.023237266 -0.041103657
-0.0020498058 -0.038872477 -0.07942441 -0.0606461 -0.039439924 -0.08254734 -0.07391094 -0.111416236
-0.10069839 -0.07781774 0.034534175 -0.0151745 -0.044696633 -0.019164752 -0.03440159 -0.09121803
-0.03439964 -0.028649906 -0.10174641 -0.10167103 -0.062475074 -0.13111942 0.006714971 0.013616504
0.0209147 -0.10873136 0.014808844 -0.102305256 -0.075156055 -0.04106294 -0.032409113 -0.013311521

weight f4 [64, 1024]
00000000: ac76 59bd 167f 243b 2d5a 8d3c a637 f53b
00000010: a921 7abb d212 f03c 2c26 a53c 7a03 6ebc
00000020: a1d6 27bc 6fd7 023c 683f 453d b180 68bc
00000030: eea4 31bd 6e70 67bd 2df9 b5bb e075 28bd
00000040: 3047 e2bc fe82 c23c ee26 e8bc cbc5 c9bb
00000050: ade2 9abb 74b1 29bc 5d82 febc 1d39 35bc
00000060: ab73 d5bc 0cfd cd3c 55f2 f5bc 6aa4 403d
00000070: 887a 713c 33ec f43b 6e1b fa3c 43af 8cbc
00000080: f916 473c ad48 873b 7453 0fbd 725e 8abc
00000090: 4e9a 1fbd 6328 273c 3305 e13c 73d0 103d
000000a0: af4a c4bc 1735 21bd a0a7 22bd 9cd0 90bc
000000b0: 50e4 9b3b 32f8 ff3c ca44 ac3c f3a3 37bc
000000c0: 198d 61bc 3496 0dbd ad79 abbc 9220 95bc
000000d0: b066 01bd b534 ccbc 839e c93c 4cd6 923b
000000e0: f6c4 13bd 0286 023d 6ce5 0b3d 036e 0b3d
000000f0: 8434 903c d7b1 253d 2035 bb3d d854 283d
00000100: d215 123c 3cf0 85bb 7942 b33c e8b6 043d
00000110: d709 cdbc a253 42bc 5522 a43c 589f 893d
00000120: 8671 a83b cb0d 743d b0f5 86bb cd0c 903c
00000130: 68b5 57bc 7442 a03c 5c06 f4bb 0b00 03ba
00000140: 54c4 9ebc 95bc 503d 59c4 673c 48e9 d0bc
00000150: f114 29bc 4793 e8bb 8e63 0d3d 13e9 b63b
00000160: fde0 253c 7a5e b73c fd14 aabc 8286 073c
00000170: c1d5 3b3d 0b0a 2e3d 6bdb 353d 3244 003d
00000180: cfd4 d4bb 821c 87bc b3ec 1dbb 7fbd 743c
00000190: 06f7 d3ba 3b83 7abc 9d91 c2bc dd09 babc
000001a0: fa5c 0f3d b62e 453d 668d b3ba 21bd 803d
000001b0: 8567 8bbc ce69 b53c ee3e 043d 4967 003d
000001c0: 3a4c 163b 2073 52bd 047a aabc a0c9 333d
000001d0: 973a ca3c bdad a5bc d0fd 4d3d 97b9 263d
000001e0: 61b8 8e3a 5d4f debc 6274 163d be2b 283d
000001f0: 5157 6b3d 28d8 c4bb cbb3 fb3b a313 7e3c
00000200: 481b cbbb 2640 b0bb d7bf 073d e9b7 42bc
00000210: dcb8 273d cfba 963c 5ae0 243d 07ca 113d
00000220: ec90 5b3d 4c52 953d f07a d43c 03a1 643d
00000230: b5c9 03bd 8b33 54b9 61db 2cbb 9d7b a5bc
00000240: 1d26 6e3c a324 17bc 8b0d a43c 1f38 09bc
00000250: bf32 533c ea46 0b3d 6366 953d d189 153d
00000260: 223a b63c 7dfe 983d 0656 de3c 9957 813b
00000270: 6f43 12bd 740e 82ba 62de a9bc 7c56 1dbd
00000280: 2ef7 ba3c 2541 46bc c83a 51bd 9f6d bc3b
00000290: b905 093d 5448 c7bc e201 f4bb d867 883d
000002a0: 1359 213d 62d5 babc 2d6a c83b 1f8e 6d3d
000002b0: 8238 583b 9d41 2abd fdd6 aa39 b768 d93c
000002c0: 96f5 4c3c dd61 fa3b 06fb cebc 4bf6 86bc
000002d0: a875 fcbc f7ff 153c 300c 01bd cfe4 9cbc
000002e0: a517 a9bb f832 433b 98d9 26bd 71ba 40bc
000002f0: ec11 703c 9bdf b73c f033 7d3d 7111 2b3d
00000300: a540 4b3b 8072 4abd 64ad 973b 0498 6ebc
00000310: b0c1 743c 08f5 62bd eccf c7bc a678 91bc
00000320: 9a62 8e3c 5752 99bc 3fc6 c83c 2b71 653c
00000330: 1d64 8f3d c9d7 ebbc 60c9 303c 156b fcbc
00000340: 868b 493c 04e5 b5bc d9ed 9cbc 8a16 6a3a
00000350: a1cd beb8 e086 b33c 9be0 ab3c 8139 323c
00000360: 6dc4 633b 82cc f83c 062b 9a3c 7cfb 753d
00000370: b755 52bd 7506 0fbd 44bb 3fbc 54b8 9bbc
00000380: 4ac6 c43c b537 313c 4431 643d 40f2 80ba
00000390: ad09 883c 2a3d a7bb e99b 95bc 22d7 343c
000003a0: f51f 5d3c 8b2c 77bd 30a1 a73c 3c31 87bd
000003b0: f38b ddba 48dd 01bd 53bd 603c dc5a 693c
000003c0: 63ca 4dbb aa15 433c 5e85 b9ba 532d c0bc
000003d0: 67de 773b 98ae 42bc ca4f a3bc 9197 7d3c
000003e0: a22b 903b 04b2 2abd e115 053d cbc0 2abc
000003f0: 27dd 3f3c 3e7c 363d a011 a8bb 747f 663c
-0.05309169 0.0025100163 0.017254913 0.0074834405 -0.0038167036 0.02930585 0.020159803 -0.014527196
-0.010244043 0.007985934 0.048156172 -0.014190839 -0.04337018 -0.056503706 -0.0055533857 -0.04112804
-0.027621835 0.023744103 -0.028338876 -0.006157612 -0.004726729 -0.0103572495 -0.031068021 -0.01106098
-0.026056131 0.025145076 -0.03002278 0.047031797 0.014738686 0.007474446 0.030530658 -0.017173415
0.012151473 0.0041285367 -0.034991696 -0.016890738 -0.038965516 0.0102025 0.0274683 0.035355043
-0.023961393 -0.03935727 -0.03971064 -0.017677598 0.0047574416 0.031246278 0.021028895 -0.011208522
-0.01376655 -0.034567073 -0.020932043 -0.018204007 -0.03159207 -0.024927476 0.024611717 0.0044811126
-0.03607651 0.03186608 0.03415434 0.034040462 0.017603166 0.040452804 0.09140992 0.04109654
0.008916335 -0.004087476 0.021882283 0.032400995 -0.025029106 -0.01186076 0.020035902 0.067198455
0.005140486 0.059583467 -0.0041186437 0.017584229 -0.013165809 0.019562937 -0.007447047 -0.000499726
-0.019380726 0.050961096 0.014145934 -0.025501862 -0.010319934 -0.007097635 0.03451877 0.005581984
0.010124442 0.022383917 -0.020761961 0.008271815 0.04585815 0.042490046 0.044398706 0.031315036
-0.0064950953 -0.016493086 -0.0024097383 0.0149377575 -0.0016171641 -0.015290077 -0.023751074 -0.022709781
0.03500078 0.04814025 -0.0013698756 0.062860735 -0.017017135 0.022145178 0.032286577 0.0313485
0.0022933618 -0.051379323 -0.020810135 0.043893456 0.024686141 -0.020224446 0.050290883 0.040704336
0.001088869 -0.027137453 0.036732085 0.04105734 0.05745632 -0.006007213 0.007681345 0.015507611
-0.0061983205 -0.005378741 0.033141937 -0.011884668 0.04094778 0.018399624 0.04025302 0.03559306
0.053605005 0.072910875 0.025937527 0.055817615 -0.032174785 -0.00020237097 -0.0026375877 -0.020200545
0.014535454 -0.0092250435 0.020025989 -0.008375197 0.012890517 0.034003176 0.07294919 0.036508385
0.022244517 0.07470415 0.027140629 0.00394721 -0.03570884 -0.000992252 -0.020735923 -0.038412556
0.022822943 -0.012100493 -0.05108145 0.0057503725 0.033452723 -0.02432648 -0.0074465135 0.066604316
0.03939159 -0.022806827 0.0061161728 0.057996865 0.0032992666 -0.04156648 0.00032585106 0.02653919
0.012509724 0.0076410607 -0.025266182 -0.016474864 -0.030817822 0.009155265 -0.031505764 -0.019152073
-0.0051602894 0.0029785018 -0.040734857 -0.011763201 0.01465271 0.02244549 0.06181711 0.04176468
0.0031013873 -0.049425602 0.004628824 -0.014562611 0.014938757 -0.05540946 -0.024391137 -0.017757725
0.017381001 -0.01871602 0.024508594 0.014004032 0.07001517 -0.028789418 0.010790199 -0.03081278
0.012301331 -0.02220393 -0.019156383 0.000892975 -9.0982074e-05 0.0219149 0.020981124 0.010877968
0.003475453 0.030370954 0.018819343 0.060054287 -0.051351275 -0.034918267 -0.011702362 -0.019008793
0.024020333 0.010816504 0.055711046 -0.0009837821 0.016606176 -0.005103727 -0.01826282 0.01103762
0.013496389 -0.060345214 0.020462602 -0.066011876 -0.001690267 -0.03170517 0.013717013 0.014242854
-0.003140115 0.011907021 -0.0014154126 -0.023459112 0.003782177 -0.011882447 -0.019935507 0.015478031
0.0043997327 -0.041673675 0.03249157 -0.010421942 0.011710442 0.04455208 -0.005129054 0.014068473

bias f4 [64]
00000000: 665c 96bc adb9 903b bcdf d5bc 5143 743c
00000010: af54 95bc 6a35 313d a195 71bc 9864 86bc
00000020: 20ae 333c 3940 07bc 30bc d2bc a577 3cbd
00000030: 5756 853c 5d56 553d ee3b 823b c7cd bbbb
00000040: 9e3d da3c 0375 153c 3907 babc 8170 113d
00000050: 5087 3dbd 580e 993c e6cb 973c 7b4a fdbc
00000060: e590 d13c 3ff9 0fbd efa6 5db8 a611 efbc
00000070: d435 993d b742 ea3c dcbb c9bc ad5d a13c
00000080: b9b6 48bd de05 2b3d bea7 8cba 6d2d 39bd
00000090: 6f21 cfbc 459d c83c 6cf8 3ebd 2a31 4cbd
000000a0: 64e7 51bd 064d b4bc 9ef1 0dbd 4da1 21bd
000000b0: f826 ac3c 30ac 1cbc 4712 09bc 0df4 1cbd
000000c0: da9d 00bd f895 ebbc 9e61 013d e565 853d
000000d0: ddf3 c53c 5211 d7ba 4aa6 2fbb 8de7 88bb
000000e0: be00 153b 8af6 2abd 8a2b 4abd 5a8d 803c
000000f0: 478a 0b3d 3577 33bd e5b5 db3c 0200 003d
-0.018354606 0.0044166655 -0.026107661 0.014908628 -0.018228857 0.04326383 -0.014745147 -0.016405389
0.010966808 -0.008255058 -0.0257245 -0.04601254 0.016276522 0.052084316 0.0039744293 -0.0057313177
0.02664071 0.009122136 -0.022708522 0.035507683 -0.046271622 0.018683597 0.018529844 -0.030919304
0.025581786 -0.03514981 -5.2845975e-05 -0.02918322 0.0748097 0.028596265 -0.024625711 0.019697988
-0.049002383 0.041753642 -0.0010731143 -0.045209337 -0.025284497 0.024489054 -0.046623632 -0.049851574
-0.051246062 -0.022009384 -0.034654252 -0.03946047 0.021014675 -0.009562537 -0.008366174 -0.038318682
-0.03140054 -0.028758034 0.031587236 0.065135755 0.024164135 -0.001640836 -0.0026801997 -0.0041779936
0.0022736038 -0.041739024 -0.04935793 0.015692402 0.03406742 -0.043814857 0.026820133 0.031250007

weight f4 [10, 64]
00000000: 8164 4d3d 5cec 543e 4976 f0bd 21cc 14bd
00000010: 28a2 33be f25b 68be d88b d43d 7c99 603e
00000020: 763d 563e c6d7 403d 7b8b 6dbe 8e27 583e
00000030: 51f7 a8bd 236f 303d 6a38 87be 08b5 5e3e
00000040: bccc 413e e1d8 82be c9bb 4b3e 7e30 4fbe
00000050: 17f5 083d 0429 4fbe a09a a0bc 1674 343e
00000060: af27 00be cd46 f4bc 5729 30be 2c52 f6bd
00000070: 8574 6abe de46 ebbc a286 53bd c7bd 263d
00000080: 967c 903e 5ec9 70be 1b33 b1bd f28c 363d
00000090: c7db 42be 26c1 cbbd 7380 923e 3098 68be
000000a0: cff4 783e 40ec a0bd feaf d83d d3cc 283e
000000b0: aaca ea3b a748 5ebe fb8b 793d 54fe a9bd
000000c0: 5b89 853e d96a 11bc 0b6b 72be 8580 f0bd
000000d0: 3f82 e63d 9d28 dcbc aecd 033e 122e d53c
000000e0: 882d 003d c300 923e f119 133e 6df5 88be
000000f0: 0e58 0ebe cf5a deb8 40b0 01be ddef 2b3d
00000100: 4190 1b3e 592e 76bd 7bc3 143e c1b6 64be
00000110: 8861 c0bc faf3 7a3d e4f7 bebd 8e7f 7dbe
00000120: 55e7 90be 4550 11bc 77bf 8abe 49a4 34be
00000130: 6f39 bfbd ef70 47be c382 8f3e f7dd aebd
00000140: 7ed6 a3bd ff57 863e 80d0 ad3d 854b 2abe
00000150: 0e28 1bbe 26ab 06be bdc5 4cbd a9d0 613e
00000160: e4de cf3e f994 843e ad08 493e 0643 933d
00000170: c357 8fbe 5879 4cbe c8ac c4bd c383 2e3e
00000180: f83c 813e b3d8 db3d 8e39 b3bd 1e9f 75be
00000190: 28e5 d7bd 59a6 0a3e 6e18 6fbe b530 d8bd
000001a0: da56 023e 6715 1ebd 1cb4 0c3d d46f 793d
000001b0: 1b88 85be 1538 6fbe 0995 bcbd c8a6 8c3e
000001c0: da68 31bd 3c55 303e 8c6d 4bbe f3b9 61be
000001d0: 973b b9be e5b0 6a3e 07a4 36be b78e e6bd
000001e0: f5a2 bc3e 0645 283e 0604 4c3b d8b6 a73e
000001f0: 2fb7 d0be 13c2 14be da8f 90be aa51 6fbe
00000200: 641d a2be 10e1 95ba 14c2 9fbe 032c 333e
00000210: 4573 d2bd ff2a bdbd deb3 ab3d 4af3 60bd
00000220: baca fc3b 9aca f8bd 592d 3d3e d24b 76be
00000230: d494 cc3c e69f aa3c 2c59 a3be c9ae 6d3e
00000240: 7dc5 82bd 487b 24be 1da8 27be c36d d33d
00000250: 08f8 463d dd8f b73d a542 44be 4c91 86be
00000260: 89a6 0bbd b969 593d 1b4f 1fbe a1de 053e
00000270: dc6d 22be 3e83 5b3e 9e81 48bd 9a16 553e
00000280: 1beb 743e 85c3 c23d ec89 34be 33f0 a1bc
00000290: fd16 713e fdd9 eb3d a189 233e acb1 9abe
000002a0: ea45 de3d d977 df3d 17c9 ef3c f004 1d3d
000002b0: 1419 013e 36dd 7d3e 59ee ba3e 937b b4bc
000002c0: 2430 d53d ab28 8b3e 952a 863e 446a 3b3e
000002d0: b70a f3bd b350 493e e8ab 0a3e 3d7c 223e
000002e0: 608e 343d ad55 0cbe a8f6 71bd 891d 55be
000002f0: 2bc1 8e3e b530 5e3d 1ae6 ea3d 1a2a 6cbd
00000300: c4f3 0ebe 4f82 3b3e bc13 55be f285 2cbe
00000310: b2e0 c9bd 8199 553e 90c0 70bc ffb6 cfbc
00000320: e95c 2cbe 9d62 3c3e e7fe 313e 80d6 c63c
00000330: 30c6 ec3d 09b7 65be f708 793e 09e1 d9bd
00000340: 1f0a f43d b564 3e3e 7179 37bd 26ae 00bc
00000350: c15c 9f3c 5264 ef3d bd8e 5b3e 594f 023c
00000360: 82c6 80bd 0011 17bd 610f 27be d3dd 4dbe
00000370: 09cf b53d 3c74 903d 55c3 7b3e e154 d9bd
00000380: 24cd a5bd a468 1e3d 1b7a fd3d 1ed2 c9bd
00000390: 6d2b 243e f2d6 b13c 3df9 c53d 962a a13d
000003a0: 8691 2b3e e581 683e 7fbf a5be 4686 24bd
000003b0: 0aa5 2f3d b0ac ba3d 1f9d 1a3e 0d3f 48be
000003c0: 91ef 7bbd ec43 bfbd a653 32be d1a5 ef3c
000003d0: 015a 073e c07f 4b3e 534e dc3d c3a2 84bd
000003e0: 16ce ebbd 6d07 14be 6540 0d3e 56a6 62bd
000003f0: a019 1d3d f1c1 04be bd04 b43d 6f46 72bd
0.050144676 0.20793289 -0.11741311 -0.036327485 -0.17542326 -0.22691324 0.103782356 0.2193355
0.20921883 0.047080778 -0.23197739 0.21108839 -0.08250297 0.04307474 -0.26410228 0.21748745
0.18925756 -0.2555609 0.19895853 -0.20233342 0.03343686 -0.2023049 -0.019604981 0.17622408
-0.12515138 -0.029818917 -0.1720327 -0.12027392 -0.22896011 -0.028720316 -0.051642068 0.04070833
0.28220052 -0.23514315 -0.08652326 0.04456801 -0.19029151 -0.099489495 0.28613624 -0.22714305
0.24312137 -0.07857561 0.10580443 0.16484384 0.0071652727 -0.21707402 0.06092451 -0.08300462
0.26081356 -0.008875572 -0.23673646 -0.11743263 0.11255311 -0.026874835 0.1287143 0.026022945
0.031293422 0.28516206 0.14365365 -0.26749745 -0.13900778 -0.00010602699 -0.1266489 0.0419768
0.15191747 -0.060102794 0.14527695 -0.2233534 -0.023484007 0.06126783 -0.09324625 -0.2475569
-0.28301492 -0.008869235 -0.270992 -0.17640795 -0.093371265 -0.19476674 0.2802945 -0.0853843
-0.079998955 0.2623901 0.08487034 -0.16630371 -0.15151998 -0.13151225 -0.049993265 0.22052254
0.4059974 0.25894907 0.19632216 0.07190518 -0.27996644 -0.19968164 -0.09603268 0.1704245
0.25241828 0.107346915 -0.08751212 -0.2398648 -0.10541755 0.13540019 -0.23349163 -0.10556165
0.12728444 -0.03859463 0.034351453 0.060897663 -0.26080403 -0.23361237 -0.09208114 0.27470994
-0.043312885 0.17220014 -0.19866008 -0.2204359 -0.36178276 0.22919042 -0.17836009 -0.112576894
0.36843076 0.1643258 0.0031130328 0.32756686 -0.40764758 -0.14527158 -0.2823475 -0.23370996
-0.31663048 -0.0011434872 -0.31202757 0.17497258 -0.10275892 -0.092367165 0.08383916 -0.05491952
0.0077145966 -0.12148018 0.1847433 -0.2405236 0.02497331 0.020828199 -0.3190397 0.23211206
-0.06385324 -0.16062653 -0.16372724 0.1032367 0.048576385 0.089629866 -0.19166048 -0.26282728
-0.034094367 0.05307934 -0.1555752 0.13073207 -0.1586222 0.21436784 -0.048951738 0.20809403
0.2391781 0.09509949 -0.17630738 -0.019767856 0.23543926 0.11516187 0.1597047 -0.30213678
0.10853179 0.10911531 0.029270692 0.038334787 0.12607223 0.24791417 0.3650997 -0.022031581
0.10409573 0.27179465 0.26204363 0.18302256 -0.11867278 0.1965969 0.1354214 0.15867706
0.044081092 -0.13704558 -0.05907312 -0.20812048 0.2788175 0.05424567 0.1146967 -0.05765734
-0.13960177 0.18311428 -0.2080831 -0.16847971 -0.0985731 0.20859338 -0.014694348 -0.025355814
-0.16832317 0.18396993 0.17382394 0.024272203 0.11561239 -0.22433104 0.24319826 -0.10638625
0.11915993 0.18593104 -0.04479355 -0.00785402 0.019453408 0.116890565 0.21441169 0.007953488
-0.06287862 -0.036881447 -0.1631446 -0.2010415 0.088773794 0.0705342 0.24586232 -0.106118925
-0.08095768 0.03867401 0.123768054 -0.0985453 0.1603219 0.02170894 0.09666679 0.07869451
0.16754732 0.22705801 -0.32372662 -0.040167116 0.042882003 0.09114969 0.15099 -0.19555302
-0.061507765 -0.09339127 -0.17414722 0.029253872 0.13217928 0.19872952 0.10757127 -0.06476357
-0.11513917 -0.14455958 0.13794096 -0.05533441 0.038354516 -0.12964608 0.08789966 -0.059149202

bias f4 [10]
00000000: 5208 8cbd 866b e23d b8f6 b2bc 5c4f a13d
00000010: 0fae be3d ff92 e5bd bd59 c33d 0605 c7bc
00000020: ba6e 08ba 1d4f e93c
-0.068375245 0.11055665 -0.02184616 0.07876465 0.09310543 -0.11209678 0.095386006 -0.024294388
-0.0005204488 0.028480107
