try_train/cifar10_models/cifar10_net_48.pth (torch, 589402 bytes, 10 tensors)

weight f4 [32, 3, 5, 5]
00000000: cfbe d6bd 45c3 9f3d 937f 3c3e 1bb3 b93c
00000010: b76a 103e 0ee1 08be 6f41 e6bd d20d 42bc
00000020: 682d 7d3e dffc a83d a3fd bcbd 855a 333c
00000030: 649f 74be 47e4 58bb 4241 bfbd ca02 c13d
00000040: 1e8b f93c 10d0 babe 3e7c 73be 81f8 08be
00000050: 9cdb 573e 6193 48bd 9aac b2be c77b 0cbe
00000060: 5f9c edbc d976 0abe d712 93bd 64ca dcbc
00000070: 06e2 25bd a205 c4bd f2b5 9d3d 4ac8 08be
00000080: 6954 02be ba9b ea3d 2c44 ee3c 9b9c fb3c
00000090: ee63 b13d 09f5 5dbe f38b ea3b f858 05bd
000000a0: 6c87 ca3e cd90 693e d415 5bbe 09e2 c4bd
000000b0: d6bc d4bd 924d 8a3e 8b1e 043e 3d43 76be
000000c0: b15b 30be f108 b43d 9629 65bc cb2c 593d
000000d0: 073b 183e 68dd 04bc abbb 22be 6343 e53c
000000e0: 2080 5f3b fd5e b53b 29ac 433d adce 3dbd
000000f0: ef04 463e d57b b73d 3ead 35be 109e d4bd
00000100: 9ea5 4abd 21fb c03e f171 9a3e 1b89 1dbe
00000110: 7db4 b2bd 0383 0fbc 62e1 c63e cbd4 633e
00000120: f3b1 4cbe 4da4 1abe f704 acbd f6b6 fabd
00000130: eb26 d5bd 0abc 59be 7756 2e3c 2209 9d39
00000140: 982f b6bc 890b aebd 268d 00bd fbe1 babd
00000150: cd9b b93c abed 95bc 67da a5bd f33b 37bd
00000160: 5201 8abd 3237 3c3d 9827 07be 4e4c 1bbe
00000170: 56b0 72be 6c76 60be f809 c4bc c461 633c
00000180: 21e1 45be 47fa 67be 1f25 68be 2595 8cbd
00000190: 4284 a4bc e73b f2bc 0b3a e5bd c945 623c
000001a0: fa4b 2bbe 2b4e 52bd 9e7f 0a3d a723 2a3e
000001b0: 5ca8 493e 8e36 873c f992 35bd 582c 933d
000001c0: 8bd2 b73d 12d6 613e c731 fb3c 1c28 693c
000001d0: 738d 6bbd 8f22 07be d537 8ebd b390 84bc
000001e0: 7375 13bd d70a 4dbe 5a9b 85be 00b1 81be
000001f0: b195 c9bd 8f14 b2bd 336f 393d b86a 5fbd
00000200: 40b8 ffbd 8072 f4bd edb5 ea3d 9702 623e
00000210: 8c36 ad3e 9aed 3d3e 5e53 d2bc 5785 513e
00000220: b9a1 c23e 9312 f13e c755 a23e 3648 1e3e
00000230: e8a4 473e b2ca 933e 85d3 813e 1c56 413e
00000240: c040 613e fb9c 4e3d 39a8 afbc 37fd 933c
00000250: 792f d83d bacd 543d e085 ca3d 7428 40be
00000260: 574c a23d 1350 dabd a178 7cbd 1cb1 803e
00000270: bd26 b5be 8190 ef3d 71f8 f7bc 10b1 bfbd
00000280: 567b 503d 0f55 adbe 45fc 92bd 748c b5bd
00000290: 0255 0d3c 8545 0dbe 4d1b 08bd cc9d 6a3e
000002a0: e3f7 ac3c 2628 dd3c f007 04be 40a9 57bd
000002b0: 7d71 9dbc 0840 22be a8aa 3ebe c86a 6b3e
000002c0: 0ca1 0abe 7a05 1e3e 33b7 113d 08b4 283c
000002d0: 8d5e 893e 9e56 2bbe 4b89 193e 8428 a23d
000002e0: 68f1 ad3d 4400 393e 0cc2 82be c1a2 7d3e
000002f0: a779 203d 6195 26bd caa2 fabc 7ece f7bc
00000300: 7874 933e b960 683e 3dc0 3b3e 6b51 e53b
00000310: 485e b53d 215d 3abd 3d1c 433d ddae bcbc
00000320: ae7c b43d 7c4d 66be 8df0 433e c1f1 f1bd
00000330: c293 09bc cc5a 633e 8176 85be 830f d53d
00000340: 1232 d5bd 5ba9 853d 9557 dc3d 2dc8 8bbe
00000350: 970b 983c 3ccf eebd d331 cc3c 1ffe 3c3d
00000360: 585d 00be dbc5 973e af24 183e 79c1 a4bd
00000370: 6d77 a3bd e1da e13d 2b42 d0bd 1267 44be
00000380: b97f 38be 7873 3abd f89d c73d 28f9 1e3e
00000390: b314 523d 821b 123e 43e2 0dbd 8f5b df3d
000003a0: a792 06bc 24b1 133d 3eb7 0fbe 30e0 0c3e
000003b0: a13c c83d 00ff 493e 96d9 343e 7e61 f8bc
000003c0: 8831 f3bd f4a6 4fbe bc1f 3ebd 3ab3 683d
000003d0: b782 3c3e ba89 eabd eb9d 55be 14fb a4be
000003e0: a2bd f1bd 066b fcbd 9047 e5bb 22ac 78bc
000003f0: 0b17 67bc edc5 de3d b15f b93d fc23 b6bc
-0.104856126 0.078009166 0.1840804 0.022668412 0.14103208 -0.13367102 -0.11242949 -0.011844115
0.24724352 0.08251356 -0.09228065 0.0109468745 -0.23888928 -0.0033095048 -0.09338619 0.0942436
0.030461844 -0.36486864 -0.23777863 -0.13376047 0.21079868 -0.048968676 -0.3489731 -0.13719092
-0.029005228 -0.135219 -0.07181328 -0.026951976 -0.040498756 -0.09571387 0.07700719 -0.13357654
-0.12727512 0.11455484 0.029085241 0.030714324 0.08661638 -0.21675505 0.0071577965 -0.03255555
0.39556444 0.22809143 -0.21395046 -0.09613425 -0.1038758 0.27012306 0.12902276 -0.24049087
-0.17222477 0.08790768 -0.013986966 0.053021234 0.14866267 -0.008109428 -0.15891902 0.027986234
0.0034103468 0.005535005 0.047771607 -0.04633968 0.1933782 0.08959166 -0.17741868 -0.103817105
-0.04947435 0.37691596 0.30165055 -0.15384333 -0.08725832 -0.008759263 0.38843828 0.22249143
-0.19989757 -0.15101738 -0.083993845 -0.12241928 -0.10407814 -0.21263137 0.010640732 0.00029952178
-0.022239491 -0.08498294 -0.03138461 -0.091251336 0.0226573 -0.018301805 -0.080982976 -0.044734906
-0.06738533 0.045951076 -0.13198698 -0.15165827 -0.2370008 -0.21920174 -0.023930535 0.01387829
-0.19324161 -0.22654067 -0.2267041 -0.068643846 -0.020082597 -0.02956958 -0.111927114 0.013810583
-0.16728202 -0.051344078 0.03381311 0.16615163 0.1969313 0.016505506 -0.044329617 0.07186192
0.08975705 0.22054318 0.030663384 0.014230754 -0.057507943 -0.13196777 -0.06944243 -0.01618228
-0.03600068 -0.20023666 -0.26095086 -0.25330353 -0.098430045 -0.086953275 0.045272063 -0.054545134
-0.12486315 -0.11935902 0.11460481 0.220713 0.33830678 0.18547669 -0.025674518 0.20461021
0.3801401 0.47084484 0.31706068 0.15457234 0.194965 0.28865582 0.2535669 0.18880504
0.21997356 0.050442677 -0.02144252 0.018065078 0.1055593 0.05195401 0.09888816 -0.18765432
0.07924717 -0.10659804 -0.06163848 0.25135124 -0.35381117 0.11697484 -0.030269833 -0.09359944
0.050898872 -0.33853957 -0.07177023 -0.0886468 0.0086262245 -0.13796051 -0.03322916 0.22911757
0.021114295 0.026996683 -0.12893653 -0.052651644 -0.019219154 -0.15844738 -0.18619788 0.22989953
-0.13537997 0.15431777 0.035575103 0.010296829 0.2682995 -0.1673226 0.1499378 0.07917884
0.0849331 0.18066508 -0.2553867 0.24769117 0.039178517 -0.040669803 -0.030595202 -0.03024983
0.28799796 0.22693147 0.18335052 0.006998231 0.08855873 -0.04549897 0.047634352 -0.0230326
0.08812843 -0.22490495 0.19134732 -0.11813689 -0.008397045 0.22202605 -0.26066974 0.10403349
-0.10409941 0.065264426 0.107588924 -0.2730116 0.018560214 -0.116606206 0.024926102 0.046140786
-0.12535608 0.2964314 0.14857744 -0.080447145 -0.07981763 0.11028076 -0.101688705 -0.19179943
-0.18017472 -0.045520276 0.09746927 0.15524733 0.05128927 0.14268306 -0.034639608 0.10906135
-0.008213676 0.036057606 -0.14034745 0.13757396 0.09777189 0.19726181 0.17661127 -0.030319925
-0.11874682 -0.20278531 -0.046416983 0.05681155 0.18409239 -0.114520505 -0.20861022 -0.32222807
-0.11803748 -0.123251006 -0.0069970563 -0.015177758 -0.014104615 0.10877595 0.09051455 -0.022233956

bias f4 [32]
00000000: b534 553e 6742 cbbe 41ee e9bc de60 033e
00000010: 52bf 49bd c5be e7bd e30c b43b 16a0 ddbd
00000020: 3d4a 0a3e 2487 8cbe 698a 63be 8378 80bd
00000030: 6c5b cd3d 7c3a a63c 7297 84be b14f 973e
00000040: fcfc 9fbd 6733 d03d c51c 85be 4a3c 88bd
00000050: 5d09 21be fabf 9e3c 9e4b 96be 7eb9 8abe
00000060: d59d 553d 211c eabe 6476 0ebd 312e 1fbe
00000070: f119 f63e 321b e93c 95f6 40be af24 27be
0.20820887 -0.39699098 -0.028555991 0.1282992 -0.049254723 -0.11315683 0.0054947003 -0.108215496
0.13504882 -0.27446854 -0.22220768 -0.06272986 0.10027203 0.02029156 -0.25896794 0.29552987
-0.07811925 0.10166054 -0.25998512 -0.06652124 -0.15726228 0.019378651 -0.29354566 -0.27094644
0.052152473 -0.45724586 -0.034780875 -0.15544964 0.48066667 0.02845535 -0.18844064 -0.16322587

weight f4 [32, 32, 5, 5]
00000000: a3e0 163d 8a2e 013d 3ae1 57bd ca96 a4bd
00000010: 71fd b9bc 9e36 5d3c b241 be3d e8b7 363d
00000020: 0892 26bd 4844 ce3a 27d2 6a3c 0246 823b
00000030: 3ec4 4c3d 1b0f 703d 7b1f 1fbd 30aa 64bd
00000040: 9508 8bbc 239b 343c 9aaf 9b3d de67 823d
00000050: 2163 49bd 5a4d 90bd 9fb0 5cbb c45f f13d
00000060: 8401 dc3d b1da 503d b661 6e3c 1c2e 313d
00000070: c02e 1c3d 96aa 9d3c cb41 343d cc73 a5bc
00000080: 5333 44bd 3cfa fc3c 6655 cd3d b580 cb3d
00000090: 0963 1b3d e187 a7bd ad86 88bd 8772 cf3d
000000a0: e032 b83d b5e4 073d 3533 2ebd 330b d8bd
000000b0: 6777 69bd fd5d fe3d 3d30 1d3d 0fbf 6e3d
000000c0: d0ed 0e3d 4952 bebb 4985 1ebc 8f23 6abd
000000d0: cf60 77bd ec66 36bc 8248 98bd 90ab 72bd
000000e0: b6fc 5abd 83ec 03bd d077 a6bd 043e 21bd
000000f0: 4f0d 64bb 5c07 4fbd 11ba a7bd 9641 15bc
00000100: a7a5 c93c fae7 323c 65b1 60bd e979 92bd
00000110: 1084 0bbd 46d4 473c cbf9 94bc f466 553d
00000120: e400 813b b0c1 6e3b b562 58bc c1de f73c
00000130: c13d 003d 930d 833d 1fa4 bb3c 639a 1ebc
00000140: 2a77 86bd 61b9 3fbd 7784 99bb e27a c23d
00000150: 821a 8e3c 6681 89bb 75b5 dcbc ca63 53bd
00000160: 0f77 a2bc b96c f93d 2357 813c af94 1dbd
00000170: e288 00be 7434 28bd 38a0 bfba f4f4 1f3d
00000180: f281 a13c 24e6 2cbc c2bf b9bd 2f2c d33c
00000190: fa73 cb3b 0747 de3b 59a3 9bbd 0b8b 3abd
000001a0: 2bf0 84bd 9802 9bbc fae5 c5bb 8ca6 d7bc
000001b0: 72bb eebc 78b2 023d e60b 01bd 1457 d13c
000001c0: 82c8 22bc 7ba5 59ba c26c 4a3d f636 42bc
000001d0: 6dd6 a1bc 4896 f6bc c83c 123c 7053 8d3d
000001e0: aa58 83bd 81f7 9cbc 6324 253d 2bd4 b33c
000001f0: 6901 003d 5cd6 96bb dea6 2abc 9359 263c
00000200: 1249 14bc a484 f53c ff56 843c a64d 63bd
00000210: 2447 67bb dd95 cdbc 1787 65bb fe28 f4bc
00000220: d947 f63b bf77 44bd 55e9 11bc a5a4 00bd
00000230: 4e03 1ebd 54ad b2bd c09b 0ebe 1e96 983a
00000240: 2c7f aa3c 8e1b 96bc 6868 393d bdbd 093c
00000250: 0535 45bd a75f a03c e77d 2dbd f6b8 0ebd
00000260: 456a 77bd bb24 c4bd 8b70 68bd 75f4 1dbd
00000270: 0eb1 d7bd a03f 10bd 25b2 6fbd 53c2 2bbd
00000280: 0668 2db8 aaf7 6dbd 35be bdbc 5429 3b3b
00000290: 5b8c 25bd c0ce 91bd 78a5 38bd ad4f 73bd
000002a0: 3d9a 0d3d d9a2 843c e320 16bd a2c2 62bd
000002b0: a1b0 46bd 9f4d 8cbc 789c 1b3d 65c8 c9bc
000002c0: 0f4e 3ebb 37ae 83bd a495 b63c 3047 7f3d
000002d0: 06f6 a13c 03e9 dd3b ef9c 12bd 3fed a53c
000002e0: 453d 8e3d 53c7 003d 983a 613d 1053 873c
000002f0: 8a80 55bd b504 bf3c d9c8 4f3d b68c b03d
00000300: b39f 9f3d 36e7 6ebd 8ff0 5ebb 0744 e5bc
00000310: 4b10 0ebc 82e1 113b 7e4d 2ebd 5f34 c2bc
00000320: f8cd 243d 45af 1d3c 64b6 cfbb 4b85 053d
00000330: 8c8f 203d 39b8 02bd ebd0 98bc d862 303d
00000340: 1538 2abc 86a5 fe3b 432c 8ebc dc5d b4bc
00000350: 6f61 5f3d 224a 7e3d 4fef f3bc f563 6cbc
00000360: 5b3a a93b c786 003d 83d7 d53d 442b 6d3c
00000370: d1e8 11bd 9bd7 3cbd 8fd2 ee3a f6b5 a73d
00000380: b4ea d63c d20b b23c f1c2 983c 2660 94bb
00000390: 17e1 293a 5ab2 aabb 2dcb 603c 2576 ea3b
000003a0: e5b7 983c 5680 773d c5bc 633d b03e cf3c
000003b0: 4f0d fe3c 23f4 1dbd 4979 8c3d c577 183d
000003c0: 7045 11bd e12f 1dbc ba65 8cbd 0998 c9bb
000003d0: f4b4 dfba ba60 113d aa22 143d c604 46bd
000003e0: 4dc8 6ebd 1beb 06bc 2071 1b3d 1c34 36bc
000003f0: 6c4c 093d 297e 8d3d 9e77 793d 9a9b 6bbc
0.036835324 0.031538524 -0.052705027 -0.08036573 -0.022703858 0.013501791 0.09289874 0.04460898
-0.04066661 0.0015736902 0.014332331 0.0039756307 0.04999184 0.058608156 -0.03884838 -0.055826366
-0.016971866 0.011023316 0.07601853 0.06367467 -0.049166802 -0.07046004 -0.003367461 0.11785844
0.107424766 0.05098981 0.014549663 0.043256864 0.03813052 0.01924638 0.044008058 -0.020196818
-0.04790051 0.03088104 0.10026054 0.09936658 0.037936244 -0.08180214 -0.06666312 0.10129266
0.08994079 0.033177096 -0.042529304 -0.10549011 -0.056998637 0.124202706 0.03837608 0.058287676
0.034894764 -0.005808149 -0.009675332 -0.057162818 -0.06039506 -0.011132937 -0.07435705 -0.059245646
-0.05346366 -0.032207977 -0.08128321 -0.039365783 -0.0034797972 -0.050544128 -0.08189786 -0.009109875
0.024615122 0.010919565 -0.054856677 -0.07152159 -0.03406149 0.012196606 -0.018185517 0.052100137
0.0039368737 0.0036431365 -0.013207127 0.030257585 0.031308893 0.063990735 0.022905407 -0.009680363
-0.065656975 -0.04680765 -0.0046849805 0.09496094 0.017346624 -0.0041963337 -0.026941994 -0.05160884
-0.019832162 0.1217894 0.01578862 -0.038471874 -0.12552217 -0.04106565 -0.0014619892 0.039051965
0.019715283 -0.010552917 -0.09069778 0.025777904 0.006208894 0.0067833695 -0.075995155 -0.045542758
-0.06491121 -0.018922135 -0.0060393782 -0.026324533 -0.029142115 0.031908482 -0.031505488 0.025554217
-0.0099355 -0.00083025516 0.049420126 -0.011853924 -0.019755566 -0.030100957 0.008925624 0.0690068
-0.06413396 -0.019160988 0.040317904 0.021951756 0.031251345 -0.0046031903 -0.010415761 0.010153192
-0.009050624 0.029970475 0.016154764 -0.055493973 -0.0035290206 -0.025095874 -0.0035023147 -0.029804703
0.007515889 -0.04796576 -0.008905728 -0.031407017 -0.03857737 -0.08724466 -0.13926601 0.0011641418
0.020812593 -0.018323686 0.045265585 0.008407054 -0.048146266 0.01957686 -0.042356398 -0.03484436
-0.06040408 -0.09577318 -0.056747954 -0.03856321 -0.105318174 -0.035216928 -0.0585195 -0.04193337
-4.1343294e-05 -0.05809752 -0.023161987 0.002855857 -0.040417057 -0.071195126 -0.04507968 -0.059402157
0.03457092 0.016190933 -0.036652457 -0.055361398 -0.04850829 -0.017126856 0.037991017 -0.024631688
-0.0029038226 -0.06429713 0.022288151 0.06232375 0.019770633 0.006772162 -0.035794195 0.02025473
0.0694528 0.03144009 0.05498752 0.0165191 -0.052124538 0.023317674 0.050728653 0.086205885
0.07794132 -0.05832597 -0.0034017896 -0.02798654 -0.008670877 0.0022259657 -0.04255437 -0.023706613
0.04023549 0.009624307 -0.0063388813 0.03259782 0.039199397 -0.03191397 -0.018654307 0.043063015
-0.010389348 0.007771197 -0.01735509 -0.022017412 0.05453628 0.062082417 -0.029777197 -0.0144281285
0.005164427 0.031378534 0.10441496 0.014475647 -0.03562242 -0.046104055 0.001822071 0.08189003
0.026234962 0.021734152 0.018647643 -0.0045280633 0.00064803794 -0.0052092494 0.013720316 0.007155197
0.018642375 0.060425125 0.055599947 0.025298446 0.031012205 -0.038562905 0.06859071 0.037223596
-0.03546661 -0.009593935 -0.0685534 -0.006152157 -0.0017067478 0.035492636 0.03616587 -0.048344396
-0.05829649 -0.008234764 0.03794968 -0.011120822 0.033520147 0.06908829 0.06090509 -0.01438036

bias f4 [32]
00000000: d41b 4cbe fb7e 3abe aaf5 5bbe fe20 85bd
00000010: 5998 1b3b 47e4 92be ba8c bfbe 4f2b f0bd
00000020: b068 c7bd 4589 75bd e96e 3abd 0785 51bd
00000030: c24f c1bd 4533 09be 6e25 5fbe c69c 20be
00000040: 01ff 2bbe ae1a 25be c026 acbd 101d d0bb
00000050: 1a90 81bc e339 2fbe 2389 d6bd a954 89be
00000060: 5b84 0bbd ff37 a2bc 6e76 05bd 8734 18be
00000070: 0118 2ebe 9a1a 363d 50fb 4abe 045b 3bbc
-0.1993249 -0.18212502 -0.21480432 -0.065004334 0.002374193 -0.28689787 -0.37412053 -0.117270105
-0.097367644 -0.059945364 -0.04551593 -0.051152255 -0.09439041 -0.13398464 -0.21791622 -0.15684804
-0.16796495 -0.16123459 -0.084058285 -0.006351121 -0.015815783 -0.17111926 -0.104753755 -0.26822403
-0.03406177 -0.019802092 -0.032583646 -0.14863788 -0.17001344 0.044458963 -0.1982243 -0.011435274

weight f4 [64, 32, 5, 5]
00000000: 178d 63bc 1eeb 72bb 403f 33bd b307 86bd
00000010: 9898 f1bb 88cf 843c 6d9b 7a3d 5883 d2bc
00000020: 9c30 e5bd a972 613d a7d1 87bd 6b49 09bd
00000030: 086b cfbd adc1 e83b 62cf 683d 4ea2 c1bc
00000040: 9a4e 27bd 9415 24bc f545 b63c c01f 893d
00000050: a040 92bd a77f 06bd 02a7 1fbc fac4 1d3b
00000060: ffd6 8f3c ec2d 113d f42e 4fbc ed7c babc
00000070: 4e36 2c3c 3292 dc3c 8dc0 adbc 1acb 66bd
00000080: 2b60 3dbd 6855 ac3c 9b89 043d 4bdc 10bd
00000090: 8fb1 0fbd e5fa 483c 96d5 07bb e84c 3d3d
000000a0: 81b3 28bd 84b8 4dbd 3e13 11bc eb3f 103d
000000b0: b39c 7b3d 438e d139 90a9 8c3c c826 1d3b
000000c0: a43f 90bb affd e5bc d4d5 69bd bb05 ff3a
000000d0: 614b 2dbd 156a 40bc 56ad 873a a344 0cbb
000000e0: c846 0cbd 2f63 523d 0e7f 29bb f0a6 b43c
000000f0: a79f bbbd 409c 81bd 06a6 1b3b 33dd c23d
00000100: cd62 633d cf62 453c ab88 2fbd 8798 ff3c
00000110: d3e6 7c3d 4940 153c 1fec 7bbd bd2d c93c
00000120: 2159 943d b59c bb3d 7d59 5dbc 7dfe 6ebc
00000130: 215f 743d 6473 74bd 6106 443c d926 7c3c
00000140: 422d b23d 5c12 913b 6123 e6bc d662 eebb
00000150: c190 bcbc 0099 a438 17c5 b9bd 6a82 24bd
00000160: 324e 8e3c 31db 293d fc08 aabc b78e 03bd
00000170: fcfb 8f3c 7042 993a c07b 8bbc fbd4 e73c
00000180: 0da9 ce3b 1927 793c ec04 d03c ad6e a3bc
00000190: 195d d53c 014d b4bb 3def e53a 33e9 a33c
000001a0: c0fc 353c c272 633c ca1b 18bc 78e6 64bd
000001b0: f4ca 673c 4418 fbbc 3ef2 0abd 3697 4a3d
000001c0: 8e36 53bc f336 683d 9e31 673d 893f 163d
000001d0: d302 12bd 8b90 65bc 5f90 2bbc c523 0bbc
000001e0: 56bd 7e3c 9425 bf3d 1102 f0bc 5eb8 ec3c
000001f0: 4e0c b9bb 7aef 4fbd fd6a c4bb 3475 943c
00000200: a31b eebb 47f3 f3bc f204 eb3c 374f 833d
00000210: 4a7c f93c a637 073e 67b8 2b3d 328b 0fbd
00000220: 53bb 45bd 4f5f 023d a788 cd3d 8adc f2bb
00000230: 3ee7 f2bb de40 7a3c c5b4 9abc dad6 093c
00000240: 28b5 0a3d 2408 4fbc 3b68 163d 72a9 353d
00000250: 3bc6 2dbc 75dd 453d 5274 2d3b aabc 49bd
00000260: 42bc e3bb 5ae2 113d e8f0 ce3b 10db 893d
00000270: 9648 453d aebc bd3c e5b7 4a3c 8849 943d
00000280: 0a7b c0bb f095 4f3d 120f 543d 4099 6a3d
00000290: e562 d03d 0ca5 d63c 4f70 cfbc c2fe 5f3c
000002a0: 2b0c 353c ddf1 b73b d10e a73c 998d 87bc
000002b0: b820 803d cf32 953c 8d49 593d e753 f23c
000002c0: ea5b a03c 4e5f 313d 8c56 43bd 4ee8 7fbd
000002d0: 06f3 9ebd 7563 853d 3ef3 d93c a58f 51bd
000002e0: 1a6e 53bc 94c5 81bd 7abf 54bd ef93 67bd
000002f0: f68c efbc 8d60 c53c c28e b5bc 3f70 5fbd
00000300: f79f fd3d 8fa7 823c 49bb 67bd f4c2 c0bd
00000310: 0d74 68bc 6636 c13c f2cc f73c 33d4 3f3d
00000320: 8fb7 bdbb ca1e e53d c9bb 8dbc d3ba 483b
00000330: 87d4 f6bc c453 fabc 744d 8f3d e645 8abd
00000340: 401d a2bc 0cbe da3c 085a 153d 898b ed3c
00000350: 9db7 98bd e541 a4ba 78d9 1cbd 5e76 c9ba
00000360: 683b d03d 823f 5f3d 5f1c 39bd 5d55 93bc
00000370: 4468 51ba 3cd4 163d e1ab 9a3c 040b acbc
00000380: de04 ed3c 14c2 ab3c 2f78 493d dc15 303c
00000390: 84f4 f93c 1fa5 933c 3ea3 78bd 1b59 213d
000003a0: 9a57 1cbd 3d5e dabc f14e 383d 75aa a83d
000003b0: 57c9 d4bd 9d89 45bc a0ce a2bc 9bf9 20bd
000003c0: 7c92 2dbd 51e1 803c 1699 c93c 201d 4d3d
000003d0: 5590 e9bc 57bf 253d 7e69 563c 6f5f a53c
000003e0: 3d65 54bd b573 f93c 7650 95bd df1f 953b
000003f0: df4e d7bc f477 463d b7a8 8bbd 08de 363c
-0.013888619 -0.003706641 -0.04376149 -0.06544437 -0.007372927 0.01621224 0.06118338 -0.025697395
-0.11190912 0.05504099 -0.06631785 -0.033517282 -0.101278365 0.007103166 0.0568384 -0.023636963
-0.040846445 -0.01001491 0.022250155 0.06695509 -0.071412325 -0.032836583 -0.009744408 0.0024073706
0.017558573 0.035444185 -0.012645472 -0.022764647 0.010510994 0.02692518 -0.02120998 -0.056346036
-0.04623429 0.021036819 0.032357793 -0.035366338 -0.035081442 0.012266849 -0.0020726672 0.04621592
-0.041186813 -0.050224796 -0.008854685 0.035217207 0.061428737 0.0003996958 0.017170697 0.0023979414
-0.004402118 -0.028075067 -0.057088688 0.0019456664 -0.042308215 -0.011744042 0.0010351341 -0.0021403215
-0.03424719 0.05136412 -0.0025863084 0.022052258 -0.09161311 -0.063286304 0.002375008 0.09514847
0.055514146 0.012047484 -0.042854946 0.03120066 0.06174357 0.009109565 -0.06150448 0.024557943
0.072435625 0.09160749 -0.013510105 -0.014587042 0.059661034 -0.059680358 0.0119644115 0.015390121
0.087000385 0.0044272374 -0.028093042 -0.0072749658 -0.023018243 7.848628e-05 -0.09070795 -0.040163435
0.01737127 0.041468803 -0.020756237 -0.032118525 0.01757621 0.0011692774 -0.017026782 0.0282998
0.0063067735 0.0152070755 0.025392972 -0.019950235 0.026045369 -0.0055023436 0.0017542612 0.020008659
0.011107624 0.013882341 -0.009283969 -0.055883855 0.014147509 -0.03065122 -0.033922426 0.049460612
-0.012891425 0.05669303 0.056443803 0.036681686 -0.035647225 -0.0140115125 -0.0104714325 -0.008492415
0.015548071 0.09333339 -0.02929786 0.028896507 -0.005647219 -0.050765492 -0.0059941993 0.018122293
-0.007266478 -0.02977909 0.028688882 0.064115934 0.030454773 0.13204822 0.041923907 -0.035044856
-0.04827435 0.031829175 0.1003583 -0.007411544 -0.00741282 0.015274255 -0.018885026 0.008413041
0.03386417 -0.012636218 0.036720496 0.04435105 -0.010606344 0.0483069 0.0026467037 -0.04925219
-0.0069499323 0.035616256 0.0063153394 0.06731236 0.048164926 0.023161259 0.012372945 0.072405875
-0.0058740424 0.0506801 0.051772185 0.057275057 0.10175113 0.026201747 -0.025322108 0.013671579
0.011050264 0.005613549 0.020392807 -0.016547011 0.062562406 0.018212704 0.05304866 0.029581023
0.019575078 0.04330378 -0.04768996 -0.062477402 -0.07761197 0.065131105 0.026605245 -0.05116238
-0.012904668 -0.06336513 -0.05194042 -0.056537565 -0.02924202 0.02409389 -0.022162799 -0.054550406
0.123840265 0.015949039 -0.056575093 -0.09412184 -0.014187825 0.02358551 0.030249093 0.04683323
-0.005789704 0.11187513 -0.017301457 0.0030628934 -0.030130638 -0.03055752 0.06997195 -0.06751613
-0.019789338 0.02670195 0.036462814 0.0289972 -0.074568965 -0.0012531845 -0.03829333 -0.0015370359
0.10167581 0.054503925 -0.045193072 -0.01798504 -0.0007988254 0.036823496 0.018880786 -0.021001346
0.028932985 0.020966567 0.04918688 0.010747399 0.030512102 0.018023072 -0.060702555 0.03939162
-0.03816948 -0.026656264 0.04499716 0.08235637 -0.10389965 -0.012056735 -0.019873917 -0.039300542
-0.042376027 0.01573244 0.02460913 0.050076604 -0.028511206 0.04046568 0.013086675 0.020187108
-0.05185436 0.030450681 -0.07290737 0.0045509185 -0.026282726 0.04845424 -0.06819289 0.011161335

bias f4 [64]
00000000: cbc4 fbbd 3cf2 10be 972d dcbd f4e0 72bd
00000010: 75d0 70bd c4de 18be f5b7 8abd 9f4d 86bd
00000020: d90d bcbd cf0c 82bd 89a1 1ebe c9e2 e4bd
00000030: 9b7e dbbd 7511 c1bd b092 efbd d17b b5bd
00000040: f158 18be b679 dbbd 23c9 f3bd 2e0c f9bd
00000050: 7f9f 0ebe d925 a6bd 7872 e6bc 011f 0abe
00000060: 07f4 86bd f1b5 8bbc ca64 c6bd 92c8 93bd
00000070: b6a3 c1bd f8bf c5bd abb7 07bd 6196 95bd
00000080: 5d44 e6bc 30fb 70bd 0766 d7bd 8790 dfbd
00000090: ddf7 91bd c9df babd 3eff c5bd bb18 0fbe
000000a0: 889a 27be a75b e0bd fed9 983b e3b4 d8bc
000000b0: 0a57 93bd 62ed 3bbd 8f85 88bd 614e d8bd
000000c0: 263d 68bd 9a05 41bd 30b0 07be 8bb8 20be
000000d0: 144e aebd 66ed 26be 92b3 8dbc 90a0 fa3b
000000e0: 91fc 2d3b 9889 1bbe ca47 24bc edb7 00be
000000f0: 61c0 e3bd 521f 91bd 16e5 66bd 62ae 36bd
-0.12293395 -0.14154905 -0.10750883 -0.059296563 -0.05879255 -0.14928728 -0.06773368 -0.06557774
-0.09182329 -0.06350099 -0.15491308 -0.11176068 -0.107175075 -0.09427158 -0.116979 -0.08861507
-0.14877678 -0.10716574 -0.11903598 -0.12160526 -0.1392803 -0.081126876 -0.028130755 -0.1348839
-0.06589513 -0.01705453 -0.09687193 -0.0721599 -0.094550535 -0.09655756 -0.033134144 -0.07304073
-0.02810877 -0.0588333 -0.10517507 -0.10916238 -0.07127354 -0.09124715 -0.09667824 -0.13974278
-0.16367543 -0.10954981 0.0046646586 -0.026453441 -0.07194336 -0.045880683 -0.06666099 -0.105618246
-0.05669894 -0.047124483 -0.13250804 -0.15695398 -0.08510986 -0.16301498 -0.01729754 0.007648535
0.0026548246 -0.15189207 -0.0100268815 -0.12570162 -0.11120678 -0.07086052 -0.056370817 -0.0445999

weight f4 [64, 1024]
00000000: 0524 59bd 027b 7cbb 0641 e13b bd04 69ba
00000010: eb41 4f3b 4c9b ef3c d01c 903c b961 79bb
00000020: 7914 0bbc a62f 703c 2d27 293d 691f 8bbb
00000030: e84e 7dbd 2ca6 86bd 61d9 c13b 52ef 42bd
00000040: 50b9 37bd 504f bd3c b731 2abd 0e3d 05bd
00000050: 0a14 b2bc cd0c 5fbc 1653 67bc 9ffa 70bc
00000060: 098b 36bd 25ee 0a3d e942 c2bc d5ab 343d
00000070: 3f9f 973c 8d3e 393c 69c5 2b3d 12ea a3bb
00000080: 1df5 583c 7345 263c d0c9 48bd 3818 a8bc
00000090: 2c98 64bd 0605 e33b 587a 823d de7f 133d
000000a0: 519f d2bc f681 34bd bbf4 68bd 6e42 78bc
000000b0: 0d51 1d3c 6667 973c 63e9 0b3d bc25 c9bc
000000c0: bfde 0cbc 13f7 cfbc f3f3 1bbd 2fb0 6fbc
000000d0: f9ca 13bd 1603 09bd a6e2 3e3d c941 953c
000000e0: c465 56bd fe15 0e3d 2de7 513d 9163 983c
000000f0: aab5 df3c 5d6e 2c3d 5411 fd3d 24b1 8c3d
00000100: 7730 35bc 4833 a6bc 0175 a93c 725d dc3c
00000110: a1b2 22bd 4400 dbbc 1aaf a33c 62a0 a43d
00000120: 6171 0b3c 082b 823d 2d87 34bc 4ea4 0c3d
00000130: de52 09bb f093 903c cfd9 2d3c 690b 9c3b
00000140: 4418 21bd 91a8 8c3d 9951 4a3c a9cc 14bd
00000150: ccad 443c b6ae 99bc a78f 3e3d d7bd ef3b
00000160: 6d12 bf3c 10b2 a43c e44e 42bc 4ee4 9a3c
00000170: ab00 2a3d 2d44 523d b6e7 673d f599 6f3d
00000180: dec5 e9b9 e216 77bb 506b 4cbb f8cc ba3b
00000190: 5e80 323c e907 49bc 0b05 02bd b6b4 24bd
000001a0: f539 203d 12c1 233d 4c6a cf3b ccca 9b3d
000001b0: d6f3 9bbc 68b5 a83c 016e 1e3d 29a5 353d
000001c0: 94b6 d43a 1008 51bd 8786 2fbd daae ee3c
000001d0: 01b5 1a3d ae19 d0bc 0578 593d dee9 553d
000001e0: a7ca 053c 7ae3 b5bc 14f4 ff3c 078a 5c3d
000001f0: 0d95 723d 421c c6bc a029 bb3c 9411 4b3c
00000200: 43a9 c83a 330c 1fbb 609a 103d ed6c 40bc
00000210: 82d1 523d 5c9c 063d b643 e13c 565b 253d
00000220: 6890 843d dade b23d d9ed 763c f0bf 9d3d
00000230: 867b 38bd 2cb6 cb3a cfc8 583b 6182 0abd
00000240: b8b8 a03b 67c2 cabc b006 313d 483c d2bc
00000250: f897 94ba 2b13 f13c 9161 ac3d 8862 0c3d
00000260: a3a8 b83c 1951 ba3d 3c53 e13c d632 383c
00000270: 0a12 13bd 15a4 943b a2c0 89bc df57 61bd
00000280: f669 953c 5db9 50bc ddc5 97bd 6fea c13b
00000290: 93d8 053d 86dc 31bd f111 033c 0aab 933d
000002a0: 24d6 053d 1f60 64bc 5091 dfbb 289a 8c3d
000002b0: 4e8a 363c 6f28 2fbd 89c4 c7bb 38b5 543d
000002c0: de39 96bb b478 923c a800 8a3b 5021 90bc
000002d0: ca24 04bd 75fd 853c acaa 02bd 4c72 a7bc
000002e0: f687 b73a 4be9 813b 6aae 69bd 37f8 d1bc
000002f0: 6a9f ca3c 521e 983c cd1a a13d 1d07 673d
00000300: dfbb 5bbb 9ca8 51bd b1d0 303c b103 49bb
00000310: 3ffb b03c d6d8 96bd 3cd1 f1bc 0223 2bbd
00000320: fbc0 0a3d fb99 b9bb e8f6 df3b 8793 443c
00000330: 4676 bc3d 37a4 2ebd f246 bc3c 4a77 e3bc
00000340: 4ccd 6d3c 2708 0dbd 80fb 04bc b702 71bb
00000350: ad64 a9ba 9a27 313d 4cfb 883c 5807 703c
00000360: e781 8f3c 3930 973c 3639 b53c b6e7 853d
00000370: cebb 7cbd 7542 3cbd b37a b6bb c37f 09bd
00000380: dc47 413d 9c2b 0b3d d1ee 843d bc4e 86bc
00000390: 90a4 ea3b e6e8 6e3b 0b95 07bd 1771 263c
000003a0: ea0b 123c a59d 72bd 7839 fc3c 459d aabd
000003b0: 2878 e3bc b369 4cbd 8fa2 fc3b 1b72 b93b
000003c0: db25 83ba a7f7 e83a 394e edbb 96d4 f8bc
000003d0: ff4d 373d d387 82bc 944d 07bd be23 903c
000003e0: dc5e 21bb 9d03 52bd 812b 073d e0b2 19bd
000003f0: 684e c93c 4c51 8a3d ee79 9abc 1bbe bb3c
-0.053012867 -0.0038525467 0.0068742065 -0.00088889507 0.0031624984 0.029248856 0.017591864 -0.0038052632
-0.008488768 0.014659798 0.041297127 -0.0042456877 -0.06184283 -0.065746635 0.005915806 -0.047591515
-0.044854462 0.023109108 -0.041551318 -0.03252893 -0.021738071 -0.013613892 -0.01411893 -0.01470819
-0.044566188 0.03391852 -0.023713546 0.044109184 0.018508552 0.011306417 0.041936312 -0.0050022686
0.013242033 0.010148394 -0.04902059 -0.02051936 -0.055809185 0.006928089 0.063709915 0.036010616
-0.025710734 -0.044069253 -0.05687402 -0.015152557 0.009601844 0.018481921 0.03415812 -0.024554126
-0.008598029 -0.025386369 -0.038074445 -0.014629408 -0.03608224 -0.03345021 0.046602868 0.018219845
-0.052343145 0.034688942 0.051245857 0.018602164 0.027308304 0.042097438 0.12356821 0.068697244
-0.011058918 -0.020288125 0.020685675 0.026900027 -0.039721135 -0.026733525 0.019980956 0.08038403
0.008510918 0.06355864 -0.011018557 0.03433638 -0.0020953934 0.017648667 0.010611012 0.0047621024
-0.039329782 0.06868089 0.012348556 -0.03632799 0.012004327 -0.018760066 0.046523716 0.007316332
0.023324216 0.020104438 -0.011859629 0.018907692 0.041504543 0.05133455 0.05661746 0.058496434
-0.00044588646 -0.0037702848 -0.0031191893 0.0057007037 0.010894863 -0.012269952 -0.03174309 -0.040211402
0.039117772 0.039979048 0.0063298102 0.0760704 -0.019037168 0.020594314 0.038679127 0.044346962
0.0016228729 -0.05103308 -0.042852905 0.02913611 0.037770275 -0.02540287 0.053092975 0.052224986
0.008165992 -0.022203196 0.031244315 0.05384257 0.059224177 -0.024183396 0.022846997 0.012394328
0.0015309233 -0.0024268746 0.035303473 -0.01174472 0.051469333 0.03286396 0.027498107 0.040370308
0.06472856 0.08733912 0.015071356 0.07702625 -0.045039676 0.0015541962 0.0033078676 -0.033815745
0.0049048327 -0.024750901 0.04321927 -0.02566351 -0.0011336794 0.029428085 0.08417047 0.034273654
0.02254135 0.090974994 0.02750551 0.011242589 -0.035905875 0.0045361617 -0.016815487 -0.05501544
0.018239003 -0.012739507 -0.07410786 0.0059178392 0.032677244 -0.0434232 0.007999883 0.072103575
0.032674924 -0.013938933 -0.0068227425 0.068653405 0.011141373 -0.04276317 -0.006096427 0.051930636
-0.004584535 0.017879821 0.004211504 -0.01759401 -0.032261647 0.01635621 -0.031901047 -0.020440243
0.0014002312 0.0039645783 -0.0570511 -0.025631053 0.024734218 0.018569145 0.0786644 0.056403268
-0.0033528728 -0.05118619 0.010791943 -0.0030672366 0.021604178 -0.07365577 -0.029518716 -0.041781433
0.033875447 -0.005664108 0.0068348534 0.011998064 0.09202246 -0.042637076 0.022983048 -0.027766842
0.014514279 -0.034431603 -0.008116603 -0.00367753 -0.001292368 0.043250658 0.01672139 0.014650188
0.017517997 0.018455612 0.022122007 0.06538336 -0.061702542 -0.045961816 -0.005568826 -0.03356911
0.04718767 0.033977136 0.06490863 -0.016394965 0.0071607307 0.0036454736 -0.033101123 0.010158799
0.008913973 -0.059232373 0.030789122 -0.08330778 -0.027767256 -0.04990549 0.007709808 0.0056593544
-0.0010005789 0.0017774001 -0.007241991 -0.030374806 0.044752117 -0.015933907 -0.03303297 0.017595168
-0.002462319 -0.051272977 0.033000473 -0.037524104 0.02457352 0.067537874 -0.018856969 0.022917798

bias f4 [64]
00000000: f1fe 97bc f9f8 163c 556c f1bc 4e71 963c
00000010: 91e1 ddbc 47b0 543d 55ea 3abc 8ef0 5abc
00000020: 704e 9f3c 0d0e dbbb b645 cebc b917 46bd
00000030: 71f2 783c 5479 613d 91c5 153c 955f babb
00000040: 0e74 e03c 8e81 bc3b c8a2 bdbc ddd5 213d
00000050: 1bf0 43bd d14d c53c 947c 903c a67f 1bbd
00000060: 75d4 ae3c 1ca5 11bd d240 8637 a247 0cbd
00000070: 476f aa3d 5db1 f13c f995 87bc 6000 a13c
00000080: a7bd 72bd bab5 363d d1da db3b d81d 47bd
00000090: 118c eabc 782a d13c b750 44bd e2c0 55bd
000000a0: 9b94 55bd 0bcf cebc 1245 3abd c4a4 45bd
000000b0: 3ff6 a53c f183 25bc 17d5 4abc 72e4 42bd
000000c0: 796d 07bd 4481 c5bc 3207 163d 3607 8c3d
000000d0: 907a 073d 6715 bc3a c0cb 2cba 16de a9bb
000000e0: 1fae 043c 9acf 2bbd b9e7 57bd efd7 8b3c
000000f0: abda 263d 6d8e 2bbd d9f8 1e3d b072 083d
-0.018554183 0.009214633 -0.029470602 0.018364575 -0.027085098 0.051925924 -0.011408408 -0.013363017
0.019446582 -0.0066850246 -0.025179725 -0.048362467 0.015194521 0.05504735 0.009141342 -0.005687664
0.02739909 0.005752749 -0.02314891 0.039510597 -0.047836404 0.024084957 0.017637528 -0.037963532
0.021341542 -0.03555785 1.600423e-05 -0.034248002 0.08322006 0.029503519 -0.016551005 0.0196535
-0.059262898 0.0446069 0.0067094346 -0.048612446 -0.028631242 0.025532946 -0.04792854 -0.0521859
-0.052143674 -0.02524521 -0.045476027 -0.048252836 0.02025902 -0.010102258 -0.012379906 -0.047581144
-0.033063386 -0.02410949 0.036627956 0.06837313 0.03307587 0.001434964 -0.00065916404 -0.0051839454
0.008098154 -0.04194603 -0.052711222 0.017070739 0.04073588 -0.041883875 0.03881154 0.0333125

weight f4 [10, 64]
00000000: 0cd9 6f3d f66a 863e 90bb 0dbe 3411 3abd
00000010: 8db4 6abe 7591 8cbe 47f3 f03d a3c2 8c3e
00000020: c127 823e c560 8f3d acfc 8abe 967e 963e
00000030: 93a7 d2bd dd00 593d 3f91 a3be 3282 8c3e
00000040: 2079 7d3e b203 a9be fdce 813e 5a55 81be
00000050: 7735 4e3d a74f 71be 0b42 abbc aef1 683e
00000060: 3a86 1cbe ee89 33bd 63bb 60be c629 0cbe
00000070: 5d02 98be fc0c 10bd 97da 1fbd 5633 363d
00000080: 39ef b53e 0c8f 9ebe e7bf b4bd d2c6 9a3d
00000090: b131 71be 34a0 f3bd 33ee ba3e 45df 91be
000000a0: 906b 9a3e dd15 b9bd 238e cc3d 5c2f 623e
000000b0: 4946 253c 646e 91be 1f0b 8f3d a801 02be
000000c0: 4a05 ab3e fcfe bcbc b922 9fbe 1c67 26be
000000d0: 0e69 0d3e dfeb 3fbd 9a5a 213e 264a 253d
000000e0: 11de 7a3d 34ac bd3e eaa2 443e 918a afbe
000000f0: 9ad4 38be e976 1a3c b189 04be e48e 5a3d
00000100: 617d 383e 2fcd a3bd c8dd 413e 2444 98be
00000110: a3a6 21bd cb9e 8f3d 7fe6 0ebe 6377 a2be
00000120: e82c c3be faa0 ae39 f510 afbe e87d 73be
00000130: c6b2 f1bd f695 89be cd3d be3e df8a e8bd
00000140: c27b acbd 4a66 a23e 488e bf3d cb26 5abe
00000150: f08e 4cbe 3840 18be 13b2 85bd 1a6b 953e
00000160: c337 033f 1ff6 a73e 9477 773e 515a f03d
00000170: 78c6 a8be 9cf8 8bbe f396 dfbd bb27 4d3e
00000180: 108d a73e 728d 0e3e afe1 e6bd a677 9dbe
00000190: 18ca 0fbe f5cf 293e bd20 a2be 4baa f1bd
000001a0: e0a7 223e 6ec9 2dbd 09b6 a53c a5a3 b73d
000001b0: abaa b4be d4ed 97be 06f8 f5bd 633c af3e
000001c0: 99ff 48bd 96d0 593e 7eea 7fbe 4880 82be
000001d0: 62d4 edbe 4ae1 9a3e 34b5 7abe 9201 21be
000001e0: 0ccf f63e 47b7 683e 2bf3 e83b be0c d63e
000001f0: 14fd 08bf 30cd 3fbe 5449 bcbe 37d5 90be
00000200: 1287 c4be f677 90bc 24c1 bfbe 5edd 663e
00000210: f38d fcbd 3d4c c8bd 903b dd3d 9f26 89bd
00000220: a6cd 3e3c 2b13 17be a00a 803e 5130 97be
00000230: 2967 d23c a41a 303d 996c bfbe ea17 973e
00000240: 6c43 bebd 1a26 48be ea6f 43be ed6b 143e
00000250: 0514 853d 2ff7 ef3d 62fd 80be 6c81 afbe
00000260: f60f 20bd ac35 973d 8491 4fbe 2c8e 3f3e
00000270: 5434 2abe 967e 823e 4177 4ebd 2f4e 843e
00000280: 6e16 933e 5f36 fc3d 6c3d 58be 2f8f 6abc
00000290: 8749 943e def3 173e f005 433e 0718 b9be
000002a0: ff93 083e 388a 093e ff8a d93c 4b60 e43c
000002b0: aa7c 053e 69e5 ab3e 9268 ea3e f2cb 97bc
000002c0: d742 003e eb14 aa3e 54f4 ab3e 3eda 763e
000002d0: 8828 10be e28b 833e 5916 2e3e bd25 4f3e
000002e0: 1b0b ed3c 34ae 22be 9724 95bd e5e0 81be
000002f0: 227d b03e 9e9b 8d3d 5d92 143e 12c3 a5bd
00000300: 0025 3abe 5380 523e 0fda 87be 198d 4cbe
00000310: aea3 d6bd fbcb 8b3e e34d e4bc f54a b3bc
00000320: b9e4 5ebe 0be5 6f3e f941 813e c51e f93c
00000330: af2c 0b3e 2548 8abe 6411 933e 320b 00be
00000340: 73e3 e93d 26cf 813e b1d9 6cbd 6e60 b23a
00000350: 058a 643d 30e3 203e 2f0b 843e c1c1 80bc
00000360: 496f abbd 8d32 4ebd ee6c 70be b1d2 72be
00000370: da17 013e 3bd4 c93d b12d a13e 65b1 20be
00000380: 9637 d0bd 1df3 1f3d 6f6c 193e 062e e5bd
00000390: 71ff 573e a9c5 e63c ea68 003e db9d d43d
000003a0: 74d2 473e 4b16 973e cb53 d6be eb49 93bd
000003b0: ef14 693d aad9 023e 4a30 393e 0b91 73be
000003c0: 24a6 79bd 3e35 dfbd f7ae 4ebe 80b8 bd3c
000003d0: cb0a 263e bb6c 713e b86b f53d efce 86bd
000003e0: bf5e 2ebe 0655 2fbe 515c 343e 822a afbd
000003f0: 17eb 953d 1a70 1dbe dd68 df3d 7bfc 81bd
0.0585566 0.2625348 -0.1384108 -0.045426562 -0.22920437 -0.27454725 0.117651515 0.27492246
0.25420955 0.07000879 -0.27145898 0.29393452 -0.102858685 0.05297934 -0.3194675 0.2744308
0.24753237 -0.33010632 0.25353232 -0.2526043 0.050343957 -0.23565541 -0.020905515 0.22748443
-0.15285578 -0.043832712 -0.21946482 -0.1368781 -0.29689303 -0.035168633 -0.039026823 0.04448255
0.35534075 -0.3096851 -0.08825665 0.07557453 -0.23554112 -0.11895791 0.36509857 -0.28490654
0.3016019 -0.09037373 0.09988048 0.22088379 0.010087558 -0.28404534 0.06984543 -0.12695944
0.33402473 -0.023070805 -0.3108118 -0.1625027 0.13809606 -0.046855804 0.15757218 0.040353917
0.061246935 0.37045443 0.19202772 -0.34285405 -0.18049851 0.009427764 -0.1294315 0.053358927
0.18016578 -0.0799812 0.18932259 -0.29739487 -0.039465558 0.07012709 -0.13955115 -0.3173171
-0.38120198 0.00033307803 -0.34192625 -0.23778498 -0.118016765 -0.26872224 0.37156525 -0.113546126
-0.084220424 0.31718665 0.0935331 -0.21303861 -0.19976401 -0.14868248 -0.065281056 0.29183275
0.5125696 0.32804963 0.24166709 0.117359765 -0.3296392 -0.2733811 -0.10917463 0.20034687
0.3272481 0.13921145 -0.112735145 -0.30755347 -0.14041936 0.16583236 -0.31665602 -0.11800059
0.15884352 -0.042428426 0.020228403 0.089667596 -0.3528646 -0.29673636 -0.12010197 0.3422576
-0.049071882 0.21270975 -0.24991795 -0.25488496 -0.46451098 0.30250007 -0.24483186 -0.15723255
0.4820484 0.22726165 0.007109066 0.41806597 -0.53511167 -0.18730617 -0.36774695 -0.2828767
-0.383843 -0.017635327 -0.37452042 0.22545382 -0.12331762 -0.09780166 0.10802376 -0.066968195
0.01164571 -0.14753406 0.25008106 -0.2952905 0.025683956 0.042994156 -0.3738754 0.29510432
-0.092902035 -0.19545785 -0.1908566 0.14494295 0.06497959 0.117170684 -0.25193316 -0.3427843
-0.03907772 0.07383284 -0.20270354 0.18706578 -0.16621524 0.25487202 -0.0504067 0.258409
0.2872805 0.12315058 -0.2111718 -0.014316364 0.28962347 0.14839122 0.19045234 -0.36151144
0.13337706 0.13431633 0.026555536 0.027877947 0.13035837 0.33573464 0.45782906 -0.018529866
0.12525497 0.33219084 0.33584845 0.2410669 -0.14077961 0.2569266 0.17000712 0.2022924
0.02893596 -0.15886766 -0.072823696 -0.25366893 0.3447047 0.06914447 0.14508958 -0.08093847
-0.18178177 0.20556764 -0.26533553 -0.199757 -0.10480438 0.27304062 -0.02786917 -0.021886328
-0.21766938 0.23427217 0.25245646 0.03041018 0.13591264 -0.27008167 0.28724205 -0.1250427
0.114203356 0.25353354 -0.057824794 0.001360906 0.05579569 0.15711665 0.25789782 -0.015717389
-0.08370835 -0.050341178 -0.23479053 -0.23713185 0.12606755 0.09854933 0.31480172 -0.1569267
-0.10166852 0.03905021 0.1498277 -0.11190419 0.21093537 0.028170424 0.12540022 0.10381671
0.19513875 0.29509196 -0.41860804 -0.07191833 0.05690473 0.12778345 0.18084827 -0.23785798
-0.06094946 -0.10898827 -0.20183931 0.023159266 0.16215055 0.23576634 0.11983436 -0.06582438
-0.1702833 -0.17122278 0.17613341 -0.085530296 0.073202305 -0.15374795 0.10908673 -0.06346985

bias f4 [10]
00000000: ab0b 95bd 1d5e cc3d 2925 b5bc 2006 c13d
00000010: 94cd e43d 3da3 f2bd 4e40 ba3d 61a0 d8bc
00000020: bf1c 29bc de2b f43c
-0.07277616 0.09978888 -0.022112446 0.094249964 0.111720234 -0.118475415 0.090942964 -0.026443662
-0.010321795 0.029806074
