try_train/cifar10_models/cifar10_net_22.pth (torch, 589402 bytes, 10 tensors)

weight f4 [32, 3, 5, 5]
0	0xbd89052f	-0.06690442
1	0x3dd15ed2	0.10223164
2	0x3e0db37b	0.13837998
3	0xbc9b4f59	-0.018958734
4	0x3e1ae229	0.15125336
5	0xbdd25d77	-0.10271733
6	0xbd8bec01	-0.068321235
7	0xbce70938	-0.028202638
8	0x3e381b60	0.17979193
9	0x3dc13747	0.094343714
10	0xbd8d99e4	-0.06914118
11	0x3cbfd722	0.023418013
12	0xbe2c467a	-0.1682376
13	0xbcb54d00	-0.022131443
14	0xbdd18ef4	-0.10232344
15	0x3d3d5b2a	0.04622952
16	0x3ba555e6	0.0050456403
17	0xbe7f6de4	-0.24944264
18	0xbe3d5e9c	-0.18493122
19	0xbdef6ae8	-0.116903126
20	0x3e349f37	0.1763886
21	0xbd2a8223	-0.041628014
22	0xbe7884d7	-0.24269424
23	0xbda8fc72	-0.08251275
24	0xbd101b46	-0.03518226
25	0xbdf3cb9e	-0.11904071
26	0xbd6959a7	-0.056970265
27	0xbd628bea	-0.055309214
28	0xbd6cc968	-0.057809263
29	0xbda92ba9	-0.08260281
30	0x3d9ae043	0.07562306
31	0xbddb336a	-0.10703166
32	0xbe081c37	-0.13292013
33	0x3d8f037e	0.06983088
34	0x3d26e489	0.04074529
35	0x3bbbd258	0.005731862
36	0x3d6e267f	0.05814218
37	0xbe218bfd	-0.15776058
38	0xbbca902b	-0.006181737
39	0xbd323b7d	-0.043513764
40	0x3e9ad198	0.30238032
41	0x3e1ff88b	0.15622155
42	0xbdfc5ce6	-0.123224065
43	0xbd4f6223	-0.0506307
44	0xbdc44946	-0.09584288
45	0x3e3e8d30	0.18608546
46	0x3db4900d	0.08816538
47	0xbe2698a5	-0.16269167
48	0xbe117811	-0.14205958
49	0x3d8bab1b	0.06819745
50	0xbc31efdf	-0.010860412
51	0x3d50e082	0.050995357
52	0x3df7af0d	0.12093935
53	0xbb285efd	-0.0025691383
54	0xbde32464	-0.11090925
55	0x3ca00d6b	0.019537648
56	0x3bfdbc0c	0.007743364
57	0xbc462422	-0.012093576
58	0x3c84b54f	0.016199736
59	0xbc137d2c	-0.009002011
60	0x3e27e2c8	0.16395104
61	0x3d2701b4	0.04077311
62	0xbe0658ab	-0.13119762
63	0xbde281a2	-0.11059882
64	0xbd44551a	-0.04793272
65	0x3e8ca8db	0.27472576
66	0x3e5219b3	0.20517616
67	0xbdabc114	-0.08386436
68	0xbd10f02d	-0.0353853
69	0x3caa09e1	0.020756664
70	0x3e97746b	0.29581007
71	0x3e25a158	0.16174829
72	0xbe085ed1	-0.1331742
73	0xbddcb5cf	-0.10776865
74	0xbd9c2cfa	-0.07625766
75	0xbe0b3800	-0.13595581
76	0xbd7f709c	-0.062363252
77	0xbe41188c	-0.1885702
78	0xbc4e52d3	-0.012592989
79	0xbd5b388c	-0.053520724
80	0xbaa5e824	-0.0012657684
81	0xbd51b541	-0.051198248
82	0xbb8852f9	-0.0041602817
83	0xbd9a3149	-0.07528932
84	0x3d133319	0.035937402
85	0x3cc466cb	0.023974797
86	0xbd4eb7d2	-0.050468273
87	0xbb6fe5a0	-0.0036605373
88	0xbd51fc4f	-0.05126601
89	0x3d8732ff	0.066015236
90	0xbe01d2df	-0.12678097
91	0xbde28ce7	-0.11062031
92	0xbe1990b1	-0.14996602
93	0xbe2a4bf8	-0.16630542
94	0xbd30b9fb	-0.043146115
95	0xbd53df38	-0.05172655
96	0xbe30a4ad	-0.17250319
97	0xbe230ac2	-0.15922073
98	0xbe37c159	-0.1794485
99	0xbdd80a01	-0.10548783
100	0xbc4ad196	-0.012379071
101	0x3b83173c	0.0040005725
102	0xbdc551b2	-0.09634723
103	0x3c85134d	0.016244555
104	0xbe28c77d	-0.16482349
105	0xbd1ec85c	-0.038765296
106	0x3cbcad42	0.023031835
107	0x3e081853	0.13290529
108	0x3e3ce182	0.184454
109	0x3d4c7dd2	0.04992468
110	0xbc915b72	-0.0177438
111	0x3d52edf8	0.051496476
112	0x3d5aa1c8	0.053376943
113	0x3e3e9b7a	0.18613997
114	0x3d4eaebb	0.050459605
115	0x3c6732c5	0.0141112255
116	0xbd6c2019	-0.0576478
117	0xbdda97f7	-0.10673516
118	0xbd83ce10	-0.06435788
119	0xbd48416a	-0.04889051
120	0xbd95f9be	-0.07323025
121	0xbe2e1461	-0.16999961
122	0xbe498e70	-0.19683242
123	0xbe58745b	-0.21138136
124	0xbdf30bc8	-0.118674815
125	0xbd416f3c	-0.047225222
126	0x3db927a1	0.09040762
127	0xbcd5ea60	-0.026112735
128	0xbdb9a603	-0.09064867
129	0xbd875924	-0.06608799
130	0x3e0a9473	0.13533191
131	0x3e3d4d9d	0.18486638
132	0x3e8bd6af	0.27312228
133	0x3e237ef7	0.15966402
134	0x3ce5f5f7	0.028071387
135	0x3e5da29c	0.21644062
136	0x3e951db9	0.2912424
137	0x3eb8ab85	0.3606836
138	0x3e6eec05	0.23332222
139	0x3e3ad65c	0.18245834
140	0x3e3c28b6	0.18374905
141	0x3e65e71e	0.22451445
142	0x3e54ca99	0.2078041
143	0x3e130770	0.14358306
144	0x3e49c0de	0.19702479
145	0x3c520fba	0.012821132
146	0xbd0a2ede	-0.033736102
147	0x3d0fd5b9	0.03511593
148	0x3dec6a60	0.11543727
149	0x3d4262bc	0.04745744
150	0x3d5aba7e	0.05340051
151	0xbdf0061f	-0.117199175
152	0x3d12623a	0.035738207
153	0xbda9c3aa	-0.08289273
154	0xbd7c571a	-0.061606504
155	0x3e405f3d	0.1878633
156	0xbe76f235	-0.24115832
157	0x3d95bdf8	0.07311624
158	0x3bd93c90	0.006629534
159	0xbdc759fb	-0.09733959
160	0x3cab3849	0.020900862
161	0xbe3fd0f0	-0.18732047
162	0xbdb7216a	-0.0894192
163	0xbd2b60dc	-0.04184042
164	0x3cc52d34	0.024069406
165	0xbe1c84e1	-0.15285064
166	0x3c25030d	0.010071528
167	0x3e1aa617	0.15102421
168	0x3c73e6d7	0.0148865795
169	0x3abeb075	0.0014548438
170	0xbdf7d732	-0.12101592
171	0xbd7e3f66	-0.06207218
172	0xbcc65759	-0.024211572
173	0xbddf8cc8	-0.10915524
174	0xbe25bbd4	-0.16184932
175	0x3e30965f	0.17244862
176	0xbd9e65cd	-0.07734261
177	0x3dba4a20	0.090961695
178	0x3d2b711e	0.041855924
179	0xba19bd80	-0.00058647245
180	0x3e3b24a8	0.18275702
181	0xbda7a0a0	-0.08184934
182	0x3d7e902a	0.062149204
183	0x3db2c3f5	0.08728782
184	0x3d8d25b0	0.06891954
185	0x3df97c92	0.12181963
186	0xbe0c8db5	-0.13725932
187	0x3e40724f	0.18793605
188	0x3d607746	0.054801248
189	0xbd2af58e	-0.041738085
190	0xbd8629e0	-0.06550956
191	0xbc5c67d0	-0.013452485
192	0x3e2eac4e	0.17057917
193	0x3e491872	0.19638231
194	0x3e1ab96c	0.15109795
195	0x3c416955	0.011804898
196	0x3da2eae5	0.07954959
197	0xbd770612	-0.060308523
198	0x3dc62910	0.09675801
199	0x3c097697	0.00839009
200	0x3d5baf1b	0.05363379
201	0xbe2a799e	-0.16647956
202	0x3e154a75	0.14579184
203	0xbdcfceab	-0.10146841
204	0xbc065ebc	-0.008201297
205	0x3e2f1aa7	0.17100011
206	0xbe335022	-0.17511037
207	0x3d2e6061	0.042572383
208	0xbd9c7c35	-0.07640878
209	0x3d97aa19	0.074054904
210	0x3d7d1c2c	0.061794445
211	0xbe1ddbcb	-0.15415876
212	0xbc5e1736	-0.013555339
213	0xbda13e35	-0.07873193
214	0x3d4fc29c	0.050722703
215	0x3c822ea1	0.015891375
216	0xbdce7c5c	-0.100823134
217	0x3e5bfbc7	0.21482764
218	0x3e127e3f	0.14305972
219	0xbdc7d9c6	-0.09758334
220	0xbda8dff7	-0.08245843
221	0x3dda8716	0.10670297
222	0xbdd3fd58	-0.10351056
223	0xbe13cb66	-0.14433059
224	0xbe1e8bdb	-0.15483038
225	0xbd3e223b	-0.046419363
226	0x3dcaaa37	0.09895747
227	0x3e19c3ea	0.15016142
228	0x3c91409e	0.017731007
229	0x3e05f594	0.13081962
230	0xbd0398d8	-0.032128185
231	0x3dbe8c01	0.093040474
232	0xbb7e05da	-0.0038760812
233	0x3d9108bb	0.07081743
234	0xbdb5dcc4	-0.08879998
235	0x3de79549	0.11307771
236	0x3d015528	0.031575352
237	0x3e0dc89b	0.13846056
238	0x3e1c70aa	0.15277353
239	0xbc89a728	-0.01680334
240	0xbda94c15	-0.082664646
241	0xbe1fcafe	-0.15604779
242	0xbcdbf46a	-0.026849944
243	0x3c74ec85	0.014948969
244	0x3e073dc9	0.13207163
245	0xbdcf37ea	-0.10118087
246	0xbe23df62	-0.16003183
247	0xbe8314f3	-0.2560192
248	0xbdbf6e54	-0.09347215
249	0xbe0859c6	-0.13315496
250	0xbc36b3af	-0.011151238
251	0xbc982fb6	-0.018577438
252	0xbcca7830	-0.024715513
253	0x3daa6e69	0.0832184
254	0x3da1b1a6	0.07895212
255	0xbd11e866	-0.035622023

bias f4 [32]
0	0x3e25bc35	0.16185077
1	0xbebd23e6	-0.3694145
2	0xbc756160	-0.014976829
3	0x3e0ff0ae	0.14056656
4	0xb9418ecd	-0.00018459112
5	0xbdc2d3d9	-0.09513063
6	0x3cfe8330	0.031068414
7	0xbda7e6c6	-0.081983134
8	0x3dc67a6f	0.09691321
9	0xbe57a029	-0.2105719
10	0xbe4a1fb5	-0.19738658
11	0xbd99782e	-0.074936256
12	0x3e1e258c	0.1544401
13	0x3bebf030	0.0072002634
14	0xbe5e273f	-0.21694659
15	0x3e96c6ed	0.29448643
16	0x3c87d416	0.016580623
17	0x3ddb3e60	0.107052565
18	0xbe620409	-0.22071852
19	0xbd7afc81	-0.061275963
20	0xbdc4eed7	-0.096158676
21	0x3d40b7af	0.047050174
22	0xbe7cf0b3	-0.24701194
23	0xbe57d02f	-0.2107551
24	0x3d6a173f	0.057151075
25	0xbecbb645	-0.39787498
26	0xbca0607a	-0.019577254
27	0xbdab9738	-0.08378452
28	0x3eca74c3	0.39542207
29	0xbc02d446	-0.00798518
30	0xbe09abd1	-0.13444449
31	0xbe074037	-0.1320809

weight f4 [32, 32, 5, 5]
0	0x3c2c2550	0.010506943
1	0x3d3a8a68	0.04554215
2	0xbb9bda5a	-0.004756254
3	0xbd4b66fc	-0.04965876
4	0xbc8ced53	-0.017203009
5	0xbcd80528	-0.026369646
6	0x3d94b6ad	0.07261405
7	0x3d2bf390	0.041980326
8	0x3b036868	0.0020051245
9	0xbcca3b99	-0.024686622
10	0xbb0fd49c	-0.0021946793
11	0x3cbb5060	0.022865474
12	0x3d3f1361	0.04664934
13	0x3d4269dc	0.047464237
14	0xbcf63de6	-0.030058812
15	0xbd1014c3	-0.03517605
16	0xbc965424	-0.018350668
17	0x3cbdee0f	0.023184804
18	0x3daaa656	0.08332507
19	0x3d852cd0	0.06502688
20	0xbcfd8e09	-0.030951517
21	0xbccc645e	-0.024950203
22	0xbc9b41b0	-0.01895222
23	0x3dafcd50	0.08584082
24	0x3dab291b	0.083574496
25	0x3b80262a	0.0039107995
26	0xbc4d01c8	-0.012512632
27	0x3d09a7f8	0.033607453
28	0x3c362760	0.011117786
29	0x3b2f3b5c	0.0026738262
30	0x3cda7efc	0.026671879
31	0xbbdacc7e	-0.0066772094
32	0xbc964c6f	-0.018346993
33	0x3ca8b81f	0.020595608
34	0x3d0f0426	0.034916066
35	0x3d6baa4e	0.057535462
36	0x3d002408	0.031284362
37	0xbd8cc252	-0.06873001
38	0xbd789ec7	-0.060698297
39	0x3d50f36e	0.051013403
40	0x3d6bbf20	0.057555318
41	0x3c389dde	0.011268107
42	0xbcf1240e	-0.029436138
43	0xbda1a11a	-0.07892056
44	0xbd24cc8e	-0.04023414
45	0x3d9e11ce	0.0771824
46	0x3c988bb4	0.018621303
47	0x3d2bc348	0.04193428
48	0x3d2c7e44	0.042112604
49	0xbc89f086	-0.016838323
50	0x3c30cdcb	0.010791252
51	0xbd2eb046	-0.042648576
52	0xbd161993	-0.036645483
53	0xbc01aee4	-0.007915232
54	0xbd639420	-0.055561185
55	0xbd2a2f94	-0.04154928
56	0xbd557cd9	-0.052121017
57	0xbc407b65	-0.01174817
58	0xbd3cea46	-0.046121858
59	0xbcfee246	-0.031113755
60	0x3b753d29	0.0037420487
61	0xbd1185f4	-0.03552814
62	0xbd90b642	-0.07066013
63	0x3c2a5fe2	0.010398837
64	0x3ca1a9e4	0.01973433
65	0x3d0cb134	0.03434868
66	0xbd10b31a	-0.035327055
67	0xbd68abbd	-0.056804407
68	0xbc90206b	-0.017593583
69	0x3ca5bf04	0.020232685
70	0xbc9eec2c	-0.019399725
71	0x3c8e9e69	0.01740952
72	0x3b8c7618	0.004286539
73	0x3bc89c80	0.006122172
74	0xbd009068	-0.031387717
75	0x3b787509	0.0037911555
76	0x3cafb0e2	0.021446649
77	0x3d810d5f	0.063013785
78	0x3c58bd91	0.01322879
79	0xba2177b7	-0.00061595015
80	0xbd36fdb3	-0.04467554
81	0xbce6918d	-0.028145576
82	0x3ba46fc9	0.0050182086
83	0x3da39807	0.07987981
84	0x3c20ebe9	0.00982187
85	0xbc5ba27b	-0.013405438
86	0xbc8f32a3	-0.0174802
87	0xbcb866d7	-0.022509975
88	0xbbe35abe	-0.0069383075
89	0x3db5940b	0.088661276
90	0x3c8eb4c2	0.017420176
91	0xbd01a72f	-0.03165358
92	0xbd9bcf00	-0.076078415
93	0xbafc242f	-0.0019236858
94	0x3d479701	0.048727993
95	0xbc878e78	-0.016547427
96	0x3c67d48a	0.014149794
97	0xbcb553fb	-0.022134772
98	0xbd7ddd78	-0.061978787
99	0x3ca02a0d	0.019551301
100	0x3ced0e68	0.028937533
101	0x3cefdac3	0.029279118
102	0xbd26ee24	-0.040754452
103	0xbd0c8ef2	-0.03431601
104	0xbd296dc7	-0.041364457
105	0xbc704f34	-0.014667321
106	0xbc3bb497	-0.01145663
107	0xbc5d008d	-0.013488901
108	0xbc86aace	-0.016438868
109	0x3d1349bb	0.035958987
110	0xbc38cb10	-0.011278883
111	0x3c6bd03b	0.014392908
112	0xbcba488f	-0.022739677
113	0xbc20aae6	-0.00980637
114	0x3c82b414	0.015955009
115	0x39e7fb92	0.00044247188
116	0x3bfd0758	0.0077218227
117	0xbcebc05a	-0.028778244
118	0x3c9ba876	0.019001227
119	0x3d723503	0.059132587
120	0xbd1aed3a	-0.037823893
121	0xbb9b0450	-0.0047307387
122	0x3d1e6433	0.038669776
123	0x3cb54ca8	0.02213128
124	0x3c8c45cc	0.017123125
125	0xba30c674	-0.0006743439
126	0xbcbdbbdf	-0.023160873
127	0xbc848bf0	-0.016180009
128	0xbc70051c	-0.014649656
129	0x3c7f91d4	0.015598733
130	0x3cdf53d4	0.027261652
131	0xbd1242c1	-0.035708193
132	0x3b8816ef	0.0041531245
133	0xbc951cfe	-0.018202301
134	0xbcf0351d	-0.029322201
135	0xbc7ca50f	-0.015420212
136	0xba411e9c	-0.0007366927
137	0xbd49c291	-0.04925782
138	0xbc720eaf	-0.014774009
139	0xbc1ee220	-0.009697467
140	0xbccb3c01	-0.024808886
141	0xbda79b77	-0.081839494
142	0xbdaca67d	-0.084301926
143	0x3bab1af5	0.0052217194
144	0x3cd1627e	0.02555966
145	0xbd29031c	-0.04126273
146	0xbc187cbd	-0.009307084
147	0xbcdd1484	-0.026987322
148	0xbd119179	-0.035539124
149	0x3cb2f9fa	0.021847714
150	0xbce972b0	-0.02849707
151	0xbc1dda74	-0.009634603
152	0xbcbe583d	-0.023235435
153	0xbd17e4ee	-0.03708356
154	0xbd709240	-0.058733225
155	0xbd1fa324	-0.038973942
156	0xbd6f9ff7	-0.058502164
157	0xbd5659a0	-0.052331567
158	0xb998f735	-0.00029175883
159	0xbd46e900	-0.04856205
160	0xbb984803	-0.0046472563
161	0xbd5c704b	-0.05381803
162	0xbd214f28	-0.03938213
163	0x3ce78c1d	0.028265053
164	0xbd43048b	-0.047611754
165	0xbd780805	-0.060554523
166	0xbd515cf3	-0.051114034
167	0xbd78b832	-0.060722537
168	0x3c3576e7	0.011075712
169	0xbb812992	-0.003941723
170	0xbcd5473a	-0.02603494
171	0xbd56ebe0	-0.05247104
172	0xbd1b31d4	-0.037889317
173	0xbcae3f86	-0.021270525
174	0xba9bf589	-0.0011898737
175	0xbbb4b96c	-0.005515268
176	0xbb22a811	-0.0024819414
177	0xbd638e21	-0.055555467
178	0x3b9e30a0	0.004827574
179	0x3d636fe8	0.055526644
180	0x3cafc1ec	0.021454774
181	0x3c00e914	0.00786807
182	0xbd0fee45	-0.03513934
183	0x3ce2f6ca	0.027705569
184	0x3d867868	0.065659344
185	0x3d0ff041	0.035141233
186	0x3d55614d	0.052094746
187	0x3b195493	0.0023396357
188	0xbd5abaf4	-0.05340095
189	0x3bcdc720	0.006279841
190	0x3d2ba0b5	0.04190131
191	0x3db0072b	0.08595117
192	0x3d8c01f8	0.06836313
193	0xbd0ff094	-0.035141543
194	0xbc9d53a7	-0.019204928
195	0xbd045439	-0.032306883
196	0x39a8a095	0.000321631
197	0x3d5fa71b	0.054602724
198	0xbc449001	-0.011997224
199	0x3ba725f2	0.005100959
200	0x3c701f3f	0.014655887
201	0x3cf76112	0.030197654
202	0x3cca9754	0.024730362
203	0x3cbdf9ce	0.023190405
204	0x3b90c170	0.004417591
205	0xbd3f46a6	-0.046698235
206	0xbc4bb99f	-0.012434392
207	0x3d0aa782	0.033851154
208	0x3c0dc9f9	0.008654111
209	0x3c388a3a	0.0112634245
210	0xbd283c91	-0.041073386
211	0xbc394ff3	-0.011310565
212	0x3d0f1e38	0.03494093
213	0x3d2250b4	0.039627746
214	0xbd1991e4	-0.037492648
215	0xbd2e5b98	-0.04256782
216	0x3be55bdd	0.0069994763
217	0x3d615ced	0.05502026
218	0x3daf79df	0.08568167
219	0x3cabd0db	0.020973613
220	0xbca993d7	-0.020700378
221	0xbd231cd2	-0.039822407
222	0x3c2e4ed3	0.01063891
223	0x3da2c3cd	0.07947502
224	0x3cef5dde	0.029219564
225	0x3cbc0136	0.022949796
226	0x3ba654f2	0.0050760442
227	0x39c3c72d	0.00037341696
228	0x3c91c755	0.017795244
229	0x3b623a5b	0.0034519646
230	0xb97c0693	-0.00024035042
231	0xbc127d91	-0.00894107
232	0x3b5fc328	0.0034143422
233	0x3d2f3f99	0.04278526
234	0x3d4219ae	0.04738777
235	0x3d414a00	0.047189713
236	0x3c70f500	0.01470685
237	0xbd2ab27b	-0.04167412
238	0x3cb1887e	0.02167153
239	0x3d3dbec2	0.0463245
240	0xbc8a172c	-0.016856752
241	0xbc0dd9e8	-0.00865791
242	0xbd5dac01	-0.054119114
243	0xbbeb06c8	-0.0071724392
244	0x3ab251dc	0.0013604718
245	0x3cebaf64	0.028770156
246	0x3cdb3920	0.026760638
247	0xbd0cd33c	-0.034381136
248	0xbd6b709b	-0.057480436
249	0xbc0984bc	-0.008393463
250	0x3ad81475	0.0016485589
251	0xbc8f0f44	-0.017463334
252	0x3ca2dedd	0.01988166
253	0x3d591ed3	0.053007912
254	0x3d1912f5	0.037371594
255	0xbc0eec38	-0.008723311

bias f4 [32]
0	0xbe04d852	-0.12973145
1	0xbe107337	-0.14106451
2	0xbde3a6f9	-0.11115832
3	0xbd19d727	-0.0375587
4	0x3d3d868d	0.046270896
5	0xbe602195	-0.2188781
6	0xbe5cd581	-0.2156582
7	0xbb995b69	-0.0046800864
8	0xbce8eb29	-0.028432446
9	0xbd260dab	-0.04054038
10	0x3c3bdb9d	0.011465934
11	0xbd3fa293	-0.046785902
12	0xbd0eb418	-0.03483972
13	0xbde7b2ed	-0.11313424
14	0xbe098a7a	-0.13431731
15	0xbdc69816	-0.09696977
16	0xbda33d94	-0.079707295
17	0xbde35880	-0.111008644
18	0xbb63166c	-0.0034650816
19	0x3b434db7	0.002980096
20	0x3d6b6229	0.05746666
21	0xbd8514d9	-0.06498117
22	0xbd8f5cff	-0.070001595
23	0xbe16d40d	-0.14729328
24	0x3ca45616	0.02006058
25	0xbd16ec5e	-0.03684651
26	0x3cefba56	0.029263657
27	0xbdb9ae1a	-0.0906641
28	0xbdb3cd98	-0.08779448
29	0x3db8e260	0.090275526
30	0xbe00ca1e	-0.12577102
31	0x3cf09cf4	0.029371716

weight f4 [64, 32, 5, 5]
0	0xbbe3b10d	-0.0069485963
1	0x3c70f450	0.014706686
2	0xbd38d899	-0.04512844
3	0xbd170050	-0.036865532
4	0xbb807c9e	-0.0039211055
5	0xbbeb0789	-0.007172529
6	0x3d265dd1	0.040616814
7	0xbd1969f9	-0.03745458
8	0xbd3df834	-0.046379283
9	0x3ceabc7c	0.02865433
10	0xbda7349e	-0.08164333
11	0xbcf4722c	-0.029839598
12	0xbd6c79c8	-0.057733327
13	0xbd0dded4	-0.034636334
14	0x3b96ef84	0.004606189
15	0xbd2964f1	-0.04135603
16	0xbc60f533	-0.013730335
17	0xbd2629c0	-0.04056716
18	0x3cb3f66e	0.021968093
19	0x3cd9a8cb	0.026569745
20	0xbd3d8f0c	-0.046279
21	0xbd0e59a1	-0.034753446
22	0x3bffcb5f	0.007806226
23	0xbc41d380	-0.011830211
24	0x3b84ac42	0.004048855
25	0x3ba87a7c	0.0051415544
26	0xbd45d05d	-0.048294414
27	0xbba06b9a	-0.0048956396
28	0x3cc4b29c	0.024010949
29	0x3ccd0eb1	0.02503142
30	0xbc8d0177	-0.017212613
31	0xbd18daea	-0.037318148
32	0xbd357231	-0.044298355
33	0x3d27abb3	0.04093523
34	0x3c8aa78c	0.016925596
35	0xbcadd9a5	-0.021221945
36	0xbca0e2fe	-0.019639488
37	0xbc039e6a	-0.008033374
38	0x3c6d941b	0.014500643
39	0x3d6c4d1c	0.057690725
40	0xbcf5f035	-0.030021766
41	0xbd685166	-0.056718253
42	0xbcf62a0f	-0.030049352
43	0x3aa31d06	0.0012444563
44	0x3cf943e8	0.030427888
45	0x3cd4ca0b	0.025975248
46	0x3b70f34c	0.003676611
47	0x3b9b0d07	0.0047317776
48	0x3c85feae	0.016356792
49	0xbbbcc79b	-0.0057610995
50	0xbd198c40	-0.03748727
51	0xbb281b2a	-0.0025650957
52	0xbd123b40	-0.035701036
53	0x3beabda0	0.0071637183
54	0xbbe25a88	-0.006907765
55	0x3d1265de	0.03574168
56	0xbd1c4caf	-0.03815907
57	0xbb1a3a9e	-0.0023533474
58	0x3cc31573	0.023813939
59	0x3b900b28	0.004395861
60	0xbd502c9a	-0.050823785
61	0xbd38aaba	-0.045084693
62	0x3b10fe2d	0.0022124157
63	0x3d720d92	0.059094973
64	0x3d22163c	0.039571986
65	0xbb8f27be	-0.0043687513
66	0xbd068b45	-0.03284766
67	0xbbb5d1cb	-0.005548691
68	0x3d5752f1	0.052569333
69	0x3c8c74de	0.01714557
70	0xbd21a353	-0.0394624
71	0x3c0599d8	0.008154355
72	0x3d495494	0.049152926
73	0x3c91a26c	0.017777644
74	0xbcb91274	-0.022591807
75	0x3b2ffa8a	0.0026852214
76	0x3c5f4010	0.0136261135
77	0xbd87c4fc	-0.06629369
78	0x3c9e4143	0.019318229
79	0x3cb8df9f	0.022567568
80	0x3d3363a0	0.04379618
81	0xbbf9e339	-0.007625964
82	0xbd5b192e	-0.05349081
83	0x38d202f6	0.00010014132
84	0xbcb46603	-0.0220213
85	0x3c83ebc2	0.016103629
86	0xbd8a78bd	-0.0676131
87	0xbd31fa91	-0.04345185
88	0x3c86a8e6	0.016437959
89	0x3d16fbb9	0.036861155
90	0xbd1331d9	-0.03593621
91	0xbc80bafc	-0.015714161
92	0xbd09b093	-0.03361566
93	0xbcc7c8ba	-0.024387706
94	0xbc50723f	-0.012722551
95	0x3ca2aabb	0.019856801
96	0xbc01adad	-0.007914943
97	0x3ca7bbd8	0.020475313
98	0x3d0f4ee8	0.03498736
99	0xbcc663d1	-0.024217518
100	0xbcbeba9c	-0.023282342
101	0xbb94cf71	-0.0045413305
102	0x3c93c2ce	0.018037226
103	0x3cf27f6b	0.029601773
104	0x3c2170bd	0.009853539
105	0xbb2ea045	-0.002664582
106	0xbb573bcf	-0.0032842045
107	0xbb1dfca9	-0.0024106896
108	0x3b277b31	0.0025555606
109	0xbc90b59f	-0.017664729
110	0xbc8b94bc	-0.017038696
111	0x3d0b6087	0.034027603
112	0xbb1fddf7	-0.0024393776
113	0x3d58b768	0.052909285
114	0x3c9a853a	0.018862356
115	0xb80747c9	-3.2253363e-05
116	0xbcac352c	-0.021021448
117	0xba8f8f9f	-0.0010952837
118	0xbc0fc97b	-0.008776064
119	0xbc7490c4	-0.014927093
120	0x3caf8c43	0.021429187
121	0x3d50ffa6	0.051025055
122	0xbbafb965	-0.005362677
123	0x3ca5202a	0.020156939
124	0x3bdc5b38	0.0067247413
125	0xbd13c522	-0.036076672
126	0xbd273165	-0.04081859
127	0x3c6a5c79	0.014304274
128	0x3c5063ff	0.012719153
129	0xbc8bbebc	-0.017058723
130	0xbcb03da8	-0.021513775
131	0x3d1528d0	0.036415875
132	0x3cc74fc8	0.024330035
133	0x3d1524a5	0.0364119
134	0x3ce0acf4	0.02742622
135	0xbb7127fc	-0.0036797514
136	0xbcea7f1f	-0.02862507
137	0x3c8011db	0.015633514
138	0x3db176ed	0.086652614
139	0x3cab0979	0.02087854
140	0xbaec4bcc	-0.001802796
141	0x3c728adc	0.0148036145
142	0x3c8e2269	0.017350392
143	0x3bd16b1b	0.006390942
144	0x3ca657ad	0.020305479
145	0x3c9d716f	0.019219128
146	0xbc52bd32	-0.0128624905
147	0x3cf0a2de	0.029374536
148	0xbb01882e	-0.0019765007
149	0x3cecd488	0.028909937
150	0xbc3b50ba	-0.011432821
151	0x3c973994	0.018460073
152	0xbc603df4	-0.013686646
153	0x3ce0d57a	0.027445544
154	0x3b352ea5	0.002764621
155	0x3cf5ebfa	0.030019749
156	0xb983bee5	-0.00025128495
157	0x393baf2b	0.00017898965
158	0x3c6d90c1	0.014499844
159	0x3d4cd178	0.050004452
160	0x399a6ad3	0.0002945276
161	0x3c12b40a	0.0089540575
162	0x3bd227bd	0.0064134286
163	0x3ceed636	0.029154878
164	0x3d0aa293	0.03384645
165	0x3c2fc3fd	0.01072788
166	0xbc94af20	-0.018149912
167	0xbcb5d266	-0.022195052
168	0xbc2d7669	-0.010587313
169	0xbbc0bd48	-0.005881939
170	0x3c8afa8f	0.016965179
171	0x3c709519	0.014683985
172	0x3d1121b6	0.03543254
173	0x3cd510f9	0.02600907
174	0x3d5415ac	0.05177848
175	0xbbb26594	-0.005444238
176	0x3c36bdb8	0.011153631
177	0x3c5a3041	0.013317169
178	0xbd132437	-0.03592321
179	0xbd327722	-0.043570645
180	0xbd87a0de	-0.0662248
181	0x3c8489f7	0.016179068
182	0x3d272d82	0.040814884
183	0x3bc29e3a	0.005939272
184	0xbb6d8d9d	-0.0036247738
185	0xbd8d920c	-0.06912622
186	0xbb4dd8f8	-0.003140984
187	0xbd2e29e8	-0.042520434
188	0xbcbb6563	-0.022875493
189	0x3c123dfe	0.008925913
190	0xbbd25954	-0.00641934
191	0x3c244a35	0.010027458
192	0x3d65729d	0.056017507
193	0xbc9bba2c	-0.019009672
194	0xbb22c633	-0.0024837374
195	0xbc981845	-0.01856626
196	0x3bdf1465	0.006807851
197	0x3c7e1049	0.015506812
198	0x3cc7be4b	0.024382731
199	0x3d00e763	0.031470668
200	0x3b658533	0.003502202
201	0x3d3de2c9	0.046358857
202	0x3c3c4325	0.011490618
203	0xbc8b6470	-0.017015666
204	0xbd0b715e	-0.034043662
205	0xbc68a244	-0.014198843
206	0x3d1d5a5b	0.038416248
207	0xbd18bd0e	-0.03728967
208	0xbce621af	-0.028092233
209	0xbc277f6a	-0.010223249
210	0x3be18d24	0.0068832804
211	0x3d301a71	0.042993966
212	0xbd68fe5d	-0.056883205
213	0xbc3c9b6a	-0.011511663
214	0xbced75c8	-0.028986827
215	0xbc21174d	-0.0098322155
216	0x3da37fdb	0.07983371
217	0x3d6033be	0.054736845
218	0x3bd836ed	0.0065983445
219	0x3c27acd0	0.010234073
220	0xbc863ab4	-0.016385414
221	0x3d1613cd	0.036639977
222	0x3bf8c8f4	0.007592315
223	0xbc783650	-0.015149668
224	0x3c995460	0.018716991
225	0x3c9d4965	0.019200036
226	0x3d1ad073	0.03779645
227	0x3c8ae3ae	0.01695427
228	0x3ca68fd0	0.020332247
229	0x3c117275	0.008877386
230	0x3bb26fa3	0.005445437
231	0x3d01e1d8	0.031709522
232	0xbc26e746	-0.010186976
233	0xbcba7c1d	-0.02276426
234	0x3d1f4a39	0.038889144
235	0x3d3a5003	0.04548646
236	0xbd65df04	-0.056120887
237	0xbd2bf29c	-0.041979417
238	0xbd3e193b	-0.04641078
239	0xbd22dbb9	-0.039760325
240	0xbd05020b	-0.03247265
241	0x3c6b5503	0.01436353
242	0x3d16d9d7	0.036828842
243	0x3d743d04	0.0596285
244	0xbc90fd49	-0.0176989
245	0x3ca39168	0.019966796
246	0xbc2836a8	-0.010266937
247	0xba6710c1	-0.0008814447
248	0xbd41c563	-0.047307383
249	0xbc121176	-0.008915296
250	0xbd6a58d3	-0.057213616
251	0xbcf315d7	-0.0296735
252	0xbd52091c	-0.05127822
253	0x3d1b2758	0.037879318
254	0xbd0ee078	-0.03488204
255	0xbc8f4f52	-0.017493878

bias f4 [64]
0	0xbd8bf401	-0.068336494
1	0xbdcd5e2f	-0.1002773
2	0xbdaad8f4	-0.08342162
3	0xbc78d282	-0.015186908
4	0xbcf89a8b	-0.03034713
5	0xbdabae59	-0.083828636
6	0xbd18a188	-0.037263423
7	0xbc526ccf	-0.012843325
8	0xbd23e075	-0.04000898
9	0xbd257de8	-0.040403277
10	0xbdc5b3e5	-0.09653453
11	0xbd86473f	-0.06556558
12	0xbd69076d	-0.056891847
13	0xbd6755b1	-0.056478206
14	0xbd8fadfa	-0.07015605
15	0xbcd2da79	-0.025738942
16	0xbdbbd6ca	-0.09171827
17	0xbd893928	-0.06700355
18	0xbd82663c	-0.06367156
19	0xbd8ec69e	-0.06971477
20	0xbd86963b	-0.06571623
21	0xbc9fe183	-0.019516712
22	0xbcb519e2	-0.022107068
23	0xbdd44fa8	-0.10366756
24	0xbd7e3138	-0.062058657
25	0xbbf05984	-0.00733489
26	0xbd862c5f	-0.06551432
27	0xbcc26183	-0.023728138
28	0xbd684134	-0.056702808
29	0xbd7d500a	-0.06184391
30	0xbc880791	-0.01660517
31	0xbce313f8	-0.027719483
32	0x3bb2f506	0.005461338
33	0xbcf8cd52	-0.030371342
34	0xbd8ea152	-0.06964363
35	0xbd2285df	-0.03967845
36	0xbcd207a2	-0.025638405
37	0xbd9d7dfe	-0.07690047
38	0xbd8b35e0	-0.06797385
39	0xbdd1f6cd	-0.10252152
40	0xbda70420	-0.08155084
41	0xbd86a7c1	-0.06574965
42	0x3d31e5c1	0.043432
43	0xbc056ba7	-0.008143342
44	0xbd1561ef	-0.03647035
45	0xbc5d0257	-0.013489327
46	0xbce5a980	-0.028034925
47	0xbda7468e	-0.08167754
48	0xbcd2af5c	-0.025718383
49	0xbca33838	-0.019924268
50	0xbdbbda71	-0.09172524
51	0xbdaef4e5	-0.08542804
52	0xbd566fd7	-0.052352753
53	0xbde9580c	-0.11393747
54	0x3c46ac13	0.012125987
55	0x3c95a461	0.018266859
56	0x3cdadbaa	0.026716072
57	0xbdbff414	-0.09372726
58	0x3cca1118	0.024666354
59	0xbdbd195a	-0.09233351
60	0xbd88b610	-0.06675351
61	0xbce0b1e8	-0.027428582
62	0xbca89543	-0.020578986
63	0xbb710e98	-0.003678238

weight f4 [64, 1024]
0	0xbd55e5bf	-0.052221056
1	0x3bd2851c	0.0064245593
2	0x3c922cd3	0.01784364
3	0x3c02ead2	0.007990556
4	0xbbf7daa6	-0.0075639067
5	0x3cfb6cdb	0.030691555
6	0x3cae368b	0.021266242
7	0xbc95c626	-0.018282961
8	0xbc6b14d4	-0.0143482275
9	0x3acf0eae	0.0015797222
10	0x3d3b865f	0.045782443
11	0xbc62e9a0	-0.013849646
12	0xbd0fa6f5	-0.035071332
13	0xbd651357	-0.055926647
14	0xbbb46f64	-0.005506443
15	0xbd25b174	-0.040452436
16	0xbcaaf58c	-0.020869039
17	0x3cbe0e1c	0.023200087
18	0xbcd0625c	-0.025437526
19	0xbab070b8	-0.0013461327
20	0xbaf580f8	-0.0018730452
21	0xbc212e85	-0.009837751
22	0xbcf37c6a	-0.029722411
23	0xbc21a417	-0.009865782
24	0xbc98fb73	-0.018674588
25	0x3cc3acee	0.02388617
26	0xbcfce22d	-0.030869568
27	0x3d4e771b	0.050406557
28	0x3c5665bc	0.013085779
29	0x3badc58f	0.005303092
30	0x3cb0343b	0.02150928
31	0xbc9d41d8	-0.019196436
32	0x3c4b7917	0.012419007
33	0x3ab03185	0.0013442492
34	0xbd07f0cc	-0.033188626
35	0xbc677cd8	-0.014128886
36	0xbd01f704	-0.031729713
37	0x3c649f8c	0.013954055
38	0x3cad2f30	0.021140665
39	0x3cfdff2b	0.031005463
40	0xbc95768b	-0.018245002
41	0xbd189e2f	-0.03726023
42	0xbd12f8cd	-0.035881806
43	0xbc711b3b	-0.014715965
44	0x3ba40352	0.0050052786
45	0x3d06c2fc	0.032900795
46	0x3c814531	0.015780063
47	0xbc564d0f	-0.013079896
48	0xbc7eff54	-0.015563805
49	0xbd095d1a	-0.033536054
50	0xbc9cfe6e	-0.01916429
51	0xbcbcef60	-0.023063362
52	0xbd05a62a	-0.03262917
53	0xbc763ea9	-0.015029588
54	0x3cbd0ddd	0.0230779
55	0x3b13ca44	0.002255098
56	0xbcfc0df3	-0.03076837
57	0x3cdb2f6b	0.02675601
58	0x3cfeafac	0.031089626
59	0x3d178d3b	0.036999922
60	0x3c5fc419	0.013657593
61	0x3d1dd262	0.038530715
62	0x3d9fea83	0.078084014
63	0x3d0c76c1	0.03429294
64	0x3c72e604	0.014825348
65	0xba6bd68b	-0.0008996508
66	0x3ca57052	0.02019516
67	0x3d0de620	0.034643292
68	0xbcbd26b4	-0.023089744
69	0xbc0b1653	-0.008489209
70	0x3c8d24db	0.017229488
71	0x3d7f1f4e	0.062285714
72	0x3b950197	0.0045473087
73	0x3d677b03	0.056513797
74	0x38e6c44b	0.00011003817
75	0x3c58d277	0.0132337725
76	0xbc8194a7	-0.015817953
77	0x3ca8a275	0.020585278
78	0xbc4429ef	-0.011972888
79	0x3b08f733	0.0020899295
80	0xbc8e10b6	-0.017341953
81	0x3d24f292	0.040270396
82	0x3c3ffdd0	0.011718228
83	0xbca65b7a	-0.020307291
84	0xbc7665c0	-0.0150389075
85	0xb9123d27	-0.00013946426
86	0x3ce541e1	0.027985515
87	0x3bea1ea0	0.007144764
88	0x3b3c1905	0.0028701436
89	0x3cd41348	0.0258881
90	0xbca09575	-0.019602517
91	0xba0a1829	-0.00052678824
92	0x3d3a9cbb	0.045559626
93	0x3d13854f	0.036015805
94	0x3d1b76ca	0.037955083
95	0x3cd920fa	0.026504982
96	0xbc138d96	-0.009005925
97	0xbca3c4f1	-0.01999137
98	0xbbc4ecf3	-0.006009692
99	0x3c7f8eb8	0.015597992
100	0xbac05fc1	-0.0014676974
101	0xbc3e8b2b	-0.01162986
102	0xbcaa3c74	-0.02078078
103	0xbcac9f3a	-0.021072019
104	0x3d0d01e7	0.034425642
105	0x3d4bb987	0.04973748
106	0xbbbea041	-0.0058174436
107	0x3d6a0daf	0.057141956
108	0xbc977e9a	-0.018492986
109	0x3ca1050b	0.019655725
110	0x3d0017f8	0.03127286
111	0x3cc0b9fa	0.02352618
112	0x3b7b59d6	0.0038353107
113	0xbd5355cd	-0.051595498
114	0xbc2c71df	-0.010525196
115	0x3d3d8390	0.046268046
116	0x3cbc4bd3	0.022985375
117	0xbc8193a2	-0.015817467
118	0x3d3fd950	0.046838105
119	0x3d19ac2c	0.03751771
120	0xbb559fcc	-0.0032596467
121	0xbccf33c2	-0.025293235
122	0x3d24f4fc	0.040272698
123	0x3d2b3977	0.04180285
124	0x3d5d8bc5	0.054088373
125	0xbb8a199c	-0.0042144787
126	0x392418cf	0.000156495
127	0x3c828fed	0.01593777
128	0xbc2c18df	-0.010503977
129	0xbb85d865	-0.004084634
130	0x3cf1f047	0.029533518
131	0xbc296d6e	-0.0103410315
132	0x3d15fccc	0.03661804
133	0x3c0578fd	0.008146522
134	0x3d3a5d45	0.045499105
135	0x3d1b8252	0.03796608
136	0x3d4135f5	0.047170598
137	0x3d7b1320	0.061297536
138	0x3ce5897e	0.028019663
139	0x3d4f4064	0.050598517
140	0xbcdd791f	-0.027035294
141	0xbab5b912	-0.0013864359
142	0xbba7f6f9	-0.005125877
143	0xbc8da9e2	-0.01729292
144	0x3c725539	0.0147908265
145	0xbc1fc6f6	-0.009752026
146	0x3c93125c	0.01795309
147	0xbbfdc5dc	-0.007744534
148	0x3c8a1d19	0.016859578
149	0x3d0f21ae	0.03494423
150	0x3d8600d4	0.06543127
151	0x3d109a6d	0.035303522
152	0x3cab30e6	0.02089734
153	0x3d9216dd	0.07133267
154	0x3cf8065e	0.030276474
155	0x3b40bf9f	0.002941109
156	0xbd0f6cb7	-0.035015788
157	0xbbe93629	-0.007117052
158	0xbcbcb99f	-0.02303773
159	0xbcf09070	-0.029365748
160	0x3cc727ca	0.024310965
161	0xbc38882b	-0.011262934
162	0xbd235f0a	-0.03988556
163	0x3b703fba	0.0036659078
164	0x3d0711bb	0.032975893
165	0xbc91c1a7	-0.017792536
166	0xbbb1026c	-0.0054019
167	0x3d83d206	0.06436543
168	0x3d1d20b5	0.03836127
169	0xbcc33a80	-0.023831606
170	0x3c4e522f	0.012592836
171	0x3d4b45a7	0.049626973
172	0xbbddb561	-0.006766007
173	0xbd1d1492	-0.038349696
174	0x3ad60463	0.0016328212
175	0x3cb51df6	0.022109013
176	0x3c8e89bc	0.017399661
177	0x3bc39646	0.0059688417
178	0xbcf88345	-0.030336032
179	0xbc5cbcb7	-0.0134727275
180	0xbcdaa24c	-0.026688717
181	0x3c09ecf8	0.008418314
182	0xbccfa16e	-0.02534553
183	0xbca414d8	-0.02002947
184	0xbbe90394	-0.0071110222
185	0x3bf5cee3	0.0075014695
186	0xbd21a07b	-0.039459687
187	0xbacc85c6	-0.0015603832
188	0x3c36776c	0.011136871
189	0x3cd0dcc5	0.025495896
190	0x3d61a13f	0.055085417
191	0x3d01118e	0.031510882
192	0x3bea5078	0.007150706
193	0xbd3e8826	-0.04651656
194	0x3ab2ebd5	0.0013650606
195	0xbc804a1f	-0.015660344
196	0x3c88dc91	0.016706737
197	0xbd3a77f2	-0.045524545
198	0xbcb5e25b	-0.022202661
199	0xbc27d0bb	-0.010242636
200	0x3c3a70fa	0.011379475
201	0xbcbc7ef7	-0.02300976
202	0x3cd73d93	0.026274478
203	0x3c3c8cee	0.01150821
204	0x3d7d3a39	0.061823104
205	0xbcc02bea	-0.02345844
206	0x3b79f6f5	0.0038141583
207	0xbd00fc41	-0.031490568
208	0x3c33a4e8	0.01096461
209	0xbc961f32	-0.018325422
210	0xbc9c5ecd	-0.019088173
211	0x3be791df	0.0070669497
212	0x3a4e54d8	0.0007870919
213	0x3c877eed	0.016540015
214	0x3cb9d1a4	0.022682972
215	0x3c26fe82	0.010192515
216	0x3b71118e	0.0036784145
217	0x3cedb116	0.029015105
218	0x3c5dd037	0.013538412
219	0x3d6d966b	0.058004778
220	0xbd3dd059	-0.046341274
221	0xbd070111	-0.03296
222	0xbc27ee70	-0.010249719
223	0xbc4fbbcb	-0.012679051
224	0x3c9b75d8	0.01897709
225	0x3bccaebc	0.006246416
226	0x3d58ba60	0.052912116
227	0xb9bf6d51	-0.00036511806
228	0x3c9e7428	0.019342497
229	0x384cd9e2	4.884031e-05
230	0xbc36a71f	-0.011148243
231	0x3c6672f0	0.014065489
232	0x3c21580b	0.009847651
233	0xbd5b8127	-0.053589966
234	0x3c837ee2	0.016051713
235	0xbd6c1772	-0.057639547
236	0x3b339623	0.002740272
237	0xbcecd68b	-0.028910896
238	0x3c78da9d	0.01518884
239	0x3c370658	0.011170946
240	0x38027da8	3.111144e-05
241	0x3c7e2987	0.015512831
242	0x3c1fdf3c	0.009757813
243	0xbca0e2fe	-0.019639488
244	0xbbf61f3e	-0.0075110486
245	0xbc976eac	-0.01848539
246	0xbc3c2eb0	-0.011485741
247	0x3c6b05b3	0.0143446205
248	0x3c26b69e	0.010175375
249	0xbd236027	-0.03988662
250	0x3cd66e39	0.026175605
251	0xbb5c55ac	-0.00336204
252	0x3c45fb73	0.012083876
253	0x3ce35014	0.027748145
254	0xbb28ab18	-0.0025736745
255	0x3be02ab3	0.0068410276

bias f4 [64]
0	0xbc9d9164	-0.019234367
1	0x3b408619	0.0029376803
2	0xbcd36512	-0.02580503
3	0x3c5b2a4a	0.013376782
4	0xbc77446e	-0.0150919985
5	0x3d2525d2	0.04031927
6	0xbc86dbc9	-0.016462224
7	0xbc924d73	-0.017859196
8	0x3bebe86e	0.0071993386
9	0xbc0e72d5	-0.00869437
10	0xbcd039ac	-0.025418125
11	0xbd3c19a0	-0.045922875
12	0x3c8433b8	0.016137943
13	0x3d4e7ec6	0.05041387
14	0x3b340234	0.0027467133
15	0xbbc62865	-0.006047296
16	0x3cd05f6e	0.02543613
17	0x3c361c1b	0.011115099
18	0xbcc07e92	-0.023497853
19	0x3d0c2eb0	0.034224212
20	0xbd3a090b	-0.04541878
21	0x3c8e6979	0.017384278
22	0x3c9a0712	0.0188022
23	0xbcedc802	-0.029026035
24	0x3ce34c9f	0.027746497
25	0xbd0c6192	-0.034272738
26	0xb98ed8e8	-0.00027245958
27	0xbcdda559	-0.027056383
28	0x3d92e925	0.07173375
29	0x3ce74da7	0.02823527
30	0xbcde4dd0	-0.027136713
31	0x3ca2f10d	0.019890333
32	0xbd387799	-0.045035932
33	0x3d2775a3	0.04088367
34	0xbb8b7d99	-0.0042569158
35	0xbd383d73	-0.044980478
36	0xbcbe6554	-0.023241676
37	0x3ccc025c	0.024903469
38	0xbd3fced6	-0.046828113
39	0xbd4a8359	-0.04944167
40	0xbd5172cf	-0.05113488
41	0xbca57265	-0.02019615
42	0xbcffa6b4	-0.03120742
43	0xbd16700f	-0.03672796
44	0x3cad811d	0.02117973
45	0xbc152711	-0.009103552
46	0xbbca9c5c	-0.0061831903
47	0xbd0f3cd3	-0.034970116
48	0xbcf821bc	-0.030289523
49	0xbcf037d7	-0.029323502
50	0x3cfe0e78	0.031012759
51	0x3d83552d	0.0641273
52	0x3ca863d6	0.020555418
53	0xbb06cfe7	-0.0020570697
54	0xbb8cd643	-0.004298003
55	0xbb8b3c00	-0.004249096
56	0x3a11f771	0.00055681827
57	0xbd2b440f	-0.041812953
58	0xbd45ebc1	-0.048320536
59	0x3c7b7835	0.015348484
60	0x3d060904	0.03272344
61	0xbd389d3c	-0.045071825
62	0x3cbbfaab	0.022946676
63	0x3cfb2231	0.030655952

weight f4 [10, 64]
0	0x3d2b6891	0.04184777
1	0x3e47020c	0.19434375
2	0xbdec8f8d	-0.11550818
3	0xbd0561ff	-0.03256416
4	0xbe2c19c9	-0.16806711
5	0xbe577b1d	-0.21043058
6	0x3dc802b6	0.09766142
7	0x3e509c1c	0.20372051
8	0x3e4e3c5e	0.20140216
9	0x3d314504	0.04327871
10	0xbe5d8341	-0.216321
11	0x3e3dfcb5	0.18553431
12	0xbd98d059	-0.07461614
13	0x3d1e667f	0.038671967
14	0xbe81628a	-0.25270492
15	0x3e4fc28e	0.2028906
16	0x3e344c6b	0.17607276
17	0xbe74c86a	-0.23904577
18	0x3e3bcbc3	0.18339448
19	0xbe3b812f	-0.18310998
20	0x3cb9159d	0.022593314
21	0xbe3f38ae	-0.18673965
22	0xbc8fc9e4	-0.017552324
23	0x3e248593	0.1606658
24	0xbdf941c0	-0.12170744
25	0xbcfacc01	-0.030614855
26	0xbe246d77	-0.16057383
27	0xbdf34c02	-0.11879732
28	0xbe4e128c	-0.20124263
29	0xbcaac33f	-0.020845054
30	0xbd5947ea	-0.0530471
31	0x3d013ab1	0.031550113
32	0x3e855142	0.26038557
33	0xbe587a4e	-0.21140406
34	0xbdab0b8f	-0.08351814
35	0x3d081c58	0.033230156
36	0xbe30d1d5	-0.17267545
37	0xbdbb62ab	-0.09149679
38	0x3e86528c	0.26234853
39	0xbe566355	-0.2093633
40	0x3e66246b	0.2247483
41	0xbda5a484	-0.080880195
42	0x3dd0e282	0.10199453
43	0x3e14f397	0.14546047
44	0x3c43e9d5	0.011957605
45	0xbe4ee7c0	-0.20205593
46	0x3d73a113	0.059479784
47	0xbd9b28c9	-0.075761385
48	0x3e75ee15	0.24016602
49	0xbb3904e6	-0.002823168
50	0xbe57d45b	-0.21077101
51	0xbdd394fe	-0.103311524
52	0x3dd2c4b2	0.10291423
53	0xbccad522	-0.024759833
54	0x3df3f7d7	0.11912506
55	0x3cf06005	0.02934266
56	0x3cdaf67a	0.026728857
57	0x3e877b5f	0.26461312
58	0x3e03caee	0.1287038
59	0xbe7fb6e3	-0.2497211
60	0xbdfc4041	-0.12316943
61	0xba49a4a9	-0.0007692078
62	0xbdf42c79	-0.11922545
63	0x3d3a60e6	0.045502566
64	0x3e102c21	0.14079334
65	0xbd490518	-0.049077123
66	0x3e05bee7	0.13061105
67	0xbe563d8c	-0.20921916
68	0xbca3d82e	-0.020000543
69	0x3d72f611	0.0593167
70	0xbda570d1	-0.08078159
71	0xbe6aff83	-0.22949032
72	0xbe7e3d0f	-0.2482798
73	0xbc60c40b	-0.013718615
74	0xbe7d2b1a	-0.24723473
75	0xbe1e7bbd	-0.1547689
76	0xbdb7df1a	-0.089781
77	0xbe2fddbf	-0.17174433
78	0x3e841d46	0.25803584
79	0xbda02d5d	-0.07821152
80	0xbda865c7	-0.082225375
81	0x3e7bb23e	0.24579713
82	0x3da3b3c9	0.07993276
83	0xbe23e151	-0.1600392
84	0xbe0ebda3	-0.13939528
85	0xbe026773	-0.12734775
86	0xbd34b04a	-0.044113435
87	0x3e4b756f	0.19869016
88	0x3ec16dec	0.37779176
89	0x3e79b0fc	0.2438392
90	0x3e39a163	0.1812797
91	0x3d7016b6	0.05861541
92	0xbe893ac4	-0.26802647
93	0xbe3a4ccb	-0.18193357
94	0xbdba89c8	-0.09108311
95	0x3e2a97e3	0.16659503
96	0x3e698a8d	0.22806759
97	0x3dc0f59a	0.09421845
98	0xbda7ce4c	-0.08193645
99	0xbe664286	-0.22486314
100	0xbdcbc62f	-0.0994991
101	0x3e01ffb5	0.126952
102	0xbe5676c6	-0.20943746
103	0xbdde0a8a	-0.10841854
104	0x3df22d9f	0.11825108
105	0xbd15ab9f	-0.036540624
106	0x3d0957e6	0.033531092
107	0x3d4364a7	0.04770341
108	0xbe6f883f	-0.23391818
109	0xbe631e9d	-0.22179647
110	0xbdac6f81	-0.08419705
111	0x3e7e02e7	0.24805795
112	0xbd224eae	-0.039625816
113	0x3e27070c	0.16311282
114	0xbe39e85c	-0.18155044
115	0xbe58087f	-0.21096991
116	0xbea9a969	-0.33137062
117	0x3e54993b	0.20761578
118	0xbe1efd13	-0.15526228
119	0xbdce4c67	-0.10073166
120	0x3eada439	0.33914354
121	0x3e14d676	0.14534935
122	0x3b51fd35	0.0032041792
123	0x3e9b2a45	0.30305687
124	0xbebd6e09	-0.36998013
125	0xbe07d823	-0.13266043
126	0xbe823f8d	-0.2543911
127	0xbe5b4274	-0.21412069
128	0xbe97f813	-0.29681453
129	0x3b20d774	0.0024542483
130	0xbe949bf9	-0.29025248
131	0x3e260695	0.16213448
132	0xbdc0852e	-0.09400402
133	0xbdb9c363	-0.0907047
134	0x3d9f4fb8	0.07778877
135	0xbd4d5fb0	-0.050140083
136	0x3c0539df	0.008131473
137	0xbdeb3992	-0.1148559
138	0x3e2cd7a6	0.16879138
139	0xbe60a86c	-0.21939248
140	0x3ca93d7c	0.0206592
141	0x3c82cd78	0.015967116
142	0xbe9752c6	-0.2955534
143	0x3e5d741d	0.21626325
144	0xbd86103b	-0.065460645
145	0xbe19a067	-0.15002595
146	0xbe18edf5	-0.14934523
147	0x3db78d6e	0.089625224
148	0x3d3ce6cd	0.046118546
149	0x3daa877d	0.083266236
150	0xbe300672	-0.17189959
151	0xbe7adc2c	-0.24498051
152	0xbd06a60d	-0.032873202
153	0x3d59cd74	0.05317445
154	0xbe11ade5	-0.14226492
155	0x3de5f75d	0.112288214
156	0xbe2314ec	-0.1592595
157	0x3e4df2b8	0.20112121
158	0xbd3d716c	-0.046250746
159	0x3e455390	0.19270158
160	0x3e62ad26	0.22136363
161	0x3daca4a0	0.08429837
162	0xbe299ab9	-0.16562928
163	0xbcb0b7ef	-0.021572081
164	0x3e62a06e	0.22131512
165	0x3dcf1d6a	0.10113032
166	0x3e1f0a00	0.15531158
167	0xbe92f7fc	-0.28704822
168	0x3dc68b20	0.09694505
169	0x3dcee6c7	0.10102611
170	0x3d0a4c6c	0.033764288
171	0x3d10d234	0.035356715
172	0x3e0506c2	0.12990859
173	0x3e67d4f8	0.22639835
174	0x3eac6f37	0.336786
175	0xbc987541	-0.018610599
176	0x3dc5a478	0.096505105
177	0x3e83179a	0.25603944
178	0x3e7c29b1	0.24625279
179	0x3e22fe85	0.15917404
180	0xbdde01fb	-0.108402215
181	0x3e364807	0.17800914
182	0x3e02a578	0.12758434
183	0x3e11844c	0.14210624
184	0x3d20f3a2	0.039294846
185	0xbe08f51c	-0.13374752
186	0xbd6c4839	-0.057686064
187	0xbe44cb4e	-0.1921818
188	0x3e88979c	0.2667817
189	0x3d664a00	0.056222916
190	0x3ddbf6a7	0.107404046
191	0xbd531fc2	-0.05154396
192	0xbe03d65b	-0.12874739
193	0x3e2afcd1	0.16698004
194	0xbe462c4c	-0.19352835
195	0xbe1c2cfc	-0.15251535
196	0xbdb3d293	-0.08780398
197	0x3e36ee57	0.17864357
198	0xbc4a7847	-0.012357778
199	0xbcf10134	-0.029419519
200	0xbe1d11cc	-0.1533882
201	0x3e253987	0.16135226
202	0x3e16e538	0.14735878
203	0x3c7129f9	0.01471948
204	0x3de9fd19	0.11425228
205	0xbe5276a5	-0.20553072
206	0x3e60af86	0.21941957
207	0xbdcc8903	-0.099870704
208	0x3deb3d76	0.11486332
209	0x3e292410	0.16517663
210	0xbd3c1db0	-0.04592675
211	0xbc0afb8f	-0.008482828
212	0x3c2cd236	0.010548165
213	0x3dda1b88	0.106497824
214	0x3e49f30f	0.19721626
215	0x3c3cb6c1	0.011518181
216	0xbd6ba6f2	-0.05753226
217	0xbcf99109	-0.030464666
218	0xbe0aee94	-0.13567573
219	0xbe3fc6d8	-0.18728197
220	0x3da1539b	0.078772746
221	0x3d7f64f2	0.06235213
222	0x3e660195	0.22461541
223	0xbdb5891e	-0.08864044
224	0xbda5566f	-0.080731265
225	0x3d0909d2	0.03345663
226	0x3de07e77	0.10961621
227	0xbdbb59fd	-0.09148023
228	0x3e14e214	0.14539367
229	0x3c99dc2d	0.018781746
230	0x3daba8a8	0.08381778
231	0x3d8f7226	0.07004194
232	0x3e1e7e41	0.1547785
233	0x3e50a765	0.20376356
234	0xbe936231	-0.28785852
235	0xbcfebf29	-0.031097012
236	0x3d165382	0.036700733
237	0x3da2911c	0.07937834
238	0x3e116b01	0.14200975
239	0xbe310b9f	-0.1728959
240	0xbd712a79	-0.058878396
241	0xbdb1c94c	-0.086809725
242	0xbe27bc95	-0.16380532
243	0x3d1b0303	0.03784467
244	0x3def427e	0.11682604
245	0x3e402fbc	0.18768209
246	0x3dcf6aac	0.10127768
247	0xbd7443b1	-0.059634868
248	0xbdc0facc	-0.09422836
249	0xbe0f4319	-0.1399044
250	0x3dfb40ac	0.122681946
251	0xbd451080	-0.04811144
252	0x3d01510f	0.031571444
253	0xbe02267e	-0.12709996
254	0x3da16c17	0.078819446
255	0xbd75a94b	-0.059975903

bias f4 [10]
0	0xbd8b24d1	-0.067941315
1	0x3dee2e8f	0.11629974
2	0xbca5a25f	-0.020219026
3	0x3d94586f	0.0724343
4	0x3dae9d9b	0.085261546
5	0xbddde387	-0.10834413
6	0x3dc75234	0.09732476
7	0xbcc355ee	-0.023844685
8	0x3b1f06ea	0.0024265596
9	0x3cd9f133	0.02660427
