try_train/cifar10_models/cifar10_net_35.pth (torch, 589402 bytes, 10 tensors)

weight f4 [32, 3, 5, 5]
00000000: 29e0 acbd bd6c af3d 61ae 253e 7dd8 e4ba
00000010: bd08 0d3e fca1 f4bd ac17 c0bd bc41 8cbc
00000020: d8e5 603e 05bb b13d c0b6 9dbd c7c8 933c
00000030: b70d 4fbe 65bb c1bb 4808 cabd 9522 9a3d
00000040: 1540 a83c 6176 9bbe 8c8d 54be 4ff1 fbbd
00000050: f659 483e 7e38 40bd ba1d 97be cd99 e2bd
00000060: 3e8f 01bd 8b7c 06be 8caa 91bd a6ce 24bd
00000070: 9eb2 47bd 9675 bebd 0e7f 923d 262c 00be
00000080: 5b5d 02be 0d86 d03d 775a 0a3d 3153 b53c
00000090: b4a2 983d d98e 3fbe b6db da3b f634 23bd
000000a0: 9ab7 b53e 63b4 493e 838b 29be c3ad 91bd
000000b0: c040 c5bd cabd 683e 129d d63d 58f4 4fbe
000000c0: e8ce 25be 00f3 9e3d 3c39 66bc 8ef8 433d
000000d0: 64ac 0b3e 9c92 b2bb 3c45 0fbe 7ecc ad3c
000000e0: b5ba 3b3a ebf2 26bb 5e4c 1e3d 9b9a 01bd
000000f0: df5c 3c3e 4a78 803d bd8a 24be 3fbd dcbd
00000100: 0c70 66bd ec79 aa3e 4959 813e 029a fdbd
00000110: 8a10 87bd d337 813b 7173 b03e 37a0 403e
00000120: 7c08 2ebe acc2 0bbe 2a1c acbd 97a8 f7bd
00000130: e1ec a1bd ed55 4fbe 04bb 183b b995 f8bc
00000140: df54 28bc c256 89bd 33ce d1bc 18ff aebd
00000150: 154b cc3c 4125 ab3b f24d 85bd 22d2 0abd
00000160: ec88 81bd 2a54 573d 12b1 04be acc8 03be
00000170: e491 48be 2f71 45be 67ec 10bd 3b30 a6bc
00000180: ce0c 39be 1cdc 4abe a1a8 51be 2361 b6bd
00000190: 6c51 31bc 1a8f 0bbc 0270 d1bd f7fe c23c
000001a0: 9ef3 28be ab38 34bd a020 083d e81f 163e
000001b0: 14f3 463e 7c20 0f3d 1a12 e4bc d285 8b3d
000001c0: f365 8a3d 46ca 503e f2bb 2e3d a809 353c
000001d0: dc74 63bd 7363 f8bd 9c13 87bd 82bf 08bd
000001e0: 1aa7 72bd 2b77 3dbe c25b 6fbe e346 6fbe
000001f0: d08b e3bd 3a65 93bd 89f2 883d 8935 27bd
00000200: 6214 d7bd a065 cebd b3b4 ec3d cf3a 503e
00000210: 2c89 9a3e 0710 2e3e f18e bcbb 7429 533e
00000220: 14a2 ad3e a1f3 d23e 453b 8b3e c6c9 2b3e
00000230: b3df 393e ae1f 833e e54a 6a3e f954 283e
00000240: 29d9 523e 8a4e e03c 4c08 d9bc 72de c13c
00000250: 1a80 dc3d a6c3 3d3d 76f9 a53d e6ae 1cbe
00000260: 5349 733d 7834 c7bd 3692 78bd a821 673e
00000270: 96c3 97be 59ed c93d 15d6 4cbc 78ee c3bd
00000280: cd01 2c3d f749 88be 4886 afbd 3630 87bd
00000290: d044 733c 606d 16be fe57 44bc 5975 423e
000002a0: 2c34 a03c 15ba 423c 74ed 02be c55e 54bd
000002b0: 5e74 c2bc dca3 0fbe 2e9a 36be 77a8 4f3e
000002c0: ee8c dbbd f777 033e c91b 203d 89f5 103c
000002d0: 9974 6b3e fd4d fdbd 0568 e33d d510 a73d
000002e0: a499 9d3d 7b18 203e 9009 4cbe 1025 5b3e
000002f0: 4038 3c3d 899f 2abd d9b3 48bd 209c abbc
00000300: 353e 6b3e e0f3 593e cdce 2a3e 57bd d43b
00000310: e7e3 b43d 67ad 69bd 534b 833d 5d76 30bc
00000320: eaa0 8a3d 9a59 4abe 436e 313e 1a79 e5bd
00000330: b140 e4bb 8f85 463e c5e0 60be e2be 9d3d
00000340: da7c c3bd 8007 8a3d 61ce ac3d 6209 5fbe
00000350: df60 77ba 21b5 ccbd 17a5 1b3d 0019 db3c
00000360: 9a87 e5bd f1f6 833e 6e7a 173e a8ae aebd
00000370: 6aba aebd 0e9f e63d 5b2b d9bd f7bb 33be
00000380: bc71 2bbe 9b16 26bd 44ef d13d 79a8 1d3e
00000390: 2dda eb3c c9c6 083e d2aa 0fbd 582c c83d
000003a0: 180f 1bbc 3e74 4b3d 9d0e efbd d3e3 ff3d
000003b0: 36cc 863d 9111 303e e2c3 2d3e 4c04 8ebc
000003c0: a7e4 cebd b948 34be 5a8f 0abd 635a 163d
000003d0: a53f 233e 148e e4bd 330e 40be b368 93be
000003e0: 5881 ddbd 23d8 08be f72c 8cbb 9c66 5fbc
000003f0: 05ef 8abc 7409 ba3d 0150 a83d 0f6b 01bd
-0.08441193 0.08565662 0.16179802 -0.0017459538 0.13772865 -0.119449586 -0.09379515 -0.017121188
0.21962678 0.08678249 -0.077008724 0.018040074 -0.20220076 -0.0059122317 -0.09864861 0.07526127
0.02053837 -0.30363753 -0.20757121 -0.12301885 0.19565567 -0.046928875 -0.29514867 -0.110644914
-0.031630747 -0.13133447 -0.07112607 -0.040236138 -0.048754327 -0.092997715 0.0715314 -0.12516841
-0.12730925 0.10181818 0.03377768 0.022134395 0.07452908 -0.18706836 0.0066790236 -0.03984543
0.3549164 0.19697718 -0.16557126 -0.071132205 -0.09631491 0.22728649 0.104791775 -0.20308053
-0.1619221 0.07761192 -0.014051732 0.047844462 0.1363998 -0.005449606 -0.13991255 0.021215674
0.00071613054 -0.002547438 0.03864705 -0.031641584 0.18394803 0.06272943 -0.1606855 -0.10778283
-0.0562592 0.33296144 0.25263432 -0.1238289 -0.065949515 0.0039434223 0.34463075 0.18811117
-0.16995424 -0.1364848 -0.08403809 -0.12092703 -0.07906509 -0.20247622 0.002330483 -0.03034483
-0.010274141 -0.06706001 -0.025611019 -0.08544749 0.024938146 0.005222947 -0.065090075 -0.033891805
-0.06324944 0.0525705 -0.12958172 -0.12869519 -0.19586903 -0.19281457 -0.0353817 -0.02028667
-0.18071291 -0.19810528 -0.20474483 -0.08905246 -0.010822635 -0.008518005 -0.10226442 0.023803217
-0.16499183 -0.043999355 0.03323424 0.14660609 0.19428664 0.03494309 -0.027840663 0.068126336
0.067577265 0.20389661 0.042659707 0.0110496655 -0.055531368 -0.121283434 -0.06595537 -0.03338576
-0.05924139 -0.1850249 -0.23374847 -0.23366885 -0.111106515 -0.07197042 0.06686885 -0.04082254
-0.105019346 -0.10077977 0.11557903 0.20334934 0.3018278 0.16998301 -0.0057543446 0.20621282
0.33912718 0.412015 0.27193657 0.16776189 0.1815174 0.25610107 0.22880132 0.16438664
0.20590653 0.0273812 -0.026493214 0.02366564 0.10766621 0.046329163 0.081042215 -0.15301093
0.0593961 -0.097268045 -0.060686313 0.22571433 -0.29641408 0.098597236 -0.012502213 -0.09566969
0.041993905 -0.2661893 -0.08570534 -0.066009924 0.014847949 -0.14690161 -0.01198387 0.18990077
0.019556127 0.011885186 -0.12785894 -0.05184819 -0.023737129 -0.14027351 -0.17832252 0.20279108
-0.107202396 0.12838732 0.039088998 0.008847603 0.22993697 -0.12368391 0.111038245 0.08157507
0.0769532 0.15634339 -0.19925523 0.21400857 0.04595208 -0.04165605 -0.04899964 -0.02094847
0.22972949 0.21284437 0.1668045 0.0064922976 0.088325314 -0.057050135 0.06410851 -0.0107704075
0.06768973 -0.19760743 0.17327218 -0.11204739 -0.0069657196 0.19386886 -0.21960743 0.07702424
-0.09545298 0.06739712 0.08437801 -0.21780923 -0.0009436737 -0.09995485 0.03799924 0.02674532
-0.112075046 0.2577434 0.14792797 -0.08529407 -0.085316494 0.11260806 -0.106039725 -0.17552172
-0.16742605 -0.040548902 0.102507144 0.15396298 0.028790558 0.1335708 -0.035075016 0.09774083
-0.009464048 0.049671404 -0.11672709 0.12494626 0.06581919 0.17194201 0.16969255 -0.017336033
-0.10102206 -0.17605866 -0.033828117 0.036707293 0.15942247 -0.11159912 -0.18755417 -0.28790817
-0.10815686 -0.133637 -0.004277821 -0.013635304 -0.016959677 0.09083834 0.082183845 -0.03159624

bias f4 [32]
00000000: bd2a 313e 7df8 bbbe 6b0a 09bd d6f9 073e
00000010: 2a2b d1bc f3b4 d7bd cf21 fc3b a844 c1bd
00000020: a2df d53d 3332 83be 4c0c 55be 783b 94bd
00000030: 1cae ed3d 3e15 5d3c 3da1 7ebe c7e1 903e
00000040: f584 2fbd f087 c83d b6b3 7bbe bf7e 99bd
00000050: 09c4 06be 054a db3c ad69 90be 64ed 80be
00000060: a505 503d de77 dbbe 4c3d d3bc 4196 00be
00000070: daaf d83e 56de 8b3c ccaf 2ebe 4bcd 17be
0.1730146 -0.3671302 -0.0334572 0.13278899 -0.025533278 -0.1053256 0.00769446 -0.09436923
0.10443045 -0.25624236 -0.20805472 -0.07237905 0.11605474 0.013493834 -0.24866195 0.28297254
-0.042851407 0.09791553 -0.24580273 -0.07494878 -0.13160719 0.026768694 -0.28205624 -0.25181115
0.050786633 -0.4286489 -0.025786065 -0.12557317 0.42321664 0.017073791 -0.17059249 -0.14824407

weight f4 [32, 32, 5, 5]
00000000: 7c53 b83c 21b3 293d bf3c e7bc 217a 7abd
00000010: 5013 99bc 62f0 97bb 1000 af3d 9020 5b3d
00000020: 2f69 7bbc f487 72bc 0cc0 0c3c 06ed 7d3c
00000030: 6fc8 233d a9f7 603d 55ea 13bd 523e 34bd
00000040: 77f6 8cbc e2e3 203c e44e 993d 6bd1 8d3d
00000050: ebb6 16bd 2afc 35bd fab8 0ebc b951 c33d
00000060: 16e7 d03d 2722 bc3c 6daa c5bb 025c 043d
00000070: 53c2 af3c 40a3 b23c aa80 163d 4500 d4bb
00000080: aa11 f8bc 5c62 053d 6967 923d 2536 af3d
00000090: 61c2 2f3d 4ac6 9abd 375e 5ebd c320 b13d
000000a0: 8e0b 9e3d ea15 9f3c 98a8 45bd 5808 c7bd
000000b0: e21f 5abd d6c6 dd3d e856 cf3c ca87 333d
000000c0: 46eb 313d 2ccd 27bc 2f18 873a 2b71 4bbd
000000d0: c623 5cbd e737 8bbc 98f4 83bd 4dc6 3dbd
000000e0: 3dde 5cbd 9e2d f4bc 3fad 8bbd e829 09bd
000000f0: 8c8e d2b9 0716 3cbd abd4 abbd b9ce 0abc
00000100: 3d7d ac3c 9986 c63c 2b86 43bd 5aed 85bd
00000110: 1204 07bd 83e4 623c 5c69 4fbc 4501 083d
00000120: 433b 493b 5a79 4f3b ec9a dbbc 3a0d 773c
00000130: ac22 ec3c 4944 8d3d 0875 633c 8182 87bb
00000140: ff5a 49bd 30e6 fcbc cce4 733b 25da b43d
00000150: 4218 423c cfba 3abc 3012 a6bc ddca 32bd
00000160: fa5d 8abc 791e db3d c6ea 1e3c 9ae2 28bd
00000170: 68c4 d6bd 42e0 f0bc da25 923c 9b31 863c
00000180: d36b 883c 52cc adbc bd7c 9bbd ca25 b13c
00000190: e224 823c 263e 6e3c 8749 70bd 495e 47bd
000001a0: d83a 49bd e148 6abc 3fe6 3cbc c806 b1bc
000001b0: 4bed e4bc e8e7 113d c053 a9bc 12dc 703c
000001c0: bded c2bc 735e 3bbc 93cc 063d bc23 08bc
000001d0: 772e f5bb 8b08 f4bc c947 713c 832d 8c3d
000001e0: 7033 66bd bf6a 29bc d7a1 373d 679d b73c
000001f0: 9085 c23c 850a b9bb 3da5 87bc 78bf a9bb
00000200: 9aa8 30bc cb37 c23c a6bc aa3c 9f7e 24bd
00000210: 3ca4 0cbb 48bc 9abc 7620 aabc cc0f bebc
00000220: 6012 a23b 88d1 63bd 50aa 52bc 8229 9fbc
00000230: e116 1abd 3cfb b9bd 8617 eebd b473 85bb
00000240: 8d08 033d 9b7d dfbc 14fc 653c d308 93bb
00000250: 8923 22bd 96d9 ba3c d914 1cbd bd15 02bd
00000260: 8221 57bd 7b09 a4bd 540d 42bd 9636 39bd
00000270: 9e64 a8bd bb7e 4dbd 6080 1cbd 03b4 1cbd
00000280: efc1 22bc b43f 6fbd 96cd 12bd af6f 343c
00000290: 10da 1fbd 4c60 82bd 1a0e 37bd 0c19 88bd
000002a0: 689e bc3c e461 593a 0280 d1bc 0a21 63bd
000002b0: 90b3 22bd 574a 93bc 4d76 973c 9add 78bc
000002c0: 613c 26bc 018b 80bd e219 b53b fb6f 843d
000002d0: 111a cc3c 3a5e e63b 9de7 07bd 2ad3 e13c
000002e0: 6554 883d 4dd5 ff3c 7cd4 763d 153a 203c
000002f0: ae36 5ebd 9167 8e3c b816 2f3d 25f7 b13d
00000300: 530e 9c3d c3b3 44bd eb87 99bc 7dac d5bc
00000310: a8c7 10bc ea34 fe3c 98de dabc 5e52 a8bb
00000320: cd44 d23c 09f8 963c 0e80 eb3b 1d8b 083d
00000330: e888 a73c 3a80 21bd e191 64bc 2260 2b3d
00000340: d880 953b f5e0 5b3c f690 fbbc c356 9bbc
00000350: 5245 3e3d bdd0 4e3d cc1a f3bc bace efbc
00000360: 1b3a b83b bb1e 263d 45e6 c43d 7979 ce3c
00000370: d68c bebc 3d1d 1ebd c7da 5a3b 2157 a13d
00000380: 855f 043d f05f dd3c 6f73 673c 8ffa 43ba
00000390: 8967 273c c475 273b d2a8 f03b 3401 afba
000003a0: 6bc4 853c 2b72 4c3d 47c0 543d 53a2 393d
000003b0: dd00 b73c c86a 15bd fc33 4b3d 12bc 493d
000003c0: 4367 debc 124d a5bb b181 67bd f65e 95bb
000003d0: 644c fa3b 49b6 033d ff99 df3c 0959 12bd
000003e0: a1ac 78bd 1fde 01bc ea70 873c 1d22 09bc
000003f0: c5c0 0b3d 5fe8 823d 0c19 393d dcb5 44bc
0.022500746 0.041430596 -0.028227208 -0.061151627 -0.018685967 -0.00463681 0.08544934 0.05349785
-0.015344902 -0.014802922 0.008590709 0.015498405 0.03998607 0.054923687 -0.03611215 -0.044004746
-0.017207367 0.0098199565 0.0748575 0.06924709 -0.036795538 -0.044429936 -0.008711094 0.09537072
0.10200326 0.022965504 -0.006032279 0.032314308 0.021454966 0.02180636 0.036743797 -0.0064697587
-0.03028186 0.032564506 0.0714863 0.08555249 0.042909984 -0.07557352 -0.05428907 0.08648827
0.07717048 0.01941963 -0.048256487 -0.09718388 -0.053253062 0.108289406 0.025309995 0.04383067
0.043437265 -0.010241788 0.001030689 -0.049668472 -0.053745054 -0.01699443 -0.06443137 -0.046331692
-0.05392288 -0.029806908 -0.068201534 -0.03348723 -0.00040160527 -0.045919444 -0.083901726 -0.008472138
0.021055812 0.024234103 -0.047735374 -0.06539412 -0.032962866 0.013848427 -0.012659397 0.033204336
0.0030705489 0.0031658025 -0.026807271 0.015078837 0.028825127 0.0689779 0.013882883 -0.0041354303
-0.049159046 -0.03087148 0.003721523 0.0883067 0.011846604 -0.011397078 -0.020272344 -0.043650497
-0.016890515 0.106991716 0.009699529 -0.04123173 -0.1048668 -0.02940381 0.017840315 0.016381076
0.016652977 -0.021215592 -0.07592151 0.021624465 0.015886728 0.0145411845 -0.05866387 -0.0486739
-0.049128383 -0.014299602 -0.011529504 -0.021609679 -0.027945181 0.035621554 -0.020669818 0.014700906
-0.023795003 -0.011436093 0.03290994 -0.008309301 -0.0074823457 -0.02978923 0.014726588 0.06844618
-0.0562014 -0.010340392 0.044832077 0.022413922 0.023745328 -0.005647006 -0.016558284 -0.0051802956
-0.010782385 0.023708245 0.020841908 -0.040159818 -0.0021460196 -0.018888608 -0.020767432 -0.023200892
0.004946038 -0.055619746 -0.0128579885 -0.019428972 -0.037619475 -0.09081122 -0.116255805 -0.004072631
0.031990577 -0.027281573 0.014037151 -0.004487136 -0.03958467 0.022808831 -0.03810582 -0.031759012
-0.05252219 -0.08009621 -0.047375992 -0.045218073 -0.08222316 -0.050169688 -0.038208365 -0.03825761
-0.009933933 -0.05841036 -0.035840593 0.011012956 -0.03902632 -0.063660234 -0.044691183 -0.06645402
0.023024753 0.000829248 -0.025573734 -0.05545143 -0.039722025 -0.017979784 0.018489027 -0.015189553
-0.010146231 -0.06276513 0.005526767 0.06466671 0.024914773 0.0070302757 -0.033179868 0.027566511
0.06656722 0.03122964 0.060261235 0.009779473 -0.054251365 0.017383369 0.042746276 0.08689717
0.0761992 -0.048022997 -0.018741569 -0.026083225 -0.008836664 0.03103109 -0.02671747 -0.005136772
0.025667572 0.01842882 0.007186896 0.033335794 0.020451024 -0.039428927 -0.013950796 0.041839726
0.0045624785 0.013420333 -0.030708771 -0.01896227 0.046452828 0.050492037 -0.029675864 -0.02927338
0.005622161 0.04055665 0.09614233 0.025204407 -0.023260515 -0.038602103 0.0033394562 0.07877947
0.032317657 0.027023286 0.014126643 -0.0007475996 0.010217556 0.0025552372 0.0073443437 -0.0013351799
0.016329011 0.049913567 0.051941182 0.04532082 0.022339279 -0.036478788 0.049610123 0.049251623
-0.027148848 -0.005044588 -0.056520168 -0.0045584394 0.007638501 0.032156263 0.02729511 -0.03572944
-0.060711507 -0.007926493 0.016533334 -0.00836995 0.034119386 0.063919775 0.045189902 -0.012006249

bias f4 [32]
00000000: 80f3 37be 92a4 2cbe 4f6d 27be d531 49bd
00000010: 2d6d f63c 504c 85be 304f 9dbe aa66 84bd
00000020: 1278 92bd b47e 0fbd 66f4 88bc 077b 23bd
00000030: 731e 8bbd 50ff 09be 5969 3dbe 163d 07be
00000040: 00e4 ffbd 6878 0bbe 04c9 1fbd 8eb9 123b
00000050: 929f 9d3c d16c f9bd d311 b0bd 4c6b 5bbe
00000060: adc6 15bc ecd7 8abc eba4 f7b9 2e09 f0bd
00000070: 6a86 14be 695d 903d 7083 2cbe 5764 713c
-0.17963982 -0.16859654 -0.16350292 -0.04911979 0.030081356 -0.26034784 -0.30724478 -0.06464894
-0.07151808 -0.035032943 -0.0167181 -0.03991225 -0.06792917 -0.134763 -0.18497218 -0.13206896
-0.124946594 -0.1362015 -0.039010063 0.0022388431 0.019241128 -0.12178958 -0.0859715 -0.2142765
-0.009141606 -0.016948663 -0.00047234385 -0.11720501 -0.145044 0.070490666 -0.16847014 0.014733396

weight f4 [64, 32, 5, 5]
00000000: b4cf ebbc a412 133c b4d0 67bd edf3 36bd
00000010: 44cd b3bc f002 af3c 6a7d 443d 6012 f2bc
00000020: bbe0 b6bd 753b 1c3d 829c 92bd 99a3 08bd
00000030: e17a 98bd 8336 8fbc 65cd dd3c 26e5 24bd
00000040: 709d 00bd 3738 13bd 204d 063d 72e3 753d
00000050: 6323 90bd d92c 41bd 0b1b 293c ae1c 6fbc
00000060: 06c6 193b 262f a83c 1d89 34bd f85d 75bc
00000070: 0fc7 5e3c bc80 be3c d971 a0bc e58b 36bd
00000080: 8878 44bd 22f7 1c3d 7d63 d93c 603e 15bd
00000090: 783d 13bd d034 85bc c957 873a ef6e 603d
000000a0: 38a2 07bd 3b55 60bd 1cb1 1dbc 4d80 d43c
000000b0: ffa9 543d c012 b73c 1fd4 a83b 5986 0dbb
000000c0: 303f 0fba 4501 90bc 3fe6 24bd ca09 c8bb
000000d0: 8f30 2ebd 47d5 b13b b7a1 50bb 98a8 b03c
000000e0: 73cb 34bd 4121 ce3c 76e3 103d c348 793b
000000f0: f725 9dbd ee74 78bd d057 40bb 05ea a93d
00000100: 41f3 383d 376a 933b 4c14 2dbd 0f02 743c
00000110: 30a9 583d 7a1f 063c 7a93 6bbd ab27 c33c
00000120: aaaa 9a3d d198 793d 6f84 86bc 12be 24bb
00000130: 3ddd 323d d78b 82bd 6f2a 4f3c 0e9d 9f3c
00000140: 387a 8c3d cba6 a33b 479a 1fbd 5253 18bc
00000150: d506 cfbc 83e0 383c 1b5c aabd d258 27bd
00000160: 5650 063c b174 3f3d b24d dfbc bcd9 89bc
00000170: e611 e0bb 9146 3fbc d5a6 60bc 1faa cb3c
00000180: 2ad0 18bb af22 823c 5f39 eb3c b567 17bd
00000190: f299 713a d262 0f3c 85d4 c53b d242 d33c
000001a0: 7203 0b3c 827c 9d3a 9828 1abc 704e edbc
000001b0: 32d9 863b 0a2b edbc 398f e2bc 317a 233d
000001c0: 057d d0bb c911 723d 489f 2a3d 7468 4f3c
000001d0: 0a98 dcbc 4f75 f6bb 3d9a 96bb ca0e f1ba
000001e0: 7c64 ea3c 4b4c 8b3d c16c 31bc fef6 0c3d
000001f0: dd3b 9a3a f38f 13bd 48e4 cbbc 077b 423c
00000200: 37df 3cbb 0b5e 07bd 295b 3cba 4872 473d
00000210: 5366 1d3d fd59 a33d 344a e13c 30c3 bfbc
00000220: 42b1 23bd 8a32 e33c 8507 c93d 345e ccba
00000230: 832d ebbb 0151 2b3c be25 be3b b23a 683c
00000240: eb68 9d3c 43e0 8c3c 5f68 083c 71bb 0f3d
00000250: c9ff a3bb 440e 153d b78a 3fbc 8858 c9bb
00000260: 2a8c 78bc 31bd 243d de7e 633b cba4 433d
00000270: bd70 d03c 4f03 a93c 4116 3d3c 96a8 813d
00000280: b4f5 143c 8478 0b3d 7b10 203d 6854 073d
00000290: a00c 903d da17 913c 2bbe a9bc c6b0 9a3c
000002a0: 5751 18bc b5fc d1bb eea5 823c 3037 3bb8
000002b0: e53a 3f3d d8e5 b43c 6d19 593d 4791 8c3c
000002c0: 2074 b53c 6eae c93c b02c 24bd c81c 70bd
000002d0: 43fc 8cbd 55f0 313d 9308 583d a16c bcbc
000002e0: 4fa1 1bbc 3dd2 9cbd 1dfa fcbc 8d86 38bd
000002f0: 9884 e9bc ec36 293c 2954 afbc 2a23 c0bc
00000300: 6e3f c93d 5bfd 1cbb a527 f3bc 5d56 84bd
00000310: d2ff e3ba bb50 0a3d ed51 bc3c f08e 423d
00000320: 2fd6 3bbc 9f07 8e3d ec56 c83b d987 7dbc
00000330: d7b4 f0bc 8e91 efbc 6a49 793d 9588 48bd
00000340: 6507 eebc b64c 833c 8ab1 bf3c 0fb1 183d
00000350: d34d 9bbd 04a3 79b9 76ef 0abd 9c8f 37bc
00000360: 3765 ce3d 9fd7 6f3d 2c0f c8bb 23b6 013b
00000370: a3b6 d0bb d33e 353d 5cd6 8e3b 82f2 94bc
00000380: bb0b c93c 2557 903c 89a8 283d 0356 00bb
00000390: 6758 903c 5efd 433b 5704 aabc 8455 1e3d
000003a0: dbd1 fbbc 411e acbc f36f 3e3d 074f 5d3d
000003b0: 4889 a9bd d956 edbc f2f7 23bd 0cf7 1bbd
000003c0: bbcd 31bd 8d9a 173c f54e dc3c 6c45 7b3d
000003d0: a34b 02bd 937a 043d a782 94b9 026f 913c
000003e0: 71fe 83bd 0114 633c 1a15 94bd fd82 3cbc
000003f0: b8d4 19bd 2aba 3b3d 82e7 3bbd c515 16bc
-0.028785564 0.008976612 -0.05659552 -0.04466622 -0.021948464 0.021363705 0.047971167 -0.029549778
-0.08929583 0.03814264 -0.07158758 -0.033359144 -0.07445312 -0.017482048 0.027075479 -0.040257595
-0.031400144 -0.035942283 0.032788396 0.060031362 -0.070379995 -0.04716191 0.010321389 -0.01459424
0.0023463978 0.020530295 -0.044076074 -0.014976017 0.013597264 0.023254745 -0.019585537 -0.044567008
-0.04796651 0.03832162 0.026536698 -0.03643644 -0.035947293 -0.016260535 0.0010325845 0.054793295
-0.03311369 -0.054768782 -0.009624746 0.025940085 0.051919933 0.022347808 0.00515224 -0.002159497
-0.0005464433 -0.01757873 -0.040258642 -0.0061046826 -0.042526778 0.005427036 -0.003183467 0.021564767
-0.044139337 0.025162341 0.035373174 0.0038037754 -0.07673257 -0.060658388 -0.0029349215 0.08296589
0.04515386 0.004498746 -0.042255685 0.014893069 0.052895725 0.008186216 -0.05751369 0.023822626
0.07552083 0.060936753 -0.016420571 -0.0025137705 0.04366802 -0.063743286 0.012644394 0.01948407
0.06859249 0.0049942485 -0.03896549 -0.009297209 -0.025271812 0.0112839965 -0.08318349 -0.04085619
0.0081978645 0.046742145 -0.027258728 -0.016827457 -0.006838071 -0.011674539 -0.013711651 0.024861393
-0.0023317435 0.015885679 0.02871388 -0.036964137 0.000921636 0.008751588 0.006037297 0.025788698
0.008484708 0.0012015256 -0.009409092 -0.028968066 0.004115247 -0.028951187 -0.027656185 0.039911453
-0.0063625597 0.059098992 0.04165581 0.012659181 -0.026927967 -0.0075213085 -0.0045960234 -0.0018391248
0.028612368 0.06801661 -0.010829152 0.034415238 0.0011767108 -0.036025953 -0.024889126 0.011870152
-0.002881957 -0.03304867 -0.0007185215 0.04869297 0.038427662 0.07976148 0.027501203 -0.023408502
-0.039963968 0.02773406 0.09815887 -0.001559204 -0.0071770563 0.010456325 0.005802839 0.01417415
0.019215068 0.01719678 0.008325665 0.035090867 -0.005004857 0.036390558 -0.011690787 -0.006144587
-0.0151701365 0.04021949 0.003471307 0.04776458 0.025444383 0.02063146 0.01154095 0.06330983
0.009091783 0.03405048 0.039078217 0.03303948 0.07033658 0.017711569 -0.020720562 0.01888312
-0.009296737 -0.006408299 0.015948262 -4.463567e-05 0.046687026 0.022082254 0.053002764 0.017159117
0.0221501 0.024619307 -0.04008168 -0.058621198 -0.068840526 0.04344209 0.052742552 -0.023001017
-0.009498908 -0.07657287 -0.030880982 -0.045050193 -0.028505608 0.010328036 -0.021402435 -0.023454268
0.098265514 -0.0023954723 -0.02968199 -0.06461785 -0.0017394966 0.033768397 0.022988284 0.047499597
-0.01146464 0.06935047 0.0061138775 -0.015474283 -0.029383106 -0.02924421 0.06086103 -0.04895838
-0.02905626 0.01602779 0.023400087 0.03727823 -0.07583203 -0.00023807219 -0.033919774 -0.011203673
0.10077899 0.05855524 -0.0061053243 0.00197924 -0.0063694282 0.044249367 0.0043590497 -0.018182043
0.024541726 0.017619679 0.041176353 -0.0019582517 0.017620279 0.0029905657 -0.020754023 0.038655773
-0.030739715 -0.02101052 0.04649348 0.054030444 -0.082781374 -0.028972076 -0.04003138 -0.0380774
-0.04340909 0.009253156 0.026893118 0.061345503 -0.031810414 0.03234346 -0.00028326103 0.017753128
-0.06445015 0.01385975 -0.07230587 -0.011505839 -0.03755638 0.045831837 -0.04587508 -0.009160464

bias f4 [64]
00000000: 013e c7bd 42da 01be e803 ccbd 55bd 17bd
00000010: 7805 41bd 8e9f e9bd b9f2 4dbd 7102 33bd
00000020: c3aa 7cbd 9bf1 6cbd f9af 02be bfb6 b3bd
00000030: 0cc8 abbd 080f a2bd 68ef c2bd e096 7ebd
00000040: 5cb2 febd f978 b7bd 9f6c b9bd e1c3 c6bd
00000050: 949d d8bd d43e 53bd 8499 d1bc 02e4 f8bd
00000060: 8526 8abd 9151 3ebc 09bc a7bd dbbd 41bd
00000070: d476 a6bd 2524 a5bd 6161 eebc 0465 56bd
00000080: 8d78 4dbc da86 42bd 33fa b8bd 3ea8 a7bd
00000090: 61fb 56bd da55 b0bd a938 a6bd 7486 fabd
000000a0: 2b64 fbbd 2cdf b8bd c7df c33c 10de bbbc
000000b0: db1f 67bd a95c dfbc c53d 38bd 8173 c5bd
000000c0: deff 34bd 24d2 18bd 2e11 e8bd 03b7 f8bd
000000d0: bdda 94bd a9c6 13be e0d6 04ba 0753 2f3c
000000e0: 8497 6c3c d40e 00be 657d 8d3b 59dc e6bd
000000f0: 52a8 aebd 86cb 59bd 6c48 32bd 8880 c5bc
-0.09728623 -0.12680915 -0.099616826 -0.037045795 -0.047124356 -0.11407386 -0.050280306 -0.0437035
-0.06168629 -0.0578476 -0.1276244 -0.087750904 -0.08387765 -0.07913023 -0.09518319 -0.062155604
-0.12436363 -0.089586206 -0.09053921 -0.0970533 -0.10576931 -0.05157359 -0.025585897 -0.12152864
-0.06745628 -0.011616127 -0.08190162 -0.0473002 -0.081281334 -0.08063535 -0.029099168 -0.05234243
-0.012540949 -0.047491886 -0.09032097 -0.081863865 -0.052485827 -0.08610125 -0.08116276 -0.12232676
-0.12274965 -0.09026942 0.023910416 -0.022933036 -0.056426864 -0.027265863 -0.044980783 -0.09641171
-0.044189326 -0.03730978 -0.11331402 -0.12144282 -0.072682835 -0.14431252 -0.0005067419 0.010700948
0.014440421 -0.12505656 0.0043179267 -0.11272497 -0.08528198 -0.05317261 -0.043526098 -0.02410914

weight f4 [64, 1024]
00000000: 09ab 59bd ccd3 21bb d167 813c 792b c93b
00000010: 6af2 653a 5b2e dd3c f1ab 9f3c 5591 47bc
00000020: e540 c1bb 7f64 843c 8807 403d 3546 3abc
00000030: d7cd 4fbd dd0e 70bd 39e4 39bb 6927 30bd
00000040: d7fc 07bd 8e67 b53c c2be 06bd f18f 74bc
00000050: 68f8 1dbc 1df7 30bc 5b44 c2bc 72fb 5ebc
00000060: 85b6 0dbd 6f07 ec3c 23a7 eabc eb54 293d
00000070: 9737 863c 075d 0f3c ec46 1c3d 746b 61bc
00000080: 4794 3d3c 2a33 a73b bd54 26bd 4359 b2bc
00000090: 8d96 39bd b184 013c 7170 163d b632 1e3d
000000a0: aaeb e4bc ff30 27bd 8c92 38bd 1693 8fbc
000000b0: 048c cb3b db40 dd3c b6f5 de3c f62c 50bc
000000c0: 06fb 2ebc 95fa 02bd fba5 dcbc 1eb0 62bc
000000d0: 39f3 07bd 81ca ecbc a02c 033d e81b 323c
000000e0: 7c23 36bd 9df0 0b3d 66f4 223d d132 e73c
000000f0: 6ff2 b63c e9b4 263d 8079 d43d 27be 563d
00000100: fbf6 c53a 621b 3ebc 44be bc3c cafc f33c
00000110: 2298 f5bc 6c48 97bc 323b a23c d494 923d
00000120: 3eb8 f33b 4db6 7f3d ce34 c6bb 857a bd3c
00000130: cb48 28bc 721c a93c 194d 83ba ca9b 1dba
00000140: d1ee c0bc a46d 723d 3ee8 6b3c b7fb f8bc
00000150: 4045 abba 0224 35bc e9e3 223d 5bc6 b33b
00000160: a949 8e3c 9ac3 a63c 2526 a6bc e135 6b3c
00000170: 0916 393d 5c8d 433d 9b15 4c3d eb45 213d
00000180: 6f16 ccbb b099 58bc 2718 d839 900f 513c
00000190: 87c5 0b3a 9d2d 94bc 19f3 e3bc a7fd f4bc
000001a0: dbc3 123d 5529 353d 435f 5a3b 4d4d 8a3d
000001b0: d3c3 86bc d4dc ad3c 0a9c 173d 4585 1b3d
000001c0: aa43 073b d03d 50bd 2fbf f9bc cf6f 233d
000001d0: a57d e33c 97a0 abbc 701f 523d 5a47 323d
000001e0: 9f97 b63b 0015 e1bc f9cb 123d 221b 343d
000001f0: 8ac5 793d b4fe 53bc 7d37 3d3c 4d11 4b3c
00000200: 9144 bfb9 ed57 9ebb a8e5 183d d77c 57bc
00000210: 302e 363d 1d6b ec3c 60d9 093d 60f1 0f3d
00000220: b578 723d 3104 a83d 2883 b23c a9eb 813d
00000230: f1c0 1bbd 4094 93ba b1dc c6ba a466 d0bc
00000240: e5f6 513c c9e2 50bc 03fc c93c a6fc 53bc
00000250: afd9 f73b 0e6f fb3c 72c2 a03d ad56 103d
00000260: 9bdd b23c 6cab a53d 5b02 cd3c d973 ea3b
00000270: a84f 13bd 878a 833b a5c9 94bc 29f6 40bd
00000280: e02e a23c c6d9 5abc 0391 6fbd 8df8 cf3b
00000290: 40ea 103d c4cd f9bc 4ebb 95bb d650 8c3d
000002a0: e1ab 143d 67b1 a1bc a0a3 06ba 646a 7d3d
000002b0: e913 233c cbde 30bd a863 08ba e132 143d
000002c0: 793c ce3b ab6a 333c 744c 7cbc 4630 89bc
000002d0: be9d 00bd 7101 2b3c 7db2 0dbd 739f 8dbc
000002e0: bdd3 0bbb 0e32 293a 0db1 37bd b6c6 92bc
000002f0: 1905 843c ae41 a23c b0ef 8a3d e0aa 473d
00000300: 27b9 20b9 c1ea 5fbd 026f 2c3c 64cd 33bc
00000310: 44ac 8b3c ddd9 83bd 216e d4bc 3768 dcbc
00000320: 4d33 cc3c 6b1f 4bbc be82 993c 3421 7c3c
00000330: 2f38 9d3d 491d 15bd b38f 8a3c bf1c ebbc
00000340: 05c9 4e3c 32fc dcbc 807e 87bc ae3c 9fbb
00000350: 0102 52b9 c6bb fa3c df02 ac3c c4b3 2f3c
00000360: 1178 d83b 3967 f13c fd27 be3c 0ce6 7d3d
00000370: ba19 65bd f027 1dbd a040 47bc 32c5 c2bc
00000380: e582 ff3c f1b3 8b3c 8d77 763d 2041 ccbb
00000390: 5996 273c 0651 b5bb 631b c9bc 4684 0a3c
000003a0: bbe7 803c 4307 74bd 47f5 c53c 8d50 98bd
000003b0: 9d29 0abc ddf2 17bd 8c76 7e3c 8811 5b3c
000003c0: 59f6 2cbb 4f2f 043c fb3d f1bb 9e9b ecbc
000003d0: 1655 913c d486 20bc 165b d4bc 99aa 5a3c
000003e0: 8cfa afb8 d911 30bd 7397 173d fa36 a3bc
000003f0: 7633 813c 299b 683d 1a32 09bc 2a0e 913c
-0.053141627 -0.0024692891 0.015796574 0.0061392155 0.0008771779 0.026999643 0.019491168 -0.012180646
-0.0058976286 0.016161202 0.046882182 -0.011369278 -0.050733414 -0.058607925 -0.002836479 -0.043006334
-0.03320011 0.022144105 -0.032896765 -0.014926896 -0.009641744 -0.010801104 -0.023714235 -0.013609754
-0.034597892 0.028812138 -0.02864415 0.04134075 0.01638393 0.008750207 0.038153574 -0.013758529
0.011570997 0.005102535 -0.040608156 -0.021771079 -0.045309592 0.007905171 0.036728326 0.03862258
-0.027944405 -0.04081821 -0.045061633 -0.01752619 0.0062117595 0.027008465 0.027216773 -0.012706032
-0.010679966 -0.031977255 -0.026934614 -0.013835935 -0.03319094 -0.028905155 0.03202498 0.010870911
-0.044467434 0.034165014 0.039783858 0.028222473 0.022332398 0.040699873 0.10374737 0.052427437
0.0015103513 -0.011603208 0.023039944 0.029783625 -0.02997977 -0.01846715 0.019803617 0.07157293
0.007437735 0.062429715 -0.0060487753 0.02312971 -0.010271261 0.020643447 -0.0010017484 -0.0006012289
-0.023551377 0.059186593 0.014398633 -0.030393464 -0.0013066903 -0.011055948 0.039768133 0.0054862923
0.017369108 0.020356942 -0.02028186 0.014356107 0.04518703 0.047742233 0.049825292 0.03937332
-0.00622826 -0.013220236 0.00041216725 0.012760058 0.0005331863 -0.018088156 -0.027825879 -0.029906107
0.035831314 0.04422887 0.003332094 0.06753025 -0.016450798 0.021223463 0.037014045 0.037968893
0.0020639696 -0.0508402 -0.030486671 0.03990155 0.027769873 -0.020950599 0.051299512 0.043525077
0.005572274 -0.027475834 0.035839055 0.04397119 0.060979404 -0.012939144 0.011548874 0.012394262
-0.00036481445 -0.004832259 0.037328392 -0.013152323 0.04447764 0.02885967 0.03365457 0.035142303
0.059197146 0.082039244 0.021791056 0.06343777 -0.0380258 -0.0011259392 -0.0015171972 -0.025439568
0.012815212 -0.012749382 0.024656301 -0.012938654 0.0075637917 0.030692603 0.078495875 0.03523891
0.021834185 0.08089337 0.025025537 0.0071549234 -0.035964638 0.0040143165 -0.018162558 -0.047109757
0.019797742 -0.013357585 -0.058487903 0.0063467682 0.03537965 -0.030493625 -0.0045694476 0.06851356
0.03629673 -0.019737912 -0.00051360764 0.06186904 0.009953477 -0.043181222 -0.0005202838 0.036181334
0.00629383 0.010950725 -0.015399087 -0.016746651 -0.031400435 0.010437355 -0.034594048 -0.017287945
-0.0021335923 0.0006454297 -0.044846583 -0.017917018 0.016115712 0.01980671 0.06783998 0.048746943
-0.00015327764 -0.05466724 0.010524513 -0.010974262 0.017049916 -0.064380385 -0.02593142 -0.026905162
0.024926806 -0.012397627 0.0187391 0.015388776 0.07676732 -0.03640488 0.016914224 -0.02870023
0.012621169 -0.026975725 -0.016539812 -0.0048595285 -0.00020027907 0.030607115 0.020997463 0.010724012
0.00660611 0.029468166 0.023212427 0.061986968 -0.055932738 -0.038368165 -0.012161404 -0.02377567
0.031190345 0.017053576 0.060172606 -0.0062333494 0.010228717 -0.0055333404 -0.024549192 0.008454388
0.015735498 -0.059577238 0.024164809 -0.07437239 -0.008432773 -0.037096847 0.015531193 0.013370879
-0.0026391952 0.00806792 -0.007362125 -0.028882798 0.017740767 -0.0097977705 -0.02592234 0.013346338
-8.391318e-05 -0.04298577 0.037009668 -0.019923676 0.015771609 0.056788597 -0.008373762 0.01770695

bias f4 [64]
00000000: 848f 8fbc 2490 ce3b 9e4e dbbc 7d0d 843c
00000010: 3f1b b3bc a757 413d baed 56bc e120 78bc
00000020: 3856 693c 40d9 ffbb bcef d2bc 9175 3cbd
00000030: 30fa 813c 6a68 5a3d a2b0 cd3b cdb8 b8bb
00000040: 5d70 dd3c 6689 043c 02d0 b2bc 2cc8 153d
00000050: 3cfe 3ebd 8f7a a63c c988 953c 6a36 09bd
00000060: 856b c63c c757 0fbd 61bc 8938 c5dd 00bd
00000070: a604 9f3d 6ef2 ea3c a46e aebc 9004 a03c
00000080: 44bb 59bd 7faf 2e3d 98ab 2b3b af1e 3dbd
00000090: ea1b dfbc 76c7 ca3c e82d 3ebd 59a8 4ebd
000000a0: a4e8 50bd cd16 bebc 6249 20bd 6fee 30bd
000000b0: ddd4 a73c 8d83 23bc 3f42 2fbc cbf9 2abd
000000c0: 11f1 04bd dfd3 dfbc 647f 043d 7e1e 863d
000000d0: 2e9a e23c 7372 c8b9 6dac 9bba d1a3 97bb
000000e0: 1474 933b ac9c 29bd ddfd 4ebd b417 863c
000000f0: d9bf 123d 7fee 2dbd 6946 003d 6cf4 003d
-0.017524488 0.006303804 -0.026770886 0.016119713 -0.021863578 0.047202732 -0.013118202 -0.015144558
0.014241748 -0.0078078806 -0.02574908 -0.046010558 0.015866369 0.053322233 0.00627716 -0.0056372643
0.027031118 0.008089399 -0.021827701 0.036567852 -0.046629176 0.020322112 0.0182537 -0.03349916
0.024221191 -0.03499582 6.5677574e-05 -0.031461496 0.077645585 0.028680053 -0.021292992 0.019533426
-0.053157106 0.042647835 0.0026194807 -0.04617184 -0.02723499 0.024753314 -0.0464305 -0.050453518
-0.051003113 -0.023204232 -0.039132483 -0.043196138 0.020487243 -0.009980095 -0.010696947 -0.041742127
-0.03245646 -0.027322708 0.03234805 0.06548785 0.02766141 -0.00038232244 -0.0011876948 -0.0046276827
0.0044999216 -0.04140918 -0.05053507 0.016368724 0.03582749 -0.042463776 0.03131715 0.0314831

weight f4 [10, 64]
00000000: 3633 5c3d d1c0 653e 2727 fbbd 67d1 1bbd
00000010: 0b90 43be 7dd6 78be f187 dc3d 5b7f 713e
00000020: 0387 643e 734b 5c3d 7025 7bbe 539d 763e
00000030: b890 b3bd 9fd6 443d adbe 8fbe e035 713e
00000040: b93a 563e 38ab 8fbe 6a38 613e 8930 5fbe
00000050: 5134 213d 85b6 5abe d607 9bbc 217f 493e
00000060: 8778 07be 634f 0dbd 85f0 3ebe 6f13 febd
00000070: d059 81be e2b7 fbbc 3b7f 4bbd e1d8 373d
00000080: f2d1 9d3e 0f0b 85be a319 b5bd 22a4 6c3d
00000090: 6954 52be 3226 dcbd f871 9f3e 1b2b 7fbe
000000a0: 6af7 863e 81f1 a1bd 57b3 d53d 8f16 403e
000000b0: b341 a03b 6752 73be a0a9 853d b4e5 cabd
000000c0: 8b89 913e 9d09 76bc 7455 88be 1594 05be
000000d0: 33b3 f73d 95aa fcbc 6ec6 0c3e fafd f63c
000000e0: dfc1 2a3d f8f9 9e3e 07fa 223e bf0f 95be
000000f0: 3239 1fbe 3b85 2c3a c070 05be e2c3 343d
00000100: 20ee 253e f818 8dbd 43e2 263e 1290 7dbe
00000110: 0775 e8bc 97b2 823d 9728 dcbd fe3b 8bbe
00000120: bcbe a2be 119f acbb b8a9 97be 2f5e 4bbe
00000130: d09b d1bd dfe6 60be 0d63 9e3e 86e1 bebd
00000140: edd6 a1bd 4bcf 8f3e 4623 b73d 60ba 38be
00000150: 0efb 2bbe f191 0abe f215 5fbd 5cc8 793e
00000160: 99ff df3e b133 8f3e 9358 593e df12 ae3d
00000170: 04d2 95be f1e6 64be 158a c8bd 8db6 363e
00000180: b792 8e3e 6560 f23d 7a99 c1bd 941e 86be
00000190: d5a3 efbd 2dda 153e 9ad0 85be 05ad d9bd
000001a0: 5541 0d3e 1d71 1fbd 339a ef3c e67b 923d
000001b0: dbda 94be 76a7 81be aa56 d5bd c373 9a3e
000001c0: 3f22 3dbd 33e7 3d3e 75e8 5ebe 558c 6bbe
000001d0: d5c5 cabe a52b 813e 2b0c 4ebe 9550 02be
000001e0: 9833 cf3e 64fa 403e f840 673b 6239 b63e
000001f0: e148 e6be 498b 23be 0de5 9fbe a7d4 7fbe
00000200: af4a adbe 74c3 c9bb c2ab aabe 295f 433e
00000210: 7d41 e3bd 8204 c5bd a24a bf3d c6d1 6ebd
00000220: 7155 063c 4371 04be 61ab 523e f1bf 85be
00000230: 4aa1 d53c 0124 e53c ed65 adbe c350 813e
00000240: 68e0 8cbd d9e6 30be f575 35be a59c f33d
00000250: f626 603d f22a cd3d f940 59be a90d 94be
00000260: 4d1e 14bd 6598 703d 4f19 2fbe 79b3 1a3e
00000270: 19bd 21be b3f0 663e b351 49bd c589 653e
00000280: b7d1 813e eb85 d93d c127 40be a7bf 92bc
00000290: 0035 823e f288 033e 51cb 293e 5a45 a2be
000002a0: 1b5c ee3d 3a9a ef3d 08a1 e93c 1dd7 093d
000002b0: 56ff fa3d 02be 8d3e 1a79 cb3e c225 b0bc
000002c0: 8937 e93d ca0e 943e 0602 933e 5929 513e
000002d0: cf0b ffbd 60a9 5e3e d8d0 153e e048 333e
000002e0: bfad 263d db22 11be 9b15 7bbd 8f0a 65be
000002f0: e2b5 9a3e ba3d 6b3d 64bd fa3d b6df 84bd
00000300: 75b7 1dbe 1991 433e b69a 6dbe 7a42 3abe
00000310: bffc d7bd c687 703e b8d3 95bc d775 bcbc
00000320: 3892 3bbe 3b9e 503e 7deb 4d3e 2fa4 df3c
00000330: f9d3 fa3d 578b 78be 97df 853e 92f7 e7bd
00000340: 692e f73d 1002 563e 2a2e 3dbd 412a 62bb
00000350: aed2 003d 3d43 043e 71a5 6b3e 3051 133a
00000360: d846 8fbd 63ab 32bd cb5c 46be 6d3e 59be
00000370: 6e52 c53d ac66 a73d de2b 8a3e 246a febd
00000380: b494 aebd e856 243d 28a8 0b3e 4351 d6bd
00000390: 0d65 343e cc23 d43c 429e de3d 5aad af3d
000003a0: 5bab 373e 33b0 7f3e db6d b6be 519a 58bd
000003b0: d9e7 473d 1e4d d33d 665c 253e 5e34 5bbe
000003c0: 04b2 83bd 6b33 cdbd 20be 3dbe c6cb ac3c
000003d0: 4dee 123e a53d 573e b62d ea3d 407b 85bd
000003e0: bd61 0cbe 9797 1dbe 2888 1c3e 2f03 82bd
000003f0: 6eeb 543d eb6f 09be 206d c13d 47a9 79bd
0.053759776 0.22436835 -0.12263327 -0.0380415 -0.19097917 -0.24300571 0.10768116 0.23583739
0.22317128 0.05378289 -0.24526 0.24083452 -0.08767837 0.04805624 -0.28075162 0.23555708
0.20920838 -0.28060317 0.21994177 -0.21795858 0.039356533 -0.21358688 -0.018924635 0.19677402
-0.13229571 -0.034499537 -0.18646438 -0.124060504 -0.25263834 -0.03072733 -0.049681883 0.044884566
0.30824238 -0.25985 -0.088427804 0.057773717 -0.20540012 -0.10749473 0.3114164 -0.24918787
0.26360637 -0.07907391 0.10434597 0.18758605 0.0048906445 -0.23761903 0.06526494 -0.09907094
0.2842525 -0.01501694 -0.26627696 -0.1304477 0.120947264 -0.030843059 0.1374757 0.030150402
0.041688796 0.31050086 0.1591569 -0.29113576 -0.15549162 0.0006581132 -0.13031292 0.04413212
0.16204119 -0.06889528 0.1629725 -0.2476199 -0.028376115 0.063817196 -0.107499294 -0.27194208
-0.31786144 -0.0052679856 -0.29621673 -0.19860147 -0.10234797 -0.2196307 0.30934945 -0.09320359
-0.07902322 0.2808784 0.08942275 -0.18039846 -0.16794989 -0.13532235 -0.054464288 0.24392837
0.43749693 0.27969125 0.21225195 0.08499693 -0.29261792 -0.22353722 -0.09791962 0.17843075
0.2784631 0.11834792 -0.094531015 -0.26195204 -0.1170117 0.14634009 -0.26135713 -0.10628704
0.13794453 -0.038926233 0.029248333 0.07152538 -0.29073223 -0.25323075 -0.104169205 0.30166444
-0.046175238 0.18545227 -0.21768363 -0.23002751 -0.3960406 0.2522861 -0.20121829 -0.12726052
0.4046905 0.18845516 0.0035286527 0.35590655 -0.44977477 -0.15971102 -0.3122944 -0.24983464
-0.33846042 -0.006157333 -0.33334166 0.1907927 -0.11096475 -0.096200004 0.09340407 -0.058305524
0.008199082 -0.12933831 0.20573188 -0.26123002 0.026077885 0.02797127 -0.33866826 0.2525693
-0.068787396 -0.17275561 -0.17720778 0.11895112 0.054724656 0.10017957 -0.21216191 -0.28916672
-0.03616171 0.058739085 -0.17099498 0.15107526 -0.15794791 0.22552757 -0.04915018 0.22415836
0.25355312 0.10621246 -0.18765165 -0.017913653 0.2543106 0.12845209 0.16581465 -0.31693536
0.116386615 0.11699338 0.028519168 0.033652414 0.12255733 0.27684027 0.3974083 -0.02150238
0.113875456 0.28917533 0.2871248 0.20425929 -0.12453424 0.21744299 0.14630449 0.17508268
0.04069304 -0.14173453 -0.0612999 -0.22367309 0.3021689 0.057431914 0.12243155 -0.06487982
-0.15402015 0.19098319 -0.23203549 -0.18189421 -0.10546254 0.23489293 -0.018289432 -0.02300541
-0.18317497 0.2037286 0.20109363 0.027299969 0.12247462 -0.24271904 0.26147148 -0.11326517
0.12069399 0.20899224 -0.046186604 -0.0034510049 0.03145092 0.12916274 0.2301233 0.0005619703
-0.06995934 -0.04362048 -0.19371335 -0.2121522 0.09634863 0.0817388 0.26986593 -0.124225885
-0.085244566 0.040121943 0.13638365 -0.10464718 0.17616673 0.025895976 0.10870029 0.08577986
0.1793646 0.24969558 -0.35630688 -0.052881543 0.04880509 0.10317443 0.16148528 -0.21406695
-0.06430438 -0.10019573 -0.18529558 0.02109326 0.14348717 0.2101961 0.114345 -0.06517649
-0.13709159 -0.15389858 0.15286314 -0.063482635 0.051982336 -0.134216 0.09444642 -0.06095245

bias f4 [10]
00000000: 4d7e 8ebd 7b62 d93d 00b0 bcbc a826 b03d
00000010: b155 ce3d a1fa ebbd 9068 bd3d 4632 cdbc
00000020: 4112 97bb b616 f83c
-0.06957684 0.10614487 -0.023033142 0.08601123 0.10074938 -0.11522413 0.09248459 -0.025048386
-0.0046103303 0.030284267
