try_train/cifar10_models/cifar10_net_37.pth (torch, 589402 bytes, 10 tensors)

weight f4 [32, 3, 5, 5]
000000 16 a8 b2 bd e2 bd ac 3d 60 f8 29 3e 0d 4e 7c 3a
       -0.08723466 0.08434655 0.16598654 0.00096246676
000010 a7 20 0c 3e 04 46 f8 bd 10 c5 c4 bd b8 c6 7d bc
       0.13684331 -0.121227294 -0.09607899 -0.015489273
000020 03 15 65 3e 6e 04 af 3d 83 9d a1 bd cc 4b 8e 3c
       0.22371297 0.08545767 -0.07891371 0.017370127
000030 b6 91 54 be 74 6c a4 bb 92 3d ca bd 29 15 a0 3d
       -0.2075871 -0.0050178114 -0.09875025 0.07816536
000040 7f e5 b4 3c 1f 1d a0 be 40 9f 58 be a4 80 ff bd
       0.022082089 -0.31272218 -0.21154499 -0.12475708
000050 c8 33 4a 3e 98 4f 44 bd 8b 75 9b be 7c cd eb bd
       0.19746315 -0.04792747 -0.30363116 -0.115138024
000060 f5 ab fb bc a2 5e 07 be e6 40 93 bd fc eb 1a bd
       -0.030721644 -0.13219693 -0.07190113 -0.03782271
000070 07 ca 44 bd d9 6b c0 bd 7b 71 95 3d a7 ed 00 be
       -0.04804423 -0.0939557 0.07297035 -0.12590657
000080 31 97 01 be 7d fc d4 3d 97 07 05 3d d9 87 c8 3c
       -0.12655331 0.10399721 0.03247794 0.02447884
000090 d1 67 9e 3d d6 da 43 be b9 60 e5 3b 67 d6 22 bd
       0.07734645 -0.19126448 0.0070000556 -0.03975525
0000a0 1e 69 b9 3e 50 a8 4f 3e 0e 29 30 be 86 5b 98 bd
       0.3621301 0.2027905 -0.17203161 -0.07439332
0000b0 13 00 c7 bd c8 65 6f 3e 43 fb dd 3d b4 b9 55 be
       -0.09716811 0.2337867 0.1083894 -0.20871621
0000c0 c9 60 28 be 0f bf a2 3d 68 74 72 bc 5c 95 44 3d
       -0.1644317 0.07946598 -0.014798261 0.047994003
0000d0 c2 3b 0e 3e 48 c0 bd bb 82 b4 12 be da 67 b7 3c
       0.13889983 -0.005790744 -0.14326671 0.022388387
0000e0 e1 88 bd 3a 9f 7b 0d ba 60 4a 25 3d da cd 0d bd
       0.0014460349 -0.0005397144 0.040354133 -0.034620143
0000f0 c1 44 3e 3e c6 81 88 3d cd a2 27 be b6 ee db bd
       0.18580915 0.06665377 -0.16370697 -0.1073889
000100 7b 6d 67 bd b1 08 ae 3e 64 fe 84 3e 35 c3 03 be
       -0.056500893 0.33991006 0.25975335 -0.12867434
000110 0f ca 8d bd b8 87 f3 3a 30 9c b3 3e 78 29 45 3e
       -0.06923305 0.0018579876 0.350801 0.192541
000120 ef 2a 33 be 0b 3c 0f be 60 be ab bd 2f 2d f6 bd
       -0.17496847 -0.13987748 -0.083859205 -0.12020337
000130 8b 9c a8 bd 65 ec 51 be 76 db 71 3b da 2b d1 bc
       -0.08232983 -0.20500334 0.003690449 -0.025533605
000140 fe 8c 41 bc 1a ae 8e bd 4d a1 e3 bc 00 e5 b2 bd
       -0.0118134 -0.06966801 -0.027786875 -0.087350845
000150 3a 8c c3 3c 62 d2 29 3b 71 51 8a bd bb e0 17 bd
       0.023870576 0.0025912751 -0.06753815 -0.037079554
000160 eb e4 81 bd c8 e0 54 3d 01 b8 04 be 7a 78 06 be
       -0.06342491 0.05197218 -0.12960817 -0.13131896
000170 a7 7d 4e be 88 2d 49 be ac 1e 09 bd d4 3d 7c bc
       -0.2016512 -0.19646275 -0.033476517 -0.0153956
000180 de db 3a be 98 67 4f be fe 23 55 be 01 42 b2 bd
       -0.18247935 -0.20254362 -0.20814511 -0.087039955
000190 86 b4 41 bc df d8 35 bc e4 ef d5 bd c9 47 bc 3c
       -0.011822825 -0.011099069 -0.10446146 0.022983449
0001a0 af cb 28 be 29 ef 36 bd df 77 0c 3d 2a a0 18 3e
       -0.16483949 -0.044661675 0.034294005 0.14904848
0001b0 7c 3c 47 3e 77 c2 04 3d ab a8 ec bc c9 f2 8e 3d
       0.19456667 0.03241202 -0.02888902 0.06979901
0001c0 b8 40 90 3d 78 7c 54 3e a9 e6 2c 3d f7 61 3d 3c
       0.07043594 0.20750606 0.042212162 0.011559001
0001d0 d9 42 61 bd 66 a5 fa bd bf 3e 87 bd 63 6f f7 bc
       -0.05499539 -0.122385785 -0.06603765 -0.03020448
0001e0 f1 8c 66 bd a4 e9 3f be ca b2 73 be c0 62 72 be
       -0.056286756 -0.1874147 -0.23798671 -0.23670483
0001f0 d3 2a e1 bd 93 29 9b bd 67 f1 81 3d 70 b7 32 bd
       -0.10994496 -0.07576289 0.06344872 -0.04363197
000200 69 74 dd bd 66 84 d4 bd dd aa e9 3d a9 4d 53 3e
       -0.10813219 -0.103768155 0.11409543 0.20635094
000210 2b 11 9d 3e 9c e3 2e 3e bf d1 1c bc 0f da 52 3e
       0.3067716 0.17079014 -0.009571492 0.20590995
000220 4c 18 b1 3e 06 35 d7 3e 55 b2 8e 3e 32 7f 2a 3e
       0.3458885 0.4203264 0.27870432 0.16650084
000230 eb b7 3a 3e 1e a3 85 3e 0b 80 6e 3e 37 d4 2b 3e
       0.18234222 0.2610101 0.23291032 0.16780172
000240 66 09 55 3e a1 bf f1 3c 82 9d d8 bc be ff b6 3c
       0.20804366 0.029510321 -0.026442293 0.022338744
000250 dc 05 da 3d 38 20 3b 3d 29 83 ad 3d 3f 86 22 be
       0.10645649 0.045685023 0.084722824 -0.15871523
000260 53 a7 81 3d cd 91 ca bd b7 6f 77 bd 82 96 6c 3e
       0.06330743 -0.098910905 -0.060409274 0.23104289
000270 40 e0 9b be ef 6d d3 3d a5 32 76 bc ee eb c1 bd
       -0.30444527 0.103237025 -0.015026723 -0.09468828
000280 bd a9 36 3d d7 c8 8d be 39 80 ab bd 0c 10 90 bd
       0.04459547 -0.2769229 -0.08374066 -0.07034311
000290 9c 9d 5d 3c d8 0c 15 be 16 06 77 bc 10 50 48 3e
       0.013526347 -0.14555681 -0.015077135 0.19561791
0002a0 58 06 99 3c 26 5e 53 3c 60 c6 03 be d6 31 54 bd
       0.018679783 0.012900865 -0.12868643 -0.05180534
0002b0 77 7c c3 bc 4a 18 14 be ac 66 39 be ef 6d 54 3e
       -0.02386306 -0.1446239 -0.18105572 0.20745061
0002c0 ca 32 e5 bd ff 74 08 3e b3 0e 1d 3d 79 2e 20 3c
       -0.11191328 0.1332588 0.038344096 0.009776705
0002d0 06 ae 72 3e 98 a5 04 be 87 c4 f2 3d 89 a9 a5 3d
       0.23699197 -0.12953794 0.11853891 0.08088977
0002e0 64 57 a1 3d 43 15 25 3e 5e 50 54 be af 04 60 3e
       0.078779966 0.16121392 -0.20733783 0.21876787
0002f0 db 3e 33 3d 6e 7f 2b bd 61 58 3c bd a3 a5 b3 bc
       0.043761116 -0.041869573 -0.045982722 -0.021929568
000300 b4 d0 73 3e 59 a6 5a 3e 2d 35 2c 3e 40 a2 c1 3b
       0.23810083 0.21352519 0.1681716 0.0059092343
000310 36 f8 b4 3d 3d 51 68 bd 0a 3d 73 3d 20 24 6a bc
       0.08836405 -0.0567181 0.059384383 -0.014290839
000320 63 cb 90 3d 08 20 4f be 4a 0e 35 3e c6 d5 e7 bd
       0.07070043 -0.20227063 0.17681232 -0.11320071
000330 ef 5a cb bb 96 07 4b 3e 03 e1 66 be 18 cb a8 3d
       -0.0062059085 0.19827113 -0.22546773 0.08241862
000340 2b 54 c7 bd 40 62 8a 3d 78 d0 b4 3d 62 2a 67 be
       -0.09732851 0.06757021 0.08828825 -0.22574762
000350 44 a8 ea 3a 9b cc d3 bd 84 a0 14 3d 9c 36 f2 3c
       0.001790293 -0.1034176 0.036285892 0.029567055
000360 f0 49 e8 bd 42 ff 86 3e 28 ab 16 3e d1 05 ad bd
       -0.113422275 0.2636662 0.14713728 -0.08448375
000370 9f 34 ae bd 8c 0c e6 3d a1 4f da bd 43 4e 38 be
       -0.085061304 0.11232862 -0.10659719 -0.17998604
000380 a4 57 2e be 47 df 20 bd 16 a8 d3 3d b3 bd 1e 3e
       -0.1702562 -0.039275434 0.10334794 0.15502052
000390 f3 88 03 3d a6 30 09 3e 94 ad 0c bd 16 ec cb 3d
       0.032113027 0.13397464 -0.034345224 0.09957139
0003a0 3a 65 25 bc 4d c2 3f 3d f9 c8 f8 bd 38 7d 01 3e
       -0.010094935 0.04681616 -0.121477075 0.12645423
0003b0 52 83 90 3d f2 b6 33 3e a2 70 2e 3e 1f 24 9e bc
       0.07056297 0.17550257 0.17035154 -0.019304333
0003c0 c6 b7 d4 bd ba 37 38 be 6e 9f 11 bd f6 33 24 3d
       -0.103866145 -0.17990008 -0.035552435 0.040088616
0003d0 d7 32 28 3e 0b a6 e7 bd f7 b1 43 be e1 25 96 be
       0.16425644 -0.11310967 -0.19110857 -0.29325774
0003e0 7b 49 e1 bd 41 82 07 be 38 06 6f bb 0a 3c 5c bc
       -0.110003434 -0.13233282 -0.0036472213 -0.013442049
0003f0 5e 64 86 bc b0 92 bd 3d 88 f7 a7 3d 5d 5c f5 bc
       -0.01640528 0.09256494 0.0820151 -0.029951269

bias f4 [32]
000000 33 6d 36 3e e7 80 bd be 27 d7 0a bd 1a 7f 07 3e
       0.17815094 -0.37012407 -0.03389659 0.13232079
000010 a5 1d f1 bc 46 1e dc bd 6e 66 d7 3b 01 70 c4 bd
       -0.02943308 -0.10747962 0.00657349 -0.095916755
000020 77 d5 da 3d db 4d 84 be 14 32 56 be 5b 6f 91 bd
       0.106852464 -0.2584065 -0.20917541 -0.071013175
000030 0d 9a e7 3d 8d 7e 75 3c b1 a8 7f be a2 72 91 3e
       0.1130868 0.014983785 -0.24966694 0.2840777
000040 67 d7 46 bd 14 5c c9 3d 34 79 7e be 2d 6d 9c bd
       -0.048545267 0.09832016 -0.24850923 -0.07638011
000050 b8 4d 09 be 82 99 d8 3c 65 cd 91 be a4 06 83 be
       -0.13408554 0.026440386 -0.28477016 -0.25591004
000060 f2 e7 53 3d c6 9a dd be 0b 29 e0 bc 02 ea 04 be
       0.051734872 -0.43282145 -0.02736332 -0.12979892
000070 b1 18 dc 3e d9 01 9a 3c bc dc 30 be 5f a5 19 be
       0.42987588 0.01879971 -0.17271703 -0.1500449

weight f4 [32, 32, 5, 5]
000000 fa ad cb 3c f5 23 24 3d 3d 96 01 bd 50 58 83 bd
       0.024863232 0.040073354 -0.03163742 -0.06413329
000010 68 27 9d bc 51 a1 7a ba 52 e6 ad 3d 55 8e 5e 3d
       -0.01918383 -0.0009560781 0.08491196 0.054334957
000020 8c f2 96 bc 76 fc 51 bc f0 16 0a 3c 82 98 56 3c
       -0.018426202 -0.012816539 0.00842832 0.013097884
000030 27 55 28 3d f3 f7 62 3d 2c ae 1a bd ed 4c 3d bd
       0.041096833 0.055412244 -0.03776376 -0.04621594
000040 fd 90 8a bc d5 03 16 3c a3 be 98 3d c8 7f 8a 3d
       -0.016914839 0.009156187 0.07458236 0.067626536
000050 21 5f 1d bd 61 9e 40 bd 71 36 d2 bb 9a 1d cd 3d
       -0.0384208 -0.047026042 -0.0064151813 0.10015412
000060 60 9a d3 3d 0c 04 da 3c c6 2e 99 bb 37 6c 04 3d
       0.10332179 0.026613258 -0.0046747653 0.032329764
000070 d6 72 be 3c aa 6d ba 3c a0 c0 11 3d 03 25 04 bc
       0.023248117 0.02275737 0.035584092 -0.008065465
000080 f2 db 04 bd f5 af 03 3d 93 7d 9c 3d 0d e9 b2 3d
       -0.03243632 0.032150228 0.07641139 0.08735857
000090 fd fa 32 3d 04 ee 99 bd 63 67 63 bd c3 3b b7 3d
       0.043696392 -0.07516101 -0.05551852 0.089469455
0000a0 52 f5 a2 3d d6 75 b7 3c 89 79 45 bd 7a ae c9 bd
       0.079569474 0.022395056 -0.048211608 -0.09847732
0000b0 58 5d 5b bd e2 ad e3 3d 22 6a de 3c 60 d1 3a 3d
       -0.053555816 0.1111715 0.027150217 0.04560983
0000c0 eb de 30 3d 2e d8 1a bc b4 f5 d6 ba c6 a2 4e bd
       0.04318134 -0.009450955 -0.001640013 -0.0504482
0000d0 48 20 65 bd 79 f2 7c bc 92 bb 86 bd 14 b0 44 bd
       -0.05593899 -0.015438669 -0.06578745 -0.048019484
0000e0 dc 30 5c bd ae 68 f5 bc 43 2a 90 bd 5c cb 07 bd
       -0.053757533 -0.029957142 -0.07039311 -0.033152923
0000f0 09 8f 45 ba 62 9e 3c bd c3 17 ac bd 88 81 26 bc
       -0.00075362675 -0.046049483 -0.0840297 -0.010162719
000100 99 dd b7 3c c4 53 b9 3c f3 2c 4b bd 54 78 89 bd
       0.022444533 0.02262295 -0.049603414 -0.06712404
000110 ac 4d 0b bd 23 65 5c 3c c4 d1 48 bc 52 93 18 3d
       -0.03400962 0.013451847 -0.012257043 0.03724987
000120 5f 94 80 3b 59 a5 56 3b d7 d9 ca bc 0a 0d 92 3c
       0.003923937 0.0032752363 -0.024762077 0.017828483
000130 08 1c eb 3c ba 6a 8b 3d 29 8d 64 3c 3b 34 9d bb
       0.02869989 0.06807466 0.013949671 -0.004797486
000140 60 5e 51 bd 2d 5f 03 bd d6 2b 5f 3b 64 3e b7 3d
       -0.051115394 -0.03207319 0.0034053228 0.08947447
000150 9c ca 54 3c 34 9f 2e bc ac 0f b7 bc 18 a9 35 bd
       0.012987759 -0.010658074 -0.02234634 -0.044350713
000160 d0 44 89 bc 33 08 e0 3d c3 36 0f 3c 29 e9 2a bd
       -0.016756445 0.10939064 0.008741084 -0.041726265
000170 c9 e7 dd bd 83 a5 06 bd 33 ad 70 3c 4f 27 b4 3c
       -0.10835225 -0.032872688 0.014689731 0.0219914
000180 d6 4d 91 3c 63 16 a3 bc c1 b9 a2 bd 99 23 ae 3c
       0.01773731 -0.019908136 -0.07945586 0.021257209
000190 b8 86 5b 3c d5 a7 5e 3c e3 01 80 bd ca 8a 46 bd
       0.013398819 0.013589819 -0.0625036 -0.048472203
0001a0 4e d6 52 bd 09 1b 7b bc 07 12 36 bc f5 de be bc
       -0.051473908 -0.01532627 -0.0111126965 -0.023299674
0001b0 f2 89 df bc 66 b8 11 3d dd 83 bf bc d7 24 7e 3c
       -0.027287457 0.035576247 -0.023378307 0.015511713
0001c0 7c 5f b7 bc 68 ce 1b bc 89 0d 15 3d 0e 63 0d bc
       -0.022384398 -0.00950966 0.03638986 -0.0086295735
0001d0 5e 3b 24 bc 5e fd f4 bc da 4c 62 3c 82 1d 8f 3d
       -0.01002392 -0.029905971 0.013812268 0.0698805
0001e0 1e 4d 6b bd cd 7e 41 bc e0 7d 36 3d cb f1 b3 3c
       -0.05744659 -0.011810017 0.044553638 0.021965882
0001f0 9a 6b d0 3c 41 1c df bb 14 2d 7a bc e7 ca c5 ba
       0.025441933 -0.006808788 -0.0152695365 -0.0015090377
000200 f0 c7 03 bc 24 d7 db 3c fd 4b 9e 3c 91 0f 2e bd
       -0.008043274 0.026835985 0.019323343 -0.042495314
000210 15 40 a4 ba ea 08 a0 bc 0f 75 90 bc 9c 9b cd bc
       -0.0012531305 -0.0195355 -0.017633943 -0.025098614
000220 64 79 cb 3b c3 54 63 bd a9 eb 3f bc 89 eb ac bc
       0.0062095392 -0.055500757 -0.011713901 -0.021108406
000230 1b 81 1b bd b5 5f bb bd ea 34 f9 bd 5a d0 8c bb
       -0.03796492 -0.09149114 -0.12168296 -0.0042972984
000240 a2 f2 f3 3c e8 fd c8 bc 0e af 9b 3c 80 45 e2 ba
       0.029778782 -0.024535134 0.019004371 -0.0017263144
000250 c0 64 27 bd fd a0 c1 3c 6f b9 1d bd 6d db 08 bd
       -0.040867567 0.023636336 -0.03850692 -0.033412386
000260 7f 50 64 bd 29 94 aa bd 61 a3 3c bd 38 77 35 bd
       -0.05574083 -0.083290406 -0.046054248 -0.04430315
000270 7a d1 ae bd cf 3c 4b bd ce 76 2f bd f7 8e 14 bd
       -0.08536048 -0.04961854 -0.04283791 -0.036269154
000280 86 7f 0f bc e8 2d 70 bd db 7a 0f bd 15 5c 1b 3c
       -0.008758431 -0.05863753 -0.035029273 0.009482403
000290 11 5d 15 bd 48 34 85 bd 16 b1 2f bd 1c c5 84 bd
       -0.03646571 -0.065041125 -0.04289349 -0.06482908
0002a0 7e d0 c9 3c 29 ec 82 3b 60 33 d3 bc 69 74 5d bd
       0.02463555 0.0039954376 -0.025781333 -0.054066096
0002b0 4a ba 24 bd c5 64 91 bc 6d 40 b4 3c 01 54 87 bc
       -0.04021672 -0.017748246 0.022003377 -0.016519548
0002c0 94 54 25 bc 78 ee 83 bd 6e 57 da 3b 60 12 85 3d
       -0.010090966 -0.06441969 0.0066632545 0.064976454
0002d0 b8 55 cb 3c 5b 21 06 3c 2b db 03 bd 41 46 d2 3c
       0.024821147 0.0081866635 -0.032191437 0.025668265
0002e0 cf 20 87 3d e0 96 fa 3c 39 da 76 3d ce 5d 3f 3c
       0.065980546 0.03058952 0.060266707 0.01168008
0002f0 53 7e 5a bd c7 1c 92 3c d5 4b 35 3d 6f 07 b3 3d
       -0.05334313 0.017835988 0.044261772 0.08741652
000300 2f 94 9f 3d 25 5f 49 bd 9e f3 8a bc 33 3b d0 bc
       0.07791936 -0.049163003 -0.016961869 -0.025418853
000310 ee 38 20 bc 33 17 db 3c bf d7 f9 bc da 59 f0 bb
       -0.009779198 0.02674446 -0.030498384 -0.00733493
000320 ad 07 e6 3c f2 7b 81 3c 45 5d a4 3b 22 c9 0b 3d
       0.028079832 0.015806172 0.0050160014 0.034127362
000330 e6 a1 c4 3c c4 c4 1d bd 7a 16 82 bc 9f bf 2f 3d
       0.02400298 -0.03851773 -0.015879858 0.042907353
000340 a6 1a 53 3b d4 86 48 3c b2 1f f0 bc 4a ce a4 bc
       0.0032211929 0.012239177 -0.029311989 -0.020117898
000350 e6 64 48 3d 6f fa 54 3d 1c 2a f1 bc d5 4c e1 bc
       0.04892435 0.051996645 -0.029439025 -0.027502457
000360 fd e6 a4 3b c5 4b 22 3d 93 5c c8 3d e7 c1 c3 3c
       0.0050324188 0.03962304 0.09783282 0.02389617
000370 16 1b cd bc a9 07 1c bd ba 1c 5b 3b 3a 00 a4 3d
       -0.02503733 -0.038093243 0.003343387 0.08007856
000380 63 9c 01 3d b3 d9 d7 3c a7 55 7e 3c ba dd d8 ba
       0.031643283 0.026348924 0.015523351 -0.0016545572
000390 1a a7 07 3c 86 c7 d7 3a 60 af 18 3c 81 60 5d 3a
       0.008279586 0.0016462661 0.009319156 0.0008444861
0003a0 b9 26 8b 3c 5c 60 54 3d 5a b8 5a 3d 69 2d 31 3d
       0.016986238 0.051849708 0.053398468 0.043256197
0003b0 35 cc bc 3c 99 2b 13 bd 50 c1 59 3d fe 84 44 3d
       0.023046592 -0.03593025 0.053162873 0.047978394
0003c0 0a 72 f1 bc f0 24 bc bb da a9 6c bd 0c 91 90 bb
       -0.029473323 -0.005741708 -0.05777917 -0.004411822
0003d0 2a b7 c2 3b 66 29 06 3d 3e 19 e3 3c 1e 50 19 bd
       0.005942245 0.032754324 0.027721997 -0.03742992
0003e0 38 82 77 bd 2b e0 f9 bb 7f 67 9d 3c 67 45 11 bc
       -0.06042692 -0.0076256 0.01921439 -0.008866644
0003f0 b8 66 12 3d 10 1f 87 3d e1 cc 42 3d d3 a7 45 bc
       0.03574249 0.065977216 0.04755867 -0.012063938

bias f4 [32]
000000 d9 d4 3a be e9 e0 2f be ac ec 2e be a1 1b 53 bd
       -0.18245257 -0.1717564 -0.1708247 -0.05154002
000010 10 f5 d3 3c 04 e9 87 be 30 0b a3 be cf 3f 95 bd
       0.02587369 -0.26544964 -0.31844473 -0.07287561
000020 56 4e 9c bd 76 4d 1d bd 0c b1 af bc c7 41 25 bd
       -0.07632129 -0.03840395 -0.021446727 -0.040345933
000030 95 92 93 bd 19 75 0b be 15 ef 42 be ab f6 09 be
       -0.07205693 -0.13618888 -0.19036515 -0.13473003
000040 f3 2f 07 be 11 ce 0f be 8a a5 41 bd d5 c1 f7 3a
       -0.13201885 -0.14043452 -0.04727701 0.0018902371
000050 f7 df 68 3c 30 85 06 be cc 1d b5 bd 5f 7b 64 be
       0.014213554 -0.13136744 -0.08843574 -0.22312687
000060 9d af 5f bc d5 ed 84 bc 70 fc c5 bb 93 e2 f8 bd
       -0.013652709 -0.016226688 -0.006042056 -0.121525906
000070 f0 4a 1a be 48 59 87 3d 96 02 31 be 4d cd 2d 3c
       -0.15067649 0.06608826 -0.17286143 0.01060803

weight f4 [64, 32, 5, 5]
000000 d9 09 f1 bc 3d c2 e0 3b 3a b3 65 bd 43 ad 3b bd
       -0.029423641 0.0068590925 -0.056079127 -0.045819532
000010 79 8b b8 bc 25 e9 b7 3c b4 42 48 3d f0 7b dc bc
       -0.022527443 0.02245004 0.048891738 -0.026914567
000020 ff b2 bf bd a6 81 2b 3d 3a 20 8f bd 50 74 09 bd
       -0.09360313 0.04187169 -0.069885686 -0.03355819
000030 e9 51 9d bd 01 59 74 bc b8 58 07 3d d1 87 1d bd
       -0.07681639 -0.014913798 0.033043593 -0.038459603
000040 36 25 06 bd 8f b1 06 bd 14 19 06 3d 71 68 80 3d
       -0.03275033 -0.032884177 0.03273876 0.062699206
000050 17 80 94 bd 51 17 42 bd 3b 9e 05 3c b7 2e 5b bc
       -0.07250994 -0.047385518 0.008155401 -0.013377837
000060 fb 67 97 3b b4 39 c3 3c 7c 6f 2b bd b4 9e 8d bc
       0.0046205497 0.023831226 -0.041854367 -0.01728759
000070 f3 d2 49 3c 68 14 c3 3c 91 0e a0 bc 8a 45 3e bd
       0.012318361 0.023813441 -0.019538196 -0.046453036
000080 54 e1 36 bd dc f7 15 3d 22 71 e0 3c ed f4 17 bd
       -0.044648483 0.03661333 0.027397696 -0.037098814
000090 f6 02 18 bd 3a cd 5c bc 9c 59 f6 b8 55 2e 5b 3d
       -0.0371122 -0.013476664 -0.00011746885 0.053510983
0000a0 7d ef 0b bd 19 77 60 bd 6d bb f4 bb 1d 83 e8 3c
       -0.03416394 -0.05480108 -0.007468632 0.028382832
0000b0 9b 04 5a 3d 98 c8 b6 3c da d6 c8 3b 61 68 48 bb
       0.05322705 0.022312447 0.006129128 -0.0030579793
0000c0 f4 38 fc ba 28 62 b6 bc 1f 81 27 bd 5d 43 b0 bb
       -0.0019243048 -0.022263601 -0.040894624 -0.005379124
0000d0 a4 76 35 bd c5 84 ac 3b 28 de b8 ba c3 34 90 3c
       -0.044302598 0.005264851 -0.0014104294 0.017603284
0000e0 ac 59 2f bd 09 ca ee 3c 33 85 07 3d 64 53 7c 3b
       -0.042810127 0.029149072 0.033086013 0.0038501853
0000f0 52 04 a7 bd b3 45 71 bd f8 cf 52 bb e7 92 af 3d
       -0.08155121 -0.05890436 -0.0032167416 0.08572941
000100 94 61 46 3d 91 c8 ed 3b ca a1 36 bd a5 de 89 3c
       0.0484329 0.0072565754 -0.044587888 0.016829798
000110 e1 4f 55 3d 22 16 17 3c cb 86 68 bd e6 0b bf 3c
       0.05207813 0.0092215855 -0.056769174 0.023321103
000120 45 e4 a0 3d 9d 05 8b 3d 76 54 91 bc 9f 59 8e bb
       0.07856039 0.0678818 -0.01774047 -0.0043441798
000130 d1 1b 3e 3d 51 1f 83 bd 3c 5f 3f 3c 37 6d 8e 3c
       0.046413247 -0.064024575 0.0116804205 0.017386062
000140 fb c6 93 3d 51 bf 97 3b 27 db 1c bd 38 d9 22 bc
       0.07215687 0.004630961 -0.038294937 -0.009939484
000150 fc 31 c7 bc fc b0 46 3c d4 26 ad bd 0d 60 25 bd
       -0.024315827 0.012127157 -0.084546715 -0.040374804
000160 7d 21 dc 3b a6 0e 3e 3d af 15 c4 bc 24 45 94 bc
       0.0067178593 0.04640069 -0.02393612 -0.018099375
000170 f4 40 b5 ba 59 45 16 bc cf b0 6c bc ec 09 c9 3c
       -0.0013828562 -0.009171807 -0.014446451 0.024540864
000180 82 69 18 ba ca 3a 7e 3c 37 37 de 3c 6a c5 11 bd
       -0.0005814062 0.015516946 0.027125938 -0.03558866
000190 32 0f d2 3b bb ff 0c 3c 9b 16 a9 3b af f6 c8 3c
       0.006410503 0.008605893 0.0051601655 0.02453169
0001a0 ff d3 03 3c 48 f6 4f 3b 6a 15 30 bc 58 7e 0a bd
       0.008046149 0.0031732488 -0.010747293 -0.033811897
0001b0 4c 04 9c 3b 63 80 f6 bc fa 08 ff bc ba 5d 24 3d
       0.0047612544 -0.030090516 -0.03113221 0.040128447
0001c0 6c 57 cd bb a8 2c 6b 3d c0 2c 36 3d 48 e2 8b 3c
       -0.006266525 0.057415634 0.04447627 0.017075673
0001d0 54 46 e5 bc fd df f2 bb ee 4e b6 bb 56 f0 ae ba
       -0.027987637 -0.0074119554 -0.0055636084 -0.0013346772
0001e0 2d e6 e7 3c a4 24 90 3d 17 ab 5e bc e9 0f 0f 3d
       0.028307999 0.07038239 -0.013590596 0.034927282
0001f0 f3 e5 2e ba 1f 5c 12 bd b7 d2 be bc ad b8 55 3c
       -0.00066718383 -0.035732385 -0.023293836 0.013044518
000200 37 8b 85 bb 26 ad 07 bd 1b fa 54 3b 9f ac 4f 3d
       -0.0040754336 -0.03312411 0.0032497707 0.050701734
000210 f1 dc 1d 3d fa dd b3 3d 03 f4 f0 3c 65 5c e3 bc
       0.038540784 0.08782573 0.029413229 -0.027754018
000220 44 7e 2c bd 0c 4c f1 3c 3e 25 c9 3d 82 58 a4 bb
       -0.042112604 0.029455207 0.098215565 -0.0050154338
000230 e8 dd dc bb 93 5f 3b 3c e8 0e 35 3b 5d a4 57 3c
       -0.0067403205 0.011436361 0.0027627293 0.013161746
000240 84 62 a1 3c 8b 81 5b 3c 5c 18 28 3c e1 eb 13 3d
       0.019700296 0.013397585 0.010259714 0.036113624
000250 8f f1 e2 bb e2 b7 18 3d 36 4e 45 bc f2 5f 38 bc
       -0.0069257687 0.03728474 -0.012042573 -0.011253344
000260 d3 2e 44 bc 68 9a 23 3d 70 c5 9b 3b dc f6 50 3d
       -0.011974054 0.039942175 0.004753761 0.051016673
000270 c4 91 ee 3c ba ac bb 3c d7 70 32 3c 04 9b 85 3d
       0.02912224 0.02290951 0.010891161 0.065237075
000280 92 5a c9 3b 9e 13 1a 3d 8f 82 2b 3d 69 96 14 3d
       0.00614483 0.037616365 0.041872557 0.036276255
000290 a1 80 9b 3d 0b 6e 8f 3c ca ac a8 bc 11 79 b1 3c
       0.075928934 0.017508527 -0.020590205 0.021664174
0002a0 36 6b 1b bc eb 34 e0 bb ce 98 89 3c c8 53 01 bb
       -0.00948601 -0.006842246 0.016796496 -0.0019733775
0002b0 0f 2c 46 3d c6 45 a5 3c f2 fc 60 3d 0d 3e c2 3c
       0.04838186 0.020174872 0.054928727 0.023711229
0002c0 9e 71 a1 3c a4 53 e8 3c 8f 0f 24 bd c6 4d 78 bd
       0.019707497 0.028360195 -0.0400539 -0.060621046
0002d0 83 6a 8e bd a8 51 34 3d d8 2b 53 3d 69 cd f4 bc
       -0.06953909 0.044023186 0.051555485 -0.029883103
0002e0 1b 07 23 bc a5 6f 9b bd 6a 2c 11 bd 0a fe 40 bd
       -0.009950425 -0.07589654 -0.035442747 -0.04711727
0002f0 75 93 ec bc 45 21 60 3c f1 65 b1 bc d3 90 dc bc
       -0.028878907 0.013679807 -0.021655055 -0.026924526
000300 c7 e0 d0 3d 55 52 33 3a d2 65 10 bd 45 86 93 bd
       0.10199123 0.00068405765 -0.035253353 -0.07203344
000310 f4 ae 54 bb a1 06 0e 3d 05 bf b8 3c 63 06 43 3d
       -0.0032452913 0.03467429 0.022552023 0.047613513
000320 86 bb 30 bc cb 72 94 3d b5 c0 6d 3b 7f 3a 6c bc
       -0.010786897 0.072484575 0.0036278192 -0.014418243
000330 5e 07 f1 bc fa 98 f3 bc 2e 9e 7d 3d 89 37 51 bd
       -0.029422458 -0.02973603 0.06191843 -0.051078353
000340 2c 1d f2 bc 27 56 95 3c 94 18 ce 3c 62 47 11 3d
       -0.029554926 0.018229557 0.025158204 0.035468467
000350 be 62 9b bd 22 d1 92 3a a9 dc 0c bd c3 1b 0f bc
       -0.07587193 0.0011201242 -0.034390125 -0.008734646
000360 a3 e3 cf 3d c0 03 6e 3d 1a d6 39 bc 47 d9 e0 38
       0.1015084 0.058109045 -0.01134255 0.000107216234
000370 53 4c ec bb 0f 54 32 3d 9d 6a d8 3b cc 82 9d bc
       -0.007211247 0.043537196 0.006604506 -0.019227408
000380 b4 70 cd 3c cc ad a1 3c e5 43 31 3d 02 91 cc ba
       0.025078155 0.019736193 0.04327764 -0.001560718
000390 e8 eb 9e 3c 23 d2 86 3b 12 e0 d3 bc 32 29 27 3d
       0.019399598 0.0041144057 -0.025863681 0.04081077
0003a0 f5 6e 08 bd a1 56 b8 bc 2d 29 42 3d a3 b6 64 3d
       -0.033308942 -0.022502245 0.04740255 0.05583824
0003b0 3c 5c b1 bd 2d 35 d6 bc b0 d5 16 bd 9b 9e 0f bd
       -0.086601704 -0.026148403 -0.036824882 -0.035063367
0003c0 4c fd 39 bd 63 71 10 3c f2 36 cd 3c fd 8e 72 3d
       -0.04540758 0.008816096 0.025050614 0.059218396
0003d0 78 95 06 bd 53 84 13 3d 08 b8 4b ba 3c 17 9f 3c
       -0.03285739 0.036014866 -0.0007771258 0.019420259
0003e0 ba 12 81 bd f2 41 8e 3c 11 d9 95 bd 95 2a 0f bc
       -0.063024 0.01736543 -0.07316793 -0.00873818
0003f0 9a 20 0d bd d4 2b 33 3d 1d 53 49 bd 19 78 d9 bb
       -0.03445492 0.04374297 -0.04915153 -0.006636631

bias f4 [64]
000000 1a af cf bd f2 e7 04 be 4a 9b cf bd fb 7c 27 bd
       -0.1014082 -0.12979105 -0.10137041 -0.040890675
000010 74 c4 46 bd fa 56 f4 bd bd 5d 57 bd 4d 25 43 bd
       -0.048527196 -0.11930652 -0.05257963 -0.047642995
000020 eb c8 86 bd c9 fe 71 bd 2c eb 06 be 38 27 bb bd
       -0.06581291 -0.059080873 -0.13175648 -0.0913834
000030 ca 3e b4 bd 0d c2 a6 bd 96 fe c9 bd f2 a9 88 bd
       -0.088010386 -0.08142481 -0.098630115 -0.066730395
000040 b5 62 03 be ae b0 bd bd 3a db c2 bd 7c 9f ce bd
       -0.12830622 -0.092622146 -0.095144704 -0.10089013
000050 30 bf e4 bd fc 66 68 bd ff 13 d6 bc 0c 77 fc bd
       -0.111692786 -0.05673884 -0.026132582 -0.12327394
000060 91 06 8a bd 1d 02 52 bc a8 b6 ac bd 27 b9 50 bd
       -0.06739534 -0.012817887 -0.084332764 -0.050957825
000070 7f c8 ab bd c3 a8 aa bd da d4 f6 bc 0f a0 62 bd
       -0.08387851 -0.0833297 -0.030130792 -0.055328425
000080 dc 68 7a bc ca d0 4a bd 4a 9d be bd 81 57 b2 bd
       -0.0152837895 -0.049515523 -0.09307344 -0.08708096
000090 af 77 64 bd 56 62 b1 bd 73 a4 aa bd e0 4d 00 be
       -0.0557782 -0.08661334 -0.083321474 -0.12529707
0000a0 db 5b 04 be 7b b7 bf bd 63 8f aa 3c cf 94 c7 bc
       -0.12925665 -0.09361168 0.020820325 -0.02436295
0000b0 67 4c 73 bd c3 e8 f3 bc 5b ca 44 bd 42 de c7 bd
       -0.059399035 -0.029774075 -0.048044544 -0.09759189
0000c0 8c 2f 3f bd f2 d8 20 bd d7 63 ee bd d3 2e 02 be
       -0.046676204 -0.039269395 -0.11640137 -0.12713175
0000d0 6e ca 99 bd bb d7 16 be 9d 28 3d bb 00 21 24 3c
       -0.075093135 -0.14730732 -0.0028863319 0.010017633
0000e0 1b f9 50 3c b5 b6 04 be ac 19 e5 3a cd f5 eb bd
       0.012754704 -0.12960322 0.0017478964 -0.11521492
0000f0 3a 97 b5 bd 7b bf 65 bd 1e 92 3c bd 79 93 df bc
       -0.08866735 -0.056090813 -0.046037786 -0.027292

weight f4 [64, 1024]
000000 d9 e4 57 bd ad 30 7a bb a1 9f 7b 3c 5b 54 ac 3b
       -0.05270848 -0.0038175986 0.015357883 0.0052590794
000010 c7 6e f7 3a bc b1 de 3c 71 cf 9e 3c 18 49 38 bc
       0.0018877619 0.02718436 0.019386025 -0.011247896
000020 5a c7 a8 bb e1 02 8e 3c c0 a0 3c 3d 9c 55 2c bc
       -0.0051507177 0.017335357 0.04605174 -0.010518458
000030 9a 9b 53 bd 53 16 74 bd 01 92 96 ba 32 e5 32 bd
       -0.051662065 -0.059591603 -0.0011487604 -0.04367561
000040 d1 be 0f bd 23 b7 b0 3c c7 6a 0c bd 4a 80 90 bc
       -0.035094086 0.021571701 -0.03428152 -0.017639298
000050 a4 47 3c bc ce 58 31 bc 82 5c ad bc 6d 5c 5c bc
       -0.01149169 -0.010824395 -0.021162275 -0.01344977
000060 b4 0d 18 bd f2 84 f5 3c 25 9c ea bc ed ba 24 3d
       -0.037122443 0.02997062 -0.028638909 0.04021733
000070 d8 aa 85 3c f9 4b 15 3c 5c 70 21 3d c9 b1 4d bc
       0.016316816 0.009112352 0.039413795 -0.012554594
000080 9a bc 41 3c 4d dd bb 3b f3 62 2e bd ec 7d b9 bc
       0.011824751 0.005733168 -0.042574834 -0.022643052
000090 08 f1 3e bd 60 82 f1 3b 65 7a 24 3d 4b 5a 1e 3d
       -0.046616584 0.0073702782 0.040155787 0.03866033
0000a0 22 61 e4 bc e3 0d 2b bd 92 ad 3f bd 4a 22 8b bc
       -0.027878348 -0.04176129 -0.04679639 -0.016984124
0000b0 43 30 dd 3b a0 4c d3 3c b1 26 e8 3c 6f 0f 62 bc
       0.006750138 0.025793374 0.028338762 -0.013797625
0000c0 f7 da 24 bc fa a7 fa bc 12 dc ef bc f7 a8 54 bc
       -0.010061971 -0.030597676 -0.029279742 -0.0129797375
0000d0 11 95 0a bd 2e 72 f2 bc 83 c3 0c 3d dc c7 51 3c
       -0.033833567 -0.02959546 0.034366142 0.012803998
0000e0 e8 14 3e bd a4 16 0c 3d 84 67 29 3d 70 de dc 3c
       -0.046406657 0.03420128 0.041358486 0.026961535
0000f0 c1 75 bf 3c 00 5b 27 3d 09 e7 db 3d e0 97 64 3d
       0.02337158 0.04085827 0.10737426 0.0558089
000100 31 1f 3d ba b9 97 67 bc 27 4f bc 3c a3 73 f1 3c
       -0.0007214426 -0.014135295 0.022986962 0.029474085
000110 89 b7 00 bd ac b0 a4 bc ca b2 a1 3c b0 04 95 3d
       -0.031425033 -0.020103775 0.019738574 0.07276285
000120 13 ee 01 3c 54 4d 81 3d a0 0a d2 bb f2 8a cc 3c
       0.0079302965 0.06313577 -0.006409958 0.024968598
000130 19 8b 19 bc f8 0e ab 3c 5c 65 9f 3a 7a 55 68 39
       -0.009371542 0.020881161 0.0012160945 0.00022157087
000140 25 36 d1 bc bb 51 79 3d da 2e 6f 3c 97 be 00 bd
       -0.025538513 0.06086896 0.014598573 -0.03143176
000150 32 9b a0 3a ec 43 42 bc 92 58 26 3d ce a1 af 3b
       0.0012253283 -0.011857014 0.04061181 0.005359865
000160 a4 0f 9c 3c b2 07 a6 3c 12 1d a0 bc 3a 0d 7d 3c
       0.019050427 0.020267341 -0.019545112 0.015445048
000170 fe 46 39 3d ba a1 48 3d 40 54 50 3d c5 45 2b 3d
       0.04523372 0.04898236 0.050861597 0.041814584
000180 97 71 c3 bb 9e 30 46 bc 3e d9 74 3a 66 84 40 3c
       -0.0059644687 -0.012096552 0.0009340233 0.011750316
000190 85 d8 0b 3b 92 c7 96 bc 0d 83 ec bc 83 d3 00 bd
       0.0021338772 -0.01840571 -0.028871084 -0.031451713
0001a0 9e b2 12 3d 9b 6a 2e 3d 25 67 88 3b 1a 6e 8c 3d
       0.035814874 0.042582136 0.0041626864 0.06856938
0001b0 e9 00 8a bc 04 b4 a8 3c 22 dc 1b 3d c2 06 21 3d
       -0.016846137 0.02059365 0.038051732 0.039313085
0001c0 51 88 00 3b 89 a2 4e bd b5 dc 03 bd 39 fd 1d 3d
       0.00196125 -0.050447974 -0.032192905 0.03857157
0001d0 07 af ec 3c 50 68 aa bc 94 ee 54 3d 14 7c 37 3d
       0.028892053 -0.020801693 0.05198534 0.044796064
0001e0 c1 a7 cf 3b 29 b4 dd bc 5d 6a 11 3d 69 0c 3b 3d
       0.0063371365 -0.027063446 0.035501827 0.045666132
0001f0 d7 cf 7b 3d 47 4e 79 bc 70 47 4e 3c 67 7b 41 3c
       0.06147751 -0.015216417 0.012590274 0.011809207
000200 13 ec 6f 3a 1c f3 98 bb 1b b7 1b 3d 6c a4 57 bc
       0.0009152304 -0.004667653 0.03801642 -0.01316176
000210 70 6c 3b 3d 31 2e 00 3d da 55 04 3d 19 41 12 3d
       0.04575771 0.03129405 0.032308437 0.035706613
000220 6c e3 77 3d 7f c2 a9 3d 4d 1b ab 3c cc 2c 87 3d
       0.06051962 0.0828905 0.020887041 0.06600341
000230 ba c6 21 bd 1e 25 6e ba 13 18 93 ba dd f8 da bc
       -0.03949616 -0.00090845104 -0.0011222385 -0.026729995
000240 bc 9c 45 3c df fb 6c bc 66 9a da 3c 67 1b 79 bc
       0.012061294 -0.014464348 0.026684951 -0.015204287
000250 71 74 ce 3b 83 b2 f5 3c bf 94 a3 3d 10 75 0c 3d
       0.006300502 0.029992348 0.079873554 0.034291327
000260 40 2b b1 3c e5 ed aa 3d b9 67 ce 3c 65 11 06 3c
       0.021627069 0.08346156 0.025195943 0.008182858
000270 a4 9e 14 bd c3 03 92 3b 05 43 92 bc 53 e0 48 bd
       -0.036284104 0.004456015 -0.017854223 -0.049042057
000280 b2 24 9d 3c d3 b7 61 bc aa 14 77 bd 83 93 d2 3b
       0.019182537 -0.013776737 -0.06032244 0.006426276
000290 ff 33 12 3d cc 91 04 bd d2 95 5a bb cd 54 8e 3d
       0.03569412 -0.032365605 -0.003335346 0.06949768
0002a0 60 dd 0e 3d 8d 97 95 bc 85 55 db ba c7 02 80 3d
       0.03487909 -0.018260742 -0.0016733861 0.0625053
0002b0 06 f0 2d 3c 23 15 31 bd 4c de 70 ba f8 d0 1f 3d
       0.010616308 -0.04323305 -0.0009188398 0.039017648
0002c0 f1 7c 87 3b f7 fe 3e 3c 3e 6c 46 bc f2 05 8b bc
       0.004134767 0.011657468 -0.012110768 -0.016970608
0002d0 21 44 00 bd 7f 78 33 3c 76 43 0e bd 47 e2 8d bc
       -0.031314973 0.0109540215 -0.034732305 -0.017319812
0002e0 ef 91 9f ba 8d 81 71 3a 0d 35 41 bd 8b 1f 9d bc
       -0.0012174229 0.0009212725 -0.047169734 -0.01918008
0002f0 50 97 8e 3c aa f2 a5 3c 67 fc 8e 3d 75 41 4e 3d
       0.017406136 0.020257313 0.06981736 0.050355393
000300 17 40 b3 37 b1 04 62 bd 31 89 3a 3c c2 4e 24 bc
       2.1368307e-05 -0.055180255 0.011385248 -0.010028543
000310 dc 3f 93 3c cd ae 87 bd 8a 2f d7 bc 3d 08 ef bc
       0.017974786 -0.066251375 -0.026267786 -0.029178733
000320 12 6e de 3c 72 bb 31 bc 66 6a 89 3c 00 48 75 3c
       0.027152095 -0.010847913 0.016774368 0.014970779
000330 92 1c a1 3d d6 16 1a bd 84 8c 94 3c 71 ba e6 bc
       0.078667775 -0.037619434 0.01813341 -0.028165074
000340 95 63 55 3c da e7 e2 bc 34 03 79 bc 91 63 b9 bb
       0.0130242305 -0.027698446 -0.015198518 -0.005657621
000350 c1 7a 49 ba eb 67 08 3d ea 56 ac 3c e7 1c 32 3c
       -0.0007685833 0.03330223 0.021037538 0.010871149
000360 a9 d4 07 3c 43 aa e9 3c a5 6d c3 3c ad 4b 80 3d
       0.008290448 0.02852357 0.023855994 0.06264434
000370 67 84 6b bd 09 3a 20 bd c4 cb 3b bc a9 2c cf bc
       -0.057499316 -0.039117847 -0.011462156 -0.02528985
000380 9a 66 09 3d 46 26 a1 3c b0 9c 79 3d f4 db 03 bc
       0.033545114 0.01967157 0.060940444 -0.008048046
000390 0b ba 0a 3c 7e 6b 8f bb 1e da d4 bc 5b 07 02 3c
       0.008467208 -0.0043768277 -0.025982913 0.007936324
0003a0 1f c4 83 3c fc 5b 73 bd da b9 ce 3c 5c 48 9c bd
       0.016084729 -0.059413895 0.025235105 -0.07630989
0003b0 45 eb 32 bc 24 6d 20 bd e6 91 7b 3c 15 f4 42 3c
       -0.01092035 -0.039166585 0.015354609 0.011899014
0003c0 a1 ef 21 bb ae 26 e8 3b c2 5d fe bb 71 7b f5 bc
       -0.002470948 0.007084689 -0.0077626416 -0.029966088
0003d0 37 97 b6 3c 9e 59 23 bc ca 79 dc bc 7b bb 53 3c
       0.022288902 -0.009970097 -0.026913542 0.012923117
0003e0 3e 01 7c ba f7 59 34 bd 38 4b 15 3d 74 28 bc bc
       -0.0009613222 -0.04403111 0.036448687 -0.022968508
0003f0 4c 5d 8e 3c f2 03 73 3d 20 a4 21 bc 90 64 96 3c
       0.017378472 0.059329934 -0.009865791 0.018358499

bias f4 [64]
000000 10 76 8f bc db 6a e1 3b af ee dd bc 1d 64 86 3c
       -0.017512351 0.0068791932 -0.027091352 0.01640516
000010 4b 0d bb bc b9 56 45 3d 5a 44 51 bc 23 a5 73 bc
       -0.022833487 0.04817841 -0.012772644 -0.014870915
000020 42 74 77 3c 2a b2 fa bb 67 a5 d2 bc d8 49 3d bd
       0.015103402 -0.0076506333 -0.025713636 -0.046213
000030 38 d6 80 3c 1a ac 5b 3d 12 92 e1 3b 29 a0 b9 bb
       0.015727147 0.053630926 0.006883868 -0.0056648445
000040 5c e8 dd 3c bc a3 fe 3b 5d 8b b2 bc 34 71 17 3d
       0.027088337 0.0077709835 -0.02179497 0.036973193
000050 2c a8 3f bd 84 04 ab 3c c1 b8 94 3c 9b 17 0c bd
       -0.04679124 0.020876177 0.018154504 -0.0342022
000060 30 6e c3 3c 6e 44 0f bd 6f 82 c0 38 4d 54 03 bd
       0.023856252 -0.03497737 9.1795686e-05 -0.032062817
000070 d3 b7 a0 3d df ae eb 3c 97 47 a7 bc 2e bf 9f 3c
       0.07847562 0.028769908 -0.020419879 0.019500341
000080 34 28 5e bd c7 c5 2f 3d 14 0f 64 3b ea c2 3e bd
       -0.05423756 0.042913225 0.0034799026 -0.046572603
000090 03 1c e2 bc 7a e6 cb 3c e0 b1 3e bd 5d b7 4f bd
       -0.027601248 0.024890173 -0.046556354 -0.05071198
0000a0 56 1d 51 bd f7 a7 c0 bc b9 4a 25 bd 18 dc 34 bd
       -0.051053368 -0.023517592 -0.040354464 -0.04415521
0000b0 30 2b a7 3c 30 6c 25 bc a0 46 37 bc 5e 1e 2f bd
       0.020406336 -0.010096595 -0.011186272 -0.04275357
0000c0 fa ce 05 bd 85 b6 db bc c3 66 06 3d 92 a5 86 3d
       -0.03266809 -0.02682043 0.032812845 0.06574549
0000d0 ba 24 ea 3c 6a fc 86 b8 dd 0b 79 ba 84 1c 9c bb
       0.028581966 -6.436634e-05 -0.0009500364 -0.0047641415
0000e0 3a 87 a9 3b e6 5d 29 bd 22 87 50 bd 86 2d 87 3c
       0.005173591 -0.041349314 -0.050910123 0.0165012
0000f0 36 5d 15 3d a2 e6 2c bd 98 7b 05 3d 1f d3 01 3d
       0.036465846 -0.042212136 0.03258857 0.03169548

weight f4 [10, 64]
000000 77 2d 5f 3d 45 c5 6a 3e 6b 4a ff bd 8c 97 20 bd
       0.054486718 0.22926815 -0.12465366 -0.039207026
000010 52 ed 48 be 4e 1f 7d be 69 1e de 3d b3 8b 76 3e
       -0.1962178 -0.24718973 0.10845644 0.24076729
000020 1b 1e 69 3e d8 bc 67 3d d0 a3 7e be 6a ac 7f 3e
       0.2276539 0.05657658 -0.24867177 0.24968114
000030 ad 38 b7 bd 66 3b 4b 3d 9e 83 92 be b9 3a 76 3e
       -0.08946357 0.049617194 -0.2861604 0.24045838
000040 7c 94 5b 3e 6f 2d 93 be 53 d0 66 3e c5 a3 64 be
       0.21443361 -0.287456 0.22540407 -0.22328098
000050 94 7f 2a 3d e1 da 5d be 67 3d 97 bc 7a dc 4e 3e
       0.041625574 -0.21665527 -0.018461896 0.20201293
000060 af ea 09 be b4 95 11 bd 35 34 44 be fc 51 00 be
       -0.13468431 -0.03554316 -0.1916054 -0.12531275
000070 3e 8a 84 be 5a d6 fb bc 01 11 45 bd 23 c7 39 3d
       -0.2588672 -0.03074186 -0.04811192 0.045355927
000080 d9 5a a1 3e 92 e7 88 be dd 0c b4 bd ad 00 7a 3d
       0.31514624 -0.26739174 -0.08791516 0.0610358
000090 8c 48 56 be 3f 17 df bd 75 b9 a3 3e 7b 99 82 be
       -0.20926112 -0.10893106 0.3197743 -0.2550772
0000a0 4f e5 89 3e 41 40 a3 bd 7f 13 d4 3d cf bd 45 3e
       0.2693276 -0.0797124 0.10355281 0.19310687
0000b0 0b 3a b8 3b 5d d9 79 be b4 0d 87 3d 00 bf d4 bd
       0.0056221536 -0.24399324 0.065944105 -0.10387993
0000c0 42 37 95 3e d4 85 8c bc d5 35 8c be 9a 86 0a be
       0.2914372 -0.017153658 -0.2738482 -0.13527909
0000d0 7e 36 fc 3d e9 e5 05 bd 74 1f 10 3e ef 95 00 3d
       0.12315081 -0.032689963 0.14074498 0.031392988
0000e0 a3 17 36 3d 58 09 a3 3e 5d bc 27 3e 40 c9 98 be
       0.044456135 0.31843066 0.16380449 -0.29841042
0000f0 a4 8f 22 be e3 a0 e8 3a d9 44 06 be 46 aa 39 3d
       -0.15875107 0.0017748143 -0.13112201 0.0453284
000100 fd 41 28 3e d8 97 90 bd 89 f4 2a 3e 88 c2 82 be
       0.16431423 -0.07060212 0.16694845 -0.2553904
000110 e9 ed f6 bc dc 53 83 3d 3a cd e5 bd cb 29 8f be
       -0.030142741 0.06412479 -0.112207845 -0.27961573
000120 f4 bb a7 be bf d0 8e bb 5a 21 9b be 17 c5 51 be
       -0.32760584 -0.0043583806 -0.30298883 -0.2048534
000130 e3 18 d7 bd 5f 38 68 be 1a dd a2 3e 4d f9 c3 bd
       -0.10502794 -0.22677754 0.31809312 -0.09569035
000140 f7 11 a1 bd a7 1e 92 3e 31 d6 b7 3d b4 90 3d be
       -0.07864755 0.2853901 0.08976401 -0.18512231
000150 32 11 31 be f4 a7 0b be d9 e4 65 bd 4c 74 80 3e
       -0.17291716 -0.13638288 -0.05612645 0.25088727
000160 83 1c e5 3e a2 bf 92 3e 91 f0 5d 3e ed 28 b7 3d
       0.44748315 0.2866183 0.216738 0.08943353
000170 74 54 98 be 12 3f 6c be b6 f5 c9 bd ec e5 39 3e
       -0.29751933 -0.23070934 -0.09861319 0.18154114
000180 9d 90 92 3e 32 d5 f8 3d 50 af c6 bd 0c 74 89 be
       0.28625956 0.12150039 -0.09701407 -0.2684635
000190 78 ee f6 bd d5 2e 19 3e 64 16 8a be 66 e6 db bd
       -0.12057203 0.14959271 -0.26970208 -0.107373044
0001a0 d4 85 10 3e 0c af 1d bd 81 75 e4 3c db 98 98 3d
       0.14113551 -0.038497016 0.027888061 0.0745103
0001b0 e6 36 99 be 10 9d 84 be a5 39 db bd 99 ab 9d 3e
       -0.29924697 -0.2590108 -0.10704354 0.3079498
0001c0 81 53 3f bd ee 77 42 3e f8 92 63 be 2c 9d 6e be
       -0.046710495 0.18991062 -0.22224033 -0.23302144
0001d0 76 f7 cf be 47 fc 84 3e d8 7c 54 be 34 57 06 be
       -0.40618485 0.25973722 -0.20750749 -0.13119203
0001e0 9d e9 d4 3e c0 1b 47 3e d3 4b 89 3b e7 7c ba 3e
       0.41584483 0.1944418 0.004189947 0.36423418
0001f0 69 87 ec be ac ec 27 be 85 72 a4 be 96 27 82 be
       -0.4619706 -0.16398877 -0.3211862 -0.25420827
000200 bf ca b0 be 18 1b f3 bb b1 dd ad be dd 4e 48 3e
       -0.34529683 -0.0074190013 -0.339582 0.19561334
000210 b0 b1 e8 bd 6c 65 c7 bd 14 4f c4 3d 37 71 71 bd
       -0.11362016 -0.097361416 0.095853955 -0.05894586
000220 01 c7 0a 3c eb e2 06 be 72 e4 59 3e c6 5d 88 be
       0.008470298 -0.131725 0.21278551 -0.26634043
000230 a8 fd ce 3c 55 2c f4 3c be 34 b0 be 13 12 85 3e
       0.025267437 0.029806295 -0.3441524 0.25990352
000240 f6 ca 91 bd 90 79 34 be 84 81 38 be 51 9a fc 3d
       -0.0711879 -0.17624497 -0.18018156 0.12334121
000250 9e 8e 67 3d 37 c2 d2 3d 89 1e 5f be 86 cb 97 be
       0.056532495 0.1029095 -0.21788992 -0.29647464
000260 bb 39 1a bd 4c e1 76 3d 58 67 34 be d4 51 20 3e
       -0.037652712 0.060273454 -0.17617548 0.15656215
000270 9f 46 22 be 4d 72 6a 3e 20 d4 47 bd ee 38 6a 3e
       -0.15847252 0.22895165 -0.048786283 0.2287328
000280 ed 11 84 3e a4 cc de 3d 58 f7 43 be 43 0e 8d bc
       0.25794926 0.10878876 -0.19137323 -0.017218715
000290 fa d9 84 3e 01 8e 06 3e 73 bc 2c 3e 67 ee a4 be
       0.25947553 0.13140108 0.16868763 -0.32213137
0002a0 40 a4 f2 3d 59 f1 f4 3d 15 f1 ea 3c d5 d9 06 3d
       0.118477345 0.11960096 0.02867941 0.032922585
0002b0 93 3e fb 3d 01 40 92 3e eb 54 d0 3e e3 17 af bc
       0.122677945 0.28564456 0.40689787 -0.021373695
0002c0 aa 16 ee 3d b3 ba 96 3e ff fd 96 3e b9 79 57 3e
       0.116254166 0.29439315 0.2949066 0.21042527
0002d0 8e e1 00 be c7 8f 64 3e f8 f1 18 3e b9 cb 37 3e
       -0.12586042 0.22320472 0.14936054 0.17948808
0002e0 3e 00 20 3d f6 52 13 be 3e 88 7e bd c4 8d 6a be
       0.03906273 -0.14387116 -0.06214165 -0.22905642
0002f0 0d 75 9e 3e ef 02 70 3d cc 66 00 3e 5f cc 88 bd
       0.30948678 0.058596548 0.12539214 -0.06679606
000300 25 3e 22 be 7e 89 45 3e 8f 97 73 be 8f a6 3d be
       -0.15844019 0.1929073 -0.23788284 -0.18520568
000310 48 bd d7 bd a1 ac 76 3e 96 19 9d bc be 59 bd bc
       -0.105341494 0.2408929 -0.01917724 -0.023114081
000320 30 c2 40 be c5 68 55 3e 94 fa 55 3e 17 cc e0 3c
       -0.18824077 0.20840748 0.20896369 0.027441068
000330 a9 f6 fe 3d 6e 7e 7d be 2a 33 88 3e 1d b2 ec bd
       0.124493904 -0.2475526 0.26601535 -0.1155741
000340 4c 4b f4 3d a6 97 5d 3e 5e 5b 3f bd 9c 77 05 bb
       0.11928424 0.2163988 -0.046717994 -0.0020365482
000350 5c ab 0e 3d e0 cb 07 3e 35 cb 6f 3e cd 31 11 bb
       0.03483139 0.13261366 0.23417361 -0.0022154928
000360 dc 35 92 bd b3 47 37 bd 0e 4f 4d be 2e ac 5c be
       -0.07139179 -0.044746112 -0.20049688 -0.21550056
000370 7f af cb 3d 41 d9 ab 3d 4c b4 8d 3e 22 87 04 be
       0.099455826 0.08391047 0.27676618 -0.12942174
000380 53 54 b2 bd 0e 4b 23 3d 04 e8 0d 3e 57 e1 d9 bd
       -0.0870749 0.0398665 0.13858038 -0.10638683
000390 b5 ce 39 3e 8d 3c d9 3c d8 08 e5 3d f2 bd b4 3d
       0.18145259 0.02651813 0.111833274 0.08825292
0003a0 b6 de 3a 3e 73 41 83 3e 8b 29 bb be b2 6c 67 bd
       0.1824902 0.2563587 -0.36555132 -0.056500144
0003b0 af d7 4a 3d 65 d0 da 3d 06 47 28 3e d7 d8 5e be
       0.0495221 0.10684279 0.16433343 -0.21762405
0003c0 08 cf 83 bd 56 14 cf bd 46 c8 40 be f6 c1 a1 3c
       -0.064359725 -0.10111301 -0.18826398 0.019745808
0003d0 c8 72 14 3e 40 97 5a 3e 0f bc ed 3d 5b 90 84 bd
       0.1449691 0.2134676 0.11608135 -0.06472846
0003e0 0b 4a 12 be 0d 22 20 be 04 4a 20 3e 14 e7 87 bd
       -0.14286058 -0.1563799 0.15653235 -0.066358715
0003f0 9c b9 61 3d d1 17 0b be e4 58 c4 3d 6b 8c 7d bd
       0.05510865 -0.13583304 0.09587267 -0.06190149

bias f4 [10]
000000 8a 64 8f bd bd 39 d7 3d 22 7b bd bc 80 b2 b3 3d
       -0.07001598 0.105090596 -0.023130003 0.087742805
000010 d2 5a d2 3d 1e 89 ed bd 98 60 bc 3d e5 8f ce bc
       0.10271229 -0.11598419 0.09198111 -0.025215099
000020 58 23 bc bb a0 8d f9 3c
       -0.005741518 0.03046304
