try_train/cifar10_models/cifar10_net_23.pth (torch, 589402 bytes, 10 tensors)

weight f4 [32, 3, 5, 5]
000000 d4 c4 8c bd eb 73 cd 3d 6f 1e 0f 3e 1d 99 8b bc
       -0.068734795 0.10031875 0.13976453 -0.017040784
000010 e5 3f 19 3e 3c b0 d5 bd 2c ad 90 bd bf 0d df bc
       0.1496578 -0.10434005 -0.0706428 -0.027228234
000020 9b c2 3c 3e 79 8f c1 3d 9f 89 8e bd d8 0e bf 3c
       0.18433611 0.09451193 -0.06959843 0.023322508
000030 86 bb 2e be fd 06 a3 bc 06 53 cf bd 6c 08 46 3d
       -0.17063722 -0.019900793 -0.10123257 0.048347875
000040 38 2b c4 3b 6a 2a 82 be 52 8a 3f be a1 1e f0 bd
       0.0059865974 -0.25422984 -0.18705109 -0.11724592
000050 d2 14 36 3e 90 82 2e bd 65 5a 7d be 05 c7 ad bd
       0.1778138 -0.042604983 -0.24741514 -0.084852256
000060 f6 09 0e bd 99 aa f6 bd e7 58 6f bd bc 86 5e bd
       -0.03467747 -0.12044258 -0.058434393 -0.05432771
000070 32 c6 67 bd b6 74 ac bd be 2e 99 3d cb b0 de bd
       -0.0565855 -0.08420698 0.074796185 -0.10873564
000080 2f 98 07 be 04 02 97 3d f7 57 27 3d 8e ce e9 3b
       -0.13241647 0.07373431 0.040855374 0.007135219
000090 44 33 75 3d 68 ba 23 be ab b8 8d bb c0 0c 2e bd
       0.059863344 -0.15989077 -0.0043249927 -0.042492628
0000a0 85 f7 9c 3e bc 72 23 3e 02 ea 01 be 0d c2 56 bd
       0.30657592 0.15961736 -0.12686923 -0.052431155
0000b0 c8 be c3 bd 23 ac 41 3e 92 59 b6 3d 28 6c 2a be
       -0.09557873 0.18913321 0.08903803 -0.16642821
0000c0 2b 35 13 be ef 9d 8d 3d 6b 2e 3a bc e7 68 4e 3d
       -0.1437575 0.06914889 -0.011363606 0.05039301
0000d0 dc 9a f9 3d b0 86 1e bb 46 8e e9 bd 1f 48 a1 3c
       0.1218774 -0.0024189167 -0.1140409 0.01968771
0000e0 a2 3e e3 3b 03 a0 3a bc 7e 76 9d 3c ea 40 28 bc
       0.0069349566 -0.011390689 0.01922154 -0.010269383
0000f0 71 3b 2a 3e 6f b9 2f 3d 3b c4 08 be c3 fb e0 bd
       0.16624238 0.042901453 -0.13356106 -0.1098552
000100 f5 9c 45 bd d5 5a 8f 3e c9 18 56 3e c1 5e b3 bd
       -0.04824539 0.27998987 0.20907892 -0.08758307
000110 08 89 1c bd ce 91 9e 3c 2c c4 99 3e 4c ab 27 3e
       -0.03821662 0.019356634 0.3003248 0.16373938
000120 66 aa 0b be c3 23 e1 bd a9 23 9d bd 07 14 0a be
       -0.1363922 -0.10993149 -0.07672817 -0.13484202
000130 37 27 83 bd 6b 76 42 be 6a 66 40 bc 31 ee 55 bd
       -0.06403964 -0.18990485 -0.011743167 -0.05222911
000140 f6 fd 28 bb 4c e0 58 bd 21 db cd bb d7 18 9c bd
       -0.0025786138 -0.05294828 -0.0062822257 -0.07621925
000150 05 7f 0d 3d e3 9a b3 3c 4b 62 55 bd 47 dd d4 bb
       0.034544963 0.021924442 -0.052095693 -0.006496105
000160 e5 49 57 bd 2d 49 84 3d e8 ea 02 be 25 33 e7 bd
       -0.052560706 0.0645927 -0.12784922 -0.11289052
000170 ae 3f 1e be ad 29 2d be 60 53 31 bd c9 cd 4a bd
       -0.1545398 -0.1691043 -0.043292403 -0.04951266
000180 24 4d 31 be ec ab 26 be eb 1e 3a be 34 40 d5 bd
       -0.17314583 -0.1627652 -0.18175857 -0.104126364
000190 ac d5 47 bc bc 1a 3b 3b 00 a2 c5 bd 3a 7a 8b 3c
       -0.012196939 0.002854987 -0.0965004 0.017026056
0001a0 ea fa 28 be aa e7 21 bd 74 46 c3 3c 33 97 09 3e
       -0.16501966 -0.039527573 0.023837306 0.13436584
0001b0 c4 3f 3e 3e 4c 62 47 3d 23 ce 9b bc ee 22 58 3d
       0.18579012 0.048677728 -0.019019192 0.052767687
0001c0 bf 1a 60 3d ff 38 40 3e 63 14 4c 3d ab 49 57 3c
       0.054713007 0.18771742 0.04982413 0.013140122
0001d0 78 88 6d bd d2 f2 dd bd 5b f8 84 bd 40 15 46 bd
       -0.057991475 -0.1083733 -0.064926825 -0.04836011
0001e0 f4 fc 93 bd cb fc 2e be 75 9a 4c be 60 56 5a be
       -0.07225981 -0.1708862 -0.19980796 -0.21322012
0001f0 3e 89 f1 bd 9d 28 48 bd cb 7c b5 3d ce 07 de bc
       -0.11793755 -0.048866857 0.08861693 -0.027103331
000200 ef 07 bc bd ff f5 8e bd 2d 80 09 3e 1d 4a 3f 3e
       -0.09181201 -0.06980514 0.13427801 0.18680616
000210 15 44 8d 3e fc 29 25 3e a4 ed cd 3c 70 2f 5d 3e
       0.27591005 0.16129297 0.02513773 0.21600127
000220 73 33 97 3e c6 d9 ba 3e ed 81 72 3e a2 ea 39 3e
       0.2953144 0.36494273 0.23682375 0.18155912
000230 c8 ea 3b 3e 09 3a 68 3e fd 01 56 3e 52 8e 14 3e
       0.1835128 0.22678389 0.20899196 0.14507416
000240 a5 22 4a 3e 0c f2 68 3c ca 9f 06 bd 3e 4d 0b 3d
       0.19739778 0.014217865 -0.03286723 0.03400921
000250 9b 10 eb 3d 6e 04 43 3d a7 fe 63 3d f2 da f5 bd
       0.114777766 0.047611646 0.055662777 -0.12004651
000260 21 43 1c 3d 84 a2 ad bd 11 19 7b bd d2 5e 43 3e
       0.038149957 -0.08478263 -0.061303202 0.1907914
000270 8e 04 7c be 3b 90 99 3d dc aa 72 3b c6 9a c8 bd
       -0.24611112 0.07498213 0.003702811 -0.09795146
000280 59 e0 ba 3c 0a 4e 46 be c7 58 b6 bd a1 dd 37 bd
       0.022812055 -0.19365707 -0.08903652 -0.044889096
000290 0b db bd 3c 3d 39 1c be ca c0 08 3c df 83 1e 3e
       0.023175737 -0.1525621 0.008346746 0.15479992
0002a0 e3 40 72 3c 8f 28 0d 3b 92 e6 f7 bd 20 94 77 bd
       0.014785978 0.0021539067 -0.12104525 -0.060443997
0002b0 46 69 c1 bc 19 14 e6 bd 50 9f 26 be fc 27 33 3e
       -0.023609769 -0.11234302 -0.1627171 0.17495722
0002c0 99 3d a3 bd a7 13 c2 3d 0e 24 29 3d f3 8b 48 3a
       -0.07970733 0.09476405 0.04129415 0.00076502486
0002d0 75 10 3f 3e d0 c4 af bd a6 38 87 3d 60 9d af 3d
       0.18658622 -0.08582461 0.06602602 0.08574939
0002e0 1e 6e 8d 3d 24 d6 ff 3d e4 cb 11 be 87 b8 42 3e
       0.06905769 0.12492016 -0.14237934 0.19015704
0002f0 a2 cb 59 3d 61 00 2b bd 93 06 84 bd ae bb 68 bc
       0.053172715 -0.04174841 -0.064465664 -0.014204903
000300 e0 2a 34 3e 21 11 4a 3e 1b f3 1b 3e 1d 8e 41 3c
       0.1759448 0.19733097 0.15229456 0.011813668
000310 14 b4 a5 3d a3 32 74 bd 36 6e bf 3d cf 44 ef 3b
       0.08090988 -0.059618603 0.09347193 0.007301904
000320 74 52 60 3d a5 39 2d be 00 ee 17 3e d4 5d d3 bd
       0.054766133 -0.16916521 0.14836884 -0.10320631
000330 a0 1f 07 bc ad 3e 31 3e 67 82 37 be 4c dc 38 3d
       -0.008247286 0.17309065 -0.17920838 0.045131966
000340 77 88 a2 bd 78 0d 95 3d c1 e8 82 3d ce 41 23 be
       -0.07936185 0.072779596 0.063920505 -0.15943071
000350 41 1c 4d bc d3 f9 a6 bd a2 e3 4a 3d 8d a5 85 3c
       -0.012518943 -0.08153119 0.049533494 0.016314292
000360 18 bb d0 bd 11 0f 60 3e 31 79 12 3e 89 39 c6 bd
       -0.10191935 0.21880747 0.14304043 -0.09678943
000370 09 2c a9 bd 1f 77 dc 3d db 06 d4 bd 94 2c 17 be
       -0.08260352 0.10764908 -0.1035287 -0.14763099
000380 7b 46 1f be 63 ed 3c bd cb 52 ca 3d f7 ea 19 3e
       -0.1555423 -0.046124827 0.09879073 0.15031038
000390 80 2f 99 3c 87 77 06 3e 01 ba 05 bd 2c 10 be 3d
       0.018699408 0.13131534 -0.03264809 0.09280428
0003a0 b3 53 96 bb 1b 65 8d 3d 68 aa bb bd a4 a9 ea 3d
       -0.0045876144 0.0690405 -0.09163362 0.11458138
0003b0 b8 51 0c 3d 67 c3 10 3e 8e 76 1e 3e 04 3c 84 bc
       0.03425762 0.1413704 0.15474913 -0.016141899
0003c0 96 4f aa bd 2f 02 21 be 88 ba dd bc 3d 6d 87 3c
       -0.08315961 -0.15723489 -0.027066484 0.016531581
0003d0 37 95 09 3e be 15 d0 bd f2 89 26 be 51 60 84 be
       0.13435827 -0.10160397 -0.1626356 -0.25854734
0003e0 18 8a c2 bd 71 9e 08 be ac 86 2e bc 82 e4 97 bc
       -0.094989955 -0.1334169 -0.010652225 -0.018541578
0003f0 5e 2a c8 bc e6 38 ab 3d e5 65 a2 3d 37 75 12 bd
       -0.024434265 0.08360462 0.07929591 -0.035756316

bias f4 [32]
000000 2b 6c 26 3e 2a 19 bc be 37 7e 8a bc 20 64 10 3e
       0.162522 -0.3673795 -0.016905887 0.14100695
000010 2e c0 ea ba 00 f2 c5 bd 57 25 e7 3c 90 7d a9 bd
       -0.0017910057 -0.096652985 0.028216047 -0.08275902
000020 77 97 c9 3d b3 b5 5c be f7 b1 4a be 28 3b 99 bd
       0.09843343 -0.21553688 -0.1979445 -0.07481986
000030 34 05 1a 3e 55 ef f6 3b f8 6e 61 be 74 53 96 3e
       0.15041047 0.007535855 -0.22014987 0.29360545
000040 d6 b1 37 3c f8 3c d8 3d f3 80 64 be d1 c9 80 bd
       0.011211833 0.10558504 -0.22314815 -0.062884934
000050 e5 5a cf bd c9 c4 36 3d df cb 80 be 5b 5b 5d be
       -0.10124759 0.044621263 -0.2515554 -0.2161688
000060 9f 60 68 3d f5 56 cd be f2 a6 ab bc 54 47 b1 bd
       0.05673277 -0.40105405 -0.02095363 -0.08656183
000070 6f 1e cb 3e a7 b1 ab bb 6d 70 0d be 9a be 08 be
       0.39671656 -0.0052396837 -0.13812418 -0.13353959

weight f4 [32, 32, 5, 5]
000000 b5 63 36 3c 1a 1b 3a 3d 1d 83 d5 bb e8 e2 4b bd
       0.01113217 0.045436002 -0.006515874 -0.04977694
000010 8f e9 86 bc 85 b7 cb bc 0f b1 97 3d 77 f5 30 3d
       -0.016468791 -0.024867782 0.07406818 0.043202844
000020 bb 19 bd 3a 57 f1 be bc 3c 0e 97 b9 75 35 b8 3c
       0.0014427224 -0.02330844 -0.0002881157 0.022486428
000030 b0 8e 3e 3d 4e 4e 47 3d 82 cd f3 bc 71 47 10 bd
       0.046522796 0.04865866 -0.02976108 -0.03522438
000040 3d 9c 90 bc f3 04 b4 3c 27 bb a9 3d 7f e9 85 3d
       -0.017652625 0.021975016 0.082876496 0.065386765
000050 af 17 01 bd 2e 99 d3 bc bc 14 9a bc cf 99 b1 3d
       -0.031516727 -0.025829878 -0.018808715 0.08671915
000060 27 60 ae 3d 11 0b ae 3b 46 db 44 bc be a3 0b 3d
       0.08514433 0.005311378 -0.0120151695 0.034091704
000070 71 89 54 3c 2c 2b 97 3b 48 a8 e3 3c 45 2f e1 bb
       0.012972222 0.004613301 0.027790204 -0.00687209
000080 d4 45 9d bc f5 5d b8 3c 93 f9 1b 3d 73 90 75 3d
       -0.019198336 0.02250574 0.03807981 0.05995221
000090 88 2e 03 3d 50 97 8f bd 2e 76 77 bd 82 fe 59 3d
       0.032026798 -0.070112824 -0.06041544 0.053221233
0000a0 64 dd 72 3d b6 47 44 3c 9f 21 f9 bc 6b 3b a5 bd
       0.059293166 0.011979988 -0.03041154 -0.08067974
0000b0 55 67 2b bd 05 89 a4 3d 67 3a a0 3c ba c5 2a 3d
       -0.041846592 0.08033947 0.019559098 0.041692473
0000c0 a3 f3 2d 3d 83 dd 83 bc 2e 16 2d 3c 53 24 30 bd
       0.04246868 -0.016096836 0.01056437 -0.04300339
0000d0 77 ee 19 bd fb 06 1e bc 7d d4 68 bd 84 b3 2a bd
       -0.037580933 -0.009645219 -0.05684327 -0.041675106
0000e0 01 c7 55 bd 2a a2 5e bc e3 7b 44 bd 56 50 02 bd
       -0.052191738 -0.013588468 -0.04796971 -0.031814896
0000f0 25 1b 4f 3b d5 9b 16 bd 63 98 92 bd 77 82 0c 3c
       0.0031601873 -0.036769707 -0.07157972 0.008576027
000100 0b 98 9a 3c 27 fa 0c 3d 23 08 12 bd 4e 76 6a bd
       0.018871328 0.03441825 -0.03565229 -0.05724173
000110 15 a6 98 bc b8 2d a1 3c 4d ee 96 bc cc 84 91 3c
       -0.018633882 0.01967512 -0.018424178 0.017763518
000120 74 2d 8b 3b 6e 9b bf 3b 36 70 00 bd 0f fe 9d 3b
       0.004247362 0.005847386 -0.031357013 0.004821546
000130 e6 c2 b9 3c 3c 80 82 3d ae 8d 5b 3c de a9 df b9
       0.022675943 0.06372115 0.013400478 -0.00042660435
000140 e1 81 36 bd 6a f2 e6 bc 23 56 9f 3b 3f 3d a5 3d
       -0.044557456 -0.028191764 0.004862563 0.080683224
000150 d9 39 27 3c 01 6a 5e bc e3 05 8d bc 05 28 cd bc
       0.010206663 -0.013575078 -0.017214721 -0.025043497
000160 88 22 08 bc cd 99 b7 3d 20 7b 8d 3c 55 5c 04 bd
       -0.008309014 0.08964882 0.017270625 -0.032314617
000170 7c dd 9f bd b0 e1 80 bb 0f 46 3e 3d c5 e5 6e bc
       -0.07805917 -0.003933154 0.04645353 -0.0145811485
000180 05 17 67 3c 8a 7e b8 bc 5b c2 80 bd f5 3c a6 3c
       0.014104609 -0.022521276 -0.0628707 0.020292738
000190 59 95 ee 3c 5a c4 eb 3c fc ee 2b bd c1 56 14 bd
       0.029123949 0.028780151 -0.04197596 -0.036215547
0001a0 4f 2d 2c bd 44 a8 71 bc 2c a6 36 bc 6d 03 65 bc
       -0.042035397 -0.01474959 -0.011148017 -0.013977868
0001b0 66 a6 92 bc ba 44 12 3d 91 21 4b bc 1b 7a 6e 3c
       -0.01790161 0.035710074 -0.01239814 0.014555479
0001c0 54 0a be bc ca 50 30 bc 97 3a 89 3c 85 0b 57 ba
       -0.023198284 -0.010761449 0.01675157 -0.00082033157
0001d0 56 ca da 3b b7 59 ea bc 1d a4 96 3c 9f f7 72 3d
       0.0066769524 -0.028607232 0.018388802 0.05931818
0001e0 03 f4 1f bd aa 35 b2 bb 8b 92 21 3d 36 a0 b4 3c
       -0.039051067 -0.005438526 0.039446395 0.02204905
0001f0 63 79 8f 3c 54 74 bc ba 38 57 bd bc cc 74 83 bc
       0.017513936 -0.001437793 -0.023112878 -0.016046904
000200 59 9d 6e bc 66 83 85 3c 8d c5 e0 3c 71 aa 10 bd
       -0.014563882 0.016298007 0.02743795 -0.035318796
000210 1e 04 74 3b 0c 87 98 bc ee a0 f4 bc 3d 04 83 bc
       0.00372339 -0.018619083 -0.029861894 -0.015993232
000220 89 09 7c ba c5 af 4c bd 30 22 76 bc 6d 2d 21 bc
       -0.0009614458 -0.049972314 -0.015022799 -0.0098374905
000230 0a 7e d5 bc 18 f1 a9 bd 0f 8c b2 bd 85 94 79 3b
       -0.026061077 -0.08297938 -0.0871812 0.003808291
000240 32 70 dd 3c f4 0e 26 bd 95 2f 0c bc 53 df cf bc
       0.027031038 -0.040541604 -0.008556266 -0.025375044
000250 67 60 12 bd 12 5f af 3c 46 9c f0 bc 56 5c 40 bc
       -0.035736468 0.021407638 -0.029371392 -0.011740765
000260 4e 54 cf bc 6c 08 27 bd 5b 6e 72 bd cb d7 22 bd
       -0.025308754 -0.040779516 -0.059187274 -0.039756577
000270 07 7b 78 bd 1c 76 59 bd ed 46 42 bb d2 15 49 bd
       -0.060664203 -0.053091154 -0.0029644326 -0.049093075
000280 b2 d3 a4 bb 93 06 60 bd 4f cb 22 bd f3 f9 dd 3c
       -0.005030119 -0.05469377 -0.03974467 0.027096724
000290 34 2b 45 bd 03 f0 76 bd 36 30 53 bd 22 a5 7d bd
       -0.048136905 -0.060287487 -0.05155965 -0.06192506
0002a0 2e 5b 3f 3c e1 1c 9a bb e0 6c d3 bc 0d 4f 5a bd
       0.011679454 -0.0047031497 -0.025808752 -0.053298045
0002b0 ac cf 1b bd 14 82 ad bc 10 14 94 b8 5f a7 b3 bb
       -0.03803985 -0.02118019 -7.060927e-05 -0.0054825987
0002c0 12 fb 0a bb 58 d0 62 bd da 7a ac 3b b3 cd 67 3d
       -0.0021206778 -0.055374473 0.0052636685 0.056592654
0002d0 de 55 b2 3c 8e 9f fa 3b 5f 3f 10 bd c7 52 e8 3c
       0.02176946 0.007648415 -0.035216685 0.028359784
0002e0 52 11 88 3d d9 22 11 3d 6e 21 5a 3d 00 db 4b 3b
       0.066439286 0.035433624 0.053254537 0.0031105876
0002f0 94 ea 5c bd 7c fe e4 3b 65 d0 2b 3d 2c 36 b0 3d
       -0.05393465 0.0069883447 0.041946787 0.086040825
000300 4f 65 8d 3d 17 82 13 bd ef fb 9e bc d3 42 fe bc
       0.06904089 -0.036012735 -0.01940724 -0.031037724
000310 d2 05 b5 b9 c1 76 5c 3d b6 d3 53 bc 8b f5 aa 3b
       -0.00034527347 0.05382419 -0.012928894 0.0052172593
000320 9f a2 70 3c c9 04 f1 3c 56 e4 c4 3c af 00 c8 3c
       0.014687209 0.029421227 0.02403466 0.024414388
000330 e4 0f b4 3b 31 14 3e bd d1 4a 42 bc 99 27 0d 3d
       0.0054950584 -0.046405975 -0.011858658 0.03446159
000340 a8 9e 17 3c 8a a7 46 3c bd e3 23 bd 6d 38 3f bc
       0.009254135 0.012124905 -0.04001211 -0.011671168
000350 06 2b 14 3d 27 48 25 3d 65 da 15 bd 6b 0d 2b bd
       0.036173843 0.040352013 -0.03658523 -0.041760843
000360 46 11 e4 3b f4 5f 5c 3d 2e 81 b0 3d 82 d7 af 3c
       0.006960067 0.053802446 0.08618389 0.021465067
000370 c9 28 aa bc 59 22 22 bd 93 e0 1d 3c 8f 05 a3 3d
       -0.020771401 -0.039583538 0.009636062 0.079600446
000380 56 bf f0 3c 90 5e c5 3c d5 68 b8 3b af da 0e 39
       0.029388111 0.024092942 0.0056277313 0.00013623641
000390 54 72 8d 3c 02 bf 40 3b b4 5c c2 39 c6 b6 0c bc
       0.01726643 0.0029410725 0.00037071633 -0.008588498
0003a0 8d 48 99 3b f3 8b 2f 3d 87 3f 41 3d 06 5e 42 3d
       0.004677838 0.042858075 0.047179725 0.04745295
0003b0 dd 02 7d 3c 54 e1 29 bd 05 69 c0 3c 41 77 40 3d
       0.015442577 -0.041474655 0.023487577 0.04698873
0003c0 8f 2a 8d bc 7d 15 09 bc c2 84 5c bd 5f 25 e9 bb
       -0.017232208 -0.00836694 -0.053837545 -0.0071150507
0003d0 0e b7 08 3b 7a c3 ec 3c 62 c8 db 3c 80 35 0b bd
       0.0020861062 0.028901804 0.026828948 -0.03398657
0003e0 c0 69 6d bd 2d 1b 05 bc 52 ff 2f 3b 90 0b 83 bc
       -0.05796218 -0.008124155 0.0026855064 -0.015996724
0003f0 a0 e8 a9 3c 0e 47 5a 3d 46 90 19 3d b4 29 13 bc
       0.020740807 0.05329042 0.037491105 -0.008982111

bias f4 [32]
000000 33 b2 09 be 55 ac 13 be 59 b6 ea bd f8 78 1e bd
       -0.13446884 -0.14421208 -0.11460561 -0.038689584
000010 3c d3 3d 3d 17 18 64 be 73 a0 65 be 19 e5 1a bc
       0.046344027 -0.22274815 -0.22424488 -0.009454035
000020 63 df 03 bd b0 11 21 bd 81 91 0d 3c fe 67 3a bd
       -0.03219546 -0.03932351 0.008640648 -0.04550933
000030 3a f4 17 bd 8d 9e ec bd f3 47 0e be df 16 cd bd
       -0.037098147 -0.11553679 -0.13894634 -0.10014128
000040 7c d9 a9 bd 0c da e8 bd 99 bc b7 bb 66 5f 2b 3b
       -0.08293435 -0.11369714 -0.0056071994 0.0026149391
000050 d8 f1 61 3d 02 31 8d bd f8 a7 92 bd 64 54 1c be
       0.05516228 -0.06894113 -0.07160944 -0.15266567
000060 0f 30 90 3c 47 db 10 bd 37 cb e1 3c bb 93 bd bd
       0.017601041 -0.03536537 0.02756272 -0.09256693
000070 30 ba bd bd 70 7e b8 3d f0 7c 05 be 5e 0a ed 3c
       -0.09264028 0.09008491 -0.13035941 0.028935608

weight f4 [64, 32, 5, 5]
000000 c0 31 fc bb 57 39 67 3c 93 6f 3b bd e1 6d 1d bd
       -0.0076963603 0.014112792 -0.045760702 -0.038434867
000010 09 22 cc bb 9b fe 90 bb ea 28 26 3d 01 a3 17 bd
       -0.0062296432 -0.0044248826 0.040566362 -0.037020687
000020 3a b1 49 bd 66 94 e3 3c 6f 46 a8 bd 71 17 f1 bc
       -0.049241282 0.027780723 -0.08216559 -0.029430123
000030 c7 f5 71 bd 53 42 0d bd 55 dc c2 3b 78 12 2e bd
       -0.059072282 -0.03448708 0.005946676 -0.042498082
000040 7a 21 85 bc 3b 45 28 bd ea ea c0 3c 71 1e f9 3c
       -0.016251314 -0.04108165 0.023549516 0.030410023
000050 2b 57 47 bd 31 14 14 bd 1c 94 0e 3c 8e 3f 37 bc
       -0.048667114 -0.03615207 0.008702304 -0.011184586
000060 51 b4 91 3b 28 54 ba 3b bc bc 48 bd 84 6f d6 bb
       0.004446544 0.0056863017 -0.049008116 -0.0065440554
000070 a4 94 c6 3c 2e b3 c7 3c 1d 8d 94 bc 88 e6 1c bd
       0.0242408 0.024377432 -0.018133694 -0.03830579
000080 3d 9b 38 bd ce d6 2a 3d 43 b4 8b 3c d3 21 bb bc
       -0.04506992 0.04170876 0.017053729 -0.022843277
000090 11 95 b3 bc 62 b6 18 bc 4a 2c 72 3c 46 a0 70 3d
       -0.021921666 -0.009320827 0.014781067 0.0587466
0000a0 28 6d fb bc 37 0b 66 bd 20 b6 ee bc 46 8b 3e 3b
       -0.030691698 -0.05616304 -0.029139578 0.0029074713
0000b0 48 ef 02 3d d8 48 d2 3c f8 71 67 3b ea e5 a3 3b
       0.031966478 0.0256695 0.0035315733 0.005001773
0000c0 56 92 77 3c 3a ec a7 bb 6b 36 18 bd 56 e5 30 bb
       0.015110573 -0.005124596 -0.037161272 -0.0026992164
0000d0 9c 2b 15 bd 47 84 df 3b 6e 88 cf bb f4 9c 0c 3d
       -0.036418542 0.0068211886 -0.0063334024 0.03432937
0000e0 63 ad 21 bd ea cc 06 3a 06 5d d5 3c 90 c0 73 3b
       -0.039471995 0.0005142229 0.026045334 0.0037193634
0000f0 25 9f 52 bd a7 35 41 bd 4a be 0b 3b a1 12 7b 3d
       -0.051421303 -0.047170307 0.0021323138 0.061297063
000100 3a fc 20 3d af 49 9f bb 02 c4 08 bd ca 36 5f bb
       0.039303042 -0.0048610787 -0.033390053 -0.0034059756
000110 ae 2c 5b 3d fa da 7a 3c a0 1a 28 bd da b1 18 3c
       0.053509407 0.015310997 -0.041041017 0.009319747
000120 ec 19 57 3d cd 83 b6 3c 90 c6 ad bc 1f 7b c5 3a
       0.052514955 0.022279644 -0.021212846 0.00150666
000130 86 b8 81 3c 6c c1 87 bd 64 88 a0 3c 71 0f b2 3c
       0.015835058 -0.06628689 0.019596286 0.021735879
000140 06 11 3b 3d f3 ff a5 bb 80 55 53 bd 48 e0 1d b9
       0.04567053 -0.005065912 -0.05159521 -0.00015056238
000150 9d 61 c7 bc a5 bf 79 3c c6 7e 8d bd 8b 26 32 bd
       -0.024338538 0.0152434455 -0.06908946 -0.04349379
000160 83 82 84 3c e2 8b 17 3d a8 7c 13 bd 39 e7 6d bc
       0.016175514 0.036998637 -0.036007553 -0.01452046
000170 ec dd fe bc ab 15 c0 bc 00 d1 65 bc e3 58 a0 3c
       -0.03111168 -0.023447832 -0.01402688 0.019573634
000180 88 2a d4 bb 67 fe af 3c e1 9d 10 3d e2 b6 d6 bc
       -0.0064747967 0.021483613 0.035306815 -0.026210252
000190 e2 87 b4 bc ec 64 51 bb 89 b9 8c 3c 16 c5 f4 3c
       -0.02203745 -0.0031951023 0.017178314 0.029879134
0001a0 d6 02 23 3c 30 b7 3b bb 82 77 7f bb 59 49 82 bb
       0.009949407 -0.0028643124 -0.0038981144 -0.003976029
0001b0 64 21 65 3b 08 b0 9b bc ee 2f 8a bc 9c 98 12 3d
       0.003496253 -0.019004837 -0.016868558 0.03579007
0001c0 8a cf 49 bb e7 dc 5e 3d 14 5d a2 3c 60 02 3c 3a
       -0.003079387 0.054409888 0.019819774 0.0007171985
0001d0 fc 79 ac bc 24 f0 f3 ba 17 80 fa bb 79 7f 60 bc
       -0.02105426 -0.0018610996 -0.007644664 -0.013702267
0001e0 d0 e1 af 3c e5 85 57 3d 3b af a9 bb f3 82 b2 3c
       0.02146998 0.052617926 -0.00517836 0.021790957
0001f0 de 5a e0 3b 45 ad 13 bd 22 2b 25 bd 4b 34 6d 3c
       0.0068467697 -0.036053915 -0.040324338 0.0144778
000200 09 2a 37 3c 11 f3 9a bc 20 19 a9 bc 48 9e 17 3d
       0.011179456 -0.018914731 -0.020641863 0.037016183
000210 37 d0 d1 3c 7c 9b 1a 3d 02 0d d8 3c 6b 5e a8 bb
       0.02561198 0.037745938 0.02637339 -0.0051382086
000220 23 30 f2 bc 4b 38 90 3c ac 6e b8 3d 14 08 a7 3c
       -0.029563969 0.017604968 0.09005484 0.020389594
000230 b1 d5 c5 ba 54 e9 7b 3c 6d e5 8d 3c d7 b7 df 3b
       -0.0015093592 0.015375454 0.017321313 0.0068273353
000240 f0 c8 9c 3c 9f 3b 9f 3c 1d 45 3c bc 72 d1 f2 3c
       0.019138783 0.01943761 -0.011491087 0.029640887
000250 98 cb 11 bb 6c 25 ee 3c 7e 61 4a bc 5e 02 83 3c
       -0.0022246595 0.029070579 -0.0123523455 0.01599234
000260 d1 ed 5f bc c1 8d f5 3c cc ff ef 3a 10 7c fe 3c
       -0.01366754 0.02997482 0.0018310486 0.031065017
000270 04 fe c5 3a 72 31 16 3b 57 60 66 3c 38 b2 4d 3d
       0.001510561 0.0022917655 0.014061055 0.05021879
000280 52 9f 3b 3b 71 e6 3d 3c ed f9 e1 3b 03 e3 e8 3c
       0.0028628898 0.011590586 0.0068962486 0.02842856
000290 a2 38 13 3d 81 07 46 3c 6b bf 9d bc 81 36 a1 bc
       0.03594268 0.01208675 -0.019256314 -0.01967931
0002a0 d0 f2 37 bc 80 7c c6 bb 95 fc 88 3c 6f 20 75 3c
       -0.011227325 -0.006057322 0.016722003 0.014961346
0002b0 c4 98 19 3d e8 33 d8 3c 03 05 54 3d ef 94 7c bb
       0.037499204 0.026391938 0.051762592 -0.003854092
0002c0 cc 7c 4a 3c 14 d7 4e 3c 2e 5e 12 bd 71 d3 3e bd
       0.012358855 0.012624521 -0.035734348 -0.046588365
0002d0 59 aa 87 bd ef 4a a0 3c 40 cf 2a 3d 0f 7b aa 3b
       -0.06624288 0.019566981 0.041701555 0.005202658
0002e0 e4 8c bf bb fb a7 91 bd a7 de 8e bb d4 94 30 bd
       -0.005845653 -0.07112118 -0.0043600383 -0.043110684
0002f0 ae 7c c0 bc 44 a2 00 3c 0a a2 0c bc 26 4a ca 3b
       -0.023496952 0.007851187 -0.008583555 0.00617339
000300 3e d1 72 3d 8e b9 8b bc 97 d9 74 bb 37 db ac bc
       0.05928158 -0.017056253 -0.003736114 -0.021100624
000310 2b 31 e3 3b 75 77 90 3c b6 8f cd 3c f9 65 03 3d
       0.0069333515 0.017635087 0.02509294 0.03207967
000320 ae 7f eb 3a 68 46 43 3d 83 eb 32 3c 9d 3b 87 bc
       0.0017967129 0.047674567 0.010920408 -0.016507918
000330 e5 d8 0c bd 46 b7 7e bc 01 bf 26 3d 8e 81 1b bd
       -0.034386534 -0.0155466255 0.0407095 -0.03796535
000340 c6 12 e7 bc f8 91 10 bc 3a a4 09 3c 90 43 34 3d
       -0.028207194 -0.008823864 0.008400971 0.044009745
000350 03 a4 72 bd c2 1b 35 bc 9f 76 ef bc e4 a0 26 bc
       -0.059238445 -0.011053981 -0.029231368 -0.010170195
000360 1c aa a6 3d 20 b6 61 3d c4 87 f9 3b 9c 83 07 3c
       0.081379145 0.05510533 0.0076150615 0.008271124
000370 03 2d 7a bc cf c0 1a 3d a6 91 c5 3b 36 ac 73 bc
       -0.015269521 0.037781533 0.0060293255 -0.014872601
000380 0b ec 9c 3c ca b1 98 3c 60 fa 1b 3d b7 1a 84 3c
       0.019155523 0.018639464 0.038080573 0.01612602
000390 17 c3 9d 3c e4 9a fa 3b 20 d7 a9 3b cc e3 ff 3c
       0.019258065 0.007647859 0.0051831156 0.031236552
0003a0 cb 7c 5b bc 72 f9 ba bc 2f cf 24 3d 0a 01 3e 3d
       -0.013396452 -0.022824023 0.04023665 0.04638771
0003b0 3e c1 70 bd 80 d1 2a bd 15 a7 3d bd 30 0c 29 bd
       -0.05877804 -0.0417037 -0.04630192 -0.04127139
0003c0 e6 c5 0b bd 5f ff 5b 3c 64 b0 11 3d 19 c7 79 3d
       -0.034124278 0.013427584 0.03556861 0.06098089
0003d0 32 49 96 bc 3a c5 a8 3c a3 aa 11 bc 24 d9 99 3a
       -0.01834545 0.020601857 -0.008890781 0.0011737687
0003e0 36 50 48 bd d1 3d fc bb 27 15 73 bd f1 2d e3 bc
       -0.04890462 -0.007697799 -0.059346344 -0.027731868
0003f0 df 51 51 bd c9 72 20 3d ad d8 10 bd 79 e9 90 bc
       -0.05110347 0.039171968 -0.035362888 -0.017689453

bias f4 [64]
000000 6b b8 90 bd d2 78 d2 bd b4 4a ad bd 44 7f 88 bc
       -0.07066425 -0.10276951 -0.08461514 -0.016662247
000010 c5 6e 05 bd 3e 98 b0 bd 7b cc 1c bd 4d fc 7b bc
       -0.03257634 -0.08622788 -0.038280945 -0.015379977
000020 7c 2c 2b bd 31 35 2d bd a6 7f cb bd bd ad 89 bd
       -0.04179047 -0.042287055 -0.099364564 -0.06722591
000030 64 04 71 bd b5 dc 70 bd 85 76 93 bd 5e 5c ed bc
       -0.058842078 -0.058804233 -0.0720034 -0.028974708
000040 78 c9 c2 bd 48 59 8d bd 46 48 86 bd 00 df 93 bd
       -0.09511083 -0.06901795 -0.06556754 -0.07220268
000050 10 e1 8c bd c0 a9 b1 bc 90 35 b6 bc ca b9 d8 bd
       -0.06878865 -0.021687388 -0.022242337 -0.105823115
000060 0f e7 80 bd 45 36 f4 bb 82 45 89 bd 7b 74 d0 bc
       -0.06294071 -0.0074527585 -0.06702711 -0.025446167
000070 76 08 72 bd a5 09 82 bd 15 b9 91 bc e3 ec f7 bc
       -0.0590901 -0.06349496 -0.01778845 -0.030264324
000080 c4 68 8f 3b 2b d1 02 bd 22 18 92 bd 9e ec 30 bd
       0.0043765027 -0.03193776 -0.07133509 -0.043194406
000090 e8 eb e5 bc ea a5 9f bd 9b f2 8c bd 2a ce d4 bd
       -0.02806659 -0.077953175 -0.06882211 -0.10390885
0000a0 fb 95 ad bd 77 0f 8b bd 42 b4 2b 3d a4 08 19 bc
       -0.08475872 -0.06790059 0.041919954 -0.009340439
0000b0 68 55 1a bd dd bb 6a bc 3c 66 ec bc 8e 40 ab bd
       -0.037679106 -0.014327017 -0.028857343 -0.08361922
0000c0 73 c7 de bc d5 61 af bc 66 40 bf bd d3 75 b4 bd
       -0.027194714 -0.021408955 -0.09338455 -0.08811536
0000d0 7f ae 5d bd d7 18 f0 bd 24 a6 37 3c 4b 7d 8d 3c
       -0.05412149 -0.11723488 0.011209045 0.017271658
0000e0 45 0a d3 3c 69 3c c5 bd bf 36 bc 3c 61 ad c0 bd
       0.025761733 -0.09630663 0.022975324 -0.094080694
0000f0 9b c6 8b bd d1 4a f5 bc bb 03 ba bc 15 75 ae bb
       -0.0682499 -0.029942902 -0.022706857 -0.005324016

weight f4 [64, 1024]
000000 58 e4 55 bd a2 18 c0 3b be d8 91 3c 8f 94 fa 3b
       -0.05221972 0.0058623115 0.017803546 0.007647104
000010 4e 27 e9 bb 86 71 fa 3c cc 98 ae 3c dd be 8f bc
       -0.007115281 0.03057171 0.021313094 -0.017547065
000020 aa 56 60 bc af 2d 2b 3b ba 87 3e 3d 72 b4 68 bc
       -0.013692537 0.002611976 0.046516158 -0.014203178
000030 82 c4 14 bd 08 b6 65 bd ad 02 ba bb 4f c6 26 bd
       -0.036320217 -0.0560818 -0.0056765885 -0.040716466
000040 ce 59 b6 bc 3b 3e c0 3c 43 77 d4 bc 75 1d 02 bb
       -0.02225962 0.023467174 -0.025935775 -0.0019853984
000050 0f 5a 17 bb fe 2e 20 bc 26 44 fc bc 42 b9 24 bc
       -0.002309445 -0.009776829 -0.030794214 -0.0100539345
000060 4e ee a0 bc 9b 78 c4 3c 8c ab fd bc 5d 73 4c 3d
       -0.019644883 0.02398329 -0.030965589 0.049914706
000070 ef bd 58 3c 03 57 c0 3b f2 39 bd 3c b8 21 9b bc
       0.013228877 0.0058697476 0.02309892 -0.018936977
000080 22 67 4d 3c f9 2f 02 3b 03 72 09 bd 61 7a 70 bc
       0.012536796 0.001986502 -0.033555996 -0.014677615
000090 f0 70 07 bd d3 89 59 3c 53 68 b6 3c bd 8a 02 3d
       -0.03306669 0.013277489 0.022266543 0.031870592
0000a0 e8 af 9c bc a1 65 1a bd 7d 10 15 bd e6 36 78 bc
       -0.019126847 -0.037694577 -0.036392678 -0.015149808
0000b0 9c 5e 9d 3b c8 3d 07 3d 1f 52 87 3c 08 1b 4d bc
       0.004802538 0.033017904 0.01651865 -0.012518652
0000c0 08 47 7a bc 6b bc 0a bd 84 f1 9e bc 82 74 b6 bc
       -0.015275724 -0.033871096 -0.019402273 -0.022272352
0000d0 e8 ba 05 bd 97 aa 8a bc 1e ed bd 3c a0 4b 2c 3b
       -0.03264895 -0.016927047 0.023184355 0.0026290193
0000e0 70 e7 01 bd d6 ff e2 3c 84 fe 01 3d 61 48 17 3d
       -0.031714857 0.027709883 0.031736866 0.03693426
0000f0 c7 13 67 3c c1 ac 1f 3d 03 05 a5 3d 63 17 10 3d
       0.014103836 0.03898311 0.080575965 0.035178553
000100 b7 40 67 3c a8 52 90 ba c4 fb a8 3c 2d 44 0d 3d
       0.01411455 -0.0011010962 0.020627864 0.034488846
000110 64 93 be bc 69 77 0d bc 83 5f 91 3c 54 e1 81 3d
       -0.02326364 -0.008634427 0.017745739 0.06341806
000120 85 71 97 3b 9c f9 69 3d 0c 35 58 ba ea 27 63 3c
       0.004621687 0.05712281 -0.00082476507 0.013864497
000130 b6 f8 7c bc c6 42 a5 3c bf 92 39 bc da 7a b1 3a
       -0.015440157 0.020173442 -0.011326491 0.0013540641
000140 32 ae 91 bc 47 10 2d 3d f5 4d 4a 3c d0 3c ab bc
       -0.017783258 0.04225185 0.012347688 -0.020903021
000150 66 44 6e bc 64 a4 b2 ba 87 85 f0 3c 51 2b e1 3b
       -0.014542675 -0.0013629314 0.029360546 0.006871619
000160 e8 91 83 3b 7b 17 ce 3c 67 f0 a2 bc 06 76 8e 3a
       0.004015196 0.02515768 -0.019890023 0.0010868914
000170 ce 78 3b 3d e3 6f 18 3d be c3 20 3d 9d f4 de 3c
       0.045769505 0.03721608 0.039249174 0.02721625
000180 be 5c 09 bc 57 37 a0 bc 7f 7b ae bb b4 dc 7d 3c
       -0.008383928 -0.019557638 -0.0053247805 0.015494514
000190 90 eb d1 ba f3 2b 48 bc 38 8c ad bc ae d7 ab bc
       -0.0016015638 -0.01221751 -0.021185026 -0.020976868
0001a0 d5 dd 0c 3d f8 2d 4c 3d c3 24 a0 bb 05 28 6e 3d
       0.034391243 0.049848527 -0.004887195 0.058143634
0001b0 1f ae 95 bc 02 cc a5 3c 1e 59 00 3d 9e 01 ce 3c
       -0.018271504 0.02023888 0.03133499 0.025147256
0001c0 23 fb 62 3b b5 28 54 bd 9d a9 49 bc 62 b1 3c 3d
       0.0034634552 -0.051796634 -0.012308505 0.046067603
0001d0 e2 ea ba 3c 04 03 8a bc 15 ea 43 3d 4b ca 1c 3d
       0.022817079 -0.016847141 0.04783066 0.03827886
0001e0 54 20 28 bb ec a1 d1 bc fe 6a 21 3d 6b 52 2a 3d
       -0.0025654035 -0.025589906 0.039408676 0.041582506
0001f0 57 94 5f 3d 0b c4 8b bb c8 61 de 3a 50 22 84 3c
       0.054584827 -0.0042653135 0.0016966397 0.016129643
000200 0b 84 22 bc bd 03 8b bb 1d 17 f8 3c 18 90 2d bc
       -0.009919177 -0.004242389 0.030284459 -0.010593437
000210 53 8c 19 3d a8 35 1f 3c dd 7a 37 3d 44 2b 19 3d
       0.03748734 0.0097173825 0.044794906 0.037394777
000220 9a 22 45 3d 67 30 81 3d 01 57 e4 3c b5 97 52 3d
       0.0481287 0.0630806 0.027873518 0.05141421
000230 40 6d e3 bc b2 75 45 ba 52 4f 9a bb dd db 8e bc
       -0.027762055 -0.00075324916 -0.0047091627 -0.017438823
000240 d2 b5 71 3c 23 6f 1c bc 85 91 95 3c bb bd fe bb
       0.014752822 -0.009547981 0.018257866 -0.0077740825
000250 2a 15 84 3c 89 9d 0e 3d a5 5a 88 3d 34 1d 12 3d
       0.016123373 0.034818206 0.06657914 0.03567238
000260 98 b0 ad 3c 95 08 93 3d 54 3f f4 3c 96 59 43 3b
       0.02120237 0.07179371 0.029815353 0.0029808036
000270 7d 4c 10 bd ee db c3 bb c0 ba b9 bc a0 55 fd bc
       -0.035229195 -0.0059771454 -0.022672057 -0.030924618
000280 9b ce c4 3c d4 27 3e bc 17 8e 2b bd 70 0d 8a 3b
       0.024024298 -0.011606175 -0.041883554 0.0042130277
000290 bc da 06 3d 88 5b 9b bc c3 09 c5 bb f7 bc 84 3d
       0.032923445 -0.018964544 -0.0060131266 0.06481355
0002a0 ac b3 1f 3d 59 02 c1 bc 48 3a 3d 3c 71 2f 52 3d
       0.038989708 -0.02356069 0.01154954 0.051314775
0002b0 78 9f 9c bb 0e 86 1f bd c0 1c af 3a f9 a6 b9 3c
       -0.0047797523 -0.038946204 0.0013360009 0.022662627
0002c0 db a3 89 3c 3a b2 ca 3b 7e 63 f3 bc 91 f7 68 bc
       0.016801765 0.006185797 -0.029710528 -0.014219181
0002d0 b7 1a e4 bc d8 ab 0c 3c 1b cc d8 bc 5a 1c a4 bc
       -0.02784477 0.008585893 -0.026464513 -0.02003305
0002e0 39 00 e3 bb 0d 13 d2 3b f4 45 23 bd 41 d9 5e bb
       -0.006927517 0.0064109624 -0.039861634 -0.0034004005
0002f0 c9 9e 40 3c ed 65 ce 3c 76 c9 66 3d 0e cc 08 3d
       0.011756607 0.025195086 0.056344472 0.033397727
000300 e0 12 d7 3b da 6d 3f bd 03 31 e2 3a 95 ca 80 bc
       0.0065635294 -0.046735622 0.0017257038 -0.015721599
000310 56 52 85 3c d9 a4 40 bd 44 16 b9 bc 3a 66 39 bc
       0.016274612 -0.04703221 -0.022593625 -0.011315877
000320 a5 cc 49 3c 0b f8 b8 bc ad d7 d5 3c 51 8c 45 3c
       0.012316857 -0.022579214 0.026103819 0.01205738
000330 2b 91 81 3d 71 e6 c6 bc 2b d6 ab 3b 57 7d 00 bd
       0.06326517 -0.024279805 0.0052440367 -0.031369533
000340 90 bd 36 3c 29 91 9a bc d1 42 9f bc 03 5c c7 3b
       0.011153594 -0.018868046 -0.01944104 0.0060839667
000350 95 bf 1d 3a 68 d1 8b 3c 70 9a b6 3c 83 42 28 3c
       0.00060176227 0.017067626 0.022290438 0.010269764
000360 10 fd 5f 3b 68 16 f1 3c 9d da 6c 3c a9 73 6f 3d
       0.0034177937 0.02942963 0.014456418 0.05845991
000370 53 c2 41 bd f9 17 08 bd f8 8d 2c bc cb cf 62 bc
       -0.047304463 -0.033225987 -0.010531895 -0.013843487
000380 83 d5 a1 3c 52 33 e4 3b d4 f8 5a 3d aa ab 42 b9
       0.01975513 0.0069641257 0.053459957 -0.00018565232
000390 18 07 9a 3c 00 26 96 ba ea 85 4d bc 72 e5 5d 3c
       0.01880221 -0.0011455417 -0.012544135 0.013543474
0003a0 6a 46 28 3c b4 64 62 bd 14 56 89 3c 5b 04 72 bd
       0.010270694 -0.05527182 0.016764678 -0.059086185
0003b0 74 f3 00 3b 21 3a f1 bc 23 d6 70 3c 62 46 42 3c
       0.001967636 -0.029446663 0.014699492 0.011857601
0003c0 40 8b 2b ba 8a 45 74 3c 08 10 f7 3b 8b 53 a5 bc
       -0.0006543882 0.0149091575 0.007539753 -0.020181438
0003d0 03 1b bd bb 50 2b 8e bc bf 7e 57 bc a2 66 75 3c
       -0.0057710423 -0.017354637 -0.013152777 0.014978083
0003e0 26 5e 15 3c 14 0b 26 bd b4 b3 de 3c 1b 57 90 bb
       0.009116685 -0.04053791 0.027185299 -0.004404915
0003f0 e3 a8 42 3c 65 90 fc 3c eb a3 46 bb 78 23 0a 3c
       0.011881086 0.030830571 -0.0030310105 0.008431308

bias f4 [64]
000000 26 63 9c bc ac 60 51 3b 2e db d3 bc 7f a8 5f 3c
       -0.019090246 0.003194849 -0.025861349 0.013651012
000010 f9 ef 7f bc b0 c9 26 3d 0e 5c 84 bc e4 ed 8f bc
       -0.015621179 0.040719688 -0.016157176 -0.01756949
000020 3a e7 01 3c 58 06 0d bc 8d f6 d0 bc 83 1c 3c bd
       0.007928664 -0.0086074695 -0.02550819 -0.04592563
000030 20 9f 84 3c f7 df 4f 3d 90 c4 3a 3b 0c 87 c3 bb
       0.016189158 0.0507507 0.0028498508 -0.0059670266
000040 0d a0 d2 3c cc c9 2e 3c b2 68 bf bc 16 22 0d 3d
       0.025711084 0.010668229 -0.023365352 0.034456335
000050 cd bf 3a bd 27 f8 8f 3c 95 9e 99 3c 3b e3 ef bc
       -0.04559307 0.017574383 0.018752376 -0.029283157
000060 e2 94 df 3c b1 50 0d bd 22 d3 85 b9 f7 c4 e0 bc
       0.027292673 -0.03450078 -0.00025525043 -0.02743767
000070 ac 07 94 3d 8c 02 e8 3c 6f 41 db bc 4b a6 a2 3c
       0.07228026 0.028321527 -0.0267646 0.019854685
000080 99 2a 3b bd 23 f3 27 3d ca c8 75 bb d1 3b 38 bd
       -0.04569492 0.041003358 -0.0037503713 -0.04497892
000090 cc 7b c1 bc 3b 00 cb 3c bc a1 3f bd fe e9 4a bd
       -0.023618601 0.024780383 -0.0467851 -0.04953956
0000a0 5f a2 51 bd 6c 7f a8 bc 18 ef 01 bd 12 09 18 bd
       -0.05118024 -0.020568572 -0.03172216 -0.037118025
0000b0 5f a4 ad 3c d0 38 17 bc 94 d9 d6 bb de b6 11 bd
       0.021196542 -0.009229854 -0.006556699 -0.035574786
0000c0 b2 5b f9 bc d3 e9 ef bc da ec fe 3c 06 c6 83 3d
       -0.030439232 -0.0292863 0.031118799 0.06434254
0000d0 b9 c5 ad 3c 7a 1d 08 bb 06 bc 83 bb 39 1c 8a bb
       0.021212446 -0.0020769523 -0.004020217 -0.00421479
0000e0 4a f0 59 3a 8d 1f 2b bd 78 96 46 bd b0 61 7b 3c
       0.0008313699 -0.041778136 -0.048483342 0.015343115
0000f0 ad ed 06 3d d2 c6 37 bd 2a 13 c1 3c 34 86 fc 3c
       0.03294151 -0.044867344 0.023568708 0.030825712

weight f4 [10, 64]
000000 9b 73 32 3d e0 52 49 3e dc 46 ed bd ad 13 09 bd
       0.04356728 0.1966052 -0.11585781 -0.03346603
000010 f1 19 2d be 5d a6 5a be 51 72 ca 3d 73 96 53 3e
       -0.16904427 -0.21352525 0.098850854 0.2066286
000020 d5 fb 4f 3e 0b 4f 33 3d 17 77 60 be 4f 39 42 3e
       0.2031091 0.043776553 -0.21920429 0.18967174
000030 47 e4 9b bd 6e 46 22 3d fc 91 82 be f7 50 52 3e
       -0.076119 0.03961795 -0.25502002 0.20538698
000040 06 5a 36 3e 97 8b 77 be 9a fe 3d 3e e5 15 3f be
       0.17807779 -0.24174343 0.18554154 -0.18660696
000050 ec bc c9 3c 47 4d 42 be 55 d5 94 bc 1f c6 26 3e
       0.024626218 -0.18974791 -0.01816813 0.16286515
000060 60 d4 fa bd 46 c3 f7 bc 9d 8c 26 be 10 cf f3 bd
       -0.122475386 -0.03024448 -0.16264577 -0.119047284
000070 90 f3 52 be 73 b3 b4 bc 47 ae 58 bd aa 91 08 3d
       -0.20600724 -0.022058224 -0.05290058 0.03334204
000080 3a 20 87 3e 4f cc 5c be da 71 ac bd 91 3e 0f 3d
       0.26391774 -0.21562313 -0.08420153 0.034971777
000090 8a 49 34 be 98 29 be bd 9b 7b 88 3e b2 c2 59 be
       -0.17606178 -0.09285277 0.26656803 -0.21265677
0000a0 86 ec 68 3e d0 9d a4 bd 4c 37 d3 3d 8e 06 18 3e
       0.22746477 -0.08037913 0.103132814 0.1484625
0000b0 3e f7 39 3c 9e 8a 51 be b3 6c 73 3d cf c6 9c bd
       0.011350451 -0.20463035 0.059429836 -0.07655107
0000c0 2a 9f 79 3e 31 7d 77 bb e6 e4 5b be ac 13 d8 bd
       0.24377123 -0.003776383 -0.21474037 -0.10550627
0000d0 f1 d0 d6 3d 9c 15 d0 bc e2 89 f7 3d b2 9f e9 3c
       0.10489071 -0.02540093 0.12086846 0.028518531
0000e0 3b 30 de 3c b6 39 89 3e 9f 2d 06 3e 2e 8d 81 be
       0.027122607 0.26801842 0.1310334 -0.25303024
0000f0 4f 91 00 be 34 48 3c ba 5a f8 f6 bd 59 10 38 3d
       -0.12555431 -0.000718239 -0.12059088 0.044937465
000100 2e 2a 12 3e 1f cc 50 bd b1 fe 07 3e 03 48 58 be
       0.14273903 -0.050975915 0.13280751 -0.2112122
000110 f8 60 a8 bc 02 79 75 3d 6e 59 aa bd 30 fd 6d be
       -0.02055405 0.059929855 -0.083178386 -0.23241115
000120 33 63 82 be e7 74 55 bc 1e b0 80 be db 59 22 be
       -0.25466308 -0.01302836 -0.25134367 -0.1585459
000130 fc 36 b9 bd 83 30 34 be 09 18 86 3e 42 a3 a2 bd
       -0.090436906 -0.17596631 0.26190212 -0.07941295
000140 41 93 a7 bd 2d ae 7e 3e 84 f8 a5 3d 8c 99 24 be
       -0.08182383 0.2487113 0.08104041 -0.16074198
000150 66 90 10 be ce f3 02 be 85 28 3a bd 20 41 4f 3e
       -0.14117584 -0.12788317 -0.0454488 0.20239687
000160 dc e0 c3 3e a8 7e 7c 3e cb 73 3c 3e bb 12 7a 3d
       0.38257492 0.2465769 0.18403547 0.06105302
000170 df 65 8a be 5c 8e 3d be e9 4c bc bd ae 56 2b 3e
       -0.27030846 -0.18511337 -0.09194357 0.16732284
000180 53 f6 6d 3e 3d 63 c6 3d 7f b1 a9 bd 60 bc 68 be
       0.23238496 0.09686897 -0.08285808 -0.2272811
000190 ec e6 cd bd 92 86 03 3e f6 9a 5a be e4 6a dc bd
       -0.100538105 0.12844303 -0.21348175 -0.10762575
0001a0 38 ba f5 3d aa 37 17 bd 03 8a 0a 3d 7d 75 4d 3d
       0.11998409 -0.03691832 0.033823024 0.050160874
0001b0 0a 97 74 be 35 e2 64 be c4 7b ae bd 0c 36 81 3e
       -0.23885742 -0.22351916 -0.085197 0.25236547
0001c0 0d 80 25 bd dc 78 28 3e 1a 19 3d be a1 0e 5a be
       -0.040405322 0.16452354 -0.18466607 -0.21294643
0001d0 43 6a ac be f3 f3 58 3e 49 f2 22 be 90 8e d2 bd
       -0.3367482 0.21186809 -0.15912737 -0.10281098
0001e0 bf 55 b0 3e ea d1 17 3e 70 d9 51 3b 77 70 9d 3e
       0.3444042 0.1482617 0.0032020472 0.30749866
0001f0 c8 cb c0 be db e0 09 be ab 8d 84 be 5e 1b 5f be
       -0.37655473 -0.13464682 -0.25889334 -0.21787784
000200 7f dd 99 be af dd 03 3b c6 73 96 be f4 6a 28 3e
       -0.300518 0.0020121147 -0.29385203 0.1644705
000210 bd 13 c4 bd 9b e6 b9 bd 3b 5c a1 3d 0a 09 52 bd
       -0.09574077 -0.09077188 0.0787892 -0.05127815
000220 5d 48 02 3c 88 e6 ed bd 5e bd 2f 3e 59 6f 64 be
       0.007951823 -0.11616236 0.17162082 -0.22308101
000230 67 ec ac 3c 67 06 8a 3c 07 b6 99 be 9e b7 60 3e
       0.02110882 0.016848756 -0.30021688 0.21945044
000240 e8 6e 85 bd 78 9b 1b be 61 85 1b be c2 2c bc 3d
       -0.06515294 -0.15196025 -0.15187599 0.091882244
000250 eb 90 3d 3d dd e6 ab 3d 09 fd 33 be ca aa 7d be
       0.046280783 0.08393643 -0.17576994 -0.24772182
000260 89 ba 08 bd 43 45 58 3d e9 f0 13 be 31 8c ec 3d
       -0.03338102 0.052800428 -0.14447369 0.11550177
000270 27 4e 23 be 1b 6e 50 3e 2a 71 40 bd 72 15 48 3e
       -0.15947782 0.20354502 -0.04698292 0.1953943
000280 f5 31 66 3e 8f 8e b0 3d 27 90 2b be 74 90 ae bc
       0.22479995 0.08620941 -0.16754209 -0.021309115
000290 de c5 64 3e 12 6a d4 3d cf 29 20 3e e3 5d 94 be
       0.22341105 0.10371794 0.15640949 -0.2897788
0002a0 a2 ec ca 3d c1 ca d1 3d 0d 00 07 3d 3e 4b 14 3d
       0.099084154 0.1024375 0.032959033 0.03620457
0002b0 c3 8b 04 3e c9 8f 6b 3e 2e c2 ae 3e 85 0b a0 bc
       0.1294394 0.23004068 0.34132522 -0.019536743
0002c0 5f 9c c7 3d 0c 9f 84 3e cf ab 7e 3e 11 4b 27 3e
       0.09746622 0.25902593 0.24870227 0.1633723
0002d0 99 b0 e2 bd 17 7a 39 3e b8 f6 03 3e 69 87 14 3e
       -0.110688396 0.1811298 0.12887084 0.1450478
0002e0 15 60 25 3d 2a 94 09 be 7e 18 6d bd 52 6d 47 be
       0.040374834 -0.13435426 -0.057884686 -0.19475296
0002f0 21 66 89 3e ee 84 64 3d ae 91 df 3d ce 71 56 bd
       0.2683573 0.055790834 0.10916458 -0.052354626
000300 fb b4 05 be 61 e9 2e 3e 30 38 48 be ec ff 1e be
       -0.1305732 0.17081214 -0.19552684 -0.15527314
000310 7f 5e b8 bd c5 74 3c 3e e6 24 50 bc 2e ea ec bc
       -0.09002399 0.18403919 -0.01270411 -0.02892026
000320 c5 be 1f be 98 7d 29 3e e2 2d 1b 3e c4 3d 88 3c
       -0.15600117 0.16551816 0.15154222 0.016631015
000330 4e f3 e9 3d 02 59 56 be a4 1a 65 3e 64 6d cf bd
       0.1142336 -0.20932391 0.22373444 -0.101282865
000340 c7 b7 ec 3d c4 c4 2c 3e 9c 00 3b bd ee 52 0d bc
       0.1155849 0.16871935 -0.045654878 -0.008625729
000350 fe 74 3c 3c 4a ec dd 3d db 28 4d 3e b4 ed 37 3c
       0.0115025025 0.10836084 0.20035116 0.011226106
000360 c5 d6 6e bd 6c cf fd bc ce 1e 0f be 29 aa 42 be
       -0.05831029 -0.030982696 -0.13976595 -0.19010223
000370 d5 cb a5 3d c1 75 81 3d 23 9d 69 3e 21 4e bc bd
       0.080955185 0.06321288 0.22813849 -0.091945894
000380 83 ad a5 bd b3 a8 0c 3d ee cd e5 3d dc a3 be bd
       -0.08089735 0.03434057 0.112209186 -0.093085974
000390 5a fd 17 3e 1b 09 9b 3c 9d a8 af 3d f6 69 92 3d
       0.1484274 0.01892524 0.08577082 0.07149117
0003a0 61 cc 20 3e 18 fe 54 3e e7 e3 96 be 02 56 04 bd
       0.15702964 0.20800054 -0.2947075 -0.032308586
0003b0 37 86 1a 3d 2e d3 a6 3d 3c 9d 12 3e 85 4e 35 be
       0.037725653 0.08145748 0.14317793 -0.17705734
0003c0 0f 3b 73 bd 85 aa b3 bd 00 94 29 be 5e 32 15 3d
       -0.059382495 -0.087727584 -0.16560364 0.036424987
0003d0 ab 15 f5 3d 95 35 42 3e 8c 67 d1 3d a3 a7 78 bd
       0.119670235 0.18965752 0.10224828 -0.060706746
0003e0 5d b3 c7 bd cb 5f 0f be 5c 20 00 3e a5 8c 49 bd
       -0.09751008 -0.14001386 0.12512344 -0.049206395
0003f0 c1 74 03 3d e8 30 02 be 5f 3f a5 3d 50 44 75 bd
       0.032093767 -0.12713969 0.08068728 -0.0598796

bias f4 [10]
000000 13 f4 8a bd 32 de eb 3d 9c 65 a8 bc ba 61 96 3d
       -0.06784835 0.1151699 -0.020556264 0.073428586
000010 dd 6f b1 3d 11 50 df bd a8 df c6 3d 01 c9 c3 bc
       0.08663914 -0.10903943 0.09710628 -0.023899557
000020 d3 32 ff 3a 2e 7b dc 3c
       0.0019470103 0.026914205
