try_train/cifar10_models/cifar10_net_29.pth (torch, 589402 bytes, 10 tensors)

weight f4 [32, 3, 5, 5]
000000 73 59 9b bd 17 69 ba 3d 38 34 19 3e a1 74 1a bc
       -0.075854205 0.091020755 0.14961326 -0.009427221
000010 6c 08 11 3e e7 30 e5 bd 63 ac ab bd d4 10 ae bc
       0.14163369 -0.11190968 -0.083824895 -0.021248259
000020 f3 e2 52 3e f2 01 bc 3d 78 c9 93 bd 70 70 a8 3c
       0.20594387 0.091800585 -0.072161615 0.020561427
000030 38 63 3d be bc 04 1f bc b4 c9 c7 bd 38 a8 81 3d
       -0.1849488 -0.009705719 -0.09755269 0.06330913
000040 98 83 54 3c a1 8e 8e be 6e 8a 49 be 27 8a f4 bd
       0.0129708275 -0.27843192 -0.19681713 -0.11940413
000050 20 d5 40 3e aa db 36 bd 33 05 8b be f1 21 c9 bd
       0.188313 -0.04464308 -0.27152404 -0.09820927
000060 ce 58 0a bd 13 92 01 be f5 8c 88 bd d8 4c 42 bd
       -0.033776097 -0.12653379 -0.066675104 -0.047436565
000070 a6 26 55 bd d0 27 ba bd 18 df 91 3d b9 32 f4 bd
       -0.05203881 -0.09089625 0.0712263 -0.11923737
000080 88 46 04 be ef 1a bc 3d c8 69 1b 3d e2 70 76 3c
       -0.1291753 0.09184825 0.037942678 0.015041562
000090 b0 98 88 3d b1 4b 31 be 6f bd 6e 3b 23 80 22 bd
       0.06669748 -0.1731403 0.003642883 -0.039672982
0000a0 04 cc a9 3e 1f 08 36 3e 31 99 16 be 0c 25 7e bd
       0.33163464 0.17776535 -0.14706875 -0.06204705
0000b0 27 c3 c3 bd 05 5b 55 3e 37 93 c4 3d 52 a0 3e be
       -0.09558707 0.20835502 0.095983915 -0.18615845
0000c0 63 b5 1d be 5b db 94 3d 96 36 54 bc 49 0d 43 3d
       -0.15401225 0.07268401 -0.012952467 0.04762009
0000d0 be fa 03 3e 5c ac 82 bb c7 11 05 be 24 ad 9c 3c
       0.1288862 -0.003987832 -0.12995063 0.019125529
0000e0 00 8e b5 3a 85 a5 e4 bb d7 1d 04 3d aa ad ad bc
       0.0013851523 -0.0069777393 0.03225502 -0.021200974
0000f0 d1 ae 34 3e f4 b6 55 3d 61 66 17 be 14 36 dc bd
       0.17644812 0.05217643 -0.14785148 -0.10752502
000100 62 fa 55 bd 85 15 9e 3e f3 21 6c 3e 87 6a dc bd
       -0.052240737 0.30875793 0.23059826 -0.10762506
000110 be 12 5c bd 3c df 29 3c 0c 6b a6 3e 0d ca 34 3e
       -0.05372881 0.010368165 0.32503545 0.17655201
000120 99 d1 1d be df fb fe bd 18 4c a8 bd d7 69 01 be
       -0.15411986 -0.12450384 -0.08217639 -0.12638031
000130 b2 ae 90 bd 98 e5 48 be ac 01 a5 bb 0e d5 2e bd
       -0.070645705 -0.19618833 -0.0050355997 -0.042683654
000140 5a b2 cb bb 08 ae 73 bd 65 b7 88 bc 1e a1 a4 bd
       -0.0062163295 -0.05949214 -0.016689012 -0.08038543
000150 5f d5 e7 3c 5f 18 43 3c 60 c0 74 bd e3 24 b3 bc
       0.028299985 0.011907666 -0.059753776 -0.021868175
000160 b6 42 72 bd c1 3a 6b 3d 21 c7 05 be 31 5d fa bd
       -0.05914565 0.05742908 -0.13064243 -0.12224806
000170 97 ce 35 be b7 d3 39 be 79 15 24 bd e9 d6 0e bd
       -0.17754589 -0.18147169 -0.04005954 -0.034872923
000180 e2 a6 34 be 18 89 3a be 60 e8 45 be 1d 6b c4 bd
       -0.17641786 -0.1821636 -0.19326925 -0.09590743
000190 58 0b 1d bc fe 5c c7 ba 46 ee c7 bd 69 de b3 3c
       -0.009585224 -0.0015210209 -0.09762244 0.02195664
0001a0 96 d8 28 be 38 85 28 bd f0 9a f6 3c c1 00 11 3e
       -0.16488871 -0.041142672 0.030103177 0.14160444
0001b0 be cd 44 3e 94 67 2a 3d 20 17 cd bc 8d d8 77 3d
       0.1921911 0.041602686 -0.02503544 0.060509253
0001c0 7c 8c 79 3d cd 5c 48 3e da a0 3a 3d 38 0e 26 3c
       0.060924992 0.1956665 0.045563556 0.010135226
0001d0 00 7e 6b bd bd 3b ee bd e2 cc 86 bd c5 bd 2c bd
       -0.05749321 -0.11632488 -0.06582047 -0.042173166
0001e0 42 1f 86 bd a8 06 35 be 54 81 5e be 56 a6 64 be
       -0.06548931 -0.1767832 -0.21729022 -0.22329077
0001f0 ac ca ea bd 57 12 76 bd 4e 87 9f 3d e3 b8 09 bd
       -0.11464438 -0.060076084 0.07789479 -0.033623587
000200 aa df c9 bd f1 5e b4 bd 76 5b 00 3e 24 21 49 3e
       -0.09857114 -0.08807171 0.1253489 0.19641548
000210 99 75 94 3e c9 d1 2b 3e c3 4e 06 3c 7c e2 56 3e
       0.2899597 0.16779245 0.008197489 0.20984834
000220 5f 5d a2 3e e6 ed c6 3e af 6a 82 3e f1 53 32 3e
       0.31711861 0.38853377 0.25472018 0.17414834
000230 26 26 39 3e a1 dc 76 3e 0f 2a 5f 3e 3d db 1e 3e
       0.18080959 0.24107601 0.21793388 0.1551332
000240 37 0a 4e 3e a6 6d af 3c b7 5e e6 bc 72 48 ed 3c
       0.20121084 0.02141459 -0.028121335 0.028965209
000250 21 11 e5 3d d2 f2 43 3d ee f5 8b 3d 6e 32 0c be
       0.11184908 0.047838993 0.06834017 -0.13691112
000260 e9 98 4a 3d 7a 97 bb bd d3 48 76 bd a3 3e 55 3e
       0.049462233 -0.09159751 -0.060128044 0.20824675
000270 36 74 8b be 14 63 b2 3d 58 93 a1 bb 97 5d c7 bd
       -0.272371 0.08710304 -0.004930895 -0.09734648
000280 af 66 07 3d 3a 8c 6c be 51 a7 b3 bd 98 7d 62 bd
       0.03305691 -0.23100367 -0.087721474 -0.055295557
000290 30 b8 9b 3c 43 6b 19 be c4 fd d0 ba d7 24 32 3e
       0.019008726 -0.14982323 -0.0015944769 0.17396866
0002a0 f0 98 9a 3c f1 09 e4 3b f8 2b fe bd eb c2 5e bd
       0.018871754 0.006959193 -0.1241073 -0.054385107
0002b0 66 c6 bd bc 98 4b 02 be 55 af 2e be b3 c3 40 3e
       -0.023165893 -0.12724149 -0.17059071 0.18824653
0002c0 15 2a c1 bd a8 a8 e7 3d 6b 72 25 3d 0a 6c d8 3b
       -0.09431855 0.113114655 0.04039232 0.006604676
0002d0 67 19 55 3e 99 30 da bd 97 1d b6 3d e6 6c aa 3d
       0.20810471 -0.106538005 0.088923626 0.08321552
0002e0 2a 6d 94 3d 32 70 10 3e 0e b7 30 be 2e 78 4e 3e
       0.07247384 0.14105299 -0.1725733 0.20163032
0002f0 a7 9f 4a 3d 46 31 2b bd f6 18 6b bd f8 e4 94 bc
       0.049468663 -0.041795038 -0.05739685 -0.018175587
000300 b7 41 51 3e be 9f 53 3e a7 77 23 3e 24 39 12 3c
       0.20435224 0.20666406 0.15963612 0.008924756
000310 f5 f8 ae 3d 68 49 6f bd c7 f1 9e 3d ec e2 de ba
       0.085435785 -0.058419615 0.07760959 -0.0017004884
000320 c6 3e 74 3d 54 1d 3d be 1b 7f 25 3e 26 d2 de bd
       0.059630178 -0.18468219 0.16161768 -0.108799264
000330 cf 90 fc bb 8c 35 3b 3e e2 0d 4e be e4 b8 7a 3d
       -0.007707692 0.18282145 -0.20122483 0.06121148
000340 5f f9 b5 bd 6f 8c 8c 3d c8 5e 97 3d d3 10 43 be
       -0.088854544 0.06862723 0.07391125 -0.19049387
000350 e3 03 ec bb 52 13 bb bd 2b a8 30 3d 49 c1 a4 3c
       -0.007202612 -0.091345444 0.043129127 0.020111697
000360 72 ea dc bd ce 84 75 3e bc d1 16 3e 7e cb b9 bd
       -0.107869044 0.23976442 0.14728445 -0.09072016
000370 83 cc ad bd b8 1a e3 3d 6d 85 d6 bd 79 27 26 be
       -0.08486273 0.110890806 -0.10474668 -0.16225995
000380 91 9e 24 be 98 4a 33 bd 4a 6e cd 3d 56 85 1a 3e
       -0.16076113 -0.04377231 0.100308016 0.15089926
000390 19 b4 b3 3c 28 83 07 3e 63 56 12 bd bf 82 bf 3d
       0.021936463 0.13233626 -0.035726916 0.0935111
0003a0 51 21 10 bc a8 7d 6c 3d 7b 70 d8 bd b5 82 f8 3d
       -0.008797006 0.057737023 -0.10568329 0.121343054
0003b0 0f fe 4f 3d 10 16 22 3e e8 59 28 3e d7 20 6f bc
       0.0507794 0.15828729 0.16440547 -0.014595232
0003c0 c8 39 b8 bd fe 46 29 be 0f 4b f6 bc 7a cb d3 3c
       -0.08995396 -0.16530988 -0.030065088 0.025853861
0003d0 45 40 16 3e 37 d6 d8 bd 2b 4b 34 be 2c f8 8b be
       0.14672954 -0.10587733 -0.176068 -0.27337778
0003e0 cd ca d0 bd e2 dc 08 be 7b 5c db bb 5c 23 78 bc
       -0.10194931 -0.1336551 -0.006694374 -0.015145149
0003f0 a3 fa ab bc 89 20 b0 3d d8 1d a6 3d d2 c6 12 bd
       -0.020993536 0.085999556 0.08111161 -0.03583414

bias f4 [32]
000000 9e e0 26 3e 30 de b9 be 3e 05 f5 bc c5 d9 0c 3e
       0.16296622 -0.36302328 -0.029909726 0.13754947
000010 ac 08 54 bc 93 0f d1 bd a7 34 6f 3c 2b 29 b5 bd
       -0.012941521 -0.10208049 0.014599956 -0.08845743
000020 a8 06 d1 3d b2 d7 74 be 1f 48 4f be 38 b2 93 bd
       0.10206348 -0.23910406 -0.20242356 -0.07211727
000030 c0 6f 03 3e 50 ca 28 3c bc 52 74 be 95 21 93 3e
       0.12835598 0.010302141 -0.23859686 0.2873656
000040 81 40 98 bc 0d 9e ce 3d e2 b2 71 be aa 8b 92 bd
       -0.018585445 0.100887395 -0.23603395 -0.07155545
000050 a0 03 f7 bd 79 66 09 3d 4f 10 8b be eb 5e 72 be
       -0.12061238 0.03354499 -0.2716088 -0.23669021
000060 7f e0 53 3d 1c 49 d5 be 85 e5 bf bc 1a 17 de bd
       0.051727768 -0.4165734 -0.023424873 -0.1084425
000070 38 52 d0 3e 04 96 c1 3b 67 24 22 be c4 1f 0f be
       0.40687728 0.005907776 -0.15834199 -0.13976961

weight f4 [32, 32, 5, 5]
000000 a6 5f 83 3c 0b cc 36 3d bd af 85 bc 69 82 5d bd
       0.01603682 0.044628184 -0.01631915 -0.054079447
000010 2e d1 5c bc 81 36 74 bc ca cb a8 3d 01 ad 4b 3d
       -0.013477607 -0.014905573 0.08241995 0.049725536
000020 92 40 c1 bb 62 2b 8d bc 33 05 13 3c 4f e6 a5 3c
       -0.00589759 -0.0172326 0.008973408 0.020251421
000030 18 08 2d 3d db bc 61 3d 5a 6f f6 bc 31 5b 22 bd
       0.042244047 0.055111747 -0.030082393 -0.03963775
000040 ae e5 84 bc 15 e0 76 3c d7 22 a4 3d 8a 2d 8d 3d
       -0.016222801 0.015068074 0.08014458 0.068934515
000050 f3 d0 11 bd 14 53 07 bd 22 02 8a bc 4c 81 b8 3d
       -0.03559966 -0.033038214 -0.01684672 0.090090364
000060 a6 cb c6 3d 6c b1 55 3c 39 4a 2f bc c1 03 07 3d
       0.097068116 0.013042789 -0.010698848 0.032962564
000070 db 28 95 3c f8 d4 5f 3c 78 57 14 3d 99 e3 de bb
       0.018207958 0.013661616 0.03621623 -0.006802034
000080 31 51 c8 bc d8 7f fe 3c 4d 7d 68 3d 90 ea 95 3d
       -0.024452778 0.03106682 0.05676012 0.0732013
000090 9b 26 0e 3d 14 78 9f bd 46 8e 6c bd 47 d7 91 3d
       0.034704786 -0.07786575 -0.05775287 0.07121139
0000a0 ac 28 8e 3d 07 18 7b 3c ef fb 21 bd 98 2e ba bd
       0.06941351 0.015325553 -0.039546903 -0.09090918
0000b0 f5 c8 4f bd 97 b4 c8 3d 91 e4 bd 3c 4e 68 27 3d
       -0.050728757 0.0980007 0.023180278 0.040870957
0000c0 81 be 30 3d 48 65 42 bc 5f e5 ef 3b 13 35 3c bd
       0.04315043 -0.011864968 0.0073210443 -0.045949053
0000d0 be 20 38 bd 46 0b 85 bc 2c 45 7c bd ec a0 32 bd
       -0.0449531 -0.016240727 -0.061589405 -0.0436105
0000e0 53 f6 55 bd 90 4b c6 bc 1f 91 73 bd 40 14 0b bd
       -0.052236866 -0.024205953 -0.05946457 -0.03395486
0000f0 00 47 47 3a c9 33 31 bd 92 58 a1 bd be 7d ca ba
       0.00076018274 -0.043262277 -0.078782216 -0.0015448851
000100 87 c0 8f 3c cc 3e fc 3c 0f e3 23 bd d4 6b 79 bd
       0.017547859 0.030791663 -0.04001146 -0.06089385
000110 14 13 d5 bc 18 4c 83 3c 10 39 69 bc 84 9a bf 3c
       -0.026010074 0.016027495 -0.014234796 0.023389108
000120 96 95 78 3b 05 90 ac 3b 8b 94 f7 bc 74 61 15 3c
       0.0037930957 0.005266192 -0.030222198 0.009117473
000130 0c 2f e4 3c e3 24 8a 3d 1e cd 61 3c 73 a5 b2 ba
       0.027854465 0.06745317 0.013781814 -0.001362963
000140 af 65 36 bd 13 c5 e9 bc c9 f4 a0 3b be f7 ad 3d
       -0.044530567 -0.028536355 0.004911993 0.08494519
000150 01 cf 36 3c 03 1e 6a bc 67 a2 91 bc 54 40 21 bd
       0.011157752 -0.014289382 -0.017777635 -0.03936799
000160 8b 25 80 bc 51 54 c8 3d 9b 8b 5b 3c d7 4d 1b bd
       -0.015642902 0.09781707 0.013399984 -0.03791603
000170 7d c7 ba bd b7 1d 8b bc 67 7b f7 3c 25 c3 9d 3a
       -0.091200806 -0.016981943 0.03021021 0.0012036307
000180 74 a9 77 3c dc 45 bf bc b4 73 8d bd 4e ca be 3c
       0.015116084 -0.023348741 -0.06906834 0.023289826
000190 1a e1 be 3c e3 88 b9 3c a1 d3 4e bd c9 d2 32 bd
       0.023300696 0.02264828 -0.050494794 -0.04365805
0001a0 23 79 3a bd 73 6c 6e bc d5 af 25 bc c1 67 8f bc
       -0.04552568 -0.0145522235 -0.010112722 -0.017505528
0001b0 d1 7a c4 bc 3a 20 11 3d 5b 6f 89 bc 19 45 7a 3c
       -0.023984345 0.035431124 -0.016776731 0.015275263
0001c0 dd 6a c6 bc 85 a2 50 bc 60 e4 c0 3c 62 b6 dd bb
       -0.024220878 -0.01273406 0.023546398 -0.0067661265
0001d0 9a 69 ee 39 a8 a8 e2 bc 23 08 82 3c 1b 08 82 3d
       0.00045473577 -0.027668312 0.01587302 0.06349202
0001e0 f5 63 45 bd 0b 9b fb bb 93 e8 32 3d 1a d8 c0 3c
       -0.04819103 -0.0076783947 0.04367883 0.023540545
0001f0 f7 2f a8 3c e2 3b 99 bb 69 ed a9 bc 52 57 4a bc
       0.020530684 -0.004676328 -0.020743089 -0.01234992
000200 10 3f 63 bc 72 55 9a 3c b6 9a d2 3c 48 02 12 bd
       -0.013870016 0.018839572 0.025708538 -0.035646707
000210 65 e9 10 ba 30 39 a6 bc 67 3a e1 bc a3 97 8e bc
       -0.00055279426 -0.020290941 -0.027493669 -0.01740629
000220 c1 d3 06 3b eb 73 54 bd 80 0d 65 bc 12 7e 5a bc
       0.0020572993 -0.05186836 -0.013980269 -0.013335722
000230 09 4b 07 bd 0f a2 b6 bd 1e f4 d4 bd 51 38 ee ba
       -0.033030543 -0.08917629 -0.10398124 -0.0018174743
000240 f0 5c 0c 3d 92 70 0f bd 4e 58 df ba 7b 5f 5f bc
       0.03426832 -0.035019465 -0.0017039867 -0.013633604
000250 8b 08 0f bd 9b f4 9c 3c b9 58 0e bd 0d d5 c9 bc
       -0.034920257 0.019159606 -0.03475258 -0.024637723
000260 ef bf 19 bd 72 01 81 bd 1c 09 66 bd c0 f9 36 bd
       -0.037536558 -0.06299104 -0.05616103 -0.044671774
000270 0e 66 95 bd d6 2a 5b bd a7 65 a8 bc 3c 4d 3b bd
       -0.07294856 -0.05350765 -0.020556284 -0.045727953
000280 97 b6 10 bc 73 1d 6c bd 90 72 1e bd 74 b2 a8 3c
       -0.008832595 -0.057645272 -0.038683474 0.020592906
000290 ee ca 3f bd 39 f2 79 bd 27 23 53 bd b7 b7 88 bd
       -0.04682439 -0.061022017 -0.051547196 -0.06675666
0002a0 6f 8f 9d 3c 18 63 ca bb 9f be cc bc 5c e3 6c bd
       0.019233434 -0.0061763637 -0.024993239 -0.057834014
0002b0 9a e7 1f bd 9b c2 93 bc 4d e9 02 3c bd 4e 26 bc
       -0.03903923 -0.018037131 0.007990194 -0.010150609
0002c0 55 9f c9 bb 9a 62 72 bd b7 3d b7 3b e0 02 7b 3d
       -0.006153027 -0.059176065 0.005592074 0.06128204
0002d0 a8 3a c1 3c 0d 07 01 3c cb 99 12 bd 9f 26 fd 3c
       0.02358754 0.007875216 -0.0357912 0.030902205
0002e0 bd 16 8e 3d 4e 1b 0d 3d 18 0f 69 3d 00 5b b5 3b
       0.06937931 0.034449868 0.05689916 0.0055345297
0002f0 99 ba 65 bd e3 06 4f 3c b5 63 2d 3d 78 f4 b0 3d
       -0.056086157 0.012635919 0.042331416 0.08640379
000300 e7 a4 96 3d 42 12 2e bd ac 3b a7 bc a0 33 da bc
       0.073556714 -0.04249788 -0.020414196 -0.026635945
000310 a3 85 8d bb 4e 4f 37 3d 50 51 95 bc 52 13 2b 3b
       -0.0043189093 0.044753365 -0.01822725 0.0026104045
000320 91 22 94 3c 9c 4c c6 3c 4b 2b 8c 3c fb 93 ef 3c
       0.018082889 0.024206452 0.017110487 0.029245367
000330 65 b6 58 3c 74 ec 2f bd 33 a6 34 bc dc 04 20 3d
       0.01322708 -0.04295011 -0.011025953 0.039067134
000340 4d d6 01 3c d5 bc 75 3c 2c 4e 0c bd 5d 49 82 bc
       0.007924628 0.014998634 -0.034254238 -0.015904123
000350 81 6f 2a 3d f3 0e 3a 3d 88 df fc bc 88 24 13 bd
       0.041610245 0.045424413 -0.030868307 -0.03592351
000360 fd c0 ce 3b d6 b9 3b 3d 82 a9 bb 3d 08 72 ca 3c
       0.006309627 0.045831524 0.091631904 0.024712577
000370 9c 1c b5 bc 54 9d 1c bd 7c 9d 9e 3b 4f 05 a2 3d
       -0.022108369 -0.038235977 0.004840551 0.07911169
000380 6e 49 03 3d 2d 63 d9 3c 9f af 2c 3c de 6d 8d b9
       0.03205245 0.026536549 0.010539918 -0.00026975473
000390 1d d2 78 3c c3 63 01 3b bb 98 35 3b 6c 33 b2 bb
       0.015186814 0.00197433 0.0027709443 -0.005438259
0003a0 9d 6b 3e 3c d2 72 38 3d 61 43 40 3d a0 a8 42 3d
       0.011622337 0.045031376 0.046939258 0.047524095
0003b0 92 0d a6 3c ab de 1f bd 84 2a 19 3d e2 c8 4b 3d
       0.020270143 -0.039030712 0.03739406 0.049752124
0003c0 92 1e b2 bc 27 55 d2 bb 7e b4 5d bd 78 0b a7 bb
       -0.021743093 -0.0064188424 -0.05412721 -0.0050978027
0003d0 82 6e df 3b 3b 41 f3 3c 71 e4 d6 3c 50 74 09 bd
       0.0068185935 0.02969419 0.026231976 -0.03355819
0003e0 35 b3 75 bd 77 05 02 bc 8d 6a 1f 3c 34 97 13 bc
       -0.05998536 -0.007935873 0.0097299935 -0.009008218
0003f0 35 3c e5 3c 5e 34 6d 3d 57 6b 22 3d ea 9d 2f bc
       0.02798281 0.05791127 0.03965315 -0.010718802

bias f4 [32]
000000 f2 f4 25 be 94 c0 22 be ce c0 0d be 3e e5 35 bd
       -0.1620672 -0.15893775 -0.1384308 -0.044408076
000010 ae 2d 25 3d bd 58 79 be 88 10 8a be 15 29 1c bd
       0.040326767 -0.24350257 -0.26965737 -0.038125116
000020 02 bd 53 bd 7b 21 05 bd 9b a5 96 bb 1e 8b 27 bd
       -0.051693924 -0.032502633 -0.0045973784 -0.040904157
000030 26 fd 59 bd 89 24 02 be 1b 81 28 be cb f3 f4 bd
       -0.053219937 -0.1270925 -0.164555 -0.11960562
000040 ad 7a d2 bd 36 fd 00 be 88 fd 9d bc f7 8c 2c 3b
       -0.10277305 -0.12596592 -0.019285932 0.0026329139
000050 7c 3a 1d 3d d2 78 c1 bd 1b 63 a0 bd 06 11 3c be
       0.038385853 -0.09446873 -0.07831403 -0.18365869
000060 49 5f 9d 3b 4f 37 cb bc f7 b2 72 3c f3 e9 d7 bd
       0.0048026186 -0.024806647 0.014813176 -0.10542669
000070 1c 95 f8 bd 82 7c aa 3d 2e a6 1b be 47 a3 c0 3c
       -0.12137815 0.08324529 -0.15200111 0.023515357

weight f4 [64, 32, 5, 5]
000000 7f 32 95 bc 74 69 55 3c 58 9e 4c bd d3 d2 24 bd
       -0.018212555 0.01302563 -0.049955696 -0.04024012
000010 29 5e 63 bc 30 39 41 3c af 8e 2f 3d a1 86 1a bd
       -0.01387743 0.01179342 0.042860683 -0.03772605
000020 fc 93 8c bd a3 37 f2 3c 89 47 a9 bd 4e 53 cc bc
       -0.06864163 0.029567545 -0.082655974 -0.024942067
000030 5d 9f 8c bd f5 15 d5 bc a1 4e 5c 3c 25 e7 38 bd
       -0.06866334 -0.026011446 0.013446481 -0.04514231
000040 32 eb da bc d4 05 27 bd 96 3f f7 3c 9c d5 46 3d
       -0.026723478 -0.040777043 0.030181687 0.048543558
000050 4e 72 79 bd 02 13 2f bd 35 bf 3a 3c f7 f5 41 bc
       -0.060900025 -0.042742737 0.011398126 -0.011838428
000060 b9 5e 6a 3b 64 40 23 3c 38 e6 46 bd 0f b4 46 bc
       0.0035762026 0.009964082 -0.048559397 -0.01212789
000070 86 67 b5 3c 49 44 c8 3c e2 4e a5 bc c3 cb 20 bd
       0.02214409 0.024446623 -0.020179216 -0.039256822
000080 9b 94 4a bd b9 e7 2a 3d ef ee a1 3c 06 8d 00 bd
       -0.049458127 0.041724894 0.019767253 -0.03138449
000090 77 00 f5 bc fa 14 94 bc b6 af fd 3b 0d 1f 72 3d
       -0.029907448 -0.018076409 0.0077418936 0.059111644
0000a0 de 0f 00 bd 65 c6 5e bd 91 a4 ab bc 80 83 6d 3c
       -0.031265132 -0.054388423 -0.020952495 0.014496684
0000b0 7c ca 24 3d 24 bd cd 3c a4 9b e0 3a cb 99 4d 3b
       0.040232167 0.025114603 0.0017136228 0.0031372185
0000c0 23 fd e4 3b be fa 20 bc 62 43 0f bd cd 08 95 bb
       0.006988184 -0.009825407 -0.03497637 -0.0045481683
0000d0 81 22 26 bd b1 b4 ec 3b 65 4f 9e bb 11 d3 e9 3c
       -0.04056025 0.0072236885 -0.004831242 0.028543027
0000e0 00 32 3d bd 35 00 91 3c ad d3 15 3d dd 38 86 3b
       -0.04619026 0.017700294 0.036578823 0.004096134
0000f0 59 5c 79 bd 73 a1 69 bd 46 6a 06 bb 8d bd 99 3d
       -0.060879085 -0.057038736 -0.0020510121 0.07506857
000100 87 cb 2a 3d 5a 35 17 b9 08 b1 11 bd 04 24 02 3c
       0.041698005 -0.00014420357 -0.03556922 0.007943157
000110 4f e1 60 3d 09 9a e9 3b d8 ff 56 bd dd 31 97 3c
       0.05490237 0.007128958 -0.052490085 0.018456394
000120 06 5f 89 3d 85 52 37 3d 59 a7 6d bc 02 41 14 3b
       0.067075774 0.04475643 -0.014505231 0.0022621755
000130 9d a6 f9 3c 25 aa 80 bd 30 da 96 3c 19 af b2 3c
       0.030474955 -0.062824525 0.018414587 0.021812009
000140 01 a8 71 3d 8c 5a e4 3a 89 e8 30 bd 47 88 62 bb
       0.05899811 0.0017422005 -0.043190513 -0.003456609
000150 8c d3 fa bc da c4 26 3c ae d7 a0 bd f9 f5 2c bd
       -0.030618452 0.010178769 -0.07853638 -0.042226765
000160 6a a6 59 3c 80 c2 23 3d 47 23 0e bd 51 19 48 bc
       0.013284305 0.03998041 -0.03470161 -0.012213067
000170 cc 44 99 bc c5 d6 80 bc 36 eb 5b bc 77 0b a7 3c
       -0.018709563 -0.01572741 -0.013422778 0.020391209
000180 0b be 54 bb e3 13 a8 3c 77 4d 08 3d 42 54 10 bd
       -0.0032461907 0.020517295 0.033277 -0.035236605
000190 53 27 31 bc f7 1b e0 3b 13 75 3f 3c 41 ed ec 3c
       -0.010812598 0.006839271 0.0116856275 0.028921725
0001a0 37 7c 3b 3c 20 3a 33 bb 9e 40 e7 bb 86 e4 69 bc
       0.011443189 -0.0027347878 -0.0070572635 -0.014275676
0001b0 f6 01 b2 3b ce 35 c5 bc 01 21 96 bc be 91 2b 3d
       0.0054323627 -0.024073508 -0.018326284 0.041887037
0001c0 4c ae c4 bb 40 fe 6e 3d ee 12 f1 3c a6 93 b3 3b
       -0.006002223 0.05834794 0.029427972 0.0054802475
0001d0 97 ae 9f bc 3a 46 0c bb 88 43 5b bb ef a2 cf bb
       -0.01949243 -0.0021404163 -0.0033457 -0.006336562
0001e0 f5 b7 c0 3c e2 09 77 3d 6d b3 eb bb 2d 07 f2 3c
       0.023525218 0.06031216 -0.00719302 0.029544437
0001f0 c4 6d c5 3b a5 3f 09 bd f7 97 fa bc af ef 53 3c
       0.006025048 -0.03350796 -0.03059004 0.012935563
000200 d0 46 17 3b a0 7c ee bc 91 4d 4a bc de ac 2b 3d
       0.002308298 -0.02911216 -0.012347595 0.041912906
000210 ea 23 05 3d 75 ae 5b 3d db 1e c8 3c 4e 1c 6e bc
       0.032504953 0.053633172 0.024428776 -0.014533116
000220 c0 30 0f bd 43 42 c0 3c ad d1 ca 3d a2 b6 4b 3c
       -0.0349586 0.023469096 0.09903274 0.01243368
000230 18 db 6d bb 44 53 82 3c 30 9f 55 3c 3e 3c 20 3c
       -0.003629392 0.015908845 0.013038442 0.009779988
000240 34 12 8b 3c df 89 95 3c d7 aa 41 bb 7c 96 f8 3c
       0.016976453 0.018254219 -0.0029551291 0.030345194
000250 e5 87 6d bb b5 da 01 3d ce 23 46 bc 32 00 79 3b
       -0.003624433 0.031702716 -0.012093497 0.0037994501
000260 14 53 6a bc 51 7b 15 3d 8d f2 1d 3a c4 79 1d 3d
       -0.014302034 0.036494557 0.00060252176 0.038446203
000270 64 b9 0f 3c f3 30 42 3c ce e2 27 3c cb 87 72 3d
       0.008772228 0.011852491 0.010246946 0.059211534
000280 9c cf 28 3c 8c e1 c1 3c f6 e8 c8 3c e6 db e2 3c
       0.010303404 0.02366712 0.024525147 0.027692746
000290 b9 85 55 3d 38 77 7f 3c 1c 0e b8 bc 60 a8 1f 3b
       0.05212948 0.015592389 -0.022467665 0.0024361834
0002a0 95 e3 4f bc 02 84 83 bb 83 49 96 3c 5c 83 37 3c
       -0.012688537 -0.0040135393 0.0183456 0.011200752
0002b0 e2 e4 27 3d 56 ee b8 3c 80 95 57 3d b2 a2 66 3b
       0.040989764 0.022574585 0.05263281 0.0035192189
0002c0 a9 80 a8 3c 3a ab 88 3c 46 9e 19 bd ee 6c 56 bd
       0.020569162 0.01668321 -0.037504457 -0.052349977
0002d0 d9 11 8f bd 5d 5e 11 3d c0 4d 51 3d fe 58 c9 bb
       -0.06985826 0.035490382 0.05109954 -0.006144642
0002e0 d0 03 02 bc 71 60 a3 bd ea be 57 bc 81 44 33 bd
       -0.007935479 -0.07977379 -0.013168076 -0.043766502
0002f0 cf dc e7 bc 62 97 bd 3b 09 31 97 bc ac 0d 32 bc
       -0.028303532 0.0057858685 -0.018455999 -0.010867517
000300 f1 85 a8 3d 25 22 40 bc 61 1c 38 bc fd 11 29 bd
       0.08228672 -0.011726891 -0.011237235 -0.04127692
000310 66 d8 8b 3b 2e 0b f9 3c 5d 91 c6 3c 1b 70 24 3d
       0.00426774 0.030400839 0.024239236 0.040145975
000320 0d d2 91 bb 4f 66 6f 3d dd be 1b 3c 08 b2 87 bc
       -0.004450089 0.05844718 0.009505955 -0.016564384
000330 a8 ab fe bc 53 5b cd bc 44 cd 52 3d 25 ae 33 bd
       -0.031087711 -0.02506796 0.051465288 -0.04386725
000340 45 57 ec bc ad 8d 82 3b a8 01 85 3c fc 22 2c 3d
       -0.028850207 0.003984174 0.016236141 0.04202555
000350 eb c8 87 bd e3 b8 e6 bb 94 f4 e2 bc 32 40 5a bc
       -0.06630119 -0.007041083 -0.027704515 -0.013320969
000360 45 23 c3 3d 20 cf 74 3d 68 8c ef 3b 3f cb 00 3c
       0.095282115 0.059767842 0.007310439 0.007860958
000370 0c d7 1e bc 58 99 2b 3d 5a 37 24 3b f2 a9 7b bc
       -0.009694826 0.041894287 0.0025057406 -0.015360342
000380 ff f1 be 3c 70 84 6c 3c 9e 50 19 3d 2f 97 ae 3b
       0.023308752 0.014435872 0.0374304 0.005328081
000390 f5 10 91 3c 72 e9 af 3b c9 82 d3 bb 31 7a 07 3d
       0.017708281 0.005368405 -0.0064548 0.033075515
0003a0 03 b0 c7 bc 8c b7 a3 bc 3c 71 3e 3d c1 95 4b 3d
       -0.024375921 -0.019984983 0.046494707 0.049703363
0003b0 2a 2c 8e bd 0f 7f 19 bd 88 81 3a bd de 0c 2e bd
       -0.069420174 -0.03747469 -0.045533687 -0.04249274
0003c0 56 42 1e bd ad f0 4f 3c 14 9f 02 3d 19 dd 82 3d
       -0.03863748 0.012691659 0.03188999 0.06389827
0003d0 99 73 d5 bc af 36 d2 3c cb 6e 9f bb cd 8c 0e 3c
       -0.026056098 0.02566084 -0.0048655025 0.008700562
0003e0 42 b6 80 bd 84 fe 25 3a 28 0d 84 bd eb 51 99 bc
       -0.06284763 0.0006332176 -0.06447822 -0.01871582
0003f0 e2 5a 3c bd 21 f9 3f 3d eb 3e 1e bd b2 50 59 bc
       -0.04598511 0.046868447 -0.038634222 -0.013263868

bias f4 [64]
000000 c3 e2 ac bd 13 8f ed bd 33 61 bd bd 39 c9 d5 bc
       -0.08441689 -0.11599555 -0.09247055 -0.026096927
000010 dd 76 2c bd 70 4f cd bd 02 0a 35 bd 21 0e fa bc
       -0.042105544 -0.10024917 -0.044198997 -0.030524315
000020 dd 0f 55 bd 92 c0 54 bd 89 03 eb bd d6 6c 9e bd
       -0.05201708 -0.05194146 -0.11475284 -0.077356026
000030 c3 8b 91 bd 32 0c 91 bd d7 f6 aa bd 1a 59 41 bd
       -0.071067356 -0.07082404 -0.08347862 -0.047204114
000040 2f 1b e5 bd a8 0e a4 bd ac 3f 9f bd 22 63 af bd
       -0.111868255 -0.08010608 -0.07775816 -0.0856383
000050 8e b5 b2 bd 59 a0 14 bd e7 f2 c0 bc 5b c9 ec bd
       -0.08726035 -0.036285732 -0.023553325 -0.11561843
000060 7b 83 87 bd 3a 2c 0f bc e7 83 99 bd b6 86 14 bd
       -0.06616875 -0.008738572 -0.074958615 -0.036261283
000070 a3 fa 92 bd 15 89 94 bd d0 8e c6 bc d0 dc 2f bd
       -0.071767114 -0.07252709 -0.02423802 -0.042935193
000080 ef cc 68 bb 72 45 24 bd 57 f9 a5 bd 7b fe 82 bd
       -0.003552254 -0.04010529 -0.081041984 -0.063961945
000090 75 ab 29 bd a3 86 aa bd 82 63 99 bd 15 61 e7 bd
       -0.04142328 -0.08326461 -0.07489683 -0.11297814
0000a0 4c 7e d4 bd 04 2d a3 bd 25 4f 07 3d e6 bd 85 bc
       -0.10375652 -0.079675704 0.033034462 -0.016325902
0000b0 a5 a5 3d bd 7a 04 a5 bc b0 63 12 bd cd 0b bd bd
       -0.04630055 -0.020143736 -0.0357396 -0.092307664
0000c0 ee d8 12 bd 07 03 f6 bc f3 c0 d3 bd 8a f2 d5 bd
       -0.03585141 -0.03003074 -0.103395365 -0.10446651
0000d0 91 21 83 bd d0 a3 08 be fb 6a bc 3b 91 ff 57 3c
       -0.06402887 -0.1334374 0.0057500578 0.01318349
0000e0 25 34 a3 3c 56 93 e3 bd 5c d9 58 3c 0b d6 d4 bd
       0.019922325 -0.111120865 0.013235416 -0.10392388
0000f0 26 c2 9c bd 42 2d 30 bd e9 21 0c bd a5 97 73 bc
       -0.076542184 -0.04301191 -0.034212027 -0.014867698

weight f4 [64, 1024]
000000 63 45 5a bd 90 ec e5 3a c2 55 8a 3c 1b af ef 3b
       -0.05328883 0.0017541815 0.016886596 0.0073145754
000010 b6 15 4d bb 8c 85 ec 3c 88 2e a4 3c e3 89 68 bc
       -0.0031293458 0.028872274 0.02004172 -0.014193031
000020 d7 e4 1d bc 58 ef 15 3c b8 a9 45 3d 0a 68 64 bc
       -0.009637079 0.009151302 0.04825756 -0.0139408205
000030 4b 54 37 bd 89 03 68 bd 55 6f ae bb 7a b7 28 bd
       -0.044758122 -0.056643996 -0.0053233304 -0.041190602
000040 b7 ab e8 bc a4 cb c1 3c 66 9b ec bc e7 a6 ea bb
       -0.028402193 0.023656674 -0.028882693 -0.0071610096
000050 77 0e ad bb e2 25 2b bc f9 41 f9 bc 9a ce 38 bc
       -0.0052812654 -0.010446044 -0.030426966 -0.011279726
000060 4c e2 df bc ae 33 d3 3c 8f 45 f3 bc 5f 52 3d 3d
       -0.027329586 0.025781479 -0.029696254 0.046221133
000070 27 ed 76 3c 46 d9 fa 3b 78 7b 02 3d c0 19 89 bc
       0.01507119 0.0076552955 0.03185603 -0.016735911
000080 1b b7 41 3c 03 54 8e 3b c6 9e 11 bd 69 97 8e bc
       0.011823441 0.004343511 -0.03555181 -0.017406182
000090 99 cb 23 bd 0c 84 1f 3c f4 16 e9 3c 77 31 14 3d
       -0.039989088 0.009736072 0.028453328 0.036179986
0000a0 22 d6 cb bc be 50 22 bd f0 8d 25 bd f2 f4 91 bc
       -0.02488238 -0.039627783 -0.040418565 -0.017816994
0000b0 93 bb 9f 3b 22 ba fb 3c d1 77 b4 3c 67 79 35 bc
       0.0048746555 0.030728403 0.02202979 -0.011076308
0000c0 55 01 5a bc 5a 21 0d bd a9 9a b0 bc 81 ce 8e bc
       -0.013305982 -0.034455635 -0.021558123 -0.017432453
0000d0 bd 28 01 bd 14 b4 d3 bc 80 04 d0 3c db d7 a5 3b
       -0.03153299 -0.025842704 0.02539277 0.0050611324
0000e0 ad 54 18 bd 3f 3b 04 3d a9 11 0e 3d 49 da 07 3d
       -0.037190128 0.032283064 0.03468481 0.033167157
0000f0 6e 90 96 3c e1 c3 26 3d 0e fb be 3d 3c 14 2e 3d
       0.018379416 0.04071415 0.09325229 0.042499766
000100 c8 31 00 3c af 52 9c bb b1 10 b4 3c ac bc 02 3d
       0.007824369 -0.004770599 0.021980615 0.031918213
000110 f8 3d d2 bc 0a 51 50 bc 29 23 a6 3c 34 02 8b 3d
       -0.025664315 -0.012714634 0.020280438 0.067875296
000120 3c 4b b8 3b f5 e7 75 3d 6b f4 91 bb 1a 9f 96 3c
       0.005624203 0.060035665 -0.0044541857 0.018386412
000130 82 16 50 bc 81 db a0 3c 35 a7 d8 bb 1f 9a 3d ba
       -0.012700679 0.019635918 -0.0066117295 -0.00072327437
000140 6b e0 a1 bc 96 a4 56 3d 85 b5 6a 3c cd 7f d8 bc
       -0.019760331 0.052403055 0.014325504 -0.026428128
000150 c3 b6 15 bc 5a 4e 01 bc ac e0 10 3d e6 b7 af 3b
       -0.009137812 -0.007892216 0.035370514 0.0053624986
000160 64 c8 39 3c da f2 b2 3c f8 dc a9 bc 06 26 1a 3c
       0.011339281 0.021844316 -0.020735249 0.00940848
000170 bd 73 3b 3d fc c5 31 3d 9d 9f 39 3d 5e d8 03 3d
       0.045764674 0.043401703 0.045318235 0.032188766
000180 ce 98 d0 bb 67 85 82 bc 32 22 e9 ba 1c 4d 73 3c
       -0.006365872 -0.015932752 -0.001778668 0.014849927
000190 e8 3e c8 ba ec 8e 81 bc 32 2b c7 bc be 26 c1 bc
       -0.0015277537 -0.01581522 -0.02431259 -0.023578044
0001a0 72 bb 0f 3d 0e 20 43 3d bd 73 17 ba a5 83 82 3d
       0.03509087 0.04763799 -0.0005777439 0.063727655
0001b0 9e 98 8a bc b5 8b b5 3c e5 58 06 3d 9d 91 04 3d
       -0.016918477 0.022161344 0.03279962 0.03236543
0001c0 ad 04 11 3b 19 d4 51 bd 02 fb b6 bc 17 9c 31 3d
       0.002212803 -0.051227663 -0.022336487 0.04336175
0001d0 6a 76 ce 3c dd 13 a8 bc 61 0d 4f 3d 69 03 28 3d
       0.025202949 -0.020517284 0.05054987 0.041018877
0001e0 3a 4a f3 3a 13 39 e0 bc 1c 60 15 3d f4 3a 28 3d
       0.001856155 -0.027370965 0.03646861 0.041071847
0001f0 29 dd 6d 3d 5c 2b db bb 18 43 0c 3c 51 e9 76 3c
       0.058072243 -0.0066885184 0.008560918 0.015070275
000200 4c 03 b3 bb 28 6b b6 bb 27 14 0a 3d b7 ba 46 bc
       -0.0054630395 -0.0055669732 0.033710625 -0.012129477
000210 b5 09 29 3d 53 25 a2 3c 4a 28 20 3d fe b2 10 3d
       0.041269023 0.019793188 0.039100923 0.03532695
000220 2e a9 5f 3d 14 f8 98 3d 52 86 ce 3c 3a 60 68 3d
       0.0546047 0.07469192 0.025210533 0.056732394
000230 98 c1 07 bd 56 c4 f9 b9 60 0f 21 bb 7c 3d ab bc
       -0.03314361 -0.00047639263 -0.0024575815 -0.020903341
000240 f8 ae 6a 3c ae 34 1c bc a0 ba a7 3c 5a 35 0f bc
       0.014323942 -0.009534044 0.020474732 -0.008740747
000250 11 06 49 3c 4b f0 09 3d bc 73 97 3d c3 32 15 3d
       0.012269513 0.033676427 0.073951215 0.036425363
000260 f1 ea b5 3c fa 26 9a 3d 98 23 db 3c c7 f9 8d 3b
       0.022206755 0.075269654 0.02675037 0.0043327543
000270 b7 da 11 bd 56 85 95 b8 04 29 a7 bc fd 1b 23 bd
       -0.035608973 -7.1297094e-05 -0.0204053 -0.039821614
000280 04 19 b8 3c ef 98 47 bc d8 97 57 bd 19 67 c1 3b
       0.022472866 -0.012182458 -0.052635044 0.005902183
000290 a5 de 09 3d 1e 4a cf bc e6 ae f1 bb 16 f0 88 3d
       0.033659596 -0.025303897 -0.007375586 0.06686418
0002a0 25 26 20 3d 1d d8 b8 bc 48 30 a5 3b 05 08 71 3d
       0.039098877 -0.022563988 0.005041156 0.05884554
0002b0 a3 0a 91 3b a3 a0 2b bd 46 e0 3d 39 13 c6 e2 3c
       0.004426317 -0.041901242 0.00018107993 0.02768234
0002c0 9e c5 3e 3c 6d 8b 02 3c 43 e0 c5 bc c3 76 87 bc
       0.011643795 0.007967812 -0.024154788 -0.016536122
0002d0 2b ee fe bc d8 84 18 3c c0 03 04 bd d5 59 99 bc
       -0.031119427 0.009309016 -0.03223014 -0.018719593
0002e0 6e 04 98 bb 8b a9 22 3b f6 20 28 bd 55 c1 55 bc
       -0.0046392 0.0024820294 -0.04104706 -0.013046582
0002f0 59 ed 74 3c 2f b1 b2 3c ad 8d 80 3d 66 28 30 3d
       0.014949166 0.021813003 0.062770225 0.043007277
000300 db 44 1e 3b b1 73 4e bd 4c 7b b3 3b bb 95 66 bc
       0.0024149928 -0.0504033 0.0054773446 -0.014073784
000310 1f 96 75 3c 2f 93 68 bd 6e 53 c9 bc 9b f0 9c bc
       0.014989405 -0.05678099 -0.024575915 -0.019157698
000320 13 6d 96 3c 71 b2 91 bc d7 97 c2 3c 3d 8d 6a 3c
       0.018362558 -0.017785283 0.023754044 0.0143159
000330 d7 92 91 3d 42 63 f3 bc 63 c9 3f 3c ff 20 fb bc
       0.071080856 -0.029710416 0.011705729 -0.030655382
000340 d2 4b 4a 3c b2 e1 bc bc 25 63 9a bc 92 3f 1d b9
       0.0123471785 -0.023056839 -0.018846104 -0.00014996369
000350 20 1b 5a b8 ea d5 bd 3c bd d8 ab 3c 25 94 34 3c
       -5.2000512e-05 0.023173291 0.020977372 0.0110216485
000360 aa ba 75 3b ba fa f8 3c 73 85 a0 3c ab f7 76 3d
       0.0037495294 0.030392993 0.019594884 0.06029479
000370 66 5b 55 bd d8 f0 10 bd 3e 78 43 bc 73 3a a2 bc
       -0.052089117 -0.035385936 -0.011930523 -0.019803261
000380 50 05 cc 3c 18 a7 40 3c 68 16 67 3d 2e 17 bd ba
       0.024904877 0.011758588 0.056417853 -0.0014426464
000390 16 7d 81 3c ba ae b8 bb ae b0 9d bc 1d 25 2d 3c
       0.015806716 -0.0056360634 -0.019249287 0.0105679305
0003a0 32 20 64 3c ef 19 78 bd 47 ed aa 3c a4 fa 89 bd
       0.013923692 -0.060571607 0.020865096 -0.06737259
0003b0 c8 7e 20 bb bb d8 03 bd 0a 67 60 3c dc e5 6d 3c
       -0.002448963 -0.032189112 0.013696441 0.014520135
0003c0 94 1f 59 bb fe 39 3b 3c 3a 91 31 bb 95 13 c6 bc
       -0.0033130394 0.011427401 -0.0027094618 -0.02417926
0003d0 c2 19 bb 3b 5b 81 36 bc a2 a0 ac bc 3a 63 78 3c
       0.0057098577 -0.011139239 -0.02107269 0.015160376
0003e0 59 0f 70 3b 1a 87 2b bd b7 99 09 3d 2f 9a 3f bc
       0.0036630242 -0.04187689 0.03359386 -0.011694475
0003f0 10 aa 43 3c 0d 5b 3f 3d 92 67 b6 bb 4f 95 73 3c
       0.0119424015 0.046717692 -0.0055665458 0.014867141

bias f4 [64]
000000 31 2e 95 bc 88 d0 99 3b b3 57 d6 bc 11 88 77 3c
       -0.018210502 0.0046940483 -0.026164865 0.015108124
000010 34 d8 99 bc b0 a1 33 3d ca 24 6d bc 29 f8 84 bc
       -0.018779851 0.04385537 -0.014474103 -0.016231613
000020 2f 2a 3c 3c b6 7d 06 bc 80 e0 d2 bc a0 7c 3c bd
       0.011484667 -0.008208683 -0.025741816 -0.04601729
000030 88 14 85 3c 76 44 56 3d 3d 2a 8c 3b 05 d0 ba bb
       0.016245142 0.052311383 0.004277496 -0.0057010674
000040 e9 06 db 3c 37 28 12 3c d3 97 b8 bc a9 26 12 3d
       0.026736693 0.008920721 -0.022533333 0.0356814
000050 14 e5 3d bd a2 eb 9a 3c e3 3c 97 3c 0d 27 00 bd
       -0.046361044 0.018911187 0.01846165 -0.03128724
000060 7b d2 cf 3c 13 ff 0f bd 4b 4f 03 b7 55 ed f1 bc
       0.02536892 -0.035155367 -7.82667e-06 -0.029532114
000070 7e 11 9a 3d 7a 90 ea 3c 72 ea c5 bc 7e 39 a1 3c
       0.075228676 0.028633345 -0.024159644 0.019680735
000080 ad 46 4b bd 08 9f 2b 3d e2 61 07 ba 46 9f 39 bd
       -0.04962795 0.04189971 -0.0005164427 -0.04531791
000090 d5 ae d1 bc 19 c6 c8 3c 75 c4 3e bd ca 91 4c bd
       -0.025596062 0.024508523 -0.046574075 -0.049943723
0000a0 a5 b4 51 bd 6c 06 b6 bc 73 a8 10 bd 28 d4 23 bd
       -0.051197667 -0.022219859 -0.035316896 -0.03999725
0000b0 c2 9a ab 3c 01 ab 1d bc 1b 27 0f bc fd 14 1f bd
       0.020947818 -0.00962329 -0.008737351 -0.038838375
0000c0 cf 6f 01 bd d3 fa e9 bc 44 b5 01 3d fb 89 85 3d
       -0.03160077 -0.028561985 0.03166701 0.06520458
0000d0 32 2e ca 3c f7 b5 c0 ba d0 fd 1d bb d7 f5 89 bb
       0.02468023 -0.0014702667 -0.0024107583 -0.0042102146
0000e0 75 a0 2b 3b 78 bc 2a bd 4f fa 4a bd 73 47 81 3c
       0.002618817 -0.041683644 -0.04955512 0.01578114
0000f0 3b 6c 0c 3d 23 79 32 bd 91 2b e1 3c 46 16 00 3d
       0.034282904 -0.043572556 0.027486594 0.03127124

weight f4 [10, 64]
000000 79 dc 50 3d c8 75 57 3e b7 ba f1 bd 07 16 16 bd
       0.05099151 0.21041024 -0.11803191 -0.0366421
000010 50 77 35 be af b1 6a be 24 30 d6 3d 59 fe 62 3e
       -0.17721295 -0.22919343 0.10458401 0.22167338
000020 04 b1 57 3e 59 24 44 3d 73 a3 6f be bd 93 5c 3e
       0.2106362 0.047886226 -0.23402195 0.21540733
000030 65 c3 aa bd e3 6e 32 3d 2b 0c 88 be 2a 3c 61 3e
       -0.0833805 0.04356278 -0.26571783 0.21995607
000040 19 56 44 3e 39 66 84 be 82 8e 4e 3e eb c0 51 be
       0.19173469 -0.2585924 0.2017155 -0.20483749
000050 4d a7 0d 3d bd f8 50 be f4 1c a2 bc cd 5c 37 3e
       0.03458338 -0.20407386 -0.019789197 0.17906494
000060 47 d1 00 be e4 9f f5 bc 77 04 32 be 33 39 f7 bd
       -0.12579833 -0.029983468 -0.17384516 -0.12071457
000070 5c 6c 6e be eb a3 f1 bc fe 08 52 bd dd 02 2c 3d
       -0.23283523 -0.029497107 -0.051278107 0.04199492
000080 33 71 92 3e 31 5c 74 be 12 19 b2 bd a3 90 3e 3d
       0.2860199 -0.23863293 -0.08696188 0.046524655
000090 f0 3a 45 be 7b 55 ce bd 7d 5d 94 3e 57 d2 6b be
       -0.19260764 -0.10074898 0.28977576 -0.23029457
0000a0 cf 33 7c 3e d6 82 a0 bd 0d 8f d8 3d f4 40 2c 3e
       0.24629138 -0.07837455 0.1057416 0.16821653
0000b0 67 60 d2 3b 4a 03 61 be ab 48 7b 3d 6e f5 ad bd
       0.0064201835 -0.21973911 0.0613486 -0.084940776
0000c0 58 2f 87 3e a1 56 1e bc c3 be 76 be 1e 9b f4 bd
       0.26403308 -0.009664209 -0.24096207 -0.11943649
0000d0 c9 fa e8 3d 47 bc de bc 21 1e 05 3e 6f 54 d6 3c
       0.113759585 -0.027189387 0.12999775 0.026163308
0000e0 97 f0 05 3d ef c4 93 3e 09 a7 15 3e 26 7a 8a be
       0.032700147 0.28861186 0.146145 -0.27046317
0000f0 43 fc 10 be 07 a3 63 b9 9f 66 02 be 2f 6c 2a 3d
       -0.1415873 -0.0002170914 -0.1273446 0.04160708
000100 de 46 1d 3e 43 e3 7c bd 93 6d 17 3e d8 cc 67 be
       0.15359065 -0.06174017 0.14787893 -0.22636735
000110 bc 56 c5 bc 2c ca 7c 3d 2b cc c2 bd 95 6e 80 be
       -0.02408921 0.061716244 -0.09511598 -0.25084367
000120 40 8b 93 be f1 2d 05 bc 61 b0 8c be bb 35 38 be
       -0.28817177 -0.008128629 -0.27478316 -0.17989247
000130 be 89 c0 bd d8 06 4b be 46 7b 91 3e 15 91 b1 bd
       -0.09401272 -0.1982683 0.28414363 -0.0867025
000140 5a d6 a2 bd a6 ba 87 3e 1f 87 af 3d 39 15 2c be
       -0.079510406 0.2650959 0.08570694 -0.16804971
000150 3d a6 1d be 68 66 07 be 66 33 4f bd 49 3d 65 3e
       -0.15395446 -0.13222659 -0.050586127 0.2238666
000160 e0 38 d2 3e b6 e7 85 3e d6 7c 4b 3e 39 ef 96 3d
       0.41059017 0.26153344 0.1987184 0.07369847
000170 40 22 90 be 5b 89 4f be ad e6 c5 bd 0f 85 2f 3e
       -0.2815113 -0.2026724 -0.096631385 0.17140602
000180 41 17 83 3e 15 c1 df 3d 33 7c b4 bd 8e 8e 78 be
       0.2560368 0.10925499 -0.088127516 -0.2427313
000190 b1 6c db bd 58 14 0c 3e d4 0e 73 be 6b 61 d8 bd
       -0.107140906 0.13679636 -0.23736125 -0.10565456
0001a0 39 be 03 3e 87 65 20 bd 6c be 0a 3d 31 99 7f 3d
       0.12865533 -0.039159324 0.033873007 0.062401954
0001b0 7c bd 87 be f4 d1 71 be 82 06 c0 bd 03 d7 8e 3e
       -0.26511753 -0.23615247 -0.09376241 0.27898416
0001c0 3c 68 33 bd ae f4 31 3e 12 41 4e be b1 21 63 be
       -0.043800578 0.17378494 -0.2014201 -0.22180821
0001d0 1c ad bb be 93 28 6e 3e bd 35 3a be 54 01 eb bd
       -0.3665551 0.23257665 -0.18184562 -0.11474863
0001e0 ae 3f bf 3e 08 bf 2b 3e 6b 90 38 3b 26 da a9 3e
       0.3735327 0.16772091 0.0028162252 0.33174247
0001f0 80 db d3 be 13 e9 16 be 99 ef 92 be 33 39 72 be
       -0.41378403 -0.14737348 -0.28698424 -0.23654632
000200 7d 9d a3 be e0 b3 06 bb ce 57 a1 be 69 4a 35 3e
       -0.31956092 -0.0020553991 -0.31512302 0.17704166
000210 fe fb d4 bd f1 ae bd bd 12 24 ae 3d be 2e 64 bd
       -0.10399626 -0.09261883 0.085029736 -0.05570864
000220 76 d6 fe 3b db 26 fb bd 2c d7 3f 3e f2 c5 79 be
       0.0077770306 -0.122632705 0.18734425 -0.24391916
000230 26 5f d2 3c 6c b8 b3 3c 04 f6 a4 be d9 07 70 3e
       0.025680136 0.021938525 -0.32218945 0.23440494
000240 99 43 83 bd 8d 61 26 be e9 e2 29 be c6 45 d8 3d
       -0.064093776 -0.1624815 -0.16590466 0.10560183
000250 4f b9 49 3d 39 73 ba 3d 51 5a 47 be 6f 67 88 be
       0.04924899 0.09104008 -0.19468047 -0.26641414
000260 b2 dd 0b bd b6 78 5b 3d e3 3b 21 be d2 fa 08 3e
       -0.034146972 0.053581916 -0.15745501 0.1337693
000270 06 03 22 be 1b 72 5d 3e 5a 5e 49 bd 55 88 57 3e
       -0.15821466 0.21625559 -0.049162246 0.210481
000280 1b 14 77 3e bc 43 c6 3d 81 30 36 be 1b 5d 9f bc
       0.24128763 0.09680888 -0.1779194 -0.019453576
000290 48 d7 73 3e 95 4a f0 3d 1f ff 23 3e 86 b3 9b be
       0.23812592 0.117329754 0.1601529 -0.30410403
0002a0 69 17 e1 3d 4b be e1 3d 23 34 eb 3c b9 28 1b 3d
       0.10990793 0.11022624 0.028711384 0.037880633
0002b0 7a 46 00 3e 29 e9 80 3e 87 52 bd 3e 92 a6 b6 bc
       0.12526885 0.25177887 0.36977026 -0.022296224
0002c0 76 c2 d7 3d cc 60 8c 3e 42 e7 87 3e 69 f5 3e 3e
       0.10535137 0.274176 0.26543623 0.18648304
0002d0 dc 43 f5 bd 9f 4e 4c 3e 72 2c 0c 3e 74 10 25 3e
       -0.11975834 0.19951867 0.1368883 0.16119558
0002e0 1c c1 34 3d 5c f8 0c be f8 53 74 bd 93 8a 57 be
       0.044129476 -0.13766617 -0.05965039 -0.21048956
0002f0 5f 3d 90 3e 8f 4c 5f 3d da 0f ed 3d 94 87 70 bd
       0.28171822 0.05451637 0.11575289 -0.058723047
000300 d9 43 11 be c1 3c 3d 3e c2 64 58 be 7f f9 2e be
       -0.14186038 0.18480207 -0.21132186 -0.17087363
000310 14 15 cd bd 55 f3 59 3e 7f b9 79 bc d1 35 ca bc
       -0.10013786 0.2128423 -0.01524198 -0.024683865
000320 0e a1 2e be e1 b4 3f 3e e5 5b 36 3e 08 ea cd 3c
       -0.17053625 0.18721344 0.17808492 0.025136009
000330 93 a2 ed 3d e4 c0 68 be c1 48 7c 3e c3 a3 db bd
       0.11603274 -0.22729832 0.24637128 -0.107245944
000340 cb a4 f5 3d 1d b9 41 3e 26 b0 37 bd 72 74 f3 bb
       0.119943224 0.18918271 -0.044845723 -0.007429653
000350 6a 65 ae 3c 20 3f f3 3d aa 2a 5e 3e dc 82 eb 3b
       0.021288592 0.118772745 0.21695963 0.0071872305
000360 99 61 83 bd e9 e2 1c bd bf fa 2b be d3 9b 4f be
       -0.064151 -0.038302336 -0.16794871 -0.20274286
000370 7d 1d b8 3d 67 ed 93 3d 6c 3c 7f 3e 51 7f df bd
       0.089899994 0.07223015 0.24925393 -0.109129556
000380 8b 2c a6 bd 85 4c 20 3d d5 d7 00 3e c9 e3 cb bd
       -0.08113965 0.039135475 0.12582333 -0.09955556
000390 19 6d 26 3e f3 fc b7 3c 90 72 c9 3d 7a d8 a3 3d
       0.16252555 0.022459483 0.09836304 0.08000274
0003a0 26 ab 2d 3e 16 17 6c 3e 25 50 a8 be f9 e4 2b bd
       0.16959819 0.23055682 -0.32873645 -0.041966412
0003b0 43 b5 33 3d d3 2f be 3d 5d 42 1c 3e a2 89 4b be
       0.043874037 0.092864655 0.1525969 -0.19876722
0003c0 66 f1 7d bd d6 9c c1 bd 58 2a 34 be c8 9f e4 3c
       -0.061997794 -0.09453742 -0.17594278 0.02790822
0003d0 70 9f 09 3e a9 41 4d 3e 2c a5 de 3d a6 43 85 bd
       0.13439727 0.20044579 0.10871348 -0.065070435
0003e0 c5 34 f3 bd d8 2f 15 be d2 ef 0f 3e 3b c9 67 bd
       -0.11875299 -0.14569032 0.14056328 -0.056588393
0003f0 4d 8f 23 3d 17 46 05 be 37 b4 b6 3d 5a 8c 72 bd
       0.039931584 -0.13015018 0.08921092 -0.05921588

bias f4 [10]
000000 82 5e 8c bd ea f3 e0 3d 17 76 b4 bc 04 98 a3 3d
       -0.068539634 0.10984023 -0.022028966 0.07987979
000010 64 1b c1 3d 8f c6 e6 bd a9 6d c2 3d 0c a4 c7 bc
       0.094290525 -0.11268341 0.09493572 -0.024370216
000020 d0 ea 91 ba 8d 00 ec 3c
       -0.0011132602 0.028808856
