try_train/cifar10_models/cifar10_net_8.pth (torch, 589388 bytes, 10 tensors)

weight f4 [32, 3, 5, 5]
00000000: be53 02bc dce7 123e 3f3a 093e 396f 31bd
00000010: 6ac3 1c3e 2308 83bd e4da eabc 2039 74bc
00000020: 0459 0a3e 3ff6 8f3d 378f 77bd 04e2 163d
00000030: feb3 bebd 34ad 20bc 325f e5bd 7f4c 77bc
00000040: 8259 ecbc 6e46 27be 217f 0bbe 9146 03be
00000050: 5330 053e 255e 35bd 8f5a 1dbe e3d3 07bd
00000060: 7380 66bd 0f05 a4bd 210a eabc 43ed 63bd
00000070: 7d4b 92bd 300c a6bd a291 9b3d a300 c5bd
00000080: a9c4 01be a71a b93c 1aaa b03b 80d1 38bd
00000090: 2da1 9c3c ec99 e4bd 15ea 5fbc 237b 9dbd
000000a0: 2ac8 383e 4eb0 7c3d d2a4 a6bd 4db8 10bd
000000b0: c68b 10be ebc9 af3d eab3 f73c a615 f5bd
000000c0: b1b4 06be 288f 713c 5b8c b23c 5fd4 983d
000000d0: cfde 013e 5f75 1139 2966 b4bd 64bb 5e3c
000000e0: 0f78 633c 9158 e7ba 294c 84bc 136d c1bc
000000f0: 1fa0 e63d bba6 843a 6296 a6bd 9078 d9bd
00000100: b328 81bd 2b84 233e c9bd ef3d d7d5 16bd
00000110: 5363 7dbb ebae 8e3b 9879 4c3e 38b0 d43d
00000120: 29a1 bbbd e6cf aebd f086 cebd 94ab 0dbe
00000130: 77b3 0bbd 09a1 25be 465b cdbb 8592 57bd
00000140: fbe4 d93c b080 cfbc 3f21 763c 2778 8dbd
00000150: 839e 3e3d f317 783d f2ad b0bc 0f3b f63c
00000160: 9c5f 0abd 1924 9f3d 7a99 cfbd 5a9d 6cbd
00000170: d336 90bd 7010 e2bd fd9b debc e039 54bd
00000180: cc75 fdbd a273 9fbd 1d05 04be 4b82 e3bd
00000190: 66a1 74bb 7d4c 853c 4cda b8bd 83b2 723c
000001a0: 4f91 1cbe 0c3d ffbc 1905 a5bb be59 b03d
000001b0: c93d 0d3e b9ef 183d c1ca 7abc 86a2 403c
000001c0: 0110 833b 890a 093e 0e51 be3c b108 433c
000001d0: 6e69 7fbd 3017 bebd 4047 87bd 204b 8abd
000001e0: ff8c a5bd 0cd9 16be 997a 17be d372 41be
000001f0: 5659 0bbe dcac dbbb 6491 ef3d df45 e7bb
00000200: 70b6 81bd 84cf 1dbb c4de 1a3e a7b1 133e
00000210: 4a60 563e 3aca e53d 882e 323d 2b5e 5a3e
00000220: 8570 613e a8f6 8d3e b48a 263e cfed 2b3e
00000230: 80c4 373e 930b 443e 8c77 403e 6789 fa3d
00000240: 5378 413e 936b cd3b 9286 f9bc 98a7 743d
00000250: 4d75 013e 16e6 343d 55a9 b73c 9f0d 2abd
00000260: 68b3 923c a4f2 4dbd ea04 06bd 7de2 033e
00000270: b264 0abe 48fb a73d 3915 5e3d 773e 76bd
00000280: 869e 74bc dfd7 aebd 6cc2 b1bd 4808 1bbc
00000290: c24c 533d eb2d 0cbe 85a2 373d f17c b03d
000002a0: 2f88 79bb b607 953c 9233 f1bd 583c a7bd
000002b0: d872 debc 508a 88bd ea49 fdbd fe0d ff3d
000002c0: 9cab 9fbc 5098 2d3d 1f33 233d 7da3 72bb
000002d0: f70c bc3d cd33 e8bb 3fc3 d03c 712f b83d
000002e0: 2e90 883d bcaa 403d 3254 95bd 43f0 133e
000002f0: e5fe 1b3d a08e 72bd 4970 b4bd d7f7 9abc
00000300: 4d1f 6d3d 50bd 033e 818d 003e 1af2 25bc
00000310: c6d4 123d 57bf b9bd 741d de3d 9637 933c
00000320: 7dab f63c 578c cebd cd83 f23d 7967 a5bd
00000330: 398d 2e3c 23aa e23d 2c3f bdbd 9a49 003d
00000340: f3b2 37bd c3c6 c63d 1814 1a3c 7ea6 9fbd
00000350: 52ba dbbc f5db 78bd 4b54 833d 837b 333c
00000360: 6efa b9bd 7f7b 0d3e fe8b e33d 6cb6 c9bd
00000370: 4be4 b6bd c0d9 a63d e3fd e1bd 8f5f e9bd
00000380: b943 06be 367e 1dbd a184 d23d 84ba 123e
00000390: 15a7 e43b c48c 053e db29 f9bc 8a68 993d
000003a0: 290f cabc 9dc9 a83d 35fa 54bd 65c4 b13d
000003b0: 1034 5abb e0f1 b03d 9ac7 ee3d 5336 06bd
000003c0: 90e9 89bd b969 f4bd 054c 29bc 1973 fc3a
000003d0: bf05 c63d 7ed2 a0bd 33b9 c6bd 75db 49be
000003e0: fa67 3ebd 5f3a ffbd 8e30 8a39 679a 01bc
000003f0: 6dff bebc c058 a73d 7440 a33d 9514 29bd
-0.007954536 0.1434626 0.13401125 -0.04331896 0.1530892 -0.06398036 -0.028668828 -0.014906198
0.1351052 0.070293896 -0.060439315 0.03683664 -0.093116745 -0.00980692 -0.11199798 -0.015093922
-0.028851274 -0.1633546 -0.13622715 -0.12819888 0.13006715 -0.044279236 -0.15366577 -0.033161055
-0.056274842 -0.08008777 -0.028569283 -0.055646192 -0.071433045 -0.08107793 0.07596137 -0.09619262
-0.12672676 0.022595717 0.0053913714 -0.04512167 0.019119823 -0.11162171 -0.013666649 -0.07689502
0.18045107 0.061691575 -0.08136906 -0.035332013 -0.1411582 0.08583435 0.030237157 -0.1196702
-0.13154866 0.014743604 0.021795442 0.074623816 0.12682651 0.00013872002 -0.08808548 0.013594482
0.013883605 -0.0017650296 -0.016149597 -0.023611581 0.112610094 0.001012049 -0.08134152 -0.106186986
-0.06306591 0.15968387 0.117061205 -0.036825027 -0.0038663938 0.004354348 0.1996826 0.103851736
-0.09161598 -0.08535747 -0.10084331 -0.13834983 -0.034106698 -0.16174711 -0.006266984 -0.052629966
0.026598444 -0.025329918 0.015022575 -0.06907683 0.046537887 0.060569715 -0.021567319 0.030057458
-0.033782586 0.07770557 -0.10136695 -0.05776725 -0.07041707 -0.110382915 -0.02717399 -0.051813006
-0.123759836 -0.07785727 -0.12892576 -0.11108836 -0.0037327646 0.016271824 -0.09026012 0.014813068
-0.15289806 -0.03115704 -0.005036008 0.08610867 0.137931 0.037337992 -0.015307129 0.011757499
0.0039997105 0.13382925 0.02323201 0.011903928 -0.062356405 -0.092817664 -0.06605387 -0.0675261
-0.080835335 -0.14731234 -0.14792861 -0.18891458 -0.13608298 -0.006703956 0.11697653 -0.00705789
-0.06333625 -0.0024079988 0.15124041 0.14423238 0.20935169 0.11220212 0.043501407 0.21324985
0.22015579 0.27727246 0.16263849 0.16789936 0.17946053 0.1914504 0.18795604 0.12233239
0.18893556 0.0062689274 -0.030459676 0.059730142 0.12642403 0.04416474 0.022419611 -0.041516896
0.017907813 -0.05028023 -0.03271953 0.12879367 -0.13514975 0.08202225 0.05421946 -0.060118165
-0.014930373 -0.08537268 -0.08679661 -0.009462424 0.051586874 -0.13689391 0.044832725 0.08617581
-0.0038075557 0.018192153 -0.117774144 -0.081658065 -0.027154371 -0.06667006 -0.123676136 0.12453841
-0.01949101 0.042381585 0.039843675 -0.0037023716 0.0918216 -0.0070862533 0.025483726 0.08993424
0.06668125 0.047037825 -0.072914496 0.14447121 0.038084883 -0.05921805 -0.08810479 -0.018917007
0.05789118 0.12865186 0.1255398 -0.010128522 0.035847448 -0.09069698 0.108454615 0.017970841
0.030111069 -0.100853615 0.11841545 -0.080763765 0.010653787 0.11067607 -0.09240565 0.031320192
-0.044848394 0.097058795 0.009404205 -0.07795428 -0.026822243 -0.060756642 0.06412562 0.01095474
-0.09080969 0.13816641 0.11110686 -0.09849247 -0.08930262 0.08147001 -0.11034753 -0.113951795
-0.13111772 -0.038450442 0.10279203 0.14328963 0.0069779255 0.13041979 -0.030415466 0.07490642
-0.024665432 0.0824158 -0.05199643 0.086800374 -0.0033295192 0.08639884 0.11659165 -0.03276665
-0.06734002 -0.119342275 -0.010333066 0.0019260376 0.09669065 -0.07852648 -0.09703293 -0.19712622
-0.04648588 -0.12462305 0.00026357587 -0.007910348 -0.023315156 0.081712246 0.07971278 -0.041279394

bias f4 [32]
00000000: f757 093e 8710 bbbe a5d1 16bc b61a fe3d
00000010: 151a 0d3c 4716 a5bd d89f 513d 7052 87bd
00000020: fbb2 6e3d 004c 0ebe ef25 26be d5b5 7cbd
00000030: 73e6 323e 0336 59bc 9933 14be d90d 963e
00000040: dbda 9b3d 5e90 053e 8764 2fbe 57af 37bd
00000050: 775c 763a c719 8e3d 98c9 30be a9f8 eabd
00000060: ce5b 663d da61 a4be 4097 8cbb 49f7 67bd
00000070: 5e62 b63e 96a0 73bd b5be acbd 8da3 ccbd
0.13412462 -0.36536047 -0.009205257 0.124074385 0.0086121755 -0.0806089 0.05117783 -0.066075206
0.058276158 -0.13896179 -0.16225408 -0.061696846 0.17470722 -0.013257506 -0.14472808 0.2930744
0.07610103 0.13043353 -0.17128192 -0.04484495 0.00093979336 0.069385104 -0.17264402 -0.114732094
0.056239896 -0.32105905 -0.0042904913 -0.056632314 0.35621923 -0.05947932 -0.08434812 -0.09992132

weight f4 [32, 32, 5, 5]
00000000: 352d 423a 9803 f23c 9728 633c 32e0 27bd
00000010: eadc 08bd 5b57 02bd a36f 633d 4311 833c
00000020: dd92 803c 24b4 85bc 9e87 bfbb e071 e73c
00000030: e051 e93c c80a ff3c e1d5 26bc 3293 37bd
00000040: 1467 c2bc 0d11 023d 4155 8e3d 8b14 873d
00000050: f302 41bd 6b6e f3bc d80e 7fbb ce7a 8b3d
00000060: 5891 7d3d 6977 6fbc 8d05 6bbc e436 9d3c
00000070: 64e5 7bbc d3dd 95bc 17ec 86bb c40a 413b
00000080: 0e17 9abb 2110 0fbc 6960 f6bb 756d a23c
00000090: 91f0 7f3c c025 5dbd bb16 63bd a88d b93c
000000a0: 1570 b53c 58d7 2abc c914 babc b5a8 3abd
000000b0: 32e7 a1bc 3c72 1d3d d99d 00bc ca3c c83c
000000c0: 9e8d e83c 2cc3 08bd 61a8 923c c361 febc
000000d0: 4489 a4bc dd6f a63c 6d6e d8bc 7d21 0abd
000000e0: d7b5 2cbd e450 453c e1fe cebc 0499 64bc
000000f0: 720d 913b 9d1d e6bc 05c8 47bd 2010 013d
00000100: d25a e13c f9f6 123d d803 16bd 92e5 50bd
00000110: 02ab cfba 449c 013d d248 ccbc 7a04 403c
00000120: 7ce9 1a3b 3582 273c b123 e8bc 2343 313b
00000130: 19b5 df39 6eac 2f3d 68b8 1e3c 8399 703b
00000140: b36e 55bd 511d 06bd 2fa5 20bb 9eb5 423d
00000150: f110 89bb 7c10 b1bc fa3d e3bc fa79 a43b
00000160: 2e04 03bc 5235 823d 5848 b83b d7ab 47bd
00000170: 8ec1 7bbd f3a5 973c 0457 3f3d ef88 a1bc
00000180: dde3 3d3b 97bb a4bc 6df5 3bbd 1e02 2d3c
00000190: 74fb ed3c 0f3d f93c 3e1e d2bc 8273 1fbc
000001a0: 3f9f 09bd 117c dcbb b2b7 89bc eadd d2bb
000001b0: 35d4 54bb af7e 0a3d cc2a ff3b d91d dd3b
000001c0: 5d77 83bc 43ca 0139 63ce d6bb 6dc1 9b3c
000001d0: 448d 273c 5070 04bd 8202 fc3c 0a55 0f3d
000001e0: 4f0c a2bc 3c7b a0b8 a949 be3c f358 da3c
000001f0: 5c49 d8bb 5a22 f63b 874c 52bb b5de 813b
00000200: 8f39 51bc e643 e8b9 29b3 263d ddea 01bd
00000210: a077 b13c 267e c8ba 1d1e 00bd 163b 61bc
00000220: f81d f03b e68c 13bd 3f12 27ba 739d 9bbb
00000230: 3ac1 b2bb ade7 50bd 3574 47bd 8ede f93c
00000240: c4fa c83c 5724 fbbc 0c77 02bc 281a 1dbd
00000250: 2020 15bd aaa3 803c 5831 e93a 39aa de3c
00000260: c1d7 6f3c 533b a93b 3066 c4bc 1b52 58bc
00000270: 6d6d b6bc ca1c 89bc 172d ba3c 2edf 5abc
00000280: 163f 8f3c 5e95 ffbc 8720 debb 7b02 263d
00000290: 77b7 8ebc 025c 3abd cf91 03bd e859 e6bc
000002a0: a683 c53b 7599 a63c 9a99 b5bc b045 0cbd
000002b0: ef18 f4bc f409 bfbc 0ee2 273c ec36 3ebc
000002c0: 275f 343c 2770 4ebd e8f5 a4bc 8244 273d
000002d0: 5d61 f53b 6a3d 27bb eda8 ccbc 8f99 d63b
000002e0: 389f 7b3c 79c3 bd3c bbcd a13c 24ab 23bc
000002f0: ec54 31bd 4e47 0ebd 4aea 453d 0acd 923d
00000300: 3748 2b3d be91 a9bc 1587 ebbc 4c7a dabc
00000310: 2be3 093c b67f 0c3d 409e 82bc 49bc 36bc
00000320: e8b7 3e3c a964 cf3c 0130 113d 8dbd 443c
00000330: f5b0 67bc 7da5 2abd b4d7 d1bc 494f 863c
00000340: f743 113c 81e8 3c3b 73ae 25bd b17b 5dbb
00000350: f68d 2e3c f5b9 fc3c bc10 02bd 79b8 41bd
00000360: 3438 533c a0a7 7d3d 4c1c 963d 3345 013d
00000370: eba3 e4bc a4bd 46bd 93d5 ca3c 8799 883d
00000380: 6576 003d 822e ae3c 2aed cbbb b7ff 0abc
00000390: 227b af3c 048a 173c 262d a6bb 2a67 17bc
000003a0: 6766 51bc 4234 c93c bd23 3c3d 2292 1e3d
000003b0: 50b1 093c d7ae 23bd 8e09 4cbc c686 bd3c
000003c0: 8ada 72bc 016e 7fbc ea11 63bd 53af 89bc
000003d0: 407c bfbc ae22 f33c 6ccf cb3c ffe1 3fbd
000003e0: 889d 50bd a16a 6bbc 52d9 5abb ff89 11bd
000003f0: 0329 debb dfc7 2c3d 482f 1a3d 47f3 50bc
0.0007407249 0.02954273 0.013864658 -0.040985294 -0.033413805 -0.03182159 0.055526387 0.015999442
0.01569503 -0.01632125 -0.0058450243 0.028252542 0.028481424 0.03113307 -0.010182829 -0.04481811
-0.023730792 0.031754542 0.06949855 0.06595715 -0.047121953 -0.029715737 -0.003891876 0.068105325
0.06190619 -0.014615872 -0.014344585 0.019191213 -0.015374515 -0.01829425 -0.0041174996 0.002945588
-0.0047024554 -0.008731873 -0.007518817 0.019827584 0.01562132 -0.05399108 -0.0554416 0.022650555
0.022148171 -0.0104273185 -0.02271499 -0.045571048 -0.019763563 0.03843902 -0.007850134 0.024443049
0.02838784 -0.033389255 0.017902555 -0.031052476 -0.020084985 0.020317012 -0.026419843 -0.033723343
-0.042165603 0.012043212 -0.02526802 -0.013952497 0.0044266516 -0.028090293 -0.048774738 0.03150952
0.027509127 0.035880063 -0.03662476 -0.051000185 -0.0015843811 0.031643167 -0.024937067 0.011719817
0.0023637703 0.010223915 -0.028337331 0.0027048073 0.00042668803 0.04288905 0.009687521 0.0036712594
-0.052107524 -0.032742802 -0.002451252 0.047536485 -0.004182928 -0.021614306 -0.027739514 0.0050194236
-0.007996602 0.06357826 0.0056238584 -0.048747864 -0.061463885 0.018511748 0.046713844 -0.019718615
0.0028974928 -0.020108981 -0.045888353 0.010559587 0.029050566 0.030424623 -0.025649186 -0.009732129
-0.033599135 -0.006728657 -0.016811226 -0.0064351456 -0.0032475118 0.03381222 0.007787084 0.006747943
-0.016048128 0.00012377747 -0.006555365 0.019013131 0.010226551 -0.032333672 0.030762915 0.03499321
-0.01978126 -7.652349e-05 0.023228483 0.026653742 -0.006600542 0.0075114192 -0.003208907 0.0039633163
-0.012770071 -0.00044301077 0.040698204 -0.031718124 0.021663487 -0.0015296384 -0.03127872 -0.013746997
0.0073277913 -0.036023043 -0.00063732633 -0.004748994 -0.0054551633 -0.051002193 -0.048694808 0.03050163
0.024533637 -0.030656977 -0.007962953 -0.038355023 -0.03640759 0.015703041 0.0017791195 0.027180778
0.014638842 0.0051645427 -0.023974508 -0.013203169 -0.022268975 -0.01673736 0.022726579 -0.013358874
0.017486136 -0.031199154 -0.00677878 0.04052971 -0.017421467 -0.0454979 -0.032121476 -0.028119043
0.0060276566 0.020336846 -0.02216797 -0.034246147 -0.029797046 -0.023320176 0.010246767 -0.011609774
0.011009014 -0.050399926 -0.020136788 0.04083682 0.0074884132 -0.0025518783 -0.024982894 0.0065490673
0.015357785 0.023164498 0.01975142 -0.009989534 -0.04329388 -0.03473597 0.04831914 0.07168014
0.041816916 -0.020699378 -0.028750936 -0.026669644 0.0084159775 0.034301482 -0.0159446 -0.011153289
0.011640526 0.025316553 0.03544617 0.012008083 -0.014141311 -0.04166173 -0.02561555 0.016395228
0.008866302 0.0028825107 -0.04044957 -0.003379565 0.010653963 0.03085039 -0.03175424 -0.047295067
0.012891818 0.061927438 0.07329616 0.031560134 -0.027910193 -0.0485207 0.024760043 0.06669908
0.03136291 0.021262411 -0.0062233405 -0.008483819 0.021421019 0.009249214 -0.0050713 -0.009240905
-0.012780762 0.024561051 0.04593252 0.03871358 0.008404091 -0.039961662 -0.01245345 0.023135554
-0.014822612 -0.015590192 -0.055437006 -0.016807234 -0.023374677 0.029679623 0.02487918 -0.046846386
-0.050931484 -0.014368684 -0.0033393693 -0.035531994 -0.0067797913 0.0421828 0.037642747 -0.012753314

bias f4 [32]
00000000: c405 2abd f600 b5bd da61 95bd 8301 533b
00000010: 39f5 1d3d c627 f6bd d37f 9ebd afa5 8e3d
00000020: 0fed da3c a1e4 81bd 7725 103d 1376 adbd
00000030: 5432 baba bb8d 94bd 5c04 55bd be97 2dbd
00000040: 4160 00bd bb41 29bd dba9 62bb d75a 0d3d
00000050: 944a 593d 019b d2bc 49f8 f3bc bc05 34bd
00000060: 5f42 033d 9534 a8bc 74a7 d83c ff2f 33bd
00000070: 57d3 1a3c d992 3b3d 4e5c 76bd b61a 4e3c
-0.041509405 -0.08838074 -0.07294054 0.0032196946 0.03856394 -0.12019305 -0.07739224 0.069651954
0.026724366 -0.06342436 0.03519198 -0.084697865 -0.0014205673 -0.072535954 -0.05200611 -0.04238104
-0.031341795 -0.04132245 -0.0034586105 0.03451046 0.05304964 -0.025708677 -0.029781478 -0.04395078
0.03204572 -0.020532886 0.026447035 -0.043746945 0.009449801 0.04579434 -0.060146622 0.012579611

weight f4 [64, 32, 5, 5]
00000000: e770 ce3b e38b 863c 0b9d babc a77a ccbc
00000010: 46ef 2c3d 2c7d a1bc e61b e83b 4675 34bd
00000020: 2e93 e1bb d55f da3c 9c19 00bd 6214 12bd
00000030: 7f00 c3bc a58d 1cbd 420d af3b 350a 14bc
00000040: 2ece a33c 9159 84bb 1612 653c 3b3c 0d3b
00000050: 2247 13bd ce59 79bc 5ce0 903b e96f 12bd
00000060: c898 493c ae69 f23b 6eda 2dbd 0f3f 4a3b
00000070: 8f09 8c3b 48a9 623c 3c2b 9abc 8d19 b5bc
00000080: e458 d5bc 6794 1d3d 3bf8 573c 83df 7739
00000090: 17b7 783c 74c0 fd3c 6274 a23c 884a 4f3d
000000a0: 0013 f0bc 9284 25bd 4eea cdbc 1012 cbbc
000000b0: b9aa c33b d0db d63c 2a38 623c bb45 453c
000000c0: 2ffc f93c 5f1a 65bc bbdf e2bc 5cec 90bc
000000d0: edbe 0bbd ad34 583c fa86 16bc a82e fc3c
000000e0: b5f1 2abd c2c2 b4bc 5ab5 ec3b cf78 8ebb
000000f0: dd27 16bc 771c 2cbc 856c 463c db8e ee3c
00000100: c8fc 4a3d 206e 413c ade4 76bc d7f7 32bb
00000110: abe1 2b3d cd1e d33c 009b bdbc 7b90 a93b
00000120: d4b1 0e3d 7d71 52bc a75c b2bc d527 a43c
00000130: 3d8e 6c3c 653a 65bd 31b9 103b 32d8 e13b
00000140: 8b41 093d a927 03bc 1435 3fbd 8d7a afbb
00000150: 6d04 5cbc cb91 063d c689 2bbd 7248 fabc
00000160: 1653 b93c 3da9 183d 1efc 2abd c7bf ccbc
00000170: bed0 28bd 9a06 e0bc 6c69 a3bb cb3b e53c
00000180: 9d33 e2bc 97f6 0f3c 8e6b 0f3d add5 a1bc
00000190: 5a02 eebc 0933 72bc 11bd ec3c 45cf 083d
000001a0: 16a8 653c a061 023c 7ab8 3abb 4a91 2c3c
000001b0: 7e8a 02bc c3f6 6dbc 1666 3fbc ffbd 9d3c
000001c0: 75db 243c 41de 1b3d aeb4 0e3c 6b47 c9bb
000001d0: 13ff c5bc 54d4 993c 88df 35bc 2d6b cdbc
000001e0: 2eb3 013d 4886 013d 3ca6 d6ba b9e0 913c
000001f0: 295d 723c 92b6 c4bc 36fd 48bd b737 963a
00000200: 5875 423c a965 313b fd62 b4bc 3834 b93c
00000210: 7519 073c d703 003c ff4d 883c 0675 ff3c
00000220: 30e2 83bb f135 5a3c 661c 233d c317 423c
00000230: 61b4 9dbb d993 a43c 0b3a b63c e994 ce3a
00000240: 7bd9 a13c 9f68 913c 80b9 e2bc e869 013d
00000250: 6a18 413c b1da 2c3d 2bdd 0dbc 3ba7 0a3d
00000260: 3d16 30bb ae18 ad3c 75b6 453c 659d b0bb
00000270: 9c58 e93b 8158 a3bc fa5e 0cbc a520 a43c
00000280: 047b c0bc aa35 b13c 38a5 b73c ccca 353d
00000290: 7f0e 953c 5b04 913b 47c9 f03b 1356 e7bc
000002a0: 5d35 6a3c 2b1e b93a 6825 093d e54f 583c
000002b0: 01ac 9b3c bac6 0f3d 8d27 313d 3ddb 11b9
000002c0: a689 3d3b d2e6 c83c b354 99bc 5ce2 463b
000002d0: b438 17bd 3c88 acbc 9610 0a3d 4c60 993b
000002e0: e9cf 8ebb 2b21 aabb 1f46 813b 6182 a6bc
000002f0: 29bd acba b3f0 023d 103f fb3c b289 ed3c
00000300: 82a2 1d3d 0387 97bc e907 a23c 790f 3f3b
00000310: d60e 593c daef a93b 15f0 a03b b105 ff3c
00000320: 2447 9a3c e370 453d e47a b83c 61f3 ebbb
00000330: ab7f 23bd fedd ad3b 7d8b 013d 1b0f 9fbc
00000340: 51f9 cdbc 21a0 babc b5b7 babb 1b33 d13c
00000350: 28ae 1bbd e413 a6bb a838 05bd e977 44bc
00000360: ad47 6c3d a408 0e3d 4f23 6f3b 8046 b83c
00000370: 25c4 99bb 5600 1a3d 10ee c43c 933d 85bc
00000380: 1e55 5dba 8bb5 073c 4ce9 c13c 5000 fc3b
00000390: b6bb a93c a205 fb3c b4dc 393b 40e5 103d
000003a0: 1c7a 493c 2134 06bd 97be 553c e54d 0f3d
000003b0: 0306 8dbc 52a9 02bd 43d9 31bd 5458 31bd
000003c0: 97dc d2bb bf9b 1d3d 5541 5d3d b257 443d
000003d0: dcd7 a8bc 4133 933c 1d59 203c f59e f23b
000003e0: 13c4 fcbc 2d3a 42bc 94e7 b8bc e9d8 f5bc
000003f0: d75e 21bd 5429 033d eb1e c1bc ad78 cfbc
0.00630008 0.016424125 -0.022779962 -0.024960829 0.042220376 -0.019713007 0.007083404 -0.044057153
-0.0068840003 0.026657024 -0.031274423 -0.03566397 -0.023803947 -0.03822102 0.0053421566 -0.009035637
0.019995775 -0.0040389975 0.013981363 0.0021550793 -0.03595651 -0.015219165 0.004421277 -0.035751257
0.012304492 0.007397852 -0.04244464 0.003086034 0.0042736004 0.013834305 -0.018819444 -0.02210691
-0.026043363 0.038471606 0.013181741 0.0002363902 0.015180371 0.030975558 0.019830886 0.050608188
-0.029305935 -0.040409632 -0.02513614 -0.024788886 0.0059712795 0.026227862 0.013807336 0.012040551
0.030515758 -0.013983338 -0.027694574 -0.01769083 -0.034117628 0.013196153 -0.009187454 0.030783966
-0.041734416 -0.022065524 0.007223767 -0.0043478976 -0.009164778 -0.010504833 0.012110834 0.029120853
0.049557477 0.011806041 -0.015069169 -0.0027308369 0.04196326 0.025771523 -0.023145199 0.005174694
0.03483756 -0.0128444405 -0.021772696 0.020038525 0.014438209 -0.055963892 0.002208304 0.0068922276
0.033509772 -0.008005061 -0.04668148 -0.0053551854 -0.01342879 0.032853883 -0.041879438 -0.030552123
0.022622626 0.037270773 -0.041744344 -0.02499379 -0.041214697 -0.027346898 -0.0049869325 0.027982613
-0.027612502 0.008786819 0.03501468 -0.019755209 -0.029053856 -0.014782676 0.028898748 0.033400793
0.014017126 0.007957846 -0.0028491304 0.0105326865 -0.007967589 -0.014524165 -0.011682054 0.019255636
0.010062088 0.038053755 0.00871007 -0.006142547 -0.02416948 0.018778004 -0.011100657 -0.02507552
0.03166502 0.0316222 -0.0016376446 0.017807351 0.014792719 -0.024012838 -0.049069606 0.0011460696
0.011868797 0.002706865 -0.022019858 0.022607908 0.0082458155 0.0078134155 0.016638754 0.03118373
-0.0040247664 0.013318525 0.039822005 0.011846486 -0.0048127626 0.02009003 0.022244474 0.0015760931
0.019757023 0.017750083 -0.027676344 0.03159514 0.011785606 0.042200748 -0.008658688 0.03385089
-0.0026868724 0.021129932 0.012067427 -0.0053898566 0.0071211588 -0.019939663 -0.008567566 0.020035097
-0.023496158 0.021632034 0.02241765 0.044382855 0.018195389 0.004425568 0.007348213 -0.028239286
0.014294949 0.0014123371 0.03348294 0.013202642 0.019002916 0.03510163 0.04325061 -0.0001390995
0.0028921156 0.024524126 -0.018717146 0.0030347323 -0.03691931 -0.021061055 0.033707224 0.004680669
-0.004358281 -0.005191942 0.0039451267 -0.020325841 -0.0013178933 0.03196783 0.030669719 0.028996322
0.038485058 -0.018496996 0.019779162 0.002915351 0.013248166 0.0051860632 0.0049114325 0.031130644
0.01883275 0.04820336 0.022519536 -0.007200644 -0.039916676 0.0053060045 0.031627167 -0.019416383
-0.025143297 -0.022781434 -0.005698169 0.025537064 -0.038007885 -0.005068289 -0.032524735 -0.011991479
0.057685543 0.03467621 0.0036489551 0.022494555 -0.0046925717 0.037597977 0.024039298 -0.016264712
-0.00084431644 0.008283029 0.023670815 0.007690467 0.02071939 0.030642334 0.002836031 0.03537488
0.01229718 -0.032764558 0.013045928 0.034986395 -0.01721478 -0.031899758 -0.043420088 -0.043297127
-0.0064349878 0.03847861 0.054017384 0.047935195 -0.020610742 0.017968776 0.009786871 0.007404203
-0.030855214 -0.0118546905 -0.022571363 -0.030010657 -0.039397087 0.032021835 -0.023574313 -0.025326097

bias f4 [64]
00000000: 9604 b4bc 2d7d 3abd a0dc 84bd 9ef3 de39
00000010: d64b 083c 0d16 1bbd a4f3 a3bc b646 8d3c
00000020: db12 d3bc dc7b c3bb d3a9 2dbd 0b80 b1bc
00000030: 2627 aebc 1d5e 9abc 0dbe 0ebd fdea 2e3c
00000040: 9d41 f5bc c64a ccbc d257 11bd 2d96 56bc
00000050: 81a5 ddbc b1e3 9a3b 1a37 c2bb 09f6 37bd
00000060: 21e7 bebc c0f9 52bb 42d8 eabc 220d f3ba
00000070: f431 2bbc 69a2 0ebd 8ef1 a7ba 8fac 203c
00000080: 6918 eb3c a627 70bb 2d75 d9bc 0fad 5c3b
00000090: b9a2 003b 7027 58bd aaea 15bd f4b0 85bd
000000a0: 4e06 fabc ffae 83bc c16c 4b3d eeb8 7a3b
000000b0: 47f2 fdbc eff5 f5bb 6f8d 23bc 7694 17bd
000000c0: 2e83 c1bb a63d 483c a4b7 72bd 94da 39bd
000000d0: f6d5 e9bc 2586 50bd 09a8 dc3c 50f0 233d
000000e0: f0e1 103d 20d2 4cbd c87f 183d 1650 48bd
000000f0: 7c0d 24bd c4d9 833c 955a f53b b5ff 833c
-0.021974843 -0.045529533 -0.064873934 0.0004252465 0.008318862 -0.037862826 -0.020013638 0.017245632
-0.025765827 -0.005965693 -0.042398285 -0.021667501 -0.021258902 -0.018843705 -0.034849215 0.010676143
-0.029938513 -0.024937999 -0.035484143 -0.013097328 -0.027056457 0.00472685 -0.005926979 -0.04491237
-0.02330357 -0.003219232 -0.028667573 -0.0018543343 -0.0104489215 -0.034822855 -0.0012813078 0.009806766
0.028698163 -0.0036644726 -0.026545132 0.0033672487 0.001962824 -0.052771986 -0.036600746 -0.06527892
-0.030520584 -0.016074656 0.049664263 0.00382572 -0.030999316 -0.007506124 -0.009982451 -0.037006818
-0.0059055304 0.012221729 -0.059257165 -0.045374468 -0.028544407 -0.05090918 0.026935594 0.0400241
0.03537172 -0.05000508 0.037231237 -0.0489045 -0.040051922 0.01609505 0.007487605 0.016113142

weight f4 [64, 1024]
00000000: 4fd8 3dbd b816 163c ff70 9b3c aa33 8a3c
00000010: b70f 883b 76ee ca3c 6939 6a3c 947e 9fbc
00000020: 5a84 1ebc c31f 74bb 54c9 0a3d b660 13bc
00000030: 32bd a9bc bd20 57bd f3a4 453b 07bf e1bc
00000040: c234 a7bb 6beb da3c 92bb 98bc 296e 96bb
00000050: 2b82 0dba f4a9 9ebb 812e a33b b84b 5dbc
00000060: 7fde 58bc 5994 913c d979 d3bc 97fa 213d
00000070: dfea af3c 7860 55bb a584 523a dc88 8ebc
00000080: 5681 4b38 5db0 3b3b 0b78 98bc 9a21 64bc
00000090: c162 71bc e95d ff3c 4a22 9d3c 2831 c03c
000000a0: c538 abbc 557f 02bd 6a17 b0bc 11d5 89bc
000000b0: 5ca9 af3b b579 ae3c 6208 213c c2b0 9dbc
000000c0: a4e3 cebc 82a0 96bc 0aa4 36bc c6ee f4bc
000000d0: 20df f3bc f442 b73b 0ca1 ce3c 3b64 05bc
000000e0: a3f9 8bbc b374 2c3c 76f1 9b3c 281a f63c
000000f0: 0604 143b 579e f73c f030 253d 6089 d93c
00000100: e0a3 b13c afd4 02bb b588 a13a 0971 d53c
00000110: 4da9 7ebc 9dd7 b0bc 1ff0 513c 98ba e03c
00000120: a54b 8bbb 3e11 d63c 5e4a a83b 237b 88bb
00000130: e3fd c1bc 06e3 8a3c d09f afbc 91f9 983c
00000140: 1b69 89bc a770 863c cb12 6b3c c1be 78bc
00000150: 0ebc d9bc 8327 6d3c bd28 713c 19e4 153c
00000160: 2f9c c0bb e448 023d b893 33bb 2f99 6ebc
00000170: 4107 0e3d 00d0 943c a3e6 963c f538 9c3c
00000180: 0e6a 61bc 8307 89bc 78de 43bc d863 8a3c
00000190: b3a1 bebb c73e 54bc 1d0d 87bc 57f5 b9bc
000001a0: 9b88 163d fe8e 123d 0d22 b5bc 171b 163d
000001b0: eb17 21bc 43e1 a03c cf8b fd3c a20a 49bc
000001c0: 1dc4 4d3c 596a 2fbd cb24 7eba c1c1 073d
000001d0: e178 fb3c 7f85 f8bb 3428 1f3d cac2 9b3c
000001e0: e3ad 0e3b ed11 97bc e7a5 1d3d b8ee 063d
000001f0: 8ffb 473d 6a5c 21bc 3d78 5bbc 208e 943c
00000200: 273c adbc 2af4 dc3b 6de1 703c e515 73bc
00000210: 937c cf3c 9289 1c3b 58c1 483d 35f7 123d
00000220: e97c 153d f5aa 4d3d 2b15 e13c 2dc2 303d
00000230: 53f4 6fbc 6ef6 ecbb bf34 f8bb 5e55 f1bc
00000240: f78e 8c3c 352a 26bc 3c64 293c fd2e eabb
00000250: 045e f83c d897 f53c ee63 2b3d e33e a03c
00000260: dfc1 6c3c e1d4 713d 5f4a f93c f6af 1ebb
00000270: bc8a e3bc d440 d0bc 5145 ecbc 0ad1 69bc
00000280: 6617 063d 8dda 63bb 3b20 b6bc bf74 5bbc
00000290: 5442 173d 9052 583c e49c 193c 503c 5b3d
000002a0: 06a7 0a3d a3e4 8ebc 8cb9 443c e867 b23c
000002b0: fc09 efbc 43a2 6dbc d63a 1e3c 2406 833c
000002c0: 9093 bb3c d365 203c a1b8 d4bc f864 60bc
000002d0: a106 a3bc b25b f5bb 298b 42bc 4f09 8fbc
000002e0: 35c0 cbbc c2e8 c73b a6db d3bc 41e0 0d3c
000002f0: d7fc 95ba 69cb 5f3c 74d8 0d3d 6515 243c
00000300: ed80 db3b a993 19bd d1f6 4d3c 1b23 26bc
00000310: bd9c 823c b780 fabc ba28 b4bc 1d16 173c
00000320: 1dff ffba 4a93 fbbc 3591 dd3c 2066 2c3b
00000330: 6fb6 0e3d 141f 16bc 859f c2bc 3291 00bd
00000340: add9 ff3b bacf 24bc af44 2abc 8aa7 863c
00000350: 1de6 f7bb fe4b d13c e68a 133d bc25 6d3c
00000360: 74a3 523c dbda 9b3c 4e74 183b da37 063d
00000370: bdb9 0cbd 9480 cebc c23e eebb bf12 aabb
00000380: 904b 703b 0a74 113a bbc6 023d bcc0 52bb
00000390: dfc1 c53c 5343 ae3c fa28 6139 b637 cf3c
000003a0: 331f 3939 1d1b dabc 033c 3f3c a6db 22bd
000003b0: 087e 313c 4d16 53bc 220a b53c b407 723c
000003c0: 0a51 fb3b 2fa4 993c 16bc d73c a4a9 bbbc
000003d0: c401 90bc 7abf b5bc a69d 343c 01e1 7c3b
000003e0: 536f d23c d354 c9bc 0d4d d03c df56 953b
000003f0: 9f3c 863b 661e 07bc d46f 38bc d454 55bc
-0.046348866 0.00916069 0.01897478 0.016870338 0.004152264 0.02477191 0.014295914 -0.019469537
-0.00967511 -0.0037250377 0.033883408 -0.008995226 -0.020720098 -0.052521456 0.0030158132 -0.02755691
-0.005102725 0.026723584 -0.018644128 -0.004590769 -0.00053981197 -0.0048420373 0.004979909 -0.013506822
-0.013236641 0.017770933 -0.025814937 0.03954562 0.0214743 -0.003255872 0.000803063 -0.017399244
4.8519425e-05 0.0028639056 -0.018611928 -0.013924027 -0.014733017 0.03117271 0.01918139 0.02346094
-0.020901093 -0.031859715 -0.02149554 -0.01682523 0.0053607654 0.021298269 0.009828659 -0.019249324
-0.025255032 -0.018387083 -0.011147508 -0.029899012 -0.02976948 0.005592698 0.025223278 -0.008141573
-0.01708681 0.01052587 0.019036036 0.03004177 0.0022585406 0.03022687 0.040329874 0.026554763
0.021684587 -0.0019963195 0.0012324067 0.026054876 -0.015543294 -0.021587187 0.012813597 0.027432725
-0.004250961 0.026131269 0.0051358184 -0.0041650697 -0.023680633 0.016953956 -0.02143851 0.01867369
-0.016773751 0.016411139 0.014347742 -0.015182198 -0.02657893 0.014474752 0.014719185 0.009148621
-0.0058779935 0.031807795 -0.002740128 -0.014562889 0.034674887 0.018165588 0.018420523 0.019070128
-0.013758196 -0.016727215 -0.011954896 0.016893312 -0.005817616 -0.01295442 -0.016485745 -0.022699995
0.03675137 0.0357809 -0.022110963 0.03664693 -0.009832363 0.019638663 0.030950455 -0.0122706015
0.012558964 -0.04282603 -0.00096948136 0.033143762 0.030697288 -0.0075842733 0.0388567 0.019013781
0.0021771125 -0.018441165 0.038488295 0.032942504 0.04882389 -0.009848693 -0.013395366 0.018134177
-0.021146847 0.006742974 0.014702183 -0.014836763 0.025327956 0.002388571 0.049012512 0.035880286
0.036496077 0.050211865 0.027475914 0.04315393 -0.014645654 -0.007231525 -0.007574647 -0.029459652
0.017158015 -0.010141899 0.010338839 -0.0071467147 0.030318268 0.029979631 0.041843347 0.019561237
0.014450519 0.059040908 0.03043097 -0.0024213768 -0.027776115 -0.025421537 -0.028841646 -0.01427103
0.03273716 -0.0034767718 -0.022232166 -0.013394534 0.03692849 0.013203278 0.009375785 0.053524315
0.033850692 -0.017443007 0.012007128 0.021778062 -0.029179566 -0.014504018 0.009657582 0.015994139
0.022897512 0.009789902 -0.025966944 -0.013695948 -0.019900622 -0.0074877376 -0.011873999 -0.017460493
-0.024871925 0.006100745 -0.025861572 0.008659423 -0.001144315 0.013659337 0.034630254 0.0100148665
0.0066987188 -0.037494335 0.012571053 -0.010140206 0.01594388 -0.030578954 -0.021992076 0.009221581
-0.0019530986 -0.030709881 0.02704678 0.0026305988 0.03484195 -0.009162683 -0.023757705 -0.03138847
0.0078079314 -0.0100592915 -0.010392352 0.01643731 -0.0075652734 0.025548931 0.036021136 0.014474329
0.012856353 0.019025257 0.0023262682 0.032768108 -0.03435682 -0.025207795 -0.007270665 -0.005190223
0.0036666133 0.0005548602 0.031927805 -0.0032158336 0.024140297 0.021272337 0.00021472937 0.02529512
0.00017654597 -0.026624257 0.011672023 -0.039760254 0.010833271 -0.012883735 0.022099558 0.014772344
0.0076695727 0.018755047 0.026334804 -0.02290804 -0.017578967 -0.02218603 0.011023914 0.0038586261
0.02568785 -0.02457658 0.025427366 0.004557475 0.004096582 -0.008246994 -0.011257131 -0.013020713

bias f4 [64]
00000000: 6ca0 a4bc c919 423b b0c4 a4bc dcb4 5a3c
00000010: 4eba 93bb 2a7a 233d e63d a2bc 57e8 99bc
00000020: 273d 60bc c1f0 88bc 9060 a4bc 5ba8 22bd
00000030: 24be 863b 990c 273d 4377 b93b 734f 35bb
00000040: cc1c 3b3c 3f5c c03c 1a67 a0bc fa60 fa3c
00000050: f277 04bd e4fa 8d3c 1c07 983c 30a4 07bd
00000060: 244c 173d 64a6 b5bc e8c2 51ba 744e 98bc
00000070: e3fa 663d 6a1a b43c 6e0f c3bc 8569 5a3c
00000080: a47b 0bbd b704 093d 85b3 16bc 50e5 35bd
00000090: 4e28 48bc 2c2b db3c 9385 2abd fb15 22bd
000000a0: 9107 34bd 6f60 7dbb 22ed f3bc d119 20bd
000000b0: 4713 8f3c 46e6 353b b5f8 ac3a e709 bbbc
000000c0: 0729 ebbc d01d ccbc 56f8 c13c a5b0 503d
000000d0: 09c7 413c 5798 883b 255a 21ba bf50 d6ba
000000e0: c5c1 f0bb 0d36 18bd 3d2d 31bd 7eb4 423c
000000f0: 8177 013d 6768 24bd 1a31 ca3c e4e5 c43c
-0.020096026 0.002961742 -0.02011332 0.013348784 -0.0045082932 0.039911427 -0.019804906 -0.018787546
-0.013686455 -0.016716363 -0.020065576 -0.039711338 0.004112022 0.0407835 0.005659969 -0.0027665764
0.01142044 0.023481486 -0.019580413 0.03056382 -0.03234095 0.017331548 0.018558078 -0.033115566
0.036937848 -0.022174068 -0.00080017606 -0.018592097 0.056391608 0.021985251 -0.023811068 0.013330822
-0.03405346 0.033451762 -0.009198074 -0.044408143 -0.012216641 0.026753984 -0.041631293 -0.039571743
-0.04395253 -0.0038662215 -0.02977616 -0.03908712 0.017465247 0.0027755662 0.0013196679 -0.02283187
-0.028706087 -0.02491656 0.023677986 0.05094971 0.011827239 0.004168551 -0.0006155095 -0.0016350969
-0.007347318 -0.03716092 -0.043256033 0.011883853 0.03160811 -0.04013863 0.024681617 0.024035402

weight f4 [10, 64]
00000000: 00ee 8f3c 3c87 173e e7fc aabd bdf2 d0bc
00000010: b7ec 18be 4343 09be 6d3d 813d 5db3 1b3e
00000020: 38b5 0e3e e780 073d 38ed 2dbe 7ac5 ea3d
00000030: 632e 08bd cd30 753c fec7 3ebe 82c5 113e
00000040: c4ef 0d3e 1672 43be 3d19 093e 7e87 dabd
00000050: b564 91bc db97 14be 1f83 f9ba 6619 0f3e
00000060: 9d9e 02be c9cc 72bd b2a7 eebd 3194 bfbd
00000070: c282 06be e422 cabc 5edb 3abd 7c58 8c3c
00000080: feca 4a3e 6645 0fbe 0b8e 99bd 2de7 5b3c
00000090: 6d4b d7bd 7ee3 96bd 4305 223e 3ca9 e9bd
000000a0: ba86 2d3e c61f 9cbd dca1 9a3d 5f1c f13d
000000b0: 8029 8e3c 5c88 1abe 6792 9c3d 80a5 a0bd
000000c0: 4af1 343e 3dbd ac3a f57e 27be 95e7 6bbd
000000d0: cb1d 993d aaf2 d8bc ce8f b43d 4df2 213d
000000e0: 9651 013d 436d 533e c372 c73d e500 43be
000000f0: a64d ddbd 7402 10bd 6eb5 c6bd 753e 6c3d
00000100: 4942 ed3d 4cf3 4bbd 9862 d23d a232 1dbe
00000110: 0613 e2ba 1d0b 0e3d aa47 0abd 7100 2ebe
00000120: 1ed0 11be 116b 88bc a81e 3bbe 159e b8bd
00000130: 998e 29bd 6175 05be 8011 3a3e 56fd 2ebd
00000140: 3de7 85bd 760d 4f3e ec62 573d 91eb 0abe
00000150: 4fb9 d5bd d084 edbd 9d4f b3bc 11a4 0b3e
00000160: 6312 913e d1b3 323e 6d1c 053e b46f 313d
00000170: bf06 65be 90d1 febd ac33 91bd ec83 0a3e
00000180: d83d 2f3e b811 5d3d bed5 81bd 7a79 17be
00000190: de79 abbd 3518 ba3d 9811 e9bd f469 cabd
000001a0: abaa c73d c95a b7bc 4d52 1d3d 0996 403d
000001b0: 3926 35be b2db 2ebe ea42 61bd d525 583e
000001c0: be11 8ebc 0a2e 023e 60b1 0dbe 30fc 24be
000001d0: b632 83be a70d 1d3e 67e2 b2bd 5dea 78bd
000001e0: f864 6a3e f0ff d53d 399f b33c 0f57 6c3e
000001f0: acba 83be 9c56 cbbd 990a 59be 1a2a 30be
00000200: 24aa 53be 6836 d23b 6647 45be 6199 013e
00000210: dcdb 49bd ca98 9abd 7f11 3d3d 93a0 14bd
00000220: 5f43 87b9 a091 c2bd 2ee4 de3d cf1b 31be
00000230: 60a4 dd3b b3b2 8ebc 1676 34be 81cb 133e
00000240: b827 5ebd 7cb5 dabd bcf1 b6bd 4ae5 7a3d
00000250: 3aa5 663c db6f 803d 77bd ddbd ca0a 2ebe
00000260: 21a7 543c 3746 573d 315f aabd eaae 9a3d
00000270: 33bc 03be fda9 023e a189 15bd f569 ea3d
00000280: a801 233e 49bc 903d 0e94 01be 81cc 93bc
00000290: 30c0 213e 6a3a 343d f902 d53d a226 37be
000002a0: a13e 923d 38a6 383d fdb1 263d f677 003d
000002b0: bfa9 d13d 5fc5 1f3e 7f05 7d3e 9dd3 0e3b
000002c0: f34d 483d 280f 243e 98e6 213e c820 be3d
000002d0: e2ce 86bd d654 ef3d f6a4 f03d da4c cf3d
000002e0: 2cf6 1e3d fd19 bebd 7c3c bebc 06fa 12be
000002f0: fd5a 4a3e d740 123d dd4a 6f3d 223f 16bd
00000300: b0d0 d1bd 77cb bd3d bd89 35be 791a dabd
00000310: 9f70 6ebd 37e3 c13d 7ca6 8e3b 49d9 94bc
00000320: 39cd cdbd 7895 d63d 11f6 ea3d 0f64 29bc
00000330: 972b d23d 47f4 febd 51d2 163e df3b 87bd
00000340: e94c cc3d b290 013e 57e7 85bd 7ddd 0339
00000350: 216d e93c 2659 a63d 549d 0c3e 7408 d1bb
00000360: 6b2e 7fbd 6bcc 30bd bc0a c8bd c7e0 0bbe
00000370: 1897 7b3d 8eee 643d 4cb3 203e c847 afbc
00000380: e923 97bd c737 ed3c 269e 983d a5ed 71bd
00000390: 2b80 f63d 25ba 273d 2120 903d 8953 373d
000003a0: 40f1 d73d 57c4 193e 34b9 20be 1fc1 02bd
000003b0: 3f48 0f3d e7cf 803d 8943 0c3e 6788 0ebe
000003c0: 2dea 28bd 9ac5 4dbd c98f b9bd 5aa7 2f3d
000003d0: 6931 b33d 03bb ff3d ac49 973d cde1 38bd
000003e0: b1bb c0bd 81b2 16be 9af3 9f3d 128c 12bd
000003f0: db40 993d 155d 03be 79d7 5a3d c072 19bd
0.017569542 0.14797682 -0.083490185 -0.025506372 -0.1493405 -0.13404565 0.06310544 0.1520514
0.13936317 0.033081915 -0.16985023 0.11463447 -0.033247363 0.014965248 -0.18630978 0.142355
0.13860995 -0.19086489 0.13388534 -0.10670374 -0.017748216 -0.14511053 -0.001903627 0.13974532
-0.12755819 -0.05927733 -0.11653079 -0.09354437 -0.13135818 -0.02467484 -0.04561936 0.017132036
0.19803998 -0.13991317 -0.07497796 0.013421816 -0.10512433 -0.073676094 0.1582232 -0.11409232
0.16945925 -0.07623248 0.075504035 0.117729895 0.017353773 -0.1509108 0.076451115 -0.078440666
0.1767017 0.0013178956 -0.16357024 -0.0575939 0.07476386 -0.026482899 0.08816491 0.039537717
0.031571947 0.20647149 0.09738686 -0.1904331 -0.10805826 -0.03515859 -0.09702574 0.05767675
0.115849085 -0.049792573 0.102727115 -0.15351346 -0.0017248101 0.034678567 -0.03375975 -0.16992356
-0.14239547 -0.016652616 -0.18273413 -0.09014527 -0.041395757 -0.13033058 0.18170738 -0.04272207
-0.06538246 0.20219979 0.052584574 -0.13566424 -0.104357354 -0.115975976 -0.021888549 0.13636805
0.2833434 0.17451407 0.12999125 0.04331942 -0.22365855 -0.124423146 -0.07089934 0.13526887
0.17113435 0.053971976 -0.06339596 -0.14792433 -0.08372854 0.090866484 -0.11380309 -0.0988349
0.09749349 -0.022382157 0.038408566 0.047018085 -0.17690362 -0.17075995 -0.054995455 0.21108182
-0.017342445 0.12712875 -0.13837194 -0.16111827 -0.25624627 0.15337239 -0.08734589 -0.06077038
0.22890079 0.10449207 0.02192651 0.23080085 -0.25728357 -0.09928629 -0.21195449 -0.1720356
-0.20670372 0.006415177 -0.19265518 0.12656166 -0.04928194 -0.075486735 0.046159264 -0.036285948
-0.00025799402 -0.09500432 0.108833656 -0.17295764 0.00676398 -0.017419195 -0.17623171 0.144331
-0.054237098 -0.10679147 -0.08932826 0.061253823 0.014077479 0.06271335 -0.10827153 -0.16996303
0.0129793 0.052557196 -0.083189376 0.075528935 -0.12864761 0.12760158 -0.036508206 0.11445991
0.159186 0.070671625 -0.12654135 -0.018041851 0.1579597 0.04400102 0.104009576 -0.17885831
0.07140852 0.045080394 0.040697087 0.031364404 0.102374546 0.15602635 0.24709128 0.0021793612
0.048902463 0.16021407 0.15810621 0.09283596 -0.065824285 0.11686103 0.11750214 0.1012208
0.038808987 -0.092823006 -0.0232222 -0.14353189 0.19761272 0.035706367 0.058421005 -0.036681302
-0.10244882 0.092673235 -0.17728324 -0.106495805 -0.058212873 0.09467166 0.0043533426 -0.018170016
-0.10048909 0.10477728 0.11472715 -0.010338797 0.1026222 -0.12448936 0.14728667 -0.066032164
0.09975607 0.12652853 -0.06538265 0.00012575644 0.02849442 0.081224725 0.13731891 -0.0063791815
-0.062300127 -0.0431637 -0.097676724 -0.13659965 0.06142339 0.055891566 0.15693396 -0.021396533
-0.07379896 0.02895726 0.074520394 -0.059064526 0.12036165 0.040949006 0.07037378 0.0447574
0.10544062 0.15016304 -0.1569565 -0.031922456 0.03498101 0.06289654 0.13697638 -0.13919221
-0.041238952 -0.050237276 -0.09060628 0.04288421 0.087496586 0.124868415 0.07387099 -0.045137215
-0.09410799 -0.14716531 0.07810135 -0.035778113 0.07483073 -0.12828477 0.053428147 -0.03746295

bias f4 [10]
00000000: e659 96bd 8d5e 0b3e 9f1f 1ebc 006a 943d
00000010: 24bd 6d3d ceb8 a3bd e4cd 853d 72ee 74bc
00000020: cdad 9b3b bc68 be3c
-0.073413655 0.13610287 -0.009651094 0.072467804 0.058041707 -0.07994233 0.06533411 -0.014949428
0.0047509433 0.0232433
