try_train/cifar10_models/cifar10_net_17.pth (torch, 589402 bytes, 10 tensors)

weight f4 [32, 3, 5, 5]
000000 96 42 60 bd 53 7c e6 3d 93 4d 06 3e e7 8b fd bc
       -0.054751 0.11254182 0.1311553 -0.0309505
000010 b3 66 20 3e 6d f8 bb bd 71 18 62 bd ef 4a 02 bd
       0.15664177 -0.09178243 -0.05519909 -0.031809743
000020 23 0e 20 3e d7 fe b5 3d 54 58 86 bd cd b8 cf 3c
       0.15630393 0.088864975 -0.06559816 0.025356675
000030 7a 36 1d be d5 69 00 bd 9c a6 e1 bd 27 0f 11 3d
       -0.15352812 -0.03135093 -0.11018106 0.03541484
000040 cf c6 a0 3a 7f 6c 62 be bf b7 2f be 33 9e ed bd
       0.0012266281 -0.221117 -0.17159937 -0.1160244
000050 cb f3 2b 3e ad 02 1b bd 2d 18 5f be ec 36 91 bd
       0.16792218 -0.03784435 -0.21786566 -0.07090554
000060 40 69 22 bd 82 00 e1 bd ec 8b 48 bd fc be 74 bd
       -0.039651155 -0.10986425 -0.048961565 -0.05975245
000070 9f a7 84 bd fd f2 9a bd 16 c5 a5 3d ca 20 c8 bd
       -0.06477284 -0.075658776 0.08094232 -0.09771879
000080 c3 d9 08 be d2 aa 4f 3d 64 64 13 3d ab 2a cd ba
       -0.1336432 0.050700016 0.03598441 -0.0015652975
000090 81 cf 4d 3d 3c 6c 14 be 2a 1f 63 bc 6b 12 54 bd
       0.05024672 -0.14494413 -0.013862411 -0.051775377
0000a0 b6 52 8f 3e b2 ee 0e 3e 24 a9 d0 bd c4 09 25 bd
       0.2799279 0.13958243 -0.10188511 -0.040292516
0000b0 8e 3d cb bd 23 5b 2c 3e 6c 3d a7 3d 4d 3d 14 be
       -0.0992385 0.16831641 0.08166012 -0.1447651
0000c0 18 94 0a be 41 39 77 3d 7f 46 b0 bb b8 07 60 3d
       -0.13533056 0.060357336 -0.0053794975 0.05469486
0000d0 25 2e ee 3d 4f 21 8a bb f3 e2 c4 bd 36 41 a1 3c
       0.11629895 -0.0042153965 -0.096136 0.019684415
0000e0 45 7d 43 3c 91 87 6f bc 09 ef 30 3a 99 04 eb bb
       0.011931722 -0.014619724 0.0006749486 -0.007172179
0000f0 12 f3 1b 3e ab cb f1 3c df 07 f4 bd c1 eb ea bd
       0.15229443 0.029516062 -0.11915564 -0.11470748
000100 2e bf 4d bd 55 3a 7f 3e cd 2d 3f 3e 11 96 80 bd
       -0.05023115 0.24924596 0.18669815 -0.06278623
000110 96 ef a4 bc e0 68 d9 3c b4 9c 8b 3e dd c7 19 3e
       -0.020133775 0.026539266 0.27267992 0.15017648
000120 2a 1c f3 bd 10 e9 ca bd ec 8e 9c bd 82 cf 10 be
       -0.11870606 -0.099077344 -0.07644448 -0.14141658
000130 c8 43 60 bd 99 b2 3a be af 3a 86 bc 21 be 6a bd
       -0.05475214 -0.18232192 -0.016385404 -0.057310227
000140 cc b8 e6 3b 69 c6 30 bd a8 99 85 3b 11 74 97 bd
       0.0070410725 -0.04315797 0.004077155 -0.07395185
000150 d4 99 28 3d 76 fc 1d 3d 00 ef 28 bd 0e 24 2a 3c
       0.041162327 0.038570844 -0.041243553 0.010384573
000160 37 93 3c bd b0 ea 94 3d 2c d1 f5 bd 38 bb ca bd
       -0.046038833 0.072713256 -0.12002787 -0.098989904
000170 5a a0 02 be d8 ef 1d be 34 0b 2d bd e7 a1 7a bd
       -0.12756482 -0.15423524 -0.042247012 -0.06118956
000180 28 25 2b be e2 93 0f be 12 34 2e be 25 fc e5 bd
       -0.16713393 -0.14021257 -0.17012051 -0.112297334
000190 8b c4 43 bc 0a 70 26 3c c2 38 c0 bd 65 b6 5d 3c
       -0.011948715 0.010158548 -0.09385826 0.013532256
0001a0 f2 a6 25 be f8 b5 0a bd cd c2 93 3c 93 a0 fd 3d
       -0.16176966 -0.033864945 0.018037224 0.12384143
0001b0 55 16 32 3e 24 f0 59 3d 6d ad 1d bc 56 82 34 3d
       0.17391331 0.05320753 -0.009623867 0.04406961
0001c0 92 c5 38 3d e9 f5 32 3e a0 d3 4f 3d 43 92 8d 3c
       0.045110293 0.1747662 0.05073893 0.017281657
0001d0 ce 43 6f bd 80 c6 cd bd e2 23 85 bd 2d d4 5b bd
       -0.058414273 -0.100476265 -0.06500985 -0.053669143
0001e0 45 a4 a2 bd 5b dd 29 be f0 78 3a be ad 20 52 be
       -0.07941488 -0.16588347 -0.18210196 -0.20520277
0001f0 c3 69 fd bd a4 40 11 bd 4e 60 d0 3d 3d d8 9a bc
       -0.12373688 -0.035462037 0.10174619 -0.018901939
000200 a7 5d aa bd 6c 16 39 bd da b9 12 3e f1 40 33 3e
       -0.08318644 -0.0451874 0.14328709 0.17505242
000210 7d aa 83 3e 9d 67 17 3e 89 ea 23 3d 94 41 63 3e
       0.2571601 0.14785619 0.040018592 0.22192985
000220 13 f2 8a 3e 7b 45 ad 3e 1c 68 5a 3e bb 36 3d 3e
       0.27137813 0.33842072 0.21328777 0.1847791
000230 7a e8 3d 3e 52 84 59 3e 8b 7d 4d 3e da 2f 09 3e
       0.18545714 0.21241882 0.20067422 0.1339716
000240 f7 2c 46 3e 36 e4 d2 3b 71 4c 19 bd bb de 23 3d
       0.1935309 0.0064358963 -0.037426416 0.040007334
000250 59 e1 ec 3d ce d5 37 3d 1a f0 24 3d e3 cd d0 bd
       0.11566419 0.044881634 0.04026804 -0.1019552
000260 95 b6 c2 3c a2 e0 98 bd e7 b4 80 bd 91 61 2e 3e
       0.023768703 -0.0746472 -0.062845044 0.17029406
000270 97 28 5a be 5c 64 8d 3d e6 89 c0 3c 70 26 be bd
       -0.21304546 0.06903908 0.023503255 -0.09284675
000280 ba f5 05 3c bb 6a 1e be c7 25 b9 bd db 7e d3 bc
       0.008176262 -0.15470402 -0.090404086 -0.025817325
000290 5a 58 f0 3c 97 a3 1d be a9 12 9c 3c 98 44 05 3e
       0.029339004 -0.15394436 0.019051867 0.13014448
0002a0 8c 19 80 3c df ae b6 3a e8 ed f6 bd 8b 1f 92 bd
       0.015637182 0.0013937614 -0.12057096 -0.071349226
0002b0 a3 00 e3 bc ba 02 ba bd 96 ac 1d be 95 7c 21 3e
       -0.027710265 -0.09082551 -0.15397868 0.1577018
0002c0 d2 79 83 bd 05 5e 93 3d e7 d3 2e 3d e1 5b f3 bb
       -0.0641972 0.07195667 0.042682555 -0.0074267243
0002d0 af 3c 23 3e 67 5f 73 bd b2 3f 40 3d 40 74 c2 3d
       0.15941118 -0.059417155 0.046935745 0.09494829
0002e0 84 8f 8a 3d 48 70 cf 3d d5 2b e5 bd aa 68 34 3e
       0.06765655 0.10128838 -0.11190001 0.17618051
0002f0 e0 c0 77 3d 6a f3 34 bd 77 52 95 bd 2b 18 3d bc
       0.060486674 -0.04417745 -0.072911195 -0.011541407
000300 2e 84 0e 3e d6 1b 40 3e 9a 34 14 3e 61 af 25 3c
       0.1391761 0.18760619 0.14473191 0.010112614
000310 1a 0a 8e 3d 7b 44 88 bd 50 10 e5 3d 82 91 66 3c
       0.069355205 -0.066536866 0.11184752 0.014072778
000320 b3 dc 38 3d 12 7a 1b be 66 a0 08 3e 25 e7 bf bd
       0.04513235 -0.15183285 0.13342437 -0.09370259
000330 4f 8f f1 bb 08 fc 1f 3e 86 61 1b be 4c c0 0e 3d
       -0.00737182 0.15623486 -0.15173921 0.034851357
000340 98 72 78 bd 40 95 a4 3d 07 16 40 3d be 39 02 be
       -0.06065616 0.0803628 0.046896007 -0.1271734
000350 e2 dd 93 bc 8f 36 86 bd c3 aa 61 3d f1 10 56 3c
       -0.018050138 -0.06553375 0.05509449 0.013065563
000360 b7 66 c4 bd c1 b9 44 3e 4b 71 10 3e 5f 0a ce bd
       -0.09589904 0.19211484 0.14105718 -0.10060572
000370 ec 1d a6 bd 0d 16 ce 3d 5a 61 d5 bd c7 28 02 be
       -0.08111176 0.100627996 -0.10418959 -0.12710868
000380 21 70 18 be 6e ff 41 bd b9 d5 d1 3d 01 da 1a 3e
       -0.14886524 -0.047362737 0.102458425 0.15122224
000390 78 30 78 3c 16 80 04 3e e5 4e fe bc e7 1f c0 3d
       0.015148275 0.12939486 -0.03104348 0.09381085
0003a0 da e7 40 bb c6 dc a0 3d 38 c9 9b bd 45 1e d6 3d
       -0.002943507 0.07854609 -0.07606739 0.10454992
0003b0 38 ba 9b 3c 1c e6 f8 3d 16 07 10 3e 10 c9 c2 bc
       0.019009694 0.12153265 0.14065203 -0.023777515
0003c0 2e 75 a6 bd 8d 51 18 be 56 d3 e1 bc a1 bb ba 3b
       -0.08127819 -0.14874859 -0.027566593 0.0056986366
0003d0 bd 32 f3 3d 12 4c ce bd 59 db 14 be 08 f6 79 be
       0.11874912 -0.10073103 -0.145368 -0.2441026
0003e0 9d b2 af bd 6d 11 08 be 3f 66 4e bc dd 71 6c bc
       -0.0857899 -0.13287897 -0.01259762 -0.014431444
0003f0 9b 35 b5 bc af 95 ac 3d 06 73 a2 3d 7a b5 14 bd
       -0.022120288 0.084269874 0.07932095 -0.036305882

bias f4 [32]
000000 fd 0a 26 3e 16 b1 c1 be c2 82 b3 bb 8f a5 0b 3e
       0.16215129 -0.37830418 -0.005478234 0.13637374
000010 bb 0d bc 3b 39 8d b5 bd 88 50 34 3d 2e 1d a2 bd
       0.0057389415 -0.08864827 0.044022113 -0.07915722
000020 ab f0 b7 3d aa b6 3a be 1a d0 48 be d2 22 a7 bd
       0.08981451 -0.18233743 -0.19610634 -0.08160938
000030 f8 93 34 3e 9e 68 5a 3b 9e be 4b be 06 44 99 3e
       0.1763457 0.0033326517 -0.19896933 0.2993471
000040 12 bd 2e 3d 48 b5 ee 3d ac 0b 52 be 49 65 58 bd
       0.04266078 0.116556704 -0.20512265 -0.052830968
000050 95 f5 88 bd 9a e3 67 3d b4 23 67 be 30 5f 39 be
       -0.06687466 0.056613542 -0.22572213 -0.18102717
000060 06 32 73 3d 9f da c1 be 8c 02 3c bc bb a6 91 bd
       0.059373878 -0.37862107 -0.011475217 -0.071118794
000070 b6 1b c8 3e 9f f1 ac bc 46 a6 e7 bd d8 17 00 be
       0.39083642 -0.021111308 -0.11311011 -0.12509096

weight f4 [32, 32, 5, 5]
000000 f1 a3 f6 3b b1 1b 33 3d 68 83 01 b9 2b cd 57 bd
       0.0075268676 0.04372758 -0.00012351351 -0.052685898
000010 10 ea a4 bc 33 54 07 bd 81 7c 8f 3d b4 22 0f 3d
       -0.020131141 -0.033039283 0.07006169 0.034945205
000020 48 e4 68 3b 4a 29 f5 bc ea 05 36 bc 69 66 cc 3c
       0.0035536457 -0.029926915 -0.011109808 0.024951177
000030 71 be 33 3d fb 64 2b 3d 83 39 ef bc d4 a9 19 bd
       0.04388279 0.04184435 -0.029202228 -0.037515476
000040 8b 36 c7 bc 12 1b d6 3c fd 00 ae 3d 6d 99 87 3d
       -0.024318 0.026135955 0.08496282 0.066210605
000050 d1 36 fa bc 88 ee c8 bc bd 70 9d bc a8 79 a5 3d
       -0.030543717 -0.024527803 -0.019218797 0.08079845
000060 f2 3f 9e 3d d5 94 93 bb db 9e 83 bc 7c b0 ee 3c
       0.0772704 -0.004503826 -0.01606696 0.029136889
000070 1f 2d 4a 3b 07 8b c8 bb 51 47 98 3c ca 68 e3 bb
       0.0030849648 -0.006120089 0.018588694 -0.006939982
000080 28 9d 7e bc 8d 85 51 3c 6a 8a c4 3c dc 4c 43 3d
       -0.015540399 0.012788189 0.023991782 0.04768072
000090 b1 fb e5 3c 4a f7 82 bd 33 60 76 bd b8 27 37 3d
       0.028074117 -0.06394823 -0.060150336 0.044715613
0000a0 f7 10 40 3d 5e 08 b7 3b 76 75 e7 bc 87 7d 90 bd
       0.04689118 0.0055857142 -0.028254252 -0.070551924
0000b0 f5 96 04 bd 75 a8 7a 3d e5 a8 3f 3c 06 5d 29 3d
       -0.032370526 0.06119581 0.011697982 0.04134848
0000c0 1c 62 22 3d 95 59 b3 bc 69 dd 16 3c ba 48 28 bd
       0.039644346 -0.021893302 0.009208062 -0.041084982
0000d0 4f a7 02 bd 7a c8 31 3a 87 8d 48 bd 3f ac 2a bd
       -0.03189784 0.00067818875 -0.048963096 -0.041668173
0000e0 b8 ae 52 bd 72 89 6b bb ab 88 19 bd c9 78 d3 bc
       -0.051436156 -0.0035940078 -0.037483852 -0.02581443
0000f0 2b c7 aa 3b 64 88 f9 bc f0 e8 84 bd 9c 26 92 3c
       0.005211731 -0.030460544 -0.06489742 0.017840676
000100 18 aa cd 3c 99 7f 12 3d 2b 9d 02 bd 60 90 59 bd
       0.025105521 0.035766218 -0.03188817 -0.053116202
000110 92 34 5d bc 0e b0 ca 3c 8d bd af bc 09 53 96 3c
       -0.013501303 0.024742153 -0.02145269 0.018350141
000120 16 35 bf 3b 6c b2 f5 3b d3 60 fa bc e2 3a b9 ba
       0.0058351858 0.007498076 -0.030563748 -0.0014131928
000130 62 45 6e 3c 67 18 73 3d 38 a9 3e 3c d5 ce 7b bb
       0.014542909 0.059349444 0.011637025 -0.0038422842
000140 42 67 49 bd 0e 51 00 bd c2 8a a9 3b 6b c1 96 3d
       -0.04917074 -0.0313273 0.005174012 0.0736111
000150 4a e0 dd 3b 0e 80 46 bc e4 97 a7 bc 42 86 3b bc
       0.006771122 -0.012115492 -0.02045817 -0.011445584
000160 3b 00 02 bb f7 c7 ad 3d a5 87 aa 3c 6a 45 e7 bc
       -0.0019836563 0.08485406 0.020816633 -0.028231341
000170 4c f8 8a bd 2e 7b b0 3b a7 1a 65 3d 4e 40 9a bc
       -0.0678564 0.005385778 0.05593362 -0.018829491
000180 7f 16 87 3c 34 02 86 bc 76 8d 64 bd 1d f9 86 3c
       0.01649022 -0.016358472 -0.05579897 0.016476208
000190 10 ea e9 3c 11 93 ed 3c 4a 4f 08 bd 26 5f c6 bc
       0.028553993 0.02900079 -0.03327874 -0.024215292
0001a0 8a 17 1b bd 53 2a 40 bc 36 73 65 bc 01 35 24 bc
       -0.037864245 -0.011728841 -0.014004519 -0.010022403
0001b0 33 1b 2a bc 93 af 16 3d 99 18 50 bb 43 67 4d 3c
       -0.010382461 0.036788534 -0.0031752943 0.012536827
0001c0 2b 62 96 bc fd 7e b8 bb cb 7c 1a 3c 2b 87 1b 3c
       -0.018357357 -0.0056303726 0.009429167 0.009492676
0001d0 dd ca 3d 3c 7e 8e df bc a3 41 bd 3c 7b 48 5d 3d
       0.011584011 -0.027289625 0.023102587 0.0540242
0001e0 43 aa f8 bc 1f d0 e9 b8 fc f6 15 3d 75 be c8 3c
       -0.030354625 -0.00011149071 0.036612496 0.02450488
0001f0 de e0 39 3c 0a 94 d3 3a e1 fb a7 bc 44 e9 62 bc
       0.011345116 0.0016142142 -0.020505847 -0.01384956
000200 92 6b 66 bc 01 42 59 3c 70 77 f9 3c 77 f8 18 bd
       -0.014063733 0.013260365 0.03045246 -0.03734633
000210 b2 6b c7 3b 78 46 92 bc a0 4b f8 bc c7 34 7f bc
       0.0060858363 -0.017855868 -0.030309498 -0.015576548
000220 6a e6 ea b6 56 ca 38 bd 90 35 53 bc 93 ce 1d bc
       -7.000567e-06 -0.045114838 -0.012891188 -0.009631771
000230 f6 c3 9e bc 39 99 96 bd c1 5f 91 bd c2 04 39 3c
       -0.01938055 -0.07353444 -0.07098342 0.011292638
000240 f5 99 97 3c 1a 39 2a bd 9c 1c 4a bc e0 ba 11 bd
       0.01850603 -0.041558363 -0.012335923 -0.03557861
000250 81 53 1d bd e5 17 b1 3c be b9 ce bc 9a 0b 39 3b
       -0.038409714 0.02161784 -0.025235053 0.0028235675
000260 f1 1e 4a bc b9 f0 bb bc a8 b9 5b bd b6 f9 0e bd
       -0.012336479 -0.022941934 -0.053643852 -0.03490611
000270 be f3 3f bd f6 cf 32 bd e3 30 fa 3b d6 a0 28 bd
       -0.04686331 -0.04365536 0.0076352223 -0.04116901
000280 15 79 a7 ba 60 8a 41 bd 2f 43 04 bd b1 c2 fb 3c
       -0.0012777174 -0.047251105 -0.032290634 0.030732485
000290 1c 95 26 bd c0 f4 70 bd 2b d1 36 bd 95 42 57 bd
       -0.040669546 -0.05882716 -0.044633072 -0.052553732
0002a0 97 6e c4 3b 0c 5c 31 3b 36 1c da bc 04 bf 3a bd
       0.0059946286 0.002706292 -0.02662478 -0.045592323
0002b0 42 a0 1c bd 13 47 cb bc b8 db c1 ba c4 57 b0 bb
       -0.03823877 -0.024814164 -0.0014790213 -0.005381556
0002c0 b0 db 43 bb 86 ab 61 bd 31 25 44 3b 2b 00 62 3d
       -0.0029885583 -0.055095218 0.0029929394 0.05517594
0002d0 7f 98 aa 3c 0b 88 91 3b 7d 49 15 bd f7 93 ae 3c
       0.020824669 0.0044412664 -0.036447037 0.02131079
0002e0 d1 f2 71 3d d8 47 11 3d 5a e4 3b 3d 8e 91 17 bb
       0.05906946 0.035468906 0.04587207 -0.002312753
0002f0 5f 64 56 bd bd 69 28 bb 12 bb 26 3d 72 53 ac 3d
       -0.052341815 -0.002569779 0.040705748 0.084143534
000300 59 f4 80 3d 21 5b 04 bd e2 1c c0 bc 40 96 1a bd
       0.062966056 -0.03231347 -0.023451272 -0.037740946
000310 93 a2 a9 3a 46 4f 62 3d b3 04 12 bc ee b2 af 39
       0.0012942128 0.055251382 -0.008912253 0.00033511914
000320 45 2c 72 3c e3 2e 01 3d 62 ca cf 3c 42 61 7b 3c
       0.0147810625 0.031538855 0.025365058 0.015343012
000330 ec 37 3f 3a 76 0c 41 bd 19 fd 75 bc 74 05 df 3c
       0.0007294405 -0.047131024 -0.015013956 0.02722428
000340 b9 b9 8d 3b d2 33 d5 3b 9c 01 40 bd f4 49 06 bc
       0.0043251184 0.0065064216 -0.046876535 -0.008196343
000350 3a a1 d6 3c d4 e1 0c 3d 47 58 28 bd 9c cd 43 bd
       0.026199926 0.034395054 -0.041099813 -0.047803506
000360 56 81 d0 3b 6f ba 70 3d 5f 87 a9 3d 89 1e ba 3c
       0.0063630743 0.058771547 0.08277773 0.022719638
000370 95 02 ac bc 6a 1b 32 bd 8d 2d 6c 3c f0 6a a0 3d
       -0.020997325 -0.043483175 0.014415157 0.07832897
000380 d9 92 ff 3c 85 f4 8d 3c cd 8a f3 3a db 86 ab 3a
       0.031197952 0.01732851 0.0018580795 0.0013086455
000390 6e 51 a2 3c f0 b0 5d 3b a7 82 77 bb 1e 1f 1c bc
       0.01981422 0.0033827387 -0.0037767084 -0.009528903
0003a0 4e 89 3d ba 2c 7e 2a 3d 73 34 44 3d 1f 53 38 3d
       -0.0007230238 0.041624233 0.047901582 0.045001145
0003b0 d4 b4 33 3c 8c b8 2f bd 2c 8c 3e 3c a2 3c 29 3d
       0.010968406 -0.042900607 0.011630099 0.04131759
0003c0 de 80 58 bc 1d 21 1f bc a0 5e 65 bd 70 13 27 bc
       -0.013214318 -0.009712485 -0.055998445 -0.010197505
0003d0 73 90 90 bb 70 70 ea 3c 8a 4d e3 3c 08 e3 15 bd
       -0.004411751 0.028618068 0.027746934 -0.036593467
0003e0 2c 8c 65 bd bb 40 24 bc 1c d7 81 bb f6 0e d0 bc
       -0.05604188 -0.010025199 -0.0039624106 -0.025397759
0003f0 e9 5f 4d 3c 3f 01 4e 3d 1d b5 0f 3d 87 61 19 bc
       0.012535074 0.050294157 0.035084832 -0.009361631

bias f4 [32]
000000 7c 03 cd bd 8c f0 fc bd a9 d1 c3 bd a6 75 f1 bc
       -0.1001043 -0.12350568 -0.09561474 -0.029475044
000010 b3 dd 3c 3d 4c ef 48 be 71 06 2d be a3 25 b1 3c
       0.046109866 -0.19622535 -0.16896988 0.021624392
000020 ab f0 33 bc 18 38 53 bd c2 c8 d8 3c 6d d4 75 bd
       -0.010982673 -0.051567167 0.026462916 -0.060017038
000030 a4 6c bc bc bd b1 d3 bd 6f 12 e2 bd 1c cc a1 bd
       -0.023001023 -0.10336635 -0.11038672 -0.07900259
000040 e8 cc 85 bd 6e 9c be bd 6f 97 2e 3b 1d 04 d1 3b
       -0.065332234 -0.0930718 0.0026640554 0.006378664
000050 ea 16 88 3d 00 cd 4d bd 2e ae 69 bd 8a 65 f1 bd
       0.066449955 -0.05024433 -0.057050876 -0.11786945
000060 87 d3 05 3d 3e 4c 30 bd a9 b9 09 3d 13 fb 9d bd
       0.03267243 -0.04304146 0.033624325 -0.07713904
000070 48 91 7d bd 48 80 b2 3d d7 a5 d1 bd 5b de ea 3c
       -0.06190613 0.08715874 -0.102367096 0.02867048

weight f4 [64, 32, 5, 5]
000000 30 5c a8 bb 03 7b 6b 3c a9 7b 2a bd 9e ab fc bc
       -0.0051379427 0.01437259 -0.041621838 -0.030843552
000010 e5 12 77 3c b4 51 97 bc 5e eb f4 3c 89 08 1e bd
       0.015080188 -0.018471576 0.029897388 -0.03858236
000020 af 8c 00 bd f6 ca e6 3c 62 28 89 bd 55 ec 21 bd
       -0.031384166 0.028172951 -0.066971555 -0.039532024
000030 86 8c 56 bd 0e 9f 2a bd f8 4c aa 3b 73 f0 eb bc
       -0.052380107 -0.041655593 0.0051971637 -0.028801179
000040 1e 94 b1 bb cc 93 08 bd cb d1 29 3c 85 9f 41 3c
       -0.0054192683 -0.033344075 0.01036496 0.011817818
000050 ad 42 1e bd 25 2c e9 bc c1 ca b2 3b 9f be a5 bc
       -0.038637806 -0.028463433 0.005456299 -0.020232497
000060 1c 4c cd 3b 0e bb 9e 3b 51 13 39 bd 70 63 c6 39
       0.0062651765 0.004844076 -0.045184437 0.0003783959
000070 55 41 ad 3c 56 d6 ce 3c 83 96 69 bc 9a 7b 0b bd
       0.021149317 0.025248688 -0.014257076 -0.034053423
000080 64 e1 25 bd 14 dd 1b 3d e1 ca 92 3c 1e ef 54 bc
       -0.040498152 0.038052633 0.017919006 -0.012996463
000090 55 b8 25 bc ff b4 c8 3a d8 00 71 3c 01 b4 64 3d
       -0.010114749 0.001531273 0.014709674 0.055835728
0000a0 9c e9 fc bc b0 0c 6b bd 0e 48 06 bd 9f bb 2d bc
       -0.030873112 -0.057385147 -0.03278356 -0.010603814
0000b0 07 6e c2 3c ae 5d e7 3c 38 f4 ae 3b f5 42 77 3b
       0.023734106 0.028242912 0.0053391717 0.0037729118
0000c0 47 0a b9 3c 95 30 1b bc c9 1a 16 bd 95 ba a5 bb
       0.022587908 -0.009472032 -0.036646638 -0.0050576427
0000d0 ef e7 18 bd 52 56 d5 3b 4f b4 eb bb 72 cc 1f 3d
       -0.037330564 0.0065105343 -0.0071931253 0.039013334
0000e0 b8 b5 12 bd ad fa 70 bc bb db 3c 3c 2b a5 c6 3b
       -0.03581783 -0.014708203 0.011526997 0.00606217
0000f0 54 1b 38 bd 09 f8 14 bd 83 67 96 ba 0b 24 2e 3d
       -0.044947937 -0.036369357 -0.0011474941 0.042514842
000100 48 5a 28 3d 76 12 7e bb cf 00 00 bd a8 31 2d bc
       0.041101724 -0.0038768328 -0.03125077 -0.010570921
000110 ea 66 41 3d e0 06 ca 3c 86 fc 03 bd 80 8f 64 3b
       0.047217287 0.024661481 -0.032223247 0.0034875572
000120 9e 90 1c 3d f8 9e 9b ba a5 59 da bc 23 0a f7 3b
       0.038223855 -0.0011872938 -0.026654074 0.00753905
000130 4d f1 0c 3c 57 1c 84 bd cd ed 92 3c 0c cd b1 3c
       0.008602452 -0.06450718 0.017935658 0.02170422
000140 60 f1 1b 3d 76 94 65 bc 6b de 70 bd fc e8 d2 ba
       0.03807199 -0.014012447 -0.058805864 -0.0016091163
000150 0b fd 56 bc 71 02 c3 3c 13 c2 73 bd ea 5e 37 bd
       -0.013121854 0.023804875 -0.059511255 -0.04476825
000160 bb e4 9a 3c 23 fa 12 3d c1 ef 1b bd 2f 4c b2 bc
       0.018907895 0.03588308 -0.038070444 -0.021764843
000170 fd 9d 33 bd 79 90 e0 bc 4f a1 30 bc ad ed c5 3c
       -0.04385184 -0.02741264 -0.0107806465 0.024161184
000180 ed 16 75 bc c9 fb 73 3c 7e 3e 10 3d 27 7b 96 bc
       -0.014959079 0.014891573 0.035215847 -0.01836927
000190 4c 8c e4 bc 8a fa 30 bc a4 f8 b0 3c 8a 47 f5 3c
       -0.02789893 -0.010801921 0.021602936 0.029941339
0001a0 4d 6c 27 3c 6a 60 08 ba 59 ff 8f ba 76 c2 75 3b
       0.010218692 -0.0005202355 -0.0010986134 0.003749994
0001b0 08 9f 1e bb 12 84 6d bc 4d ec 7d bc 92 e6 df 3c
       -0.0024203677 -0.01449682 -0.015498233 0.027331624
0001c0 c6 8f 09 bb 07 09 31 3d 2f 88 5b 3c 4f 20 4a bb
       -0.0020990237 0.0432215 0.013399168 -0.0030842011
0001d0 19 a6 ae bc fa 99 8e 3b fe 98 4d bc 68 17 ba bc
       -0.021319436 0.0043518515 -0.012548683 -0.02271624
0001e0 d7 28 ce 3c 01 a9 38 3d 61 38 d1 bb 0f ab 7a 3c
       0.025165958 0.04508305 -0.0063848947 0.015299573
0001f0 1a 10 f7 3b 38 f4 08 bd b0 20 38 bd ca 89 22 3c
       0.0075397613 -0.03343603 -0.04495305 0.009920547
000200 40 54 8a 3c ee ae c0 bb d7 39 ce bc fd 3e fa 3c
       0.016885877 -0.0058802282 -0.025174065 0.030547613
000210 f7 fb 91 3c 1f c9 e2 3c d7 b8 f0 3c 2c fb d9 3b
       0.017820342 0.027683793 0.029385014 0.0066522565
000220 18 59 bd bc 9b 48 f0 3b 7f bb 88 3d 2c 9d ac 3c
       -0.023113772 0.007332874 0.06676387 0.02107104
000230 8c 50 72 bb 1b 5e 65 3c fd 11 8f 3c 41 ea 12 3b
       -0.003697428 0.013999487 0.017464632 0.0022417458
000240 c2 12 be 3c 76 ba ab 3c a3 16 8f bc 3e 9f f6 3c
       0.023202304 0.020962935 -0.017466849 0.03010523
000250 33 ad 0f 3b 54 12 f6 3c f3 03 08 bc ff eb e3 3c
       0.0021923303 0.030038036 -0.008301723 0.027822493
000260 1c 14 0f bc 58 8f b3 3c 36 5f 53 3b 89 e5 a3 3c
       -0.008732822 0.021918938 0.0032252795 0.020006912
000270 e2 98 9e 3a 71 f9 19 bc 1f 21 7b 3c b8 7b 2a 3d
       0.0012100006 -0.00939785 0.015327721 0.041621894
000280 61 28 59 bc 7f a4 37 3b d4 06 26 3b d2 ef 0c 3d
       -0.013254256 0.0028021631 0.002533366 0.034408398
000290 a7 01 db 3c 54 b5 ae 3a 49 b3 74 bc d1 c7 03 bd
       0.026734186 0.0013329186 -0.014935323 -0.03217298
0002a0 50 be 66 bb 3e f0 ef bb c3 d1 9e 3c 57 0a 3d 3c
       -0.003520865 -0.0073223403 0.019387132 0.01153811
0002b0 a9 70 b5 3c 66 bb f9 3c 60 52 46 3d 3b 83 61 bc
       0.022148447 0.030484866 0.048418403 -0.013764198
0002c0 fe 3f 19 3c e2 13 5e 3c de 74 fb bc 8c 63 02 bd
       0.009353636 0.013554545 -0.030695375 -0.031833217
0002d0 1e 93 6c bd d9 f7 49 bb 7d 20 13 3d 25 ef 88 3b
       -0.05775749 -0.0030817895 0.035919655 0.004178899
0002e0 3a 99 83 bb e2 e3 40 bd c1 70 9f bb d3 2f 1d bd
       -0.0040160688 -0.047092326 -0.0048657362 -0.038375687
0002f0 71 52 c2 bc b0 1f 64 3c 22 b3 cc 3b 26 bc af 3c
       -0.023720952 0.0139235705 0.00624694 0.02145202
000300 73 38 36 3d e8 0b de bc b3 50 ed 3b 59 42 47 bc
       0.044487428 -0.027105287 0.007242286 -0.012161815
000310 64 9e 15 3c a0 fa 9e 3b 0f 6e 84 3c e0 22 e5 3c
       0.009132002 0.004851654 0.016165761 0.027970731
000320 43 dc 3b 3c 8a 00 31 3d 26 2e 46 3c 0c aa 96 bc
       0.011466089 0.043213405 0.012095964 -0.018391632
000330 f9 03 14 bd 02 29 ae bb 70 6a fa 3c e3 78 0b bd
       -0.0361366 -0.005314947 0.030568331 -0.034050833
000340 d3 17 ee bc a8 c6 98 bc 43 f9 02 3b 2d 3b 19 3d
       -0.029064095 -0.018649414 0.0019984997 0.03740995
000350 ac 0b 3b bd 88 df 3e bc 71 6e 00 bd 3e a3 36 bc
       -0.045665428 -0.011649974 -0.031355325 -0.011147318
000360 6a 32 97 3d ee c0 43 3d 60 f8 9b 3b fc 6f 88 3c
       0.073826626 0.047791414 0.004759833 0.01665496
000370 f7 37 98 bc 79 d6 0a 3d 60 0c 46 3c df d0 89 bc
       -0.018581374 0.033895943 0.012087911 -0.01682323
000380 d8 97 3a 3c b3 3a a7 3c 79 df 0d 3d d0 51 8d 3c
       0.011388741 0.020413732 0.03463695 0.017250925
000390 0e 77 c0 3c bd 64 97 3c 0c a1 6b 3b a3 0b 00 3d
       0.02349427 0.018480653 0.0035954146 0.031261098
0003a0 3b ec 44 3a 84 31 b6 bc bf 7f fe 3c 66 d6 18 3d
       0.0007512008 -0.022240408 0.031066773 0.03731384
0003b0 a5 8e 38 bd 55 46 32 bd 0e 04 45 bd a2 48 19 bd
       -0.04505791 -0.043524105 -0.04809957 -0.037422784
0003c0 24 4e ca bc 7a b0 95 3c 04 9e 33 3d 37 e0 61 3d
       -0.024695463 0.018272627 0.043851867 0.05514547
0003d0 f5 a0 8a bc 68 32 8d 3c 11 86 49 bc 58 96 bb bb
       -0.016922453 0.01723595 -0.01230003 -0.0057247095
0003e0 35 93 23 bd 82 2d 2f bc af 9f 3c bd ce a1 12 bd
       -0.03993531 -0.010692002 -0.046050724 -0.03579884
0003f0 28 fc 4f bd 90 42 0b 3d a2 ac f4 bc c0 d6 ad bc
       -0.050777584 0.033999026 -0.029867474 -0.021220565

bias f4 [64]
000000 77 2a 64 bd c9 24 b0 bd a4 0e 9f bd 67 53 0a bc
       -0.05570456 -0.08600766 -0.07766464 -0.008442736
000010 cc a2 89 bc 22 d3 91 bd 59 bd fd bc 92 df 40 b9
       -0.01680126 -0.071203485 -0.030974077 -0.00018393833
000020 38 56 03 bd a5 fa f8 bc 1e ee a4 bd 66 43 65 bd
       -0.032064646 -0.030392954 -0.0805323 -0.05597248
000030 8e d0 3f bd 9a 2e 31 bd 7b 82 78 bd 1b af 24 bc
       -0.046829753 -0.043257333 -0.06067131 -0.010051514
000040 50 ff 92 bd d1 85 61 bd 85 f7 62 bd d0 ca 62 bd
       -0.07177603 -0.055059258 -0.055411834 -0.0553692
000050 53 2b 4c bd b4 05 29 bc 81 2d b1 bc c8 25 b9 bd
       -0.049846005 -0.010316301 -0.021628143 -0.09040409
000060 3b be 63 bd 6f 4b e7 bb f3 81 69 bd 8f d2 79 bc
       -0.05560134 -0.007058553 -0.057008695 -0.015247955
000070 95 40 34 bd ba 8b 5b bd 62 85 35 bc ac 66 6d bc
       -0.044006903 -0.05360005 -0.011079164 -0.014489811
000080 cf 47 2a 3c 37 5a ae bc f1 5e 75 bd 47 fa be bc
       0.010393097 -0.021283252 -0.059904996 -0.0233127
000090 40 61 4b bc 6d fa 8f bd 8a 17 82 bd 69 66 c3 bd
       -0.012413323 -0.07030187 -0.06352146 -0.095410176
0000a0 dc 8c 84 bd e2 8b 5b bd a7 00 50 3d 61 a4 34 bb
       -0.06472179 -0.0536002 0.050781872 -0.0027563798
0000b0 15 dc 03 bd 79 51 29 bc 54 e2 c5 bc 9a 9c 8e bd
       -0.03219231 -0.010334366 -0.024155773 -0.06963463
0000c0 6d 94 95 bc c6 44 44 bc e9 e4 aa bd 29 aa 92 bd
       -0.018259251 -0.0119792875 -0.083444424 -0.07161362
0000d0 c1 e2 32 bd fc 2d c2 bd 3d cb 8a 3c 9e 7c ca 3c
       -0.04367328 -0.09481427 0.016942615 0.024717625
0000e0 00 18 03 3d ce 96 a3 bd 10 1d 07 3d 0e 54 a8 bd
       0.03200531 -0.07987748 0.0329867 -0.08219157
0000f0 d8 14 72 bd 69 76 55 bc e0 42 19 bc 16 35 91 3b
       -0.05910191 -0.013028719 -0.009354323 0.004431377

weight f4 [64, 1024]
000000 3b 31 57 bd 0b 15 fc 3b 1e 1c 8b 3c 8d 93 2a 3c
       -0.052537184 0.007692938 0.01698118 0.010411155
000010 cd b6 e4 bb e3 0b e9 3c b5 bc 9e 3c e5 2f af bc
       -0.0069797994 0.02844805 0.019377092 -0.021385143
000020 87 d2 83 bc 06 c6 6f bb 02 62 28 3d 1c b1 35 bc
       -0.016091598 -0.0036586537 0.041109093 -0.011089589
000030 ab dd ed bc eb 6a 65 bd 3e 11 74 bb da 26 1a bd
       -0.029036364 -0.056010168 -0.0037241722 -0.037634708
000040 df e2 4d bc 68 79 b7 3c 4a 25 b9 bc 0f 8c 8e 3a
       -0.012566297 0.022396758 -0.022600789 0.0010875481
000050 6c 0f 2b 3a 2d ca 29 bc c7 10 a7 bc 22 d3 0b bc
       0.00065254304 -0.010363144 -0.020393742 -0.008534225
000060 1a cb 80 bc 97 38 ba 3c cb 3f fe bc 6c f8 52 3d
       -0.015721846 0.022732062 -0.031036278 0.051506445
000070 07 cb 64 3c f8 fc 06 3b 78 d7 39 3c 4c f8 9f bc
       0.013964421 0.0020597558 0.011342876 -0.019527577
000080 5c 42 33 3c c8 ac 09 bb 7d 2c fb bc 03 e5 44 bc
       0.010941114 -0.0021007527 -0.030660862 -0.012017491
000090 d8 ea ca bc a3 66 95 3c 3e 4d 82 3c 2c 48 dd 3c
       -0.024770185 0.018237418 0.015905973 0.027011953
0000a0 64 8d 80 bc 43 a2 11 bd ab fb 07 bd 44 1f 5b bc
       -0.01569242 -0.035555135 -0.033198994 -0.0133741535
0000b0 eb 69 eb 3b ed 67 f3 3c fc 5d 46 3c 4d d8 7c bc
       0.0071842573 0.029712642 0.012107369 -0.0154324295
0000c0 93 41 91 bc a6 1d ff bc b4 14 8d bc 16 53 d4 bc
       -0.017731464 -0.031142067 -0.017221786 -0.025918525
0000d0 64 70 f7 bc 48 85 bd bb 74 3d c0 3c cb b8 28 ba
       -0.03020496 -0.0057837106 0.023466803 -0.00064362277
0000e0 3d ad d2 bc 47 b2 b5 3c 0a 86 de 3c 21 03 0f 3d
       -0.025717372 0.022179736 0.027163524 0.034915093
0000f0 d9 6c 44 3c 44 70 0f 3d 91 f8 84 3d 5a 68 03 3d
       0.011988842 0.035019174 0.06492723 0.03208194
000100 d8 da 8b 3c 09 ce 31 bb 32 f0 8e 3c d8 23 0e 3d
       0.017072126 -0.0027130863 0.017448518 0.034702152
000110 ae d7 b8 bc d3 14 29 bc ea 5c 8c 3c ec c3 5a 3d
       -0.022563782 -0.010319906 0.017134149 0.053409502
000120 37 62 c0 3b b4 2c 58 3d 94 23 93 3b 78 2a 14 3c
       0.005871083 0.052777007 0.004490325 0.009043328
000130 c9 ee 94 bc a5 bc b4 3c 89 4e 74 bc a1 2a 0d 3c
       -0.018180268 0.022062609 -0.014911302 0.008616121
000140 cb 97 77 bc a0 14 f1 3c 06 92 0e 3c 75 71 8e bc
       -0.015111874 0.02942878 0.008701807 -0.017388085
000150 3f e8 89 bc bf 1f d1 3b 97 62 b0 3c 11 ae 17 3c
       -0.016834376 0.0063819583 0.021531386 0.009257809
000160 6a fa e6 ba 97 02 fa 3c 60 5b 69 bc 20 19 d8 bb
       -0.0017622237 0.030518813 -0.014242977 -0.006594792
000170 51 4e 30 3d d9 4c eb 3c 48 7c fe 3c c2 74 bb 3c
       0.04304344 0.028723167 0.031065121 0.022882823
000180 42 3b 3b bc ea ce ac bc d0 d7 22 bc d2 7d 90 3c
       -0.011427702 -0.021094758 -0.009939149 0.01763812
000190 b9 f2 8a b9 c9 57 31 bc ed 87 9d bc b3 5e c7 bc
       -0.00026502254 -0.010824152 -0.019229854 -0.024337148
0001a0 ea 92 16 3d d2 ab 3f 3d 08 5b 2a bc ba a7 52 3d
       0.036761202 0.04679472 -0.01039768 0.051429488
0001b0 4e ab 93 bc 0b f4 84 3c 70 69 00 3d 0b 95 65 3c
       -0.01802602 0.01622965 0.031350553 0.014012585
0001c0 ee 80 ec 3b da 50 4f bd 89 77 60 bb 5b d8 3c 3d
       0.007217518 -0.050614215 -0.0034250936 0.04610477
0001d0 c1 86 d8 3c a1 f1 2a bc 1e 1c 2c 3d 26 d0 09 3d
       0.026431443 -0.010433585 0.042019002 0.03364577
0001e0 76 b0 8d bb 01 57 be bc 8e a7 39 3d 48 f8 31 3d
       -0.0043240143 -0.023234846 0.04532581 0.04344967
0001f0 e0 ef 58 3d 7d af a8 bb 83 8c c7 bb 97 0a 84 3c
       0.052963138 -0.005147873 -0.0060897483 0.01611833
000200 ce 0a 5a bc cf 4d 46 bb 24 50 ca 3c 93 e6 19 bc
       -0.01330824 -0.003025878 0.024696417 -0.009393352
000210 86 40 02 3d 0d dd 5b 3b a3 06 45 3d 36 3c 25 3d
       0.031799816 0.0033548505 0.048102032 0.040340625
000220 f5 2a 31 3d 4d 5d 5e 3d 51 39 e0 3c 39 ce 3d 3d
       0.043253858 0.054288197 0.02737108 0.046339247
000230 5e 56 b8 bc fa 20 8c bb ea 8f d3 bb 2a 7c 98 bc
       -0.02250212 -0.004276392 -0.006456365 -0.018613894
000240 51 13 78 3c b9 a8 22 bc f1 1e 86 3c 45 6d fe bb
       0.015141324 -0.009927922 0.016372176 -0.007764491
000250 0a b3 ba 3c 05 e3 0d 3d 21 3f 75 3d 1b 26 06 3d
       0.02279045 0.03464033 0.059874658 0.032751184
000260 73 c3 9f 3c cd df 8e 3d b8 75 05 3d 79 5b f5 3a
       0.019502377 0.0697628 0.03258297 0.0018719278
000270 4f 7e 06 bd 79 d4 5d bc f7 50 c1 bc 90 c6 b6 bc
       -0.0328353 -0.013539427 -0.023598177 -0.022311479
000280 25 3d d7 3c ba 0a 0b bc 57 95 f4 bc e8 e9 9f b8
       0.026274273 -0.008486444 -0.029856367 -7.625279e-05
000290 6c 20 11 3d bc 57 16 bc af 77 3a bb f5 a7 79 3d
       0.03543131 -0.009176191 -0.0028452685 0.060951192
0002a0 11 8d 0c 3d bc 3d d6 bc dd 52 86 3c d9 aa 23 3d
       0.03431422 -0.026152484 0.016396934 0.039957855
0002b0 27 f7 91 bc 0e e2 0a bd 70 71 6f 3b 7d 95 a4 3c
       -0.017818047 -0.03390699 0.003653612 0.020090813
0002c0 78 c8 a4 3c 3e 67 bc 3b 2e 14 01 bd e1 6a 22 bc
       0.020115122 0.005749612 -0.031513385 -0.009913177
0002d0 e7 9c 9e bc 8b 35 ed 3b 58 fd 9b bc e9 6e 96 bc
       -0.019361926 0.007239049 -0.019041702 -0.018363433
0002e0 fe 21 15 bc 08 f5 3d 3c a1 25 18 bd 31 1e ca 3b
       -0.009102343 0.0115940645 -0.03714526 0.00616815
0002f0 13 1e 0a 3c 01 76 cb 3c b8 48 44 3d af c9 b5 3c
       0.008430022 0.024836542 0.047920913 0.022190897
000300 05 35 10 3c 52 79 3c bd 25 39 19 3b ce 99 68 bc
       0.008801703 -0.046014138 0.0023380008 -0.014196826
000310 84 f1 9b 3c 09 bc 1e bd da 47 ae bc e3 62 ad bb
       0.019036062 -0.038753543 -0.021274496 -0.005291329
000320 b7 3a ed 3b 71 4e c8 bc 09 23 e4 3c ea 11 19 3c
       0.0072396654 -0.024451466 0.027848737 0.00934265
000330 18 bd 59 3d 91 94 91 bc 46 56 b4 bb db f3 03 bd
       0.05315885 -0.017771037 -0.0055034487 -0.03221498
000340 bc a5 1c 3c 2c 3c 85 bc 81 a5 84 bc 71 05 40 3c
       0.0095609985 -0.016264044 -0.0161922 0.011720047
000350 b4 41 53 39 67 a0 84 3c 28 13 e4 3c 50 23 30 3c
       0.00020147004 0.016189767 0.027841166 0.010750607
000360 d5 71 d1 3b 48 85 d0 3c ca dc 2c 3c 98 2c 5e 3d
       0.0063917437 0.025454178 0.010550687 0.054241747
000370 78 da 27 bd 98 0d fc bc ff 4b 11 bc c2 2b 05 bc
       -0.040979832 -0.0307682 -0.008868217 -0.008128108
000380 11 06 82 3c 3a 0a 82 3b f3 7b 46 3d be 9a e3 ba
       0.015872033 0.0039685043 0.04845805 -0.0017364842
000390 1f 39 ba 3c e1 c7 e0 3b 08 58 90 bb 0d f6 8e 3c
       0.022732316 0.006859765 -0.0044050254 0.01745131
0003a0 d1 f3 01 3c 53 1f 33 bd fe 19 5b 3c ba a4 4a bd
       0.0079316655 -0.043731045 0.013372896 -0.0494735
0003b0 51 53 c3 3b 43 dd c6 bc 6c 2d 93 3c 06 37 1b 3c
       0.00596086 -0.024275428 0.017965995 0.009473568
0003c0 e0 b7 82 3b fa d9 9a 3c 11 03 b5 3c 1c c5 8d bc
       0.0039892048 0.018902767 0.022096189 -0.017305903
0003d0 9e 64 72 bc 3b f5 bc bc 0d 23 36 ba f9 cd 21 3c
       -0.014794497 -0.023066154 -0.0006947972 0.009875768
0003e0 75 04 89 3c cf 58 0c bd 39 c1 bf 3c b4 83 27 3b
       0.016725758 -0.034264382 0.023407565 0.002556068
0003f0 16 6a 44 3c 5a 01 52 3c 47 1e d2 ba 24 41 fb ba
       0.0119881835 0.012817705 -0.0016030752 -0.0019169194

bias f4 [64]
000000 1e 53 a4 bc 46 da 09 3b 6f 45 cd bc c2 8f 3e 3c
       -0.020059165 0.0021034642 -0.025057523 0.011630954
000010 43 40 47 bc 49 97 1f 3d 39 d8 95 bc 61 65 a0 bc
       -0.012161317 0.038962636 -0.01829158 -0.019579591
000020 42 de 11 3b 2d e5 17 bc 12 44 ca bc 4f 88 3b bd
       0.002225772 -0.009270948 -0.024690662 -0.04578429
000030 d9 a9 79 3c ef 99 44 3d a8 68 52 3b 52 10 db bb
       0.015238249 0.047998365 0.0032105837 -0.006685295
000040 8b 3a c0 3c 34 96 69 3c c6 c3 c3 bc df 55 07 3d
       0.023465415 0.014257003 -0.023897063 0.033040877
000050 bb 25 35 bd f0 92 89 3c 5b b5 9d 3c f3 ca e3 bc
       -0.044225436 0.016793698 0.019251516 -0.027806735
000060 88 7e fa 3c ff 79 05 bd 14 a0 f4 b8 db 00 ce bc
       0.030577913 -0.032587048 -0.000116646435 -0.025146892
000070 58 62 8c 3d ee fb e0 3c 16 a4 e8 bc d1 d2 9e 3c
       0.06854695 0.02746388 -0.028398555 0.019387634
000080 b2 9c 2a bd 4e d6 23 3d e4 e3 db bb e5 d1 39 bd
       -0.041653343 0.0399993 -0.0067105163 -0.045366187
000090 d1 19 a9 bc 6c a1 d2 3c 99 20 41 bd bf 19 45 bd
       -0.020642193 0.025711738 -0.04715023 -0.048120257
0000a0 6f c6 4e bd f1 10 8e bc 21 44 f1 bc 4f c3 0f bd
       -0.05048221 -0.017342063 -0.029451432 -0.03509837
0000b0 09 3a aa 3c a5 98 02 bc e7 f8 86 bb 5f 76 02 bd
       0.020779626 -0.007970964 -0.004119027 -0.03185117
0000c0 d3 23 f5 bc 7d be ef bc 7d 9d f4 3c bd d1 7f 3d
       -0.029924309 -0.029265637 0.029860253 0.06245588
0000d0 78 ca 8b 3c f8 b0 ba ba 8d 8d b4 bb e0 a5 90 bb
       0.017064318 -0.0014243415 -0.005510038 -0.004414305
0000e0 a3 aa 73 ba 75 b5 2a bd df c1 41 bd de 71 7c 3c
       -0.0009295141 -0.041676957 -0.04730403 0.015408007
0000f0 ad 74 00 3d 5a fb 3b bd 2a cb a6 3c da fe f1 3c
       0.03136127 -0.045894004 0.020360548 0.029540468

weight f4 [10, 64]
000000 47 34 fb 3c 55 59 3c 3e 02 62 ea bd 43 48 db bc
       0.030664576 0.18393452 -0.11444475 -0.026767856
000010 cb 57 29 be fc 9f 43 be 2d bc b8 3d 7d ed 40 3e
       -0.16537397 -0.19103998 0.09020267 0.18840595
000020 8b 44 45 3e c7 77 27 3d e0 e0 4b be a4 51 29 3e
       0.19264428 0.040885713 -0.19910002 0.1653505
000030 b0 f5 81 bd 80 94 08 3d 40 3a 74 be f0 49 44 3e
       -0.06345689 0.033344746 -0.23850346 0.1916883
000040 44 23 2b 3e 58 d3 67 be e5 d8 33 3e 6c 70 25 be
       0.16712672 -0.22639215 0.17563207 -0.16156167
000050 12 83 4f 3c 85 20 2f be b7 31 35 bc f0 27 1a 3e
       0.012665527 -0.17102249 -0.011059216 0.15054297
000060 04 ba f7 bd 8d 38 14 bd 94 a0 19 be 23 50 ed bd
       -0.120960265 -0.036186744 -0.15002662 -0.115875505
000070 12 ca 34 be fa c2 77 bc ac c2 56 bd 86 48 af 3c
       -0.17655209 -0.01512217 -0.052431747 0.021396887
000080 44 dc 75 3e d3 d0 42 be f2 3a 9e bd 9c 54 d0 3c
       0.24009806 -0.19024973 -0.07726087 0.02543097
000090 ea 97 1d be 56 6a ad bd 75 66 74 3e 04 6b 42 be
       -0.15389982 -0.084675476 0.2386721 -0.18986136
0000a0 e0 67 59 3e d7 9a a8 bd c8 76 be 3d 7e 33 07 3e
       0.21231031 -0.08232658 0.092999995 0.13203236
0000b0 b2 c9 71 3c 76 df 40 be db fa 7f 3d b4 4a 9c bd
       0.014757561 -0.18835244 0.062495094 -0.07631436
0000c0 ff 2e 63 3e db da ab 3a 2f 1f 44 be 86 04 bc bd
       0.22185896 0.0013111489 -0.1915252 -0.0918055
0000d0 ff 26 c0 3d 95 c2 c0 bc 0c 7c e2 3d cc e6 13 3d
       0.09382438 -0.023530284 0.11058816 0.036108777
0000e0 f5 c3 d8 3c 3c 37 7c 3e 5b a3 ed 3d 52 99 70 be
       0.026460627 0.24630445 0.11603423 -0.23495987
0000f0 f5 e6 e4 bd c1 f2 72 bb 68 99 e0 bd 20 82 3c 3d
       -0.11176864 -0.0037070962 -0.1096676 0.046022534
000100 86 0f 04 3e 8f 6a 1f bd d9 1c fe 3d 38 11 4b be
       0.12896547 -0.03891998 0.12407846 -0.19830787
000110 69 7e 79 bc e8 36 5d 3d f6 74 8b bd 96 96 5c be
       -0.015227892 0.05400744 -0.06809418 -0.21541819
000120 0c 7e 5b be c6 c5 84 bc a4 d1 69 be 7c fb 0b be
       -0.21434802 -0.016207587 -0.22833878 -0.13670152
000130 4a 95 b0 bd b1 38 1a be 8e 60 72 3e a5 4c 93 bd
       -0.08622225 -0.15060689 0.23669645 -0.07192353
000140 b3 21 ab bd 3a 21 6b 3e 81 25 95 3d aa 48 1f be
       -0.08356037 0.22961894 0.07282544 -0.15555063
000150 00 c2 0a be 49 49 ff bd 48 4e 1b bd 10 a5 3b 3e
       -0.13550568 -0.1246515 -0.03791645 0.18324685
000160 1b d1 b4 3e c8 6a 6a 3e 2d a7 2d 3e a7 bd 39 3d
       0.35315785 0.22892296 0.16958304 0.045346882
000170 a6 44 83 be 1a 22 28 be 74 1c b4 bd 66 34 24 3e
       -0.25638312 -0.16419259 -0.087944895 0.16035613
000180 35 65 53 3e 94 39 a2 3d a6 df 9e bd 7f 26 5b be
       0.20644076 0.079211384 -0.07757501 -0.21401404
000190 d4 19 bc bd 0b 21 f1 3d ef 96 41 be 55 fc e3 bd
       -0.09184614 0.117738806 -0.18905233 -0.11132113
0001a0 a0 05 de 3d a3 cf 0c bd 43 d6 ff 3c e1 e5 17 3d
       0.10840917 -0.034377705 0.031230098 0.037084464
0001b0 cd b9 55 be 53 db 5a be 56 66 a5 bd 86 58 6b 3e
       -0.20871659 -0.21372728 -0.0807616 0.22982988
0001c0 a0 94 02 bd 5c 93 20 3e 48 e7 27 be b4 55 4a be
       -0.03188002 0.15681213 -0.1639682 -0.19759256
0001d0 f4 4a 9b be 51 60 3d 3e dd ea 0c be e3 1f bb bd
       -0.30330622 0.18493773 -0.13761468 -0.09136941
0001e0 dd bf 9f 3e 82 2b 0b 3e eb fe a1 3b 07 c0 8e 3e
       0.31201068 0.13590816 0.0049437187 0.2788088
0001f0 19 1f ac be b2 26 fa bd 14 d8 6e be 21 7b 42 be
       -0.33617476 -0.12214412 -0.23324615 -0.18992282
000200 a6 72 8e be bc eb 1d 3a dd 2f 8b be 61 78 17 3e
       -0.27821845 0.0006024202 -0.27184954 0.14792015
000210 85 c6 a7 bd 01 26 bf bd 10 7a 8f 3d b8 b7 38 bd
       -0.081921615 -0.093334205 0.070057034 -0.045097083
000220 28 08 1c 3c 61 5c d9 bd 44 e4 1d 3e bb 9d 4d be
       0.009523429 -0.10613323 0.15419108 -0.200797
000230 6d db ac 3c 93 3d 18 3c 1f c9 88 be e7 e9 48 3e
       0.021100724 0.009292024 -0.26715943 0.19620477
000240 91 d3 80 bd 47 f9 0b be 5c e8 0b be 3f 46 9d 3d
       -0.06290353 -0.1366931 -0.13662857 0.07679414
000250 7c bd 37 3d 12 90 a5 3d c3 e7 1a be 46 e4 68 be
       0.04485844 0.0808412 -0.15127473 -0.2274333
000260 17 fc ca bc 97 74 5f 3d 7d 2e 06 be 31 62 c0 3d
       -0.024778409 0.054554548 -0.13103671 0.093937285
000270 a2 b8 1d be a9 d5 40 3e 8b 1f 37 bd f1 dd 34 3e
       -0.15402463 0.18831505 -0.044707816 0.17662789
000280 af ba 4c 3e 9e 12 9a 3d 5f cd 1f be d2 38 aa bc
       0.19993089 0.07523082 -0.15605687 -0.020779047
000290 4c 3d 57 3e e4 10 b4 3d 50 fe 14 3e 4c c0 89 be
       0.21019477 0.08792284 0.14550138 -0.26904523
0002a0 7b bd ad 3d 36 6b ba 3d bb 29 1e 3d f3 3e 0a 3d
       0.08483406 0.0910248 0.038614016 0.03375144
0002b0 40 ad 08 3e fd 3c 51 3e b8 88 a0 3e 5e f1 4a bc
       0.1334734 0.20433421 0.31354308 -0.012386648
0002c0 56 eb b9 3d 87 b0 6e 3e 45 0d 70 3e 49 55 0c 3e
       0.0907809 0.23309527 0.23442562 0.13704409
0002d0 eb 54 c5 bd 3d 4a 21 3e 9c f7 f5 3d 00 60 01 3e
       -0.096353374 0.15750976 0.12010118 0.12634277
0002e0 9c fc 04 3d 1f 9d 05 be eb 82 5f bd 67 e1 38 be
       0.03246747 -0.13048218 -0.054568212 -0.18054734
0002f0 24 6e 84 3e bf a7 60 3d 7d c8 b7 3d dc ac 3b bd
       0.2586528 0.054847475 0.08973787 -0.04581915
000300 ee 1e f4 bd 01 4f 11 3e 04 39 3d be e3 95 0c be
       -0.11919962 0.14190294 -0.18478781 -0.13729052
000310 e8 a7 9d bd db 6d 18 3e fb 66 25 bc 9a 80 d9 bc
       -0.07698041 0.14885657 -0.010095353 -0.02655058
000320 50 b8 0c be 99 29 0f 3e f1 59 03 3e 60 7b 90 3b
       -0.13742185 0.13980712 0.12827279 0.0044092387
000330 a7 12 ec 3d c5 c3 3b be 5e 68 49 3e 53 3f b9 bd
       0.11526995 -0.18336399 0.19668719 -0.09045281
000340 cf 99 e6 3d 49 57 14 3e ab 22 4e bd 55 7f d8 bb
       0.112598054 0.14486422 -0.05032603 -0.006606976
000350 41 e1 11 3c 95 63 c3 3d f8 ad 37 3e 61 4e 23 3c
       0.008903802 0.09540478 0.17937458 0.009967417
000360 96 f1 68 bd 16 46 0f bd 47 f1 f4 bd 46 97 2c be
       -0.05687102 -0.03497895 -0.119600825 -0.16854581
000370 80 3a 8b 3d 99 4c 75 3d 9d 16 54 3e c0 7d 8c bd
       0.06798267 0.059887502 0.20711751 -0.068599224
000380 0e 3c a1 bd b3 8c f8 3c d7 12 c3 3d 39 15 a4 bd
       -0.07872783 0.030340528 0.09525078 -0.080118604
000390 f1 f1 04 3e 00 00 8e 3c 6e 96 9e 3d 1d 87 87 3d
       0.12982918 0.017333984 0.07743536 0.06617568
0003a0 04 9a 0f 3e 10 f3 39 3e 6f aa 7e be 4b 17 ef bc
       0.14023596 0.18159127 -0.24869703 -0.029185912
0003b0 2d 4d f3 3c 4a 92 90 3d 87 e6 0f 3e 53 a5 1c be
       0.029699886 0.070591524 0.14052783 -0.15297441
0003c0 de d4 57 bd e9 32 a7 bd 44 a6 1c be fa a5 3a 3d
       -0.05269324 -0.08164007 -0.152978 0.045568444
0003d0 4c 2f d8 3d 29 61 32 3e 72 ab c5 3d 00 59 4d bd
       0.10555896 0.17419876 0.09651841 -0.050133705
0003e0 a0 7d ac bd 1d d0 10 be 46 96 e0 3d bc ad 31 bd
       -0.084223986 -0.14141889 0.109661624 -0.043378577
0003f0 00 c8 05 3d ab 8d 05 be dc 1e 8f 3d f2 c9 6a bd
       0.032661438 -0.13042323 0.06988308 -0.057321496

bias f4 [10]
000000 d6 2b 8e bd c5 88 fc 3d 9b 7f 98 bc a3 68 8d 3d
       -0.06941955 0.12330774 -0.018615535 0.069047235
000010 ba 62 9e 3d 84 17 d5 bd 94 62 c6 3d e2 e5 ba bc
       0.07733674 -0.10404876 0.09686771 -0.022814695
000020 82 b4 9a 3b 3f 45 c7 3c
       0.0047212252 0.024325011
