try_train/cifar10_models/cifar10_net_13.pth (torch, 589402 bytes, 10 tensors)

weight f4 [32, 3, 5, 5]
000000 0b b1 16 bd 4e ed ff 3d dd 56 03 3e 8d 6f 23 bd
       -0.036789935 0.12496434 0.12826104 -0.039901305
000010 20 ee 22 3e 14 5a a3 bd 3b 35 34 bd ea a9 ff bc
       0.1591115 -0.079761654 -0.043996077 -0.031208951
000020 5b ef 0d 3e 18 0f a3 3d 28 0f 75 bd 33 ed fb 3c
       0.13860838 0.07961863 -0.059828907 0.030752754
000030 f3 43 08 be b3 22 00 bd 17 32 eb bd 45 c6 c3 3c
       -0.1330717 -0.03128309 -0.11484163 0.023898253
000040 c8 fd 8c bb 18 b1 46 be 5d 59 21 be c8 13 f2 bd
       -0.004302714 -0.19403493 -0.15756746 -0.11820179
000050 ac c5 20 3e 7a 34 18 bd 75 92 45 be 84 d2 75 bd
       0.15700406 -0.03715942 -0.1929415 -0.060015216
000060 77 27 44 bd 36 e0 c4 bd e6 5b 20 bd 8d 8d 77 bd
       -0.0478892 -0.09613077 -0.03915014 -0.060437728
000070 b5 2d 8e bd 1d 6d 94 bd 5d f9 ab 3d ec e9 be bd
       -0.06942312 -0.07247374 0.08397172 -0.09321961
000080 8d c4 08 be 97 39 0a 3d b3 25 c9 3c 6a 36 23 bc
       -0.13356228 0.03374633 0.02455411 -0.009961704
000090 06 c2 2f 3d b5 1e 06 be 14 7f 91 bc 51 db 7c bd
       0.042909645 -0.13097651 -0.01776079 -0.061732594
0000a0 33 d7 81 3e 6e 79 f2 3d cc 39 b1 bd 50 89 0e bd
       0.25359496 0.11839567 -0.08653602 -0.03479892
0000b0 df b6 e1 bd a8 e0 13 3e a3 05 8b 3d 63 9b 07 be
       -0.11021208 0.14441168 0.067881845 -0.13242869
0000c0 35 df 09 be 75 b2 34 3d 1f c4 d9 3b 73 f6 80 3d
       -0.13464053 0.044115502 0.006645694 0.062970065
0000d0 e6 d1 ef 3d dd 0c 90 bb 66 f9 b2 bd 03 41 ad 3c
       0.11709957 -0.0043960647 -0.08738975 0.021149164
0000e0 ae 76 79 3c 3e 69 57 bc 8b 50 40 bc ca 2c 50 bc
       0.015226049 -0.01314765 -0.011737953 -0.012705991
0000f0 49 6c 13 3e 89 c1 b2 3c 0e 0c d5 bd a6 d9 ea bd
       0.14396776 0.0218208 -0.1040269 -0.114672944
000100 b1 a3 60 bd 0b c9 67 3e 61 b7 2c 3e cc ca 36 bd
       -0.05484361 0.22635286 0.16866829 -0.044626996
000110 95 e0 04 bc 79 f3 d1 3c f5 7b 80 3e 4e 9b 0c 3e
       -0.008110185 0.025628792 0.25094572 0.13731119
000120 d2 2f d9 bd 15 9f c0 bd a1 cf aa bd 62 a4 12 be
       -0.10604824 -0.094053425 -0.08340383 -0.1432052
000130 59 37 46 bd 06 8f 33 be 8d 56 82 bc ad 78 6f bd
       -0.048392627 -0.17535028 -0.015910411 -0.058464695
000140 12 97 58 3c e7 41 1d bd 0b 6c f6 3b 72 54 9a bd
       0.013219612 -0.038392927 0.007520204 -0.07535638
000150 35 bc 29 3d 23 34 48 3d 28 3c 0f bd d4 f4 97 3c
       0.041439254 0.048877846 -0.03496948 0.01854936
000160 61 f8 30 bd 85 c4 99 3d 8d 37 ed bd 61 4d b4 bd
       -0.043205623 0.07508186 -0.11582861 -0.08803821
000170 1a db dd bd ee 9c 11 be 33 4c 25 bd c4 03 85 bd
       -0.10832806 -0.1422002 -0.040355872 -0.06494859
000180 76 1e 21 be 93 06 f5 bd f8 d2 22 be 97 03 ee bd
       -0.15734276 -0.119641446 -0.1590079 -0.116217785
000190 ca d5 0e bc 18 42 69 3c e9 b6 b9 bd 7d 8e 60 3c
       -0.0087179635 0.014236949 -0.090680905 0.013705847
0001a0 e2 2a 22 be 49 b2 fe bc e8 ef 23 3c 54 d7 e2 3d
       -0.15836671 -0.031090872 0.010005929 0.11076227
0001b0 67 bf 23 3e ad 9c 48 3d b0 05 db bb d1 a1 08 3d
       0.15990983 0.048977543 -0.0066840276 0.033357445
0001c0 6f 61 03 3d 82 5b 24 3e da c5 36 3d d5 60 81 3c
       0.03207534 0.16050532 0.04462228 0.015793243
0001d0 b3 e9 7c bd b0 37 c8 bd 8e d5 88 bd a9 ba 72 bd
       -0.06174631 -0.097762465 -0.06681357 -0.059260044
0001e0 b0 fb ab bd 34 1e 26 be 37 8b 2d be 9b f3 4c be
       -0.08397615 -0.16222459 -0.16947637 -0.20014803
0001f0 53 51 04 be 5d 7d b0 bc c6 bc e4 3d 21 40 30 bc
       -0.12921648 -0.021544153 0.11168818 -0.010757477
000200 50 a6 96 bd b8 7e d5 bc 13 89 19 3e 2e 38 29 3e
       -0.0735594 -0.0260614 0.14993696 0.16525337
000210 a7 7b 76 3e c1 01 0a 3e 17 3b 37 3d 5b eb 65 3e
       0.24070607 0.13477232 0.044734087 0.22453062
000220 5c ab 81 3e 7c 29 a2 3e 25 6c 47 3e 6a 55 3b 3e
       0.2532605 0.31672275 0.19474848 0.18294302
000230 b9 1f 3d 3e 18 18 4f 3e ef f8 46 3e b2 5e 02 3e
       0.18469132 0.20224035 0.19430898 0.12731436
000240 87 21 44 3e 46 87 3e 3b 76 54 1f bd 54 25 3a 3d
       0.19153415 0.0029072328 -0.038898908 0.045445755
000250 ac 46 f0 3d 59 32 31 3d 43 55 fc 3c d6 59 a4 bd
       0.117322296 0.043260906 0.030802375 -0.08024947
000260 87 f6 aa 3c 1b 7a 84 bd 59 42 5d bd e1 a4 1c 3e
       0.020869507 -0.06468602 -0.054018352 0.15297271
000270 60 6b 3b be b7 54 95 3d dd ad 21 3d fe 03 a4 bd
       -0.18302679 0.07291549 0.03947245 -0.08008574
000280 f8 62 a6 bb 28 61 01 be 32 9b b6 bd 14 7f 70 bc
       -0.005077716 -0.12634718 -0.0891632 -0.014678735
000290 69 f1 20 3d 9f 8d 1d be 4b cf df 3c ca 48 e4 3d
       0.039292727 -0.15386055 0.027320525 0.11146696
0002a0 fa 48 45 3c aa 47 0c 3c 99 c0 f9 bd a3 c0 a0 bd
       0.012041325 0.008562008 -0.12194938 -0.078492425
0002b0 45 10 f2 bc eb ac 9e bd d9 e5 10 be 8b 71 14 3e
       -0.029548774 -0.07747825 -0.1415018 0.14496438
0002c0 f4 35 3c bd 54 07 7b 3d d8 50 32 3d ea e5 cb bb
       -0.04594989 0.061286286 0.04353413 -0.0062224763
0002d0 c8 ba 09 3e 01 20 16 bd dd 07 1f 3d dd 69 ca 3d
       0.13450158 -0.036651615 0.03882586 0.09883473
0002e0 ec fb 8f 3d 72 5b 9f 3d ac 2e be bd 64 0b 29 3e
       0.07030472 0.07781114 -0.09286246 0.16508251
0002f0 9b 3b 6d 3d 07 4f 3e bd d0 ce aa bd 98 00 67 bc
       0.057918172 -0.046462085 -0.083402276 -0.014099263
000300 0b ec da 3d a7 b0 2d 3e 13 57 0f 3e 6c b4 ff 3a
       0.10689553 0.16961919 0.1399806 0.0019508726
000310 e2 c7 64 3d ce b7 9b bd 1a 68 ee 3d f4 f4 9b 3c
       0.055854686 -0.07603417 0.116409495 0.019037701
000320 88 cf 1e 3d cc 0d 07 be b2 61 03 3e 0a bb b1 bd
       0.038772136 -0.13188857 0.12830237 -0.08678253
000330 65 9b 48 b9 38 2e 0f 3e 96 04 02 be 57 f7 09 3d
       -0.00019131375 0.13982475 -0.12697062 0.033683147
000340 f3 92 49 bd f0 46 b7 3d 04 70 f6 3c f4 61 d6 bd
       -0.049212407 0.08949077 0.03008271 -0.10467902
000350 26 e0 a8 bc 47 7b 70 bd 64 6a 7a 3d 0c af 0f 3c
       -0.020614695 -0.058711316 0.06113662 0.008769762
000360 33 a7 be bd bd e5 2e 3e 2e c8 08 3e c0 2b c9 bd
       -0.093092345 0.17079826 0.13357612 -0.09822798
000370 00 2e ab bd 28 af bf 3d 3c 41 d9 bd 8e c1 ee bd
       -0.08358383 0.0935958 -0.106081456 -0.116580114
000380 99 99 0e be 66 80 31 bd 2f b2 da 3d 2a 65 1b 3e
       -0.1392578 -0.04333534 0.10678517 0.1517531
000390 85 b3 7c 3c a1 96 06 3e 49 e4 ef bc d2 76 ba 3d
       0.01542366 0.13143398 -0.02928366 0.091046944
0003a0 69 8c 03 bc 09 6d aa 3d 70 ac 86 bd 27 7b c7 3d
       -0.008029082 0.08321578 -0.065758586 0.09740286
0003b0 b9 95 2c 3c d2 0c d9 3d e3 b5 04 3e b5 a5 f5 bc
       0.010533744 0.105981484 0.1296001 -0.029986242
0003c0 b5 a2 a1 bd 75 85 0e be 35 af d0 bc 37 92 19 39
       -0.07892362 -0.13918097 -0.02547417 0.00014645686
0003d0 6b bd dc 3d 76 fc c6 bd 8d 2b 04 be 79 81 6b be
       0.10778316 -0.09716122 -0.12907238 -0.22998609
0003e0 d9 b6 97 bd 46 8a 06 be 4b ca ea bb ff db f7 bb
       -0.07407922 -0.13138685 -0.0071652285 -0.0075640674
0003f0 a8 5c 97 bc 9e f1 b3 3d 01 5a a9 3d a0 38 12 bd
       -0.0184768 0.08786319 0.0826912 -0.035698533

bias f4 [32]
000000 68 2f 23 3e e3 2c c2 be f6 1c d5 ba 79 fc 0a 3e
       0.15936053 -0.3792487 -0.0016259241 0.13572873
000010 3c 00 25 3b 99 67 a4 bd 26 b5 4c 3d 6b 10 a4 bd
       0.0025177142 -0.08027572 0.049977444 -0.08010944
000020 9b b5 a5 3d 97 c3 25 be 9f f4 3e be 03 b0 b0 bd
       0.08091279 -0.16187893 -0.18648003 -0.086273216
000030 d1 af 43 3e ba 8a 28 bb d5 1c 3d be e7 4e 9a 3e
       0.19110037 -0.0025717453 -0.1846803 0.30138323
000040 38 4b 64 3d f1 8d 00 3e e4 97 45 be 6c b2 34 bd
       0.055735797 0.12554146 -0.19296223 -0.04411547
000050 af 51 12 bd e8 16 7e 3d 55 99 4f be 4b eb 1f be
       -0.03572243 0.062033564 -0.20273335 -0.15617101
000060 82 7e 7e 3d 8d 48 b5 be 8b eb bf bb 50 d8 8b bd
       0.062132366 -0.35406914 -0.0058569363 -0.06828368
000070 25 9a c7 3e c1 b6 0c bd c2 83 cb bd 18 3d f7 bd
       0.3898479 -0.034353975 -0.0993724 -0.120721996

weight f4 [32, 32, 5, 5]
000000 93 ae b7 3b bb c2 24 3d 80 cf 0f 3b 75 97 60 bd
       0.0056055277 0.040224772 0.0021943748 -0.05483194
000010 29 e2 d0 bc d2 23 0d bd 74 ff 8d 3d 4c 5d e3 3c
       -0.025498467 -0.03445799 0.069334894 0.027754448
000020 bf 81 c9 3b ac f4 f8 bc d4 ac 6f bc 89 c2 e2 3c
       0.0061495 -0.030390106 -0.014628608 0.027680652
000030 fb d1 20 3d 7b 7a 1a 3d a5 70 b8 bc e4 48 2c bd
       0.039262753 0.037714463 -0.02251465 -0.0420617
000040 e8 63 e1 bc 46 39 e6 3c 1f 5e a9 3d 97 71 90 3d
       -0.02751346 0.028103482 0.08269905 0.070529155
000050 43 85 11 bd f6 66 f4 bc 69 5b 91 bc c8 7b 9b 3d
       -0.03552748 -0.029834252 -0.017743783 0.07591969
000060 bc 8d 96 3d 57 c6 3e bc 4e c1 96 bc 32 86 c8 3c
       0.073512524 -0.011643968 -0.018402722 0.024478052
000070 5f 85 91 bb d9 43 48 bc c8 79 06 3c f8 a9 ae bb
       -0.004440948 -0.012223207 0.008207746 -0.0053303204
000080 b5 ae 4f bc 9e 9c 37 3b 18 35 42 3c 7c 49 20 3d
       -0.012675931 0.0028016935 0.011853479 0.03913258
000090 c9 81 be 3c 64 13 81 bd 75 5e 80 bd 24 d4 10 3d
       0.023255246 -0.063025266 -0.06268016 0.035358563
0000a0 c9 09 1a 3d 44 a3 f1 39 5a 79 d7 bc 07 c3 81 bd
       0.037606988 0.00046088744 -0.026302982 -0.06336027
0000b0 c8 2d eb bc 4f c9 57 3d f1 fa ea 3b e0 13 20 3d
       -0.028708354 0.052682217 0.007171028 0.039081454
0000c0 db 3a 0e 3d db 6b e8 bc 36 d6 0f 3c b9 ba 1e bd
       0.034724098 -0.028371742 0.008779099 -0.03875229
0000d0 6d 9c db bc 50 1e 1e 3c aa a2 25 bd a5 b7 26 bd
       -0.026807988 0.009650782 -0.04043833 -0.04070248
0000e0 46 99 4e bd 1b 73 19 3b 65 04 ff bc a8 90 9f bc
       -0.05043914 0.0023414555 -0.031130025 -0.019478157
0000f0 6d 03 bd 3b 4b 83 f0 bc 5e 17 72 bd b3 aa c3 3c
       0.0057682307 -0.02935948 -0.059104316 0.023885107
000100 d0 7e eb 3c af 61 1a 3d 1d 7b 02 bd 08 1c 54 bd
       0.028746992 0.037690815 -0.03185569 -0.051784545
000110 df 37 1f bc 59 54 e3 3c 3c 67 ab bc 4e af 98 3c
       -0.009717911 0.027750181 -0.02092325 0.01863828
000120 5f 17 d9 3b af e5 07 3c 0e c3 ed bc 5b bb 8e bb
       0.0066251005 0.008294507 -0.029023673 -0.0043558306
000130 28 5e 05 3c f7 83 63 3d 84 00 4e 3c 7b 3e 8f bb
       0.008140124 0.055545773 0.012573365 -0.004371462
000140 77 ab 63 bd 3f bf 12 bd de bf 6a 3b 40 7e 86 3d
       -0.055583443 -0.035826918 0.0035819928 0.06567049
000150 3d 8e 0d 3b 96 34 53 bc c3 c6 ca bc 26 c3 ab bb
       0.0021599673 -0.012890955 -0.02475298 -0.0052417694
000160 32 39 33 bb c0 31 a1 3d a2 22 a4 3c 07 1d 09 bd
       -0.0027347323 0.07870817 0.020036045 -0.03347495
000170 f3 58 88 bd b2 be 08 3c 15 2e 60 3d a4 12 5d bc
       -0.06657591 0.008346247 0.054731447 -0.013493214
000180 56 11 8e 3c de c4 61 bc 8c f4 52 bd 99 06 6d 3c
       0.01734225 -0.013779847 -0.05150275 0.014466905
000190 ab 8a d4 3c fa 93 db 3c af a0 fa bc 1a 3b 92 bc
       0.025945028 0.02680396 -0.030594198 -0.017850447
0001a0 59 94 11 bd 3c 96 35 bc 57 df 91 bc 97 4c 1f bc
       -0.035541866 -0.011083182 -0.017806692 -0.00972285
0001b0 1d 7c 0e bc f2 9f 12 3d 30 e9 df 3a 7a c1 02 3c
       -0.008696583 0.035797067 0.0017083045 0.007980699
0001c0 61 1e 92 bc 82 72 62 bb de 97 05 3b f6 24 66 3c
       -0.017836751 -0.0034553115 0.002038471 0.014046898
0001d0 1d 55 29 3c 69 1d fb bc ab 84 db 3c 11 1e 3c 3d
       0.010335234 -0.030653672 0.02679666 0.04592711
0001e0 82 c4 d2 bc cb a6 d5 b7 0b 06 f5 3c 0e 11 da 3c
       -0.025728468 -2.5469248e-05 0.029910108 0.02661946
0001f0 a0 4c 7a 3b 8e 74 71 3b 6d 36 57 bc 37 e7 f9 bb
       0.0038192645 0.0036843154 -0.013135535 -0.00762644
000200 09 14 79 bc 09 71 cb 3b 4f 85 0b 3d 70 db 1d bd
       -0.015202531 0.006208543 0.03406268 -0.03853935
000210 85 79 12 3c e6 b0 89 bc d4 84 08 bd 79 62 99 bc
       0.008940105 -0.016807985 -0.0333298 -0.018723713
000220 b3 f2 9f 39 7d d8 2a bd d0 54 1f bc 42 eb 2c bc
       0.00030507668 -0.041710366 -0.009724811 -0.010554137
000230 4d 6b 78 bc bb dd 84 bd de 9f 75 bd 6f 8b 8b 3c
       -0.015162301 -0.06487604 -0.059966914 0.01703426
000240 1c fe 87 3c 37 c1 26 bd 53 42 59 bc e1 b1 2b bd
       0.016600661 -0.040711608 -0.013260442 -0.041917685
000250 d0 89 30 bd 9f 7c 8c 3c 4a 0d 94 bc 04 bb 45 3c
       -0.04310018 0.017149268 -0.018072743 0.012068514
000260 cc 7e 0e bb 4d 1c 42 bc e0 75 37 bd e3 a9 e6 bc
       -0.0021743057 -0.011847568 -0.04479015 -0.02815718
000270 5a 0e 1a bd 9d 13 09 bd a5 a5 61 3c 25 96 f6 bc
       -0.037611343 -0.03346597 0.013772403 -0.030100891
000280 25 5d ba 3b 00 f4 29 bd c7 92 b0 bc fc 86 0c 3d
       0.005687373 -0.041492462 -0.021554364 0.03430842
000290 7b 8a 00 bd 0e 92 5a bd 48 f7 1f bd 77 79 27 bd
       -0.031382065 -0.053361945 -0.039054185 -0.040887322
0002a0 e9 8d 47 3b ea 1a 2e 3c 7f b4 d5 bc 19 38 28 bd
       0.0030449575 0.010626534 -0.026087044 -0.041069124
0002b0 e5 2f 16 bd b3 c4 e0 bc aa 3d 56 3b e7 b4 0c bc
       -0.03666677 -0.027437543 0.0032690563 -0.008588052
0002c0 83 28 02 bb 52 67 6b bd b2 24 86 bb a2 4b 63 3d
       -0.0019860573 -0.05747158 -0.00409373 0.05549205
0002d0 b8 39 91 3c 8d b5 81 ba 2e 1d 1b bd e7 03 2f 3c
       0.017727718 -0.0009896025 -0.037869625 0.010682083
0002e0 26 6b 39 3d 3c 8f 03 3d 2a 52 15 3d c0 3a 0b bc
       0.0452682 0.03211902 0.03645531 -0.008497894
0002f0 b7 b4 5a bd 30 c1 91 bc 73 22 2a 3d 38 04 a6 3d
       -0.053395 -0.017792314 0.04153676 0.081062734
000300 dc 32 61 3d bc 44 e8 bc eb 36 ef bc 48 cc 1e bd
       0.054980144 -0.028353088 -0.029200992 -0.038769037
000310 51 e5 7c 3b c1 f5 46 3d 6a 11 10 bc 89 dc aa bb
       0.0038588832 0.048574213 -0.008793214 -0.005214278
000320 ea 9b 74 3c b5 7f ee 3c f4 60 c8 3c 72 54 d5 3b
       0.014929751 0.02911363 0.024460293 0.006510311
000330 54 e9 9b bb f4 cc 39 bd e5 4f 92 bc 08 29 a3 3c
       -0.0047580395 -0.045361474 -0.017860362 0.019917026
000340 f8 e6 53 3a ae 15 84 3a fb 7e 47 bd 64 73 9e bb
       0.0008083428 0.0010077262 -0.048705082 -0.004835533
000350 90 e9 92 3c a8 b0 f4 3c 94 84 2b bd 92 85 51 bd
       0.017933637 0.029869393 -0.041874483 -0.051152773
000360 63 80 e9 3b c0 f2 79 3d c0 db a1 3d fb ab d9 3c
       0.0071259006 0.06102252 0.07903242 0.026571264
000370 89 97 c0 bc f6 6a 46 bd 76 34 8f 3c fb 94 98 3d
       -0.023509758 -0.04844185 0.01748107 0.07450291
000380 2c d0 09 3d 46 c7 64 3c 2b 15 05 bb af 7a f7 39
       0.033645794 0.013963526 -0.0020306807 0.00047202918
000390 62 d2 b8 3c 98 b2 71 3b 7f 4e f9 bb 01 45 33 bc
       0.022561256 0.0036880132 -0.0076082344 -0.010941745
0003a0 4d 35 9e bb a7 47 1b 3d 30 9d 43 3d f1 0f 2e 3d
       -0.0048281313 0.03791013 0.047757328 0.04249567
0003b0 ea a6 fa 3b 6a dc 2c bd 4b da 06 3b 71 67 12 3d
       0.0076492922 -0.04220239 0.002057689 0.03574318
0003c0 b4 da 34 bc 0d 9c 46 bc 58 67 6a bd 19 82 66 bc
       -0.011038471 -0.012122166 -0.057227463 -0.014069104
0003d0 a3 1a 39 bc 4e 9f f4 3c 71 1e e7 3c 52 05 24 bd
       -0.011297855 0.029861119 0.028212758 -0.040044136
0003e0 46 26 5b bd 07 57 39 bc 80 28 d2 bb 8e 6f ff bc
       -0.053503297 -0.011312253 -0.0064135194 -0.031181123
0003f0 49 94 cb 3b 23 7f 47 3d 0a 98 0d 3d c8 f0 52 bc
       0.0062127453 0.04870523 0.034568824 -0.01287479

bias f4 [32]
000000 c9 49 99 bd 36 76 de bd 3b 39 b3 bd b6 2a 8a bc
       -0.074847765 -0.10862391 -0.0875115 -0.01686607
000010 cc 8b 3d 3d e6 37 2b be 06 1d 04 be 8f 08 2f 3d
       0.0462759 -0.16720542 -0.12901697 0.04273277
000020 9d 9c f5 3a 0f 1d 77 bd 48 ea 1e 3d 17 30 9a bd
       0.0018738691 -0.060330447 0.038797647 -0.07528704
000030 16 39 48 bc 82 8c bc bd 18 c6 b5 bd 20 1c 7e bd
       -0.012220642 -0.09206487 -0.08875674 -0.06203854
000040 78 72 4d bd 00 ca 8f bd 81 7b 2d 3b 10 11 4a 3c
       -0.050157994 -0.0702095 0.002647132 0.01233317
000050 50 d6 81 3d 06 b8 26 bd 02 fd 34 bd fd 8d b5 bd
       0.06339705 -0.040702842 -0.0441866 -0.08864973
000060 05 83 1c 3d c1 c1 1e bd f2 16 04 3d 20 f5 70 bd
       0.038210887 -0.038758997 0.032248445 -0.05882752
000070 a5 b2 0f bd 65 1f 98 3d 0a 41 ae bd bf 8c b7 3c
       -0.035082478 0.07427863 -0.08508499 0.02240598

weight f4 [64, 32, 5, 5]
000000 51 0f 7f 39 6b 11 5c 3c 46 2f 13 bd 6f 05 d5 bc
       0.00024324401 0.013431887 -0.035933755 -0.026003568
000010 14 71 f7 3c ff 85 bd bc 5d a1 89 3c bf 29 31 bd
       0.030205287 -0.023135183 0.016800577 -0.043252703
000020 e8 f5 99 bc e2 55 d7 3c 17 52 52 bd 00 7c 39 bd
       -0.018794015 0.02628607 -0.05134782 -0.04528427
000030 5e 8e 32 bd 26 a2 29 bd 7c 1c df 3b 3d 9e 7e bc
       -0.043592803 -0.041414402 0.0068088155 -0.015540657
000040 26 b5 de 3a 9b 60 c2 bc e3 2f 29 3c 02 e9 dc 3b
       0.0016991242 -0.023727706 0.0103263585 0.006741644
000050 6c 91 12 bd 3d fb b4 bc bb 3d 5d ba 6a 8e e8 bc
       -0.035783216 -0.022092456 -0.00084396795 -0.02838822
000060 fb 5d 3d 3c c2 dc af 3b 24 c6 35 bd 4f 71 60 3b
       0.011558051 0.0053668926 -0.044378415 0.0034247225
000070 8e 3b 72 3c b3 04 b5 3c b4 9f 91 bc ae 76 01 bd
       0.014784707 0.022096967 -0.017776348 -0.031607322
000080 b7 91 10 bd 21 ef 1b 3d df 58 91 3c b3 bf 03 bc
       -0.035295215 0.038069848 0.017742572 -0.00804131
000090 a6 64 2a b6 10 8f 5f 3c 8d 2f 89 3c 26 d3 5a 3d
       -2.539056e-06 0.013644949 0.016746307 0.053424023
0000a0 bb a6 fd bc 07 b8 54 bd e6 1b 03 bd 04 49 90 bc
       -0.030963292 -0.051933315 -0.032009028 -0.017612942
0000b0 b0 8d 83 3c 50 52 f3 3c 71 b9 23 3c 4f ca da 3b
       0.016058773 0.029702336 0.009992943 0.006676949
0000c0 27 cb e6 3c 80 b1 3d bc 56 7d f6 bc c6 54 3e bc
       0.028173042 -0.011577964 -0.030089062 -0.011616891
0000d0 10 03 28 bd 1a 7d c8 3b b6 a4 1b bc 35 0e 17 3d
       -0.041018546 0.006118429 -0.009499719 0.036878783
0000e0 72 84 1f bd f1 c9 b9 bc c4 b5 b3 3b 88 b6 27 3b
       -0.03894467 -0.022679301 0.0054843146 0.0025590975
0000f0 a4 09 fc bc 1b 49 d6 bc 49 2c 24 ba 10 14 00 3d
       -0.030766316 -0.026157906 -0.00062627025 0.031269133
000100 ff dc 36 3d 73 25 48 ba 5a 34 db bc 80 80 0c bc
       0.044644352 -0.0007634975 -0.026758362 -0.008575559
000110 2e c5 38 3d 38 2e ed 3c 88 d2 db bc f4 65 6d 3b
       0.04510992 0.028952703 -0.026833788 0.00362241
000120 c1 07 0c 3d f8 9a 15 bc 61 72 c7 bc 8a 2a 67 3c
       0.034187082 -0.009131186 -0.024346532 0.014109263
000130 9b 48 33 3c 4b 5b 7c bd 36 5f 6e 3c b6 4f 8f 3c
       0.010942603 -0.0616105 0.014549067 0.017494064
000140 7f 38 12 3d 55 4a 70 bc 16 12 6a bd 68 bb 77 bb
       0.03569841 -0.01466616 -0.057146154 -0.0037800912
000150 c1 26 2d bc 54 b7 f2 3c a0 93 52 bd 0c 73 2f bd
       -0.010568322 0.029628433 -0.051410317 -0.042834327
000160 b5 0d a9 3c 7f 6f 0c 3d d9 95 25 bd 88 38 d1 bc
       0.020636419 0.03428602 -0.04042611 -0.025539652
000170 3b 36 42 bd 6b cd fc bc 92 d5 09 bc 45 2a df 3c
       -0.047415 -0.03085967 -0.008412736 0.027241835
000180 02 30 99 bc 25 76 60 3c 8e 3c 16 3d c9 c0 93 bc
       -0.01869965 0.013700043 0.036678843 -0.018036263
000190 ea 9d ee bc 4a 7b 6a bc df 3d bd 3c de 6f 00 3d
       -0.029128034 -0.014311621 0.023100791 0.031356685
0001a0 40 91 54 3c 1f 1c 98 3b 17 0a ae ba 1b 37 af 3b
       0.012974083 0.004642024 -0.0013278153 0.0053471453
0001b0 c5 7f c4 bb 74 a3 67 bc a6 b3 65 bc 40 62 c4 3c
       -0.0059966766 -0.014138091 -0.014019882 0.02397263
0001c0 39 bc c8 b9 ad 6e 1c 3d 0c 4c 1a 3c 31 53 8f bb
       -0.0003828721 0.038191486 0.009417545 -0.004373931
0001d0 86 47 b8 bc e6 46 1d 3c 1d 2e 5b bc 96 4a c9 bc
       -0.022495043 0.009599423 -0.0133776935 -0.024571698
0001e0 c9 39 e0 3c 93 59 1e 3d 50 02 b2 bb ab f7 6e 3c
       0.027371304 0.038659643 -0.0054324046 0.014585416
0001f0 24 ba 19 3c 31 6b f3 bc df 6a 43 bd 45 cc 9f 3b
       0.009382758 -0.029714199 -0.047709342 0.0048766457
000200 9e bd 8c 3c 1c 98 1a 3b 16 6d be bc 99 89 d3 3c
       0.01718026 0.00235892 -0.023245376 0.025822448
000210 3a 62 40 3c 65 3d a8 3c a6 58 d8 3c 13 f0 84 3c
       0.011742169 0.020537088 0.026409458 0.016227758
000220 78 c1 88 bc 93 13 af 3b ea 4f 51 3d 37 ac 86 3c
       -0.016693816 0.0053429096 0.051101603 0.01643954
000230 c1 fe 86 bb 5c c3 7a 3c d5 3a 95 3c fd f8 d5 3a
       -0.0041197245 0.015305366 0.01821653 0.0016324815
000240 76 4b c0 3c 48 b0 a0 3c 3a 21 a9 bc 51 19 01 3d
       0.023473483 0.019615307 -0.020645726 0.031518284
000250 95 1c 22 3c e2 dd 16 3d 67 02 b8 bb 25 72 10 3d
       0.00989451 0.036832698 -0.0056155208 0.035265107
000260 c5 0d c6 bb 02 a0 bd 3c 50 3a d6 3b a7 66 f3 3b
       -0.006044122 0.023147587 0.006537713 0.0074280086
000270 98 ed 18 3b f1 a0 6b bc 4c 60 22 3c 22 fd 0b 3d
       0.0023334976 -0.014381633 0.009910654 0.034176953
000280 25 4b cd bc 15 5a b2 3b 6c 53 fd 3b 61 d9 23 3d
       -0.025060246 0.0054428675 0.007730892 0.04000223
000290 aa 6b c2 3c 3d da 55 bb 44 f5 32 bc 22 e7 0f bd
       0.023732979 -0.00326313 -0.010922734 -0.035132535
0002a0 9c f6 6b 39 af 1a 85 bb 6f 4f bf 3c de 1a 02 3c
       0.00022503216 -0.004062019 0.023353307 0.007940976
0002b0 a6 a8 a4 3c ce 7e 17 3d 5e a1 49 3d ab a0 44 bc
       0.02009995 0.036986165 0.049226157 -0.012001197
0002c0 85 42 ee 3b 6f 41 67 3c 36 e4 ee bc 8b 97 ae bc
       0.0072711133 0.014114722 -0.029161554 -0.021312496
0002d0 b5 7f 4d bd 9d b0 7f bc 35 a0 fb 3c f1 6d ca 3a
       -0.05017062 -0.015606073 0.030716041 0.0015444142
0002e0 5a 13 10 bc 6c f4 d9 bc 23 77 93 bb 4a 94 fd bc
       -0.008793676 -0.026605807 -0.004500286 -0.030954499
0002f0 2c 94 6b bc 8d f6 c3 3c f0 31 8d 3c 05 21 d7 3c
       -0.014378589 0.023921276 0.017235726 0.026260862
000300 ca 64 1c 3d ae 5d ca bc b6 71 96 3c dc 41 c6 bb
       0.038182057 -0.024702873 0.018364768 -0.0060503315
000310 15 c1 5b 3c e0 2d 13 bb 0b d7 f3 3b 8a 13 d7 3c
       0.013412734 -0.0022457764 0.0074414066 0.026254434
000320 e6 73 88 3c 45 6d 3e 3d e7 0f 42 3c 5e 96 80 bc
       0.016656827 0.046490926 0.011844612 -0.0156967
000330 2f 5e 22 bd 8f ee 28 3b 5f 57 e3 3c 6e eb e9 bc
       -0.0396406 0.0025776958 0.027751623 -0.028554644
000340 a3 e7 e4 bc 5f 27 b6 bc 23 cd b0 ba 0c a3 fd 3c
       -0.027942484 -0.02223557 -0.001348887 0.030961536
000350 b4 69 1f bd aa 97 1d bc 03 a1 f0 bc 63 69 6a bc
       -0.038919166 -0.009618679 -0.029373651 -0.014307353
000360 ad 4c 8b 3d f8 04 22 3d ca fd 31 3b 15 04 a8 3c
       0.06801734 0.03955552 0.0027159327 0.020509759
000370 db 33 7b bc 6e 4e 10 3d 47 13 92 3c 4e ef a1 bc
       -0.0153321875 0.035231046 0.017831458 -0.01976743
000380 20 ef b3 3b ba 1c 5c 3c 56 24 f6 3c 12 3c 76 3c
       0.0054911524 0.013434583 0.030046623 0.01502897
000390 f3 90 cf 3c 7c a9 e3 3c ee b3 81 b8 97 0a fb 3c
       0.025337672 0.027790777 -6.184714e-05 0.030644698
0003a0 17 ef fa 3b c9 ce c7 bc f4 a1 c1 3c c9 12 f2 3c
       0.0076578963 -0.024390595 0.023636796 0.029549973
0003b0 a0 76 10 bd 61 6e 30 bd 04 2a 47 bd 91 8e 20 bd
       -0.03526938 -0.043074016 -0.048624054 -0.039198462
0003c0 71 55 88 bc 58 64 d9 3c 8a ac 4b 3d 26 2a 58 3d
       -0.016642304 0.026537105 0.049725093 0.05277457
0003d0 be 7b 91 bc 36 e0 8d 3c 1f 26 ee bb f0 c5 83 bb
       -0.0177592 0.017318826 -0.007267728 -0.0040213987
0003e0 7c cd 0f bd 1b f9 21 bc 49 8b 01 bd 4b 15 09 bd
       -0.035108075 -0.0098860515 -0.031626973 -0.033467572
0003f0 88 36 44 bd b1 12 09 3d 9e df c6 bc 63 12 ae bc
       -0.047903568 0.03346509 -0.02427655 -0.021249002

bias f4 [64]
000000 68 57 35 bd 10 9b 92 bd 54 50 96 bd cb 42 71 bb
       -0.04427281 -0.07158482 -0.0733954 -0.0036813493
000010 32 65 81 bb 24 aa 71 bd 1a a2 c2 bc 4b aa 22 3c
       -0.003948831 -0.05900015 -0.023758937 0.009928296
000020 f9 c4 df bc fc 8c a7 bc b0 b0 84 bd 7b 5d 35 bd
       -0.027315604 -0.020452969 -0.06479013 -0.044278603
000030 ec c8 1a bd e1 e9 fe bc eb 7e 54 bd 4a 42 8a 3a
       -0.03778927 -0.031117382 -0.05187885 0.001054832
000040 6e fa 58 bd 15 cf 29 bd f4 fe 46 bd ae c3 21 bd
       -0.052973203 -0.041457254 -0.048582986 -0.039493255
000050 91 ae 19 bd cf d9 5e bb 8d ee 9a bc f6 10 99 bd
       -0.037519995 -0.0034004336 -0.018912578 -0.07473938
000060 eb 63 3f bd 7a 26 b6 bb 7a 11 45 bd 21 57 1d bc
       -0.04672615 -0.005558786 -0.04811237 -0.009603293
000070 63 23 03 bd 4d 0f 3f bd 99 ad 03 bc e9 bd 6a bb
       -0.03201617 -0.04664545 -0.008036994 -0.0035818762
000080 c8 f4 7c 3c 0d 69 5d bc 75 48 49 bd 2e d6 33 bc
       0.01543922 -0.013513816 -0.049141366 -0.010976357
000090 d1 39 d2 ba 65 44 7f bd 81 25 67 bd a6 a1 af bd
       -0.0016038959 -0.062321085 -0.05643225 -0.08575754
0000a0 8d c1 4b bd 78 5a 2a bd 03 07 5c 3d 88 40 26 ba
       -0.04974513 -0.041590184 0.053717624 -0.00063420134
0000b0 fd cd fc bc 1e b2 1e bc f3 54 a2 bc d5 fa 6a bd
       -0.030859942 -0.009686021 -0.019815898 -0.05736812
0000c0 0c ff 4f bc 65 ce 74 bb 3c 27 98 bd ab 99 75 bd
       -0.012695085 -0.0037354466 -0.07429358 -0.059961002
0000d0 93 90 1b bd 10 6f 9e bd 68 5c b3 3c aa be 00 3d
       -0.037979674 -0.07736027 0.021894649 0.03143183
0000e0 52 03 15 3d 14 60 88 bd 77 ba 1d 3d 58 c9 90 bd
       0.03638012 -0.066589504 0.038507905 -0.07069653
0000f0 07 a3 51 bd 01 ed 50 3a 62 6b 94 ba e5 48 32 3c
       -0.051180866 0.00079698866 -0.0011323506 0.010881637

weight f4 [64, 1024]
000000 a8 6f 53 bd ab 27 0b 3c fd d3 8b 3c 5a ae 51 3c
       -0.051620156 0.008493344 0.017068857 0.012797916
000010 ec fa 4b bb 51 84 c5 3c c9 b2 89 3c 08 21 af bc
       -0.0031124903 0.024110945 0.016808884 -0.021378055
000020 2c 09 7b bc 78 c6 02 bc 76 a9 14 3d 83 a6 18 bc
       -0.015322011 -0.007981889 0.036294423 -0.009317043
000030 cf fb cf bc 03 0d 65 bd 5c 02 1f b9 33 f9 09 bd
       -0.025388626 -0.055920612 -0.000151643 -0.03368492
000040 8b 12 c3 bb 58 1a c8 3c dd 9b a5 bc 7e a3 9d b9
       -0.005953138 0.024426624 -0.020215923 -0.00030067185
000050 11 d1 60 3b 8f 61 0a bc 0a eb 02 bc 54 eb 11 bc
       0.00343043 -0.008446111 -0.007990608 -0.008906204
000060 b9 34 71 bc 5a bf ad 3c 56 0e f1 bc 1e 67 49 3d
       -0.014722043 0.021209408 -0.029425781 0.049170606
000070 cc d3 83 3c e5 40 5f ba 4b 59 69 3b c1 9a 9c bc
       0.016092204 -0.0008516445 0.0035606201 -0.019116761
000080 f5 05 08 3c 2c dd 87 bb 54 22 e0 bc 80 bb 43 bc
       0.0083022015 -0.004146239 -0.027360119 -0.011946559
000090 f2 e2 9d bc 93 03 ba 3c 6b d5 82 3c 90 4b cb 3c
       -0.019273255 0.022706782 0.015970906 0.024816304
0000a0 cf 0d 8e bc 46 f6 12 bd bd 01 fb bc 30 84 7c bc
       -0.017340569 -0.035879396 -0.030640477 -0.015412375
0000b0 70 c9 fa 3b b9 06 c6 3c 9d c4 11 3c ad 05 8d bc
       0.0076534078 0.024173127 0.008896974 -0.01721462
0000c0 88 77 b1 bc 43 22 e3 bc 84 a7 64 bc 2c 2d db bc
       -0.021663442 -0.027726298 -0.013955954 -0.026754938
0000d0 15 65 e1 bc 65 ae a9 3a 9a 55 c7 3c 7a 3b 37 bb
       -0.02751402 0.001294565 0.02433281 -0.0027959035
0000e0 aa 88 ab bc 36 a9 91 3c 29 0d bf 3c 32 b0 00 3d
       -0.02093919 0.017780881 0.023321705 0.031418033
0000f0 56 88 1b 3c 53 73 08 3d 12 5a 60 3d 91 13 fe 3c
       0.009492954 0.033313107 0.054773398 0.03101519
000100 5f 40 8c 3c fe 60 00 bc cb 71 52 3c 5c 09 07 3d
       0.017120538 -0.007835625 0.012844513 0.03296791
000110 35 f1 ae bc af 3a 74 bc 8c 6c 8a 3c 6d db 34 3d
       -0.02135525 -0.014906569 0.016897462 0.044154573
000120 fd f1 a8 3b ce 7a 32 3d 13 0a b7 3b a2 40 6d 3b
       0.0051558004 0.043574147 0.0055859177 0.0036201854
000130 c3 ab a8 bc 19 76 a5 3c 82 2c 91 bc 52 de 60 3c
       -0.020589715 0.020197915 -0.017721418 0.01372488
000140 79 31 71 bc 9b fa a2 3c e2 af 02 3c 8e 0f 84 bc
       -0.014721268 0.019894889 0.007976504 -0.016120698
000150 d1 36 a3 bc a6 9d 3b 3c 2f 6c 87 3c f1 db 2d 3c
       -0.0199236 0.011451161 0.016531078 0.01061152
000160 b2 3b 7d bb f3 84 0b 3d 33 24 cd bb c3 df 2b bc
       -0.0038640318 0.034062337 -0.006260419 -0.010490361
000170 09 85 24 3d 09 df b9 3c ad 82 d9 3c 73 18 a6 3c
       0.040165935 0.02268936 0.026551569 0.02027533
000180 38 62 56 bc 7f 74 aa bc 92 07 67 bc e6 70 9c 3c
       -0.013084941 -0.020807503 -0.014100926 0.019096803
000190 5a e9 cd ba b7 6f 39 bc aa 5c 91 bc c2 7e d9 bc
       -0.0015709803 -0.011318139 -0.017744381 -0.0265497
0001a0 ef 89 1b 3d 1b 72 2b 3d 66 f0 60 bc d1 00 43 3d
       0.03797334 0.041856866 -0.01372919 0.0476082
0001b0 55 2c 76 bc 81 ca 7a 3c 8c 75 01 3d ee 29 6e 3b
       -0.015025218 0.01530707 0.031606242 0.003634091
0001c0 13 8c 30 3c f0 9f 45 bd 13 e3 3b b9 07 d7 32 3d
       0.010775584 -0.04824823 -0.00017918301 0.043662097
0001d0 4a 2a f9 3c 20 b1 02 bc 7e f3 1f 3d 40 03 e5 3c
       0.030415673 -0.0079768 0.03905057 0.027955651
0001e0 9d 40 cc ba 94 29 a8 bc 23 08 40 3d 43 b2 2f 3d
       -0.0015583221 -0.020527638 0.04688276 0.042894613
0001f0 51 67 57 3d 7a 98 00 bc 66 69 2e bc 83 d8 8a 3c
       0.052588765 -0.007848853 -0.010645246 0.016948944
000200 14 17 88 bc fe bf f4 ba 65 6c 97 3c 49 62 2d bc
       -0.016612567 -0.0018672941 0.018484304 -0.010582515
000210 4d 9b e6 3c 87 03 75 3b 00 04 4f 3d 37 7d 25 3d
       0.028150225 0.0037386136 0.050540924 0.040402617
000220 20 bd 27 3d c5 d0 4f 3d 06 54 d6 3c aa 6e 2f 3d
       0.040951848 0.050736208 0.026163112 0.042830147
000230 b0 34 8a bc 09 91 82 bb 98 5b d3 bb 84 9a bd bc
       -0.016870826 -0.0039845747 -0.006450128 -0.023144968
000240 40 7c 86 3c eb 4a 14 bc a3 b1 65 3c bb 38 fd bb
       0.016416669 -0.009051065 0.014019403 -0.00772771
000250 5c cf ea 3c a9 40 0a 3d 02 9b 5e 3d bb 3e fc 3c
       0.02866333 0.03375307 0.054347046 0.030791631
000260 c1 81 97 3c c8 4a 8b 3d 50 09 0a 3d 70 02 e0 39
       0.018494489 0.06801373 0.033700287 0.00042726425
000270 04 34 ec bc f9 e6 89 bc ea 09 c0 bc 30 f4 87 bc
       -0.028833397 -0.01683377 -0.023442227 -0.01659593
000280 5a cb f2 3c fb 7a a2 bb c4 4e be bc fa 0a 96 bb
       0.029637981 -0.004958508 -0.023230918 -0.004578945
000290 58 2b 1d 3d eb c5 84 3a 9d 0a fd b9 49 9a 74 3d
       0.038371414 0.0010129785 -0.00048263828 0.05971745
0002a0 26 3e 04 3d 7c d2 cf bc e0 34 83 3c 38 1c 00 3d
       0.032285832 -0.025368921 0.016016424 0.03127691
0002b0 36 ba dc bc ca 84 de bc 56 41 d3 3b 94 ec 93 3c
       -0.026944261 -0.027162928 0.0064469976 0.018057145
0002c0 d1 ef b6 3c 7d 34 f4 3b 98 5a e6 bc fb 6e 11 bc
       0.02233115 0.007452546 -0.02811937 -0.008876557
0002d0 4f 79 6e bc 38 05 4d 3b 99 8e 5a bc 18 d3 81 bc
       -0.014555289 0.0031283628 -0.013339662 -0.015847728
0002e0 bf b2 51 bc 67 8a 24 3c 8b 22 08 bd 23 2d 21 3c
       -0.012798964 0.010042763 -0.033236068 0.009837422
0002f0 14 94 b8 3b 86 40 a9 3c 2f 5d 2c 3d 6c 40 81 3c
       0.0056328867 0.02066065 0.042081054 0.015777789
000300 1f bc 13 3c aa 11 37 bd bf 99 d9 3b 39 b0 3f bc
       0.0090170195 -0.04469458 0.0066406424 -0.01169973
000310 06 04 9c 3c 6e b5 0e bd 91 e3 ac bc 23 b8 f2 39
       0.019044887 -0.034840994 -0.021104606 0.0004629503
000320 ef 69 55 3b bd 4a d1 bc 13 9f f3 3c f0 9c 05 3c
       0.0032564362 -0.025548333 0.029738938 0.008155093
000330 8f 5e 3a 3d 41 e4 34 bc 53 54 4d bc e8 74 01 bd
       0.045500334 -0.011040748 -0.0125323115 -0.03160563
000340 ca 46 14 3c b1 75 5d bc 3b 4b 6c bc 1d 29 6d 3c
       0.009050081 -0.013516829 -0.014422233 0.014475134
000350 7e 8f 30 bb bb bc 9a 3c ba 8d 0f 3d d5 05 45 3c
       -0.0026940997 0.018888822 0.03504727 0.012025316
000360 2b 36 23 3c 01 13 b7 3c 81 d6 11 3c f0 83 42 3d
       0.009961645 0.022347929 0.008901239 0.047489107
000370 44 a3 17 bd 05 2e e5 bc 86 0a 00 bc b8 ea cb bb
       -0.037020937 -0.027976045 -0.007815009 -0.006223049
000380 20 49 58 3c b1 8c 6b 3b fd ae 2a 3d f6 97 1e bb
       0.013201028 0.0035942013 0.041670788 -0.0024199462
000390 22 a8 c6 3c 65 c0 62 3c 56 3e 8d b9 2c 48 b0 3c
       0.024250094 0.013839816 -0.0002694006 0.02151879
0003a0 65 1f a3 3b fb 6b 10 bd 27 6f 42 3c dc 71 32 bd
       0.0049781078 -0.03525923 0.011867321 -0.043565616
0003b0 cf 7f 04 3c c2 41 8c bc f4 4b ae 3c 25 c6 51 3c
       0.008087113 -0.0171212 0.021276452 0.012803589
0003c0 51 33 b9 3b 0d b7 a6 3c 8d 14 e5 3c 4f 5c 96 bc
       0.0056518693 0.020350957 0.027963901 -0.018354563
0003d0 78 a1 95 bc 70 bf bf bc 54 51 d7 3b 94 d6 e3 3b
       -0.01826547 -0.023406714 0.0065709744 0.00695307
0003e0 d0 b5 b2 3c 4a b7 f4 bc 11 0b c0 3c f3 87 9c 3b
       0.02181521 -0.029872555 0.023442777 0.0047769486
0003f0 3e 15 1c 3c d7 d6 fc 3a 75 b8 6f bb 17 ee 11 bc
       0.009526549 0.0019290101 -0.003657845 -0.008906863

bias f4 [64]
000000 e9 b0 a4 bc 5a d2 e2 3a 66 04 bc bc b8 3c 35 3c
       -0.020103889 0.0017305121 -0.022951316 0.01106184
000010 1f 27 0f bc 4d aa 1e 3d 31 a4 a2 bc 3a 2f a4 bc
       -0.008737355 0.03873663 -0.019853683 -0.02004205
000020 f6 ef 89 bb 21 9c 31 bc 14 66 c4 bc b6 ce 37 bd
       -0.004209514 -0.010840447 -0.023974456 -0.04487487
000030 dd cf 45 3c 25 f5 36 3d 19 80 a0 3b e0 83 d0 bb
       0.012073484 0.04466738 0.004898083 -0.006363377
000040 ac b5 a4 3c 6b df 94 3c 4c 3a c0 bc 79 ea 02 3d
       0.02010616 0.01817294 -0.023465298 0.03196189
000050 d8 8d 2a bd 62 a3 88 3c 18 89 a1 3c 7b d6 e3 bc
       -0.04163918 0.01667947 0.019718692 -0.027812233
000060 b8 ed 07 3d d8 71 f5 bc 8a 1f 96 39 90 28 b8 bc
       0.03318569 -0.029961511 0.00028633728 -0.02248028
000070 dc b3 84 3d d7 ee cd 3c 51 fd e3 bc a7 f9 8e 3c
       0.06479618 0.025138302 -0.027830752 0.017453028
000080 22 c1 1d bd bb d6 1c 3d f6 6f 0c bc 6c d2 3a bd
       -0.038514264 0.03829072 -0.008571615 -0.04561083
000090 b2 25 91 bc 17 f9 d4 3c 15 d4 40 bd 00 ed 36 bd
       -0.01771817 0.025997682 -0.047077257 -0.044659615
0000a0 28 78 48 bd 34 23 59 bc 15 9c eb bc ce e3 0e bd
       -0.048942715 -0.013253022 -0.02876095 -0.03488522
0000b0 b5 9f 9b 3c 4f 7f a9 bb ca 79 05 bb 6e dd e6 bc
       0.018997053 -0.005172647 -0.0020366781 -0.028181758
0000c0 b6 e2 f3 bc ec f2 ea bc d7 f9 df 3c 32 f2 72 3d
       -0.02977119 -0.028680287 0.027340813 0.059313007
0000d0 51 68 6c 3c 96 ad c5 39 bd 45 b4 bb 74 4d 7b bb
       0.014429168 0.000377041 -0.0055014775 -0.0038345726
0000e0 63 a5 46 bb 67 5c 26 bd f3 86 3a bd 33 d7 7f 3c
       -0.003031098 -0.040615465 -0.045538854 0.015615272
0000f0 bb 7c f5 3c f3 e4 3a bd e1 b5 a3 3c 25 95 e3 3c
       0.029966703 -0.0456285 0.019984188 0.027781079

weight f4 [10, 64]
000000 cc c5 a0 3c 41 c6 31 3e 3e 87 dd bd e3 f1 bb bc
       0.019625567 0.17360784 -0.10816811 -0.022942489
000010 6c cc 23 be a7 c2 2d be 6e 35 aa 3d b8 b2 32 3e
       -0.1599595 -0.16968785 0.08310972 0.17450988
000020 0f bd 35 3e f1 2f 1c 3d d0 e3 3b be fb f6 19 3e
       0.17747901 0.038131658 -0.18348622 0.15035622
000030 64 6f 4a bd 02 f7 e0 3c 3d a6 64 be 6e a1 36 3e
       -0.049422637 0.027461533 -0.2232904 0.17835018
000040 e6 0c 21 3e fb 5c 5b be 7a 0c 2c 3e 6c 88 0d be
       0.15727577 -0.21422188 0.16801634 -0.13821572
000050 61 f6 9f 3b 7e cd 22 be 80 61 97 bb b2 56 13 3e
       0.0048816656 -0.15898702 -0.004619777 0.1438854
000060 37 d1 fe bd 43 95 34 bd 6f 8a 0e be cf 60 df bd
       -0.12442248 -0.04408766 -0.13919996 -0.10907137
000070 97 37 20 be c6 ec 50 bc 02 59 51 bd 69 48 6a 3c
       -0.15646206 -0.012751764 -0.051110275 0.0142994905
000080 2e 71 61 3e 3c a7 31 be 67 ea 95 bd 6a 79 b3 3c
       0.22015831 -0.17348951 -0.07320099 0.02190848
000090 f8 fc 08 be 03 b7 a2 bd 37 ee 5c 3e 2e de 28 be
       -0.1337775 -0.07945063 0.21575247 -0.16491005
0000a0 4c 75 4c 3e 50 8a 9f bd c9 18 ae 3d b6 42 01 3e
       0.1996662 -0.07790053 0.08500821 0.12623104
0000b0 66 c0 95 3c fc 68 33 be 37 e4 8b 3d fa 98 aa bd
       0.01828022 -0.17520517 0.06830638 -0.08329959
0000c0 5d f4 50 3e 13 6b 76 3a b4 d6 35 be e3 ca a4 bd
       0.20405717 0.00094001106 -0.17757684 -0.0804651
0000d0 98 69 b2 3d e7 4b ed bc 50 86 d6 3d 27 77 2d 3d
       0.08711547 -0.028966857 0.10474837 0.04234996
0000e0 bd 81 d6 3c a8 38 6b 3e c2 b3 d6 3d a1 f6 65 be
       0.02618491 0.22970831 0.10483505 -0.22457363
0000f0 38 f9 d1 bd 63 30 47 bc a8 2a cf bd 30 74 3d 3d
       -0.10252613 -0.012157532 -0.10115558 0.046253383
000100 ca 60 f3 3d 39 49 13 bd 7e 47 f6 3d c6 14 3e be
       0.118836954 -0.035958502 0.12025355 -0.18562612
000110 7c d7 24 bc d8 95 4e 3d 57 76 68 bd 8b 41 4f be
       -0.010061141 0.05043587 -0.056753483 -0.20239846
000120 92 40 3a be 60 8d 83 bc e2 ab 5a be cf d8 fb bd
       -0.18188694 -0.016058624 -0.2135463 -0.12297212
000130 a0 71 9a bd 3b 9e 0c be ee ad 61 3e 5a 86 87 bd
       -0.075412035 -0.13732235 0.22039005 -0.066174224
000140 21 14 a5 bd 95 eb 5f 3e 72 ee 83 3d 71 cd 17 be
       -0.0806048 0.21867211 0.06441964 -0.14824463
000150 ca 37 09 be fa cd f5 bd 41 6e 01 bd 0e b4 2d 3e
       -0.13400188 -0.120021775 -0.031599287 0.16963217
000160 0e 8c a9 3e 3b 47 58 3e c5 e2 23 3e b9 67 15 3d
       0.33114666 0.21120922 0.16004474 0.03647587
000170 76 17 7a be 0e 4f 17 be 03 6a aa bd a5 6e 1b 3e
       -0.24423012 -0.1477625 -0.083210014 0.15178926
000180 59 f1 3e 3e 1f 57 8d 3d 4b 3b 93 bd 16 11 4c be
       0.18646754 0.06901383 -0.071890436 -0.19928393
000190 a9 63 b0 bd d5 6e e0 3d d6 4f 2f be 7c dd e6 bd
       -0.08612759 0.109586395 -0.17120299 -0.112727135
0001a0 82 cb ca 3d 32 8a 08 bd dc 96 ed 3c 96 6f 0c 3d
       0.09902097 -0.03333492 0.0290026 0.034286104
0001b0 f0 ec 44 be 2a cf 51 be 58 0e 9f bd 80 f4 60 3e
       -0.1923101 -0.20489183 -0.07766408 0.2196827
0001c0 f6 49 c6 bc 59 4c 17 3e a0 c5 16 be fd a3 3a be
       -0.02420519 0.14775218 -0.14723825 -0.18226619
0001d0 79 35 90 be 60 8a 2c 3e 52 96 fb bd 1e 71 ae bd
       -0.28165796 0.16849661 -0.12284531 -0.08517669
0001e0 a5 ee 92 3e e6 5f 02 3e 04 4c 15 3c 87 e7 84 3e
       0.28697696 0.12731895 0.009112362 0.2595789
0001f0 6f 56 9c be e3 49 eb bd 4b 20 63 be 83 0c 2f be
       -0.30534694 -0.11488702 -0.22180288 -0.17094617
000200 f2 66 84 be 4c ce 48 bb e6 e2 81 be 1e 54 08 3e
       -0.2585979 -0.003064054 -0.25368422 0.13313338
000210 8a c3 8b bd 98 61 c0 bd cf 4d 66 3d b7 29 37 bd
       -0.068244055 -0.093936145 0.056226548 -0.044717517
000220 f9 4c 03 3c 3f 59 c1 bd 5e b2 10 3e 3d bb 40 be
       0.008013957 -0.094408505 0.14130542 -0.18821426
000230 63 7c c9 3c d3 ba f0 39 1a 1a 6e be 1a 3a 32 3e
       0.024595445 0.00045915562 -0.23252144 0.17404976
000240 45 d0 66 bd 8d b1 f6 bd 34 2a 00 be f8 d2 87 3d
       -0.056350965 -0.12045584 -0.12516099 0.06632036
000250 01 6d 11 3d 63 c7 9e 3d bf 57 06 be 54 07 53 be
       0.035504345 0.07752874 -0.1311941 -0.20608264
000260 e4 af 14 bc e9 b4 52 3d 3d 70 f5 bd 99 8a a3 3d
       -0.009075139 0.05144206 -0.119842984 0.0798542
000270 bd 6b 14 be 7d 32 31 3e 07 36 36 bd 35 00 21 3e
       -0.14494224 0.17304416 -0.04448512 0.15722735
000280 bd 1d 3a 3e 70 1d 94 3d 8f 57 17 be e7 2f 89 bc
       0.18175407 0.07232177 -0.14779495 -0.016746474
000290 2e ac 49 3e c9 c9 98 3d e6 0e 05 3e 79 16 7c be
       0.19694588 0.074603625 0.12993965 -0.24617948
0002a0 4d 96 9b 3d 72 a8 9d 3d 5e b0 27 3d 85 9f 15 3d
       0.07597027 0.07698144 0.04093968 0.036529083
0002b0 77 9b 08 3e 65 79 3a 3e a2 ac 96 3e f0 1e 0b bc
       0.13340555 0.18210371 0.29428583 -0.008491263
0002c0 a9 ae a4 3d e3 83 52 3e 0e 07 5e 3e 28 6d f9 3d
       0.08041126 0.20558123 0.21682379 0.12179023
0002d0 e4 23 b2 bd f1 6b 0d 3e 7c e8 eb 3d f9 77 e3 3d
       -0.08698252 0.13810708 0.11518952 0.11106867
0002e0 eb 8f f4 3c 8c bf 01 be d2 02 44 bd 0a fd 2d be
       0.029853782 -0.12670726 -0.047854252 -0.16991058
0002f0 96 1d 7b 3e 07 41 35 3d 83 e8 85 3d 82 86 1a bd
       0.24523005 0.044251468 0.06538489 -0.037725933
000300 fe b5 e0 bd 45 25 f3 3d dd 31 38 be 9e b1 00 be
       -0.10972212 0.11872343 -0.17987771 -0.12567756
000310 00 d4 8e bd eb 9e fe 3d 67 08 cb bb 73 5e 9c bc
       -0.069740295 0.12432655 -0.00619607 -0.019088006
000320 a1 6d f7 bd ab 2d f9 3d 29 f4 ef 3d c2 15 a8 39
       -0.12081457 0.121669136 0.11716492 0.00032059668
000330 5a 75 ea 3d be b9 23 be c2 71 33 3e 17 0f a7 bd
       0.11448164 -0.15988824 0.17523864 -0.08157175
000340 21 4f e0 3d 2d c4 06 3e a2 1e 60 bd cb dd fa bb
       0.10952593 0.13160773 -0.054716714 -0.0076558343
000350 e4 48 5c 3c bc a0 af 3d f3 8b 25 3e f3 25 bb 3b
       0.013445113 0.085755795 0.16166668 0.005711311
000360 8b 03 6a bd 2a 10 31 bd 7c 49 e4 bd b3 14 1d be
       -0.057132285 -0.043228306 -0.111468285 -0.15339927
000370 61 67 77 3d 58 8b 6e 3d cd b5 43 3e 95 7e 3f bd
       0.060401324 0.058238357 0.1911232 -0.046751577
000380 e7 d6 98 bd ae fa e1 3c 86 54 ab 3d ac 4a 8c bd
       -0.07462864 0.027585354 0.08365731 -0.0685018
000390 5c c1 f5 3d e6 c8 9b 3c ea 76 a0 3d 92 ea 80 3d
       0.11999771 0.019016694 0.07835181 0.06294741
0003a0 58 37 00 3e e0 5b 2a 3e 3d bd 54 be e5 64 f8 bc
       0.12521112 0.1663661 -0.20775314 -0.030321548
0003b0 01 6a d2 3c 5b e4 87 3d a4 51 11 3e 6b f5 10 be
       0.025685312 0.06635352 0.141913 -0.1415612
0003c0 5a ba 34 bd 22 35 96 bd 9c 9c 0a be 07 90 46 3d
       -0.04412303 -0.07334353 -0.13536304 0.0484772
0003d0 a2 18 c9 3d cd a6 1e 3e b8 ae b5 3d 8b 98 2e bd
       0.098191515 0.15493317 0.088712156 -0.042625945
0003e0 12 ce ad bd 49 0c 12 be c8 53 c5 3d a9 1e 2b bd
       -0.084865704 -0.14262499 0.09635121 -0.041777287
0003f0 51 54 2b 3d 93 a0 07 be 74 92 72 3d 7d b4 53 bd
       0.041828457 -0.13244848 0.0592217 -0.0516858

bias f4 [10]
000000 36 67 93 bd 59 d0 05 3e 64 02 8f bc 4b b3 8b 3d
       -0.0719742 0.1306776 -0.017457195 0.06821307
000010 a7 5b 8f 3d 88 3f c5 bd 1a 91 b8 3d 59 2c aa bc
       0.06999903 -0.09631258 0.09012051 -0.0207731
000020 2f 72 ef 3b fe e8 af 3c
       0.007307313 0.021473404
