try_train/cifar10_models/cifar10_net_10.pth (torch, 589402 bytes, 10 tensors)

weight f4 [32, 3, 5, 5]
000000 ec 16 8c bc 4f 7c 0c 3e d0 b6 05 3e 6d fe 2f bd
       -0.017100774 0.13719295 0.13058019 -0.04296725
000010 fd 85 20 3e 06 5d 8c bd 8a 66 0f bd 8a 5b c7 bc
       0.15676112 -0.0685368 -0.0350099 -0.024335641
000020 63 1e 08 3e 17 ac 94 3d b9 d0 69 bd 3b 33 0e 3d
       0.13292842 0.07259386 -0.05708382 0.034716826
000030 4c 34 e4 bd d7 e0 b3 bc 13 a8 eb bd ca 3e ed 3a
       -0.11142787 -0.021957798 -0.11506667 0.0018100378
000040 e9 3c a3 bc 4a 3a 37 be f7 42 19 be 2c e5 02 be
       -0.019926505 -0.1789333 -0.14966951 -0.12782735
000050 32 28 13 3e 22 42 22 bd f2 80 2e be 1b 3f 40 bd
       0.14370802 -0.03961385 -0.17041376 -0.046935182
000060 bf d9 62 bd 10 7b a8 bd 94 7d f5 bc 04 1a 69 bd
       -0.05538344 -0.08226597 -0.029967107 -0.056909576
000070 05 77 8f bd d4 ff 99 bd 69 38 aa 3d e9 d5 be bd
       -0.07005123 -0.075194985 0.08311541 -0.09318144
000080 17 60 05 be b7 4f d0 3c 41 3f 56 3c 78 c3 cf bc
       -0.13024937 0.025428636 0.013076604 -0.025361761
000090 2f 07 ff 3c 4a e5 f4 bd 10 11 89 bc a4 3f 91 bd
       0.031131355 -0.11957796 -0.016731769 -0.070922166
0000a0 54 67 5a 3e 48 a7 ae 3d 37 57 ae bd b3 eb 1c bd
       0.21328479 0.08528 -0.08512729 -0.038310718
0000b0 1e 1b 06 be eb 3e ea 3d 49 d1 47 3d 74 c3 fe bd
       -0.13096282 0.11437782 0.048783574 -0.124396235
0000c0 31 77 09 be 34 c7 d0 3c 00 f2 9b 3c e5 f5 92 3d
       -0.13424374 0.025485612 0.019036293 0.07175807
0000d0 29 4a fb 3d 91 14 f3 ba 3e 7a b0 bd 68 5b a4 3c
       0.12270004 -0.0018545558 -0.08617066 0.020063117
0000e0 87 57 81 3c 40 65 ed bb ac c2 82 bc 26 04 9e bc
       0.015788807 -0.007244736 -0.015961967 -0.019289088
0000f0 1c b6 05 3e 0d 10 41 3c 3b b3 b8 bd 20 d6 e1 bd
       0.1305775 0.011783612 -0.090185605 -0.11027169
000100 8d 35 73 bd c2 19 43 3e 94 bf 0e 3e a1 be 24 bd
       -0.059377242 0.19052795 0.13940269 -0.04022086
000110 cb 2b e2 bb c1 a3 49 3c cb e4 66 3e b6 03 f8 3d
       -0.006902193 0.012307108 0.22548215 0.12110083
000120 78 c8 c4 bd 47 4a b6 bd 76 a1 bf bd b4 01 11 be
       -0.09608549 -0.08900886 -0.09356968 -0.14160806
000130 38 cd 2a bd 03 c6 2c be ee 5b 50 bc 0a f1 6d bd
       -0.041699618 -0.1687241 -0.01271723 -0.0580912
000140 03 85 a5 3c 14 5e 04 bd 1f 55 32 3c 1d cc 96 bd
       0.020205026 -0.032316282 0.010884552 -0.0736315
000150 6f 68 2e 3d 6f ec 64 3d c7 c6 e9 bc f3 e7 c9 3c
       0.042580064 0.055889543 -0.028537167 0.024646735
000160 11 7c 1f bd 35 90 9b 3d 0f b8 de bd 4d 6b 96 bd
       -0.03893668 0.07595865 -0.1087495 -0.07344685
000170 c4 5b b4 bd 13 20 01 be d8 2a 0f bd 7e a9 76 bd
       -0.088065654 -0.12609892 -0.03495297 -0.060220234
000180 05 0d 11 be 34 4c c8 bd 1a 32 14 be 36 65 ee bd
       -0.14165123 -0.097801596 -0.14472237 -0.11640398
000190 b6 43 95 bb a3 89 87 3c 90 84 b6 bd 58 46 70 3c
       -0.004555191 0.016545122 -0.08912003 0.014665209
0001a0 b2 45 1f be 5d d8 ef bc 4e 5d 23 3b 38 aa c8 3d
       -0.1555393 -0.029277975 0.002492744 0.09798092
0001b0 b8 86 17 3e ea 33 31 3d 89 86 11 bc 29 39 b5 3c
       0.14797485 0.0432624 -0.008882173 0.022121983
0001c0 94 49 90 3c 33 fc 15 3e c6 cb 0c 3d 7b ef 6c 3c
       0.01761321 0.14646988 0.03437402 0.0144613935
0001d0 f8 ef 80 bd 07 fd c1 bd 07 8c 88 bd 22 4f 83 bd
       -0.062957704 -0.09472089 -0.06667333 -0.06411578
0001e0 e9 d8 aa bd 93 96 1f be 5c e4 21 be 51 f3 47 be
       -0.083421536 -0.15584783 -0.15809768 -0.19526412
0001f0 3c d6 09 be 20 77 35 bc 0f 65 ee 3d 2a 2e e8 bb
       -0.1346063 -0.011075765 0.11640369 -0.0070855813
000200 35 43 89 bd 80 7e 47 bc e0 82 1c 3e 39 16 1e 3e
       -0.06702272 -0.012176156 0.152843 0.15438165
000210 db 28 65 3e 72 a2 fa 3d 51 2d 39 3d ce 32 62 3e
       0.22378866 0.12238015 0.045209233 0.22089693
000220 eb e1 70 3e ea 30 97 3e c7 ac 35 3e 4d a0 34 3e
       0.23523681 0.29529506 0.1774169 0.17639275
000230 a9 75 3b 3e 99 20 48 3e 34 5b 43 3e 17 97 fe 3d
       0.18306603 0.19543685 0.1907776 0.12431162
000240 a0 e4 42 3e 0e 79 8c 3b 71 32 12 bd d0 78 58 3d
       0.19032526 0.004286892 -0.035692636 0.05284959
000250 64 93 f8 3d 09 8e 2f 3d 90 ae d2 3c 7d 0f 6b bd
       0.121374875 0.042860065 0.025718004 -0.057387818
000260 2b cb 9e 3c 2b 3b 66 bd 10 16 2b bd 17 f5 0d 3e
       0.019383987 -0.05620877 -0.041769087 0.13863026
000270 9b 2d 1e be d5 a1 a0 3d 92 9b 4a 3d cd aa 89 bd
       -0.15447085 0.07843367 0.04946477 -0.06722031
000280 f7 8a 4d bc 78 99 cf bd c7 13 b2 bd 28 36 1e bc
       -0.012545339 -0.10136694 -0.086951785 -0.009656467
000290 38 37 47 3d e0 1c 16 be 33 48 19 3d 63 f2 c6 3d
       0.048636645 -0.14659452 0.03742237 0.097142
0002a0 30 9f 94 3b 11 58 83 3c b3 27 f7 bd c7 b3 a6 bd
       0.004535578 0.016033204 -0.12068119 -0.081397586
0002b0 a1 ee ee bc be c1 90 bd fd 42 05 be 99 ce 09 3e
       -0.029166522 -0.070682034 -0.13013835 0.13457717
0002c0 c6 1c e9 bc 20 2e 54 3d 52 dc 2e 3d 8f 36 53 bb
       -0.028456103 0.0518018 0.042690583 -0.0032228564
0002d0 ce d0 e2 3d b4 b3 8e bc 34 8a 03 3d dd 63 c4 3d
       0.110749826 -0.017419674 0.032114223 0.0958936
0002e0 c4 fa 90 3d 3a f2 70 3d ca 7c a2 bd ec f2 1d 3e
       0.0707908 0.058824755 -0.07933958 0.15424699
0002f0 79 43 47 3d 01 be 50 bd ce 33 b5 bd db 96 88 bc
       0.04864833 -0.05096245 -0.088477716 -0.016673496
000300 37 ec a0 3d 13 c5 16 3e 4c dc 08 3e 68 e4 c1 bb
       0.078575544 0.14723615 0.13365287 -0.0059171207
000310 f8 37 32 3d f0 59 af bd 91 8c e5 3d 6d 42 a0 3c
       0.043510407 -0.08562076 0.112084515 0.019562924
000320 35 a2 0b 3d 1d 5f e7 bd c3 e2 fb 3d 98 cd a9 bd
       0.03409024 -0.11297438 0.12299111 -0.08291167
000330 17 42 eb 3b f6 11 fc 3d 5a e8 d8 bd d1 b4 04 3d
       0.0071795094 0.12308113 -0.105911925 0.032399002
000340 8d f9 39 bd ec 5f c4 3d d3 99 88 3c 00 92 b3 bd
       -0.045404006 0.09588608 0.016674912 -0.08768082
000350 41 da c0 bc 7c c5 6e bd c9 2e 86 3d 9d 17 05 3c
       -0.023541572 -0.058293805 0.06551892 0.008123306
000360 3a e4 ba bd b7 d4 1b 3e cc 6f f9 3d c6 65 c5 bd
       -0.09125562 0.15217863 0.12179527 -0.09638552
000370 0d 56 b2 bd a2 12 b1 3d 03 8f df bd ac b2 ea bd
       -0.08707819 0.08646132 -0.10915949 -0.1145986
000380 f6 67 08 be cf f2 21 bd bb 60 da 3d 30 d9 17 3e
       -0.13320908 -0.0395382 0.10662981 0.14828944
000390 73 84 4e 3c 5c 91 08 3e 49 bb eb bc 60 3d ab 3d
       0.012604821 0.133367 -0.028775828 0.08361316
0003a0 1e 4e 87 bc 95 c5 ac 3d a2 1d 65 bd a8 3c bc 3d
       -0.016516741 0.08436123 -0.055936463 0.09191257
0003b0 6f 1a 61 3b c6 bb c1 3d 9a 52 fa 3d f7 66 fc bc
       0.003434803 0.09459643 0.12222786 -0.030810816
0003c0 c4 c3 95 bd a3 e9 02 be 39 67 93 bc 98 5c 63 39
       -0.0731273 -0.12784438 -0.017993556 0.00021682901
0003d0 3b 56 cf 3d f0 0e b5 bd 4a e0 e4 bd 75 ec 59 be
       0.10123869 -0.0884074 -0.11175592 -0.21281607
0003e0 f2 38 73 bd 11 a8 03 be 7f d9 e2 ba 34 ca b1 bb
       -0.05938048 -0.12857081 -0.001730725 -0.005425716
0003f0 42 61 a1 bc 3b 65 b1 3d a2 e9 ab 3d 70 2d 18 bd
       -0.019699696 0.08661886 0.08394171 -0.037152708

bias f4 [32]
000000 61 b6 19 3e 71 30 c0 be 2a 71 79 bb fe 44 09 3e
       0.15010978 -0.37536958 -0.0038061836 0.13405225
000010 58 47 7f 3b ea 6f 9f bd fb 5f 50 3d 55 f7 9a bd
       0.0038952436 -0.07785018 0.050872784 -0.07566706
000020 48 d0 92 3d a6 3d 1b be 26 d0 2f be 89 5e 9c bd
       0.07168633 -0.15160236 -0.17169246 -0.07635219
000030 c3 27 40 3e a3 65 1e bc 5d d5 2a be cb 20 9a 3e
       0.18765168 -0.009667787 -0.16682954 0.30103144
000040 2e ac 87 3d a2 64 05 3e 38 ce 3b be 00 70 29 bd
       0.066246375 0.1302667 -0.18340385 -0.041366577
000050 77 2a 62 bc 20 a4 87 3d bf 9b 3c be 86 44 0a be
       -0.01380407 0.06623101 -0.18418787 -0.13502702
000060 cb a7 7c 3d 61 4e ac be 3f fb b7 bb dd 53 87 bd
       0.061683457 -0.33653548 -0.0056146677 -0.066077925
000070 2f 9d c2 3e 1c 6b 49 bd 21 8b bd bd d4 ad e7 bd
       0.38010547 -0.049174413 -0.09255052 -0.11312452

weight f4 [32, 32, 5, 5]
000000 e2 8a 22 3b e2 93 10 3d 8b d2 05 3c d0 7e 50 bd
       0.002480202 0.035297282 0.008167873 -0.050902188
000010 9d 7f 07 bd fc 8d 09 bd fb 22 82 3d 22 25 b0 3c
       -0.033080686 -0.033582672 0.06354328 0.021502081
000020 f1 cb 38 3c 72 e1 c8 bc 4c bf 32 bc 32 a1 ec 3c
       0.011279092 -0.024521563 -0.010909867 0.028885458
000030 f9 83 0c 3d d1 61 10 3d 59 69 7a bc 1d f1 34 bd
       0.034305546 0.035249535 -0.015283906 -0.044175256
000040 12 7e d9 bc e0 cc 00 3d 76 38 9d 3d e7 30 8f 3d
       -0.026549373 0.031445384 0.07676785 0.06991749
000050 94 84 31 bd a0 ea 05 bd 05 42 2e bc 92 b2 94 3d
       -0.043339327 -0.03269446 -0.0106358575 0.07260622
000060 a0 5e 8c 3d 76 68 72 bc 28 2f 8b bc ea 2b a9 3c
       0.06853986 -0.014795413 -0.01699026 0.020650823
000070 cf 51 33 bc 88 42 79 bc d7 6b 81 b9 62 96 d8 ba
       -0.010944798 -0.015213616 -0.00024685144 -0.001652431
000080 b1 57 20 bc b5 f0 d2 bb f1 e5 54 ba 35 89 f1 3c
       -0.009786532 -0.006437386 -0.0008121422 0.02948437
000090 93 ed 9c 3c ec 89 70 bd 8f 58 77 bd 13 71 d7 3c
       0.019156253 -0.058725283 -0.06038719 0.026299035
0000a0 8c 24 ee 3c 7c 7a a7 bb ad 7e c3 bc f5 e0 5c bd
       0.029070161 -0.005111037 -0.023864115 -0.053925473
0000b0 2e a7 c9 bc 65 7d 3c 3d d2 7c 4d 3a f9 75 06 3d
       -0.02461585 0.046018023 0.0007838729 0.03282735
0000c0 83 a4 02 3d d7 06 fc bc ee d9 55 3c 22 96 0d bd
       0.03189517 -0.03076498 0.013052447 -0.034567006
0000d0 23 79 b4 bc 0e ea 90 3c fd 1e 02 bd cf cb 19 bd
       -0.022030419 0.017689731 -0.031767834 -0.037547883
0000e0 b3 2a 3f bd 8f c6 0c 3c c8 96 d9 bc 9c 87 79 bc
       -0.04667158 0.008592262 -0.026561156 -0.015230086
0000f0 e5 a3 ba 3b fe ed e7 bc d2 6f 58 bd 76 68 ed 3c
       0.0056958073 -0.028311726 -0.052841015 0.028980475
000100 ab fe f1 3c 3c e8 1b 3d 4a b9 0a bd ed f4 52 bd
       0.02954038 0.038063273 -0.03386811 -0.05150311
000110 40 b5 9e bb 82 a7 f9 3c af 08 ac bc 7d 72 88 3c
       -0.004843384 0.030475382 -0.021000234 0.016656155
000120 00 2f af 3b 6d 2e 27 3c 27 f3 df bc 3f 02 db ba
       0.005346179 0.01020394 -0.027337624 -0.0016709043
000130 90 02 4e 3b 8b 5d 4b 3d 2d df 4b 3c be 99 30 3a
       0.0031434633 0.049649756 0.012443346 0.00067367766
000140 54 20 66 bd e6 1e 11 bd cb b8 8e 3a 02 a7 67 3d
       -0.056183174 -0.035429858 0.0010888813 0.056555755
000150 2e e9 dd b7 78 23 85 bc 26 3d dd bc c6 95 86 3a
       -2.6453836e-05 -0.016252264 -0.027006697 0.0010268025
000160 55 d1 87 bb 57 d4 91 3d f8 9a 56 3c 4d ef 30 bd
       -0.0041448274 0.07120579 0.013098471 -0.043196965
000170 f4 e0 85 bd 86 ae 52 3c 90 4a 4d 3d 3f 15 50 bc
       -0.06537047 0.012858992 0.050119936 -0.012700378
000180 54 4e 3f 3c af 63 8b bc f6 d6 44 bd 88 63 62 3c
       0.01167639 -0.017015306 -0.048056565 0.013817675
000190 aa b3 de 3c ad f6 ea 3c 36 2e eb bc 74 57 53 bc
       0.02718528 0.028682077 -0.028708559 -0.012899268
0001a0 9e 01 0c bd b1 20 10 bc d9 58 90 bc ce 97 11 bc
       -0.03418123 -0.008796857 -0.01762049 -0.008886291
0001b0 eb 06 b5 bb 9c b1 0b 3d a0 78 b4 3b 8a 38 db 3b
       -0.0055245063 0.03410493 0.0055075437 0.0066900896
0001c0 07 f7 8d bc aa ee 9b ba ce 40 5e bb 87 c2 86 3c
       -0.017329706 -0.0011896689 -0.0033913138 0.01645018
0001d0 d8 86 22 3c af 4c 06 bd d9 0b f0 3c 5e c2 21 3d
       0.009919845 -0.032787975 0.029302524 0.039492004
0001e0 1e d0 b9 bc 12 26 46 b9 0f b0 ca 3c 27 9a dd 3c
       -0.022682246 -0.00018896934 0.024742154 0.027051045
0001f0 02 b2 f9 ba 4f 07 c6 3b 77 49 ef bb 36 cf 30 ba
       -0.0019050243 0.0060433517 -0.007302459 -0.0006744744
000200 30 a0 75 bc 4a ed 1a b9 b9 37 19 3d cf c2 12 bd
       -0.014991805 -0.00014774982 0.037406657 -0.035830315
000210 e4 87 84 3c b4 1c 27 bc 2b 8f 0e bd 41 1b 93 bc
       0.016178079 -0.010199714 -0.034804504 -0.017957332
000220 7c 00 76 3b b4 ec 1d bd cc 1a b3 bb 16 dc 13 bc
       0.003753691 -0.038555816 -0.005465841 -0.009024641
000230 0d e6 25 bc 6c f0 65 bd 4a e4 53 bd 36 80 d4 3c
       -0.010125649 -0.056137487 -0.051731385 0.025940042
000240 5a b6 ab 3c 7f 5b 12 bd 77 d8 1d bc 23 4e 27 bd
       0.020960975 -0.03573179 -0.009634129 -0.040846
000250 64 cc 27 bd ba e3 6e 3c 82 da eb bb fd 25 a9 3c
       -0.040966406 0.014580661 -0.007197679 0.020647997
000260 f2 1f 0b 3c 0d 7c a4 ba 72 aa 08 bd 0c 73 a5 bc
       0.008491503 -0.0012549177 -0.033365674 -0.02019646
000270 97 fe ea bc 6e f0 b9 bc 97 ec 9e 3c 22 f2 9e bc
       -0.028685851 -0.022697654 0.019399924 -0.019402567
000280 30 48 53 3c 59 47 10 bd 11 24 44 bc ac c5 1d 3d
       0.012895629 -0.035224292 -0.0119714895 0.038518593
000290 4e 19 b4 bc 47 cc 44 bd 9b e1 0c bd fc b9 04 bd
       -0.021984722 -0.048046377 -0.03439484 -0.03240393
0002a0 1b 6f 9d 3b e3 05 8f 3c b8 a6 c0 bc 83 a6 16 bd
       0.0048045046 0.017458862 -0.023516998 -0.03677989
0002b0 84 ff 07 bd ec a8 cf bc f0 21 0b 3c dd c1 27 bc
       -0.033202663 -0.025349103 0.008491978 -0.010239092
0002c0 57 4e aa 3b 50 0c 66 bd f3 98 64 bc 7e 10 4b 3d
       0.005197327 -0.056164086 -0.013952482 0.049576275
0002d0 d5 1b 54 3c d9 af f1 ba d7 17 09 bd f2 9f ae 3b
       0.012946089 -0.0018439248 -0.03347 0.0053291256
0002e0 15 3d db 3c b4 e1 e0 3c 9d 0c e5 3c e9 6c 31 bc
       0.026762525 0.027451374 0.027960116 -0.010829189
0002f0 fd 6a 49 bd c6 66 f6 bc 34 90 39 3d 07 6e 9f 3d
       -0.049174298 -0.030078303 0.04530354 0.07784658
000300 1e 41 45 3d 8b c5 bb bc bc de f1 bc 00 ef 07 bd
       0.048157804 -0.022921344 -0.029525153 -0.033186913
000310 7a 3c 0b 3c cc 91 2a 3d 5c 17 38 bc 57 5c 03 bc
       0.008498305 0.04164295 -0.011236038 -0.008017621
000320 0b 35 57 3c 53 50 df 3c 18 b7 ef 3c 30 0f b8 3b
       0.013135205 0.027259981 0.02926211 0.005617045
000330 fe 0c 4a bc ad bf 32 bd 6c 18 b3 bc 2c 55 8b 3c
       -0.012332199 -0.043639828 -0.021862231 0.017008387
000340 f7 76 3c 3b 71 00 47 ba ea c8 38 bd a4 24 42 bb
       0.0028757432 -0.00075913133 -0.04511348 -0.002962389
000350 48 d6 63 3c 3e e9 f2 3c b4 44 19 bd a6 b6 4c bd
       0.013906069 0.029652234 -0.037419036 -0.049978875
000360 96 c2 26 3c ee 16 81 3d 4b d4 9c 3d 28 99 f5 3c
       0.010178229 0.063032016 0.07657679 0.029980257
000370 e4 ce d6 bc 6d da 4c bd e0 18 ba 3c 2c 15 92 3d
       -0.0262217 -0.050012995 0.02271694 0.071329445
000380 ab 6a 0b 3d a6 6f 83 3c 37 06 bf bb 37 6d 77 bb
       0.034037273 0.016044449 -0.0058295983 -0.0037754306
000390 8b 1b be 3c 67 20 de 3b fa 5b fa bb 5e 93 35 bc
       0.023206493 0.006778765 -0.007640359 -0.011082498
0003a0 a3 20 1b bc 0a 01 01 3d 2b 2c 43 3d 53 86 25 3d
       -0.00946823 0.03149513 0.047649544 0.040411305
0003b0 bb 06 d9 3b 97 f5 28 bd 07 71 ce bb 70 05 eb 3c
       0.006623117 -0.041249838 -0.006300095 0.028689116
0003c0 99 2e 4a bc a6 cf 70 bc f4 24 6a bd 72 7c 85 bc
       -0.012340211 -0.014697945 -0.057164147 -0.016294692
0003d0 da e8 96 bc bb aa f6 3c 6e 7b dc 3c e9 ee 35 bd
       -0.01842158 0.030110708 0.026914325 -0.044417296
0003e0 d3 bd 53 bd 3c c9 4c bc b4 18 b1 bb 8f d2 0d bd
       -0.051694702 -0.01249915 -0.005404556 -0.034624632
0003f0 06 ff 8f ba 15 e1 37 3d 39 f6 12 3d 7c d4 69 bc
       -0.0010986037 0.04489239 0.035879347 -0.014271852

bias f4 [32]
000000 5c cc 62 bd 1e 1f c8 bd f2 c7 a2 bd 3b 74 5d bb
       -0.055370674 -0.0977156 -0.07948293 -0.0033791203
000010 b7 cf 31 3d 73 30 0e be 52 3f c8 bd d8 d4 78 3d
       0.043410983 -0.1388567 -0.097777024 0.06074986
000020 5f 89 6d 3c 73 6b 83 bd 59 0b 28 3d 65 55 ac bd
       0.014498084 -0.06416979 0.041026447 -0.08414725
000030 8f 82 b0 bb 3a 99 a7 bd 02 01 8d bd e1 38 51 bd
       -0.0053866575 -0.081835225 -0.06884958 -0.051079635
000040 d3 02 1a bd 64 8c 50 bd 2b 2d ba ba 86 97 c1 3c
       -0.03760035 -0.050915137 -0.0014204135 0.023631822
000050 ea 7d 62 3d 5b cc 05 bd 00 ad 12 bd 84 01 80 bd
       0.055295862 -0.03266559 -0.035809517 -0.06250289
000060 02 de 11 3d 24 58 de bc 70 22 f8 3c a9 5f 3e bd
       0.035612114 -0.027141638 0.030289859 -0.046477947
000070 73 9f 01 bc e5 ec 65 3d 09 27 91 bd 0c 02 84 3c
       -0.007911551 0.056134123 -0.070875235 0.016114257

weight f4 [64, 32, 5, 5]
000000 71 4e a8 3b c7 d3 78 3c d7 5b da bc 76 a4 d1 bc
       0.005136304 0.01518721 -0.02665512 -0.025591116
000010 f2 19 1f 3d 38 3a ab bc aa 40 02 3c 92 e7 34 bd
       0.038843103 -0.020901784 0.007949987 -0.044166155
000020 4d a3 52 bc 81 11 dd 3c 36 62 1a bd 5c c9 33 bd
       -0.012856317 0.026985886 -0.037691317 -0.043893203
000030 ce 1b 03 bd d7 4b 27 bd a7 62 e6 3b a1 15 1c bc
       -0.03200894 -0.04084381 0.0070308032 -0.009526641
000040 00 92 2c 3c ab 9b 6c bc 54 54 47 3c 86 b2 bc 3b
       0.010532856 -0.014441411 0.0121661015 0.0057585863
000050 01 9c 0f bd 38 db 98 bc 96 bc c6 ba 70 c1 0b bd
       -0.035060886 -0.01865922 -0.0015162404 -0.034120023
000060 a3 ef 67 3c da d2 cd 3b 4f 97 34 bd b0 5e 56 3b
       0.014156255 0.006281239 -0.04408961 0.0032710247
000070 1b fc ee 3b 80 e0 8d 3c 73 33 99 bc fc 79 d1 bc
       0.007293237 0.017318964 -0.01870129 -0.025570862
000080 c0 76 e6 bc 59 1e 1e 3d e7 e7 78 3c 14 68 3e bb
       -0.028132796 0.03860316 0.015192009 -0.0029053735
000090 6f ec 20 3c 70 a5 d2 3c e8 cd a0 3c a9 32 57 3d
       0.009821995 0.025713652 0.019629434 0.052538548
0000a0 8c 5c fb bc 9d db 3b bd 17 dd e9 bc 2f ec b6 bc
       -0.030683778 -0.045863736 -0.028547807 -0.022329418
0000b0 20 4b 25 3c cf d2 dc 3c af 7d 46 3c 73 ad 17 3c
       0.010088712 0.02695599 0.012114926 0.009257662
0000c0 a0 4d fb 3c 3a 77 47 bc 14 78 f4 bc 85 eb 89 bc
       0.030676663 -0.012174422 -0.029842414 -0.016835937
0000d0 88 a9 1e bd 07 c6 04 3c 7d 98 3a bc 35 75 05 3d
       -0.038735896 0.008103854 -0.011388895 0.03258248
0000e0 e2 ea 26 bd 03 1b c5 bc bd 6b aa 3b cb 37 25 bb
       -0.040751345 -0.024060732 0.0052008317 -0.0025210257
0000f0 fb 87 91 bc 96 97 8d bc cb 0f c7 3b c2 13 e8 3c
       -0.017765036 -0.017284196 0.0060748807 0.028329734
000100 df 09 43 3d 1c 9f aa 3b 3f 29 b1 bc 25 03 ac bb
       0.047616836 0.0052069556 -0.021626113 -0.0052493983
000110 2c 52 36 3d 62 29 ee 3c dc 2c cc bc dc 3a 3e 3b
       0.04451196 0.029072467 -0.024923734 0.0029026782
000120 09 77 08 3d 41 6b 49 bc 01 d8 b0 bc 57 5a 93 3c
       0.033316646 -0.012293638 -0.021587374 0.017987413
000130 0d a6 5b 3c 2e 20 6f bd b5 25 fc 3b fb dc 2e 3c
       0.013406289 -0.0583803 0.0076949247 0.010672803
000140 79 55 0c 3d d6 97 2a bc 78 49 4e bd 5c 55 70 bb
       0.0342612 -0.010412177 -0.050363034 -0.0036671972
000150 f1 67 47 bc ee 53 03 3d 4d b4 36 bd c2 0f 13 bd
       -0.012170778 0.032062463 -0.044605542 -0.0359037
000160 31 ed b6 3c 07 05 0f 3d 65 3c 2d bd 67 78 d8 bc
       0.022329899 0.034916904 -0.042293925 -0.0264246
000170 6a 57 37 bd 0a cf f4 bc ba 46 d3 bb a8 82 e9 3c
       -0.0447611 -0.02988388 -0.0064476402 0.028504685
000180 8f e6 bf bc b6 79 48 3c 57 16 14 3d 7f 8f 98 bc
       -0.023425369 0.012236049 0.036154117 -0.018623112
000190 d6 28 f4 bc 2c c9 78 bc 8c ab d2 3c 6e 87 05 3d
       -0.029804628 -0.015184682 0.025716566 0.03259986
0001a0 39 7e 60 3c 35 89 d4 3b 6d 6d 1b bb fb a5 f4 3b
       0.013701969 0.006486083 -0.0023716346 0.0074660755
0001b0 54 6e f5 bb ed 1e 73 bc d8 d3 58 bc 69 1e ad 3c
       -0.007489959 -0.014838916 -0.013234101 0.021132665
0001c0 f6 3a 8d 3b 65 49 1c 3d 44 01 08 3c 6b f8 ca bb
       0.004310007 0.038155932 0.008301083 -0.0061941645
0001d0 26 fb c3 bc 24 d1 70 3c 39 a9 37 bc 09 cb c0 bc
       -0.023923468 0.0146983005 -0.011209779 -0.023534315
0001e0 fe 52 f9 3c d8 fc 09 3d 53 66 67 bb 27 70 85 3c
       0.030435082 0.033688396 -0.0035308793 0.01628883
0001f0 f8 99 56 3c b0 c0 e5 bc a0 79 4c bd 66 08 09 3b
       0.013098232 -0.028045982 -0.04992068 0.0020909547
000200 e4 c5 6a 3c 92 5a 77 3b 0b e5 bb bc 2e 49 c1 3c
       0.014329407 0.0037743193 -0.022936365 0.023594465
000210 4d 8f 1c 3c 89 fd 5e 3c b7 68 b1 3c 03 2f ce 3c
       0.00955565 0.013610252 0.021656377 0.025168901
000220 0a ec 08 bc 6d 4e 24 3c 3d 59 34 3d dd 9e 4e 3c
       -0.008357057 0.010028464 0.044030417 0.012611118
000230 fe 4c d6 bb 89 c9 89 3c 94 da a4 3c e4 18 7f 3b
       -0.00653994 0.016819732 0.020123757 0.0038924748
000240 1e c6 be 3c fe 87 98 3c 78 17 d0 bc f8 18 06 3d
       0.023287829 0.018619534 -0.025401816 0.032738656
000250 44 a7 65 3c 21 f8 2e 3d fb d1 eb bb bc d6 15 3d
       0.01401693 0.042717103 -0.0071966625 0.03658174
000260 2d ad 8d bb b5 22 b5 3c 8b 95 04 3c b3 b4 9f ba
       -0.0043236227 0.022111276 0.008092294 -0.001218459
000270 6e 54 e5 3b fa 30 96 bc 13 0e 1e 3a ae 23 cd 3c
       0.00699859 -0.0183339 0.0006029319 0.025041427
000280 e8 a8 d5 bc 41 ff 80 3c 38 14 68 3c 5a 6d 33 3d
       -0.026081517 0.015746715 0.014164977 0.043805458
000290 64 df 9f 3c 10 41 95 ba 20 5f 01 bb 8c fd 07 bd
       0.0195157 -0.0011387188 -0.0019740537 -0.033200786
0002a0 e1 28 da 3b f8 73 7c ba 69 5f f2 3c ce 3a 33 3c
       0.006657705 -0.0009630318 0.02958651 0.010939313
0002b0 bb ce a9 3c 92 78 15 3d 8a 44 3c 3d 5b 44 ce bb
       0.02072846 0.036491938 0.0459638 -0.0062947697
0002c0 31 12 61 3b 64 c0 a1 3c 91 57 e6 bc c7 2e 18 bc
       0.0034343118 0.01974506 -0.028117927 -0.009288496
0002d0 5c 78 2a bd 60 6d b1 bc 68 51 01 3d 8e da 87 ba
       -0.04161869 -0.0216586 0.031571776 -0.0010364817
0002e0 a1 0d ed bb 9d 72 32 bc 75 44 cc ba 87 e4 bb bc
       -0.0072342907 -0.010891584 -0.0015584367 -0.022936119
0002f0 0f ed d5 bb 1e b2 06 3d 8b a1 e1 3c cb b1 d3 3c
       -0.0065285037 0.03288471 0.02754285 0.025841614
000300 0a b4 14 3d 3c 1a ba bc 63 a4 c0 3c 6c 0b c6 b6
       0.03630451 -0.022717588 0.023515886 -5.9021895e-06
000310 d7 e1 54 3c 79 f0 e8 ba 05 83 44 3b 39 e8 ec 3c
       0.012993298 -0.0017771862 0.002998532 0.028919326
000320 73 88 8e 3c 3a d8 42 3d 4c f9 85 3c 83 2f 30 bc
       0.017399048 0.04756949 0.016354226 -0.010753515
000330 8a 4b 29 bd 44 fd 9c 3b 05 3f f0 3c 96 2f c9 bc
       -0.041331805 0.004790934 0.029326925 -0.024558824
000340 fe 12 da bc 25 d4 b8 bc 5c 2f 8c bb a3 b7 e0 3c
       -0.026620384 -0.022562096 -0.0042781066 0.027431315
000350 5b f5 23 bd 24 ae ed bb 55 06 fa bc 69 9d 50 bc
       -0.04002891 -0.007253425 -0.030520597 -0.012732842
000360 08 e4 7d 3d b9 c0 06 3d 39 57 b2 39 36 e7 a8 3c
       0.061985046 0.03289864 0.00034015792 0.020618062
000370 f5 7f 14 bc c0 b0 19 3d f6 1f b1 3c bd b7 9d bc
       -0.00906371 0.037522078 0.021621685 -0.019252652
000380 4b aa 12 b9 7f ea 0f 3c 52 d2 cf 3c 2c c8 2d 3c
       -0.00013987084 0.008783936 0.025368843 0.010606807
000390 c1 8e bb 3c 12 c6 fa 3c 6c 00 9d 3a d6 61 05 3d
       0.022895219 0.030612025 0.0011978275 0.032564007
0003a0 89 ed 38 3c f7 ad f9 bc 02 46 83 3c 53 2e 05 3d
       0.011287102 -0.03047846 0.016024593 0.03251488
0003b0 19 73 c2 bc 10 fa 13 bd 3c 3c 39 bd 3d 5d 29 bd
       -0.023736523 -0.03612715 -0.04522346 -0.041348685
0003c0 d7 f5 26 bc 24 09 0c 3d a4 a8 54 3d ed 03 47 3d
       -0.010190449 0.034188405 0.05191864 0.04858773
0003d0 88 6b aa bc e5 59 86 3c 45 b3 11 3b fe a9 09 3b
       -0.020803228 0.016400287 0.0022232097 0.0021005864
0003e0 c7 60 00 bd e1 3f 2c bc 67 4d d3 bc c1 76 ff bc
       -0.031342294 -0.010513277 -0.025793744 -0.031184556
0003f0 b1 18 30 bd cc 42 07 3d 44 d6 c7 bc 5a a2 cc bc
       -0.042992298 0.033022687 -0.024394162 -0.024979759

bias f4 [64]
000000 d6 2f 06 bd e3 98 6a bd 12 33 8e bd 70 a2 95 ba
       -0.032760464 -0.05727471 -0.06943335 -0.0011416208
000010 38 64 9e 3b a0 a4 3f bd 32 e9 a0 bc 91 d2 80 3c
       0.0048337243 -0.046787858 -0.019642446 0.015725406
000020 a2 6f d5 bc 8c db 3a bc a6 19 54 bd 13 d6 fd bc
       -0.026054207 -0.011404883 -0.051782273 -0.030985868
000030 d8 90 e9 bc bf bb b9 bc 89 b4 2c bd ce 94 f2 3b
       -0.02851145 -0.022672532 -0.04216436 0.007402993
000040 a8 be 1c bd b8 41 f5 bc d1 c9 26 bd d3 72 c7 bc
       -0.03826776 -0.029938564 -0.04071981 -0.024346745
000050 cf 21 f6 bc d4 3e 12 3b df b3 4a bc c7 8c 6e bd
       -0.030045418 0.002231528 -0.012371986 -0.058239724
000060 9b b0 0e bd 27 16 78 bb a9 66 19 bd d3 6a bc bb
       -0.034836393 -0.0037855 -0.03745142 -0.005750039
000070 ef 02 9f bc 10 14 23 bd b9 23 9e bb b2 0f b1 3b
       -0.019410579 -0.039814055 -0.004826036 0.0054034824
000080 20 64 b8 3c 08 7f 05 bc 05 14 18 bd a3 12 10 bb
       0.02250868 -0.008147962 -0.037128467 -0.0021983765
000090 d5 a4 17 3b 25 5c 66 bd b0 d9 3c bd f4 12 97 bd
       0.002313902 -0.05624022 -0.04610604 -0.07376662
0000a0 f8 d6 1a bd 25 85 e1 bc 5e 9a 56 3d 5a 92 22 3a
       -0.037802666 -0.027529309 0.05239331 0.00062016177
0000b0 18 18 fc bc 0b 8c 14 bc 16 5a 67 bc ae fb 3c bd
       -0.030773208 -0.009066592 -0.014120599 -0.046138458
0000c0 04 91 09 bc ca bf a8 3b 68 88 85 bd da 56 4f bd
       -0.008396391 0.005149816 -0.06520158 -0.050619937
0000d0 65 be 07 bd 79 fc 7c bd ed b6 d3 3c 68 36 17 3d
       -0.03314056 -0.061764214 0.025844062 0.03691712
0000e0 2e e7 16 3d 52 cc 64 bd 23 a8 1e 3d a1 19 6f bd
       0.036841564 -0.055858918 0.038734566 -0.05837405
0000f0 bd dd 31 bd a5 24 36 3c ab 9f 86 3b 46 95 75 3c
       -0.043424357 0.011117135 0.0041083894 0.014989203

weight f4 [64, 1024]
000000 8b f3 46 bd 5e b4 19 3c 72 62 94 3c ca 80 6d 3c
       -0.048572104 0.009381382 0.018113349 0.014496038
000010 a6 13 8f 3a eb 56 b8 3c 1d 5b 6e 3c 43 48 a7 bc
       0.001091589 0.022502383 0.01454809 -0.0204202
000020 0a 3b 50 bc 67 04 f8 bb f2 71 0a 3d dd f8 11 bc
       -0.0127093885 -0.007568884 0.033800073 -0.008909431
000030 ec 3c bd bc 3e 62 61 bd c4 c8 2c 3b 57 95 f8 bc
       -0.023100339 -0.05502533 0.0026364783 -0.030344648
000040 9f 73 60 bb 7d 7f de 3c 7d dd 97 bc 36 d7 37 bb
       -0.0034248603 0.0271604 -0.018538231 -0.002805186
000050 1c b0 1a 3b 3d a6 c1 bb ae f6 96 3a 24 98 41 bc
       0.0023603505 -0.0059097097 0.0011517608 -0.011816058
000060 5e e8 5c bc 94 92 a2 3c 3e f4 e0 bc 5c a5 32 3d
       -0.013483135 0.019845285 -0.027460214 0.04361473
000070 04 32 9c 3c 05 62 76 bb 13 c4 75 3a 57 60 92 bc
       0.019066818 -0.0037595045 0.00093752256 -0.017868204
000080 7c 50 79 3b 58 36 f9 ba dc cf bc bc 58 b5 54 bc
       0.0038042357 -0.0019013388 -0.023048334 -0.012982689
000090 29 d5 86 bc f6 30 e1 3c 30 0b 90 3c 5c a4 c5 3c
       -0.016459065 0.027489167 0.01758346 0.024126224
0000a0 4e dd a8 bc 8a 20 12 bd a7 1c d9 bc 3e d6 90 bc
       -0.020613339 -0.035675563 -0.02650292 -0.017680284
0000b0 ad d6 ca 3b b9 3c aa 3c f5 7a 09 3c eb 9d 99 bc
       0.006190142 0.020780908 0.008391132 -0.018752059
0000c0 48 e5 cc bc bd 89 be bc 17 31 51 bc 64 1a ea bc
       -0.025011674 -0.023259038 -0.012768052 -0.028577037
0000d0 2f 71 e4 bc 38 19 9f 3b e8 21 ca 3c 8e e4 a5 bb
       -0.027886001 0.004855301 0.02467437 -0.005062646
0000e0 88 f1 99 bc 6c 87 54 3c 3a 08 a2 3c 63 aa f3 3c
       -0.018791929 0.01297174 0.019779313 0.029744333
0000f0 98 d5 b3 3b 6a 9e 02 3d b0 7e 3e 3d 70 29 e8 3c
       0.005488109 0.031889357 0.046507537 0.028340071
000100 9e 3b 94 3c 2c 28 0d bc 80 e7 c5 3b 48 85 f6 3c
       0.018094834 -0.008615535 0.00603956 0.03009285
000110 b4 e7 a0 bc 76 db a6 bc 4a 40 71 3c 06 75 0f 3d
       -0.019641735 -0.020368319 0.0147248 0.03502371
000120 6a 3d 49 3a c5 2b 04 3d bf e7 a9 3b 1f 87 9b ba
       0.0007676693 0.032268304 0.005185097 -0.0011865831
000130 6a 86 b8 bc f0 8e 8b 3c ac 16 aa bc b2 06 88 3c
       -0.022525031 0.017035931 -0.020762764 0.016604755
000140 ab 34 7d bc 39 43 7b 3c 75 1f 31 3c dc c1 81 bc
       -0.015454452 0.015335851 0.010810723 -0.01583951
000150 fe 0a c2 bc cd 2d 57 3c 07 2d 68 3c 62 ce 1d 3c
       -0.023686882 0.013133478 0.014170892 0.009631725
000160 ae b5 c2 bb ce 5d 07 3d f4 16 4b bb 89 2b 5f bc
       -0.005942068 0.033048443 -0.0030989023 -0.013621219
000170 9b d5 17 3d d0 98 9f 3c 25 9b b8 3c e1 23 9f 3c
       0.037068944 0.019482046 0.022534916 0.019426288
000180 c1 58 67 bc ae 37 9b bc 5d 30 75 bc d6 32 8e 3c
       -0.014120282 -0.018947449 -0.014965144 0.017358225
000190 fc 50 a0 bb 40 a1 49 bc ee 3d 8c bc c2 3f d0 bc
       -0.0048924666 -0.012306511 -0.017119374 -0.025421027
0001a0 4a 36 19 3d 0d 06 1d 3d 60 2f 94 bc 45 ac 2d 3d
       0.03740529 0.03833585 -0.018088996 0.042400617
0001b0 ef 8a 43 bc 4c 62 9a 3c 9c aa 00 3d eb 27 c6 bb
       -0.01193498 0.0188457 0.031412706 -0.006047239
0001c0 aa ea 4f 3c 2d f9 38 bd dd a4 86 38 0b dd 1d 3d
       0.012690226 -0.045159508 6.420326e-05 0.03854088
0001d0 2f f1 fd 3c 97 89 e7 bb a1 55 1f 3d 2b f4 b5 3c
       0.030998794 -0.0070659625 0.03890002 0.022211155
0001e0 f6 d7 8f 3a c6 f3 98 bc 89 d1 2d 3d 47 96 1a 3d
       0.0010974396 -0.018670928 0.042436156 0.037740972
0001f0 15 b8 4f 3d 80 bb 20 bc 79 bd 5b bc 12 f4 90 3c
       0.050712664 -0.0098103285 -0.013411873 0.017694507
000200 dd 90 a6 bc 51 f2 43 3a 40 70 60 3c a4 16 5d bc
       -0.020332748 0.00074747676 0.0136986375 -0.0134941675
000210 c1 07 da 3c d4 7b 8a 3b 80 9f 53 3d 26 c1 1e 3d
       0.026615025 0.0042261872 0.051665783 0.03875842
000220 fe d3 1d 3d 25 8b 4c 3d ca 4d d8 3c 8a fb 2d 3d
       0.03853225 0.049937386 0.02640428 0.042476214
000230 fa fc 5e bc a8 97 53 bb ac 00 ac bb a3 46 d8 bc
       -0.013610119 -0.003228644 -0.0052491035 -0.02640087
000240 24 88 8a 3c 30 ac 1c bc 55 e2 38 3c e0 c5 fa bb
       0.01691062 -0.009562537 0.0112844305 -0.007652983
000250 a5 33 fb 3c 25 83 01 3d 65 77 3f 3d 98 8e cb 3c
       0.030664274 0.03161921 0.046744723 0.024848267
000260 82 03 86 3c 74 ac 82 3d 75 8b 05 3d dd 8c d6 b8
       0.016359095 0.06380549 0.0326037 -0.00010230553
000270 0f 0a db bc 7a 03 a8 bc 7b 44 d4 bc 2e 8e 66 bc
       -0.026738195 -0.02050947 -0.02591156 -0.014071984
000280 b0 05 05 3d 3a 32 87 bb fa f2 ba bc 70 b8 1d bc
       0.032476127 -0.0041258605 -0.022820938 -0.009626493
000290 b5 31 1f 3d c9 a7 0a 3c 6c c5 6a 3b d0 f3 6e 3d
       0.038865764 0.008462855 0.003582324 0.058337986
0002a0 7b 20 09 3d 8e b1 ab bc 64 3c 66 3c 95 f6 cf 3c
       0.03347824 -0.020958688 0.014052484 0.025386134
0002b0 c7 95 f7 bc 50 0b a2 bc 5f b9 19 3c a2 76 8a 3c
       -0.030222787 -0.019780785 0.009382575 0.016902272
0002c0 0a ea c3 3c de 4c 20 3c 5b d6 d1 bc b7 9a 36 bc
       0.02391531 0.009783952 -0.025614908 -0.011145285
0002d0 68 ec 7c bc e4 df 22 bb 6b 26 36 bc 62 96 83 bc
       -0.015437223 -0.0024852687 -0.011117558 -0.016062919
0002e0 bc bb 9b bc 9c 43 f8 3b 73 e8 ed bc a2 0d 1d 3c
       -0.019010417 0.007576419 -0.029041504 0.00958577
0002f0 04 e1 f0 3a cf 1d 87 3c 0e 6e 18 3d 5e 25 40 3c
       0.0018377607 0.016493706 0.03721433 0.011727659
000300 b5 14 f9 3b 44 b1 2a bd a5 28 2e 3c 27 2e 28 bc
       0.0076013454 -0.04167296 0.010629808 -0.01026491
000310 e9 69 8f 3c 7c 22 05 bd 80 ce ab bc 7e cd bc 3b
       0.017506557 -0.03250359 -0.02097249 0.0057618013
000320 7b 4c 35 ba 62 62 ec bc 88 73 f4 3c 38 10 ad 3b
       -0.00069159985 -0.028855506 0.029840246 0.0052814744
000330 9d 8f 22 3d 05 c3 05 bc d8 8c 9a bc f8 fa 00 bd
       0.03968774 -0.008164172 -0.018865988 -0.031489342
000340 d5 03 12 3c b0 e7 24 bc 3e b3 3e bc a2 f1 83 3c
       0.008912046 -0.010065004 -0.011639414 0.01610643
000350 81 57 cc bb a8 84 b7 3c d7 33 1a 3d 9c 65 5a 3c
       -0.006236017 0.022402123 0.037647095 0.01332989
000360 08 5f 4a 3c e1 3f a7 3c 1e e4 c0 3b 4b a1 1e 3d
       0.012351759 0.020416202 0.0058865687 0.03872804
000370 3e 9c 10 bd ed 16 dc bc 93 9b f4 bb 5b 25 cc bb
       -0.035305254 -0.0268664 -0.007464835 -0.006230039
000380 f5 5a 07 3c dd f0 22 3b 0a f5 10 3d 3b c3 34 bb
       0.008261432 0.0024862804 0.035389937 -0.0027582187
000390 7a 07 c5 3c 3f bc 9a 3c 03 5c 35 3a b8 ae c3 3c
       0.024051417 0.01888859 0.0006918313 0.023887023
0003a0 7f 4e de 3a 37 46 f4 bc b0 2d 2d 3c 04 77 28 bd
       0.001696065 -0.029818637 0.010569975 -0.041129127
0003b0 21 fc 1d 3c 12 19 51 bc 77 a6 b9 3c be 71 79 3c
       0.009642632 -0.012762325 0.022662384 0.015224872
0003c0 85 2a d5 3b 93 da 9f 3c 8c be df 3c 80 c8 b0 bc
       0.006505313 0.019513404 0.02731254 -0.02157998
0003d0 b0 e3 96 bc 2a fe b4 bc 61 4d 1a 3c 25 0d a6 3b
       -0.018419117 -0.022093851 0.009417863 0.005067485
0003e0 dc 18 ca 3c 06 f2 da bc 69 87 c4 3c 30 62 a6 3b
       0.024670057 -0.026726734 0.02399035 0.005077623
0003f0 07 63 db 3b 0c 3f 8f bb d6 7e fa bb e1 fa 49 bc
       0.0066951546 -0.0043715294 -0.0076445146 -0.012327881

bias f4 [64]
000000 7e 5e a1 bc cf e8 ec 3a a0 e5 aa bc 6c 8d 4b 3c
       -0.019698378 0.0018074753 -0.020861447 0.012423854
000010 36 3e be bb 67 fa 21 3d 95 cc a4 bc 25 ea 9c bc
       -0.005805756 0.039545443 -0.020117084 -0.019154618
000020 49 f2 28 bc 0a b2 62 bc 9e cf b5 bc 27 23 2e bd
       -0.0103116715 -0.013836393 -0.022193726 -0.042513993
000030 78 52 f8 3b 27 23 2b 3d 99 ed c8 3b 9a 29 94 bb
       0.0075781904 0.04178157 0.0061318395 -0.004521561
000040 72 4d 7d 3c d2 31 b2 3c b4 94 b2 bc 2f 26 ff 3c
       0.015460359 0.021752272 -0.021799423 0.031146137
000050 b3 b5 16 bd 18 31 8b 3c 42 f8 9f 3c 10 09 f9 bc
       -0.036794376 0.016991183 0.019527558 -0.03039983
000060 73 10 10 3d 56 b6 d5 bc f7 41 ca b7 36 08 a1 bc
       0.035171937 -0.026087921 -2.4110994e-05 -0.019657236
000070 06 e8 77 3d 02 51 b9 3c 95 93 d0 bc 35 72 75 3c
       0.06052401 0.022621635 -0.025460998 0.014980842
000080 7d 91 13 bd 4a 14 13 3d c9 58 15 bc 36 12 38 bd
       -0.03602742 0.03590802 -0.009115406 -0.044939242
000090 e5 e4 71 bc 32 8c d5 3c b9 50 37 bd 40 e8 26 bd
       -0.014764045 0.026067827 -0.044754717 -0.040748835
0000a0 8e ba 3d bd d3 07 05 bc 15 8c ee bc 51 11 17 bd
       -0.04632049 -0.008119541 -0.02911953 -0.03688175
0000b0 a8 8c 8c 3c 54 0c cf b9 32 f1 a6 b5 a7 60 c9 bc
       0.017156914 -0.00039491302 -1.2438161e-06 -0.02458222
0000c0 ee 53 f1 bc d6 05 de bc 24 b9 c9 3c b4 ae 60 3d
       -0.029458966 -0.027102392 0.024624415 0.05485411
0000d0 55 15 54 3c 73 a3 45 3b b3 ff 50 bb cd 9d 23 bb
       0.012944539 0.0030157238 -0.003189069 -0.0024965883
0000e0 22 bd be bb 77 3a 20 bd 91 5b 33 bd ce 05 71 3c
       -0.005820886 -0.039118256 -0.043788496 0.014710857
0000f0 d4 f5 f6 3c f8 17 31 bd a3 84 b6 3c 6a e5 ce 3c
       0.030146517 -0.04323575 0.022280043 0.025255878

weight f4 [10, 64]
000000 3c db 4f 3c e4 8e 24 3e f9 65 ca bd c0 6a ae bc
       0.012686547 0.16070133 -0.09882731 -0.021291137
000010 6a 0e 1d be a9 69 19 be 86 d2 93 3d 59 b9 25 3e
       -0.1533753 -0.14981712 0.072178885 0.16183986
000020 a4 31 20 3e e4 f5 11 3d be 47 2e be 32 78 06 3e
       0.15643936 0.03563489 -0.17019555 0.13131788
000030 23 70 13 bd db 0b a1 3c 4f 95 52 be fa 28 23 3e
       -0.035995614 0.019658973 -0.20564769 0.159336
000040 96 c1 16 3e 7e ae 4e be d6 af 19 3e 59 d9 f3 bd
       0.14722285 -0.20183751 0.15008482 -0.1190669
000050 89 47 d7 bb 47 dd 18 be a7 1a 2a bb 6f b8 10 3e
       -0.006569807 -0.1492816 -0.0025955827 0.14132856
000060 64 92 04 be 3f ec 62 bd b4 d7 04 be 00 0c cc bd
       -0.12946469 -0.055401083 -0.12972909 -0.09963226
000070 ef c5 0f be 2d 65 79 bc 1f 93 42 bd 5a 58 6c 3c
       -0.1404035 -0.015221876 -0.047503587 0.0144253615
000080 94 86 53 3e d5 41 1f be 11 ad 99 bd 7c 92 96 3c
       0.20656806 -0.15552457 -0.07503713 0.018380396
000090 cc 31 e9 bd 7c 51 9c bd 25 0c 41 3e a6 2a 0c be
       -0.11386451 -0.076327294 0.18852289 -0.13688144
0000a0 55 64 3d 3e 49 fa 94 bd f6 9a a1 3d d5 cb ff 3d
       0.18495305 -0.072743006 0.078908846 0.1249005
0000b0 f4 cb ae 3c 2b 58 23 be 51 95 9d 3d cd 3d b3 bd
       0.021337487 -0.15951602 0.076944955 -0.08752022
0000c0 d7 d3 41 3e c5 b7 48 ba 27 49 2a be 26 49 85 bd
       0.18928467 -0.00076567783 -0.16629468 -0.065080926
0000d0 c4 a5 a5 3d d1 2d fb bc 5f ab c5 3d d0 32 31 3d
       0.08088258 -0.030661495 0.09651827 0.04326135
0000e0 b9 2d da 3c 74 68 5a 3e 46 b3 cb 3d 0b ba 58 be
       0.02663313 0.21328908 0.09946303 -0.2116472
0000f0 6a 7d cf bd f1 a9 d4 bc 09 a3 c9 bd ec 38 51 3d
       -0.10131343 -0.02595994 -0.098455496 0.051079676
000100 81 12 f1 3d 36 36 33 bd 51 c1 e7 3d 7c 71 2f be
       0.117711075 -0.04375287 0.11316169 -0.17133135
000110 4b 54 9a bb 0d 15 36 3d b0 0e 30 bd da 0e 3f be
       -0.0047097555 0.04445367 -0.042982757 -0.18658009
000120 35 8d 20 be e6 cc 8c bc 5d ae 48 be 91 02 d4 bd
       -0.15678866 -0.017187547 -0.19597764 -0.10352052
000130 2d cc 67 bd 3f 3d 06 be 45 77 4f 3e 7f 64 65 bd
       -0.0565912 -0.13109301 0.20260341 -0.056004044
000140 53 50 99 bd 6c e5 59 3e 7a b5 6c 3d 09 b6 10 be
       -0.07486024 0.21278924 0.057790257 -0.14131941
000150 f2 8e f5 bd a5 e4 f1 bd 86 91 ca bc ab 1d 1a 3e
       -0.11990155 -0.118111886 -0.024727594 0.1505038
000160 49 94 9d 3e 71 6a 45 3e 4f 04 17 3e 07 c4 15 3d
       0.30777195 0.19278885 0.14747737 0.0365639
000170 af ec 6e be f9 a6 09 be b5 df 9d bd c2 cb 12 3e
       -0.23332475 -0.13442601 -0.07708684 0.1433554
000180 71 67 30 3e 2c 5e 7c 3d 43 ae 83 bd c0 11 31 be
       0.1722696 0.061613247 -0.06429722 -0.17291927
000190 06 55 b0 bd 94 b9 d0 3d 0c d4 11 be aa 02 df bd
       -0.08609967 0.10191646 -0.14241046 -0.1088918
0001a0 50 b7 c1 3d b0 8f ef bc 99 7f 07 3d 05 f6 17 3d
       0.09458792 -0.02924332 0.03308067 0.037099857
0001b0 33 e2 3b be 16 6f 41 be 66 eb 8e bd 2d 96 5d 3e
       -0.18348007 -0.18890032 -0.069784924 0.21639319
0001c0 f9 27 ae bc 7f 46 0b 3e 14 2e 0d be 6b 37 2f be
       -0.021259295 0.13601111 -0.13787109 -0.17110984
0001d0 16 03 89 be 68 a9 21 3e d0 91 d4 bd 2d 45 9c bd
       -0.26760167 0.1578728 -0.10379374 -0.07630382
0001e0 bd 98 83 3e 19 ea e8 3d 95 07 75 3c 20 27 7d 3e
       0.25702468 0.113727756 0.014955421 0.24721956
0001f0 40 bb 8d be 10 62 d8 bd af 24 5e be ac 0a 2c be
       -0.27681923 -0.10565579 -0.21693681 -0.16800946
000200 45 e6 6d be 46 63 f2 ba 53 3f 65 be 91 e0 01 3e
       -0.23232372 -0.001849272 -0.22387438 0.12683322
000210 03 8d 65 bd 8f cd ae bd a3 98 3f 3d 90 02 23 bd
       -0.056042682 -0.08535301 0.046776425 -0.039797366
000220 18 51 9e 3b c9 ea b3 bd dc 46 ff 3d cc 4e 38 be
       0.0048314445 -0.08785016 0.12464687 -0.17998809
000230 ca bf ac 3c 78 22 2d bc 11 fe 4a be 3b e6 1f 3e
       0.021087546 -0.0105673 -0.19823481 0.1561517
000240 cb 8b 4c bd 7a 4d e4 bd c7 d0 df bd db b8 80 3d
       -0.049938004 -0.1114759 -0.10928493 0.062852584
000250 ce cc a5 3c fe f7 8f 3d c1 69 e8 bd 06 e8 3c be
       0.02023926 0.07029723 -0.11348296 -0.18447885
000260 fc ce 26 3b d9 de 41 3d 4c 86 d1 bd ff b4 99 3d
       0.0025452962 0.047331665 -0.10230693 0.075052254
000270 20 5f 08 be 4b 94 19 3e 0c bd 27 bd 60 d1 07 3e
       -0.13317537 0.14997976 -0.040951774 0.13263464
000280 ca 91 2c 3e 15 e8 95 3d 0b 41 0c be aa 06 60 bc
       0.16852489 0.07319657 -0.13696687 -0.013673464
000290 a1 0a 35 3e e4 c5 67 3d 71 9e eb 3d 16 03 57 be
       0.17679836 0.056585208 0.1150483 -0.20997271
0002a0 da df 93 3d b2 fd 6c 3d 49 76 26 3d c9 e8 1b 3d
       0.07220431 0.05785913 0.04064015 0.038063798
0002b0 8e d6 f3 3d 61 19 29 3e 2c e6 8a 3e be 7e 95 bb
       0.119061574 0.16513588 0.27128732 -0.004562228
0002c0 ff a6 82 3d c6 d5 35 3e 64 89 3d 3e ba e0 e0 3d
       0.06379508 0.1775733 0.18509442 0.10980363
0002d0 ef 67 98 bd 49 43 00 3e 02 5e ef 3d 56 1e d3 3d
       -0.07441699 0.12525667 0.116878524 0.103085205
0002e0 01 f1 fa 3c ff cc e8 bd 0f e6 0c bd a6 4e 20 be
       0.030632498 -0.11367225 -0.03439909 -0.15655002
0002f0 3c 01 61 3e d5 51 11 3d cf c5 5d 3d c2 fe 0e bd
       0.21973127 0.03547843 0.054143723 -0.034910925
000300 ee 1e d2 bd 47 0b cf 3d bd 89 37 be a6 a8 e8 bd
       -0.102598056 0.10109573 -0.17923637 -0.11360292
000310 b7 d2 82 bd 62 eb d7 3d 90 f6 cc 39 4d b2 6d bc
       -0.06387847 0.105429426 0.00039093615 -0.014507842
000320 c2 54 da bd 58 67 df 3d fe 4f eb 3d ef 18 50 bb
       -0.106606975 0.10908383 0.11489867 -0.0031753143
000330 95 42 e0 3d 0e e7 0b be e4 60 1f 3e 1a 24 93 bd
       0.109501995 -0.13662359 0.15564305 -0.0718462
000340 23 83 d6 3d b5 f6 00 3e c0 11 76 bd e2 01 c5 bb
       0.10474231 0.12594111 -0.06007552 -0.0060121873
000350 26 ee c3 3c c9 f8 a5 3d 55 34 14 3e 3c 83 1b bb
       0.023917269 0.08104093 0.14473088 -0.0023729345
000360 59 ba 7d bd 0e cb 3c bd ad c0 d7 bd 08 73 11 be
       -0.061945293 -0.046092086 -0.10534797 -0.14204037
000370 75 6b 71 3d 3e c0 68 3d 66 f9 2e 3e 90 f0 f0 bc
       0.05894037 0.05682396 0.17087325 -0.029411584
000380 3c 6c 94 bd 6d 87 da 3c 86 9a 9d 3d 4a 7c 77 bd
       -0.072472066 0.026675904 0.07695489 -0.060421266
000390 3f 20 f3 3d 9c 4b ee 3c 72 f0 a0 3d ad aa 5b 3d
       0.11871385 0.029088788 0.07858361 0.053629566
0003a0 66 8a e9 3d 2d f5 1f 3e 9c 03 31 be 2e 57 fe bc
       0.114033505 0.15620871 -0.17286533 -0.03104743
0003b0 2c e9 ef 3c f5 6c 86 3d 7b 24 11 3e cb 49 0c be
       0.02928599 0.06563751 0.14174072 -0.13700025
0003c0 7d 9d 20 bd 17 08 76 bd 69 c1 de bd 74 e6 3b 3d
       -0.039212693 -0.06006631 -0.10876734 0.045874074
0003d0 07 2d bc 3d 58 97 0b 3e ec 73 a4 3d a7 57 2a bd
       0.09188276 0.13631952 0.08029923 -0.041587498
0003e0 fb 14 b8 bd 13 ac 14 be 53 2d ad 3d 27 d5 22 bd
       -0.08988377 -0.14518766 0.084559105 -0.03975406
0003f0 12 5e 78 3d 88 de 04 be f5 be 57 3d 80 fe 37 bd
       0.060636587 -0.12975514 0.052672345 -0.044920444

bias f4 [10]
000000 23 31 98 bd 5b 21 0a 3e b4 6d 6a bc 9b 5c 90 3d
       -0.07431247 0.13489287 -0.014308382 0.07048913
000010 b5 a4 82 3d 7b e4 b0 bd 2d 6c 9c 3d d9 58 95 bc
       0.063790716 -0.08637329 0.076378204 -0.018230842
000020 31 ea 05 3c 45 ac ad 3c
       0.008173511 0.021200309
