try_train/cifar10_models/cifar10_net_34.pth (torch, 589402 bytes, 10 tensors)

weight f4 [32, 3, 5, 5]
0	0xbda988d6	-0.082780525
1	0x3db1a015	0.08673111
2	0x3e23c291	0.1599219
3	0xbb61aa1a	-0.0034433664
4	0x3e0ce1b6	0.13757977
5	0xbdf194ab	-0.11795934
6	0xbdbcc5e0	-0.09217429
7	0xbc902653	-0.0175964
8	0x3e5ebb22	0.21751073
9	0x3db2bb07	0.08727079
10	0xbd9c82b6	-0.07642119
11	0x3c93d2af	0.018044798
12	0xbe4c8ec6	-0.19976339
13	0xbbdbd6f6	-0.006708975
14	0xbdca6ae9	-0.09883673
15	0x3d95f6be	0.07322453
16	0x3c9ed801	0.019390108
17	0xbe9953f8	-0.29946876
18	0xbe52f259	-0.20600261
19	0xbdfb4c0c	-0.12270364
20	0x3e475063	0.19464259
21	0xbd3d0ec4	-0.04615666
22	0xbe94ea32	-0.29084927
23	0xbdde7646	-0.108624026
24	0xbd041653	-0.032247853
25	0xbe05e884	-0.13076979
26	0xbd906c59	-0.07051916
27	0xbd29f349	-0.04149178
28	0xbd4b5571	-0.04964203
29	0xbdbece0b	-0.09316643
30	0x3d9202cf	0.07129442
31	0xbdfeeb0f	-0.124471776
32	0xbe029e59	-0.12755717
33	0x3dcdd06c	0.10049519
34	0x3d0c7695	0.034292776
35	0x3ca8a2b7	0.020585401
36	0x3d94e64c	0.07270488
37	0xbe3db894	-0.18527442
38	0x3bcc2926	0.006230491
39	0xbd23f804	-0.040031448
40	0x3eb39a6a	0.35078746
41	0x3e4646be	0.19362924
42	0xbe26a2f2	-0.16273096
43	0xbd8ed4f9	-0.06974215
44	0xbdc55cde	-0.09636854
45	0x3e655d79	0.22398938
46	0x3dd3831f	0.10327744
47	0xbe4d0135	-0.20019992
48	0xbe24a49f	-0.16078423
49	0x3d9cc803	0.07655337
50	0xbc61e4a9	-0.013787427
51	0x3d43e772	0.047828145
52	0x3e0a5d3e	0.13512132
53	0xbbb7c670	-0.0056083724
54	0xbe0e2228	-0.13880217
55	0x3cab9cfc	0.02094888
56	0x3a1f5bbc	0.0006079038
57	0xbb5a6074	-0.003332165
58	0x3d1aa0ce	0.03775101
59	0xbcf77f8a	-0.030212183
60	0x3e3b1565	0.1826988
61	0x3d77e6c7	0.06052282
62	0xbe22f3e7	-0.15913354
63	0xbddcddbd	-0.10784481
64	0xbd656f3c	-0.056014284
65	0x3ea885c3	0.32914552
66	0x3e7ef2de	0.24897334
67	0xbdf8a97c	-0.121417016
68	0xbd837014	-0.064178616
69	0x3b9a8d0c	0.004716521
70	0x3eaef522	0.34171396
71	0x3e3ee486	0.18641862
72	0xbe2b2b4c	-0.16715735
73	0xbe09e0d1	-0.13464667
74	0xbdac0fb4	-0.08401433
75	0xbdf94ba3	-0.1217263
76	0xbd9dc5c7	-0.07703739
77	0xbe4e217c	-0.20129961
78	0x3aaa64fa	0.0013000064
79	0xbd06646d	-0.032810617
80	0xbc13c9ca	-0.009020278
81	0xbd84e31e	-0.06488632
82	0xbcc5dadf	-0.024152217
83	0xbdae0345	-0.08496717
84	0x3ccf6b0b	0.025319597
85	0x3be72a51	0.007054605
86	0xbd81ad0d	-0.06331835
87	0xbd039d9a	-0.032132722
88	0xbd8218be	-0.063523754
89	0x3d590eb7	0.05299255
90	0xbe04b0ef	-0.1295812
91	0xbe0277de	-0.12741038
92	0xbe45cdee	-0.19316837
93	0xbe43e36c	-0.19129723
94	0xbd1620f9	-0.03665254
95	0xbcbb1ccc	-0.02284088
96	0xbe380119	-0.17969169
97	0xbe4880f6	-0.19580445
98	0xbe4fb371	-0.20283295
99	0xbdb8a825	-0.09016446
100	0xbc2e8602	-0.010652067
101	0xbbdc62d4	-0.0067256484
102	0xbdcf53fc	-0.101234406
103	0x3cc33dd0	0.023833185
104	0xbe292501	-0.16518022
105	0xbd313582	-0.04326392
106	0x3d0929b4	0.033487037
107	0x3e152e72	0.14568499
108	0x3e463d0c	0.19359225
109	0x3d12dcb3	0.035855006
110	0xbcdce207	-0.026963247
111	0x3d8a80a6	0.06762819
112	0x3d8781d2	0.06616558
113	0x3e4e6a6e	0.20157787
114	0x3d2ecda5	0.042676587
115	0x3c309512	0.010777729
116	0xbd64c715	-0.055853922
117	0xbdf7a3f1	-0.12091816
118	0xbd87d159	-0.06631727
119	0xbd1164ad	-0.035496403
120	0xbd786a99	-0.060648534
121	0xbe3bf6f4	-0.18355924
122	0xbe6cef7b	-0.2313823
123	0xbe6d7b00	-0.23191452
124	0xbde51bc4	-0.111869365
125	0xbd8fa4ba	-0.07013841
126	0x3d8da29f	0.06915783
127	0xbd21288e	-0.039345317
128	0xbdd4646a	-0.10370715
129	0xbdcae573	-0.09907045
130	0x3defd8e1	0.11711288
131	0x3e4f7d30	0.20262599
132	0x3e99777c	0.29973972
133	0x3e2d49c7	0.16922675
134	0xbb79ef2c	-0.0038136942
135	0x3e53de46	0.2069026
136	0x3eac0504	0.33597577
137	0x3ed0d5f4	0.40788233
138	0x3e8954f2	0.2682262
139	0x3e2c6844	0.16836649
140	0x3e3971a9	0.18109764
141	0x3e81d15b	0.25355038
142	0x3e680e45	0.22661693
143	0x3e266c1c	0.16252178
144	0x3e516329	0.20447983
145	0x3cd66435	0.02617083
146	0xbcd8d5e2	-0.026469175
147	0x3cc8b7ab	0.024501642
148	0x3dde5f81	0.1085806
149	0x3d3eac43	0.046551
150	0x3da20fcb	0.079131685
151	0xbe19d232	-0.1502159
152	0x3d6ba471	0.05752987
153	0xbdc56f2a	-0.096403435
154	0xbd7891e7	-0.06068602
155	0x3e644ed7	0.222957
156	0xbe95b464	-0.2923919
157	0x3dc5b29a	0.09653206
158	0xbc39f1cf	-0.011349156
159	0xbdc50c24	-0.09621456
160	0x3d27b5d8	0.040944904
161	0xbe856ae5	-0.26058117
162	0xbdb0fe0a	-0.08642204
163	0xbd82e7a5	-0.06391839
164	0x3c7fe2ac	0.015618008
165	0xbe16d90a	-0.14731231
166	0xbc2b7926	-0.010465896
167	0x3e3f8054	0.18701297
168	0x3ca1fc74	0.0197737
169	0x3c36e350	0.011162594
170	0xbe028edb	-0.12749808
171	0xbd55a9f1	-0.052164022
172	0xbcc13b36	-0.023587804
173	0xbe0d4e78	-0.13799465
174	0xbe35431c	-0.17701381
175	0x3e4d462c	0.200463
176	0xbdd702e3	-0.104985975
177	0x3e010578	0.12599742
178	0x3d223003	0.03959657
179	0x3c0cc448	0.008591719
180	0x3e67b4fa	0.22627631
181	0xbdf7b27c	-0.1209459
182	0x3ddbc05f	0.10730051
183	0x3da7761f	0.08176827
184	0x3d9b8884	0.07594398
185	0x3e1dc549	0.1540729
186	0xbe47d517	-0.19514881
187	0x3e58ba9a	0.21164933
188	0x3d3fbe89	0.046812568
189	0xbd2a91aa	-0.041642822
190	0xbd4e5526	-0.050374173
191	0xbca969b6	-0.02068029
192	0x3e66c545	0.2253619
193	0x3e593ef6	0.21215424
194	0x3e29a688	0.16567433
195	0x3bd8aeb0	0.0066126212
196	0x3db3f56b	0.08787044
197	0xbd6adb21	-0.057337884
198	0x3d87dc98	0.06633872
199	0xbc187aeb	-0.00930665
200	0x3d87a50b	0.06623276
201	0xbe481a22	-0.19541219
202	0x3e2f8c46	0.17143354
203	0xbde41512	-0.11136831
204	0xbbe9fe43	-0.007140906
205	0x3e445c1c	0.19175762
206	0xbe5de2e8	-0.21668589
207	0x3d984d79	0.07436652
208	0xbdc1b2b8	-0.09457916
209	0x3d89bcb7	0.067254476
210	0x3da9632b	0.08270868
211	0xbe5ac400	-0.2136383
212	0xbb1268ff	-0.0022340415
213	0xbdc98866	-0.09840469
214	0x3d1ec9c6	0.038766645
215	0x3cd0ed68	0.02550383
216	0xbde48aa1	-0.11159254
217	0x3e825f8b	0.25463519
218	0x3e178c1a	0.14799538
219	0xbdb080ff	-0.08618354
220	0xbdaf45c0	-0.08558226
221	0x3de62bc4	0.112388164
222	0xbdd8af21	-0.10580278
223	0xbe3187c8	-0.17336953
224	0xbe2a58be	-0.16635415
225	0xbd281d47	-0.041043546
226	0x3dd16076	0.102234766
227	0x3e1cd387	0.15315066
228	0x3cdddea2	0.027083699
229	0x3e087c08	0.13328564
230	0xbd0fbb6a	-0.03509084
231	0x3dc6c9fb	0.097064935
232	0xbc187ead	-0.009307546
233	0x3d50e7a4	0.05100216
234	0xbdeaa4fc	-0.114572495
235	0x3dfe73c7	0.124244265
236	0x3d81e51f	0.063425295
237	0x3e2e006a	0.16992345
238	0x3e2d347e	0.16914555
239	0xbc869819	-0.016429948
240	0xbdcbc5ec	-0.0994986
241	0xbe320923	-0.17386298
242	0xbd05f2f5	-0.032702405
243	0x3d0ffcf2	0.035153337
244	0x3e211e03	0.15734105
245	0xbde31afc	-0.11089131
246	0xbe3e14c4	-0.18562609
247	0xbe91f1e1	-0.2850485
248	0xbddad360	-0.10684848
249	0xbe08f83e	-0.13375947
250	0xbb964178	-0.004585441
251	0xbc5f7485	-0.01363862
252	0xbc914b10	-0.017735988
253	0x3db79876	0.089646265
254	0x3da7cda2	0.08193518
255	0xbd043e0b	-0.03228573

bias f4 [32]
0	0x3e2e91bb	0.1704778
1	0xbebbe36d	-0.3669695
2	0xbd084cd8	-0.03327641
3	0x3e07fea5	0.13280733
4	0xbcc0e06f	-0.023544518
5	0xbdd789e6	-0.10524349
6	0x3c0bb233	0.008526373
7	0xbdbf9dc3	-0.093562625
8	0x3dd40ae7	0.10353642
9	0xbe81efdc	-0.2537831
10	0xbe54b867	-0.20773469
11	0xbd972a48	-0.073811114
12	0x3df08b56	0.11745326
13	0x3c45c39c	0.012070563
14	0xbe7d930a	-0.24763122
15	0x3e90dc27	0.28292963
16	0xbd202cca	-0.039105214
17	0x3dc87efd	0.09789846
18	0xbe798c37	-0.24369894
19	0xbd98c9e1	-0.0746038
20	0xbe04a4b0	-0.12953448
21	0x3cdda888	0.027057901
22	0xbe8fd766	-0.28094023
23	0xbe7f90ea	-0.24957624
24	0x3d4f3e66	0.050596617
25	0xbeda5ace	-0.42647403
26	0xbcd2f80b	-0.025753042
27	0xbdfbc1ca	-0.12292822
28	0x3ed6e379	0.41970423
29	0x3c76cbf4	0.015063275
30	0xbe2c4f97	-0.16827236
31	0xbe16cabf	-0.14725779

weight f4 [32, 32, 5, 5]
0	0x3cb32ec7	0.021872891
1	0x3d2d2985	0.042275924
2	0xbcd7564b	-0.026286265
3	0xbd73ddae	-0.059537582
4	0xbc8f5a32	-0.017499063
5	0xbbb73338	-0.0055908225
6	0x3daef54e	0.08542882
7	0x3d5abf9a	0.05340538
8	0xbc60f1d6	-0.013729533
9	0xbc74d55b	-0.014943446
10	0x3c0de84e	0.008661343
11	0x3c890277	0.016724808
12	0x3d22cf7b	0.03974865
13	0x3d619b5c	0.055079803
14	0xbd0f9e61	-0.03506315
15	0xbd324a11	-0.043527666
16	0xbc8d01fd	-0.017212862
17	0x3c2ef614	0.010678787
18	0x3d9ae19c	0.07562563
19	0x3d8eba84	0.06969169
20	0xbd1586cc	-0.036505505
21	0xbd322dc2	-0.04350067
22	0xbc24c502	-0.010056736
23	0x3dbf5691	0.09342683
24	0x3dcf4952	0.101214066
25	0x3cb0b049	0.021568434
26	0xbbdfb26d	-0.00682669
27	0x3d03dfaf	0.032195743
28	0x3ca89fff	0.020584105
29	0x3ca86db4	0.020560123
30	0x3d1add46	0.03780868
31	0xbbc74a15	-0.0060818293
32	0xbced0a3c	-0.028935544
33	0x3d0744c0	0.03302455
34	0x3d8e0875	0.06935207
35	0x3dabad45	0.08382658
36	0x3d2aa66c	0.04166262
37	0xbd9c2c52	-0.07625641
38	0xbd5dd488	-0.054157764
39	0x3dad5c5f	0.08464884
40	0x3d9b9890	0.07597458
41	0x3c94e3da	0.018175054
42	0xbd43527f	-0.047686096
43	0xbdc4fda5	-0.09618691
44	0xbd581cf1	-0.052761976
45	0x3ddb5711	0.10709966
46	0x3cca235b	0.024675062
47	0x3d2f8a87	0.04285672
48	0x3d31414f	0.043275174
49	0xbc2ba824	-0.0104771
50	0x3b1aff1b	0.002365059
51	0xbd47f48c	-0.048817202
52	0xbd54ba28	-0.051935345
53	0xbc8d402b	-0.017242512
54	0xbd82ca60	-0.06386256
55	0xbd3c1a01	-0.045923237
56	0xbd5a1c0b	-0.0532494
57	0xbceeb286	-0.029137861
58	0xbd888bd3	-0.06667294
59	0xbd0aa701	-0.033850674
60	0xb8ff49e8	-0.00012173114
61	0xbd3ab969	-0.045586977
62	0xbdaaca88	-0.08339411
63	0xbbf24113	-0.0073930114
64	0x3ca51452	0.020151291
65	0x3ccf4b29	0.025304394
66	0xbd3ea26a	-0.04654161
67	0xbd8477ba	-0.064681485
68	0xbd03ea91	-0.03220612
69	0x3c628efe	0.013828037
70	0xbc532533	-0.012887287
71	0x3d0185dc	0.0316218
72	0x3b397d37	0.0028303394
73	0x3b6e634c	0.0036375104
74	0xbce2bd75	-0.02767823
75	0x3c63e297	0.013909004
76	0x3cef2f63	0.0291974
77	0x3d8db8d5	0.069200195
78	0x3c62f9f5	0.01385354
79	0xbb710328	-0.0036775563
80	0xbd44f910	-0.048089087
81	0xbcf79476	-0.030222159
82	0x3b8520e1	0.0040627574
83	0x3db4a4bc	0.08820483
84	0x3c44966e	0.011998756
85	0xbc4622af	-0.01209323
86	0xbca07147	-0.019585265
87	0xbd31131f	-0.043231126
88	0xbc875a3d	-0.016522521
89	0x3dd8b8e8	0.10582143
90	0x3c252d1e	0.010081558
91	0xbd289211	-0.041154925
92	0xbdd36c8c	-0.10323438
93	0xbce2b70c	-0.027675174
94	0x3c9d5534	0.019205667
95	0x3c68d7df	0.014211624
96	0x3c856616	0.01628403
97	0xbcb3f799	-0.02196865
98	0xbd98bc97	-0.07457846
99	0x3cb4698b	0.022022983
100	0x3c8dd58e	0.017313745
101	0x3c7ebbb8	0.015547685
102	0xbd695c03	-0.056972515
103	0xbd4430fb	-0.047898274
104	0xbd46d5e9	-0.048543844
105	0xbc65c369	-0.01402364
106	0xbc3b30c0	-0.011425197
107	0xbca9b835	-0.02071772
108	0xbce02e57	-0.027365847
109	0x3d109776	0.035300694
110	0xbc9eb2b3	-0.01937232
111	0x3c6fbff5	0.0146331685
112	0xbcc4a5d4	-0.024004854
113	0xbc3ed747	-0.011648006
114	0x3cfc607b	0.030807724
115	0xbc050f9c	-0.008121397
116	0xbbca8404	-0.0061802883
117	0xbcf20928	-0.029545382
118	0x3c78b1bc	0.015179094
119	0x3d89a640	0.06721163
120	0xbd634b22	-0.055491574
121	0xbc1e7590	-0.009671584
122	0x3d368706	0.044562362
123	0x3cbb1a83	0.02283979
124	0x3cb93f8f	0.022613315
125	0xbba933d3	-0.0051636486
126	0xbc903251	-0.017602118
127	0xbbe26c25	-0.0069098645
128	0xbc3da8d9	-0.011575901
129	0x3cb96ca3	0.02263481
130	0x3cb0bbae	0.021573868
131	0xbd1fb9cd	-0.038995553
132	0xbb2936ff	-0.0025820134
133	0xbc9c68bd	-0.019092912
134	0xbcb88eab	-0.022528967
135	0xbcb5d7ba	-0.022197593
136	0x3b90fef3	0.0044249236
137	0xbd627078	-0.05528304
138	0xbc544556	-0.012955984
139	0xbc91e5b0	-0.017809719
140	0xbd18b1e4	-0.037279025
141	0xbdb9b175	-0.0906705
142	0xbde983c4	-0.114020854
143	0xbb819dd3	-0.0039555817
144	0x3d0926a1	0.033484105
145	0xbcecdf3b	-0.028915038
146	0x3c35d8c6	0.011099046
147	0xbbb83cf0	-0.0056224987
148	0xbd1b3f43	-0.037902128
149	0x3cbb7466	0.022882652
150	0xbd1c92dd	-0.038225997
151	0xbcfb7d26	-0.030699324
152	0xbd4b7d18	-0.049679846
153	0xbd9f6bab	-0.07784208
154	0xbd495911	-0.049157206
155	0xbd3a873c	-0.045539126
156	0xbda4ab4c	-0.08040485
157	0xbd4ed453	-0.050495457
158	0xbd113328	-0.035449177
159	0xbd23c136	-0.039979182
160	0xbc267b92	-0.010161297
161	0xbd6ea3f0	-0.05826181
162	0xbd13796d	-0.036004473
163	0x3c527a56	0.01284655
164	0xbd27dc31	-0.040981475
165	0xbd81c87b	-0.06337067
166	0xbd3b2dbb	-0.04569791
167	0xbd88c727	-0.0667861
168	0x3cba7233	0.022759533
169	0xbab0548f	-0.0013452935
170	0xbcd34169	-0.025788026
171	0xbd6542c8	-0.05597189
172	0xbd23de49	-0.04000691
173	0xbc91efdb	-0.017814567
174	0x3c818a0d	0.015812898
175	0xbc723b92	-0.0147847105
176	0xbc243f4b	-0.010024856
177	0xbd7e438d	-0.06207614
178	0x3baad7c9	0.005213712
179	0x3d826975	0.063677706
180	0x3ccdcc0d	0.025121713
181	0x3be105eb	0.0068671606
182	0xbd09ec55	-0.03367265
183	0x3cec3f21	0.028838696
184	0x3d884c2c	0.06655154
185	0x3d03235f	0.032016154
186	0x3d746892	0.05967004
187	0x3c102579	0.008797997
188	0xbd5f8244	-0.05456759
189	0x3c8b23ac	0.016984783
190	0x3d2ea2fe	0.04263591
191	0x3db1f719	0.08689708
192	0x3d9ab58e	0.0755416
193	0xbd407398	-0.04698524
194	0xbc9c4c11	-0.01907924
195	0xbcd6011f	-0.026123581
196	0xbc034645	-0.008012359
197	0x3d081628	0.033224255
198	0xbccb6356	-0.02482764
199	0xbb71363e	-0.0036806013
200	0x3cc95c11	0.024580033
201	0x3ca09e0c	0.019606613
202	0x3c13200a	0.008979807
203	0x3d06e581	0.032933716
204	0x3c9ee615	0.019396821
205	0xbd22111c	-0.039567098
206	0xbc579bc4	-0.013159696
207	0x3d2a8417	0.041629877
208	0x3ba47033	0.005018258
209	0x3c6e6ce6	0.014552331
210	0xbcfe11cb	-0.031014344
211	0xbc9820f6	-0.018570404
212	0x3d3a45d7	0.04547676
213	0x3d4ac272	0.049501844
214	0xbcf1786f	-0.029476373
215	0xbcfa0763	-0.0305211
216	0x3bbf8651	0.005844869
217	0x3d292362	0.04129351
218	0x3dc3412a	0.095339134
219	0x3cd43c40	0.025907636
220	0xbcbbbf18	-0.022918269
221	0xbd1fb5c1	-0.038991693
222	0x3b60af3b	0.0034284133
223	0x3da09ffe	0.07843016
224	0x3d05ec92	0.032696314
225	0x3ce0059e	0.027346428
226	0x3c64b8ff	0.013960122
227	0xba116574	-0.0005546429
228	0x3c3481c6	0.0110172685
229	0x3b411791	0.002946351
230	0x3bd1fde6	0.006408441
231	0xbb0d2374	-0.0021536024
232	0x3c82aa22	0.015950266
233	0x3d47faa3	0.04882301
234	0x3d510092	0.051025935
235	0x3d3b7a32	0.04577083
236	0x3cb74ed3	0.022376454
237	0xbd16ee2b	-0.03684823
238	0x3d446c46	0.04795482
239	0x3d4ac3be	0.04950308
240	0xbcd61b8f	-0.026136188
241	0xbbab23b5	-0.0052227625
242	0xbd65b49f	-0.056080457
243	0xbb96c1cc	-0.004600739
244	0x3c03b6f6	0.008039227
245	0x3d022c6d	0.03178065
246	0x3cde1c65	0.027113149
247	0xbd10932f	-0.035296615
248	0xbd78dfab	-0.06076018
249	0xbc036b08	-0.008021124
250	0x3c7cf6a9	0.015439668
251	0xbbf81450	-0.007570781
252	0x3d0a6e46	0.03379657
253	0x3d80e820	0.06294274
254	0x3d353c5a	0.04424701
255	0xbc411c67	-0.011786557

bias f4 [32]
0	0xbe35c495	-0.17750771
1	0xbe2b43c8	-0.16725075
2	0xbe235364	-0.1594978
3	0xbd453c40	-0.048153162
4	0x3d02c5ea	0.031927027
5	0xbe83e8c6	-0.2576353
6	0xbe9a457f	-0.30131146
7	0xbd772d54	-0.060345963
8	0xbd8c53d5	-0.06851927
9	0xbd0be899	-0.03415737
10	0xbc6cafc1	-0.0144462
11	0xbd2384ce	-0.039921574
12	0xbd86d00b	-0.0658265
13	0xbe091828	-0.13388121
14	0xbe39ba30	-0.18137431
15	0xbe054b9f	-0.13017128
16	0xbdf8e154	-0.12152353
17	0xbe097845	-0.13424785
18	0xbd10eeed	-0.035384107
19	0x3b36a725	0.0027870622
20	0x3cb5da03	0.022198683
21	0xbdf03441	-0.11728717
22	0xbdad4c58	-0.08461827
23	0xbe5694ef	-0.20955251
24	0xbbda0d1f	-0.006654396
25	0xbc94ed93	-0.01817969
26	0x3b0515c6	0.0020307167
27	0xbdecb9f9	-0.11558909
28	0xbe110068	-0.14160311
29	0x3d94da7e	0.072682366
30	0xbe2a4f41	-0.16631795
31	0x3c844bb5	0.016149381

weight f4 [64, 32, 5, 5]
0	0xbce979d4	-0.028500475
1	0x3c223b1a	0.009901786
2	0xbd6310e7	-0.05543604
3	0xbd34d125	-0.04414477
4	0xbcb07e5b	-0.021544626
5	0x3ca6118b	0.020272037
6	0x3d3d9c3b	0.04629157
7	0xbd03061b	-0.031988245
8	0xbdacb02b	-0.08432039
9	0x3d169445	0.036762495
10	0xbd970194	-0.07373348
11	0xbd0437d4	-0.032279804
12	0xbd96c339	-0.073614545
13	0xbca5dfa7	-0.020248247
14	0x3ccadcc2	0.024763469
15	0xbd27d17d	-0.040971268
16	0xbcfd4881	-0.030918362
17	0xbd18e180	-0.03732443
18	0x3d073441	0.033008818
19	0x3d700fd3	0.05860884
20	0xbd8c56a9	-0.068524666
21	0xbd404ae2	-0.046946414
22	0x3c383099	0.011242055
23	0xbc6b7a90	-0.014372483
24	0x3b003dd1	0.0019568095
25	0x3c99370a	0.018703002
26	0xbd3843ce	-0.04498654
27	0xbc63718c	-0.013882052
28	0x3c6ad8fc	0.01433396
29	0x3cbc1a6d	0.02296182
30	0xbca0e6a9	-0.019641237
31	0xbd33546d	-0.043781687
32	0xbd481a5d	-0.048853267
33	0x3d1f42a0	0.038881898
34	0x3cce9bc9	0.025220769
35	0xbd152636	-0.036413394
36	0xbd118a19	-0.03553209
37	0xbc8cdeac	-0.017196022
38	0x3b0e8331	0.0021745677
39	0x3d6357b9	0.05550358
40	0xbd05c8b6	-0.032662116
41	0xbd63859f	-0.055547353
42	0xbc3a684c	-0.011377405
43	0x3cc28fff	0.023750303
44	0x3d4d69a7	0.050149586
45	0x3cb7fa23	0.022458142
46	0x3b93d32d	0.004511258
47	0xbaa69de4	-0.001271185
48	0x3a3fd58e	0.0007317894
49	0xbc80aee2	-0.01570839
50	0xbd1f61c4	-0.038911596
51	0xbba8c868	-0.0051508434
52	0xbd2b89e2	-0.041879542
53	0x3b90b3c7	0.0044159624
54	0xbb39135b	-0.0028240297
55	0x3cbd594a	0.023113865
56	0xbd388b1e	-0.045054547
57	0x3cc5ae6c	0.024131022
58	0x3d16542f	0.036701377
59	0x3b7d4728	0.0038647149
60	0xbd9992de	-0.07498716
61	0xbd7818ec	-0.060570642
62	0xbb819d17	-0.003955494
63	0x3da63507	0.08115583
64	0x3d39e616	0.045385443
65	0x3b7bd1a2	0.0038424511
66	0xbd297dd5	-0.04137977
67	0x3c712c5e	0.014720051
68	0x3d5927d0	0.053016484
69	0x3befc186	0.007316771
70	0xbd6b9aa2	-0.057520516
71	0x3cc1e044	0.023666508
72	0x3d97ffbc	0.07421824
73	0x3d6ff38d	0.058581877
74	0xbc748f13	-0.01492669
75	0xbad2bf61	-0.0016078764
76	0x3d2dc3a9	0.042422924
77	0xbd8164fb	-0.063180886
78	0x3c61dcd1	0.013785557
79	0x3cac14b6	0.02100597
80	0x3d888bdd	0.06667302
81	0x3b98628e	0.0046504205
82	0xbd24180c	-0.040061995
83	0xbc055c13	-0.008139628
84	0xbcd7ec7c	-0.026357882
85	0x3c379eba	0.011207277
86	0xbda9caf5	-0.08290664
87	0xbd26bc75	-0.04070707
88	0x3c19d6b3	0.009389567
89	0x3d3b9d74	0.045804456
90	0xbceccb9e	-0.028905686
91	0xbc80248e	-0.01564243
92	0xbc1d0fe9	-0.009586313
93	0xbc57b93e	-0.013166724
94	0xbc5cdf88	-0.013481028
95	0x3cc59ce7	0.024122668
96	0xbb1b8948	-0.002373295
97	0x3c87c5e5	0.016573856
98	0x3cf5f3c3	0.030023461
99	0xbd1703f0	-0.03686899
100	0xbae010bd	-0.0017094832
101	0x3c192613	0.0093474565
102	0x3be2fd2d	0.0069271536
103	0x3cd67dd8	0.026183054
104	0x3c0ec70c	0.008714449
105	0x39163ef3	0.00014328565
106	0xbc0e1792	-0.008672612
107	0xbcdbb211	-0.026818307
108	0x3b96bbc0	0.0046000183
109	0xbce113a9	-0.027475195
110	0xbcd50374	-0.026002623
111	0x3d255bfc	0.040370926
112	0xbbe4798a	-0.0069724964
113	0x3d6fb15e	0.05851876
114	0x3d21c969	0.03949872
115	0x3c3bcb25	0.011462008
116	0xbccfd701	-0.025371077
117	0xbbe5dc05	-0.0070147538
118	0xbb7de313	-0.0038740083
119	0xbaf1220e	-0.001839699
120	0x3ceb7742	0.02874339
121	0x3d891e60	0.06695247
122	0xbc225d15	-0.009909888
123	0x3d0b5eb0	0.034025848
124	0x3b1c744f	0.0023873036
125	0xbd13ea42	-0.036112078
126	0xbcccf2f9	-0.025018202
127	0x3c46fdc3	0.012145462
128	0xbb11d251	-0.0022250602
129	0xbd06fd5e	-0.032956474
130	0xbb353f58	-0.0027656164
131	0x3d422bc9	0.047405038
132	0x3d1b8888	0.037972003
133	0x3d9abc63	0.07555463
134	0x3cda5c4a	0.026655335
135	0xbcb4c974	-0.022068717
136	0xbd1ebab7	-0.038752284
137	0x3cde947e	0.027170416
138	0x3dc85536	0.09781878
139	0x3a60e49c	0.00085789873
140	0xbbe14192	-0.0068742717
141	0x3c2b8436	0.010468533
142	0x3bf147ef	0.0073633115
143	0x3c63c0a6	0.013900911
144	0x3c9715f0	0.018443078
145	0x3c992b3f	0.01869738
146	0x3bdc196a	0.006716897
147	0x3d0a6265	0.033785243
148	0xbb8ea1af	-0.0043527703
149	0x3d122e7f	0.035688873
150	0xbc379750	-0.011205509
151	0xbb2f8089	-0.0026779494
152	0xbc8662d4	-0.016404547
153	0x3d243c9d	0.040096868
154	0x3b7b65fb	0.0038360346
155	0x3d3c105c	0.04591404
156	0x3cb7db7d	0.022443527
157	0x3c9a67c3	0.018848306
158	0x3c3e630e	0.011620296
159	0x3d818d70	0.06325805
160	0x3c3549ad	0.011064929
161	0x3d02fac4	0.03197743
162	0x3d19898c	0.03748469
163	0x3d00c560	0.03143823
164	0x3d889a5a	0.06670065
165	0x3c8d7b72	0.017270777
166	0xbcb268bd	-0.021778459
167	0x3c857108	0.016289249
168	0xbc25befd	-0.010116336
169	0xbbd4fe48	-0.0065000392
170	0x3c7bca7d	0.015368101
171	0x3a930eba	0.0011219599
172	0x3d3adb7b	0.04561947
173	0x3cb8d0e1	0.022560539
174	0x3d597995	0.053094465
175	0x3c671ae4	0.014105532
176	0x3cbba6bb	0.022906652
177	0x3cb6e1d4	0.02232448
178	0xbd22e38a	-0.03976778
179	0xbd6c4ea8	-0.0576922
180	0xbd8df28c	-0.06931028
181	0x3d2f8267	0.04284897
182	0x3d57fe01	0.05273247
183	0xbca1878f	-0.01971796
184	0xbc0eb1d5	-0.008709391
185	0xbd9f1f6d	-0.07769666
186	0xbce6ebf3	-0.028188681
187	0xbd3af530	-0.045643985
188	0xbceb2a68	-0.028706744
189	0x3c0df4ca	0.008664319
190	0xbcae8376	-0.02130292
191	0xbcb25201	-0.021767618
192	0x3dc45288	0.09586054
193	0xbb804e9e	-0.003915622
194	0xbcd95f04	-0.026534565
195	0xbd797e03	-0.06091119
196	0xba014be6	-0.0004932269
197	0x3d0c08d9	0.034188125
198	0x3cbbb1bd	0.0229119
199	0x3d3d77e0	0.0462569
200	0xbc29b1e8	-0.010357358
201	0x3d8a5b91	0.06755746
202	0x3bcd9e8e	0.0062750047
203	0xbc8303b1	-0.015992971
204	0xbcea817f	-0.028626202
205	0xbce97254	-0.028496899
206	0x3d75d65f	0.060018893
207	0xbd4885e4	-0.048955813
208	0xbcf05353	-0.029336607
209	0x3c7b6f68	0.015346386
210	0x3cbb3b0d	0.022855306
211	0x3d1bc7e5	0.03803243
212	0xbd990fa3	-0.074736856
213	0xbacc4a07	-0.0015586027
214	0xbd071081	-0.032974724
215	0xbc46e735	-0.012140085
216	0x3dce1c33	0.10063972
217	0x3d726063	0.059173953
218	0xbb45d06c	-0.0030184044
219	0x3b4e1093	0.0031442984
220	0xbbda912b	-0.0066701374
221	0x3d34da8e	0.044153742
222	0x3b828fa1	0.003984407
223	0xbc8ff155	-0.01757113
224	0x3cc4a769	0.024005609
225	0x3c881abb	0.016614309
226	0x3d262dcc	0.04057102
227	0xba9b8fe4	-0.0011868444
228	0x3c8db44c	0.017297886
229	0x3b1f345a	0.0024292679
230	0xbc96c793	-0.018405711
231	0x3d1d18b1	0.038353626
232	0xbcefa2a1	-0.029252352
233	0xbca8b1bc	-0.020592563
234	0x3d3e486e	0.046455793
235	0x3d580cb8	0.052746505
236	0xbda4e0ff	-0.08050727
237	0xbcfc6a4b	-0.030812403
238	0xbd2af50d	-0.041737605
239	0xbd244075	-0.040100534
240	0xbd2ed337	-0.0426819
241	0x3c178777	0.009248606
242	0x3ce945e2	0.028475706
243	0x3d81460d	0.06312189
244	0xbcfd652c	-0.030932032
245	0x3cf68ede	0.030097421
246	0xba0aa55b	-0.0005288922
247	0x3c89433e	0.016755696
248	0xbd84bff4	-0.06481925
249	0x3c38ef3c	0.011287507
250	0xbd921f23	-0.07134845
251	0xbc44cac7	-0.0120112365
252	0xbd1ee2ab	-0.038790386
253	0x3d40dbb4	0.047084525
254	0xbd30bc6d	-0.043148447
255	0xbc2a5e64	-0.010398481

bias f4 [64]
0	0xbdc2eb9e	-0.09517597
1	0xbe00347e	-0.12520024
2	0xbdca0f3c	-0.09866187
3	0xbd0fa50a	-0.035069503
4	0xbd3e0ccc	-0.046398923
5	0xbde4471b	-0.11146375
6	0xbd49caf9	-0.049265835
7	0xbd2a98bd	-0.04164957
8	0xbd74e45e	-0.0597881
9	0xbd69f1bf	-0.057115313
10	0xbe0086ef	-0.12551473
11	0xbdb0182e	-0.08598362
12	0xbda765d8	-0.08173722
13	0xbd9f8fad	-0.07791076
14	0xbdbf27ca	-0.09333761
15	0xbd74c893	-0.059761595
16	0xbdfa982b	-0.12236055
17	0xbdb45a25	-0.08806256
18	0xbdb4ce15	-0.088283695
19	0xbdc2d411	-0.09513105
20	0xbdd24cfc	-0.1026859
21	0xbd48909e	-0.048966043
22	0xbccf531c	-0.025308184
23	0xbdf70597	-0.12061613
24	0xbd89fcd0	-0.06737673
25	0xbc35eaf7	-0.011103383
26	0xbda5299b	-0.08064576
27	0xbd3a570f	-0.04549318
28	0xbda39ad8	-0.079885185
29	0xbda23d1a	-0.079218104
30	0xbce91e25	-0.028456757
31	0xbd4fff9b	-0.050780874
32	0xbc35d3a5	-0.011097823
33	0xbd3e139c	-0.04640542
34	0xbdb5edda	-0.08883257
35	0xbda1fd55	-0.079096474
36	0xbd502958	-0.05082068
37	0xbdafc61a	-0.08582707
38	0xbda3fed8	-0.08007592
39	0xbdf76253	-0.12079301
40	0xbdf4b733	-0.11949005
41	0xbdb53e6d	-0.088497974
42	0x3cd097f7	0.025463087
43	0xbcb4ccc8	-0.022070304
44	0xbd60a07f	-0.05484056
45	0xbcd5668d	-0.026049877
46	0xbd31ab96	-0.043376528
47	0xbdc42fcc	-0.09579429
48	0xbd2fba71	-0.042902414
49	0xbd1463d2	-0.03622801
50	0xbde4cc14	-0.11171737
51	0xbdf2e8bb	-0.11860796
52	0xbd922376	-0.0713567
53	0xbe121f0c	-0.14269656
54	0x3a1dc0f4	0.0006017827
55	0x3c34dc6a	0.011038879
56	0x3c79c57e	0.01524484
57	0xbdfb7b07	-0.12279325
58	0x3bb8d8d7	0.0056410837
59	0xbde40eb3	-0.11135616
60	0xbdab6522	-0.08368899
61	0xbd53a366	-0.0516695
62	0xbd2cce87	-0.042189147
63	0xbcb892fe	-0.022531029

weight f4 [64, 1024]
0	0xbd5a4e58	-0.05329737
1	0xbae661dc	-0.0017576772
2	0x3c83bb01	0.016080381
3	0x3bd18a0f	0.0063946317
4	0x399abddf	0.00029514634
5	0x3cddc3ad	0.027070845
6	0x3ca17da2	0.019713227
7	0xbc4d6d4d	-0.012538266
8	0xbbd145a4	-0.0063864756
9	0x3c7a50df	0.01527807
10	0x3d42114e	0.047379784
11	0xbc411dc5	-0.011786883
12	0xbd4d0cff	-0.050061222
13	0xbd6e073f	-0.05811238
14	0xbb681657	-0.0035413706
15	0xbd2e2bc1	-0.042522196
16	0xbd0439c8	-0.032281667
17	0x3cb7e1a2	0.022446457
18	0xbd0421e6	-0.03225889
19	0xbc5daf42	-0.013530554
20	0xbc0e09d5	-0.008669336
21	0xbc31d367	-0.010853625
22	0xbccba418	-0.02485852
23	0xbc5b1d7f	-0.013373732
24	0xbd08422b	-0.033266228
25	0x3ce7381f	0.028225003
26	0xbceaeeb1	-0.02867827
27	0x3d2c5304	0.042071357
28	0x3c852cc4	0.016256697
29	0x3c0e5b9e	0.008688835
30	0x3d18cded	0.03730576
31	0xbc6a84b7	-0.014313868
32	0x3c3a8d4d	0.011386228
33	0x3ba18fef	0.0049304883
34	0xbd227129	-0.0396587
35	0xbcad33e0	-0.0211429
36	0xbd375001	-0.044754032
37	0x3c05e5ee	0.008172495
38	0x3d0f5722	0.034995206
39	0x3d1d8491	0.038456503
40	0xbce31baf	-0.027723162
41	0xbd25dc43	-0.04049326
42	0xbd350ebd	-0.04420351
43	0xbc8fff14	-0.017577685
44	0x3bc4c06d	0.0060043843
45	0x3ce1cfd9	0.02756493
46	0x3cd9a70c	0.026568912
47	0xbc46e65c	-0.012139883
48	0xbc3508fd	-0.011049506
49	0xbd04f669	-0.032461558
50	0xbcd37c29	-0.02581604
51	0xbc6ab9ed	-0.014326555
52	0xbd065065	-0.032791514
53	0xbce8c70c	-0.028415225
54	0x3cfca63e	0.03084099
55	0x3c202ade	0.009775845
56	0xbd31cd06	-0.043408416
57	0x3d0a8854	0.03382142
58	0x3d1fe143	0.039033186
59	0x3cecd427	0.028909756
60	0x3cb2a5cd	0.021807576
61	0x3d265cbc	0.040615782
62	0x3dd0ffb8	0.102050245
63	0x3d4fc715	0.05072697
64	0x3b2b6252	0.0026151133
65	0xbc283eda	-0.010268891
66	0x3cbb31be	0.022850867
67	0x3cf6b9bf	0.030117868
68	0xbcef4938	-0.029209718
69	0xbc8e321b	-0.017357877
70	0x3ca31458	0.019907162
71	0x3d9128fc	0.07087895
72	0x3bee3c98	0.007270407
73	0x3d7e25b0	0.06204766
74	0xbbc242ca	-0.005928372
75	0x3cb6e79a	0.022327233
76	0xbc2ed0b8	-0.01066988
77	0x3ca72714	0.020404376
78	0xbb08f309	-0.0020896813
79	0xba413f1d	-0.00073717703
80	0xbcb9fb8a	-0.022702951
81	0x3d6ed585	0.058309097
82	0x3c6b2640	0.014352381
83	0xbcf56be5	-0.029958675
84	0xbb38e5fa	-0.0028213249
85	0xbc2f0fab	-0.010684888
86	0x3d2016c8	0.039084226
87	0x3bb25eb3	0.005443418
88	0x3c8793d6	0.016549986
89	0x3ca889dd	0.02057355
90	0xbca6305d	-0.020286733
91	0x3c6037ff	0.0136852255
92	0x3d396a16	0.045267187
93	0x3d40e909	0.04709724
94	0x3d4a4ae5	0.04938783
95	0x3d1bcb22	0.03803552
96	0xbbcc694c	-0.0062381383
97	0xbc61aad1	-0.013773636
98	0xb71ed193	-9.466329e-06
99	0x3c593b1c	0.013258722
100	0xb806e2e0	-3.2159383e-05
101	0xbc9111ce	-0.017708685
102	0xbcdf317b	-0.027245274
103	0xbced889d	-0.028995806
104	0x3d1298f8	0.035790414
105	0x3d378c68	0.044811636
106	0x3b327a40	0.0027233511
107	0x3d892bef	0.06697833
108	0xbc858c87	-0.01630236
109	0x3cafd943	0.021465903
110	0x3d1514b8	0.036396712
111	0x3d1837f2	0.03716273
112	0x3b0178e3	0.0019755892
113	0xbd51874d	-0.051154424
114	0xbcf0cd05	-0.029394636
115	0x3d256d90	0.04038769
116	0x3cdfdf88	0.027328268
117	0xbcab3b68	-0.02090235
118	0x3d51e799	0.05124626
119	0x3d304ec7	0.043043878
120	0x3ba715e4	0.005099045
121	0xbce1c12e	-0.027557936
122	0x3d1327c9	0.035926614
123	0x3d316891	0.043312613
124	0x3d783764	0.0605997
125	0xbc3fdde9	-0.011710622
126	0x3c37e338	0.011223607
127	0x3c534d4c	0.012896847
128	0xba732eba	-0.0009276677
129	0xbba38c95	-0.004991124
130	0x3d1730f4	0.03691192
131	0xbc5640c1	-0.013076962
132	0x3d33014d	0.043702412
133	0x3cdf8ea7	0.027289702
134	0x3d0cf3db	0.034412246
135	0x3d0f193d	0.03493618
136	0x3d6f7ebe	0.05847048
137	0x3da6a583	0.081370376
138	0x3cb6db31	0.022321315
139	0x3d7ec4eb	0.062199514
140	0xbd189442	-0.037250765
141	0xba879d30	-0.0010346528
142	0xbad28874	-0.0016062395
143	0xbcca4aff	-0.024693964
144	0x3c570e8f	0.01312603
145	0xbc462037	-0.012092642
146	0x3cc13c57	0.023588343
147	0xbc46233f	-0.012093364
148	0x3c091126	0.008365905
149	0x3cfdad3d	0.030966396
150	0x3d9f7021	0.07785059
151	0x3d123733	0.035697173
152	0x3cb32f7d	0.02187323
153	0x3da36d5d	0.07979844
154	0x3cce6074	0.025192477
155	0x3bd9fc99	0.0066524264
156	0xbd12ee2d	-0.035871673
157	0x3b65ca84	0.0035063336
158	0xbc96532e	-0.01835021
159	0xbd3caca3	-0.046063077
160	0x3ca6108a	0.020271558
161	0xbc57057d	-0.013123867
162	0xbd6bffc3	-0.05761696
163	0x3bcb112f	0.006197117
164	0x3d1015b6	0.035176955
165	0xbcf3005e	-0.029663261
166	0xbba9b75e	-0.00517933
167	0x3d8b4f64	0.06802252
168	0x3d174982	0.036935337
169	0xbca7fc18	-0.02050595
170	0x39b32a05	0.00034172848
171	0x3d7c68b6	0.061623298
172	0x3c19c235	0.0093846815
173	0xbd3048dd	-0.043038238
174	0xba002f71	-0.0004889882
175	0x3d0e1f87	0.034698036
176	0x3bf10522	0.007355348
177	0x3c2e6a67	0.0106454855
178	0xbc8b085d	-0.016971761
179	0xbc88ff1e	-0.016723212
180	0xbd012d80	-0.031537533
181	0x3c28b92e	0.0102980565
182	0xbd0d19c2	-0.034448393
183	0xbc8dbc43	-0.017301684
184	0xbb231ef8	-0.0024890285
185	0x3a25c862	0.000632411
186	0xbd336f12	-0.043807097
187	0xbc8ea131	-0.017410846
188	0x3c810575	0.015749672
189	0x3ca18e4a	0.019721169
190	0x3d895fc5	0.0670772
191	0x3d442a15	0.047891695
192	0x38cfb946	9.905039e-05
193	0xbd5e490e	-0.05426889
194	0x3c2156ac	0.009847324
195	0xbc3e5a98	-0.011618279
196	0x3c885070	0.016639918
197	0xbd818124	-0.0632346
198	0xbcd3484c	-0.02579131
199	0xbcd2c43a	-0.025728334
200	0x3cc32084	0.023819216
201	0xbc5b54cf	-0.013386919
202	0x3ca22d96	0.019797128
203	0x3c7db33e	0.015484629
204	0x3d9b6745	0.075880565
205	0xbd112888	-0.035439044
206	0x3c84db58	0.016217873
207	0xbced4cd6	-0.028967302
208	0x3c4d447c	0.012528535
209	0xbcd8ee1e	-0.02648073
210	0xbc8be4ed	-0.017076934
211	0xbb8f1db7	-0.004367556
212	0xb76eb4b7	-1.4227981e-05
213	0x3cf03c71	0.029325696
214	0x3cabac85	0.020956287
215	0x3c3127f6	0.01081275
216	0x3bc556ac	0.006022295
217	0x3cf3bf11	0.029754193
218	0x3cbb4fac	0.022865139
219	0x3d7c9fe7	0.061675932
220	0xbd6206f3	-0.05518241
221	0xbd1ab053	-0.037765812
222	0xbc4a4252	-0.012344914
223	0xbcbdb583	-0.02315784
224	0x3cf65164	0.030068107
225	0x3c836eef	0.016044108
226	0x3d74811b	0.059693437
227	0xbbaa62f3	-0.005199784
228	0x3c35de77	0.011100403
229	0xbbc63628	-0.0060489364
230	0xbcc2cce6	-0.023779344
231	0x3c11a18b	0.0088886125
232	0x3c8048c9	0.015659707
233	0xbd74dc7d	-0.059780587
234	0x3cc18052	0.023620758
235	0xbd96547b	-0.07340332
236	0xbbec9623	-0.007220046
237	0xbd13f953	-0.036126446
238	0x3c7bdaf0	0.015372023
239	0x3c6387f5	0.013887395
240	0xbb369f01	-0.002786577
241	0x3c0c312c	0.008556645
242	0xbbe39c0f	-0.006946094
243	0xbce5d19e	-0.028054055
244	0x3c808305	0.015687475
245	0xbc210e8c	-0.009830128
246	0xbccfc435	-0.025362113
247	0x3c5fd041	0.013660491
248	0x3a00d575	0.000491462
249	0xbd2e5d91	-0.0425697
250	0x3d1704c9	0.036869798
251	0xbc96976e	-0.018382754
252	0x3c768598	0.0150465
253	0x3d633ef6	0.055479966
254	0xbbfb87e9	-0.007676114
255	0x3c8f36c8	0.017482176

bias f4 [64]
0	0xbc8fef34	-0.017570116
1	0x3bc4bbad	0.006003818
2	0xbcda486a	-0.026645858
3	0x3c8304e8	0.01599355
4	0xbcaefc0e	-0.021360423
5	0x3d3f3a24	0.046686307
6	0xbc59cd52	-0.013293581
7	0xbc7a7ceb	-0.015288572
8	0x3c623774	0.013807166
9	0xbc018533	-0.007905292
10	0xbcd2c8fe	-0.025730606
11	0xbd3c1c64	-0.045925513
12	0x3c8285fb	0.015933027
13	0x3d59cef2	0.053175874
14	0x3bc26c27	0.005933303
15	0xbbb7f942	-0.0056144306
16	0x3cdce837	0.026966197
17	0x3c072930	0.008249566
18	0xbcb33f36	-0.021880727
19	0x3d150212	0.036378928
20	0xbd3e8e8f	-0.046522673
21	0x3ca452fa	0.020059098
22	0x3c95d336	0.01828919
23	0xbd07ecbc	-0.033184752
24	0x3cc7eab7	0.024403913
25	0xbd0f5241	-0.034990553
26	0x380ced8e	3.359984e-05
27	0xbcff14ff	-0.031137941
28	0x3d9e242c	0.07721743
29	0x3ceac291	0.02865723
30	0xbcb21ce2	-0.021742288
31	0x3ca04862	0.019565765
32	0xbd5771cc	-0.05259876
33	0x3d2e254e	0.042516045
34	0x3b0da22e	0.002161156
35	0xbd3c4f2f	-0.045973953
36	0xbcdd46a1	-0.027011218
37	0x3cca61ae	0.02470478
38	0xbd3de3ea	-0.046359934
39	0xbd4e3b36	-0.050349437
40	0xbd50dfca	-0.050994672
41	0xbcbc9e22	-0.023024622
42	0xbd1dadce	-0.03849583
43	0xbd2efa1a	-0.042718984
44	0x3ca861f2	0.020554516
45	0xbc221679	-0.009893053
46	0xbc2aa423	-0.01041511
47	0xbd28d879	-0.04122207
48	0xbd0465e3	-0.03232373
49	0xbce1a7c0	-0.02754581
50	0x3d03cdf8	0.03217885
51	0x3d85e2b7	0.06537383
52	0x3cdeabf7	0.027181609
53	0xba0ea938	-0.00054420857
54	0xbaac666c	-0.0013153083
55	0xbb954718	-0.004555594
56	0x3b87cf1e	0.0041445633
57	0xbd29d410	-0.041462004
58	0xbd4e45f8	-0.050359696
59	0x3c8558bb	0.016277662
60	0x3d11b0bd	0.03556894
61	0xbd2e72b6	-0.042589866
62	0x3cfb6414	0.03068737
63	0x3d00929b	0.031389814

weight f4 [10, 64]
0	0x3d5b61ce	0.05356007
1	0x3e634f4f	0.22198223
2	0xbdf90c23	-0.12160518
3	0xbd1a4614	-0.037664488
4	0xbe41113d	-0.18854232
5	0xbe769d30	-0.240834
6	0x3ddbbcc9	0.10729367
7	0x3e6f2e7d	0.23357578
8	0x3e6236d7	0.22091232
9	0x3d56d591	0.052449767
10	0xbe797167	-0.24359666
11	0x3e721534	0.23640901
12	0xbdb25632	-0.08707847
13	0x3d421217	0.047380533
14	0xbe8e4b35	-0.27791753
15	0x3e6e77e9	0.2328793
16	0x3e532976	0.20621285
17	0xbe8dca00	-0.27693176
18	0x3e5e3800	0.2170105
19	0xbe5cdd77	-0.21568857
20	0x3d1dad2d	0.03849523
21	0xbe5923e2	-0.21205094
22	0xbc9e17b9	-0.019298421
23	0x3e469592	0.19392994
24	0xbe060a95	-0.13089974
25	0xbd09cfca	-0.03364543
26	0xbe3c5a5f	-0.18393849
27	0xbdfd1cff	-0.12359046
28	0xbe7fbe02	-0.24974826
29	0xbcfd5875	-0.030925969
30	0xbd4d386f	-0.050102647
31	0x3d379e50	0.044828713
32	0x3e9c168c	0.30485952
33	0xbe83362c	-0.25627267
34	0xbdb56c58	-0.088585556
35	0x3d647f67	0.055785563
36	0xbe506093	-0.2034934
37	0xbdda8673	-0.106701754
38	0x3e9d734b	0.30752024
39	0xbe7c2d65	-0.24626692
40	0x3e857f45	0.2607366
41	0xbda16a4d	-0.078816034
42	0x3dd635d1	0.104594834
43	0x3e3cd7ed	0.18441744
44	0x3b98ce96	0.004663299
45	0xbe7035df	-0.2345805
46	0x3d84789e	0.064683184
47	0xbdc59993	-0.096484326
48	0x3e8fb386	0.28066653
49	0xbc63bb33	-0.013899612
50	0xbe86414b	-0.2622169
51	0xbe0373e2	-0.12837175
52	0x3df5486a	0.119767025
53	0xbcf59d8e	-0.029982354
54	0x3e0b5887	0.13607989
55	0x3cefca6c	0.029271327
56	0x3d25f719	0.040518854
57	0x3e9d1684	0.3068124
58	0x3e20be15	0.1569751
59	0xbe934127	-0.28760645
60	0xbe1d341e	-0.15351912
61	0x39cf5ecf	0.00039552755
62	0xbe04c9ee	-0.12967655
63	0x3d321d54	0.043485
64	0x3e24c4bd	0.16090675
65	0xbd8b2f3a	-0.06796117
66	0x3e249d6b	0.16075675
67	0xbe79b1dd	-0.24384256
68	0xbce1c372	-0.027559016
69	0x3d824bc2	0.06362106
70	0xbdd7563a	-0.10514493
71	0xbe89579f	-0.26824662
72	0xbea05723	-0.3131648
73	0xbbbad563	-0.005701707
74	0xbe95eb11	-0.29280904
75	0xbe482f99	-0.19549407
76	0xbdcea029	-0.10089142
77	0xbe5d4688	-0.21608937
78	0x3e9c28f8	0.30500007
79	0xbdbcb1c5	-0.09213594
80	0xbda25391	-0.07926095
81	0x3e8e9d34	0.2785431
82	0x3db6407b	0.088990174
83	0xbe3651c9	-0.17804636
84	0xbe297aad	-0.16550703
85	0xbe09f957	-0.13474022
86	0xbd5bfb8b	-0.053706687
87	0x3e7621f6	0.24036393
88	0x3edda281	0.43288043
89	0x3e8d99e9	0.27656487
90	0x3e56f397	0.2099136
91	0x3daa375f	0.083113424
92	0xbe94ba9e	-0.29048628
93	0xbe617ca6	-0.22020206
94	0xbdc80f60	-0.097685575
95	0x3e352ac8	0.17692101
96	0x3e8c975f	0.27459237
97	0x3def2cd9	0.11678476
98	0xbdbedfc7	-0.09320026
99	0xbe84741a	-0.25869828
100	0xbdec0b4c	-0.11525592
101	0x3e145d33	0.14488678
102	0xbe83b650	-0.2572503
103	0xbdd8bfca	-0.10583456
104	0x3e0ba2af	0.13636278
105	0xbd209a45	-0.039209623
106	0x3cf6821d	0.03009134
107	0x3d8eef70	0.06979263
108	0xbe92b28c	-0.28651845
109	0xbe802621	-0.2502909
110	0xbdd2113b	-0.10257193
111	0x3e98be5f	0.29832742
112	0xbd3b8ad6	-0.0457867
113	0x3e3bcac1	0.18339063
114	0xbe5c7908	-0.21530545
115	0xbe6a429e	-0.22876975
116	0xbec82887	-0.3909342
117	0x3e7ed0f3	0.24884395
118	0xbe4ae2b4	-0.19813043
119	0xbe004429	-0.12526001
120	0x3ecc5c48	0.39914155
121	0x3e3d9de2	0.18517259
122	0x3b576e1a	0.0032872022
123	0x3eb45005	0.352173
124	0xbee30e19	-0.44346693
125	0xbe216706	-0.15761957
126	0xbe9da433	-0.30789337
127	0xbe7dd8d2	-0.24789742
128	0xbeaba295	-0.33522478
129	0xbbaa9a20	-0.0052063614
130	0xbea92a18	-0.33039927
131	0x3e412bde	0.1886439
132	0xbde0f845	-0.10984854
133	0xbdc38048	-0.09545952
134	0x3dbc5d59	0.09197492
135	0xbd6cbc92	-0.057797022
136	0x3c04ec35	0.008112957
137	0xbe033a02	-0.12815097
138	0x3e4f4078	0.20239437
139	0xbe847777	-0.25872394
140	0x3cd7051d	0.026247555
141	0x3cdc31d1	0.026879223
142	0xbeac0b45	-0.33602348
143	0x3e7f2e7c	0.24920076
144	0xbd8a3eb3	-0.0675024
145	0xbe2f5076	-0.17120537
146	0xbe33c421	-0.17555286
147	0x3def59d5	0.11687056
148	0x3d5baad7	0.053629722
149	0x3dca7a59	0.09886617
150	0xbe564160	-0.20923376
151	0xbe92292f	-0.28547046
152	0xbd121669	-0.035665903
153	0x3d6c6b0b	0.05771927
154	0xbe2cdd6a	-0.16881338
155	0x3e17cf7d	0.14825244
156	0xbe21651f	-0.15761231
157	0x3e6531ad	0.22382231
158	0xbd492f94	-0.04911764
159	0x3e630f23	0.22173743
160	0x3e80c23e	0.25148195
161	0x3dd6a479	0.104805894
162	0xbe3e51f6	-0.18585953
163	0xbc95574c	-0.018230103
164	0x3e80b966	0.25141448
165	0x3e01b13e	0.12665269
166	0x3e2889b5	0.16458781
167	0xbea10afc	-0.31453693
168	0x3dec6a63	0.11543729
169	0x3ded7d2e	0.11596142
170	0x3ce52ad1	0.027974518
171	0x3d0c542b	0.034259956
172	0x3dfb51ca	0.122714594
173	0x3e8ba395	0.2727324
174	0x3ec9413e	0.39307588
175	0xbcb3434e	-0.02188268
176	0x3de72123	0.11285617
177	0x3e92baec	0.28658235
178	0x3e91076d	0.28325978
179	0x3e4e40a5	0.20141847
180	0xbdfcf93e	-0.12352227
181	0x3e5bfbce	0.21482775
182	0x3e144131	0.14477994
183	0x3e3120ec	0.17297715
184	0x3d2a7d52	0.04162342
185	0xbe100e37	-0.14067923
186	0xbd79e544	-0.06100966
187	0xbe629f70	-0.22131133
188	0x3e98d953	0.29853305
189	0x3d68f44d	0.05687361
190	0x3df8f896	0.12156789
191	0xbd82a269	-0.063786335
192	0xbe1bb0b7	-0.1520413
193	0x3e42beff	0.19018172
194	0xbe69de2a	-0.22838655
195	0xbe38b139	-0.18036355
196	0xbdd7227a	-0.10504623
197	0x3e6d51aa	0.23175684
198	0xbc927923	-0.017880028
199	0xbcbd708b	-0.023124954
200	0xbe38ef9c	-0.18060154
201	0x3e4e1b36	0.20127568
202	0x3e49d47f	0.19709967
203	0x3cdda6c6	0.027057063
204	0x3df89292	0.12137331
205	0xbe75eee3	-0.2401691
206	0x3e84a827	0.2590954
207	0xbde5af6a	-0.11215098
208	0x3df8086f	0.121109836
209	0x3e527914	0.20554
210	0xbd3bc47b	-0.045841675
211	0xbb8bee0e	-0.0042703217
212	0x3cf36586	0.029711496
213	0x3e029213	0.12751035
214	0x3e6989e0	0.22806501
215	0x3afe4d1d	0.0019401644
216	0xbd8d7231	-0.06906546
217	0xbd304e7a	-0.04304359
218	0xbe425f75	-0.18981726
219	0xbe57e644	-0.21083933
220	0x3dc2bd6d	0.09508786
221	0x3da4a0a1	0.0803845
222	0x3e8855ec	0.26628053
223	0xbdf9b404	-0.121925384
224	0xbdacfe1f	-0.08446907
225	0x3d252752	0.040320702
226	0x3e0a61b4	0.13513833
227	0xbdd4c44a	-0.10389002
228	0x3e31b9fd	0.17356105
229	0x3ccfefc4	0.025382884
230	0x3ddaf5fc	0.10691449
231	0x3dad9905	0.08476452
232	0x3e364673	0.17800312
233	0x3e7c4273	0.24634723
234	0xbeb4130b	-0.3517078
235	0xbd5135e1	-0.051076774
236	0x3d459826	0.048240803
237	0x3dcf7cae	0.10131203
238	0x3e2388e7	0.15970193
239	0xbe5917a9	-0.21200432
240	0xbd83b9d9	-0.06431932
241	0xbdcc1a72	-0.099659815
242	0xbe3c424b	-0.18384664
243	0x3cb3e3b2	0.02195916
244	0x3e11e6fe	0.14248273
245	0x3e557bbe	0.20847985
246	0x3de80b29	0.11330254
247	0xbd85d565	-0.065348424
248	0xbe094b5c	-0.13407654
249	0xbe1c134c	-0.15241736
250	0x3e1a920a	0.15094772
251	0xbd7e8956	-0.062142693
252	0x3d4d6104	0.05014135
253	0xbe08897d	-0.13333698
254	0x3dbf9222	0.093540445
255	0xbd77f56c	-0.060536787

bias f4 [10]
0	0xbd8e1799	-0.06938095
1	0x3dda7424	0.10666683
2	0xbcbb8b9b	-0.022893718
3	0x3dae397c	0.08507058
4	0x3dcc3b2f	0.09972226
5	0xbdeb17ac	-0.114791244
6	0x3dbdf7df	0.09275793
7	0xbccc8582	-0.024966005
8	0xbb84b4f1	-0.00404989
9	0x3cf7472b	0.030185303
