try_train/cifar10_models/cifar10_net_24.pth (torch, 589402 bytes, 10 tensors)

weight f4 [32, 3, 5, 5]
0	0xbd8fc78a	-0.07020481
1	0x3dc97b8c	0.09838018
2	0x3e106f5c	0.1410498
3	0xbc7a069f	-0.015260368
4	0x3e17e2d0	0.14832616
5	0xbdd92be4	-0.106040746
6	0xbd960cda	-0.0732667
7	0xbcd912f5	-0.026498297
8	0x3e410a74	0.18851644
9	0x3dc12ed8	0.09432763
10	0xbd8f430a	-0.069952086
11	0x3cbbd2a6	0.022927593
12	0xbe3122c9	-0.17298426
13	0xbc90e42c	-0.017686926
14	0xbdcd6893	-0.100297116
15	0x3d4e9ed0	0.050444424
16	0x3bd62af4	0.006535882
17	0xbe849258	-0.258929
18	0xbe418f99	-0.18902434
19	0xbdf10f69	-0.117705174
20	0x3e3787a1	0.17922832
21	0xbd33039f	-0.043704625
22	0xbe8124f8	-0.25223517
23	0xbdb2dafc	-0.08733174
24	0xbd0ce838	-0.03440115
25	0xbdf93656	-0.12168567
26	0xbd75be47	-0.059995916
27	0xbd5a862d	-0.053350616
28	0xbd62b48b	-0.05534796
29	0xbdaefb9e	-0.08544086
30	0x3d973d27	0.07384711
31	0xbde2b231	-0.110691436
32	0xbe0733c4	-0.13203341
33	0x3d9e64c3	0.077340625
34	0x3d26584a	0.040611543
35	0x3c0d5c71	0.008627997
36	0x3d7b2a6b	0.06131975
37	0xbe25ce8d	-0.16192074
38	0xbb224059	-0.0024757592
39	0xbd2abaa4	-0.0416819
40	0x3e9f0abd	0.3106288
41	0x3e266369	0.1624886
42	0xbe05b2e3	-0.13056521
43	0xbd5e15ce	-0.054220013
44	0xbdc3cc05	-0.09560398
45	0x3e44b980	0.19211388
46	0x3db7ab4f	0.089682214
47	0xbe2e736e	-0.1703622
48	0xbe152f15	-0.14568742
49	0x3d8ef525	0.06980351
50	0xbc42984e	-0.011877133
51	0x3d4ba410	0.04971701
52	0x3dfb9203	0.12283709
53	0xbb10c1f5	-0.0022088264
54	0xbdef3660	-0.11680293
55	0x3c9fd1c3	0.019509202
56	0x3bc0164f	0.0058620344
57	0xbc3115fa	-0.010808462
58	0x3cb4bb33	0.02206192
59	0xbc414c7b	-0.0117980195
60	0x3e2c6723	0.16836219
61	0x3d37889e	0.044808023
62	0xbe0b0ca2	-0.13579038
63	0xbddf32d1	-0.10898364
64	0xbd474e4f	-0.048658665
65	0x3e91dcf8	0.28488898
66	0x3e59a23d	0.21253295
67	0xbdbae5b8	-0.091258466
68	0xbd27987c	-0.040916905
69	0x3c91b118	0.01778464
70	0x3e9be6e4	0.30449593
71	0x3e296773	0.16543369
72	0xbe0f3923	-0.1398664
73	0xbde623c9	-0.11237294
74	0xbd9eb403	-0.07749178
75	0xbe088725	-0.13332804
76	0xbd859423	-0.065223955
77	0xbe438dfe	-0.19097134
78	0xbc338f03	-0.01095939
79	0xbd50c5a0	-0.05096972
80	0xbb502680	-0.003176123
81	0xbd5de2ff	-0.05417156
82	0xbc08c694	-0.008348126
83	0xbd9e7094	-0.07736316
84	0x3d06f847	0.03295162
85	0x3ca69e22	0.020339075
86	0xbd5a8245	-0.05334689
87	0xbc185d15	-0.009299536
88	0xbd5cb537	-0.053883757
89	0x3d80a53b	0.06281515
90	0xbe036aee	-0.12833759
91	0xbdea3c3b	-0.11437269
92	0xbe221fa9	-0.1583239
93	0xbe2f6cd9	-0.17131366
94	0xbd315b12	-0.043299742
95	0xbd401e9d	-0.046904195
96	0xbe31469a	-0.17312089
97	0xbe2990a2	-0.1655908
98	0xbe3bf5df	-0.18355511
99	0xbdd1ea18	-0.10249728
100	0xbc3e7854	-0.011625368
101	0x3b095c0b	0.0020959403
102	0xbdc553aa	-0.09635098
103	0x3c933bcf	0.017972855
104	0xbe28f141	-0.16498281
105	0xbd2292cf	-0.03969079
106	0x3ccc56b4	0.024943687
107	0x3e0b0920	0.135777
108	0x3e3f7e71	0.18700577
109	0x3d4218d2	0.04738695
110	0xbca2d334	-0.0198761
111	0x3d5e3fa6	0.05425992
112	0x3d653179	0.055955384
113	0x3e41cf09	0.18926634
114	0x3d484711	0.0488959
115	0x3c4f37da	0.012647593
116	0xbd6c5664	-0.057699576
117	0xbde00c32	-0.10939826
118	0xbd853c1c	-0.065056056
119	0xbd437205	-0.04771616
120	0xbd916559	-0.07099409
121	0xbe2f60b0	-0.17126727
122	0xbe4f1593	-0.20223074
123	0xbe5bcb2d	-0.21464224
124	0xbdef8c16	-0.11696641
125	0xbd4f5373	-0.050616693
126	0x3db1c81f	0.08680748
127	0xbce4dd01	-0.027937414
128	0xbdbe4cb1	-0.092919715
129	0xbd95ec2a	-0.07320435
130	0x3e0879b2	0.13327673
131	0x3e4135af	0.18868135
132	0x3e8ea45a	0.27859765
133	0x3e26a07f	0.16272162
134	0x3cb5082f	0.022098629
135	0x3e5cb652	0.21553925
136	0x3e9946f0	0.29936934
137	0x3ebd0555	0.3691813
138	0x3e760caa	0.24028268
139	0x3e3898c8	0.18027031
140	0x3e3beecf	0.18352817
141	0x3e6b2bef	0.22965978
142	0x3e581789	0.21102728
143	0x3e16c39d	0.14723058
144	0x3e4ad67e	0.19808385
145	0x3c82225b	0.015885523
146	0xbd0013f1	-0.031269018
147	0x3d0ab967	0.03386822
148	0x3deb543e	0.11490677
149	0x3d46154c	0.048360154
150	0x3d6d6d00	0.05796528
151	0xbdfb98fd	-0.122850396
152	0x3d25bfdf	0.040466186
153	0xbdafba51	-0.08580459
154	0xbd796564	-0.06088771
155	0x3e462090	0.19348359
156	0xbe808848	-0.25103974
157	0x3d9d496e	0.07680021
158	0x3ae280f3	0.0017280862
159	0xbdc96333	-0.09833374
160	0x3cc8831a	0.024476577
161	0xbe4cd05a	-0.20001355
162	0xbdb5c688	-0.088757575
163	0xbd41b670	-0.047293127
164	0x3cb53d56	0.022123974
165	0xbe1b7edf	-0.15185116
166	0x3be5efa1	0.0070170914
167	0x3e226c3c	0.158616
168	0x3c7b00ab	0.0153199835
169	0x3b3a7550	0.0028451271
170	0xbdf81a01	-0.12114335
171	0xbd70f9a1	-0.058831815
172	0xbcbd9e7e	-0.023146864
173	0xbdebb9fe	-0.115100846
174	0xbe27e894	-0.16397315
175	0x3e357eae	0.17724106
176	0xbda87fde	-0.08227514
177	0x3dc91f2a	0.09820397
178	0x3d295a89	0.041346107
179	0x3b0a6f56	0.002112349
180	0x3e42885e	0.18997332
181	0xbdb826c9	-0.08991773
182	0x3d8eac6b	0.0696648
183	0x3dae1f61	0.08502079
184	0x3d8e28f9	0.06941409
185	0x3e02aeae	0.12761948
186	0xbe172527	-0.14760266
187	0x3e44c700	0.19216537
188	0x3d557816	0.052116476
189	0xbd2b7546	-0.041859888
190	0xbd815ae8	-0.06316167
191	0xbc70fee4	-0.014709208
192	0x3e39915b	0.18121855
193	0x3e4b983f	0.19882296
194	0x3e1d2bb8	0.15348709
195	0x3c3e1054	0.011600573
196	0x3da81f7a	0.08209129
197	0xbd726bd3	-0.05918486
198	0x3db96c5e	0.090538725
199	0x3bbe6b17	0.005811106
200	0x3d638414	0.05554588
201	0xbe3034ad	-0.17207594
202	0x3e1a32c0	0.15058422
203	0xbdd5a844	-0.10432485
204	0xbc07a406	-0.008278852
205	0x3e32c907	0.17459498
206	0xbe3be511	-0.183491
207	0x3d42601f	0.04745495
208	0xbda6e41e	-0.08148979
209	0x3d92d2ea	0.07169135
210	0x3d865567	0.06559258
211	0xbe28c716	-0.16482195
212	0xbc3ef8ee	-0.011656029
213	0xbdab697a	-0.083697274
214	0x3d45adf8	0.048261613
215	0x3c8b4764	0.017001815
216	0xbdd27d05	-0.10277752
217	0x3e642127	0.22278272
218	0x3e132838	0.14370811
219	0xbdc45e0b	-0.0958825
220	0xbda99abc	-0.08281466
221	0x3dde5aa4	0.10857132
222	0xbdd41e15	-0.103573
223	0xbe19f9fd	-0.15036769
224	0xbe203801	-0.15646364
225	0xbd3ab8b8	-0.045586318
226	0x3dcaebb3	0.09908237
227	0x3e1a6f19	0.15081443
228	0x3ca13aa1	0.019681277
229	0x3e06b868	0.13156283
230	0xbd0757fd	-0.033042897
231	0x3dbe4f9a	0.092925265
232	0xbba51f56	-0.005039136
233	0x3d8a23a8	0.06745082
234	0xbdc12965	-0.094317235
235	0x3dedd345	0.11612562
236	0x3d17ebab	0.037089985
237	0x3e13c5c2	0.14430907
238	0x3e206d03	0.15666585
239	0xbc8103f8	-0.015748963
240	0xbdabd870	-0.083908916
241	0xbe22322d	-0.15839453
242	0xbce03e58	-0.027373478
243	0x3c9311be	0.017952796
244	0x3e0b93e3	0.13630633
245	0xbdd13eb5	-0.102170385
246	0xbe28f9cd	-0.16501541
247	0xbe85a26b	-0.26100478
248	0xbdc58227	-0.09643965
249	0xbe08caec	-0.13358659
250	0xbc22087c	-0.009889718
251	0xbc9349ae	-0.01797947
252	0xbcc15560	-0.02360028
253	0x3dac8c5f	0.08425211
254	0x3da3064d	0.07960186
255	0xbd125872	-0.03572888

bias f4 [32]
0	0x3e2690f6	0.16266236
1	0xbebb6075	-0.36597028
2	0xbc9f3534	-0.019434549
3	0x3e101fc2	0.14074615
4	0xbb479750	-0.003045518
5	0xbdc8a000	-0.097961426
6	0x3cd628e4	0.026142545
7	0xbdaad3b0	-0.083411574
8	0x3dcb3a83	0.099232696
9	0xbe61525b	-0.22004072
10	0xbe4bcd35	-0.19902499
11	0xbd976a6e	-0.07393347
12	0x3e1571e2	0.14594224
13	0x3c0404ee	0.008057816
14	0xbe64ec67	-0.22355805
15	0x3e95971b	0.29216847
16	0x3bad2df3	0.0052850186
17	0x3dd6548a	0.10465343
18	0xbe67060a	-0.22560897
19	0xbd84f035	-0.06491128
20	0xbdd7d226	-0.105381295
21	0x3d2faa87	0.042887237
22	0xbe831008	-0.25598168
23	0xbe61cb7e	-0.22050282
24	0x3d66f770	0.05638832
25	0xbecec790	-0.4038663
26	0xbcb0f48c	-0.021600984
27	0xbdb7e36f	-0.089789264
28	0x3ecb91c9	0.39759663
29	0xbb4298ed	-0.0029693202
30	0xbe1101f9	-0.14160909
31	0xbe09ac60	-0.13444662

weight f4 [32, 32, 5, 5]
0	0x3c44e737	0.012018017
1	0x3d39b179	0.045335267
2	0xbc0b62e0	-0.00850746
3	0xbd4caa2c	-0.049966976
4	0xbc815019	-0.015785264
5	0xbcbb8386	-0.022889864
6	0x3d9ab526	0.075540826
7	0x3d345f46	0.044036172
8	0x398f8256	0.00027372193
9	0xbcb46266	-0.022019576
10	0x3aedc31b	0.0018139811
11	0x3cb7ef50	0.02245298
12	0x3d3bd131	0.045853797
13	0x3d4c0b4a	0.049815454
14	0xbcf090d1	-0.029365929
15	0xbd0fd949	-0.03511933
16	0xbc8b1e38	-0.016982183
17	0x3ca88087	0.0205691
18	0x3da89a0e	0.082325086
19	0x3d87e309	0.066351004
20	0xbd02fa7c	-0.03197716
21	0xbcdbd1f8	-0.02683352
22	0xbc95db87	-0.018293155
23	0x3db3d62f	0.08781087
24	0x3db31ff5	0.0874633
25	0x3bdb4f3b	0.0066927946
26	0xbc40e867	-0.011774159
27	0x3d0c22ae	0.03421276
28	0x3c710d33	0.01471262
29	0x3bdbb317	0.006704699
30	0x3cef37fc	0.0292015
31	0xbbe55b47	-0.0069994065
32	0xbca316ad	-0.019908274
33	0x3cc7d731	0.024394603
34	0x3d2a6347	0.041598585
35	0x3d7c8419	0.061649416
36	0x3d01d2d2	0.031695195
37	0xbd9472e1	-0.07248474
38	0xbd788084	-0.060669437
39	0x3d640096	0.05566462
40	0x3d7b794a	0.061394967
41	0x3c52647f	0.012841343
42	0xbd00cfdb	-0.031448226
43	0xbda84622	-0.08216502
44	0xbd30548f	-0.04304939
45	0x3daaac25	0.08333615
46	0x3ca44b7d	0.020055527
47	0x3d286960	0.04111612
48	0x3d2f016f	0.042725977
49	0xbc7900eb	-0.015197973
50	0x3c28363e	0.010266839
51	0xbd30facd	-0.043207932
52	0xbd1e9d1d	-0.038724054
53	0xbc37829f	-0.011200576
54	0xbd6d9f23	-0.058013093
55	0xbd2bf2e6	-0.041979693
56	0xbd55aa7c	-0.05216454
57	0xbc7e7d7b	-0.015532847
58	0xbd4c14d7	-0.049824562
59	0xbd03e8f2	-0.032204576
60	0x3b2a4da9	0.002598623
61	0xbd1c71c9	-0.03819445
62	0xbd953b37	-0.07286685
63	0x3bdb9244	0.006700786
64	0x3c960547	0.018313063
65	0x3d0cc5ac	0.034368202
66	0xbd136720	-0.03598702
67	0xbd6c4a13	-0.05768783
68	0xbca10fcd	-0.019660855
69	0x3c9d796a	0.019222934
70	0xbc8f4aff	-0.017491816
71	0x3c95da38	0.018292531
72	0x3b80b165	0.003927397
73	0x3bb78358	0.005600374
74	0xbd003c80	-0.031307697
75	0x3bb848cc	0.0056239124
76	0x3cc4b9fc	0.024014466
77	0x3d83d940	0.064379215
78	0x3c5c6543	0.013451877
79	0xb9ad2bcc	-0.00033029763
80	0xbd360e91	-0.044447485
81	0xbce6411c	-0.028107218
82	0x3ba38ef0	0.0049914047
83	0x3da71be6	0.08159618
84	0x3c289c89	0.010291227
85	0xbc69017a	-0.014221543
86	0xbc8de4c0	-0.01732099
87	0xbce5c987	-0.028050197
88	0xbc25d699	-0.010121965
89	0x3db91b49	0.09038407
90	0x3c8d39de	0.017239507
91	0xbd06ab5c	-0.032878265
92	0xbda391b1	-0.07986773
93	0xbbb7d632	-0.005610251
94	0x3d360d5d	0.044446338
95	0xbc51c281	-0.012802721
96	0x3c5c6cb3	0.01345365
97	0xbcc2f433	-0.023798084
98	0xbd837422	-0.06418635
99	0x3cab1982	0.020886187
100	0x3ced9526	0.029001784
101	0x3ce60638	0.028079137
102	0xbd31cfc7	-0.043411043
103	0xbd1af2d5	-0.03782924
104	0xbd2dbd08	-0.042416602
105	0xbc7236a1	-0.014783532
106	0xbc33df73	-0.010978567
107	0xbc6f8284	-0.01461852
108	0xbc9dacf1	-0.019247504
109	0x3d13c8e6	0.036080264
110	0xbc5b6e42	-0.013392987
111	0x3c6f7fd2	0.014617877
112	0xbcc1dc45	-0.023664603
113	0xbc3b8972	-0.011446344
114	0x3c960ce2	0.01831669
115	0xbb109b19	-0.0022065102
116	0x3bb1e497	0.0054288614
117	0xbce9a814	-0.028522529
118	0x3c92e946	0.017933499
119	0x3d76070e	0.06006532
120	0xbd26b070	-0.040695608
121	0xbbc707c9	-0.006073926
122	0x3d244017	0.040100183
123	0x3cb6d358	0.022317573
124	0x3c94a50b	0.018145105
125	0xbb05a33b	-0.0020391482
126	0xbcb97485	-0.022638569
127	0xbc7ed2fc	-0.015553232
128	0xbc70e688	-0.0147034
129	0x3c880c07	0.016607298
130	0x3cdd9415	0.02704815
131	0xbd10196c	-0.035180494
132	0x3b572abe	0.0032831873
133	0xbc9b9fa4	-0.018997021
134	0xbcf5f86c	-0.030025683
135	0xbc85b8b3	-0.016323423
136	0xba4802aa	-0.00076297915
137	0xbd4dba3d	-0.05022644
138	0xbc714a27	-0.014727152
139	0xbc25b654	-0.010114271
140	0xbce5fa2c	-0.028073393
141	0xbdad0c90	-0.08449662
142	0xbdb8a478	-0.09015745
143	0x3b13b573	0.0022538572
144	0x3ce5be87	0.028044952
145	0xbd21faaf	-0.03954571
146	0xbbeaffda	-0.007171613
147	0xbcbf61ab	-0.023362001
148	0xbd126bb1	-0.035747234
149	0x3caadfdf	0.020858703
150	0xbcf8cc21	-0.030370774
151	0xbc63606f	-0.013877972
152	0xbce27d93	-0.02764777
153	0xbd3655b2	-0.04451532
154	0xbd702288	-0.05862668
155	0xbd25ec31	-0.040508453
156	0xbd8085f3	-0.06275549
157	0xbd5c18d3	-0.05373461
158	0xbbc14eae	-0.005899272
159	0xbd46c018	-0.04852304
160	0xbba7cb9e	-0.0051207086
161	0xbd632b88	-0.055461437
162	0xbd2374b7	-0.03990623
163	0x3cd3d734	0.025859453
164	0xbd43d58f	-0.047811087
165	0xbd752810	-0.05985266
166	0xbd550abb	-0.052012186
167	0xbd80c8b0	-0.06288278
168	0x3c4d1c3e	0.0125189405
169	0xbba0ebc4	-0.004910918
170	0xbcd37df4	-0.025816895
171	0xbd5e8dc2	-0.05433441
172	0xbd1c5210	-0.0381642
173	0xbcac64b2	-0.021044109
174	0x3af0e20e	0.0018377916
175	0xbbbbd9bc	-0.005732743
176	0xbb1d394c	-0.002399045
177	0xbd64315a	-0.055711128
178	0x3bb10816	0.0054025752
179	0x3d6bd429	0.05757538
180	0x3cb5f22e	0.022210207
181	0x3bf34212	0.0074236477
182	0xbd100d5d	-0.035168994
183	0x3ceea872	0.029133055
184	0x3d8a55d8	0.06754655
185	0x3d10ca41	0.035349134
186	0x3d5c17b0	0.053733528
187	0x3b597893	0.003318344
188	0xbd5f4093	-0.054504942
189	0x3bff778e	0.0077962345
190	0x3d2c443d	0.042057265
191	0x3db090ae	0.086213455
192	0x3d8edbf7	0.06975549
193	0xbd16c1b1	-0.036805812
194	0xbc9e9465	-0.01935787
195	0xbcf6896f	-0.03009483
196	0xba873176	-0.0010314423
197	0x3d56c34a	0.052432336
198	0xbc65fef4	-0.014037836
199	0x3bb229e9	0.005437125
200	0x3c73f55f	0.014890044
201	0x3ce8e340	0.028428674
202	0x3cbe011b	0.023193887
203	0x3cd31006	0.025764477
204	0x3bde5405	0.0067849183
205	0xbd3be9db	-0.04587732
206	0xbc3c1e14	-0.011481781
207	0x3d0ee006	0.034881614
208	0x3c1bfc9b	0.009520675
209	0x3c53d959	0.012930238
210	0xbd1fafbe	-0.03898596
211	0xbc4901ad	-0.012268466
212	0x3d179c65	0.037014384
213	0x3d27cb4d	0.040965367
214	0xbd11a535	-0.035557944
215	0xbd267987	-0.04064324
216	0x3be5d7f0	0.007014267
217	0x3d56dfc0	0.05245948
218	0x3db204a1	0.08692289
219	0x3cb514e6	0.022104692
220	0xbca8e519	-0.020617055
221	0xbd21115b	-0.039323192
222	0x3c13647a	0.008996123
223	0x3da35d9b	0.07976838
224	0x3cf5ae11	0.029990228
225	0x3ccb6c6c	0.024831973
226	0x3bda3f0b	0.0066603473
227	0xb8d469bc	-0.00010128642
228	0x3c89def4	0.016829945
229	0x3b2a5681	0.0025991502
230	0x3a591704	0.00082813227
231	0xbc04b317	-0.008099339
232	0x3bc09cdc	0.005878074
233	0x3d2fc399	0.042911146
234	0x3d40494b	0.046944898
235	0x3d431d95	0.047635633
236	0x3c84f40e	0.016229656
237	0xbd283c26	-0.041072987
238	0x3cd14345	0.025544772
239	0x3d4417ad	0.04787414
240	0xbc9332e2	-0.017968599
241	0xbc06fa5d	-0.008238402
242	0xbd5b7511	-0.05357844
243	0xbbe47a14	-0.0069725607
244	0x3b452e7a	0.0030087517
245	0x3ceb5a9b	0.028729727
246	0x3cdad9b3	0.026715135
247	0xbd0a46fc	-0.033759102
248	0xbd6efda2	-0.05834735
249	0xbc04b6f3	-0.008100259
250	0x3b6eca7b	0.0036436606
251	0xbc6bd4e0	-0.014394015
252	0x3cb349d9	0.0218858
253	0x3d5c9e38	0.053861827
254	0x3d1afef1	0.037840787
255	0xbc192b52	-0.009348707

bias f4 [32]
0	0xbe0ef595	-0.1396087
1	0xbe16db93	-0.14732198
2	0xbdf25aa5	-0.11833695
3	0xbd22e567	-0.039769556
4	0x3d3ce7a7	0.04611936
5	0xbe6830fb	-0.22674935
6	0xbe6df534	-0.23238069
7	0xbc6b1f2e	-0.014350696
8	0xbd12aa52	-0.03580696
9	0xbd1aef96	-0.037826143
10	0x3bc09eac	0.00587829
11	0xbd34f172	-0.044175573
12	0xbd21e028	-0.039520413
13	0xbdf0f20d	-0.117649175
14	0xbe12fe17	-0.1435474
15	0xbdd3ed35	-0.10347978
16	0xbdafac68	-0.08577806
17	0xbdee2623	-0.11628368
18	0xbbf686d6	-0.007523398
19	0x3b19ebe8	0.0023486558
20	0x3d56b255	0.052416164
21	0xbd954556	-0.072886154
22	0xbd959573	-0.07303896
23	0xbe21c14c	-0.15796393
24	0x3c7c39ba	0.015394622
25	0xbd0a2219	-0.033723924
26	0x3cd1ff92	0.02563456
27	0xbdc1f400	-0.094703674
28	0xbdc797a3	-0.09745719
29	0x3db7b1ef	0.08969485
30	0xbe09d1d9	-0.13458957
31	0x3ce9dffb	0.028549185

weight f4 [64, 32, 5, 5]
0	0xbc1600d0	-0.009155467
1	0x3c638268	0.013886072
2	0xbd3ef073	-0.04661603
3	0xbd21316e	-0.03935378
4	0xbc0966ed	-0.008386356
5	0xbb23ac4e	-0.0024974528
6	0x3d26d907	0.040734317
7	0xbd1590d3	-0.03651507
8	0xbd5c34d8	-0.053761333
9	0x3ce4e51b	0.027941277
10	0xbdaace7f	-0.08340167
11	0xbcec4fb8	-0.028846607
12	0xbd737548	-0.05943802
13	0xbd0c09f5	-0.034189183
14	0x3be31ea8	0.0069311447
15	0xbd34c5d8	-0.04413399
16	0xbc99bc1a	-0.018766452
17	0xbd27c5b2	-0.04096002
18	0x3cd3a5f1	0.025835963
19	0x3d0c2cd6	0.034222446
20	0xbd508a21	-0.05091298
21	0xbd1a03eb	-0.037601393
22	0x3c1ac83b	0.009447153
23	0xbc3a20f2	-0.011360394
24	0x3b96953c	0.004595427
25	0x3bcce10b	0.006252413
26	0xbd4a42fe	-0.049380295
27	0xbc005f77	-0.007835261
28	0x3cc8346a	0.024439055
29	0x3cbf57b9	0.02335726
30	0xbc9ab818	-0.01888661
31	0xbd1d44c1	-0.038395647
32	0xbd3b4bb9	-0.04572651
33	0x3d2bd99b	0.04195557
34	0x3c8ccefc	0.017188542
35	0xbcc96e6e	-0.02458879
36	0xbcc0f9b1	-0.023556562
37	0xbc3b0017	-0.011413596
38	0x3c634026	0.013870275
39	0x3d73a74b	0.059485715
40	0xbd0117f3	-0.03151698
41	0xbd63dbb5	-0.05562945
42	0xbce74066	-0.02822895
43	0x3ba1193c	0.0049163383
44	0x3d0a74a8	0.03380266
45	0x3cd0209b	0.025406172
46	0x3b618a83	0.0034414835
47	0x3ba452e2	0.005014763
48	0x3c5a8228	0.013336696
49	0xbbb520d8	-0.005527597
50	0xbd143552	-0.036183663
51	0xbb3b9fdf	-0.0028629226
52	0xbd196e58	-0.037458748
53	0x3bd9579e	0.0066327592
54	0xbbba7708	-0.005690459
55	0x3d07ff4e	0.033202462
56	0xbd264b58	-0.040599197
57	0x3b4eb152	0.0031538797
58	0x3ce654b7	0.028116567
59	0x3b51629c	0.0031949645
60	0xbd591d91	-0.053006712
61	0xbd49fd9a	-0.04931412
62	0x3aae7c2d	0.0013312154
63	0x3d81b6e2	0.0633371
64	0x3d218251	0.03943092
65	0xbb9e8013	-0.004837045
66	0xbd07504c	-0.03303556
67	0xba8d4a00	-0.00107795
68	0x3d6115b2	0.05495233
69	0x3c5c3f49	0.013442823
70	0xbd302b45	-0.043010015
71	0x3c27260b	0.010201941
72	0x3d615cd2	0.05502016
73	0x3cd9bc64	0.02657909
74	0xbc99875d	-0.018741304
75	0x3aa97d8b	0.0012931091
76	0x3c9317e5	0.01795573
77	0xbd869c39	-0.06572766
78	0x3ca191ce	0.019722845
79	0x3caf6446	0.021410119
80	0x3d43da8e	0.047815852
81	0xbb4d7b0f	-0.0031353866
82	0xbd4abfc1	-0.049499277
83	0xb79c10e2	-1.860451e-05
84	0xbcd450d9	-0.025917457
85	0x3c65197e	0.013983129
86	0xbd90d053	-0.07070985
87	0xbd32ca0e	-0.043649726
88	0x3c837f20	0.016051829
89	0x3d18de85	0.037321586
90	0xbd138046	-0.036011003
91	0xbc59580d	-0.013265622
92	0xbced11b4	-0.028939106
93	0xbcb52214	-0.022110976
94	0xbc6c7f91	-0.014434711
95	0x3ca068fd	0.019581312
96	0xbbaa43e0	-0.0051960796
97	0x3cb126d1	0.021624954
98	0x3d107b3d	0.03527378
99	0xbce6596b	-0.02811881
100	0xbca70172	-0.020386431
101	0xbade5121	-0.0016961434
102	0x3c813fda	0.015777517
103	0x3cf3b86b	0.029751023
104	0x3c2551f4	0.01009034
105	0xbb453629	-0.0030092096
106	0xbb95525b	-0.0045569367
107	0xbba5fa18	-0.005065214
108	0x3b87567c	0.004130183
109	0xbca20c68	-0.019781306
110	0xbc88af0f	-0.016685037
111	0x3d18c403	0.037296306
112	0xbb559b05	-0.003259362
113	0x3d6515e8	0.055929095
114	0x3ca9e652	0.020739708
115	0x3ad54fcc	0.0016274392
116	0xbca9c600	-0.020724297
117	0xbb02cd96	-0.0019958965
118	0xbbd2f77c	-0.006438194
119	0xbc4c30b2	-0.012462782
120	0x3caf2b27	0.021382881
121	0x3d5c87d1	0.053840462
122	0xbbbade4b	-0.005702769
123	0x3cb992ec	0.022653066
124	0x3be685b7	0.007034983
125	0xbd110031	-0.035400573
126	0xbd1f727c	-0.03892754
127	0x3c6ac59d	0.014329341
128	0x3c1cc732	0.009568976
129	0xbca68612	-0.020327602
130	0xbca01ece	-0.019545939
131	0x3d1afce4	0.03783883
132	0x3cdbdeac	0.026839577
133	0x3d1e8e69	0.03871003
134	0x3cd24672	0.025668357
135	0xbbd9a927	-0.006642479
136	0xbcfa28ed	-0.030537093
137	0x3c9a76be	0.018855449
138	0x3dbd51ff	0.09244155
139	0x3c9e45e9	0.019320445
140	0xbab5529e	-0.0013833826
141	0x3c84d270	0.016213626
142	0x3c8f6221	0.017502846
143	0x3bf27e7d	0.0074003325
144	0x3c994b9c	0.018712811
145	0x3c9d3396	0.019189637
146	0xbc2bc4e9	-0.010483959
147	0x3cf22472	0.029558394
148	0xbb4e8f26	-0.0031518429
149	0x3cec8f8b	0.02887704
150	0xbc4bbe3c	-0.012435492
151	0x3c546df1	0.012965665
152	0xbc5d03ce	-0.013489677
153	0x3d00b347	0.031420972
154	0x3a6cfc89	0.0009040316
155	0x3d0425cf	0.03226262
156	0x3b03c649	0.00201072
157	0x3b8cc750	0.004296221
158	0x3c56904b	0.013095926
159	0x3d544351	0.05182201
160	0x3b99ee81	0.0046976213
161	0x3c56af37	0.013103298
162	0x3c05aff2	0.008159624
163	0x3ce609dc	0.028080873
164	0x3d1af09f	0.03782713
165	0x3c55bae2	0.013045045
166	0xbca0445a	-0.019563843
167	0xbc866edd	-0.016410286
168	0xbc44f460	-0.012021154
169	0xbbaa31c8	-0.0051939227
170	0x3c8d4b74	0.017247893
171	0x3c7a59f6	0.015280237
172	0x3d1c0f4b	0.038100522
173	0x3cd5d709	0.026103513
174	0x3d58b671	0.052908365
175	0xbb3cb72c	-0.0028795702
176	0x3c621149	0.013798066
177	0x3c55fe1c	0.013061073
178	0xbd16d229	-0.036821518
179	0xbd45eb5e	-0.048320167
180	0xbd893acd	-0.067006685
181	0x3cba5dce	0.022749808
182	0x3d33627a	0.043795086
183	0x3b1ceddf	0.0023945493
184	0xbbde0b81	-0.0067762737
185	0xbd98a278	-0.074528635
186	0xbbb943cb	-0.0056538335
187	0xbd2facdc	-0.04288946
188	0xbcc74f76	-0.024329882
189	0x3be4ddf9	0.006984469
190	0xbc365e2b	-0.01113085
191	0x3b34e386	0.0027601435
192	0x3d7f9c2c	0.062404796
193	0xbc757ad0	-0.014982894
194	0xbb6289d3	-0.0034567013
195	0xbcc677b0	-0.024226993
196	0x3bded843	0.0068006827
197	0x3ca1a1eb	0.019730529
198	0x3cd066f3	0.025439715
199	0x3d076a9f	0.033060666
200	0x3686a430	4.012625e-06
201	0x3d487454	0.048939064
202	0x3c2f5195	0.010700603
203	0xbc878822	-0.016544405
204	0xbd0b1965	-0.033959765
205	0xbc900e2b	-0.01758488
206	0x3d2a913f	0.041642424
207	0xbd1e2a0b	-0.038614314
208	0xbce7a76a	-0.028278071
209	0xbbeb8d76	-0.0071884943
210	0x3c1cab33	0.009562301
211	0x3d351145	0.044205923
212	0xbd7aed41	-0.06126142
213	0xbc23085a	-0.009950722
214	0xbcec3384	-0.028833158
215	0xbc301e29	-0.010749378
216	0x3dab7916	0.08372705
217	0x3d65367a	0.055960156
218	0x3c0b0713	0.008485573
219	0x3c006ef8	0.007838957
220	0xbc67b5b7	-0.014142445
221	0x3d1e7d87	0.03869393
222	0x3b908412	0.0044102753
223	0xbc6b962e	-0.014379067
224	0x3ca2ea76	0.01988719
225	0x3c92d69b	0.017924597
226	0x3d1dadb6	0.03849574
227	0x3c78f41d	0.01519492
228	0x3c9bc2b5	0.019013742
229	0x3bed501e	0.0072422167
230	0x3b8313c7	0.0040001604
231	0x3cfa5e63	0.030562585
232	0xbc86b442	-0.016443375
233	0xbcbc3605	-0.022974977
234	0x3d280d0b	0.041028064
235	0x3d41304c	0.0471652
236	0xbd7861c0	-0.060640097
237	0xbd2a345e	-0.041553847
238	0xbd3dfb8e	-0.04638248
239	0xbd2aa045	-0.04165675
240	0xbd128a21	-0.03577626
241	0x3c4d6109	0.012535342
242	0x3d0e2efa	0.03471277
243	0x3d7dc6e2	0.061957248
244	0xbc9ef518	-0.01940398
245	0x3cae6d5c	0.021292381
246	0xbbf778dc	-0.0075522494
247	0x3b3c66cf	0.0028747802
248	0xbd4fdab9	-0.0507457
249	0xbbc2aeeb	-0.005941262
250	0xbd774d51	-0.06037647
251	0xbcd73870	-0.026272029
252	0xbd51ee42	-0.05125261
253	0x3d24eb74	0.040263608
254	0xbd134172	-0.035951085
255	0xbc8e04da	-0.017336298

bias f4 [64]
0	0xbd95636a	-0.07294352
1	0xbdd75d4a	-0.1051584
2	0xbdafca71	-0.085835345
3	0xbc951094	-0.018196382
4	0xbd0de65b	-0.034643512
5	0xbdb575ce	-0.0886036
6	0xbd212b0f	-0.039347704
7	0xbc937b5f	-0.018003164
8	0xbd32cea7	-0.04365411
9	0xbd34af07	-0.04411223
10	0xbdd11d86	-0.10210709
11	0xbd8d41fc	-0.06897351
12	0xbd793d70	-0.060849607
13	0xbd7a497a	-0.06110523
14	0xbd97255c	-0.073801726
15	0xbd0404fc	-0.032231316
16	0xbdc95f9b	-0.098326884
17	0xbd9167d6	-0.07099883
18	0xbd8a60e9	-0.067567654
19	0xbd98c407	-0.07459264
20	0xbd932c39	-0.07186169
21	0xbcc44fe0	-0.023963869
22	0xbcb75656	-0.022380035
23	0xbddcc9f4	-0.10780707
24	0xbd8288ff	-0.06373786
25	0xbbf9891d	-0.007615222
26	0xbd8c36d5	-0.06846396
27	0xbcdea0f1	-0.027176352
28	0xbd7b894e	-0.06141024
29	0xbd855abc	-0.06511447
30	0xbc9a5080	-0.018837214
31	0xbd05d67c	-0.03267525
32	0x3b539925	0.0032287326
33	0xbd08ab55	-0.03336652
34	0xbd9569eb	-0.07295593
35	0xbd3f7216	-0.04673966
36	0xbcf9c35d	-0.030488664
37	0xbda1df40	-0.0790391
38	0xbd8eda5b	-0.06975242
39	0xbdd7c73f	-0.1053605
40	0xbdb42cf1	-0.087976344
41	0xbd8f4f24	-0.06997517
42	0x3d25bae7	0.040461447
43	0xbc2b2ae9	-0.010447242
44	0xbd1f5c63	-0.038906466
45	0xbc783015	-0.015148182
46	0xbcf44572	-0.02981827
47	0xbdaf12d7	-0.08548515
48	0xbceac3f9	-0.0286579
49	0xbcbb6dd7	-0.022879524
50	0xbdc2bc22	-0.0950854
51	0xbdba1107	-0.09085279
52	0xbd64baa1	-0.055842046
53	0xbdf67fe9	-0.12036116
54	0x3c28088d	0.010255945
55	0x3c8613c6	0.01636685
56	0x3ccb25fc	0.024798386
57	0xbdca6dbc	-0.098842114
58	0x3caea48e	0.0213187
59	0xbdc42730	-0.09577787
60	0xbd8ecdb0	-0.069728255
61	0xbd04b6ed	-0.032401014
62	0xbcca973d	-0.02473032
63	0xbbe3e0c7	-0.006954286

weight f4 [64, 1024]
0	0xbd569340	-0.052386522
1	0x3baa75d2	0.0052020336
2	0x3c91cce9	0.017797904
3	0x3bf522d4	0.0074809585
4	0xbbd8fff7	-0.0066223103
5	0x3cf951bf	0.030434487
6	0x3cae7cbe	0.021299716
7	0xbc89c8e7	-0.01681943
8	0xbc55a03f	-0.013038694
9	0x3b748ca1	0.0037315267
10	0x3d40c2eb	0.04706089
11	0xbc6c1019	-0.014408135
12	0xbd1a2f7e	-0.03764295
13	0xbd65e149	-0.05612305
14	0xbbbf3a4c	-0.005835807
15	0xbd27bb23	-0.04094995
16	0xbcc1b07d	-0.023643726
17	0x3cc26a5e	0.02373236
18	0xbcd7d8ad	-0.026348436
19	0xbb3279c8	-0.0027233232
20	0xbb3572e4	-0.0027686888
21	0xbc21f543	-0.009885135
22	0xbd00c422	-0.031437047
23	0xbc274c7e	-0.010211108
24	0xbca93114	-0.020653285
25	0x3cc526b7	0.024066312
26	0xbcfcec6b	-0.030874452
27	0x3d4a75d9	0.049428795
28	0x3c5cb7e7	0.01347158
29	0x3bd1c2f9	0.0064014164
30	0x3ccac83e	0.024753686
31	0xbc98a52b	-0.018633446
32	0x3c4ecfd4	0.012622792
33	0x3b2a0cbb	0.002594753
34	0xbd0aacdf	-0.03385627
35	0xbc78175f	-0.015142291
36	0xbd0c6852	-0.034279175
37	0x3c4e39ab	0.012586991
38	0x3cbea348	0.023271218
39	0x3d05ca98	0.03266391
40	0xbca4fdf9	-0.020140635
41	0xbd1c8721	-0.038214806
42	0xbd179569	-0.037007723
43	0xbc808305	-0.015687475
44	0x3b9603ab	0.004578074
45	0x3d07102c	0.032974407
46	0x3c8dd4ae	0.017313328
47	0xbc463d21	-0.012099535
48	0xbc761fd8	-0.015022241
49	0xbd0c001b	-0.034179788
50	0xbca11fef	-0.019668547
51	0xbcb003fa	-0.021486271
52	0xbd0553a0	-0.032550454
53	0xbc9a73ac	-0.018853985
54	0x3cbe9e4e	0.023268845
55	0x3b42dbb7	0.002973301
56	0xbd05832f	-0.03259581
57	0x3cea96f8	0.02863644
58	0x3d04403f	0.032287832
59	0x3d1621c4	0.036653295
60	0x3c7100ab	0.014709632
61	0x3d212e71	0.03935093
62	0x3da9ed2a	0.082971886
63	0x3d146566	0.036229514
64	0x3c59393e	0.0132582765
65	0xbabe3127	-0.0014510498
66	0x3cabcbd2	0.020971213
67	0x3d0c175b	0.03420196
68	0xbcc024c2	-0.023455027
69	0xbc1279a3	-0.008940133
70	0x3c95b00b	0.01827242
71	0x3d83c4a9	0.06433994
72	0x3b993aff	0.0046762223
73	0x3d6c8802	0.057746895
74	0xbad7c1ec	-0.0016460991
75	0x3c6d4b9c	0.014483359
76	0xbc7565ba	-0.014977867
77	0x3ca29540	0.019846559
78	0xbc2d7cba	-0.010588819
79	0x3a4d2f96	0.000782722
80	0xbc94da96	-0.018170636
81	0x3d34afb1	0.044112865
82	0x3c5407b0	0.012941286
83	0xbcb19e3b	-0.021681895
84	0xbc6430df	-0.013927667
85	0xbb282eca	-0.0025662654
86	0x3cfbec0e	0.030752208
87	0x3bd88168	0.0066072233
88	0x3ba8f39c	0.0051559936
89	0x3cc95d95	0.024580756
90	0xbca52937	-0.020161254
91	0x3b2b5fb1	0.0026149566
92	0x3d3bc7dd	0.0458449
93	0x3d1d3333	0.038378906
94	0x3d25b44f	0.04045516
95	0x3ce50f83	0.027961498
96	0xbbfe11af	-0.007753573
97	0xbc9b4b99	-0.018956946
98	0xbb97e57c	-0.004635511
99	0x3c7c99ba	0.015417511
100	0xbade8101	-0.0016975702
101	0xbc53e9ce	-0.012934161
102	0xbcb14469	-0.021639066
103	0xbcac5f2a	-0.021041472
104	0x3d0d1d97	0.034452047
105	0x3d4c406c	0.049866125
106	0xbb84b781	-0.0040501957
107	0x3d72496d	0.059152056
108	0xbc93b8a3	-0.018032378
109	0x3caad3c0	0.020852923
110	0x3d0084b5	0.03137656
111	0x3cda02a5	0.02661259
112	0x3b4f24af	0.0031607558
113	0xbd542b29	-0.051798973
114	0xbc66e2ec	-0.014092188
115	0x3d3b81c2	0.045778044
116	0x3cbb8c1d	0.02289396
117	0xbc91b8f3	-0.017788386
118	0x3d474efc	0.04865931
119	0x3d1fe116	0.039033018
120	0xbae833db	-0.001771565
121	0xbcd30273	-0.025758004
122	0x3d1eb5d0	0.03874761
123	0x3d29f47f	0.041492935
124	0x3d620d13	0.05518825
125	0xbb8e5721	-0.0043438827
126	0x3b4c53c8	0.0031177867
127	0x3c84f6dc	0.016230993
128	0xbc185fba	-0.009300167
129	0xbb930833	-0.0044870614
130	0x3cfd4a10	0.030919105
131	0xbc3166da	-0.010827744
132	0x3d1d70f2	0.03843779
133	0x3c3d6c76	0.011561504
134	0x3d3490fe	0.044083588
135	0x3d172c69	0.036907587
136	0x3d495f1d	0.049162973
137	0x3d850049	0.06494195
138	0x3ce2b32a	0.027673323
139	0x3d560c4c	0.05225782
140	0xbce9d6c2	-0.028544787
141	0xb96eb0cc	-0.0002276331
142	0xbb8a9daa	-0.004230221
143	0xbc9143f6	-0.017732602
144	0x3c708297	0.014679573
145	0xbc1a2172	-0.009407388
146	0x3c97fdb9	0.018553602
147	0xbc001fbe	-0.007820068
148	0x3c7c9220	0.015415698
149	0x3d0dee53	0.03465111
150	0x3d8af4f1	0.06785
151	0x3d135027	0.03596511
152	0x3cb0d094	0.021583833
153	0x3d944c0f	0.072410695
154	0x3cf05fbd	0.029342527
155	0x3b47cfe6	0.0030488907
156	0xbd11192f	-0.035424408
157	0xbba22e75	-0.0049493858
158	0xbcb5c169	-0.022186952
159	0xbd04d788	-0.03243211
160	0x3cc29daf	0.02375683
161	0xbc427caa	-0.011870543
162	0xbd33a80e	-0.04386144
163	0x3b97bd0a	0.0046306895
164	0x3d06a52c	0.032872364
165	0xbca43fe4	-0.020049997
166	0xbbd5e2c9	-0.006527279
167	0x3d858f24	0.065214425
168	0x3d2149dd	0.039377082
169	0xbcbff51a	-0.023432303
170	0x3c2bcead	0.010486287
171	0x3d58c4a2	0.0529219
172	0xbb40332b	-0.0029327373
173	0xbd2211ed	-0.039567877
174	0x3a880837	0.0010378425
175	0x3cbe78c6	0.023250949
176	0x3c842946	0.016132962
177	0x3bd1b028	0.0063991733
178	0xbced9939	-0.029003726
179	0xbc74c54a	-0.0149396155
180	0xbceb1c72	-0.028700087
181	0x3c0efdd1	0.008727507
182	0xbce19aba	-0.0275396
183	0xbca3c96d	-0.019993508
184	0xbbd7b411	-0.006582745
185	0x3bb0e5cc	0.0053984877
186	0xbd243b8b	-0.040095847
187	0xbbaab963	-0.005210088
188	0x3c4c1ade	0.0124575775
189	0x3ccb0024	0.02478034
190	0x3d6bad5b	0.05753837
191	0x3d1091af	0.035295185
192	0x3bc13ee8	0.0058973916
193	0xbd409eb5	-0.047026355
194	0x3b0b6559	0.0021270125
195	0xbc80a857	-0.01570527
196	0x3c823d8d	0.01589849
197	0xbd4772e3	-0.04869355
198	0xbcbbdbef	-0.022932021
199	0xbc4ca5d5	-0.012490709
200	0x3c59f66f	0.013303383
201	0xbcb406c4	-0.021975882
202	0x3cd3ec56	0.02586953
203	0x3c4ead15	0.012614508
204	0x3d84997d	0.06474588
205	0xbccde58b	-0.025133869
206	0x3bd6de61	0.0065572714
207	0xbd0009b6	-0.03125926
208	0x3c3ad131	0.011402414
209	0xbc9f4e10	-0.019446403
210	0xbca0f1b0	-0.019646496
211	0x3ba4fd0b	0.005035048
212	0x39cd3113	0.0003913721
213	0x3c919078	0.017769083
214	0x3cb4601e	0.022018488
215	0x3c2ac54f	0.010423019
216	0x3b5a9eee	0.003335889
217	0x3cf41698	0.02979593
218	0x3c7b3890	0.01533331
219	0x3d70f0ff	0.05882358
220	0xbd4504d8	-0.048100322
221	0xbd08bd19	-0.033383463
222	0xbc3178f6	-0.010832062
223	0xbc74d78f	-0.014943971
224	0x3ca7f9d5	0.020504871
225	0x3bf92673	0.0076034605
226	0x3d5cce4a	0.05390767
227	0xb90241e3	-0.00012422311
228	0x3c96211b	0.018326333
229	0xbb0e5405	-0.002171756
230	0xbc628acb	-0.013827036
231	0x3c555daf	0.013022824
232	0x3c316987	0.010828382
233	0xbd68c671	-0.056829873
234	0x3c8fc622	0.017550532
235	0xbd780897	-0.060555067
236	0x3a9b60b0	0.0011854377
237	0xbcf56167	-0.029953672
238	0x3c6aeaf6	0.014338246
239	0x3c4d6ff1	0.012538896
240	0xbaad7b4d	-0.0013235599
241	0x3c699aec	0.014258128
242	0x3bb2ee01	0.005460501
243	0xbca99fef	-0.020706145
244	0xbb7ddd29	-0.0038736558
245	0xbc84415e	-0.01614445
246	0xbc71b737	-0.0147531545
247	0x3c7d2009	0.015449532
248	0x3c0489cc	0.008089494
249	0xbd27dc97	-0.040981855
250	0x3ce727ba	0.028217185
251	0xbbb442f3	-0.005501145
252	0x3c3fc276	0.011704078
253	0x3d0aa421	0.03384793
254	0xbb65b891	-0.0035052637
255	0x3c212af7	0.009836904

bias f4 [64]
0	0xbc9b66b8	-0.018969879
1	0x3b612c72	0.0034358767
2	0xbcd48489	-0.025942104
3	0x3c642276	0.013924232
4	0xbc846b0f	-0.01616433
5	0x3d28994c	0.04116182
6	0xbc81e5d0	-0.015856653
7	0xbc8dece6	-0.017324876
8	0x3c0d5f64	0.0086287
9	0xbc0bc593	-0.008530992
10	0xbcd16917	-0.025562806
11	0xbd3c463d	-0.045965422
12	0x3c851f03	0.01625014
13	0x3d513544	0.05107619
14	0x3b43313c	0.0029783985
15	0xbbc13676	-0.005896385
16	0x3cd499dc	0.025952272
17	0x3c2814f1	0.010258899
18	0xbcbe75d8	-0.023249552
19	0x3d0e170f	0.03468996
20	0xbd3b74d5	-0.045765717
21	0x3c91b3d9	0.017785953
22	0x3c990877	0.018680794
23	0xbcf263cf	-0.029588608
24	0x3cdc524b	0.02689471
25	0xbd0e1213	-0.034685206
26	0xb971b996	-0.00023052687
27	0xbce3bd09	-0.0278001
28	0x3d951d38	0.07280964
29	0x3ce8dda2	0.028425995
30	0xbcd82afc	-0.026387684
31	0x3ca2a4f8	0.019854054
32	0xbd3dda21	-0.046350602
33	0x3d2895d4	0.041158512
34	0xbb546458	-0.0032408442
35	0xbd3854d9	-0.045002792
36	0xbcc45a29	-0.023968773
37	0x3cca6061	0.02470416
38	0xbd3f7aff	-0.046748158
39	0xbd4b73e0	-0.049671054
40	0xbd51cad2	-0.051218815
41	0xbcab5737	-0.02091561
42	0xbd0429d6	-0.03226646
43	0xbd19bffe	-0.037536614
44	0x3cadbe52	0.021208916
45	0xbc18d427	-0.009327925
46	0xbbe28297	-0.00691254
47	0xbd142299	-0.036165807
48	0xbcfab6f3	-0.030604815
49	0xbcef2ec2	-0.0291971
50	0x3d000b13	0.03126056
51	0x3d8439fe	0.06456374
52	0x3cb2c683	0.021823173
53	0xbb06288a	-0.002047094
54	0xbb75ba71	-0.003749516
55	0xbb895758	-0.0041913204
56	0x3a94c240	0.0011349395
57	0xbd2b1c8a	-0.041775264
58	0xbd4760e0	-0.04867637
59	0x3c7bba18	0.015364192
60	0x3d07ed40	0.033185244
61	0xbd36ec2e	-0.044658832
62	0x3cc6424b	0.024201533
63	0x3cfd9aaf	0.030957548

weight f4 [10, 64]
0	0x3d38f905	0.04515936
1	0x3e4bb06d	0.1989152
2	0xbdede448	-0.11615807
3	0xbd0ce09f	-0.034393903
4	0xbe2e2cf5	-0.17009337
5	0xbe5db2f0	-0.2165029
6	0x3dccd249	0.10001046
7	0x3e565346	0.20930204
8	0x3e517b34	0.20457155
9	0x3d354d4b	0.044263165
10	0xbe634af7	-0.22196566
11	0x3e468d5b	0.1938986
12	0xbd9f2247	-0.0777021
13	0x3d25ebcc	0.040508077
14	0xbe83afa2	-0.25719935
15	0x3e54d52b	0.20784442
16	0x3e387cf9	0.18016423
17	0xbe7a32a4	-0.2443338
18	0x3e407cbf	0.18797587
19	0xbe42a54f	-0.19008373
20	0x3cdae822	0.026722018
21	0xbe455967	-0.19272386
22	0xbc995f73	-0.018722272
23	0x3e29344c	0.16523856
24	0xbdfbf942	-0.123034015
25	0xbcf3d43c	-0.029764287
26	0xbe2898e4	-0.16464573
27	0xbdf45d7c	-0.11931893
28	0xbe57fa1f	-0.21091507
29	0xbcbff8d2	-0.023434076
30	0xbd578ff6	-0.052627526
31	0x3d0f4e60	0.034986854
32	0x3e88fe81	0.2675667
33	0xbe60ed2f	-0.21965478
34	0xbdad73fc	-0.08469388
35	0x3d16ab9f	0.036784764
36	0xbe378543	-0.17921929
37	0xbdc0a4bd	-0.09406421
38	0x3e8a95dc	0.2706746
39	0xbe5d0845	-0.21585186
40	0x3e6be462	0.2303634
41	0xbda3b98b	-0.07994374
42	0x3dd51ad3	0.10405507
43	0x3e1b2619	0.15151252
44	0x3c307ed8	0.010772429
45	0xbe544125	-0.20727976
46	0x3d739e5d	0.0594772
47	0xbd9f0ab8	-0.07765716
48	0x3e7d535b	0.24738829
49	0xbb9974b2	-0.0046831006
50	0xbe601080	-0.21881294
51	0xbddd03a0	-0.10791707
52	0x3dda90a1	0.10672117
53	0xbcd3fe42	-0.025878076
54	0x3dfb282e	0.12263523
55	0x3ce351df	0.027749
56	0x3ce2e183	0.027695423
57	0x3e8b1456	0.27163953
58	0x3e0896e4	0.1333881
59	0xbe832c90	-0.25619936
60	0xbe031ba2	-0.1280351
61	0xb9fc242a	-0.0004809213
62	0xbdf9c9a2	-0.121966615
63	0x3d358dee	0.044324808
64	0x3e142127	0.14465772
65	0xbd57f2ef	-0.052721914
66	0x3e0a5716	0.13509783
67	0xbe5a37e3	-0.21310382
68	0xbcad3e1e	-0.021147784
69	0x3d76abf3	0.060222577
70	0xbdaed0f8	-0.085359514
71	0xbe70d7be	-0.23519799
72	0xbe858b80	-0.26082993
73	0xbc48641f	-0.012230902
74	0xbe82c864	-0.2554351
75	0xbe2600aa	-0.16211191
76	0xbdbaf05f	-0.091278784
77	0xbe385a82	-0.18003276
78	0x3e87fbd4	0.26559317
79	0xbda4c749	-0.08045823
80	0xbda6e3e8	-0.081489384
81	0x3e80aee6	0.25133437
82	0x3da7992a	0.081835106
83	0xbe25746f	-0.16157697
84	0xbe12661b	-0.14296763
85	0xbe037159	-0.12836207
86	0xbd3ec9ca	-0.04657916
87	0x3e52f2b9	0.20600404
88	0x3ec6401b	0.38720784
89	0x3e7f36ad	0.24923201
90	0x3e3f1996	0.18662104
91	0x3d81ec43	0.063438915
92	0xbe8b90b1	-0.27258828
93	0xbe40bc09	-0.1882173
94	0xbdbdc5bd	-0.09266231
95	0x3e2c0839	0.16800012
96	0x3e723935	0.23654635
97	0x3dcaff67	0.099119954
98	0xbdabb286	-0.0838366
99	0xbe6b2dc1	-0.22966672
100	0xbdcfd074	-0.10147181
101	0x3e05215b	0.13001005
102	0xbe5eab9d	-0.21745153
103	0xbddb4bd9	-0.10707826
104	0x3df8e773	0.121535204
105	0xbd1871ad	-0.037217785
106	0x3d0b6e72	0.034040876
107	0x3d56e1f5	0.052461583
108	0xbe795e36	-0.24352345
109	0xbe66c10d	-0.2253458
110	0xbdb0be6b	-0.08630069
111	0x3e836ce3	0.2566901
112	0xbd2808ba	-0.041023947
113	0x3e2a11a6	0.16608295
114	0xbe3fffda	-0.18749943
115	0xbe5bd915	-0.21469529
116	0xbeaf0c98	-0.34189296
117	0x3e5ce513	0.2157176
118	0xbe26f074	-0.16302663
119	0xbdd69ecb	-0.10479506
120	0x3eb2ebb3	0.3494545
121	0x3e1b0e69	0.15142216
122	0x3b52b03f	0.0032148508
123	0x3e9f8958	0.31159472
124	0xbec40179	-0.38282374
125	0xbe0bedb2	-0.13664892
126	0xbe86bf10	-0.26317644
127	0xbe62b3dc	-0.22138923
128	0xbe9baee1	-0.3040686
129	0x3ad31238	0.0016103452
130	0xbe985488	-0.29751992
131	0x3e2ad5c1	0.16683103
132	0xbdc77d46	-0.09740691
133	0xbdbab0dd	-0.09115765
134	0x3da38673	0.079846285
135	0xbd54c5c9	-0.051946435
136	0x3c01b4d4	0.007916648
137	0xbdf061e1	-0.11737419
138	0x3e3279f7	0.17429338
139	0xbe68321f	-0.2267537
140	0x3cb0ec00	0.021596909
141	0x3c90392e	0.01760539
142	0xbe9bf54e	-0.3046059
143	0x3e63beb2	0.22240713
144	0xbd84b2a4	-0.064793855
145	0xbe1d9ab2	-0.15391043
146	0xbe1e02d1	-0.15430762
147	0x3dc090de	0.09402631
148	0x3d3ea051	0.04653961
149	0x3dadc0e8	0.084840596
150	0xbe37a540	-0.17934132
151	0xbe803cb8	-0.25046325
152	0xbd0adac9	-0.033900056
153	0x3d56f292	0.052477427
154	0xbe163a82	-0.14670756
155	0x3df2e385	0.11859802
156	0xbe236161	-0.15955116
157	0x3e52cca7	0.20585881
158	0xbd433a28	-0.047662884
159	0x3e4ac5c7	0.19802009
160	0x3e69a850	0.22818112
161	0x3db3e6e6	0.08784275
162	0xbe2d9a50	-0.16953397
163	0xbcad3ce4	-0.021147199
164	0x3e66e85d	0.22549577
165	0x3dd96f0b	0.10616883
166	0x3e21348e	0.15742704
167	0xbe95cdbc	-0.29258525
168	0x3dcf1a24	0.10112408
169	0x3dd4a9f0	0.103839755
170	0x3d03b4ff	0.032155033
171	0x3d18122c	0.037126705
172	0x3e040d49	0.12895693
173	0x3e6f1cfd	0.23350902
174	0x3eb13f2f	0.34618518
175	0xbca6a0ab	-0.020340284
176	0x3dca554a	0.09879549
177	0x3e860c32	0.2618118
178	0x3e80a020	0.25122166
179	0x3e2ba61f	0.16762589
180	0xbde6863f	-0.11256074
181	0x3e3caa7e	0.18424413
182	0x3e052be8	0.1300503
183	0x3e179667	0.14803468
184	0x3d29da22	0.041467793
185	0xbe0a04cc	-0.13478392
186	0xbd6d3c60	-0.057918906
187	0xbe4a57e5	-0.19760092
188	0x3e8a4426	0.27005118
189	0x3d623b92	0.055232592
190	0x3de2d0bc	0.11074969
191	0xbd59bcb5	-0.05315848
192	0xbe075a76	-0.13218102
193	0x3e32179c	0.17391819
194	0xbe4a73ab	-0.19770686
195	0xbe21e406	-0.1580964
196	0xbdbc7619	-0.09202213
197	0x3e41feee	0.18944904
198	0xbc564c0b	-0.0130796535
199	0xbce81ff2	-0.028335545
200	0xbe228ee1	-0.15874816
201	0x3e2dba5e	0.16965625
202	0x3e1fb424	0.15596062
203	0x3c979e32	0.01850805
204	0x3dea8f1e	0.11453079
205	0xbe59f110	-0.21283364
206	0x3e699da3	0.2281404
207	0xbdd20f73	-0.10256853
208	0x3dedf45b	0.11618873
209	0x3e30a151	0.17249037
210	0xbd3a045a	-0.045414306
211	0xbc0e92d8	-0.0087020025
212	0x3c54636b	0.012963156
213	0x3de17320	0.110082865
214	0x3e504ff8	0.20343006
215	0x3c2f1270	0.010685548
216	0xbd715835	-0.05892201
217	0xbd01b995	-0.031671125
218	0xbe13c856	-0.14431891
219	0xbe4543d8	-0.19264162
220	0x3da9c9bf	0.08290433
221	0x3d83e184	0.06439498
222	0x3e6d48ac	0.23172253
223	0xbdc2442e	-0.094856605
224	0xbda5a76e	-0.08088575
225	0x3d10fdd3	0.035398316
226	0x3deb15b2	0.114787474
227	0xbdc1557b	-0.09440132
228	0x3e1abe62	0.15111688
229	0x3c9e2efe	0.019309517
230	0x3db40af6	0.08791153
231	0x3d9569c1	0.072955616
232	0x3e2332d6	0.15937361
233	0x3e594681	0.21218301
234	0xbe9a4975	-0.30134168
235	0xbd0a372d	-0.033744026
236	0x3d1e2858	0.038612694
237	0x3dab0855	0.083511986
238	0x3e14032b	0.14454333
239	0xbe395ce7	-0.18101846
240	0xbd758499	-0.059940908
241	0xbdb5c673	-0.08875742
242	0xbe2b91de	-0.16754863
243	0x3d0ed428	0.034870297
244	0x3dfa8777	0.12232869
245	0x3e443b1f	0.19163178
246	0x3dd3ac24	0.103355676
247	0xbd7d0cf9	-0.06177995
248	0xbdcedee7	-0.10101109
249	0xbe100f55	-0.14068349
250	0x3e029154	0.12750751
251	0xbd4dfd4d	-0.050290395
252	0x3d07077e	0.03296613
253	0xbe026a37	-0.1273583
254	0x3da87145	0.082247294
255	0xbd759dd6	-0.059964977

bias f4 [10]
0	0xbd8afeaf	-0.06786858
1	0x3de9b8f0	0.11412227
2	0xbcaa3e2a	-0.020781595
3	0x3d986fdf	0.07443213
4	0x3db4369a	0.08799477
5	0xbde0c26f	-0.10974585
6	0x3dc663ae	0.09686981
7	0xbcc46f8d	-0.023978973
8	0x3abcb527	0.0014397249
9	0x3cdf20e6	0.027237367
