try_train/cifar10_models/cifar10_net_15.pth (torch, 589402 bytes, 10 tensors)

weight f4 [32, 3, 5, 5]
00000000: 2306 42bd 9f1e f23d 253c 043e 83d9 11bd
00000010: 1050 223e aa60 b1bd 71fc 4abd fc00 04bd
00000020: e38c 163e 9d98 ad3d 86d7 81bd 66de e23c
00000030: 87f4 13be 26fb 04bd 8f15 e7bd 1de4 f83c
00000040: 46ee 53ba 67e6 54be f7e4 28be 93d9 eebd
00000050: f8da 263e a827 19bd fe79 53be 74ac 87bd
00000060: c7ef 31bd 65d1 d5bd 2576 36bd 4bf3 78bd
00000070: bd30 8abd b5b5 96bd a48d a83d 5147 c2bd
00000080: 3e28 09be c43c 2c3d b5bc fd3c 3802 aebb
00000090: 1793 413d 9686 0dbe c856 84bc 08df 66bd
000000a0: 67a0 893e 1e0e 063e 925c bfbd 45df 16bd
000000b0: 227e d3bd 0103 223e 2523 9c3d aec1 0dbe
000000c0: 93d8 09be 30c4 5b3d ef1c 65ba 39f7 6d3d
000000d0: 6554 ed3d 28f1 94bb 9e89 babd eb9e a33c
000000e0: 2557 623c 39cc 6dbc 9a6d c0bb e9bd 18bc
000000f0: 77a6 173e c23c d43c 84d9 e5bd 710c ecbd
00000100: 8073 56bd ebbe 743e 6d22 373e 18a0 5bbd
00000110: 88c7 63bc 4fd5 dd3c 2893 863e 89f8 133e
00000120: 091a e7bd e80d c6bd 93d3 a1bd e007 12be
00000130: 433f 53bd 7e6b 37be a264 88bc 887d 6dbd
00000140: 4311 293c 04e6 25bd 823e c93b 0320 99bd
00000150: d08e 293d 4311 363d a004 1abd 4d3b 793c
00000160: 3af2 35bd 370d 983d 7521 f2bd b383 c0bd
00000170: e897 f2bd afa8 18be 2b6a 2bbd cb0f 83bd
00000180: 5b1d 27be fcea 05be f248 29be e8af eabd
00000190: c8b4 2ebc b3df 4a3c a672 bdbd 973b 563c
000001a0: 3c37 24be 99c7 03bd 4971 703c 688c f13d
000001b0: 8d0a 2b3e de80 523d 094c e7bb 2919 233d
000001c0: 5eef 223d 804a 2c3e 4028 463d 75a2 893c
000001d0: 4ce8 74bd 50bf cabd 1a9b 87bd 67ea 67bd
000001e0: 0a34 a8bd 3c2d 28be 5f29 34be 59cf 4fbe
000001f0: 0f8f 01be df30 ecbc 1e50 db3d 661a 71bc
00000200: 27d4 a0bd 8d74 11bd a26d 163e 6209 2f3e
00000210: 7adc 7f3e 5913 113e 1019 303d 0d90 653e
00000220: 56d3 863e 004a a83e c96a 513e 92f9 3c3e
00000230: 9187 3d3e 454f 543e 381a 4a3e 073a 053e
00000240: 4bd4 443e 8013 813b c495 1ebd 0db3 2c3d
00000250: 1f33 ed3d f8f7 323d e087 0f3d effc bdbd
00000260: 101d af3c 85e4 8fbd 4185 74bd 1be0 253e
00000270: ca4a 4cbe 9460 8f3d 9446 003d 8864 b3bd
00000280: 20e3 e83a ac89 10be a760 b8bd 8431 a2bc
00000290: d71c 093d 202e 1ebe ac76 b93c 1297 f73d
000002a0: 15ec 6f3c f711 893b 0dad f8bd b23a 9abd
000002b0: 3110 edbc fa37 abbd d20a 18be 49ac 1a3e
000002c0: 5c9f 67bd 0fd8 863d 0a29 2f3d 4740 00bc
000002d0: 8044 173e 18ee 48bd c76e 2d3d 523f c73d
000002e0: e145 8c3d 010c b93d 5ab6 d1bd 4616 2f3e
000002f0: 6b39 773d 1924 3abd 5388 9fbd e5ba 4dbc
00000300: c9ae fd3d 6998 383e 11dd 113e 0024 db3b
00000310: 9e50 813d 11e9 90bd 42c0 ec3d 0e65 893c
00000320: 4014 2a3d 3abc 12be 984d 053e 724a b9bd
00000330: 9c3b 9abb 243e 183e bccb 0fbe 3236 0a3d
00000340: e4b8 5fbd 26bd ac3d 4803 203d a9ee edbd
00000350: a674 9ebc 6dd6 7bbd b92f 6b3d 2999 323c
00000360: 90b2 c1bd 6f1c 3a3e 858a 0d3e 3e1b cdbd
00000370: 3925 a8bd 9a16 c73d 4b29 d7bd 5fc4 f7bd
00000380: 340a 14be 19f6 3abd 11de d63d 1495 1b3e
00000390: 90fb 7d3c a07c 053e 4907 f6bc 482d bf3d
000003a0: fd84 93bb 50b8 a63d 6510 91bd 3d12 cf3d
000003b0: 1a07 733c 4d8f e93d cd7e 0a3e 18bb ddbc
000003c0: bd22 a5bd a231 14be 1cd0 e0bc 3c1f 0f3b
000003d0: 658a e73d 9d20 ccbd fe55 0dbe 97d3 73be
000003e0: fcea a5bd 9e7e 07be ff3b 2abc 8933 32bc
000003f0: 2ce5 a2bc 0705 b13d 923b a63d 0abb 12bd
-0.047369134 0.11822247 0.12913568 -0.035607826 0.15850854 -0.08661015 -0.049557153 -0.0322275
0.14702182 0.08476374 -0.06339936 0.027693938 -0.14448749 -0.032466076 -0.11283409 0.03038221
-0.0008084517 -0.20791017 -0.16493593 -0.11662593 0.16294467 -0.037391335 -0.20652005 -0.0662469
-0.04344156 -0.104403295 -0.044546265 -0.060778897 -0.06747577 -0.073588766 0.08230141 -0.09486259
-0.13394257 0.042050138 0.030973772 -0.005310323 0.047259416 -0.13820872 -0.016154662 -0.056365043
0.2688019 0.13091323 -0.09343828 -0.03683402 -0.10326792 0.15821458 0.07623891 -0.13843414
-0.13461523 0.053653896 -0.0008739968 0.058097098 0.115883626 -0.0045453496 -0.0910828 0.019973239
0.013814722 -0.0145140225 -0.0058724405 -0.009322622 0.14809595 0.025907878 -0.112231284 -0.115258105
-0.052356243 0.23900954 0.17884226 -0.053619474 -0.013902552 0.027079253 0.26284146 0.14450277
-0.11284263 -0.09670621 -0.07901683 -0.14260817 -0.051574003 -0.17912099 -0.016649548 -0.057981044
0.010319057 -0.040502563 0.0061414847 -0.07476809 0.041395962 0.044450056 -0.037602067 0.015211892
-0.04442046 0.074243955 -0.11822788 -0.0940012 -0.1184538 -0.14908098 -0.041849297 -0.06399497
-0.16319792 -0.1307792 -0.16531733 -0.11459333 -0.010663219 0.012382436 -0.09250383 0.013075731
-0.16036695 -0.032172773 0.014675447 0.117943585 0.16703244 0.05139243 -0.0070586246 0.039818916
0.03977906 0.16825294 0.04837823 0.016801098 -0.059791848 -0.09899771 -0.0662138 -0.056620028
-0.08213051 -0.16423506 -0.17593907 -0.2029394 -0.12652229 -0.028831897 0.107086405 -0.0147157665
-0.07852965 -0.035511542 0.14690259 0.17093423 0.24986449 0.14167537 0.04299265 0.22418232
0.26333112 0.32868958 0.20450892 0.18454579 0.18508746 0.20733364 0.19736564 0.13010417
0.19221608 0.003939092 -0.038717046 0.042162944 0.11582016 0.043693513 0.03504169 -0.09276759
0.021376163 -0.070260085 -0.059697393 0.1619877 -0.19950405 0.07000843 0.03131731 -0.08759409
0.0017767884 -0.14115018 -0.0900281 -0.019799002 0.03347477 -0.15447283 0.022639595 0.12089361
0.014643689 0.00418305 -0.12142382 -0.075307265 -0.028938385 -0.08360286 -0.14847878 0.15104784
-0.05654846 0.06584179 0.042763747 -0.007827825 0.14772224 -0.04905519 0.042341974 0.09728874
0.06849266 0.09035493 -0.10239859 0.1709834 0.060357492 -0.04544458 -0.07789674 -0.012556766
0.12386853 0.1802689 0.14244486 0.006687641 0.06314205 -0.07075704 0.11560108 0.01677182
0.04152322 -0.14329615 0.13017881 -0.090474024 -0.004706813 0.14867455 -0.14042562 0.03374309
-0.054619685 0.08434515 0.03906563 -0.116177864 -0.019342732 -0.06148379 0.05741856 0.010900774
-0.09457886 0.18174909 0.13822372 -0.10014962 -0.08210225 0.09721108 -0.10505923 -0.12098002
-0.14457017 -0.045644853 0.104915746 0.15193588 0.015501872 0.13035822 -0.03003277 0.093348086
-0.0045019374 0.081406236 -0.07083205 0.101109006 0.014833236 0.114042856 0.13524933 -0.027066752
-0.080632664 -0.14472058 -0.027442984 0.0021838685 0.113056935 -0.09967158 -0.13802335 -0.23811184
-0.0810146 -0.13231894 -0.010390281 -0.010876545 -0.019884668 0.08643537 0.08116831 -0.035822906

bias f4 [32]
00000000: 1f89 253e b73c c2be 9013 27bb 877b 0b3e
00000010: 93dd 9b3b ead4 acbd 5c7d 413d 33d6 a2bd
00000020: 6975 af3d 4556 2fbe e305 45be 94ff aebd
00000030: 7f19 3e3e 61e6 9d3a ef28 45be 605a 9a3e
00000040: b86e 4e3d 561d f83d 01fb 4bbe 73ae 44bd
00000050: c367 54bd b921 743d eb82 5bbe dc81 2dbe
00000060: eab5 793d 5614 bcbe 4773 05bc 481d 8dbd
00000070: ce16 c83e 79bb debc 6364 d8bd 9aba fbbd
0.16165589 -0.37936947 -0.0025493838 0.1362134 0.0047566383 -0.08439048 0.047238693 -0.079510115
0.08567316 -0.17122753 -0.19240527 -0.085448414 0.18564413 0.0012046808 -0.19253896 0.30147076
0.05039856 0.121149704 -0.19919969 -0.04801793 -0.051856767 0.059602473 -0.2143666 -0.16944069
0.060964502 -0.36734265 -0.00814516 -0.068903506 0.390799 -0.027189003 -0.10566022 -0.12291451

weight f4 [32, 32, 5, 5]
00000000: 3d10 cc3b 987c 2c3d da76 223a 8b56 5ebd
00000010: c569 b2bc 843f 0dbd 137b 8f3d 32b5 fe3c
00000020: 5f89 883b e425 fdbc fc25 63bc 46c6 d63c
00000030: e34e 2b3d 7705 223d 9d0e dabc 4733 23bd
00000040: a8fb d7bc 4ff4 da3c d5a4 ac3d 75bb 8b3d
00000050: 9981 03bd bd68 d9bc 09dc 9bbc 102f a03d
00000060: 61a0 9a3d aad1 01bc fe90 91bc 1a37 d53c
00000070: 4170 c0ba 81ee 29bc 63ea 5e3c 06e1 d7bb
00000080: abde 68bc 1381 0a3c 6220 993c f1d9 323d
00000090: 1685 d33c 7ce2 81bd 2be1 79bd dbc8 283d
000000a0: 8241 2d3d 6570 583b ddd0 e1bc d252 8abd
000000b0: 0ece fabc c5ae 653d ab82 153c ea85 263d
000000c0: 741e 193d 6abd cdbc cbc5 0c3c 46e2 24bd
000000d0: 54ae f2bc a2da 943b 1233 3abd dfe2 29bd
000000e0: a7c5 51bd ed2d 52ba ecf1 0cbd f876 bbbc
000000f0: cb94 b23b d9e0 f2bc ed35 7ebd 5b32 ab3c
00000100: 73f3 de3c 05d5 163d 218a 01bd 4605 56bd
00000110: 968d 44bc 7124 d53c a675 afbc f48e 983c
00000120: bac6 d23b e012 003c 70bd f5bc be4a 3abb
00000130: 986f 3c3c c057 6a3d 4101 393c b65c b1bb
00000140: 2664 56bd 2f31 0abd df7d 923b 2792 8e3d
00000150: bed0 7e3b be87 42bc 793f b6bc f505 02bc
00000160: 5483 a7ba 68b7 a93d b005 ae3c d152 f3bc
00000170: e8e2 88bd fd52 dd3b 00e5 643d 14f7 87bc
00000180: 0a20 903c 7445 66bc e280 59bd 6993 803c
00000190: 7916 e13c 3ece e73c 12ef 00bd db68 a7bc
000001a0: 3246 15bd 4b4d 34bc 5885 80bc 8320 1ebc
000001b0: 8b11 15bc cd72 153d 38c5 8cb9 8032 2e3c
000001c0: e51f 90bc 0c6e 86bb 32e6 bf3b adda 4c3c
000001d0: 79bc 3b3c fb93 e7bc 35dd cf3c 4bd1 4d3d
000001e0: 4220 e0bc c0a0 043a 6cf5 0a3d af6a d63c
000001f0: 5cb8 f73b aa7d 053b 5232 91bc b265 37bc
00000200: 7ef6 66bc 8473 303c 24c9 053d a83c 1cbd
00000210: d2db d73b bff5 92bc fd16 01bd a81e 8abc
00000220: aa73 5bb8 cfc9 31bd c7e5 40bc ab3d 2ebc
00000230: c752 8fbc 5d9f 8ebd a86c 86bd 1dd9 603c
00000240: 09ec 883c c33e 2abd 1e75 62bc c930 22bd
00000250: 72ef 27bd a892 a33c 5d46 b9bc 6099 e93b
00000260: e1be f2bb 6085 93bc b07a 4cbd 4a61 03bd
00000270: 26e5 2ebd 737b 1fbd 16a3 263c f5ec 13bd
00000280: 0449 eb3a dde6 36bd b3b4 debc 6e88 023d
00000290: 3360 16bd f1f6 66bd 8f69 2bbd 9728 40bd
000002a0: 052a 863b f9d6 ce3b e3ae d9bc f174 31bd
000002b0: 196b 1abd 27f1 d9bc 0b01 9f39 2956 d9bb
000002c0: 0bf8 29bb 4f2d 66bd eff5 b339 81bb 633d
000002d0: 46ff 9f3c 05ac f53a 82b0 18bd f1ee 8a3c
000002e0: b261 5c3d 0979 0b3d ca6f 2a3d b480 b9bb
000002f0: 89b0 59bd 0d1d 1dbc 528e 263d abc4 a93d
00000300: 05fb 723d 8be6 f9bc edd6 dabc edac 20bd
00000310: cb89 ec3a 6251 563d 4ef5 07bc 8dee 2ebb
00000320: b934 733c 90e8 f83c eac7 c83c ed74 303c
00000330: 40cc a1ba 2889 3ebd 59cd 84bc 70cc c03c
00000340: f182 0e3b 78a7 833b 86b3 46bd 0d4c d2bb
00000350: 1c18 b43c bc6e 023d 0084 2bbd d0de 4bbd
00000360: 1139 d23b 6ed8 753d 12b6 a53d 5797 c93c
00000370: d1ed b3bc 5eaf 3bbd 19ce 803c f3b0 9c3d
00000380: 80a3 053d 3342 7d3c e78f 8939 b60b a93a
00000390: 9b34 ab3c 43fd 4f3b 1abd b8bb 63d7 25bc
000003a0: 6dab 22bb f60b 243d 7085 423d 7aab 333d
000003b0: 277c 183c ec2e 2ebd 0062 ec3b 722b 1f3d
000003c0: e4d0 40bc c765 2fbc e45b 68bd 1b17 47bc
000003d0: 45ca f8bb 5943 f03c 19a8 e63c 9fa6 1bbd
000003e0: 4d34 61bd 0e01 30bc 6763 afbb dfac e7bc
000003f0: 5201 193c 947c 493d 1b58 0c3d 47cc 2fbc
0.0062275217 0.04211101 0.000619752 -0.054281753 -0.02177895 -0.0344844 0.070058964 0.03109226
0.0041667665 -0.030901857 -0.013864037 0.026217591 0.04182328 0.039555993 -0.026618296 -0.039843824
-0.026365116 0.026727824 0.08429877 0.06822864 -0.032106016 -0.0265392 -0.01902582 0.078214765
0.07550121 -0.007923523 -0.017769333 0.026027251 -0.0014681892 -0.010371805 0.013605687 -0.006588104
-0.014213244 0.008453625 0.0186922 0.043664876 0.025820296 -0.063420266 -0.061005753 0.041207176
0.0422988 0.0033025977 -0.027565414 -0.06754078 -0.030615833 0.056074876 0.009125392 0.040655054
0.037382558 -0.025114734 0.008592079 -0.040254854 -0.029624142 0.0045426646 -0.04545886 -0.041476127
-0.051213887 -0.0008017708 -0.034410402 -0.022883877 0.0054498664 -0.029648231 -0.062063146 0.020898035
0.027215695 0.036824245 -0.03162587 -0.052251123 -0.011996647 0.026018353 -0.021418404 0.018622853
0.0064323815 0.007817 -0.029997557 -0.0028425897 0.011501215 0.05721259 0.011291803 -0.0054126633
-0.052341603 -0.03373831 0.0044705714 0.0696147 0.0038881744 -0.011873184 -0.022247063 -0.007935991
-0.0012780228 0.08286935 0.021242946 -0.029702576 -0.06683904 0.0067542777 0.055882454 -0.016597308
0.017593402 -0.014054645 -0.053101428 0.01569529 0.027476536 0.028296586 -0.031477995 -0.020435741
-0.036443897 -0.011004756 -0.015688583 -0.009651306 -0.009098421 0.036486436 -0.0002684982 0.010632157
-0.017593333 -0.004102474 0.005856299 0.012503308 0.01145851 -0.028268805 0.025374034 0.050248425
-0.027359132 0.0005059354 0.03392546 0.026173918 0.007559819 0.002036909 -0.01772419 -0.01119368
-0.014096854 0.010769729 0.032662526 -0.038143784 0.006587484 -0.017939446 -0.031516064 -0.016860321
-5.232139e-05 -0.04340535 -0.011773533 -0.01063482 -0.017495526 -0.0696399 -0.06563693 0.013723639
0.016714113 -0.04156376 -0.013821868 -0.039597306 -0.040999837 0.019967392 -0.02261656 0.0071288794
-0.0074080084 -0.018007934 -0.04992169 -0.032075204 -0.042699 -0.03893609 0.010170719 -0.03611465
0.0017950838 -0.044653762 -0.027185773 0.03186839 -0.036712836 -0.056387845 -0.041848715 -0.04691371
0.0040943646 0.006312248 -0.02657265 -0.043324415 -0.037699793 -0.026604248 0.0003032762 -0.0066325855
-0.0025935199 -0.056195553 0.00034324775 0.05559874 0.019530904 0.0018743282 -0.037277706 0.01695964
0.053804107 0.034050975 0.041610517 -0.0056610946 -0.053146873 -0.009589446 0.04066307 0.082894646
0.059321422 -0.03050544 -0.026713813 -0.039227415 0.0018046437 0.052323706 -0.008298231 -0.002669248
0.014844113 0.030384332 0.024509389 0.010770065 -0.0012344196 -0.04651752 -0.016211199 0.023534983
0.0021745528 0.0040177666 -0.04851105 -0.0064177574 0.021984152 0.031843886 -0.041873932 -0.049773037
0.0064154943 0.060020857 0.08091368 0.024608297 -0.021963986 -0.04582154 0.015723275 0.07650938
0.03262663 0.015457678 0.00026237892 0.0012897167 0.020899108 0.003173665 -0.005637777 -0.010122153
-0.0024821416 0.04005047 0.047490537 0.043864705 0.009306944 -0.042525217 0.007213831 0.038859792
-0.011768553 -0.010705418 -0.05672826 -0.012151505 -0.007592472 0.029328989 0.028156327 -0.0380007
-0.05498152 -0.010742439 -0.005352426 -0.028280674 0.009338694 0.049191073 0.03426371 -0.010729856

bias f4 [32]
00000000: 44cf b3bd 026c eebd d4b2 babd 82e4 c6bc
00000010: 5d80 3e3d 11ae 3bbe 22f7 18be 8f08 023d
00000020: f165 94bb 30bc 67bd 4894 063d de92 8abd
00000030: f96c 8cbc 2af0 c8bd a7ae ccbd 2f1d 90bd
00000040: 042a 6ebd b184 a9bd eea1 633b 450c 0d3c
00000050: b202 883d 8303 39bd 8093 50bd bb46 d6bd
00000060: 70ca 143d e553 2ebd 530e 0a3d 6b36 8dbd
00000070: a44c 4dbd 0577 a93d 6807 c0bd 6c8a da3c
-0.08779767 -0.116416946 -0.0911614 -0.024278883 0.046509136 -0.1832812 -0.14938024 0.031746443
-0.004528754 -0.056575954 0.032856256 -0.06766294 -0.017141806 -0.09811433 -0.0999425 -0.07036816
-0.058145538 -0.08277262 0.0034733969 0.008608882 0.06641139 -0.045169365 -0.050921917 -0.104627095
0.036325872 -0.042560477 0.033705067 -0.06895145 -0.05012192 0.08274654 -0.09376413 0.026677333

weight f4 [64, 32, 5, 5]
00000000: 130f 3dbb f264 4a3c 1b56 26bd 0680 e2bc
00000010: 9380 b53c c507 b3bc c9ba b73c 444b 2abd
00000020: e77b c6bc 77b1 e23c 776e 72bd f643 2cbd
00000030: fcef 49bd a427 2ebd 2103 e23b f44a afbc
00000040: adfa 04bb 2b1d f0bc cb19 1a3c 7ed4 093c
00000050: 4fb6 11bd e70a ccbc ada5 e23a 5ba3 cbbc
00000060: e7ee 133c 71d4 ad3b 61ad 36bd 56b1 0f3b
00000070: c390 963c 5dc7 c63c 8d08 7dbc c495 0abd
00000080: 7c34 1ebd b24a 1a3d 5c70 913c d746 27bc
00000090: 4eb2 b5bb 951d d13b 7484 793c 1d05 613d
000000a0: 7f07 ffbc b52c 64bd ff43 08bd 1768 74bc
000000b0: e0ed a13c 209b f63c fc4b ec3b 6491 983b
000000c0: 5916 cf3c bf7e 2bbc 9d9d 08bd 57e3 01bc
000000d0: 7266 22bd 9b87 b93b cac3 00bc 937b 1a3d
000000e0: 5781 1bbd b43e 9abc 8448 f33b 7ca9 8f3b
000000f0: 9562 1cbd 0a80 01bd a454 19bb 82c5 113d
00000100: 5d9e 323d 6ee1 2fbb f1d1 eebc eb2a 27bc
00000110: 2828 3c3d 03f8 dc3c 8468 e9bc 5229 863b
00000120: de56 103d cd6c d0bb a79b d4bc dcf0 2e3c
00000130: 0956 1f3c b241 81bd 9eb0 873c 4ae3 a93c
00000140: 9b50 163d 3a7e 79bc 2328 72bd 2415 65bb
00000150: 0e3f 37bc e527 dc3c 88af 64bd 94f7 37bd
00000160: 28bf a23c c20c 0e3d cc6a 21bd b3cb c1bc
00000170: 095f 3ebd cb45 efbc af5e 20bc 2163 d33c
00000180: 2dee 86bc 2593 6a3c 7bd7 133d b94d 8ebc
00000190: 704c ebbc 9978 52bc c5cd b83c cafb f83c
000001a0: 4f08 403c 5f0d eb3a 7176 a4ba 4786 9b3b
000001b0: 438c 96bb d3f2 6bbc e076 76bc 2074 d03c
000001c0: ef21 0dbb 02b3 223d a324 383c ad9f 54bb
000001d0: a619 adbc d2e7 e83b 59e2 56bc 4972 c3bc
000001e0: 088f d83c 678e 2f3d ebeb c0bb 4595 693c
000001f0: 5016 053c 2cf2 01bd 89fe 3dbd c23f f23b
00000200: 0e92 923c 9014 a0ba a59a c9bc 6ec9 e03c
00000210: f25d 713c d0a1 c73c ced4 e43c 68f8 2f3c
00000220: 5393 a6bc be07 a53b 3341 6d3d a8d2 9f3c
00000230: 3997 43bb 40dd 6f3c a307 8d3c d589 cf3a
00000240: ae3d c13c aeff ad3c 4ece 96bc 4395 fb3c
00000250: a851 bc3b 483a 063d 19fa cebb 8df1 003d
00000260: 2fa0 f0bb dae3 ae3c 1480 903b f1d6 663c
00000270: 12a2 a03a b88f 4abc 8c79 533c 6ea4 1b3d
00000280: 880e a3bc 099f 1a3b f8b3 8c3b 5a62 183d
00000290: 478f cf3c 4646 dcba dd77 58bc d6fd 0cbd
000002a0: 212a 62ba 14fd ccbb 5a12 a43c 2dca 1e3c
000002b0: 4160 aa3c bf0c 0a3d c8d8 443d 82d6 53bc
000002c0: 6bf5 0b3c b12e 463c 4fed f1bc 9b71 dabc
000002d0: 581d 5dbd 2624 1cbc 370b fa3c d691 293b
000002e0: bf94 bdbb d362 16bd 954a 78bb 32e4 18bd
000002f0: fdee a0bc 3641 913c 742c 473c ce08 d03c
00000300: 117a 273d f887 d9bc 1f44 4b3c dd8f 0ebc
00000310: 4f3f 3c3c 5808 6f3a 23d6 3f3c 8b52 d93c
00000320: e796 6c3c e1da 373d 4683 313c 12d1 95bc
00000330: 3073 1abd 9690 7fba 4261 ee3c d248 04bd
00000340: 8fa8 ecbc 40de abbc 0e67 6639 9e3a 0e3d
00000350: 5185 25bd 6eb2 31bc 10a3 f5bc 18ac 52bc
00000360: c706 943d 84c7 363d 59c6 8e3b c6fc 9d3c
00000370: 2bbe 99bc 58ca 0d3d 779f 7b3c fb49 97bc
00000380: e4c7 003c 0c36 903c a086 023d 16b6 7d3c
00000390: 729f c53c fd4e bd3c 515b c13a d0b0 fc3c
000003a0: b0d1 953b f64c b7bc 3eb0 e43c 0872 073d
000003b0: 99bf 26bd 9f5e 33bd 1d10 47bd 8571 18bd
000003c0: 25a3 a9bc 0acf b03c 7114 403d 0505 5c3d
000003d0: 35a4 8dbc 3e79 8a3c e04d 3fbc d458 d0bb
000003e0: c624 1bbd 46f3 31bc 4efa 1ebd 22ee 11bd
000003f0: 06d6 4bbd 5dad 063d 7a5a debc 9151 b2bc
-0.0028848096 0.012353169 -0.04060946 -0.027648937 0.022156036 -0.02185429 0.022427933 -0.041575685
-0.024229003 0.027672512 -0.05918738 -0.042057 -0.049301133 -0.042518273 0.0068973457 -0.021398045
-0.0020291016 -0.029310783 0.009405564 0.0084124785 -0.035574254 -0.024907542 0.0017291807 -0.024858167
0.009029127 0.005304866 -0.04459894 0.0021925769 0.018379575 0.024264986 -0.015443933 -0.033834234
-0.03862427 0.03766889 0.017753772 -0.010209761 -0.005544937 0.0063817003 0.015229333 0.054936517
-0.031131504 -0.0557067 -0.03326797 -0.014917395 0.019766748 0.030103266 0.0072112065 0.004656004
0.02527921 -0.01046723 -0.033353437 -0.007927737 -0.03964848 0.0056619174 -0.00785918 0.037715506
-0.037965145 -0.018828727 0.007424416 0.004384218 -0.038179953 -0.03161625 -0.0023396397 0.03558875
0.04360806 -0.0026837247 -0.029152842 -0.010203104 0.045936733 0.02697373 -0.02849222 0.0040942812
0.035239093 -0.0063606263 -0.025953127 0.010677543 0.009725102 -0.063113585 0.01656371 0.020738263
0.036697965 -0.015227849 -0.05912031 -0.0034955228 -0.011184467 0.026874492 -0.055831462 -0.044913843
0.019866541 0.034680136 -0.03940849 -0.023656702 -0.04647735 -0.029208085 -0.009788199 0.025804104
-0.016470993 0.014317309 0.03609417 -0.017371045 -0.028722972 -0.012846136 0.022559056 0.0303935
0.011720731 0.0017933062 -0.0012547505 0.0047462317 -0.004594357 -0.0144011555 -0.01504299 0.025445998
-0.0021535119 0.039721496 0.011239204 -0.0032443807 -0.021130394 0.0071077133 -0.013115489 -0.023858206
0.02643539 0.042860415 -0.0058874986 0.01425678 0.0081229955 -0.031725094 -0.04638532 0.0073928544
0.01789191 -0.0012213159 -0.024609873 0.0274398 0.014731871 0.02436915 0.027933504 0.010740377
-0.020333922 0.0050363233 0.057923507 0.019509628 -0.0029844774 0.014640152 0.017215556 0.0015833924
0.023588981 0.021240082 -0.01840892 0.030710822 0.005747039 0.032770425 -0.006316435 0.03148036
-0.007343314 0.021348882 0.0044097994 0.014089332 0.0012255332 -0.012363367 0.012907397 0.03799861
-0.01990439 0.0023593327 0.004293915 0.03720317 0.025336875 -0.0016805611 -0.013212171 -0.034421764
-0.00086274935 -0.006255755 0.020028282 0.009691757 0.02079785 0.033703562 0.0480583 -0.012929561
0.008542399 0.012096093 -0.029532103 -0.0266655 -0.053983063 -0.009530103 0.030522926 0.0025874279
-0.005785554 -0.03671534 -0.0037886251 -0.037327 -0.019645208 0.01773129 0.012156595 0.025394823
0.040887896 -0.026554093 0.012406378 -0.008701292 0.011489703 0.000911837 0.011708769 0.026528617
0.014440275 0.044886474 0.010834521 -0.018288169 -0.037707508 -0.0009749023 0.02909911 -0.03229601
-0.028888969 -0.02098 0.000219729 0.03472387 -0.040410344 -0.010845764 -0.02998498 -0.012858413
0.07227855 0.044623867 0.004357141 0.01928557 -0.018767437 0.0346168 0.015357844 -0.018467894
0.007860158 0.017603897 0.03186667 0.015485307 0.024123881 0.023108954 0.0014751946 0.03084603
0.004572116 -0.022375565 0.02791607 0.033067733 -0.040710066 -0.04379141 -0.04859935 -0.037217636
-0.020707676 0.021583099 0.046894494 0.053715724 -0.017290214 0.016903516 -0.011676282 -0.0063582454
-0.037876867 -0.010861224 -0.038812928 -0.03562749 -0.049764656 0.032880176 -0.027142752 -0.02176741

bias f4 [64]
00000000: b5f4 4dbd 6c69 a2bd 2265 9abd 5439 c0bb
00000010: 150e 2dbc b005 86bd 0433 e2bc bc22 a23b
00000020: d1e8 efbc 7b3b d2bc e6a2 95bd 0be5 4fbd
00000030: e157 2ebd b0ce 18bd 16e8 67bd c259 8cbb
00000040: 6e34 80bd aa2f 48bd 498b 56bd 219c 44bd
00000050: 9a8d 32bd 2a4c e5bb 1bfe a9bc 78a9 aabd
00000060: 06aa 53bd c8cf d3bb ca5a 59bd e043 49bc
00000070: 19fc 1dbd 84fa 4dbd 21df 1bbc 8439 18bc
00000080: d092 4d3c 09e7 8dbc 1daa 61bd e184 8bbc
00000090: a33c dabb 5215 88bd ff64 78bd 191e bbbd
000000a0: ee26 6bbd fa98 45bd 9269 583d da3c b2ba
000000b0: 86c5 ffbc 1e74 1fbc 2489 b6bc 90e7 82bd
000000c0: 8e72 7cbc a176 05bc 278c a2bd 1734 87bd
000000d0: 15b0 26bd 4525 b1bd 5c5f 9d3c b6e0 e43c
000000e0: f02b 0d3d cc8f 96bd 6e51 143d 96e8 9dbd
000000f0: e78b 63bd 1380 cfbb 975a a2bb a19f fa3b
-0.0502822 -0.07930264 -0.07538821 -0.005866209 -0.010562439 -0.065440536 -0.027612217 0.0049479883
-0.02928582 -0.025663128 -0.07306461 -0.05075554 -0.042564277 -0.037306488 -0.05661782 -0.004283161
-0.0626 -0.04887358 -0.052378926 -0.04800046 -0.043592073 -0.006997605 -0.02075105 -0.08333105
-0.05167582 -0.0064639784 -0.0530651 -0.012284249 -0.038570497 -0.05028774 -0.009513647 -0.009291057
0.01254721 -0.01732208 -0.055093873 -0.017031135 -0.0066600605 -0.066446915 -0.060643192 -0.091366
-0.057410173 -0.048241593 0.052835055 -0.0013598457 -0.031222116 -0.009732274 -0.02228219 -0.06391823
-0.015408171 -0.008145959 -0.07936888 -0.06601732 -0.04069527 -0.08649687 0.01921051 0.027939182
0.03446573 -0.07351646 0.03621047 -0.07710378 -0.055553343 -0.0063324063 -0.004954647 0.007648424

weight f4 [64, 1024]
00000000: 7f18 57bd 14e6 023c 4a28 8a3c df1f 3e3c
00000010: 86f5 adbb 0982 d83c 938e 943c 3246 b2bc
00000020: a87b 83bc 5b3b c8bb 4979 1e3d 6627 23bc
00000030: a90b debc 37dc 65bd d7e1 12bb 3b95 12bd
00000040: 0d97 16bc 33b0 bb3c 48cc afbc 281a 673a
00000050: b421 0b3b 6f2c 22bc 2b5a 6cbc 3feb 07bc
00000060: 46e7 79bc b7f4 b33c ec9a f8bc 9fae 503d
00000070: 6a76 733c 96b6 3b3a 6b91 e53b ff75 9ebc
00000080: f4c9 213c fac5 64bb 3e02 f0bc 15c9 41bc
00000090: bedc b3bc 74e6 a53c 4627 7e3c 9711 d43c
000000a0: d8e0 82bc 1df5 11bd ce3d 03bd 884c 65bc
000000b0: 1e5d fc3b f118 df3c 6f7b 283c f97e 85bc
000000c0: 2f1a 9ebc 3b98 f3bc 05a8 80bc eaba d7bc
000000d0: 3ce1 e9bc 2e84 07bb 2601 c53c 9dd6 e0ba
000000e0: 1ce5 bdbc 4941 a63c 1e8c d03c 510c 083d
000000f0: 0bec 333c ac15 0b3d 292a 753d 78e5 013d
00000100: e6b3 8c3c 7133 9ebb bf5d 7f3c d641 0b3d
00000110: 01ef b3bc bba1 46bc 8cd6 8c3c 9ce1 483d
00000120: b82f cc3b 8d67 493d 10ab af3b 2d2d db3b
00000130: b7e4 9dbc dc14 b13c de82 84bc f2f9 3b3c
00000140: c48b 72bc 1d52 c93c f876 013c 755f 87bc
00000150: 2b1c 95bc 1811 153c 84cd 9a3c b55e 253c
00000160: e092 35bb c3b5 053d 4123 28bc 1371 0abc
00000170: 25bc 2a3d 91a2 d23c 1f9b eb3c 3f5e af3c
00000180: bdfc 46bc 1e71 acbc fda6 44bc 1654 993c
00000190: 9bf8 0db9 dc38 32bc d6b8 96bc 85a3 d2bc
000001a0: b310 1a3d 5384 363d 511f 44bc 06a8 4a3d
000001b0: 7ba8 89bc 60fd 763c 4262 013d a09f 193c
000001c0: 86a8 133c 9e4a 4cbd c741 e1ba f331 393d
000001d0: 7e1c ea3c ee4a 0fbc 3492 253d 9b1b ff3c
000001e0: 1c22 53bb a06e b2bc 9019 403d 0c20 333d
000001f0: 7b6f 583d 01b7 c4bb adc7 02bc 0b13 883c
00000200: caa3 71bc c9c3 21bb acd2 b33c 3c94 1cbc
00000210: 870f f53c 4a81 5a3b 816d 493d ea5e 263d
00000220: a070 2c3d 2b87 553d d067 da3c 5f20 353d
00000230: 2837 a2bc f66a 96bb 26f0 debb 85c7 a9bc
00000240: 92e3 813c adbb 19bc ec40 7e3c ede3 febb
00000250: 195a d23c 1e08 0c3d 3085 6b3d e105 033d
00000260: e435 9c3c 07b4 8d3d 85c1 083d 99c9 673a
00000270: 9c21 febc 9496 7bbc 372c bebc 54cb 9fbc
00000280: b67d e33c c242 d6bb af24 d4bc 38b0 0abb
00000290: fcae 173d b58f 86bb e997 e2ba 2f93 763d
000002a0: 2844 073d 2dbb d8bc 5b07 883c c942 123d
000002b0: c7ec b9bc 873c ffbc 7bff 9d3b ecab 9d3c
000002c0: 5746 ad3c 588e ce3b ad8e f8bc c71a 13bc
000002d0: b56b 88bc a1f7 bc3b bff1 84bc c75a 8bbc
000002e0: ea23 28bc 7c18 3d3c 8c0d 11bd f21f 093c
000002f0: 97cd f23b aa72 be3c 8149 393d 7352 9b3c
00000300: 5761 153c 8999 3abd 416f 873b fd9d 54bc
00000310: 36a8 9d3c f3c6 16bd 9869 acbc f053 29bb
00000320: 0278 ac3b a3be cbbc 1535 eb3c 4612 113c
00000330: e3e7 493d e7e5 6dbc df55 17bc 543b 03bd
00000340: 547d 183c 0318 79bc fa85 7abc 3ec2 593c
00000350: 40bb 65ba 150c 8d3c 8648 013d deb5 383c
00000360: 8b65 043c 56af c13c 3a3d 233c e463 533d
00000370: 318b 1fbd c60f f1bc bdc9 0abc f4db ddbb
00000380: bf8a 703c baaa 653b 20ac 3a3d ec16 10bb
00000390: 3073 c33c 40f8 253c f13c fbba 401c 9f3c
000003a0: fcca de3b 9a02 21bd 9eac 533c 9b18 3dbd
000003b0: e414 e33b 8fdb abbc 92a5 a03c ab30 2e3c
000003c0: 22fc a33b 9f54 a23c 9fc5 d33c 6bd5 8dbc
000003d0: cb24 8abc 75c5 c1bc b9bc 5b3b a654 083c
000003e0: dcb6 9f3c f0d7 01bd 95bb bf3c 4782 843b
000003f0: 6c00 343c 5389 ec3b c5f4 0bbb f46a b3bb
-0.052513596 0.007989425 0.016864914 0.011604278 -0.0053088097 0.026429193 0.018134391 -0.021761987
-0.016050175 -0.0061105913 0.038689885 -0.009958124 -0.02710517 -0.056118216 -0.0022412443 -0.03578685
-0.009191287 0.022911167 -0.021459714 0.0008815848 0.0021229805 -0.009898289 -0.014425795 -0.008295833
-0.015252894 0.021967275 -0.03034731 0.05094778 0.014859775 0.00071606913 0.0070058606 -0.019343374
0.0098748095 -0.0034908042 -0.029297944 -0.011827727 -0.021955844 0.02025149 0.015512293 0.025887294
-0.015976354 -0.03563415 -0.032041363 -0.013995297 0.00770153 0.027233573 0.010283335 -0.016295897
-0.019299595 -0.029735675 -0.015705118 -0.026334245 -0.028549783 -0.002067815 0.0240484 -0.0017153803
-0.023180537 0.020294802 0.025457438 0.03321487 0.01098157 0.033956215 0.05985466 0.03171298
0.017175626 -0.0048279096 0.015586316 0.033998333 -0.021964552 -0.0121235205 0.017192148 0.049043283
0.0062312745 0.04917102 0.0053609684 0.006688735 -0.019274099 0.021616392 -0.016175684 0.011473166
-0.0148038305 0.024575287 0.0079018995 -0.01652501 -0.018201908 0.009098314 0.018896826 0.010093381
-0.0027705953 0.032644045 -0.010262311 -0.008449811 0.041683335 0.025712283 0.028760491 0.021407245
-0.012145218 -0.021050032 -0.012002704 0.018716853 -0.0001353942 -0.010877814 -0.018398684 -0.025712738
0.037613582 0.044559788 -0.011970357 0.049476646 -0.01680397 0.015075058 0.031587847 0.0093764365
0.009012347 -0.049875848 -0.0017185741 0.04521365 0.02857804 -0.008745892 0.040422633 0.031141093
-0.0032216376 -0.021781266 0.04689938 0.043731734 0.05284069 -0.006003261 -0.007982177 0.016610643
-0.014748523 -0.0024683347 0.021951042 -0.009556826 0.02991463 0.0033341222 0.049176697 0.04061786
0.042099595 0.05213086 0.02666083 0.044220325 -0.019801691 -0.0045903875 -0.0068035303 -0.020725021
0.015855584 -0.009383124 0.015518408 -0.0077786357 0.025677728 0.03418743 0.057500064 0.03198803
0.019068666 0.06919103 0.03338768 0.0008841991 -0.031021886 -0.015355725 -0.023214443 -0.019506134
0.027769905 -0.00653872 -0.025896398 -0.0021162163 0.037032112 -0.0041064867 -0.0017287704 0.06019896
0.033023983 -0.02645644 0.01660507 0.035708223 -0.022695912 -0.031156791 0.0048217154 0.019247018
0.021151705 0.00630359 -0.03034147 -0.008978552 -0.016652921 0.0057668244 -0.016228555 -0.01701106
-0.010262469 0.011541482 -0.03541331 0.008369433 0.007409762 0.023248035 0.045236114 0.018960213
0.009117446 -0.04555658 0.0041331355 -0.0129771205 0.019245248 -0.036810827 -0.021046445 -0.0025837384
0.0052633295 -0.024871176 0.028711835 0.008854454 0.04929341 -0.014520145 -0.009236782 -0.032039
0.009307224 -0.015203479 -0.015290732 0.01329094 -0.0008763559 0.017217675 0.031563304 0.011273829
0.00808085 0.023643177 0.009963328 0.051608935 -0.038951103 -0.029426467 -0.00847095 -0.006770605
0.014681517 0.0035044388 0.045574307 -0.0021986319 0.023858637 0.010129988 -0.0019167942 0.01942265
0.0067991 -0.03930912 0.012919573 -0.046166044 0.0069299806 -0.020978717 0.0196102 0.010631721
0.005004422 0.019815741 0.025851069 -0.01731368 -0.016863247 -0.023653725 0.0033529236 0.008320963
0.019496374 -0.031700075 0.023404876 0.0040438506 0.010986429 0.0072185188 -0.002135561 -0.0054753963

bias f4 [64]
00000000: 786b a5bc 3ae1 003b 143e c6bc 007f 353c
00000010: 998f 2ebc dc75 1e3d b09e 9cbc a80f a4bc
00000020: 875e 18ba a5ca 20bc 5459 c8bc ff58 3abd
00000030: 9234 663c c8c5 3e3d 8aa4 7e3b 1fea dcbb
00000040: e455 b53c 09c9 823c 29ca c2bc b62f 053d
00000050: da78 31bd 6c87 883c 7ca0 9f3c 552d e1bc
00000060: dd84 023d a51f 01bd 5963 e838 fa5f c5bc
00000070: 81f4 883d e0c9 d93c 1afa e8bc 40a4 983c
00000080: f669 24bd 62e4 203d 5c37 fcbb edbd 3abd
00000090: a266 9ebc cd66 d43c 21b0 41bd 9abc 3fbd
000000a0: 0e66 4cbd 8e2a 80bc f9b9 edbc 9243 0ebd
000000b0: 990f a53c 0dfd e6bb a6fd 51bb 5823 f8bc
000000c0: 5582 f4bc ff2f eebc 6745 ec3c bbac 7a3d
000000d0: cca8 803c bb5e 56ba 3b7c bcbb 704a 8cbb
000000e0: 7d7a e2ba 50be 28bd fddb 3ebd 9e8a 7d3c
000000f0: ccc4 fa3c 8b46 3cbd 4074 a23c 67c2 ec3c
-0.020192847 0.0019665495 -0.024199523 0.011077642 -0.010654354 0.03868662 -0.019118637 -0.020026997
-0.00058124255 -0.009813939 -0.024456657 -0.04549503 0.01405062 0.046575338 0.0038855397 -0.0067417766
0.022135682 0.015965002 -0.023778038 0.032516204 -0.043328144 0.016666137 0.019485705 -0.027487436
0.03186499 -0.03152432 0.00011081127 -0.024093617 0.066872604 0.02658552 -0.02843957 0.018633008
-0.040140115 0.039280303 -0.007697029 -0.045591284 -0.019336049 0.025927925 -0.04728711 -0.046810724
-0.049902014 -0.015645292 -0.029019343 -0.03473241 0.02014904 -0.007049209 -0.0032042055 -0.03029029
-0.029847303 -0.02907562 0.028841687 0.061199885 0.015705489 -0.0008177568 -0.005752114 -0.0042813346
-0.0017278936 -0.04119712 -0.046596516 0.015474943 0.030611418 -0.045965713 0.019830823 0.028901292

weight f4 [10, 64]
00000000: a5f7 ce3c f5a5 373e 20b9 e5bd d845 cbbc
00000010: 2c87 27be c352 39be 4730 b33d 3d23 3a3e
00000020: e03f 3f3e 1ed1 213d 3033 44be 8037 223e
00000030: 6678 6abd bc7a fd3c e36d 6dbe 9be5 3e3e
00000040: 3c7c 263e 7675 62be 3074 313e 1d1c 1abe
00000050: 33dc 1a3c 280e 29be b378 fbbb df3e 163e
00000060: b894 f9bd 3e71 20bd 3948 14be abde e7bd
00000070: 0905 2bbe 1618 5bbc 157d 55bd f123 8d3c
00000080: 39e8 6b3e 5baa 3abe 11a1 98bd 92fb c03c
00000090: 6b5a 14be 5571 a7bd 2d0d 6a3e 265b 37be
000000a0: 72b8 533e 6afb a5bd 218d b63d 1107 033e
000000b0: 06a7 843c b209 3bbe 8769 843d 3bd4 a1bd
000000c0: d2b5 5a3e f97e 113b 34d1 3cbe 666f b2bd
000000d0: 939e b83d 9728 d0bc 8040 dd3d f279 213d
000000e0: c272 d83c 745b 743e b1dd e13d 915e 6bbe
000000f0: 202b dbbd 589c d0bb 4c49 d7bd 0beb 3a3d
00000100: d671 fd3d 9bcc 14bd 7046 fb3d 9bf2 44be
00000110: 76b2 4fbc 6b51 553d 3d98 80bd ae88 56be
00000120: 7e7d 4bbe 324a 86bc 7d0e 63be 93d3 05be
00000130: ae86 a9bd 62ed 12be 5fde 693e 588f 8dbd
00000140: 5db5 a9bd 5afc 643e 2d8c 8d3d 4434 1cbe
00000150: 80df 0abe 42c3 fbbd cfe2 10bd 2acf 353e
00000160: 6f8b af3e e97b 623e 8e4b 293e 1ed8 253d
00000170: 3076 80be b85e 20be 9f9d b0bd 7d39 203e
00000180: 1ff1 493e 5312 973d f134 9abd 7b67 55be
00000190: 2b0d b6bd 92c1 e83d 3ab8 39be 9a58 e5bd
000001a0: 2d85 d43d 1be8 0bbd d476 f93c dbd7 0e3d
000001b0: 2eeb 4cbe 54f9 56be 9c79 a3bd d1da 653e
000001c0: 0ac9 e4bc 072e 1d3e 06be 1fbe f40b 43be
000001d0: b5b6 95be 26ca 343e 83f3 05be 2270 b4bd
000001e0: 63ea 993e f9e3 073e 2bc6 d73b 69d0 893e
000001f0: a7db a4be 2851 f2bd d43c 68be b829 38be
00000200: 3c1d 8abe b6bc b8ba aa59 87be b718 103e
00000210: 9119 9bbd dffc c1bd 6105 833d 353f 36bd
00000220: a11a 1d3c 687b cebd 7cde 173e 5b1c 47be
00000230: 6308 bd3c 8d0b bd3b c2f4 80be f38b 3e3e
00000240: 2cf9 75bd 5a4e 04be a2a3 06be b764 913d
00000250: d6ff 2a3d c7f8 a23d d665 11be f43f 5fbe
00000260: 808d 91bc c9d9 5a3d 5f71 01be 6904 b13d
00000270: e1c1 19be cf60 3a3e 14b5 37bd 5b65 2c3e
00000280: 1c8c 433e e746 953d eec1 1bbe 9bc5 9bbc
00000290: 6a29 513e 1596 a73d 99b1 0d3e cd29 85be
000002a0: e15d a43d 0187 ad3d 36dc 253d 77f6 0d3d
000002b0: 3abc 093e 5328 463e 84f1 9b3e a308 26bc
000002c0: 85ce b13d 22a6 613e 3957 693e c940 043e
000002d0: 3c77 bcbd 5046 173e c94e f03d 760b f43d
000002e0: c7e5 fb3c 432f 04be 397b 55bd 9d2c 34be
000002f0: ae09 823e 687b 4e3d ee60 9f3d 2188 2dbd
00000300: bd86 ebbd 365c 053e 501c 3abe 2dc1 06be
00000310: ca2b 96bd 35f9 0b3e fe6b 0ebc 43ca bebc
00000320: 56ce 04be 4e53 063e 2210 fa3d e767 f93a
00000330: 517f ec3d 38fc 30be 7641 3f3e 15dc b0bd
00000340: ad1f e53d 01f7 0c3e a680 57bd 4641 d8bb
00000350: 11d8 223c c484 b93d 4b47 2f3e b42b 0d3c
00000360: b069 68bd d7d7 20bd 1be5 ebbd 3b9c 24be
00000370: fade 823d a2fa 713d 90ea 4c3e a27c 6fbd
00000380: 657b 9dbd 3059 ee3c 7897 b63d ed49 98bd
00000390: 8141 fe3d c164 8b3c e535 9e3d 7130 863d
000003a0: fe28 083e 1f0a 323e 2d66 6bbe 7a6c f1bc
000003b0: c892 dc3c 2cec 8b3d 36b1 103e e03c 16be
000003c0: 5220 47bd 8cee a0bd 0b02 16be 5397 443d
000003d0: 2d2f d13d 7cdb 293e b468 bf3d b5bd 3bbd
000003e0: 524d acbd 756f 11be 7662 d43d b66e 2dbd
000003f0: 4861 123d 9541 07be ab78 853d 5aec 5fbd
0.02526457 0.17934401 -0.112169504 -0.024813578 -0.16360158 -0.18097977 0.087494425 0.18177505
0.1867671 0.03950607 -0.19160151 0.15841484 -0.057243727 0.030942313 -0.2318645 0.18642275
0.16258329 -0.2211512 0.17329478 -0.15049787 0.009451914 -0.16509306 -0.0076743006 0.14672421
-0.12186569 -0.039170496 -0.14480676 -0.113217674 -0.1670114 -0.013372442 -0.05212124 0.017229052
0.23037805 -0.18229048 -0.07452596 0.023557458 -0.14487617 -0.08175913 0.22856589 -0.17905864
0.20675829 -0.08104594 0.08913637 0.12795664 0.016192924 -0.18265417 0.0646544 -0.07901808
0.21358421 0.0022200926 -0.1843918 -0.08712654 0.09014621 -0.02540998 0.10803318 0.039422937
0.026421908 0.23863012 0.110286124 -0.22985293 -0.10701585 -0.006366294 -0.10512027 0.04563431
0.12375228 -0.03632794 0.12269294 -0.19233172 -0.012676826 0.0520796 -0.06279037 -0.20950577
-0.1987209 -0.016392801 -0.22173496 -0.1306899 -0.08277641 -0.14348367 0.22838734 -0.06912106
-0.082865454 0.2236189 0.06911502 -0.15254313 -0.13561821 -0.12293102 -0.03537255 0.17754808
0.34286067 0.2211758 0.16532728 0.04048931 -0.2509017 -0.15661132 -0.08623814 0.1564693
0.19720887 0.07376542 -0.07529629 -0.20840256 -0.0888923 0.113650456 -0.18136683 -0.1119854
0.10376964 -0.0341569 0.03045217 0.034873825 -0.20011589 -0.20993549 -0.079821795 0.22446753
-0.027927894 0.1534959 -0.15599832 -0.19047529 -0.29240957 0.17655239 -0.13081174 -0.0881045
0.30061635 0.13270558 0.0065849028 0.26916817 -0.3219883 -0.118318856 -0.22679454 -0.17984664
-0.2697543 -0.0014094326 -0.26435596 0.14071928 -0.07573236 -0.094720595 0.0639751 -0.044493873
0.009588868 -0.100821316 0.14830965 -0.1944441 0.023075288 0.005769199 -0.25186735 0.18608074
-0.060052082 -0.12920514 -0.13148358 0.07099288 0.04174789 0.07957607 -0.14199004 -0.2180174
-0.017767668 0.053430352 -0.12640904 0.08643419 -0.15015365 0.18200992 -0.044850424 0.16835539
0.19096416 0.07288914 -0.15210697 -0.019015124 0.20425954 0.08182923 0.1383728 -0.26008454
0.080257185 0.084730156 0.040493213 0.034658875 0.13450709 0.1935132 0.304577 -0.010133895
0.086819686 0.22036031 0.22787179 0.12915339 -0.0920243 0.14772916 0.11733777 0.119162485
0.030749215 -0.12908654 -0.052119467 -0.17595144 0.2539801 0.050410658 0.0778216 -0.04236615
-0.11500309 0.13023457 -0.18174863 -0.13159628 -0.07332571 0.13669284 -0.0086927395 -0.023289805
-0.12969336 0.13117716 0.12210108 0.0019028158 0.11547721 -0.17283714 0.18677315 -0.08635727
0.11187682 0.137661 -0.052612923 -0.006599578 0.00993921 0.09058526 0.1711704 0.008616377
-0.056741416 -0.03926834 -0.11518308 -0.16075222 0.06390186 0.059076913 0.20011353 -0.05846847
-0.07689551 0.029095262 0.08915609 -0.07435975 0.12414838 0.017015817 0.07725123 0.06552208
0.13296887 0.17386673 -0.22988196 -0.029470671 0.02692546 0.068321556 0.141301 -0.1467166
-0.048614807 -0.07857999 -0.14649217 0.047995877 0.10214076 0.16587633 0.093461424 -0.045835216
-0.08413185 -0.14202674 0.103703424 -0.04234191 0.035737306 -0.13208611 0.06517156 -0.05466876

bias f4 [10]
00000000: 7719 90bd d2ec 013e f638 95bc 25c8 8b3d
00000010: 8426 973d 3f07 cfbd d938 c23d 5728 b3bc
00000020: 2b74 bf3b 61ae bb3c
-0.07036107 0.12687996 -0.018215638 0.06825284 0.07380393 -0.10108804 0.09483499 -0.021869821
0.0058427057 0.022910299
