try_train/cifar10_models/cifar10_net_2.pth (torch, 589388 bytes, 10 tensors)

weight f4 [32, 3, 5, 5]
0	0xbd0efc9c	-0.034908876
1	0x3dff701f	0.12472557
2	0x3dd499fb	0.10380932
3	0xbda826f6	-0.08210556
4	0x3dddd1b8	0.10831016
5	0xbda823d8	-0.08209962
6	0xbcd5467d	-0.026034588
7	0xbc641585	-0.013921146
8	0x3e01fdbb	0.12694447
9	0x3d4a84b5	0.049442966
10	0xbdb26dbf	-0.08712339
11	0x3d43b795	0.0477825
12	0xbd5fbf40	-0.05462575
13	0x3ce076d7	0.027400417
14	0xbdc5c3a9	-0.0965646
15	0xbd732810	-0.05936438
16	0xbcd9e51e	-0.02659851
17	0xbde29015	-0.11062638
18	0xbd966311	-0.07343114
19	0xbdb99c4f	-0.090630166
20	0x3db4b2eb	0.088231884
21	0xbd2536e7	-0.040335562
22	0xbdda2f4d	-0.10653553
23	0x3cd013e3	0.025400108
24	0xbcac4fb4	-0.0210341
25	0xbdcada23	-0.099048875
26	0xbcfa75d6	-0.030573767
27	0xbd771cb1	-0.060330097
28	0xbda02a2f	-0.07820546
29	0xbdc1e063	-0.094666265
30	0x3d4d49f4	0.050119355
31	0xbdbb9f02	-0.09161188
32	0xbde87f34	-0.11352387
33	0x3d02f632	0.03197307
34	0x3b06ab55	0.00205489
35	0xbdcd81d7	-0.100345306
36	0x3c2d88cb	0.010591696
37	0xbda93e35	-0.08263818
38	0x3c9d2128	0.01918085
39	0xbd858f29	-0.06521446
40	0x3dccc498	0.09998435
41	0x3d07bb7d	0.033137787
42	0xbd565428	-0.05232635
43	0x3c0d5801	0.008626939
44	0xbdf6c301	-0.12048913
45	0x3b97044b	0.004608666
46	0xba206bdd	-0.00061195885
47	0xbdd1b678	-0.10239881
48	0xbdcbf580	-0.09958935
49	0x3ce059f0	0.027386636
50	0xbaff9c24	-0.001950149
51	0x3d8c3d90	0.068476796
52	0x3df9eb89	0.12203128
53	0xbb9d9ac5	-0.0048097097
54	0xbdc950a1	-0.09829832
55	0xbccbccc1	-0.024877908
56	0x3baf21f2	0.005344623
57	0x3a852ea5	0.0010160996
58	0xbc75f733	-0.01501255
59	0xbd056051	-0.032562558
60	0x3d2f8747	0.04285362
61	0xbcccadf3	-0.02498529
62	0xbd8d88ff	-0.069108956
63	0xbdb71302	-0.08939172
64	0xbd823c84	-0.06359199
65	0x3d869782	0.065718666
66	0x3d94ef59	0.072722144
67	0xbccbd8f1	-0.02488372
68	0x3cc31868	0.023815349
69	0x3c5f9f2b	0.013648788
70	0x3ddf82aa	0.10913594
71	0x3d7701bd	0.060304392
72	0xbdb3e0dd	-0.08783124
73	0xbd846bdc	-0.06465885
74	0xbdc343ae	-0.09534393
75	0xbdd710e7	-0.10501271
76	0x3cdaffa7	0.026733233
77	0xbdffbe54	-0.12487474
78	0x3d046faa	0.032333054
79	0xbc2cc294	-0.010544438
80	0x3d22f41c	0.039783582
81	0xbc7f84b0	-0.0155956
82	0x3c597754	0.013273079
83	0xbd9362bd	-0.07196567
84	0x3d5e075d	0.05420624
85	0x3d8381ff	0.06421279
86	0xbcda4cc8	-0.02664794
87	0x3cd06b31	0.025441738
88	0xbd450560	-0.04810083
89	0x3d997618	0.07493228
90	0xbd9e92c1	-0.07742835
91	0xbccf14f6	-0.02527855
92	0xbcc03767	-0.023463918
93	0xbdb686a5	-0.089124
94	0xbb945fd3	-0.0045280247
95	0xbbc78120	-0.006088391
96	0xbd9159f8	-0.07097238
97	0x3c1f4b8f	0.009722604
98	0xbd946059	-0.07244939
99	0xbd9b1829	-0.075729676
100	0x3c29290e	0.01032473
101	0x3d3550c7	0.04426649
102	0xbdaf3ed0	-0.085569024
103	0x3ce51db5	0.027968267
104	0xbe013931	-0.12619473
105	0xbd4988c3	-0.04920269
106	0xbd3180d0	-0.043335736
107	0x3d05715a	0.032578804
108	0x3db61c49	0.08892114
109	0x3c63e4b3	0.013909507
110	0xbd361fbc	-0.044463858
111	0xbd31b642	-0.043386705
112	0xbd629560	-0.055318236
113	0x3d8f5319	0.069982715
114	0xbc578801	-0.013154984
115	0x3c211141	0.009830774
116	0xbd8ea155	-0.069643654
117	0xbdb3c31e	-0.0877745
118	0xbdaa0453	-0.08301606
119	0xbd8f6ef2	-0.07003583
120	0xbd2a07a9	-0.04151121
121	0xbde149e4	-0.11000422
122	0xbd9fdc31	-0.0780567
123	0xbe17e4f3	-0.14833431
124	0xbdddf6b8	-0.108380735
125	0xb9b8d6de	-0.00035255303
126	0x3e01c341	0.1267214
127	0xbcac5446	-0.021036278
128	0xbd7f4049	-0.062317166
129	0x3cb62214	0.022233047
130	0x3def2a63	0.116780065
131	0x3d9f3250	0.07773268
132	0x3e00ffb4	0.12597543
133	0x3d27b189	0.040940795
134	0x3c1be728	0.009515561
135	0x3e2696d5	0.16268475
136	0x3e05cbc2	0.13066009
137	0x3e398033	0.1811531
138	0x3d8d410f	0.068971746
139	0x3deb28ff	0.11482429
140	0x3e1c80d2	0.15283516
141	0x3e15cc2b	0.14628665
142	0x3e1a4323	0.15064673
143	0x3d8e777a	0.06956382
144	0x3e274e19	0.16338386
145	0x3cc6f60b	0.024287244
146	0xbcd3a069	-0.025833325
147	0x3dbd8ed1	0.09255756
148	0x3e0b1901	0.13583757
149	0x3d52c44c	0.051456735
150	0x3c391405	0.011296277
151	0xbc742f8f	-0.014903917
152	0x3c6d5e6b	0.014487843
153	0xbd0c954e	-0.034322076
154	0xbc340d9a	-0.010989571
155	0x3dcdac9c	0.10042688
156	0xbddbdd42	-0.10735561
157	0x3da90270	0.08252418
158	0x3d77c8f9	0.060494397
159	0xbd4d612e	-0.050141506
160	0xbc97a6a4	-0.018512078
161	0xbd630234	-0.055422023
162	0xbdb2a90b	-0.08723649
163	0xbc07d2b5	-0.008289983
164	0x3d68f22f	0.05687159
165	0xbddbefea	-0.10739119
166	0x3d847a72	0.06468667
167	0x3d8fd02f	0.0702213
168	0xbc82470a	-0.015903015
169	0x3ce02ed9	0.027366089
170	0xbdb671f9	-0.08908457
171	0xbd7014ac	-0.058613464
172	0x3b948c9e	0.0045333644
173	0xbd080a78	-0.03321311
174	0xbdaf12c7	-0.08548503
175	0x3dc0faac	0.09422812
176	0xbc46df77	-0.012138239
177	0x3c8dd7b9	0.017314779
178	0x3d04a0cd	0.032379914
179	0xbbf91978	-0.007601913
180	0x3d22c495	0.039738256
181	0xbb0b852b	-0.002128909
182	0x398bf138	0.00026691868
183	0x3d8e1b7b	0.06938835
184	0x3d45fd66	0.048337363
185	0x3c87185a	0.016491104
186	0xbd8e859b	-0.06959077
187	0x3df0b91f	0.11754059
188	0x3c369fcc	0.011146497
189	0xbdab5763	-0.08366277
190	0xbdb895ca	-0.09012945
191	0xbcf57057	-0.029960794
192	0x3c43dcd0	0.011954501
193	0x3db1722b	0.08664354
194	0x3dd4a345	0.10382704
195	0xbc7c08e9	-0.015382984
196	0x3cd31740	0.025767922
197	0xbdbaaab4	-0.0911459
198	0x3de1d859	0.11027593
199	0x3cbdfb41	0.023191096
200	0x3c9381db	0.018006256
201	0xbda6c896	-0.081437275
202	0x3ddf5543	0.10904934
203	0xbd966be8	-0.073448
204	0x3c98b710	0.018641979
205	0x3d9f73bf	0.07785749
206	0xbd9a35dd	-0.07529805
207	0x3cc0e14f	0.023544936
208	0xbd3fae54	-0.04679711
209	0x3dc09ddf	0.094051115
210	0xbc0570d2	-0.008144574
211	0xbd842b22	-0.064535394
212	0xbd16e864	-0.03684272
213	0xbd8b495a	-0.068011
214	0x3d650bb6	0.05591937
215	0x3c8e6048	0.017379895
216	0xbdc013ac	-0.09378752
217	0x3ddfcd7d	0.10927866
218	0x3db471c5	0.08810762
219	0xbddab4b7	-0.10679
220	0xbdb265c5	-0.08710817
221	0x3da30c30	0.07961309
222	0xbdcb599c	-0.09929201
223	0xbdce1ee5	-0.100644864
224	0xbdef8acb	-0.116963945
225	0xbd801392	-0.06253733
226	0x3d8e4d96	0.06948392
227	0x3dd5e075	0.104432024
228	0xbd22cde4	-0.039747134
229	0x3da2dbb4	0.07952061
230	0xbd769626	-0.060201786
231	0x3d0bd321	0.034136895
232	0xbd7d4aac	-0.06183879
233	0x3d511095	0.051041204
234	0xbda4e9d0	-0.08052409
235	0x3d6b34e3	0.057423484
236	0xbd0a4ec8	-0.033766538
237	0x3d6996d8	0.05702862
238	0x3db57a99	0.08861274
239	0xbd80bf17	-0.062864475
240	0xbd2ec33d	-0.042666662
241	0xbdacfc2e	-0.08446537
242	0x3cc36804	0.02385331
243	0x3ca74271	0.020417424
244	0x3dbaa7d7	0.09114044
245	0xbcd9522a	-0.026528437
246	0xbce1d998	-0.027569577
247	0xbdff1bed	-0.12456498
248	0x3c775fbb	0.0150985075
249	0xbdc15806	-0.09440617
250	0xba426542	-0.0007415601
251	0xbc65ba73	-0.014021504
252	0xbd0201d8	-0.03174004
253	0x3d83b675	0.06431285
254	0x3d574bdf	0.05256259
255	0xbd723ab7	-0.059138026

bias f4 [32]
0	0x3cb54fa3	0.0221327
1	0xbe5c29d6	-0.21500334
2	0xbd4086f1	-0.04700369
3	0x3d93c2a8	0.07214862
4	0xbbc0789b	-0.0058737523
5	0xbdbedd4b	-0.09319552
6	0x3d2bdf72	0.04196114
7	0xbb93506b	-0.0044956706
8	0xbd0a6dc1	-0.033796076
9	0xbd170938	-0.036874026
10	0xbe0951c7	-0.13410102
11	0x3c90b2f3	0.017663455
12	0x3da9b742	0.08286907
13	0x3c9f3e7b	0.019438973
14	0xbd9ad6b9	-0.07560486
15	0x3e36202e	0.17785713
16	0x3d8f7a69	0.0700577
17	0x3dd37ee2	0.10326935
18	0xbda10306	-0.07861905
19	0xbc865327	-0.016397072
20	0x3d040682	0.03223277
21	0x3d7e9b58	0.062159866
22	0xbdf64e7f	-0.12026691
23	0x3cee8fe1	0.029121341
24	0x3ccfbdcf	0.025359062
25	0xbe3b4b87	-0.1829053
26	0x3d7ebc31	0.062191192
27	0xbc4a3316	-0.012341281
28	0x3e2004c7	0.15626822
29	0xbd8c81df	-0.068607084
30	0xbd987817	-0.0744478
31	0x3d0eee03	0.034894954

weight f4 [32, 32, 5, 5]
0	0x3b83d43c	0.004023103
1	0x3c2b72ad	0.010464353
2	0x3b9b8e1d	0.004747166
3	0xbcef2cc4	-0.02919615
4	0xbc42a9c2	-0.011881294
5	0xbc2c1f3c	-0.010505494
6	0x3d1a2960	0.037637115
7	0xbca85479	-0.020548092
8	0xba900003	-0.0010986332
9	0xb96ebd8b	-0.00022768059
10	0x3cfdaf83	0.03096748
11	0x3cd54ebd	0.026038522
12	0xbc87815b	-0.016541174
13	0xbc361574	-0.011113513
14	0xbc6a5011	-0.014301316
15	0xbc1d2111	-0.009590403
16	0xbc5c2951	-0.013437585
17	0x39e5e2d8	0.00043847295
18	0x3cc0265b	0.02345579
19	0x3d2f5e35	0.042814452
20	0xbc29369b	-0.01032796
21	0xbc29fc3b	-0.010375078
22	0xbc9b43e3	-0.01895327
23	0x3cf479e7	0.029843284
24	0x3d0c3200	0.03422737
25	0xbbe807f8	-0.007081028
26	0xbb04c865	-0.0020261046
27	0x3ce2f399	0.027704047
28	0xbc9f7494	-0.019464768
29	0xbce668e9	-0.028126197
30	0xbc179302	-0.009251358
31	0x3c5d6af2	0.013514267
32	0x3c5a3044	0.0133171715
33	0xbace5e9e	-0.0015744751
34	0xbc6febac	-0.014643591
35	0x3b7e13fd	0.0038769238
36	0x3c28a509	0.010293254
37	0xbd0ee153	-0.034882855
38	0xbcdafbf1	-0.026731463
39	0x3d1642d7	0.036684837
40	0x3b9f5b77	0.0048631984
41	0xbcf17330	-0.029473871
42	0xbc9e668d	-0.01933601
43	0xbc8e2f86	-0.017356645
44	0x3b6c2790	0.0036034323
45	0x3caa254e	0.020769741
46	0xbd08749b	-0.03331433
47	0x3c068334	0.008209992
48	0x3d06e153	0.03292973
49	0xbcca5d39	-0.024702655
50	0x3cda7cf8	0.026670918
51	0xbcb90e82	-0.022589926
52	0xbc834b7e	-0.016027208
53	0x3caa028d	0.02075317
54	0xbcad4319	-0.021150159
55	0xbcc5aa7a	-0.024129141
56	0xbce11d0b	-0.02747967
57	0x3cb93fbe	0.022613402
58	0xbcd5fe30	-0.026122183
59	0xbc8c9ba2	-0.017164055
60	0x3b05ddbd	0.0020426356
61	0xbc960651	-0.018313559
62	0xbd0eae38	-0.034834117
63	0x3d086c8c	0.033306643
64	0x3c8f3cf8	0.017485127
65	0x3cfdd95b	0.030987432
66	0xbd02ea43	-0.03196169
67	0xbd1fe181	-0.039033417
68	0x3ba1662a	0.004925509
69	0x3ce98a45	0.028508315
70	0xbd0d2767	-0.034461405
71	0x3c49ca1c	0.012316253
72	0x3c232918	0.009958528
73	0x3c741a6c	0.014898878
74	0xbd035158	-0.032059997
75	0x3ca0c7d1	0.01962653
76	0x3bec5a56	0.0072129173
77	0x3d09658f	0.03354412
78	0xbb55e65b	-0.0032638523
79	0x3ac3424f	0.0014897081
80	0xbcd98285	-0.026551494
81	0xbc0a9a8d	-0.008459699
82	0xbb1413e0	-0.0022594854
83	0x3caddaf7	0.021222575
84	0xbcd7ca61	-0.026341619
85	0xbc10b9ae	-0.008833332
86	0xbad2b8d2	-0.0016076809
87	0x3c9d38aa	0.019192059
88	0xbcd8fa79	-0.026486622
89	0x3d112ed5	0.035445053
90	0x3c79a376	0.015236726
91	0xbce15c30	-0.027509779
92	0xbd152c1e	-0.036419027
93	0x3cd7a688	0.026324525
94	0x3d0503fc	0.032474503
95	0xbc56ee5c	-0.013118353
96	0x3cacb3eb	0.021081885
97	0x3b5164db	0.0031950984
98	0xbd0f660c	-0.03500943
99	0xb9565aa0	-0.00020442391
100	0x3ce51f19	0.02796893
101	0x3cdf3616	0.02724747
102	0xbcbf2382	-0.023332361
103	0xbc158f0a	-0.009128341
104	0xbcee87c6	-0.029117476
105	0xbbbcd576	-0.005762751
106	0xbcb2211d	-0.021744305
107	0xbc0ba106	-0.008522278
108	0xbbd20634	-0.006409431
109	0x3d162a00	0.036661148
110	0x3c38b92c	0.011274617
111	0x3b39a4ed	0.0028327063
112	0xbc95ca13	-0.018284833
113	0xbbcc26a0	-0.0062301904
114	0xbc414236	-0.011795571
115	0x3cd222a5	0.025651285
116	0x3c3de540	0.011590302
117	0xbcfaf219	-0.03063302
118	0x3cd7c892	0.026340757
119	0x3cce9325	0.025216648
120	0xbc299534	-0.010350514
121	0x3bce5457	0.006296675
122	0x3ce19e1e	0.027541216
123	0x3cc47bd2	0.023984823
124	0xbc6f6b76	-0.014613023
125	0xbb011df6	-0.0019701696
126	0x3b9de8bb	0.0048190034
127	0x3c849fd7	0.016189499
128	0xbb14bf05	-0.0022696864
129	0x3ba75b99	0.005107355
130	0x3ceff269	0.029290395
131	0xbceb5805	-0.028728494
132	0x3d185286	0.037188075
133	0x3ca30812	0.01990131
134	0xbca9598a	-0.020672578
135	0xbc94567d	-0.018107647
136	0x3c7235b7	0.014783314
137	0xbcb81102	-0.022469047
138	0x3c2cfbb9	0.010558062
139	0xb9275224	-0.00015956961
140	0xbaa3673d	-0.001246668
141	0xbd03563f	-0.032064673
142	0xbd012afd	-0.031535137
143	0x3d0238b2	0.03179235
144	0x3c89ca5b	0.016820123
145	0xbcda320f	-0.026635198
146	0x3c0fe9f7	0.008783809
147	0xbc95f3f8	-0.01830481
148	0xbcf218cb	-0.029552838
149	0x3c0557d5	0.008138617
150	0x3c46bbea	0.012129763
151	0x3d0d6889	0.03452352
152	0x3c9f67d3	0.019458687
153	0x3c30fa7b	0.010801907
154	0xbc2f5bf4	-0.010703076
155	0xbb3f12d7	-0.0029155517
156	0xbc5ce2de	-0.013481824
157	0xbc52d799	-0.012868785
158	0x3ca2411a	0.019806433
159	0xbc395dea	-0.011313895
160	0x3cce2d54	0.025168099
161	0xbcad3284	-0.021142252
162	0xbb44ac64	-0.003000998
163	0x3cf5e7c8	0.030017748
164	0xbcb1cc6c	-0.021703921
165	0xbd126470	-0.035740316
166	0xbca9a935	-0.020710567
167	0xbcb8acfe	-0.022543427
168	0xbb5d4d1e	-0.003376789
169	0x3c7a37cf	0.015272095
170	0xbc470221	-0.012146504
171	0xbc97bc51	-0.018522413
172	0xbca291a7	-0.019844843
173	0xbcdba8c7	-0.026813878
174	0x3ba67ec6	0.0050810305
175	0xbca9fb44	-0.020749696
176	0x3c75dee9	0.015006759
177	0xbd05638b	-0.032565635
178	0xbcadffa8	-0.02124007
179	0x3cec88bf	0.0288738
180	0xbca8835d	-0.020570451
181	0xbcb16f7b	-0.021659603
182	0xbc28979a	-0.010290051
183	0x3cbd3a1d	0.023099
184	0x3c625532	0.013814257
185	0xba89de1c	-0.0010518464
186	0xbc733727	-0.014844692
187	0xbc0d695a	-0.008631075
188	0xbc961039	-0.018318282
189	0xbc8c3e56	-0.017119568
190	0x3d119ba8	0.035548836
191	0x3d130ef3	0.03590293
192	0x3cb71dfa	0.022353161
193	0xbc3eeafe	-0.011652706
194	0xbc3a45ac	-0.01136915
195	0xbcff60dc	-0.031174116
196	0xbc958302	-0.018250946
197	0x3c5aff61	0.013366551
198	0xbc910701	-0.017703535
199	0xba162263	-0.000572717
200	0x3c3483d0	0.011017755
201	0x3c8fdf87	0.01756264
202	0x3d118fc7	0.035537507
203	0x3cb4f574	0.022089697
204	0xbb743416	-0.003726249
205	0xbcf36c47	-0.029714717
206	0xbd0912a6	-0.03346505
207	0x3ad43bae	0.0016192102
208	0x3c139064	0.009006593
209	0x3c834b04	0.016026981
210	0xbc74af6f	-0.014934405
211	0xbb27864d	-0.0025562227
212	0xbc562fcb	-0.013072918
213	0x3c5f93f9	0.013646119
214	0xbcf201bf	-0.029541848
215	0xbca68c75	-0.020330647
216	0x3cbd8c25	0.023138115
217	0x3d210cf0	0.03931898
218	0x3d30a78b	0.04312853
219	0x3c96832b	0.018373093
220	0xbb04f562	-0.002028786
221	0xbd07fb5a	-0.033198692
222	0x3c256384	0.010094527
223	0x3d0daa26	0.034586094
224	0x3c1253c1	0.008931101
225	0x3cf2a508	0.029619709
226	0xbb08f392	-0.0020897132
227	0xbc465fa8	-0.012107767
228	0x3c45f346	0.012081927
229	0x3b477e28	0.0030440185
230	0xbbbd1fe5	-0.0057716244
231	0xbae4c456	-0.0017453532
232	0xbc238a75	-0.009981741
233	0x3c58537c	0.013203498
234	0x3d031acf	0.03200799
235	0x3cd7f514	0.02636198
236	0x3c575f20	0.013145238
237	0xbcd6d441	-0.026224257
238	0xbc589f4c	-0.013221573
239	0x3c4cc5be	0.012498317
240	0xbd04e481	-0.03244448
241	0xbc9dc9e2	-0.019261304
242	0xbd160a00	-0.03663063
243	0xb9a7a958	-0.00031978893
244	0xbcaf1ab7	-0.021375043
245	0x3c7a4c99	0.015277051
246	0x3c9508a9	0.018192606
247	0xbd155626	-0.03645911
248	0xbd0cd9d7	-0.034387436
249	0xbbf56467	-0.0074887755
250	0x3c122172	0.008919107
251	0xbcfec38c	-0.031099103
252	0xbc9d8373	-0.019227719
253	0x3cf097a4	0.029369183
254	0x3d1335e3	0.035940062
255	0x3c201b0b	0.009772073

bias f4 [32]
0	0xbc520587	-0.012818701
1	0xbd0e37ea	-0.034721293
2	0xbd497f2d	-0.04919355
3	0x3b7d7656	0.003867527
4	0x3bb35292	0.0054724896
5	0xbd728f1d	-0.059218515
6	0xbcf234cd	-0.029566193
7	0x3d68865c	0.05676876
8	0x3d18ebb8	0.037334174
9	0xbc751aed	-0.014960033
10	0xbc3395b4	-0.010960985
11	0xbd2dae9b	-0.042402845
12	0x3c27504b	0.010212014
13	0xbd1f3e10	-0.038877547
14	0x3c08c821	0.008348496
15	0xbc8d83ba	-0.017274726
16	0xbcec90d3	-0.028877651
17	0xbcc7b1c4	-0.024376757
18	0xbba5ee9c	-0.005063845
19	0x3d19428d	0.037416983
20	0x3d3b2939	0.04569361
21	0xbaf76b7b	-0.0018876636
22	0x3b175698	0.0023092385
23	0x3bdf393c	0.006812243
24	0x3d34a91e	0.044106595
25	0xbc607d9f	-0.013701825
26	0x3cb683ab	0.022279581
27	0xbd1024b6	-0.03519126
28	0x3b62eb80	0.0034625232
29	0x3d0274ba	0.0318496
30	0x3bfec446	0.0077748625
31	0x3a54e033	0.00081205665

weight f4 [64, 32, 5, 5]
0	0x3bd7bda3	0.0065838858
1	0x3c960ce9	0.018316703
2	0xbcd42e3d	-0.025900954
3	0xbca3bf6e	-0.019988742
4	0x3d00878c	0.031379268
5	0xbc85081a	-0.016239215
6	0x3c2f6a0e	0.010706438
7	0xbd072f3a	-0.033004023
8	0x3c644a5c	0.013933744
9	0x3c90684c	0.017627858
10	0xbcdf211c	-0.027237467
11	0xbc7438b4	-0.014906097
12	0xbb11cb23	-0.0022246323
13	0xbc51dc73	-0.012808907
14	0x3bb74b44	0.005593689
15	0xbbce77d1	-0.0063009043
16	0x3d148b88	0.03626588
17	0x3c9bb5f0	0.019007653
18	0x3d05f52b	0.032704514
19	0x3b49bedc	0.0030783927
20	0xbd080f11	-0.033217493
21	0xbc301d19	-0.010749125
22	0x3beeba8d	0.007285422
23	0xbcd1cc94	-0.025610246
24	0x3c700cb7	0.014651469
25	0x3b78587c	0.0037894538
26	0xbced34f7	-0.02895592
27	0x3c1f921e	0.009739427
28	0x3b3aa470	0.002847936
29	0xbb655d6a	-0.0034998306
30	0xbcf54043	-0.029937869
31	0xbc889b94	-0.016675748
32	0xbccd0fe1	-0.025031986
33	0x3d0670dd	0.03282248
34	0xbbe9da69	-0.007136632
35	0xbbe83854	-0.007086793
36	0x3cb41230	0.021981329
37	0x3d05158d	0.032491256
38	0x3c549133	0.012974071
39	0x3ceb9b6c	0.028760634
40	0xbd05f130	-0.032700717
41	0xbcbfaa3d	-0.023396606
42	0xbc932b55	-0.017964998
43	0xbce68f47	-0.028144492
44	0xbc43602a	-0.011924783
45	0x3ce57e53	0.028014338
46	0x3cbaf37d	0.022821182
47	0x3c9ad30d	0.018899465
48	0x3d0343ab	0.032046955
49	0xbcb9778d	-0.022640014
50	0xbcba386e	-0.022731986
51	0xbc2141c1	-0.009842337
52	0xbce13b3c	-0.027494065
53	0x3ca54edb	0.020179203
54	0xbbea8384	-0.007156791
55	0x3cef03a3	0.029176539
56	0xbd01c63c	-0.03168319
57	0xbc28fb11	-0.010313765
58	0x3c419fe3	0.011817905
59	0xbad8a3db	-0.0016528325
60	0x39f35952	0.0004641512
61	0xbb515e99	-0.0031947254
62	0x3c97ec23	0.018545216
63	0x3d00bd7b	0.031430703
64	0x3d25953b	0.04042552
65	0x3cb0bddb	0.021574905
66	0xbbb0fdd5	-0.005401353
67	0xbbab4d19	-0.0052276966
68	0x3cd57804	0.026058204
69	0x3b159533	0.0022824525
70	0xbc6b3b08	-0.014357336
71	0x3c617fc9	0.0137633765
72	0x3d209d21	0.03921235
73	0xbbf489f0	-0.0074627325
74	0xbcb2552b	-0.021769127
75	0x3c6364bd	0.013878998
76	0x3cb1a9a4	0.021687336
77	0xbd39889e	-0.045296304
78	0xbc5d6649	-0.013513156
79	0xbb50e693	-0.0031875714
80	0x3cc39167	0.023873044
81	0x3a090728	0.00052272016
82	0xbd18ea89	-0.037333045
83	0xbc8f19fc	-0.017468445
84	0xbcbca996	-0.023030084
85	0x3ce6aa37	0.028157337
86	0xbd22e4b9	-0.03976891
87	0xbca541aa	-0.020172913
88	0x3c663c41	0.014052452
89	0x3cba042d	0.02270707
90	0xbd139076	-0.03602644
91	0xbc5eb270	-0.0135923475
92	0xbcbca251	-0.023026617
93	0xbcd8e42e	-0.026475992
94	0xbc376e54	-0.011195738
95	0x3ccf3994	0.02529601
96	0xbcf3ee1d	-0.029776627
97	0x3c88aeb1	0.016684862
98	0x3d104c51	0.03522903
99	0xbcc04a1f	-0.023472844
100	0xbce9620b	-0.028489133
101	0xbc3fb7e6	-0.01170156
102	0x3cf19223	0.029488629
103	0x3cfda1bf	0.030960916
104	0x3c57f3ff	0.013180732
105	0x3c2107f5	0.009828557
106	0x3af56bc3	0.0018724132
107	0x3c82d1b1	0.01596913
108	0xbc15287c	-0.0091038905
109	0xbc84df9b	-0.016219905
110	0xbc1c3a51	-0.009535388
111	0x3c9218e5	0.017834136
112	0x3c611c97	0.0137397265
113	0x3d0732c0	0.033007383
114	0x3b00718b	0.0019598927
115	0xbacac42d	-0.0015469842
116	0xbcb4d47e	-0.02207398
117	0x3cbbf995	0.022946158
118	0xbc69126a	-0.014225582
119	0xbcf86f9f	-0.030326663
120	0x3d0552e2	0.032549746
121	0x3cf8afac	0.030357204
122	0x3ada0e39	0.0016636319
123	0x3ca17831	0.019710632
124	0x3c8ee8d5	0.017445007
125	0xbc925e03	-0.017867094
126	0xbd0fbe4a	-0.035093583
127	0x3994e83d	0.0002840179
128	0x3b42a265	0.0029698845
129	0xbbfaae97	-0.0076502073
130	0xbcb943df	-0.022615371
131	0x3d0772f7	0.033068623
132	0x3c45d57f	0.012074827
133	0xbb1f8cb5	-0.0024345343
134	0x3bdad17c	0.0066778045
135	0x3d152b08	0.03641799
136	0x3b60b759	0.0034288971
137	0x3c54e968	0.0129951015
138	0x3cdd3327	0.02700193
139	0xbbe15969	-0.0068771136
140	0x3b4cc07b	0.0031242657
141	0x3d111638	0.03542158
142	0x3cba2687	0.02272345
143	0xbc828bd5	-0.015935818
144	0xbb344c40	-0.002751127
145	0x3ca2a1fe	0.019852635
146	0xbcd33bdf	-0.025785385
147	0x3cf2cc4f	0.029638438
148	0x3c05d997	0.008169553
149	0x3d19af98	0.037520975
150	0xbc41889a	-0.0118123535
151	0x3ccb4534	0.024813272
152	0xbb726590	-0.0036986805
153	0x3c4a6d8a	0.012355218
154	0x3ceb9ef6	0.028762322
155	0xbc3b00be	-0.011413751
156	0x3c091ef1	0.008369193
157	0xbcb44fd1	-0.022010716
158	0xbc946afc	-0.01811742
159	0x3ce1567c	0.02750706
160	0xbc8fff61	-0.017577829
161	0x3ca5438e	0.020173814
162	0x3d005af6	0.031336747
163	0x3d2dc406	0.04242327
164	0x3c911a7d	0.017712826
165	0x3ca3ef2e	0.02001151
166	0x3c56d142	0.013111414
167	0xbc80b5c0	-0.015711665
168	0x3cd169f5	0.02556322
169	0x3c29d57a	0.010365838
170	0x3d00f107	0.03147986
171	0x3adfc337	0.0017071728
172	0x3c79f5b1	0.015256331
173	0x3cdc95d0	0.026926905
174	0x3d29f611	0.041494433
175	0x3b6e49ad	0.0036359832
176	0xbb865e52	-0.0041005993
177	0x3c8b0bed	0.01697346
178	0xbb350a44	-0.0027624527
179	0x3c5ca642	0.013467373
180	0xbd015b27	-0.03158107
181	0xbcb2ed1e	-0.021841582
182	0x3d220d14	0.039563254
183	0x3cda4db0	0.026648372
184	0xbbeb1c89	-0.0071750325
185	0x3a02c8ce	0.00049890287
186	0x3ba69016	0.0050830944
187	0xbc760a13	-0.01501705
188	0x3c65ebdc	0.014033284
189	0x3ce4f551	0.027949007
190	0x3d02ad82	0.03190375
191	0x3ceca97d	0.028889412
192	0x3d32bfa0	0.04363978
193	0xbc142e60	-0.00904426
194	0x3c373090	0.011181012
195	0x3bbf06b8	0.0058296584
196	0x3c8ce956	0.017201107
197	0x3c29e95b	0.010370578
198	0x3c244cdb	0.010028089
199	0x3d174c0a	0.03693775
200	0x3cc45c26	0.023969721
201	0x3d1aabff	0.037761685
202	0x3d04cfa0	0.03242457
203	0xbbe240db	-0.006904704
204	0xbcd80c94	-0.026373185
205	0x3c8a49ab	0.01688083
206	0x3d01b3c7	0.03166559
207	0xbbc80198	-0.0061037056
208	0xbc603558	-0.013684593
209	0xbbaaa7e7	-0.005208004
210	0x3c03b429	0.008038559
211	0x3cb529e1	0.022114696
212	0xbca2eeba	-0.019889224
213	0x3c3d4bfc	0.011553761
214	0xbc3499e9	-0.011023023
215	0xbbc2ccb8	-0.0059448145
216	0x3d296f95	0.04136618
217	0x3d2a73e5	0.041614432
218	0x3c4453e7	0.0119828945
219	0x3d1c4aef	0.0381574
220	0x3a152721	0.00056897296
221	0x3d07b271	0.03312916
222	0x3d04fafa	0.032465912
223	0xbc777950	-0.015104607
224	0x3c1a88f5	0.009432067
225	0x3ca71168	0.020394042
226	0x3d09b8b8	0.033623427
227	0x3ca81d45	0.02052177
228	0x3d185f0d	0.037200022
229	0x3d246d38	0.04014322
230	0x3c188cc5	0.009310906
231	0x3d1ff664	0.039053336
232	0x3ca13b8f	0.01968172
233	0xbcb021db	-0.021500519
234	0x3c9ff6ea	0.019526917
235	0x3d18b123	0.037278306
236	0xbc08cc38	-0.008349471
237	0xbc9343c0	-0.017976642
238	0xbcdf268d	-0.027240062
239	0xbce48bb8	-0.027898654
240	0xbc2fb6c1	-0.010724724
241	0x3d1f1385	0.038836975
242	0x3d476706	0.048682235
243	0x3d289f68	0.041167647
244	0xbcc10532	-0.023562048
245	0x3cc6848c	0.024233125
246	0x3c9fb6b7	0.019496305
247	0x3c1b2074	0.009468187
248	0xbcf06f51	-0.029349955
249	0xbbc5c375	-0.006035263
250	0xbca2ab87	-0.019857181
251	0xbce0b613	-0.02743057
252	0xbd0eeae9	-0.034891997
253	0x3ceabde3	0.028654998
254	0xbc6495c4	-0.0139517225
255	0xbca7247a	-0.020403136

bias f4 [64]
0	0x3cacef8a	0.021110315
1	0xbb9d1d29	-0.004794736
2	0xbd1ce6e0	-0.038306117
3	0x3c7a0bbe	0.015261589
4	0x3be2d6f6	0.006922598
5	0xbc4ef760	-0.012632221
6	0xbce07392	-0.027398858
7	0x3ca39de7	0.019972755
8	0xbc21f6f6	-0.00988554
9	0x3bd60ddd	0.0065324144
10	0x3c6b67db	0.014368023
11	0xbb00ee95	-0.0019673456
12	0x3b92824f	0.0044711004
13	0xbbf1c13a	-0.0073777707
14	0xbc9a743e	-0.018854257
15	0x3cd89209	0.026436822
16	0xbcd0ec39	-0.025503265
17	0xbc994c2a	-0.018713076
18	0xbca5fbec	-0.020261727
19	0x3c9bedce	0.019034293
20	0xbbd0a78a	-0.0063676285
21	0x3c3420ed	0.010994178
22	0x3b38c4fb	0.0028193581
23	0x3c9ee16b	0.019394597
24	0x3c17a987	0.009256727
25	0xbae77196	-0.0017657753
26	0xbc760162	-0.015014978
27	0x3ccc138c	0.024911664
28	0x3c5cff3f	0.01348859
29	0xbccabb05	-0.024747381
30	0x3be474d9	0.006971937
31	0x3bb9fa36	0.0056755794
32	0x3d0cfb0f	0.034419116
33	0x3c0cb1b6	0.008587291
34	0x3b0f69e2	0.002188318
35	0x3c2272cf	0.009915068
36	0x3c6e7393	0.014553922
37	0xbd107c0e	-0.035274558
38	0xbb7f1510	-0.0038922466
39	0xbcdcd4a0	-0.026956856
40	0x3ba7f60d	0.005125767
41	0x3c4b44ad	0.01240651
42	0x3cef705e	0.029228386
43	0x3c654a0d	0.013994706
44	0xbd1746ef	-0.036932882
45	0xbc1112d4	-0.008854587
46	0x399a5eae	0.0002944371
47	0x3b57aa75	0.0032907997
48	0xbba0b040	-0.004903823
49	0x3cc97ee0	0.024596632
50	0xbd2ac507	-0.041691806
51	0xbcefeb2e	-0.029286947
52	0xbc8e0fe2	-0.017341558
53	0xbc9fdcfd	-0.019514555
54	0x3c805000	0.015663147
55	0x3d0f836d	0.035037447
56	0x3ce51eab	0.027968725
57	0xbcd9e1d6	-0.026596945
58	0x3d0b20b8	0.03396675
59	0xbc2e41d4	-0.010635812
60	0xbd15df59	-0.036589954
61	0x3cd600e7	0.026123477
62	0x3caedd15	0.021345655
63	0x3c98781a	0.018611956

weight f4 [64, 1024]
0	0xbd058a46	-0.03260257
1	0x3c2b241b	0.01044562
2	0x3c6192ac	0.013767879
3	0x3cb9e46d	0.02269193
4	0x3c42aa56	0.011881432
5	0x3cd04629	0.02542408
6	0x3bc998ec	0.006152263
7	0xbc94b7d8	-0.01815407
8	0x3b17ef31	0.002318334
9	0x3c5fa560	0.013650268
10	0x3d1abf98	0.037780374
11	0xbc18aafc	-0.00931811
12	0x38f6b5e3	0.00011764073
13	0xbcd80557	-0.026369734
14	0x3c4a65e9	0.012353399
15	0xbc726420	-0.0147943795
16	0xbacb4b2e	-0.0015510076
17	0x3cb82be0	0.022481859
18	0xbca95982	-0.020672563
19	0xbb7b3290	-0.0038329698
20	0xba469d90	-0.0007576579
21	0xbb1f4aa7	-0.002430597
22	0x3c5e36cb	0.013562868
23	0xbc9df277	-0.019280655
24	0xbca0d789	-0.019634025
25	0x3c00ad29	0.007853785
26	0xbce18e9c	-0.027533822
27	0x3cccde61	0.025008382
28	0x3ce4840b	0.027894994
29	0x3c08d156	0.008350691
30	0x3c28653a	0.010278041
31	0xbc99b699	-0.018763827
32	0xbb724680	-0.003696829
33	0x3c8bf6ea	0.017085511
34	0xbb99acf0	-0.004689805
35	0xbc7c6322	-0.0154044945
36	0xbc3a4f96	-0.011371514
37	0x3cff7d47	0.031187667
38	0x3cc8934b	0.024484297
39	0x3ca4af91	0.020103248
40	0xbccf0e90	-0.025275499
41	0xbcf60288	-0.030030504
42	0xbc92fd1b	-0.017942956
43	0xbbf3a097	-0.0074349153
44	0x3bb7e55b	0.005612058
45	0x3c927150	0.017876297
46	0x3c199ad1	0.00937529
47	0xbca6a8fe	-0.020344254
48	0xbcd83974	-0.026394583
49	0xbc3c389e	-0.011488108
50	0xbb07e038	-0.002073301
51	0xbce3b037	-0.027793987
52	0xbcf46ec4	-0.029837973
53	0x3c54fce3	0.012999746
54	0x3cea668a	0.028613348
55	0xbc7383f1	-0.014863
56	0xbc4d3c19	-0.012526535
57	0x3c034f87	0.008014566
58	0x3cb9d08b	0.022682449
59	0x3ced039c	0.028932385
60	0xbc4543a6	-0.012040054
61	0x3ca7a2d2	0.020463381
62	0x3ca22e5c	0.019797496
63	0x3cab4479	0.020906674
64	0x3cda2010	0.026626617
65	0x3c65106f	0.013980969
66	0x3ba192e0	0.004930839
67	0x3cb19948	0.021679536
68	0xbc4542bd	-0.012039837
69	0xbc05db39	-0.008169943
70	0x3c124cf7	0.008929483
71	0x3c9b4b54	0.018956818
72	0xbc249dbc	-0.010047372
73	0x3c54a9b8	0.012979917
74	0x3c37a377	0.011208407
75	0xbcba8809	-0.022769945
76	0xbcdf0057	-0.027221842
77	0x3cb2dad4	0.021832861
78	0xbc9b12e3	-0.018929904
79	0x3caf6f0a	0.021415252
80	0xbc9e2caa	-0.019308407
81	0x3cd48f6c	0.025947295
82	0x3c8bf507	0.017084612
83	0xbbe1097b	-0.0068675852
84	0xbce0ce98	-0.027442262
85	0x3ca39eb6	0.01997314
86	0x3c3787d4	0.011201818
87	0x3c386e30	0.0112567395
88	0xbb15a24f	-0.002283234
89	0x3c828f38	0.015937433
90	0xbbad239b	-0.0052837855
91	0xbc8ba3b8	-0.01704584
92	0x3ccdcf13	0.025123155
93	0x3c251fb0	0.010078356
94	0x3be295af	0.0069148163
95	0x3c8ff30b	0.017571947
96	0xbc1db904	-0.009626631
97	0xbc87192b	-0.016491493
98	0xbc1b9173	-0.009495127
99	0x3cb9250f	0.022600679
100	0xbba7cff1	-0.005121224
101	0xbca79fa9	-0.020461874
102	0x39bdfafd	0.0003623589
103	0xbc935c77	-0.017988427
104	0x3cf9c9c1	0.030491712
105	0x3cf506e3	0.02991051
106	0xbcd62457	-0.026140375
107	0x3cbb3520	0.02285248
108	0xbbf24737	-0.0073937434
109	0x3c220632	0.009889172
110	0x3d018394	0.031619623
111	0xbcb4c004	-0.022064216
112	0x3c681a14	0.014166374
113	0xbd140ab5	-0.036143024
114	0xbaeb0723	-0.0017931204
115	0x3ce323fd	0.027727121
116	0x3cee1688	0.029063478
117	0xba04360d	-0.00050434546
118	0x3cc4a5c0	0.024004817
119	0x3c83defc	0.016097538
120	0xbba8d259	-0.0051520285
121	0xbcc743da	-0.024324346
122	0x3d02dbec	0.031948015
123	0x3c8702dd	0.016480858
124	0x3d173df8	0.036924332
125	0xbbe8ab28	-0.0071004815
126	0xbc7d9355	-0.015477021
127	0x3c88c700	0.016696453
128	0xbca5c4b8	-0.020235404
129	0x3cdbf0ba	0.026848186
130	0x3cdba0de	0.026810106
131	0xbc3d70e1	-0.011562557
132	0x3c754eb2	0.014972376
133	0xbbe439a7	-0.0069648805
134	0x3cf8e2a1	0.030381503
135	0x3c2eaba6	0.010661041
136	0x3cb6b03d	0.022300834
137	0x3ce695e7	0.02814765
138	0x3bc97355	0.006147782
139	0x3cc19cb8	0.0236343
140	0xbc0a008a	-0.00842298
141	0xbc37c5ac	-0.011216562
142	0xbc3a5302	-0.01137233
143	0xbce357ee	-0.02775189
144	0x3c95f9e3	0.018307632
145	0xbbc6d087	-0.006067339
146	0x3c7aa4ba	0.015298063
147	0xba54cf54	-0.00081180525
148	0x3cb98b3b	0.022649398
149	0x3c96b818	0.01839833
150	0x3cf00820	0.02930075
151	0x3c6b8bce	0.014376594
152	0xbb233f3f	-0.0024909524
153	0x3d259e3d	0.04043411
154	0x3ccf5f14	0.025313891
155	0xbc5bf64a	-0.013425419
156	0xbcf63ef4	-0.030059315
157	0xbd005bd1	-0.031337563
158	0xbcf5a1b6	-0.029984336
159	0xbc8b072c	-0.016971193
160	0x3cfd82f7	0.030946238
161	0xbc3b5e31	-0.011436031
162	0xbccd17ec	-0.02503582
163	0xbcaf8353	-0.021424925
164	0x3ccad09d	0.024757678
165	0x3c93d837	0.018047435
166	0x3cadfd9b	0.021239093
167	0x3cdee8dd	0.027210647
168	0x3d00b707	0.03142455
169	0xbc58d7c0	-0.013235033
170	0x3c96124b	0.01831927
171	0x3b80c0af	0.0039292197
172	0xbad3d2c4	-0.0016160836
173	0x3c3e6ee5	0.011623119
174	0x3c9d2903	0.019184595
175	0x3c7c36b4	0.015393902
176	0x3c96625f	0.018357454
177	0x3b915d54	0.0044361744
178	0xbcca43c9	-0.024690526
179	0xbc9bff8c	-0.019042753
180	0xbc8cdedd	-0.017196113
181	0xbc52217b	-0.012825365
182	0xbbaad65c	-0.005213542
183	0xbc93a3af	-0.018022386
184	0xbccdab3b	-0.025106063
185	0xba9b9fe7	-0.0011873216
186	0xbc541fec	-0.012947064
187	0x3c1a73d5	0.009427031
188	0xbc07e08e	-0.008293284
189	0x3b5f5eda	0.0034083636
190	0x3cac06ed	0.020999396
191	0x3ba78b4d	0.0051130415
192	0x3c205576	0.0097860005
193	0xbcf50db4	-0.02991376
194	0x3c124ece	0.008929921
195	0xbc201cf0	-0.009772524
196	0x3caffb8b	0.02148225
197	0xbcdb89b8	-0.026799068
198	0xbcef7d68	-0.029234603
199	0x3c495045	0.012287204
200	0xb9bf2d7b	-0.00036464244
201	0xbcedd703	-0.02903319
202	0x3cb15206	0.021645557
203	0xbbdc8766	-0.006730008
204	0x3ccdf824	0.025142737
205	0xbc2856f1	-0.010274635
206	0xbca940ae	-0.020660724
207	0xbd0b7fbc	-0.034057364
208	0x3b05f45b	0.0020439837
209	0xbca7f632	-0.020503137
210	0xbc9f1210	-0.019417793
211	0x3c671bd6	0.014105758
212	0xbc5c734e	-0.013455225
213	0x3cead68f	0.028666763
214	0x3d0ac027	0.033874657
215	0x3c166a46	0.009180611
216	0x3bc92968	0.006138969
217	0x3c85fcfb	0.016355982
218	0xbb8a3d12	-0.004218706
219	0x3caa4706	0.02078582
220	0xbcdd9613	-0.0270491
221	0xbc6e5dbc	-0.014548715
222	0x3a92a475	0.0011187928
223	0x3b4e003c	0.0031433245
224	0xb90f99c6	-0.00013694828
225	0xbbaa256b	-0.005192449
226	0x3d03f5a5	0.032216687
227	0x39328f9f	0.00017028906
228	0x3ce44996	0.02786712
229	0x3ca398a8	0.019970253
230	0xb7a4d8c6	-1.9651266e-05
231	0x3cfc66cc	0.030810736
232	0xba1d5582	-0.00060018164
233	0xbcaf9e64	-0.021437831
234	0x3c3ed24c	0.011646818
235	0xbcfbb0ae	-0.030723896
236	0x3c7ebb7e	0.015547631
237	0xbc29f478	-0.010373227
238	0x3c8614ac	0.016367279
239	0x3c6f44b4	0.014603782
240	0x3c60acb6	0.0137130525
241	0x3ccc4711	0.02493623
242	0x3ce28c45	0.027654776
243	0xbca785e0	-0.020449579
244	0xbc8fd347	-0.0175568
245	0xbccccb7c	-0.024999373
246	0x3c4f0c5f	0.012637227
247	0xbafe6e61	-0.0019411558
248	0x3cb55afe	0.022138115
249	0xbd08e9b3	-0.033425998
250	0x3cf6bcae	0.030119266
251	0x3b8111ea	0.003938903
252	0x3a06ad61	0.000513753
253	0xbc82917f	-0.015938519
254	0xbc8b8a1b	-0.017033627
255	0xbc8ab614	-0.016932525

bias f4 [64]
0	0xbccfd25a	-0.025368858
1	0x3c74ad68	0.014933921
2	0xbc813eaa	-0.01577695
3	0x3ba80570	0.0051276013
4	0x3b2d68e1	0.0026460218
5	0x3ce23031	0.02761087
6	0xbcbd9af7	-0.023145182
7	0xbc260ed0	-0.0101353675
8	0xbce66666	-0.028125
9	0xbce4ee02	-0.027945522
10	0xbc9563ea	-0.01823612
11	0xbc330f3b	-0.010928924
12	0xbca46451	-0.020067366
13	0x3d086bc2	0.03330589
14	0xbbe7e73d	-0.0070771263
15	0x3c13faaf	0.009031936
16	0xbbfb4083	-0.0076676025
17	0x3cca52cc	0.024697684
18	0xbb0acbdf	-0.0021178646
19	0x3ca68a98	0.020329759
20	0xbc0d0be0	-0.008608788
21	0x3c24d7d0	0.010061219
22	0x3c6e46c5	0.01454324
23	0xbcfd510e	-0.030922439
24	0x3d30ffb5	0.04321261
25	0xbacb6126	-0.0015516623
26	0xbc34e436	-0.011040738
27	0xbc93feec	-0.018065892
28	0x3cbe82a9	0.023255663
29	0x3c6e8c3b	0.014559801
30	0xbcaca8e5	-0.021076629
31	0x3ae264cc	0.0017272471
32	0xbc07616e	-0.008262975
33	0x3b38bc34	0.002818835
34	0xbca83005	-0.02053071
35	0xbd33f726	-0.04393687
36	0x390f8859	0.00013688336
37	0x3cdb5af1	0.026776763
38	0xbcc3119d	-0.02381211
39	0xbd1f629d	-0.038912404
40	0xbcfcb85c	-0.030849628
41	0x3c8f1b76	0.01746915
42	0xbcc0432f	-0.023469536
43	0xbd249a37	-0.040186133
44	0x3ccae330	0.024766535
45	0x3b061d0b	0.0020464088
46	0x3c28a6f7	0.010293714
47	0xbc6ab0a2	-0.014324339
48	0xbc149e68	-0.00907097
49	0xbc6d4d7e	-0.014483808
50	0x3c6037ff	0.0136852255
51	0x3cbd75e1	0.023127498
52	0x3b9b0a56	0.0047314567
53	0xbb252a65	-0.002520227
54	0x3bc92a26	0.0061390577
55	0xb9622f59	-0.00021570678
56	0xbc71d9b6	-0.014761379
57	0xbbf622b7	-0.0075114626
58	0xbd0a7a1f	-0.03380787
59	0xbc9bed63	-0.019034093
60	0x3cea52fd	0.028604025
61	0xbcf3bef8	-0.029754147
62	0x3cd3346e	0.025781836
63	0x3cffa94f	0.031208662

weight f4 [10, 64]
0	0x3c942a57	0.018086595
1	0x3dc83d2c	0.097772926
2	0xbd31e4db	-0.043431144
3	0xbd19a6ed	-0.03751271
4	0xbda41139	-0.080110975
5	0xbdb88567	-0.090098195
6	0x3d3b41ce	0.045717053
7	0x3e0050d4	0.12530833
8	0x3dbaa8a7	0.09114199
9	0x3cd8464a	0.026400704
10	0xbe0ea869	-0.13931431
11	0x3dc7311f	0.09726166
12	0xbd30da7e	-0.04317712
13	0x3bf7f3a3	0.0075668856
14	0xbe076a86	-0.13224229
15	0x3ddc04c9	0.107431
16	0x3dd8c433	0.10584297
17	0xbe0817a3	-0.13290267
18	0x3d9b3a6c	0.075795025
19	0xbd966b9b	-0.07344743
20	0xbc4e2af0	-0.012583479
21	0xbde3dec8	-0.111264765
22	0x3cdf6059	0.027267622
23	0x3ddae437	0.1068806
24	0xbe08da94	-0.13364631
25	0xbd296e9d	-0.041365255
26	0xbdb58db4	-0.08864918
27	0xbdc2a007	-0.09503179
28	0xbdb6bc62	-0.0892265
29	0xbd05a989	-0.032632384
30	0xbcb1e914	-0.021717586
31	0xbb60731f	-0.0034248305
32	0x3e13bde3	0.14427905
33	0xbdfdcb22	-0.1239226
34	0xbd716208	-0.05893138
35	0xbb459098	-0.0030146
36	0xbd8d6966	-0.06904869
37	0xbd844966	-0.06459312
38	0x3dee4dd3	0.116359375
39	0xbcf2cafe	-0.02963781
40	0x3dd7af7e	0.10531519
41	0xbd29cae2	-0.04145325
42	0x3da00007	0.07812505
43	0x3dac82c7	0.08423381
44	0x3d3788f6	0.04480835
45	0xbdd00136	-0.10156481
46	0x3d879543	0.06620266
47	0xbd295b12	-0.041346617
48	0x3df0c75c	0.11756775
49	0x3aaa95ee	0.0013014653
50	0xbe0683ca	-0.13136211
51	0xbd312a50	-0.043253243
52	0x3d937d14	0.07201591
53	0xbce88e1d	-0.028388077
54	0x3dafda46	0.08586554
55	0x3d068639	0.03284285
56	0xbd1a607b	-0.037689667
57	0x3e0ce4b5	0.1375912
58	0x3da0252c	0.0781959
59	0xbe0a16af	-0.13485216
60	0xbdabf921	-0.08397127
61	0xbd64d656	-0.05586847
62	0xbd8dd4b1	-0.06925333
63	0x3da0597b	0.07829567
64	0x3d05156c	0.032491133
65	0xbb9cd233	-0.0047858
66	0x3d5b6bb3	0.053569507
67	0xbdc9d5ca	-0.0985523
68	0x3caa12f4	0.02076099
69	0xbb9c8b0b	-0.0047773174
70	0xbd0a9c16	-0.03384026
71	0xbe13de2b	-0.14440219
72	0xbde8d3bf	-0.11368512
73	0xbc984681	-0.018588306
74	0xbdf44e15	-0.119289555
75	0xbd9a05e9	-0.075206585
76	0xbd507356	-0.050891243
77	0xbdfcd98e	-0.12346183
78	0x3de9fae6	0.11424808
79	0xbc578ef0	-0.013156638
80	0xbd8bea67	-0.06831818
81	0x3e198ee0	0.14995909
82	0x3d079e70	0.033110082
83	0xbda278b1	-0.07933176
84	0xbd5ac1f5	-0.053407628
85	0xbd544be6	-0.051830195
86	0xbb2dddb6	-0.0026529855
87	0x3dc8b798	0.09800643
88	0x3e3c0469	0.18361057
89	0x3de4f478	0.11179441
90	0x3db22e7d	0.08700273
91	0x3c7fec87	0.015620357
92	0xbe2b8742	-0.16750816
93	0xbda81f1c	-0.08209059
94	0xbcdbe747	-0.02684368
95	0x3daf6314	0.085638195
96	0x3e0c6470	0.13710189
97	0x3bc7db24	0.0060991216
98	0xbda83d36	-0.082148
99	0xbdee8390	-0.11646187
100	0xbc2a0958	-0.010378204
101	0x3d843690	0.064557195
102	0xbd94510b	-0.0724202
103	0xbd88d5f6	-0.06681435
104	0x3d983bd7	0.074332885
105	0x3d0445c0	0.03229308
106	0x3c70b64e	0.014691902
107	0x3d806e99	0.06271095
108	0xbdd40a7f	-0.103535645
109	0xbe020236	-0.12696156
110	0x38d9c564	0.00010384133
111	0x3e14db37	0.14536749
112	0xbc01aeb4	-0.007915188
113	0x3db89ba3	0.0901406
114	0xbda7062f	-0.08155476
115	0xbe09addb	-0.13445227
116	0xbe2acadc	-0.16678947
117	0x3dde2c92	0.10848345
118	0xbdb716d6	-0.089399025
119	0xbd2f891d	-0.04285537
120	0x3e18cd95	0.14922173
121	0x3da3ee4d	0.08004437
122	0x3cf95e9e	0.030440625
123	0x3dec4e91	0.11538423
124	0xbe0dbb3e	-0.13840958
125	0xbdd012c2	-0.10159828
126	0xbe060e4b	-0.1309139
127	0xbdccb264	-0.09994963
128	0xbe1b0cbf	-0.15141581
129	0x3c3fe715	0.011712809
130	0xbdfcb502	-0.12339212
131	0x3df06329	0.11737663
132	0xbd046f85	-0.032332916
133	0xbd89b807	-0.067245536
134	0x3d6bcaa2	0.057566293
135	0xbd212c45	-0.03934886
136	0xbc12083b	-0.008913095
137	0xbdbaabf0	-0.09114826
138	0x3d78dc99	0.060757253
139	0xbe0ec979	-0.13944043
140	0xbc929a3f	-0.017895816
141	0xbc62b4c9	-0.013837048
142	0xbe130b52	-0.14359787
143	0x3de6fafe	0.11278342
144	0xbd887224	-0.066623956
145	0xbdbf4532	-0.0933937
146	0xbd7d126e	-0.061785154
147	0x3d81d92b	0.0634025
148	0xbbdd7f01	-0.006759525
149	0x3d08e4b1	0.033421222
150	0xbda9e92a	-0.08296426
151	0xbe0378ff	-0.12839125
152	0x3d1667a4	0.036719933
153	0x3d1eb5fa	0.038747765
154	0xbd43c86e	-0.047798567
155	0x3d66561a	0.056234457
156	0xbde29b49	-0.110647745
157	0x3dc4862c	0.09595904
158	0xbd154131	-0.036439124
159	0x3dbaa502	0.09113504
160	0x3e06a268	0.1314789
161	0x3d8a0b41	0.06740428
162	0xbdf7fc06	-0.121086165
163	0xbc5a0054	-0.013305742
164	0x3de5558c	0.111979574
165	0x3cf6c033	0.030120945
166	0x3daf5ddc	0.08562824
167	0xbe04f4b4	-0.12983972
168	0x3d632662	0.055456527
169	0x3caf6b97	0.021413608
170	0x3d42d074	0.047562078
171	0x3cb1ba7c	0.021695368
172	0x3da58ced	0.0808352
173	0x3de276b5	0.11057798
174	0x3e2cb8a8	0.16867316
175	0x3cf46bde	0.029836591
176	0x3cd223c8	0.025651827
177	0x3e08f596	0.13374934
178	0x3dd2f2f5	0.103002466
179	0x3d79268d	0.06082778
180	0xbd680766	-0.05664768
181	0x3d98f45e	0.07468484
182	0x3dda7bd2	0.10668148
183	0x3ddf54b7	0.1090483
184	0x3d59b2ef	0.05314916
185	0xbd5ed6ff	-0.054404255
186	0xbc450869	-0.012025931
187	0xbdbdd043	-0.092682384
188	0x3e1ecac4	0.15507036
189	0x3d1c9cdf	0.03823554
190	0x3d3836df	0.044974204
191	0xbd0b63f9	-0.03403089
192	0xbd802c4c	-0.06258449
193	0x3d8b6168	0.06805688
194	0xbe05a311	-0.13050486
195	0xbdd315ff	-0.1030693
196	0xbd248187	-0.04016259
197	0x3d979425	0.07401303
198	0x3c941bbb	0.01807963
199	0xbd1937f6	-0.037406884
200	0xbda0d4ae	-0.078530654
201	0x3d9e2a41	0.07722903
202	0x3db35c8d	0.08757887
203	0xbcd64526	-0.02615602
204	0x3dd8ebe1	0.10591865
205	0xbdcfc38d	-0.1014472
206	0x3de934b4	0.113870054
207	0xbd7286a4	-0.059210435
208	0x3dcd0a48	0.100117266
209	0x3dda9f67	0.10674935
210	0xbd18331e	-0.037158124
211	0x3bc7ac70	0.006093554
212	0x3b73f39c	0.003722406
213	0x3d3916d0	0.04518777
214	0x3de49417	0.111610584
215	0x3c824195	0.015900413
216	0xbced304a	-0.02895369
217	0xbc5b16e6	-0.013372159
218	0xbd389e60	-0.045072913
219	0xbdf677a9	-0.12034542
220	0x3d222292	0.03958375
221	0x3d41976e	0.047263555
222	0x3dc421ed	0.09576783
223	0xbb8934f6	-0.0041872216
224	0xbd6166d8	-0.05502972
225	0x3d417926	0.047234677
226	0x3d9d4944	0.0767999
227	0xbd3e20ba	-0.04641793
228	0x3dbb4f99	0.091460414
229	0x3d89ab4c	0.067221254
230	0x3d30bd35	0.043149192
231	0x3cfc2688	0.030780092
232	0x3ddf5995	0.10905758
233	0x3dd299f1	0.10283268
234	0xbdf653d9	-0.120277114
235	0xbc0f03de	-0.008728949
236	0x3d2101f5	0.039308507
237	0x3cf46d45	0.02983726
238	0x3dc352fd	0.09537313
239	0xbdfeabed	-0.12435136
240	0xbda1bdf4	-0.07897559
241	0xbcd1b90d	-0.025600934
242	0xbda3a07f	-0.079895966
243	0x3cabe098	0.020981118
244	0x3d40a74c	0.047034547
245	0x3dce0772	0.10060014
246	0x3d7d57de	0.061851375
247	0xbd48ea78	-0.04905173
248	0xbd993824	-0.07481411
249	0xbe000df4	-0.12505323
250	0x3d5cec53	0.053936314
251	0xbbc89052	-0.00612072
252	0x3d0794d0	0.033100903
253	0xbdc4d683	-0.09611227
254	0x3cacc41d	0.021089608
255	0xbd3bddea	-0.04586593

bias f4 [10]
0	0x3bdb8ed9	0.0067003784
1	0x3e165063	0.14679103
2	0x3af99f70	0.0019044708
3	0x3d4b23cf	0.049594697
4	0xbc488275	-0.012238135
5	0xbcc4a57a	-0.024004687
6	0x3c928034	0.017883398
7	0x3c5867bc	0.013208326
8	0xbd2c4d7c	-0.042066082
9	0x3ccd5770	0.025066108
