try_train/cifar10_models/cifar10_net_16.pth (torch, 589402 bytes, 10 tensors)

weight f4 [32, 3, 5, 5]
0	0xbd523a46	-0.051325105
1	0x3dec317a	0.115328744
2	0x3e054417	0.13014255
3	0xbd07b99c	-0.033135995
4	0x3e21be36	0.15795216
5	0xbdb71b59	-0.08940763
6	0xbd56ccaa	-0.052441277
7	0xbd0412ce	-0.032244496
8	0x3e1b3c1c	0.15159649
9	0x3db23326	0.08701162
10	0xbd840426	-0.06446104
11	0x3cd906d7	0.02649252
12	0xbe18de08	-0.14928448
13	0xbd03a675	-0.032141168
14	0xbde46ace	-0.11153184
15	0x3d06c3e0	0.032901645
16	0x39167ac1	0.00014350844
17	0xbe5bee8b	-0.21477716
18	0xbe2c78a6	-0.16842899
19	0xbdee4062	-0.11633374
20	0x3e298a9a	0.16556779
21	0xbd1a3181	-0.037644867
22	0xbe599171	-0.21246888
23	0xbd8caaa1	-0.068684824
24	0xbd29b5a5	-0.041432995
25	0xbddbe5d1	-0.107371934
26	0xbd3fb58c	-0.046803996
27	0xbd76e93a	-0.060281016
28	0xbd872303	-0.06598475
29	0xbd9807b5	-0.07423345
30	0x3da722ef	0.0816096
31	0xbdc50420	-0.096199274
32	0xbe091ab4	-0.13389093
33	0x3d3e530d	0.046465922
34	0x3d0a8301	0.03381634
35	0xbb4b1644	-0.0030988613
36	0x3d489071	0.048965875
37	0xbe10fe00	-0.14159393
38	0xbc7573c5	-0.014981215
39	0xbd5c9aaa	-0.053858437
40	0x3e8caa6d	0.27473775
41	0x3e0ac562	0.13551858
42	0xbdc7cd1b	-0.09755918
43	0xbd1d4306	-0.038393997
44	0xbdcecae3	-0.10097291
45	0x3e27bc48	0.16380417
46	0x3da2752c	0.07932505
47	0xbe10d96e	-0.14145443
48	0xbe09ec2d	-0.13469
49	0x3d6b588a	0.057457484
50	0xbb63093f	-0.0034642962
51	0x3d665d74	0.056241468
52	0x3ded8305	0.115972556
53	0xbb8c6bc8	-0.0042853095
54	0xbdbeeec9	-0.093228884
55	0x3ca092d5	0.019601265
56	0x3c5117dc	0.012762036
57	0xbc734f05	-0.014850383
58	0xbb2e38d7	-0.0026584172
59	0xbc037301	-0.008023025
60	0x3e19f49d	0.15034719
61	0x3ce35a5b	0.027753046
62	0xbded51a3	-0.115878366
63	0xbdebb39a	-0.11508866
64	0xbd51ac79	-0.051189873
65	0x3e7a287d	0.24429508
66	0x3e3b3285	0.1828099
67	0xbd6eca23	-0.05829824
68	0xbc8b5bd4	-0.01701156
69	0x3cdcbac8	0.026944533
70	0x3e8941a9	0.26807907
71	0x3e170df3	0.14751415
72	0xbded24cb	-0.11579283
73	0xbdc839c6	-0.097766444
74	0xbd9e8add	-0.0774133
75	0xbe11ba33	-0.14231186
76	0xbd5aaef6	-0.053389512
77	0xbe395885	-0.18100174
78	0xbc88f1db	-0.016716888
79	0xbd6c39fb	-0.057672482
80	0x3c0b9d16	0.008521339
81	0xbd2bb960	-0.041924834
82	0x3ba70751	0.0050973077
83	0xbd980efc	-0.07424733
84	0x3d2a557c	0.04158543
85	0x3d297734	0.041373447
86	0xbd220dd0	-0.039563954
87	0x3c528e72	0.012851344
88	0xbd389716	-0.04506596
89	0x3d96edf2	0.07369603
90	0xbdf3f95e	-0.119127974
91	0xbdc5da90	-0.09660828
92	0xbdfbee00	-0.12301254
93	0xbe1b3e87	-0.15160571
94	0xbd2beaa5	-0.04197182
95	0xbd808c36	-0.06276743
96	0xbe2949e5	-0.16532095
97	0xbe0aea13	-0.13565855
98	0xbe2bccea	-0.16777387
99	0xbde84cef	-0.11342799
100	0xbc3c3659	-0.011487567
101	0x3c37f8bd	0.011228737
102	0xbdbf117f	-0.09329509
103	0x3c58a9fc	0.013224121
104	0xbe24d6a4	-0.16097504
105	0xbd078b4a	-0.03309182
106	0x3c86aa19	0.01643853
107	0x3df7f35a	0.121069625
108	0x3e2edc42	0.17076209
109	0x3d583b1d	0.05279075
110	0xbc08906a	-0.008335212
111	0x3d2c34af	0.04204243
112	0x3d2f2386	0.042758487
113	0x3e3015ac	0.17195767
114	0x3d4cf264	0.05003585
115	0x3c8cc11d	0.017181927
116	0xbd7181d9	-0.058961723
117	0xbdcbba48	-0.0994764
118	0xbd85a7ab	-0.06526121
119	0xbd609a60	-0.054834723
120	0xbda58651	-0.080822594
121	0xbe28ee2b	-0.16497104
122	0xbe3736c8	-0.17891991
123	0xbe50c0f3	-0.20386104
124	0xbdffcb50	-0.12489951
125	0xbd04e6c2	-0.03244663
126	0x3dd5a8ef	0.10432612
127	0xbc8b156e	-0.016977992
128	0xbda5c79e	-0.080947146
129	0xbd24d56d	-0.0402426
130	0x3e146112	0.14490154
131	0x3e312985	0.17300995
132	0x3e81daa2	0.25362116
133	0x3e14859b	0.14504091
134	0x3d2c0ff4	0.0420074
135	0x3e6440dd	0.22290368
136	0x3e88df6e	0.26732963
137	0x3eaadff9	0.33374003
138	0x3e564e57	0.20928322
139	0x3e3d9607	0.18514262
140	0x3e3db7b1	0.18527104
141	0x3e56f16b	0.20990531
142	0x3e4bf4c3	0.19917588
143	0x3e078225	0.1323324
144	0x3e45cf18	0.19317281
145	0x3ba49ad3	0.0050233393
146	0xbd1bfce1	-0.03808296
147	0x3d285fd9	0.041107032
148	0x3ded56ee	0.11588846
149	0x3d3623ef	0.044467863
150	0x3d1a4aae	0.037668876
151	0xbdc8025a	-0.097660735
152	0x3cb7d608	0.022440925
153	0xbd944f45	-0.07241682
154	0xbd7bcc55	-0.061474163
155	0x3e2a73e0	0.16645765
156	0xbe535729	-0.20638718
157	0x3d8e5198	0.069491565
158	0x3ce2473e	0.027621862
159	0xbdb8d4ad	-0.0902494
160	0x3bac140f	0.0052514146
161	0xbe1774e0	-0.14790678
162	0xbdb884a0	-0.09009671
163	0xbcb88902	-0.022526268
164	0x3d00bd69	0.031430636
165	0xbe1dd775	-0.15414222
166	0x3caa7c79	0.020811306
167	0x3e00b530	0.12569118
168	0x3c7cc0d5	0.015426834
169	0x3b298528	0.002586672
170	0xbdf763a2	-0.1207955
171	0xbd95fc56	-0.0732352
172	0xbce722b3	-0.028214788
173	0xbdb2072f	-0.086927764
174	0xbe1b13bf	-0.15144251
175	0x3e1e2fbd	0.15447898
176	0xbd782d8b	-0.06059031
177	0x3d8d0475	0.06885616
178	0x3d2f9eff	0.04287624
179	0xbbfbf1d2	-0.0076887393
180	0x3e1da705	0.15395744
181	0xbd5e2674	-0.05423589
182	0x3d374026	0.04473891
183	0x3dc59f6c	0.09649548
184	0x3d8bd412	0.068275586
185	0x3dc50b48	0.09621292
186	0xbddb2361	-0.10700107
187	0x3e320a76	0.17386803
188	0x3d798bf3	0.06092448
189	0xbd365f92	-0.044524737
190	0xbd99db2f	-0.07512509
191	0xbc42ffc0	-0.011901796
192	0x3e0710f0	0.13190055
193	0x3e3cecb4	0.1844967
194	0x3e1323c4	0.14369112
195	0x3c10635e	0.0088127535
196	0x3d884de2	0.0665548
197	0xbd8be8dd	-0.068315245
198	0x3dea0ffb	0.11428829
199	0x3c7e22ef	0.0155112585
200	0x3d3181ac	0.043336555
201	0xbe1761d3	-0.1478341
202	0x3e06e0a4	0.13171631
203	0xbdbc5bc1	-0.09197188
204	0xbbc7bfb9	-0.006095853
205	0x3e1c64fe	0.152729
206	0xbe15b29e	-0.14618918
207	0x3d0c6fd8	0.03428635
208	0xbd6ae3af	-0.057346042
209	0x3da8fc73	0.08251276
210	0x3d310d95	0.043225843
211	0xbdf9208a	-0.121644095
212	0xbc97fca3	-0.018553084
213	0xbd815348	-0.06314713
214	0x3d672d0e	0.056439452
215	0x3c46d38c	0.012135398
216	0xbdc2ebbe	-0.095176205
217	0x3e3fabdf	0.18717907
218	0x3e0f63a3	0.14002852
219	0xbdcda44a	-0.10041101
220	0xbda697d8	-0.08134431
221	0x3dcaf63d	0.099102475
222	0xbdd5d3c8	-0.10440785
223	0xbdfd37e5	-0.12364177
224	0xbe164e59	-0.14678325
225	0xbd3e77f3	-0.04650111
226	0x3dd46704	0.10371211
227	0x3e1b31a8	0.15155661
228	0x3c7ba170	0.015358314
229	0x3e0511f3	0.12995128
230	0xbcf828b6	-0.03029285
231	0x3dc03469	0.093849964
232	0xbb65008a	-0.0034942948
233	0x3da4204b	0.08013972
234	0xbd961247	-0.07327705
235	0x3dd321de	0.10309194
236	0x3c8a96c5	0.016917596
237	0x3df14ce5	0.117822446
238	0x3e0d322c	0.1378867
239	0xbcd13999	-0.02554016
240	0xbda56bc2	-0.08077194
241	0xbe164edc	-0.1467852
242	0xbce280ea	-0.027649362
243	0x3b783118	0.003787106
244	0x3ded6604	0.115917236
245	0xbdcd4f88	-0.10024935
246	0xbe115bc9	-0.1419517
247	0xbe77504b	-0.24151723
248	0xbdab9e36	-0.08379786
249	0xbe07e153	-0.13269548
250	0xbc3e0758	-0.011598431
251	0xbc502f59	-0.012706601
252	0xbcac9845	-0.021068702
253	0x3daedc9c	0.08538172
254	0x3da49ba5	0.08037499
255	0xbd12feb7	-0.035887446

bias f4 [32]
0	0x3e25e74b	0.16201513
1	0xbec233b9	-0.37930086
2	0xbb7b1861	-0.0038314092
3	0x3e0b4bad	0.13603087
4	0x3bb3144f	0.0054650675
5	0xbdb12944	-0.08650449
6	0x3d39248c	0.04520087
7	0xbda2b319	-0.079443164
8	0x3db3a22e	0.08771168
9	0xbe352ef9	-0.176937
10	0xbe472aaf	-0.19449876
11	0xbdaba13b	-0.08380362
12	0x3e397c46	0.18113813
13	0x3b0d48fb	0.0021558392
14	0xbe488bd6	-0.19584593
15	0x3e99d6b3	0.30046615
16	0x3d3f1b4d	0.046656895
17	0x3df2c89b	0.11854669
18	0xbe4f405e	-0.20239398
19	0xbd4ff437	-0.05077001
20	0xbd748e6b	-0.059706133
21	0x3d6d77ac	0.057975456
22	0xbe6174f1	-0.22017266
23	0xbe33cb92	-0.17558125
24	0x3d768080	0.06018114
25	0xbebf3c57	-0.37350723
26	0xbc273585	-0.010205631
27	0xbd8eecdf	-0.06978773
28	0x3ec821a2	0.3908816
29	0xbcc64f00	-0.024207592
30	0xbde00ca3	-0.1093991
31	0xbdfe1e8c	-0.1240817

weight f4 [32, 32, 5, 5]
0	0x3be4d3ec	0.006983271
1	0x3d2fae2e	0.04289072
2	0x38ab9165	8.180997e-05
3	0xbd5c80d5	-0.0538338
4	0xbca99a60	-0.020703495
5	0xbd0abaf6	-0.033869706
6	0x3d8f911a	0.07010098
7	0x3d0683d3	0.03284056
8	0x3b748923	0.0037313185
9	0xbcfa1ffd	-0.030532831
10	0xbc4d018c	-0.012512576
11	0x3cd1c794	0.025607862
12	0x3d2f8cac	0.042858765
13	0x3d27505e	0.04084813
14	0xbce7804f	-0.028259424
15	0xbd1d0c75	-0.038341958
16	0xbccf0bb0	-0.025274128
17	0x3cd84e55	0.02640454
18	0x3dadd195	0.0848724
19	0x3d8958e5	0.067064084
20	0xbcfe8199	-0.031067656
21	0xbccff89c	-0.0253871
22	0xbc9ca171	-0.01911995
23	0x3da2f226	0.079563424
24	0x3d9c4aaf	0.07631432
25	0xbbcd16d9	-0.006258827
26	0xbc8acbbf	-0.016942857
27	0x3ce215af	0.02759823
28	0x3a521585	0.0008014071
29	0xbc08065a	-0.008302296
30	0x3c8418d3	0.016125118
31	0xbbe150dd	-0.0068760947
32	0xbc763d26	-0.015029227
33	0x3c2c1fd4	0.010505635
34	0x3caefe89	0.021361606
35	0x3d3b03f0	0.045658052
36	0x3cdd9292	0.02704743
37	0xbd823542	-0.06357814
38	0xbd770745	-0.060309667
39	0x3d323f10	0.043517172
40	0x3d37636b	0.044772547
41	0x3b9924ce	0.004673577
42	0xbce3fb1f	-0.027829705
43	0xbd8d655d	-0.06904099
44	0xbd0037ad	-0.031303097
45	0x3d711641	0.058859114
46	0x3c2c835d	0.010529366
47	0x3d287246	0.041124605
48	0x3d1e394c	0.03862886
49	0xbcbefa8a	-0.023312826
50	0x3c0f325d	0.008740035
51	0xbd265d0c	-0.04061608
52	0xbcfc8f7c	-0.030830137
53	0x3b2a686c	0.0026002182
54	0xbd4206ee	-0.04736989
55	0xbd2aa1d3	-0.041658234
56	0xbd52aaff	-0.051432606
57	0xbb120ab7	-0.0022284219
58	0xbd132530	-0.035924137
59	0xbcc842a4	-0.02444584
60	0x3baeaca0	0.005330637
61	0xbcf5cced	-0.030004943
62	0xbd81dbe4	-0.06340769
63	0x3c9e2db1	0.019308897
64	0x3cd7e050	0.026352078
65	0x3d148008	0.036254913
66	0xbd020d8b	-0.031751197
67	0xbd57aeb2	-0.052656837
68	0xbc521177	-0.012821547
69	0x3cd0428f	0.025422363
70	0xbcb0a618	-0.021563575
71	0x3c97dabf	0.018536923
72	0x3bc5d662	0.0060375193
73	0x3bf74c08	0.0075469054
74	0xbcf80901	-0.03027773
75	0xbb01b9f8	-0.0019794684
76	0x3c58e74f	0.013238742
77	0x3d6f1048	0.058365136
78	0x3c39353d	0.011304197
79	0xbb9cf10e	-0.004789478
80	0xbd4fda6f	-0.050745424
81	0xbd0549d4	-0.03254111
82	0x3ba120a8	0.004917223
83	0x3d928100	0.07153511
84	0x3baae294	0.0052149985
85	0xbc41cee3	-0.011829111
86	0xbcae8e33	-0.02130804
87	0xbc1ce1d4	-0.009575326
88	0xba9c8230	-0.0011940654
89	0x3dacdc1c	0.0844042
90	0x3caa8fd1	0.02082053
91	0xbcec04fc	-0.02881097
92	0xbd89973f	-0.06718301
93	0x3bccd265	0.006250667
94	0x3d661520	0.05617249
95	0xbc9325ec	-0.017962418
96	0x3c8a1af5	0.016858557
97	0xbc7b2f7b	-0.015331144
98	0xbd5f79ac	-0.054559395
99	0x3c836071	0.016037198
100	0x3ce6a779	0.028156029
101	0x3cec0959	0.028813051
102	0xbd0457d3	-0.03231032
103	0xbcb4590d	-0.022015119
104	0xbd176d41	-0.036969427
105	0xbc391c43	-0.011298242
106	0xbc71ebf4	-0.014765728
107	0xbc21ead3	-0.009882647
108	0xbc1b900e	-0.0094947945
109	0x3d16ab55	0.03678449
110	0xbadb94eb	-0.0016752755
111	0x3c3e50f7	0.011615983
112	0xbc924bf7	-0.017858488
113	0xbb9b5804	-0.004740717
114	0x3bff5977	0.0077926475
115	0x3c362fd3	0.011119801
116	0x3c3cd8de	0.011526315
117	0xbce15a93	-0.02750901
118	0x3cc6a609	0.024249094
119	0x3d565df1	0.052335683
120	0xbcec5e3f	-0.028853534
121	0x3941e78c	0.00018492172
122	0x3d119057	0.035538044
123	0x3ccf27d9	0.025287556
124	0x3c1c2c0c	0.009531986
125	0x3ae65d4b	0.0017575411
126	0xbc9e8f9e	-0.019355591
127	0xbc4c9694	-0.0124870725
128	0xbc666b1f	-0.014063626
129	0x3c4583ec	0.012055378
130	0x3d018016	0.031616293
131	0xbd1a054f	-0.03760272
132	0x3bd3cc11	0.0064635356
133	0xbc90daee	-0.017682519
134	0xbcfa3eab	-0.03054746
135	0xbc8484d0	-0.016176611
136	0xb7404e40	-1.1462311e-05
137	0xbd34d36d	-0.044146944
138	0xbc4ebf24	-0.012618814
139	0xbc285d8b	-0.010276209
140	0xbc956ad5	-0.018239418
141	0xbd925af6	-0.07146256
142	0xbd8bc0be	-0.06823872
143	0x3c4b5ae3	0.012411806
144	0x3c8ebfb5	0.017425397
145	0xbd2ade6f	-0.041716035
146	0xbc56c5f7	-0.013108722
147	0xbd19daf7	-0.037562337
148	0xbd227b3c	-0.039668307
149	0x3cac846b	0.021059236
150	0xbcc6580f	-0.024211911
151	0x3ba136df	0.004919871
152	0xbc2415bd	-0.010014948
153	0xbca7d900	-0.020489216
154	0xbd54bf92	-0.05194051
155	0xbd09c523	-0.03363527
156	0xbd37f9c0	-0.044915915
157	0xbd294a00	-0.041330338
158	0x3c1024e5	0.008797859
159	0xbd1ec4e5	-0.038761992
160	0x38abf727	8.199951e-05
161	0xbd3c3f0e	-0.04595857
162	0xbcf46a01	-0.029835703
163	0x3cff5a54	0.031171001
164	0xbd1f1385	-0.038836975
165	0xbd6d1b56	-0.057887398
166	0xbd30b3f0	-0.04314035
167	0xbd4cd814	-0.050010756
168	0x3ba5aa4d	0.005055702
169	0x3b9032b4	0.0044005755
170	0xbcdb05f2	-0.026736233
171	0xbd35510e	-0.044266753
172	0xbd1cccba	-0.03828118
173	0xbcd29625	-0.02570636
174	0xba559923	-0.00081481243
175	0xbbc0dc15	-0.005885611
176	0xbb388e5b	-0.0028161022
177	0xbd6343cf	-0.05548459
178	0x3b0be302	0.0021345024
179	0x3d63f7b6	0.055656157
180	0x3ca56405	0.020189295
181	0x3b5087ed	0.00318193
182	0xbd17a641	-0.037023786
183	0x3c9efca0	0.01940757
184	0x3d691668	0.056906134
185	0x3d0e9b6b	0.034816187
186	0x3d33b012	0.043869086
187	0xbb86538d	-0.0040993155
188	0xbd582773	-0.052771997
189	0xbbbbdcc2	-0.0057331035
190	0x3d269cb0	0.040676773
191	0x3dab1b55	0.083548225
192	0x3d7b4695	0.06134661
193	0xbd00b324	-0.03142084
194	0xbccdedbb	-0.025137773
195	0xbd1d88c8	-0.038460523
196	0x3ac9df30	0.0015401598
197	0x3d5db8fa	0.054131486
198	0xbc0ba58a	-0.008523354
199	0xba96bd1c	-0.0011500451
200	0x3c71cc28	0.014758147
201	0x3cfe0eac	0.031012855
202	0x3ccbce9f	0.024878798
203	0x3c53bbc8	0.0129231885
204	0xb849b061	-4.80864e-05
205	0xbd3fdd8f	-0.046842154
206	0xbc7e3c11	-0.015517251
207	0x3ccf5fdc	0.025314264
208	0x3b47c235	0.0030480747
209	0x3bada7aa	0.005299528
210	0xbd43522a	-0.04768578
211	0xbbec75be	-0.0072161844
212	0x3cc55105	0.024086485
213	0x3d07e20c	0.03317456
214	0xbd2a4c6f	-0.0415768
215	0xbd473832	-0.048637576
216	0x3bd492ec	0.006487241
217	0x3d7369b4	0.05942698
218	0x3da7f9d6	0.08201949
219	0x3cc1ce1d	0.023657853
220	0xbcadbb40	-0.021207452
221	0xbd36067b	-0.044439774
222	0x3c7810f1	0.015140758
223	0x3d9ed6f5	0.077558435
224	0x3d02c79f	0.031928655
225	0x3c86000a	0.01635744
226	0x3a92964a	0.0011183706
227	0x3ab38d6a	0.0013698761
228	0x3ca64526	0.020296644
229	0x3b5160b4	0.0031948509
230	0xbb9d1d0f	-0.004794724
231	0xbc211907	-0.009832627
232	0xbabf592b	-0.0014598718
233	0x3d27a712	0.040930815
234	0x3d42e20d	0.04757886
235	0x3d358029	0.044311676
236	0x3c257e69	0.010100939
237	0xbd2ed089	-0.042679343
238	0x3c1bb7b4	0.009504247
239	0x3d248494	0.0401655
240	0xbc4eecf6	-0.012629738
241	0xbc27877a	-0.010225171
242	0xbd66e2b4	-0.056368545
243	0xbc373b60	-0.01118359
244	0xbbc25ebe	-0.0059317043
245	0x3cec25a3	0.02882654
246	0x3ce3ce1d	0.027808243
247	0xbd188142	-0.037232645
248	0xbd63d85e	-0.055626266
249	0xbc2a938f	-0.010411157
250	0xbb990073	-0.004669243
251	0xbcdb01bb	-0.026734224
252	0x3c333f5f	0.010940402
253	0x3d4aafaa	0.049483933
254	0x3d0d4f68	0.034499556
255	0xbc23088e	-0.00995077

bias f4 [32]
0	0xbdc04ac6	-0.09389262
1	0xbdf5eb65	-0.120077886
2	0xbdbecaca	-0.09316023
3	0xbcdf0ecb	-0.027228734
4	0x3d3d96bb	0.046286326
5	0xbe4292f9	-0.19001378
6	0xbe22ead0	-0.15909886
7	0x3cd95746	0.026530873
8	0xbc00266f	-0.007821663
9	0xbd5dfde0	-0.054197192
10	0x3cf3dfdc	0.02976983
11	0xbd827bbd	-0.063712575
12	0xbca3378a	-0.019923944
13	0xbdcea452	-0.10089935
14	0xbdd728b8	-0.10505813
15	0xbd98b551	-0.07456458
16	0xbd7c7464	-0.061634436
17	0xbdb50e55	-0.08840624
18	0x3b4dd1af	0.0031405499
19	0x3bf18df7	0.00737166
20	0x3d88d325	0.066808976
21	0xbd42b473	-0.04753537
22	0xbd5d73e5	-0.054065604
23	0xbde47a64	-0.11156157
24	0x3d0de8d2	0.034645863
25	0xbd303851	-0.043022458
26	0x3d0a1738	0.03371355
27	0xbd965089	-0.073395796
28	0xbd6614a0	-0.056172013
29	0x3daefc1e	0.08544181
30	0xbdc8a485	-0.097970046
31	0x3ce3c75b	0.027805021

weight f4 [64, 32, 5, 5]
0	0xbb8d0056	-0.0043030186
1	0x3c5a0b3f	0.013308345
2	0xbd2a2879	-0.041542504
3	0xbcefd83b	-0.029277911
4	0x3c9a1ee6	0.018813562
5	0xbca1005b	-0.01965349
6	0x3cd885eb	0.026431045
7	0xbd238e7d	-0.03993081
8	0xbce6f40a	-0.028192539
9	0x3ce3d05e	0.027809318
10	0xbd80f00c	-0.06295785
11	0xbd285997	-0.041101065
12	0xbd4f6e7b	-0.05064247
13	0xbd2cc431	-0.04217929
14	0x3bc364bb	0.0059629357
15	0xbcc89e80	-0.024489641
16	0xbb8701da	-0.004120094
17	0xbcff24f9	-0.03114556
18	0x3c1a108b	0.009403358
19	0x3c284d36	0.010272315
20	0xbd15e8ca	-0.036598958
21	0xbcd84b10	-0.02640298
22	0x3b7e9424	0.0038845623
23	0xbcbaed61	-0.02281827
24	0x3bfab576	0.0076510264
25	0x3ba5a84c	0.005055463
26	0xbd377ead	-0.04479854
27	0x3ac0233c	0.0014658938
28	0x3ca521a3	0.02015764
29	0x3ccb9fba	0.024856437
30	0xbc6ca45e	-0.014443485
31	0xbd0c39df	-0.034234878
32	0xbd21d1b5	-0.039506633
33	0x3d1a16b5	0.03761931
34	0x3c903e14	0.017607726
35	0xbc3cf501	-0.011533023
36	0xbc025552	-0.007954912
37	0x3b7ddc21	0.0038735943
38	0x3c72b2ad	0.014813107
39	0x3d6352c7	0.055498865
40	0xbcfe44d4	-0.03103868
41	0xbd691b56	-0.056910835
42	0xbd070dfe	-0.03297233
43	0xbc5110ac	-0.012760323
44	0x3cb2d7a8	0.021831349
45	0x3cf11cd8	0.0294327
46	0x3bc61ed8	0.0060461573
47	0x3b85a102	0.0040780315
48	0x3cc214a7	0.023691488
49	0xbc23c81d	-0.009996441
50	0xbd10eab6	-0.035380088
51	0xbbc734df	-0.006079301
52	0xbd1d73e7	-0.03844061
53	0x3bc6efdf	0.0060710753
54	0xbbe7a316	-0.007069002
55	0x3d203c92	0.039120264
56	0xbd162ee9	-0.03666583
57	0xbc88e390	-0.016710073
58	0x3c168c74	0.00918876
59	0x3baade9e	0.0052145263
60	0xbd2bed8c	-0.04197459
61	0xbd0ad6f1	-0.03389639
62	0xbb023a0b	-0.0019871022
63	0x3d1dbd9c	0.038510904
64	0x3d2da56a	0.04239408
65	0xbb54df13	-0.0032481595
66	0xbcfc6bd7	-0.03081314
67	0xbc2eddb5	-0.010672976
68	0x3d3ef2ca	0.04661826
69	0x3cd2e003	0.025741583
70	0xbcf67fdf	-0.03009027
71	0x3b710af4	0.003678021
72	0x3d14601d	0.036224473
73	0xbb8dd40e	-0.0043282574
74	0xbcd73d4f	-0.026274351
75	0x3c12deb1	0.008964227
76	0x3c15ea2f	0.009150072
77	0xbd830d39	-0.063990064
78	0x3c8f6ecd	0.017508889
79	0x3cb00a1e	0.0214892
80	0x3d18b6f8	0.037283868
81	0xbc76967d	-0.015050528
82	0xbd736b0c	-0.05942826
83	0xbb189d63	-0.002328717
84	0xbc4a2264	-0.012337301
85	0x3cce875a	0.025211025
86	0xbd6cdc8a	-0.05782751
87	0xbd38804b	-0.045044225
88	0x3ca20b6a	0.019780833
89	0x3d102935	0.035195548
90	0xbd1fafe6	-0.03898611
91	0xbcbc7fd6	-0.023010176
92	0xbd3a5066	-0.04548683
93	0xbce666a1	-0.02812511
94	0xbc296d77	-0.01034104
95	0x3ccca6a4	0.024981804
96	0xbc840197	-0.01611404
97	0x3c680a9f	0.0141626885
98	0x3d12cf9b	0.03584252
99	0xbc8f75aa	-0.017512161
100	0xbcea0fe6	-0.028572034
101	0xbc440b83	-0.011965635
102	0x3cb496c3	0.022044545
103	0x3cf62b5f	0.030049978
104	0x3c351fc3	0.011054936
105	0x3a1be7a3	0.00059472973
106	0xba85a3fd	-0.0010195967
107	0x3b9070ee	0.0044079935
108	0xbb60f995	-0.003432845
109	0xbc6b69da	-0.014368499
110	0xbc7ea695	-0.015542646
111	0x3cd7e8e7	0.026356174
112	0xbb0e6275	-0.0021726165
113	0x3d29c654	0.041448906
114	0x3c498ea5	0.0123020755
115	0xbb5efa05	-0.0034023535
116	0xbcaf486d	-0.02139684
117	0x3bb70aab	0.0055859885
118	0xbc54b31d	-0.012982157
119	0xbcc0cc29	-0.023534851
120	0x3cd38256	0.025818985
121	0x3d3491b9	0.044084284
122	0xbbcac56c	-0.0061880853
123	0x3c6f8b8d	0.014620674
124	0x3c042962	0.008066507
125	0xbd06dcd2	-0.032925434
126	0xbd3bf4cb	-0.04588775
127	0x3c118385	0.008881454
128	0x3c924c41	0.017858626
129	0xbb5c1eab	-0.0033587615
130	0xbccb3c1e	-0.02480894
131	0x3cedc569	0.029024797
132	0x3c865e6c	0.016402446
133	0x3cd3db00	0.025861263
134	0x3cea6556	0.028612774
135	0x3c0d13c7	0.008610672
136	0xbcb1a944	-0.021687157
137	0x3bcb71f1	0.0062086512
138	0x3d7e4486	0.062077068
139	0x3ca76756	0.020435017
140	0xbb60915c	-0.0034266328
141	0x3c63e87e	0.013910411
142	0x3c8dc300	0.017304897
143	0x3afa8643	0.00191135
144	0x3cbf754c	0.023371361
145	0x3caf4b24	0.021398135
146	0xbc91616e	-0.017746653
147	0x3cf97d0d	0.030455137
148	0x3b770729	0.0037693477
149	0x3d011e5b	0.03152309
150	0xbbeba51c	-0.0071913134
151	0x3cf4d692	0.029887471
152	0xbbf77dbd	-0.007552831
153	0x3cace76f	0.02110645
154	0x3b7801ac	0.0037842793
155	0x3c8811e2	0.01661009
156	0x3abff1de	0.0014644226
157	0xbc3b4e78	-0.011432283
158	0x3c6c100b	0.014408122
159	0x3d239306	0.039935134
160	0xbc8b6525	-0.017016003
161	0x3b2aa6a9	0.0026039279
162	0x3b5175c0	0.0031961054
163	0x3d13a92e	0.036050014
164	0x3cd34880	0.025791407
165	0xba058fae	-0.00050949573
166	0xbc69a0f0	-0.014259562
167	0xbd09c49d	-0.03363477
168	0xbb37f67f	-0.0028070507
169	0xbbe1852e	-0.0068823313
170	0x3c9ea5eb	0.019366225
171	0x3c2d5e83	0.010581615
172	0x3ca9c76b	0.020724973
173	0x3d026314	0.03183277
174	0x3d43b664	0.047781363
175	0xbc57e047	-0.0131760305
176	0x3c191d97	0.009345434
177	0x3c4ed356	0.012623629
178	0xbcf3e6de	-0.029773172
179	0xbcf24e46	-0.02957834
180	0xbd61a685	-0.055090446
181	0xbbd7829b	-0.0065768487
182	0x3d0881e7	0.03332701
183	0x3b55a796	0.003260111
184	0xbbad7ce5	-0.0052944296
185	0xbd2a0217	-0.0415059
186	0xbb9b0105	-0.004730346
187	0xbd1b3bbf	-0.037898775
188	0xbcb588eb	-0.022160014
189	0x3c7c59ad	0.01540224
190	0x3c1c0577	0.009522787
191	0x3cbea70a	0.02327301
192	0x3d2c3a57	0.042047825
193	0xbcdd6292	-0.027024541
194	0x3c220960	0.0098899305
195	0xbc2d14d1	-0.010564045
196	0x3c283196	0.010265728
197	0x3b193bad	0.0023381517
198	0x3c67791d	0.014127997
199	0x3cdb8b23	0.026799744
200	0x3c5d56f3	0.0135095
201	0x3d344773	0.04401345
202	0x3c3873df	0.011258095
203	0xbc982514	-0.018572368
204	0xbd179fe5	-0.03701772
205	0xbb561cfa	-0.003267108
206	0x3cf4bb12	0.029874358
207	0xbd09833a	-0.033572413
208	0xbcec55a6	-0.028849434
209	0xbca345d4	-0.019930758
210	0x3a73ed96	0.00093051174
211	0x3d143ff6	0.03619381
212	0xbd32b639	-0.043630812
213	0xbc36bfc9	-0.011154124
214	0xbcf9ea71	-0.030507298
215	0xbc443480	-0.011975408
216	0x3d963184	0.07333663
217	0x3d3b6d26	0.04575839
218	0x3b98a1f2	0.0046579773
219	0x3c923e53	0.017851984
220	0xbc9dbe9a	-0.019255925
221	0x3d0bd711	0.03414065
222	0x3c5affbb	0.013366635
223	0xbc8ef5e9	-0.017451243
224	0x3c14bb97	0.009077928
225	0x3c9be891	0.019031795
226	0x3d079ed9	0.033110473
227	0x3c86ec0e	0.016469982
228	0x3cc25b47	0.023725165
229	0x3ca67668	0.020320132
230	0x3b30d548	0.0026982594
231	0x3cff51e9	0.031166987
232	0x3b400605	0.0029300463
233	0xbcb45503	-0.022013193
234	0x3cf2e6a8	0.029651001
235	0x3d111ff7	0.035430875
236	0xbd2f7a67	-0.04284134
237	0xbd34d3e3	-0.044147383
238	0xbd48203a	-0.04885886
239	0xbd1949fc	-0.037424073
240	0xbcb85820	-0.022502959
241	0x3ca25a58	0.01981847
242	0x3d3a3482	0.04546023
243	0x3d5ddc3e	0.054165117
244	0xbc8c2808	-0.017108932
245	0x3c8beed2	0.017081652
246	0xbc4a542b	-0.012349169
247	0xbbc7a804	-0.006093027
248	0xbd20107b	-0.039078217
249	0xbc355642	-0.011067929
250	0xbd2e189b	-0.042503934
251	0xbd124a1b	-0.035715204
252	0xbd4e34fa	-0.05034349
253	0x3d087d77	0.033322778
254	0xbce8d07d	-0.028419727
255	0xbcb068f9	-0.02153443

bias f4 [64]
0	0xbd5940ef	-0.05304044
1	0xbda964b0	-0.08271158
2	0xbd9cc70c	-0.07655153
3	0xbbe93612	-0.0071170414
4	0xbc6071aa	-0.013698975
5	0xbd8c01d5	-0.06836287
6	0xbcf09266	-0.029366683
7	0x3b1fcc24	0.0024383152
8	0xbcfa869b	-0.030581763
9	0xbce64179	-0.028107392
10	0xbd9d99ba	-0.07695337
11	0xbd5b3ce0	-0.05352485
12	0xbd37329e	-0.044726007
13	0xbd2529ce	-0.04032307
14	0xbd70ae51	-0.05875999
15	0xbbe975f3	-0.0071246563
16	0xbd89da77	-0.06731122
17	0xbd55a957	-0.05216345
18	0xbd5cd6b5	-0.053915698
19	0xbd548947	-0.05188873
20	0xbd3f7df8	-0.046750993
21	0xbc0dfcc0	-0.008666217
22	0xbcaee9d9	-0.021351742
23	0xbdb24de4	-0.08706263
24	0xbd5bfe7e	-0.0537095
25	0xbbde5ee7	-0.0067862156
26	0xbd61b4e9	-0.05510417
27	0xbc602497	-0.013680599
28	0xbd294374	-0.041324094
29	0xbd54d68d	-0.051962424
30	0xbc283eb5	-0.010268857
31	0xbc42e498	-0.011895321
32	0x3c3a9947	0.011389083
33	0xbc9e0c45	-0.01929296
34	0xbd6bf377	-0.057605233
35	0xbca57ae9	-0.02020021
36	0xbc1c1de9	-0.0095286155
37	0xbd8c2ced	-0.068445064
38	0xbd7f2cd5	-0.062298615
39	0xbdbfa99d	-0.09358523
40	0xbd7a61c5	-0.061128397
41	0xbd50edc1	-0.05100799
42	0x3d54d8fa	0.051964737
43	0xbb03a1ba	-0.002008541
44	0xbd01c28f	-0.031679686
45	0xbc2450ce	-0.010029031
46	0xbcbf1178	-0.02332376
47	0xbd88d09e	-0.066804156
48	0xbc89c75f	-0.0168187
49	0xbc262763	-0.010141226
50	0xbda710cb	-0.081575
51	0xbd8cfc99	-0.06884117
52	0xbd2ca179	-0.04214618
53	0xbdb9ae93	-0.090665005
54	0x3c93b5bf	0.018031
55	0x3cd75741	0.026286723
56	0x3d081c4e	0.03323012
57	0xbd9d5539	-0.076822706
58	0x3d0dc7bf	0.03461432
59	0xbda35952	-0.07976021
60	0xbd6b39fc	-0.057428345
61	0xbc2041a1	-0.009781272
62	0xbbe7a8df	-0.0070696915
63	0x3bc703d5	0.006073455

weight f4 [64, 1024]
0	0xbd574430	-0.052555263
1	0x3bffe89a	0.0078097107
2	0x3c8a8381	0.01690841
3	0x3c3429f7	0.010996333
4	0xbbcbbbf7	-0.0062174755
5	0x3ce18be8	0.027532533
6	0x3c99bfa2	0.018768135
7	0xbcb1902f	-0.021675197
8	0xbc8412e6	-0.016122293
9	0xbba02b48	-0.004887972
10	0x3d23cba5	0.039989132
11	0xbc2ce234	-0.010551978
12	0xbce589df	-0.028019844
13	0xbd656fd1	-0.05601484
14	0xbb436094	-0.0029812204
15	0xbd16ba40	-0.036798716
16	0xbc322237	-0.010872415
17	0x3cb914a3	0.022592848
18	0xbcb42cc2	-0.021993998
19	0x3a8f4d9d	0.0010933165
20	0x3ab48f25	0.001377557
21	0xbc26fa39	-0.010191494
22	0xbc8f2b2a	-0.017476637
23	0xbc089867	-0.008337117
24	0xbc7cbd5a	-0.015426004
25	0x3cb76bec	0.022390328
26	0xbcfb505d	-0.030677969
27	0x3d523ee3	0.051329505
28	0x3c6bd323	0.014393601
29	0x3ab4fd49	0.0013808395
30	0x3c153773	0.009107458
31	0xbc9eb433	-0.019373035
32	0x3c2b8d01	0.01047063
33	0xbb37ef23	-0.002806612
34	0xbcf5ef66	-0.03002138
35	0xbc4269ad	-0.011866015
36	0xbcbf4606	-0.02334882
37	0x3c9d46ab	0.019198736
38	0x3c7f01e9	0.01556442
39	0x3cd89935	0.026440242
40	0xbc81081f	-0.015750943
41	0xbd11bdf0	-0.03558153
42	0xbd05efde	-0.03269946
43	0xbc5e6401	-0.0135736475
44	0x3bf770f7	0.0075513083
45	0x3cea3dd7	0.02859394
46	0x3c36ff43	0.011169258
47	0xbc81ceed	-0.01584574
48	0xbc96d7d1	-0.018413456
49	0xbcf9c033	-0.030487156
50	0xbc874ef9	-0.01651715
51	0xbcd61c45	-0.026136527
52	0xbcf055d6	-0.029337805
53	0xbb7e059f	-0.0038760675
54	0x3cc2ee2c	0.02379521
55	0xba9fa6ad	-0.001218041
56	0xbcc85573	-0.024454808
57	0x3cae7d69	0.021300035
58	0x3cd7a744	0.026324876
59	0x3d0baaa0	0.034098268
60	0x3c3d0df3	0.01153897
61	0x3d0d20aa	0.03445498
62	0x3d7fb190	0.062425196
63	0x3d029647	0.031881597
64	0x3c8c2b4a	0.017110486
65	0xbb6b2816	-0.0035882047
66	0x3c886598	0.016650006
67	0x3d0cd787	0.03438523
68	0xbcb6da7a	-0.022320975
69	0xbc369701	-0.011144401
70	0x3c8db68b	0.017298957
71	0x3d51f2fe	0.051257126
72	0x3bc9babc	0.0061562937
73	0x3d51c0d1	0.051209275
74	0x3ba3bf05	0.0049971365
75	0x3c028195	0.007965465
76	0xbc990e43	-0.018683558
77	0x3cb3707e	0.021904226
78	0xbc7da96b	-0.015482287
79	0x3c2594b7	0.010106257
80	0xbc747055	-0.01491936
81	0x3cdd4842	0.027011994
82	0x3c06e925	0.008234297
83	0xbc89f5ba	-0.016840804
84	0xbc8ec933	-0.017429924
85	0x3bfe134b	0.0077537647
86	0x3ca5e533	0.020250892
87	0x3c207280	0.009792924
88	0xbb18ad64	-0.0023296708
89	0x3d01674c	0.031592652
90	0xbc4a8206	-0.012360102
91	0xbbf73d99	-0.007545185
92	0x3d2da4a2	0.042393334
93	0x3cdf616e	0.027268138
94	0x3cf4f5e3	0.029902404
95	0x3cb4fe9a	0.02209406
96	0xbc40c706	-0.011766201
97	0xbcad3457	-0.021143122
98	0xbc341faa	-0.010993877
99	0x3c9555a0	0.018229306
100	0xb8735631	-5.8015987e-05
101	0xbc312703	-0.010812524
102	0xbc9a50a3	-0.018837279
103	0xbccd27e8	-0.025043443
104	0x3d18772a	0.03722302
105	0x3d3b63cd	0.045749474
106	0xbc36d2fa	-0.011158699
107	0x3d4e7f76	0.050414525
108	0xbc8f9316	-0.01752619
109	0x3c7e0ae0	0.0155055225
110	0x3d00e9ff	0.031473156
111	0x3c4176ae	0.011808081
112	0x3c0511e7	0.008121944
113	0xbd4df8df	-0.05028617
114	0xbb23a2e3	-0.0024968914
115	0x3d3b6ecc	0.04575996
116	0x3ce1244f	0.027483134
117	0xbc1c9388	-0.009556659
118	0x3d28f9f4	0.041254
119	0x3d055bb5	0.03255816
120	0xbb7e9e1d	-0.0038851567
121	0xbcb8577f	-0.022502659
122	0x3d3d8e2f	0.046278175
123	0x3d32f1da	0.04368768
124	0x3d588823	0.052864205
125	0xbbb465fb	-0.005505321
126	0xbbe63105	-0.0070248866
127	0x3c862e3a	0.016379464
128	0xbc64cab4	-0.013964344
129	0xbb2f76cc	-0.002677369
130	0x3cc0839c	0.023500256
131	0xbc19395d	-0.009352055
132	0x3cfcc6df	0.030856548
133	0x3b575249	0.0032855442
134	0x3d478d4b	0.04871873
135	0x3d2603d4	0.040530995
136	0x3d2ea9dc	0.04264246
137	0x3d599c64	0.05312766
138	0x3cdd410d	0.027008558
139	0x3d395951	0.045251194
140	0xbcad94eb	-0.021189174
141	0xbb931a73	-0.004489237
142	0xbbda0388	-0.006653253
143	0xbca00f7e	-0.019538637
144	0x3c7e6325	0.015526568
145	0xbc1dc3fa	-0.009629244
146	0x3c834ff9	0.016029345
147	0xbbfd842a	-0.0077367024
148	0x3cc5f01a	0.02416234
149	0x3d0d1bbb	0.034450274
150	0x3d706670	0.058691442
151	0x3d046125	0.032319207
152	0x3c9df90e	0.019283798
153	0x3d8e738e	0.06955634
154	0x3d0745ef	0.03302568
155	0x3aaf27fb	0.0013363356
156	0xbd0344c3	-0.032048
157	0xbc6e126f	-0.014530762
158	0xbcbf9bdf	-0.023389755
159	0xbcabc883	-0.020969635
160	0x3cdce5e9	0.026965098
161	0xbbf55d51	-0.007487931
162	0xbce39336	-0.027780157
163	0xba8a4c9e	-0.0010551398
164	0x3d149847	0.036278035
165	0xbbdb62e7	-0.0066951397
166	0xbb1ac0ab	-0.0023613374
167	0x3d77da4b	0.060510915
168	0x3d09bb34	0.033625796
169	0xbcd862f9	-0.026414381
170	0x3c88208c	0.016617082
171	0x3d1aa1aa	0.03775183
172	0xbca607ec	-0.02026745
173	0xbd05ceb8	-0.032667845
174	0x3b8aaaa5	0.004231768
175	0x3ca11d6f	0.019667355
176	0x3ca928d1	0.020649346
177	0x3bc34971	0.0059596826
178	0xbcfe9ede	-0.031081613
179	0xbc18f0b7	-0.009334735
180	0xbc93268a	-0.017962713
181	0x3bd85076	0.0066013886
182	0xbc90c4b6	-0.017671924
183	0xbc90ac8a	-0.017660398
184	0xbc1c744b	-0.009549211
185	0x3c407e30	0.011748835
186	0xbd14d07c	-0.03633164
187	0x3bf185f6	0.0073707057
188	0x3c0226d0	0.007943824
189	0x3cc60c0c	0.024175666
190	0x3d3eff87	0.04663041
191	0x3ca847cf	0.020542054
192	0x3c13883c	0.009004649
193	0xbd3bdb03	-0.045863163
194	0x3b4fa23a	0.0031682388
195	0xbc5f2c4f	-0.013621404
196	0x3c9d9d6e	0.019240107
197	0xbd1ad48b	-0.037800353
198	0xbcacd26c	-0.02109643
199	0xbb8215a4	-0.003969865
200	0x3bcd61f2	0.0062677795
201	0xbcca4c6b	-0.024694642
202	0x3ce7b0b9	0.02828251
203	0x3c15c20b	0.009140502
204	0x3d51ee4e	0.051252656
205	0xbc847523	-0.016169136
206	0xbbf38bae	-0.0074324226
207	0xbd03cdbc	-0.032178625
208	0x3c1a99e4	0.009436104
209	0xbc8122fe	-0.015763756
210	0xbc80c060	-0.015716732
211	0x3c4d2214	0.012520332
212	0xb963239a	-0.0002166167
213	0x3c87bd1c	0.016569667
214	0x3cf3167f	0.029673813
215	0x3c33090d	0.010927451
216	0x3becb2ea	0.0072234767
217	0x3cc8f146	0.02452911
218	0x3c28361a	0.010266805
219	0x3d595bc7	0.05306604
220	0xbd23be0a	-0.039976157
221	0xbcf6efa0	-0.030143559
222	0xbc0ee8c8	-0.008722492
223	0xbbf1f318	-0.0073837154
224	0x3c7aa61c	0.015298393
225	0x3b6cafe2	0.0036115577
226	0x3d40efa4	0.04710354
227	0xbb03d92a	-0.0020118454
228	0x3cbf5a77	0.023358567
229	0x3c09fe9a	0.008422518
230	0xbb495fa1	-0.0030727165
231	0x3c96d4d8	0.018412039
232	0x3bf3fc7a	0.007445869
233	0xbd2a38c8	-0.041558057
234	0x3c583a19	0.013197445
235	0xbd438d31	-0.047742072
236	0x3bd2ce92	0.0064333165
237	0xbcba17d6	-0.022716444
238	0x3c99c451	0.018770369
239	0x3c22ab65	0.009928559
240	0x3b94b3c8	0.004538033
241	0x3c9ec4c9	0.019380944
242	0x3cc61476	0.024179678
243	0xbc8ccd8a	-0.017187852
244	0xbc827d4b	-0.015928885
245	0xbcc09d2e	-0.02351245
246	0x3ab96b55	0.0014146367
247	0x3c149884	0.009069566
248	0x3c94bd5a	0.018156696
249	0xbd06f51e	-0.032948606
250	0x3cbfac2d	0.02339753
251	0x3b5c9dec	0.0033663465
252	0x3c3d50bb	0.011554892
253	0x3c23bd98	0.009993933
254	0xbae0f1f9	-0.0017161957
255	0xbb6f6df3	-0.003653404

bias f4 [64]
0	0xbca4fb4f	-0.020139365
1	0x3b053e85	0.0020331454
2	0xbcca5ae7	-0.024701549
3	0x3c38e71d	0.01128557
4	0xbc3bb196	-0.011455914
5	0x3d1ef7d3	0.038810562
6	0xbc993298	-0.018700883
7	0xbca29e24	-0.019850798
8	0x3a756d46	0.00093622913
9	0xbc1b49d2	-0.009478049
10	0xbcc934d6	-0.024561327
11	0xbd3ae2e5	-0.04562654
12	0x3c72092d	0.0147726955
13	0x3d41f2f3	0.047350835
14	0x3b668e57	0.0035180056
15	0xbbde4e85	-0.0067842626
16	0x3cbb6e09	0.022879617
17	0x3c772b87	0.015086061
18	0xbcc36b59	-0.023854898
19	0x3d06364b	0.03276662
20	0xbd338697	-0.043829527
21	0x3c88eb57	0.016713781
22	0x3c9ee034	0.019394018
23	0xbce21f7a	-0.0276029
24	0x3cffaf38	0.03121148
25	0xbd037ff1	-0.032104436
26	0xb7bc64b0	-2.2458233e-05
27	0xbcca7315	-0.024713079
28	0x3d8acd03	0.06777384
29	0x3cde17b8	0.02711092
30	0xbce93803	-0.028469091
31	0x3c9c27b2	0.019061897
32	0xbd27be94	-0.040953234
33	0x3d228211	0.039674822
34	0xbbeadf0a	-0.0071677016
35	0xbd3a49fe	-0.04548072
36	0xbca41290	-0.020028383
37	0x3cd3be0f	0.025847463
38	0xbd415df2	-0.047208734
39	0xbd42d0e3	-0.04756249
40	0xbd4dc40c	-0.050235793
41	0xbc8798ef	-0.016552417
42	0xbcef7077	-0.029228432
43	0xbd0ee7e6	-0.034889124
44	0x3ca85638	0.020548925
45	0xbbf945f2	-0.007607215
46	0xbb731b7a	-0.0037095235
47	0xbcff103a	-0.031135667
48	0xbcf4dea2	-0.029891316
49	0xbcef55ee	-0.02921578
50	0x3cf0e930	0.029408067
51	0x3d7d7d1c	0.06188689
52	0x3c864482	0.016390089
53	0xba9c2dfb	-0.0011915559
54	0xbbb9ac45	-0.005666288
55	0xbb9078d5	-0.0044089356
56	0xbaabb4fe	-0.0013100205
57	0xbd29f068	-0.041489035
58	0xbd407b76	-0.04699274
59	0x3c7cd99a	0.01543274
60	0x3cfe0c5c	0.031011753
61	0xbd3c4b12	-0.04597003
62	0x3ca3f562	0.020014469
63	0x3cefb059	0.029258894

weight f4 [10, 64]
0	0x3ce4bf0c	0.02792313
1	0x3e3a1421	0.18171741
2	0xbde8ae37	-0.11361354
3	0xbcd358bf	-0.025799153
4	0xbe28a320	-0.16468477
5	0xbe3eb07e	-0.18622014
6	0x3db61776	0.088911936
7	0x3e3d8d72	0.18510988
8	0x3e42a785	0.19009216
9	0x3d24d11d	0.04023849
10	0xbe481294	-0.19538337
11	0x3e25d050	0.16192746
12	0xbd77c734	-0.06049271
13	0x3d03d33e	0.032183878
14	0xbe71082b	-0.23538272
15	0x3e41d30f	0.18928169
16	0x3e28ff35	0.16503604
17	0xbe654ad5	-0.22391827
18	0x3e32d902	0.17465594
19	0xbe20028d	-0.15625973
20	0x3c35c978	0.011095397
21	0xbe2c1eff	-0.16808699
22	0xbc190396	-0.009339234
23	0x3e18275a	0.14858761
24	0xbdf83888	-0.121201575
25	0xbd19bbf8	-0.037532777
26	0xbe170ccc	-0.14750975
27	0xbdeac92b	-0.11464151
28	0xbe300ee5	-0.17193182
29	0xbc67494d	-0.014116597
30	0xbd569a6c	-0.052393362
31	0x3c9dfa9b	0.019284537
32	0x3e7111d1	0.23541953
33	0xbe3ec147	-0.18628417
34	0xbd9b489f	-0.07582211
35	0x3cc7b2c2	0.02437723
36	0xbe19121f	-0.14948319
37	0xbdaa4d50	-0.083155274
38	0x3e6f7cf4	0.2338751
39	0xbe3d4de5	-0.18486746
40	0x3e56bfcf	0.20971607
41	0xbda7975e	-0.08183168
42	0x3dbac181	0.09118939
43	0x3e050fbe	0.12994286
44	0x3c7c55d0	0.015401319
45	0xbe3e26aa	-0.18569437
46	0x3d8214ba	0.063516095
47	0xbd9eb7d5	-0.07749907
48	0x3e5f2879	0.21792783
49	0x3afe0d19	0.0019382566
50	0xbe406807	-0.18789683
51	0xbdb76535	-0.089548506
52	0x3dbc2043	0.09185841
53	0xbcc6545f	-0.024210153
54	0x3ddfbb2e	0.109243736
55	0x3d1a5416	0.037677847
56	0x3cd87f43	0.02642787
57	0x3e78456c	0.24245232
58	0x3de7f528	0.11326057
59	0xbe6de85e	-0.23233172
60	0xbde02fcc	-0.109466165
61	0xbb9d44a0	-0.0047994405
62	0xbddc4abb	-0.10756441
63	0x3d3b5bc2	0.045741804
64	0x3e0164d3	0.12636118
65	0xbd19468e	-0.0374208
66	0x3dfcb945	0.12340025
67	0xbe482200	-0.1954422
68	0xbc65b7c7	-0.014020867
69	0x3d58edb5	0.05296107
70	0xbd86080a	-0.06544502
71	0xbe599fb9	-0.21252336
72	0xbe5397fd	-0.20663448
73	0xbc85da40	-0.016339421
74	0xbe667f3f	-0.22509478
75	0xbe090412	-0.13380459
76	0xbdadcea3	-0.084866785
77	0xbe1655dd	-0.14681192
78	0x3e6e0b19	0.23246421
79	0xbd906b94	-0.07051769
80	0xbdaaaf0e	-0.0833417
81	0x3e67dd01	0.226429
82	0x3d919c9c	0.07109949
83	0xbe1dca54	-0.15409213
84	0xbe0add13	-0.13560896
85	0xbdfdb9e5	-0.12388972
86	0xbd169ce2	-0.03677071
87	0x3e38eea9	0.18059792
88	0x3eb230d8	0.3480289
89	0x3e66a935	0.22525485
90	0x3e2b74cd	0.16743775
91	0x3d2f4415	0.042789537
92	0xbe81f07e	-0.25378793
93	0xbe244ae0	-0.16044188
94	0xbdb29e12	-0.08721556
95	0x3e22443b	0.1584634
96	0x3e4ecb66	0.20194778
97	0x3d9c4844	0.07630971
98	0xbd9cb0a3	-0.07650878
99	0xbe588e39	-0.21148004
100	0xbdb8d751	-0.09025443
101	0x3decead0	0.115682244
102	0xbe3dc128	-0.18530715
103	0xbde4ceb7	-0.1117224
104	0x3dd9391d	0.106065966
105	0xbd0c0447	-0.034183767
106	0x3cfd263b	0.030902019
107	0x3d12b1ce	0.0358141
108	0xbe513174	-0.20429021
109	0xbe58f835	-0.21188433
110	0xbda4bfaa	-0.080443695
111	0x3e687811	0.22702052
112	0xbcf54e34	-0.029944517
113	0x3e1f0157	0.15527855
114	0xbe23fba9	-0.1601397
115	0xbe46ecde	-0.19426295
116	0xbe98761f	-0.2977762
117	0x3e38dbde	0.18052623
118	0xbe096e62	-0.13421014
119	0xbdb77dbf	-0.08959531
120	0x3e9ced7c	0.30649936
121	0x3e09b448	0.13447678
122	0x3bb95490	0.0056558326
123	0x3e8c4450	0.27395868
124	0xbea89fa4	-0.32934296
125	0xbdf606c6	-0.12013011
126	0xbe6b4f91	-0.22979571
127	0xbe3d4740	-0.18484211
128	0xbe8c64b4	-0.2742058
129	0xba06899c	-0.00051322
130	0xbe896056	-0.2683131
131	0x3e13d856	0.14437994
132	0xbda1cb0e	-0.07900058
133	0xbdc0fc38	-0.09423107
134	0x3d89ca69	0.0672806
135	0xbd372824	-0.044716015
136	0x3c20803c	0.009796198
137	0xbdd427f9	-0.10359187
138	0x3e1aeae6	0.15128669
139	0xbe4a5bed	-0.1976163
140	0x3cb4baa1	0.022061648
141	0x3bfad377	0.007654603
142	0xbe851be2	-0.25997835
143	0x3e440460	0.19142294
144	0xbd7bfaf8	-0.06151864
145	0xbe084b14	-0.1330989
146	0xbe0955b3	-0.13411598
147	0x3d9715cc	0.07377204
148	0x3d3248cd	0.04352646
149	0x3da44380	0.08020687
150	0xbe1655ff	-0.14681242
151	0xbe6459b9	-0.22299851
152	0xbcb070ac	-0.021538101
153	0x3d5db44c	0.054127023
154	0xbe03e7df	-0.1288142
155	0x3db89adc	0.09013912
156	0xbe1bdf2c	-0.15221852
157	0x3e3dc7c8	0.18533242
158	0xbd37e676	-0.04489752
159	0x3e31023c	0.17286009
160	0x3e482fb9	0.19549455
161	0x3d979e86	0.07403283
162	0xbe1dcfc7	-0.15411292
163	0xbca3d8f9	-0.020000922
164	0x3e543b6e	0.20725796
165	0x3dae08f6	0.08497803
166	0x3e117221	0.14203693
167	0xbe87bc15	-0.26510683
168	0x3da8cf2e	0.082426414
169	0x3db42d47	0.087976985
170	0x3d22ec07	0.039775874
171	0x3d0b58e7	0.03402033
172	0x3e0947c6	0.13406286
173	0x3e4bbc7f	0.19896124
174	0x3e9e3923	0.30902967
175	0xbc33e47d	-0.010979769
176	0x3db63025	0.088959016
177	0x3e686d29	0.22697891
178	0x3e6d10b7	0.23150907
179	0x3e0823f4	0.13294965
180	0xbdc12b2f	-0.09432065
181	0x3e1c6982	0.15274623
182	0x3df311fd	0.11868665
183	0x3dfbc575	0.12293521
184	0x3d01a02f	0.031646904
185	0xbe04e9c2	-0.12979797
186	0xbd5b4499	-0.053532217
187	0xbe3682b6	-0.178233
188	0x3e835975	0.25654188
189	0x3d5898c1	0.052880052
190	0x3dabcf48	0.08389145
191	0xbd357f0e	-0.044310622
192	0xbdeff191	-0.11715997
193	0x3e0b63bc	0.13612264
194	0xbe3b7f14	-0.18310195
195	0xbe098da3	-0.13432936
196	0xbd99efa9	-0.07516415
197	0x3e1239c8	0.14279854
198	0xbc1b23d0	-0.009468988
199	0xbcccb02e	-0.024986353
200	0xbe08cce6	-0.13359413
201	0x3e0ad867	0.13559113
202	0x3e0011f6	0.12506852
203	0x3b3dd070	0.002896335
204	0x3dec9a9b	0.11552926
205	0xbe368184	-0.17822844
206	0x3e447a7a	0.19187346
207	0xbdb52552	-0.08845009
208	0x3de641c6	0.11243014
209	0x3e106e38	0.14104545
210	0xbd5322de	-0.051546924
211	0xbbd582db	-0.0065158433
212	0x3c16c929	0.009203234
213	0x3dbe60b2	0.09295787
214	0x3e339b9a	0.17539826
215	0x3c19db83	0.009390715
216	0xbd6937bf	-0.05693793
217	0xbd17d064	-0.03706397
218	0xbdf042b6	-0.11731474
219	0xbe288cae	-0.16459915
220	0x3d873ac8	0.066030085
221	0x3d73ca87	0.059519317
222	0x3e50abbe	0.20378014
223	0xbd827dfa	-0.06371684
224	0xbd9f4dec	-0.07778534
225	0x3cf46e4e	0.029837754
226	0x3dbcc484	0.0921717
227	0xbd9e3afb	-0.077260934
228	0x3e01e7ab	0.1268603
229	0x3c8b207c	0.016983263
230	0x3d9e064a	0.07716043
231	0x3d873087	0.06601053
232	0x3e0bf902	0.13669208
233	0x3e35e825	0.17764337
234	0xbe75826c	-0.23975533
235	0xbcef75df	-0.02923101
236	0x3ce72751	0.02821699
237	0x3d8e01ed	0.06933961
238	0x3e105477	0.14094721
239	0xbe195df9	-0.14977254
240	0xbd4f7286	-0.050646327
241	0xbda46a4f	-0.08028089
242	0xbe19b077	-0.15008722
243	0x3d407a5a	0.046991684
244	0x3dd4c810	0.103897214
245	0x3e2e5fdd	0.17028756
246	0x3dc2c4d3	0.095101975
247	0xbd43fcc1	-0.047848467
248	0xbdabf789	-0.08396823
249	0xbe111969	-0.1416985
250	0x3ddac946	0.10682921
251	0xbd2f5440	-0.042804956
252	0x3d0a93fd	0.03383254
253	0xbe067e57	-0.13134132
254	0x3d8adc8e	0.06780349
255	0xbd655cec	-0.05599682

bias f4 [10]
0	0xbd8f02f3	-0.069829844
1	0x3dfff67b	0.12498184
2	0xbc976732	-0.018481825
3	0x3d8c9a1c	0.068653315
4	0x3d9acf4b	0.07559069
5	0xbdd26d0c	-0.10274705
6	0x3dc4e5fb	0.09614178
7	0xbcb770e2	-0.022392694
8	0x3baa9c41	0.005206615
9	0x3cc25c53	0.023725664
