try_train/cifar10_models/cifar10_net_20.pth (torch, 589402 bytes, 10 tensors)

weight f4 [32, 3, 5, 5]
000000 b0 9f 80 bd 5f 59 d9 3d 94 76 0a 3e 1a 3e c4 bc
       -0.06280458 0.10612749 0.13521796 -0.023955394
000010 b5 f1 1c 3e 64 c3 c9 bd 9f 32 81 bd 4f 2f f4 bc
       0.15326579 -0.09851721 -0.06308483 -0.029807715
000020 a4 ac 2e 3e c9 3e be 3d 18 36 8b bd 71 b6 c3 3c
       0.17058045 0.09289319 -0.06797427 0.023890706
000030 8f 0c 27 be 5c c4 d8 bc 86 f9 d7 bd 35 4c 2d 3d
       -0.16313384 -0.026460819 -0.1054564 0.042309005
000040 23 58 80 3b ed 77 74 be 2f 6d 38 be 91 46 ee bd
       0.0039167567 -0.23873873 -0.180104 -0.11634553
000050 81 c0 31 3e 2b 03 22 bd ed ac 6e be 1b 80 9f bd
       0.1735859 -0.039553802 -0.23308153 -0.07788106
000060 04 26 15 bd da ef ec bd cd a8 5b bd 75 62 69 bd
       -0.036413208 -0.115691856 -0.053627778 -0.05697866
000070 0f 81 78 bd f0 ac a3 bd 3b 47 a0 3d 23 69 d2 bd
       -0.060669955 -0.079919696 0.07826086 -0.102739595
000080 af 06 08 be 84 74 80 3d 01 e5 23 3d 83 14 4d 3b
       -0.132838 0.062722236 0.040013317 0.0031292744
000090 e7 07 62 3d 7c 71 1c be 17 41 17 bc 7a e4 3c bd
       0.055183318 -0.15277666 -0.009231827 -0.04611633
0000a0 9c a2 96 3e fe f4 19 3e 71 ba ea bd 32 76 3d bd
       0.29420936 0.15034863 -0.11461342 -0.046255298
0000b0 0a 68 c5 bd f1 17 38 3e c8 f3 b0 3d 62 f4 1e be
       -0.096389845 0.17977883 0.086402476 -0.15522912
0000c0 d7 2a 0e be e0 2b 87 3d 31 c6 17 bc b6 86 56 3d
       -0.1388353 0.06600165 -0.009263561 0.052374564
0000d0 47 dd f3 3d 4d 58 55 bb 46 0d d7 bd 33 29 a3 3c
       0.1190744 -0.0032553852 -0.105005786 0.019917106
0000e0 4c f8 20 3c da be 52 bc bd 89 2d 3c 3d e0 e4 bb
       0.009824824 -0.012862885 0.010591921 -0.006984739
0000f0 10 28 23 3e 80 72 15 3d 52 61 01 be a4 3a e5 bd
       0.15933251 0.03648615 -0.12634781 -0.111928254
000100 99 4d 44 bd 99 81 87 3e be eb 4a 3e 76 86 9a bd
       -0.047925565 0.26466063 0.19816491 -0.07545178
000110 56 df ed bc c4 8e c2 3c 37 c8 92 3e 6a 67 21 3e
       -0.029037159 0.023749717 0.28668377 0.15762106
000120 ee 28 02 be c8 68 d4 bd eb 81 9a bd 9d 51 0d be
       -0.12710926 -0.10371548 -0.07544311 -0.13800664
000130 f6 c3 70 bd da e7 3d be e8 0d 66 bc cb ab 61 bd
       -0.058780633 -0.18545476 -0.014041401 -0.055095475
000140 41 30 06 3b 0f ad 43 bd 53 f4 45 b7 f8 97 97 bd
       0.002047554 -0.047772463 -1.1799001e-05 -0.074020326
000150 11 3e 1e 3d bd 30 f3 3c 44 d0 3f bd 1e 64 21 3b
       0.03863341 0.029686326 -0.046829477 0.0024626325
000160 b0 e0 47 bd 6f 26 8d 3d ed ea fd bd 7d af d9 bd
       -0.048798263 0.06892096 -0.12398324 -0.10629175
000170 1d 63 10 be 6e 4a 25 be 95 eb 2f bd a6 d1 63 bd
       -0.14100309 -0.16141674 -0.042949278 -0.05561986
000180 e8 f8 2e be 9a 7e 1b be 68 f1 33 be bd 89 dd bd
       -0.17087138 -0.15185013 -0.17572558 -0.10817287
000190 8b 4d 4a bc 55 6d dc 3b fa aa c2 bd 88 21 7a 3c
       -0.012347589 0.0067269006 -0.095052674 0.015266784
0001a0 0b 5e 27 be c1 96 16 bd c4 2e ae 3c 63 41 05 3e
       -0.16344468 -0.036764864 0.021262534 0.13013224
0001b0 61 a3 39 3e 3e 50 56 3d 51 b7 69 bc 96 05 48 3d
       0.1812873 0.05232262 -0.014264897 0.048833452
0001c0 f2 74 50 3d e7 e5 3a 3e 3c d2 52 3d 68 79 82 3c
       0.050892778 0.18251763 0.051470026 0.015927032
0001d0 e0 6a 6c bd 3e a5 d4 bd 9a 50 83 bd 7b 66 4e bd
       -0.05771911 -0.1038308 -0.06411858 -0.0503907
0001e0 bc fc 99 bd 0c 39 2c be bf 39 43 be 02 78 55 be
       -0.075189084 -0.16818637 -0.19064997 -0.2084656
0001f0 a8 f1 f5 bd cf 31 30 bd 13 2f c2 3d 67 02 bd bc
       -0.12008983 -0.04301625 0.09481635 -0.023072435
000200 7e 52 b3 bd bc 1b 6c bd 2b a6 0d 3e a6 54 39 3e
       -0.087559685 -0.057643637 0.1383292 0.18098697
000210 8d f5 88 3e a4 b6 1f 3e 61 46 0a 3d 23 d6 5f 3e
       0.2674984 0.15597016 0.033758525 0.2185903
000220 8c 0c 91 3e 41 70 b4 3e 92 86 67 3e f3 72 3c 3e
       0.28329885 0.35241893 0.22609928 0.18403225
000230 28 0b 3d 3e 8e dd 60 3e 9f 1d 52 3e e8 6f 0f 3e
       0.18461287 0.21959516 0.20519112 0.14007533
000240 be 8c 48 3e 31 c3 2a 3c 90 2f 10 bd 18 17 19 3d
       0.19584939 0.010422514 -0.03520161 0.03737554
000250 e6 84 ed 3d 25 4c 40 3d fb 3a 45 3d 82 08 e5 bd
       0.11597614 0.046947617 0.04815195 -0.11183263
000260 5f ec f9 3c e4 05 a4 bd bc 7b 80 bd b0 ec 39 3e
       0.030508218 -0.08008936 -0.062736005 0.18156695
000270 1c 1d 6c be 4c 5e 90 3d 11 7c 4f 3c ba ee c4 bd
       -0.2305798 0.07049236 0.012663857 -0.09615846
000280 9c 6b 86 3c 41 dd 32 be 95 a6 b8 bd d6 34 12 bd
       0.016408734 -0.17467214 -0.09016148 -0.03569492
000290 4a 51 d3 3c c2 4a 1d be 80 57 5b 3c 45 89 12 3e
       0.025795598 -0.15360549 0.013387561 0.14310177
0002a0 76 91 77 3c e2 db f3 39 cc 67 f7 bd 24 2d 86 bd
       0.015110364 0.00046512397 -0.120803446 -0.06551579
0002b0 6b 0f ce bc 0b 53 d1 bd b9 1c 23 be d6 a4 2a 3e
       -0.025153836 -0.10220917 -0.15928926 0.16664442
0002c0 08 04 95 bd 83 40 aa 3d 08 56 2c 3d e3 a0 72 bb
       -0.072761595 0.08313086 0.042074233 -0.0037022165
0002d0 96 a6 32 3e ff 1b 96 bd 36 fe 62 3d 5b c9 b8 3d
       0.1744636 -0.073295586 0.055418216 0.090227805
0002e0 d2 ff 8b 3d ce ba ea 3d 93 4e 02 be db 9e 3b 3e
       0.06835903 0.114614114 -0.12725286 0.18322317
0002f0 f8 23 6b 3d fa e4 2d bd 84 a4 8b bd 76 ec 4b bc
       0.05740735 -0.042454697 -0.06818488 -0.012446513
000300 b3 da 22 3e fb 52 46 3e 9d ee 17 3e 9e 80 3d 3c
       0.1590374 0.19367592 0.14837117 0.011566309
000310 cd 17 9c 3d 5e 41 7d bd ae 29 d3 3d 23 83 2d 3c
       0.07621727 -0.061829917 0.10310684 0.010590347
000320 97 b5 4e 3d 7a 17 25 be 04 f0 0f 3e d5 de c9 bd
       0.050466146 -0.16122237 0.14056402 -0.09856955
000330 61 cf 06 bc 0d 26 2a 3e ea 35 2a be 72 84 1e 3d
       -0.008228154 0.16616078 -0.16622129 0.03870053
000340 92 1c 90 bd f6 ad 9c 3d 12 02 68 3d 5f 26 13 be
       -0.07036699 0.07650368 0.0566426 -0.14370106
000350 98 36 80 bc 58 7d 96 bd 36 05 57 3d 3b f4 72 3c
       -0.015651032 -0.07348126 0.052495204 0.014828737
000360 95 74 ca bd 3c 46 53 3e af f6 11 3e b1 82 cb bd
       -0.098855175 0.20632261 0.14254259 -0.09937037
000370 34 72 a7 bd b4 86 d6 3d 64 61 d3 bd 2d f1 0c be
       -0.081760794 0.10474911 -0.1032131 -0.13763876
000380 c4 b0 1c be 15 e9 40 bd 83 7b cc 3d af cc 19 3e
       -0.15301806 -0.047097284 0.099844955 0.15019487
000390 9e 7f 81 3c 87 c0 04 3e 29 0e 02 bd 55 5c bf 3d
       0.015807923 0.12964068 -0.031751785 0.09343783
0003a0 4b 5f 47 bb a7 c2 96 3d 37 ca ab bd f5 64 e0 3d
       -0.003042179 0.07361346 -0.08388179 0.10956756
0003b0 96 0e d7 3c 7c 34 07 3e 1c c1 17 3e de 17 9c bc
       0.026252072 0.13203615 0.14819759 -0.01905435
0003c0 95 5d a8 bd 9f 40 1d be 46 67 de bc df 48 3a 3c
       -0.08220974 -0.15356682 -0.027148854 0.011369913
0003d0 45 0a 02 3e 64 36 cf bd bb 82 1e be 0a c2 80 be
       0.1269923 -0.10117796 -0.15479557 -0.2514804
0003e0 bf a2 b9 bd c7 20 08 be e5 1c 46 bc eb ae 90 bc
       -0.090642445 -0.13293754 -0.01209185 -0.017661532
0003f0 a0 4c c8 bc d2 41 a9 3d f3 8f a0 3d 7d f8 12 bd
       -0.0244506 0.08264507 0.07839956 -0.03588151

bias f4 [32]
000000 8d 63 26 3e 30 b0 be be 62 62 2d bc 36 54 0e 3e
       0.16248913 -0.37243795 -0.010582538 0.13899311
000010 c4 45 38 3b 20 78 bf bd 71 a5 16 3d e4 e8 a4 bd
       0.0028117755 -0.09349084 0.03677887 -0.08052233
000020 6e 60 c2 3d f2 d9 4c be 0d d4 49 be e5 f4 9d bd
       0.09491049 -0.20005015 -0.19709797 -0.077127255
000030 f2 e4 26 3e 0b 8b c7 3b 08 92 56 be cc 8d 97 3e
       0.16298273 0.0060895733 -0.20954144 0.2960037
000040 d3 b3 e4 3c f2 14 e2 3d cd c2 5b be 68 08 6d bd
       0.027917778 0.11039151 -0.2146103 -0.057869345
000050 a5 9a b0 bd c4 8e 4f 3d f1 e2 74 be 4f 58 4c be
       -0.08623246 0.05067326 -0.23914696 -0.19955562
000060 ad 6c 6e 3d ce 0a c8 be b8 d0 84 bc 93 5a 9f bd
       0.05820911 -0.39070743 -0.016212806 -0.077809475
000070 d3 0d c9 3e a9 0e 47 bc 4e eb 00 be 8d da 03 be
       0.3926836 -0.012149491 -0.12589762 -0.1287634

weight f4 [32, 32, 5, 5]
000000 4e 93 12 3c 89 53 38 3d 6c 95 f8 ba b3 2f 4e bd
       0.008946253 0.04500154 -0.001896543 -0.05033846
000010 d1 98 99 bc 51 b8 ef bc 20 f7 90 3d 85 e7 23 3d
       -0.018749626 -0.029262694 0.07078385 0.040015716
000020 c8 2b 3b 3b 39 05 df bc 50 1c c2 bb 31 55 c2 3c
       0.0028560031 -0.02722417 -0.0059237853 0.023722263
000030 a4 03 3e 3d cb c7 36 3d 5b d0 f8 bc c0 b5 11 bd
       0.04639019 0.04462413 -0.03037279 -0.03557372
000040 3b 2e a9 bc 75 d4 cd 3c b1 2f ac 3d e6 e9 85 3d
       -0.020651927 0.025125721 0.08407534 0.06538753
000050 cd c4 f9 bc 9d a2 c2 bc 4c 9e 9b bc 79 fc ac 3d
       -0.03048935 -0.02375918 -0.01899638 0.08446593
000060 6f e5 a5 3d b3 c2 25 3a 85 6f 5a bc b0 f1 05 3d
       0.081004016 0.0006323263 -0.013332252 0.032701194
000070 5e b8 06 3c c1 c8 50 ba 81 9d c1 3c a6 62 d9 bb
       0.0082226675 -0.0007964485 0.023634674 -0.0066340743
000080 64 62 8a bc 95 83 92 3c e9 88 f9 3c b2 d5 5a 3d
       -0.01689262 0.017885009 0.030460792 0.053426452
000090 4c fe f8 3c e1 84 87 bd 00 8c 77 bd cd c8 44 3d
       0.030394696 -0.066171415 -0.06043625 0.04804306
0000a0 e8 67 59 3d fb 59 0d 3c af 46 ef bc fc 84 9b bd
       0.05307761 0.00862741 -0.02920851 -0.07593724
0000b0 e7 16 18 bd c1 05 90 3d c1 d7 83 3c ca c3 2b 3d
       -0.037131216 0.070323475 0.01609409 0.041934766
0000c0 78 a0 28 3d 92 05 9e bc 95 99 2e 3c 40 0e 2b bd
       0.04116866 -0.019289766 0.010656734 -0.041761637
0000d0 55 1e 0e bd 8d d9 8e bb ca 18 58 bd aa 21 2a bd
       -0.034696896 -0.00435943 -0.052758016 -0.04153601
0000e0 e7 bf 53 bd 7c 57 06 bc ae 2f 2e bd 25 e5 f0 bc
       -0.051696684 -0.008199569 -0.04252594 -0.02940614
0000f0 21 98 9b 3b f0 76 07 bd 1d c5 8c bd 2d ec 5b 3c
       0.00474836 -0.033072412 -0.06873534 0.013423008
000100 e4 48 b1 3c 44 2f 0f 3d 9e 3d 0b bd 20 7d 62 bd
       0.021641202 0.034957185 -0.03399431 -0.05529511
000110 6a 77 82 bc fc 5c b3 3c 22 2d a8 bc c2 fa 8f 3c
       -0.015926082 0.021894924 -0.020529334 0.017575625
000120 21 36 a1 3b f1 56 d4 3b b2 7e 00 bd d7 20 fe 3a
       0.0049197827 0.006480091 -0.031370826 0.0019388449
000130 45 ad 9f 3c e5 3e 7f 3d b4 67 56 3c 4d 9b be ba
       0.019491801 0.06231584 0.013086248 -0.0014542133
000140 f1 22 3d bd e5 c2 eb bc 84 74 ac 3b b5 8c a0 3d
       -0.0461759 -0.028779456 0.005262913 0.07839338
000150 07 52 1e 3c 20 15 5b bc 9d 39 96 bc 79 f2 91 bc
       0.0096631115 -0.013371736 -0.018338019 -0.017815815
000160 aa 4d 9d bb f8 a4 b1 3d 91 8e 98 3c ee 28 f7 bc
       -0.004800518 0.086740434 0.018622668 -0.030170884
000170 68 e7 94 bd 84 2d 9f 3a ef 2b 57 3d 09 a9 9d bc
       -0.072707 0.0012144302 0.052532133 -0.019245641
000180 93 c4 6e 3c dc f5 a8 bc 2d 67 74 bd ef 1d 93 3c
       0.014573234 -0.020625047 -0.05966871 0.01795861
000190 24 dc ed 3c e0 3a f6 3c e3 1a 1a bd 6c b0 fc bc
       0.029035635 0.03005737 -0.037623297 -0.030845843
0001a0 d0 d5 23 bd 8f 67 5d bc e5 90 40 bc d3 6a 44 bc
       -0.03999883 -0.01351346 -0.011753296 -0.0119883595
0001b0 95 c3 65 bc 7d 21 16 3d 14 91 07 bc 8e 43 6a 3c
       -0.014023681 0.03665303 -0.008274335 0.014298333
0001c0 fe 77 ae bc c6 3b 06 bc d0 69 65 3c 03 e9 78 3b
       -0.021297451 -0.008192962 0.014002278 0.0037980683
0001d0 c2 86 25 3c 87 59 ea bc 82 d8 a8 3c 65 13 6d 3d
       0.01010293 -0.028607143 0.020611051 0.057879824
0001e0 10 85 0e bd ee de 24 bb 94 42 1b 3d 28 e7 bb 3c
       -0.034794867 -0.002515729 0.03790529 0.022937372
0001f0 a2 8f 80 3c 45 90 43 3a 6e 9d b5 bc fc c7 83 bc
       0.01569349 0.00074601575 -0.022169795 -0.01608657
000200 23 fc 67 bc 09 2c 78 3c df 3b e9 3c 8c fd 11 bd
       -0.014159235 0.015147218 0.028470932 -0.03564219
000210 14 bf ac 3b 32 9c 8f bc f1 4b f2 bc 5b ab 73 bc
       0.0052718017 -0.017530534 -0.029577227 -0.014872397
000220 8d 75 01 ba 4a 53 44 bd 31 87 61 bc f5 66 12 bc
       -0.0004938476 -0.047930993 -0.013765142 -0.00893568
000230 c5 8e b6 bc 5c c2 a0 bd 4f e1 a0 bd 8e 8f 00 3c
       -0.022284875 -0.07849571 -0.07855474 0.007846726
000240 c9 78 b4 3c 3b 74 29 bd 5b c9 29 bc 49 11 f9 bc
       0.022030251 -0.04137061 -0.010362948 -0.03040375
000250 e1 5c 13 bd d8 a2 b5 3c 9d d8 dc bc d7 cb a6 bb
       -0.035977248 0.022172377 -0.026958758 -0.0050902176
000260 ff e6 99 bc f0 70 fb bc 9e 11 69 bd 38 fa 17 bd
       -0.018786905 -0.030693501 -0.056901567 -0.03710386
000270 87 05 5e bd dc 32 4b bd 49 1a 67 3b f3 b0 3d bd
       -0.05420449 -0.04960905 0.003526347 -0.04631133
000280 c9 4a 50 bb b1 bc 53 bd 55 dd 17 bd 57 bb f1 3c
       -0.0031782857 -0.051693622 -0.037076313 0.029508276
000290 f1 db 39 bd 84 94 76 bd a6 1e 49 bd ae 2e 6c bd
       -0.045375768 -0.06020023 -0.049101494 -0.057661705
0002a0 73 03 13 3c cd e3 cb ba 13 04 da bc 8f 4e 4d bd
       0.00897299 -0.0015555561 -0.02661327 -0.050123747
0002b0 16 33 1a bd 9c 76 b6 bc bf 1e fe ba 21 a8 bb bb
       -0.037646376 -0.022273354 -0.0019387825 -0.0057268296
0002c0 c6 ca 38 bb bc b4 61 bd a4 e9 8e 3b 30 fb 60 3d
       -0.0028197034 -0.055104002 0.004361348 0.05492705
0002d0 af 59 ab 3c 97 eb e9 3b a8 93 11 bd 58 37 d0 3c
       0.020916788 0.00713868 -0.035541207 0.025417015
0002e0 b5 81 82 3d 18 33 12 3d 8c 29 4f 3d 38 8e 8c 3a
       0.06372396 0.035693258 0.05057673 0.0010723537
0002f0 30 7b 56 bd 46 c7 8c 3b 6c af 29 3d cb 3c af 3d
       -0.052363575 0.004296216 0.04142706 0.08556517
000300 80 f5 87 3d d0 ae 0c bd 5a 16 a5 bc e5 c0 0d bd
       0.06638622 -0.0343464 -0.02015226 -0.034607787
000310 45 03 ac 3a 2c 9e 64 3d 13 1c 2c bc 64 e3 6d 3b
       0.0013123533 0.055814907 -0.01050474 0.0036298865
000320 b9 03 6e 3c 50 09 fe 3c 58 b5 d2 3c 87 cb a8 3c
       0.014527255 0.0310103 0.025721237 0.020604862
000330 7c 90 2e 3b ce dd 40 bd 1a b0 62 bc e2 e6 02 3d
       0.0026636412 -0.04708653 -0.013835931 0.03195847
000340 7d 78 ee 3b 81 18 19 3c 3d 65 31 bd a6 6c 2b bc
       0.007277547 0.009344221 -0.04330944 -0.0104629155
000350 6b 71 03 3d f9 09 1b 3d d9 4f 20 bd 12 f7 35 bd
       0.032090586 0.037851308 -0.03913865 -0.044425078
000360 68 67 da 3b d3 ca 69 3d 60 26 ad 3d 99 7a ad 3c
       0.006665159 0.057078194 0.08454585 0.021176623
000370 35 32 a9 bc 45 20 28 bd 44 f2 4c 3c 77 3f a2 3d
       -0.020653823 -0.0410464 0.0125089325 0.07922261
000380 50 e5 f1 3c 35 53 aa 3c 75 19 88 3b ab af 77 3a
       0.02952829 0.02079163 0.0041534253 0.0009448479
000390 8e ac 98 3c 9b 84 73 3b 58 39 c6 ba 2f 3e 13 bc
       0.018636968 0.0037157896 -0.0015123291 -0.008986994
0003a0 e8 af c2 3a fb 18 2f 3d 27 d2 43 3d 64 d7 3d 3d
       0.001485345 0.042748433 0.04780784 0.04634799
0003b0 18 84 57 3c 92 d3 2d bd 10 78 91 3c 05 d3 36 3d
       0.013154052 -0.042438097 0.017757446 0.044634838
0003c0 85 ed 7d bc e8 0e 15 bc 42 f3 60 bd da 8e 01 bc
       -0.015498524 -0.009097792 -0.05491949 -0.007907594
0003d0 bb c4 17 ba ec f7 e8 3c 3c d4 dd 3c 41 3f 10 bd
       -0.0005789508 0.02843853 0.02707874 -0.035216574
0003e0 53 85 68 bd a6 82 15 bc 75 eb cd b9 dc 10 a6 bc
       -0.056767773 -0.009125387 -0.00039276076 -0.020271711
0003f0 34 0f 94 3c 5f 84 56 3d 73 08 15 3d d6 91 10 bc
       0.018073656 0.052372333 0.03638501 -0.0088238325

bias f4 [32]
000000 2b eb f2 bd 34 98 09 be 39 ac d5 bd b3 d4 0e bd
       -0.11861261 -0.13436967 -0.104332395 -0.034870815
000010 9b 38 3d 3d be e4 57 be 1f 49 4a be 66 bd bb 3b
       0.04619656 -0.21083352 -0.19754456 0.005729365
000020 52 39 ae bc 04 b4 35 bd 31 77 90 3c f9 37 4f bd
       -0.021267567 -0.04436113 0.01763496 -0.05059049
000030 06 48 f6 bc 59 92 e0 bd bf e5 ff bd 02 44 b9 bd
       -0.03006364 -0.109654136 -0.124949925 -0.090461746
000040 f4 dc 97 bd bd 1f d7 bd 27 32 25 b9 a7 30 57 3b
       -0.0741519 -0.105041005 -0.0001575431 0.0032835396
000050 99 ed 7d 3d 92 b0 70 bd ac 7f 85 bd 31 f8 0a be
       0.06199417 -0.05876214 -0.06518492 -0.1357124
000060 ac 5b ce 3c 3a 22 24 bd 27 7e 02 3d 90 4f b0 bd
       0.025190197 -0.040071703 0.03185859 -0.08608925
000070 ca e1 9f bd 8b d2 b8 3d d3 d8 ee bd df 0c f1 3c
       -0.07806738 0.09024533 -0.1166245 0.029425083

weight f4 [64, 32, 5, 5]
000000 04 e9 be bb b1 96 73 3c 32 0b 34 bd 61 71 0c bd
       -0.0058261175 0.014867471 -0.04395599 -0.034287814
000010 1e 63 73 3b 7a c1 4f bc a4 2a 1a 3d fe 31 1c bd
       0.0037137936 -0.012680406 0.03763832 -0.038133614
000020 1f 6b 23 bd 8d ee f0 3c fe 71 9e bd 87 94 0a bd
       -0.03989708 0.029410625 -0.07736586 -0.033833053
000030 67 a6 60 bd c7 93 1a bd a8 38 6c 3b 2a ac 16 bd
       -0.054846194 -0.037738588 0.0036044512 -0.036785282
000040 61 4e 31 bc 4d 86 21 bd 4f 67 91 3c 10 c9 93 3c
       -0.01082191 -0.03943472 0.017749457 0.01804021
000050 5a 04 2e bd 66 71 04 bd 55 e9 c3 3b ef b3 73 bc
       -0.04248462 -0.032334708 0.005978743 -0.0148744425
000060 1f e1 ab 3b 2a 32 9f 3b 64 df 40 bd 5b 40 2c bb
       0.0052453424 0.004858275 -0.047088042 -0.0026283476
000070 ae 68 bd 3c a0 70 d1 3c 90 b4 83 bc 80 cd 13 bd
       0.023121204 0.0255664 -0.01607731 -0.036084652
000080 e8 fe 2c bd 55 96 22 3d 2f 38 8e 3c 95 8e 94 bc
       -0.042235285 0.03969415 0.017360775 -0.018134395
000090 60 57 7e bc 61 9e 91 bb 42 89 70 3c f2 f6 68 3d
       -0.0155237615 -0.004443929 0.014681162 0.05687613
0000a0 e1 92 f3 bc b7 19 6d bd 2b 09 00 bd ee d3 79 bb
       -0.029733123 -0.05788585 -0.031258743 -0.0038120705
0000b0 96 5b e0 3c 26 41 da 3c 4e 51 7e 3b 7b 6a 8e 3b
       0.027387422 0.026642393 0.0038805786 0.0043461896
0000c0 14 68 9c 3c ce f3 ed bb 2f d3 19 bd 3c 0d 4e bb
       0.019092597 -0.00726173 -0.037554916 -0.0031440994
0000d0 1d c3 14 bd df 7a cd 3b ab 6c f8 bb 40 79 18 3d
       -0.036318887 0.006270751 -0.0075813136 0.037225008
0000e0 67 98 16 bd 80 aa 0a bc 8d eb 9c 3c 9c a5 a2 3b
       -0.036766436 -0.008463502 0.019155288 0.00496359
0000f0 f0 90 4b bd 30 3e 29 bd 5f 83 b6 3a 5e 82 5c 3d
       -0.04969877 -0.041319072 0.001392465 0.053835265
000100 21 d9 23 3d a2 e3 5e bb a5 79 04 bd 67 c2 16 bc
       0.040001992 -0.0034010191 -0.03234257 -0.009201623
000110 dd f7 4d 3d 0c d2 a5 3c 43 44 15 bd 32 23 d4 3b
       0.05028521 0.02024176 -0.036442053 0.006473922
000120 a5 65 35 3d 80 b2 1f 3c 72 9f c8 bc d3 50 8f 3b
       0.04428639 0.009747148 -0.024490092 0.0043736487
000130 61 51 32 3c 3b e4 85 bd a4 e5 93 3c 81 06 b6 3c
       0.01088366 -0.06537672 0.018053837 0.022219898
000140 bf db 26 3d fd 6d 35 bc 14 f9 65 bd 37 42 1b b9
       0.04073691 -0.0110735865 -0.056145743 -0.00014806619
000150 23 5f 91 bc c5 d9 9b 3c 2b f0 83 bd 75 fa 31 bd
       -0.01774556 0.019024739 -0.06442293 -0.043451745
000160 36 56 92 3c 16 57 1a 3d 9b 6e 14 bd f2 85 96 bc
       0.017863374 0.037680708 -0.036238294 -0.018374417
000170 38 3f 1b bd dc 2f d2 bc 66 a5 3e bc bd 72 a9 3c
       -0.037902087 -0.025657587 -0.011636114 0.020684594
000180 54 69 38 bc c0 76 97 3c 20 39 0f 3d e3 06 b1 bc
       -0.011255581 0.018489242 0.034966588 -0.02160973
000190 8d 64 ce bc d5 e9 d9 bb 4a 49 a0 3c 86 78 ee 3c
       -0.02519443 -0.0066501894 0.019566197 0.029110204
0001a0 36 bc 1e 3c c6 61 1d bb 27 7e 27 bb 57 1c b1 39
       0.009688428 -0.0024014576 -0.002555737 0.00033781186
0001b0 11 f1 88 3a b7 92 80 bc b6 67 88 bc 66 b8 fe 3c
       0.001044782 -0.01569496 -0.016651016 0.031093787
0001c0 e9 6f e3 ba f1 99 4a 3d 80 e6 8a 3c 97 37 ca ba
       -0.0017352077 0.049463216 0.016955614 -0.0015427944
0001d0 ec 1a ab bc e0 a6 3b 3a fa 79 2c bc aa b4 95 bc
       -0.02088686 0.000715835 -0.010527128 -0.018274624
0001e0 a5 09 b7 3c ae 92 46 3d 72 a8 c9 bb 33 1f 92 3c
       0.022343466 0.04847973 -0.0061541134 0.017837143
0001f0 90 33 de 3b 48 14 11 bd e0 b2 2e bd 55 7a 4c 3c
       0.006781049 -0.035419732 -0.042651057 0.012480338
000200 da 4c 56 3c 77 5d 60 bc 1c dc c3 bc 91 1a 0c 3d
       0.013079846 -0.013694159 -0.023908667 0.034205023
000210 0a c1 af 3c d5 8c 07 3d d3 51 e9 3c fc 66 90 b6
       0.021454353 0.033093292 0.0284814 -4.3035234e-06
000220 82 2c d9 bc e7 e0 4d 3c d8 70 a3 3d 17 80 b3 3c
       -0.02651048 0.012565828 0.079805076 0.021911664
000230 37 9b 1a bb 6c 66 64 3c 8a d7 8f 3c ff 6d 99 3b
       -0.002359105 0.013940435 0.017558832 0.004682302
000240 1d 89 af 3c 67 88 a0 3c e8 be 6f bc 98 de f5 3c
       0.021427685 0.019596292 -0.014632918 0.030013368
000250 66 66 fc b9 cf df e9 3c 78 29 36 bc a7 88 bd 3c
       -0.00048141478 0.028549103 -0.011118285 0.02313645
000260 51 5d 40 bc c0 1e c2 3c 7b 22 3e 3b b1 6a dd 3c
       -0.011740998 0.023696303 0.0029012251 0.027028413
000270 94 16 d6 38 b7 6a 9c bb 9e 8a 81 3c 61 e8 40 3d
       0.00010208521 -0.0047734636 0.015813168 0.047096614
000280 ed a3 90 bb 40 3c ba 3b a2 e6 8e 3b f5 ab 01 3d
       -0.0044140727 0.005683452 0.0043609897 0.03165813
000290 56 cc fb 3c 0e e2 dd 3b 5f 15 88 bc 44 d6 dd bc
       0.030737083 0.0067713326 -0.016611753 -0.027079709
0002a0 e2 40 f7 bb c0 97 df bb 7b 47 8e 3c 22 75 6f 3c
       -0.0075455764 -0.00682351 0.017368069 0.014615329
0002b0 a1 49 f4 3c 9e 25 dd 3c 5c 2d 4b 3d 2c 9f 19 bc
       0.029820265 0.026995476 0.049603805 -0.009376328
0002c0 fa fd 24 3c c3 a7 5d 3c 47 5c 0f bd 46 29 1d bd
       0.010070318 0.013528767 -0.035000112 -0.03836944
0002d0 d1 9b 82 bd c3 e6 0a 3c 98 e4 21 3d 3f af d0 3b
       -0.06377376 0.008477869 0.039524645 0.006368547
0002e0 2b 03 0c bb 26 1d 7c bd 23 14 8a bb f4 eb 27 bd
       -0.0021364193 -0.061551236 -0.0042138263 -0.040996507
0002f0 20 18 bc bc 0a 49 28 3c 5c e9 c9 b9 1f 1d 7b 3c
       -0.022960722 0.01027132 -0.00038511574 0.015326767
000300 53 bb 4d 3d f6 83 b9 bc b9 5e 9f 39 fa ff 66 bc
       0.050227474 -0.022645932 0.00030397417 -0.0140991155
000310 d1 b5 e3 3b 0a 36 3d 3c fb 7c a8 3c 7a 53 fc 3c
       0.0069491644 0.011548528 0.020567408 0.030801523
000320 e2 d8 c5 3b 5f 04 36 3d c8 c6 48 3c fb b1 8e bc
       0.0060378173 0.044437762 0.012254424 -0.017418852
000330 10 04 0d bd 9a 0c 3c bc 8a 19 0d 3d 65 d1 14 bd
       -0.034427702 -0.011477614 0.034448184 -0.036332507
000340 a7 a7 eb bc 02 f8 59 bc 44 1d af 3b fa 49 28 3d
       -0.028766466 -0.013303759 0.005344065 0.041086175
000350 6f b5 59 bd b2 cc 42 bc 8c 0d fb bc a3 a4 1a bc
       -0.053151544 -0.0118896235 -0.030646108 -0.0094386665
000360 c0 02 9f 3d 72 29 55 3d af 03 bc 3b a6 0c 58 3c
       0.077641964 0.05204148 0.005737744 0.013186609
000370 94 c2 86 bc 9e ae 0f 3d 43 66 1b 3c c3 c7 85 bc
       -0.016450204 0.035078637 0.00948483 -0.016330605
000380 2f 55 8a 3c cb 72 a6 3c f6 c3 16 3d e8 83 95 3c
       0.016886322 0.02031841 0.036807977 0.018251374
000390 ce 0f b8 3c a9 01 50 3c 67 46 b0 3b bd f0 02 3d
       0.022468474 0.012695708 0.0053794864 0.031967867
0003a0 8d d2 b9 bb 5d 8b bb bc de 86 11 3d 6a c9 2f 3d
       -0.0056708516 -0.022893602 0.03552901 0.042916693
0003b0 80 c0 51 bd d0 de 2e bd 85 09 41 bd 72 20 21 bd
       -0.051208973 -0.04269296 -0.04712822 -0.039337583
0003c0 b3 9c f4 bc bd 53 81 3c d7 59 1e 3d 89 0f 67 3d
       -0.029859876 0.015787 0.038659897 0.0564113
0003d0 c3 3f 8f bc f8 1b 9e 3c 0a a2 35 bc bf 0a 51 bb
       -0.017486459 0.019300446 -0.011085996 -0.0031897274
0003e0 f3 70 34 bd ba 89 27 bc 73 bf 5f bd 85 ff 06 bd
       -0.04405303 -0.010225708 -0.05462594 -0.032958526
0003f0 29 d2 54 bd a4 37 0e 3d d5 95 0b bd 7c db 99 bc
       -0.051958237 0.03472103 -0.034078438 -0.018781416

bias f4 [64]
000000 c5 e4 81 bd 39 45 c2 bd 8d fe a5 bd 07 07 4c bc
       -0.063424625 -0.094858594 -0.08105192 -0.012452847
000010 9a 62 d0 bc 46 c2 a1 bd c6 8d 0f bd 29 f1 ff bb
       -0.025437642 -0.07898383 -0.035047315 -0.007810731
000020 02 fc 15 bd f2 bd 15 bd 4f fa b8 bd 30 76 7e bd
       -0.036617287 -0.0365581 -0.090321176 -0.06212443
000030 bf 1e 59 bd ac 08 53 bd db 02 88 bd ac 7d 9d bc
       -0.053007837 -0.051521942 -0.0664117 -0.019224964
000040 1d b8 ac bd 21 3a 80 bd 4e 8e 76 bd f4 17 84 bd
       -0.08433554 -0.06261087 -0.060194306 -0.06449881
000050 a2 32 73 bd 75 33 7e bc 7d 51 b3 bc 9b 7d ca bd
       -0.05937446 -0.015515198 -0.021889443 -0.098872386
000060 9f 5d 75 bd d6 75 f3 bb 81 43 7f bd 44 48 a6 bc
       -0.059903737 -0.0074298186 -0.062320236 -0.02029813
000070 fa 48 54 bd bd d0 6f bd 22 b7 67 bc 62 81 b8 bc
       -0.05182741 -0.058548678 -0.014142783 -0.022522632
000080 1f 6f f6 3b 46 79 dc bc 7f 12 87 bd d8 6f 06 bd
       0.007520571 -0.026913296 -0.06595325 -0.032821506
000090 ba ea a8 bc ad a4 98 bd 75 00 88 bd 42 3c cc bd
       -0.020619739 -0.074532844 -0.06640712 -0.09972431
0000a0 ed c5 99 bd b5 4c 7a bd 00 20 3e 3d c1 22 bf bb
       -0.075084545 -0.06110831 0.046417236 -0.0058330004
0000b0 88 48 0d bd 49 19 45 bc 75 2b d9 bc 13 55 9e bd
       -0.034493 -0.012029954 -0.02650998 -0.0773107
0000c0 77 d0 ba bc cb 69 8a bc 4b 0c b5 bd dc 00 a4 bd
       -0.022804482 -0.01689615 -0.08840235 -0.080079764
0000d0 96 12 48 bd 5a b2 da bd 6c 75 63 3c 1d 08 a8 3c
       -0.04884585 -0.10678549 0.013882976 0.020511681
0000e0 12 42 ea 3c 48 16 b5 bd 74 f2 e4 3c 30 6c b5 bd
       0.028595958 -0.088421404 0.027947642 -0.08858526
0000f0 17 b0 82 bd dc c1 b4 bc ec 49 84 bc 69 4c ca b9
       -0.06381243 -0.022065096 -0.01614853 -0.00038585372

weight f4 [64, 1024]
000000 b6 09 57 bd c7 ff ed 3b 62 7c 8f 3c ae fd 0e 3c
       -0.052499495 0.007263157 0.017515365 0.008727474
000010 4d da 02 bc aa 96 f6 3c 2e cc aa 3c 32 af a1 bc
       -0.007986617 0.03010114 0.020849314 -0.01973686
000020 56 01 7c bc 69 9e 14 ba fd f9 34 3d 2f e8 50 bc
       -0.015381178 -0.0005669357 0.04418372 -0.012750669
000030 93 45 05 bd c4 42 65 bd 23 aa a6 bb d6 60 22 bd
       -0.032537054 -0.055971876 -0.0050862 -0.03964313
000040 e1 71 91 bc 45 4e b9 3c 68 cb c6 bc d4 99 47 b8
       -0.017754497 0.02262033 -0.024266914 -4.758856e-05
000050 31 6c 8a ba 6f f5 26 bc 1c df dc bc 7b 6a 16 bc
       -0.0010560808 -0.010190352 -0.026961856 -0.00918066
000060 4c 65 8c bc 1b a2 c0 3c 0f a0 fd bc 34 ee 51 3d
       -0.017138146 0.023514798 -0.030960111 0.05125256
000070 9e f3 57 3c 1f 87 81 3b 95 d5 90 3c 3b 71 9f bc
       0.013180641 0.0039528753 0.017679969 -0.019463172
000080 b8 92 45 3c 4f d7 71 b6 e1 43 04 bd 54 37 57 bc
       0.012058906 -3.6037125e-06 -0.032291297 -0.01313575
000090 ee 72 ed bc 71 5a 7c 3c 0e 5a 98 3c 08 2b ee 3c
       -0.028985467 0.015402422 0.018597629 0.029073253
0000a0 18 c3 89 bc 66 1b 15 bd 1a 20 0e bd 89 69 63 bc
       -0.01681666 -0.036403082 -0.034698583 -0.013880142
0000b0 ea 5c bc 3b 49 f7 03 3d 59 b8 6c 3c 57 2b 69 bc
       0.005748381 0.03221825 0.014448249 -0.014231524
0000c0 3a 81 85 bc 36 2f 06 bd 02 66 98 bc 71 f0 c8 bc
       -0.016296972 -0.032759868 -0.018603329 -0.024528714
0000d0 5b e5 03 bd 7c da 3a bc b8 e3 bc 3c f9 0a ad 3a
       -0.032201152 -0.01140463 0.023057804 0.0013202123
0000e0 4a bd eb bc 6a d5 cb 3c 4a c6 f2 3c 8f ac 16 3d
       -0.028776783 0.024882037 0.029635567 0.03678566
0000f0 f6 be 54 3c 31 e2 18 3d d1 3a 95 3d e8 56 07 3d
       0.012984982 0.037325088 0.07286609 0.033041865
000100 71 78 84 3c 15 33 7d ba 60 c9 9d 3c 4b 14 0f 3d
       0.016170712 -0.0009658796 0.019261062 0.034931462
000110 61 b5 ba bc 03 6c 11 bc 53 d1 8a 3c 57 e7 72 3d
       -0.022791566 -0.00887585 0.016945517 0.059302654
000120 f7 2c a3 3b e8 bf 62 3d d5 17 0a 3b e5 c4 3e 3c
       0.0049797255 0.055358797 0.0021071334 0.011643623
000130 b3 4e 88 bc 04 79 af 3c 4d 09 5a bc d4 88 8a 3b
       -0.01663909 0.02142001 -0.013307882 0.004227737
000140 c9 9e 85 bc 09 c6 13 3d bf 51 2a 3c 4e 1b 9d bc
       -0.016311066 0.036077533 0.010395466 -0.019178059
000150 52 59 81 bc 38 39 1e 3b 38 27 d0 3c ef aa fe 3b
       -0.015789662 0.0024142992 0.025409326 0.0077718417
000160 63 0c 39 3a 88 d9 e1 3c 3e 29 96 bc ad d7 60 bb
       0.00070590357 0.027569547 -0.018330213 -0.003430824
000170 4c 76 37 3d b2 8d 08 3d 50 e4 0f 3d 35 ba cd 3c
       0.04479055 0.033338256 0.035129845 0.025113204
000180 91 de 24 bc 03 d6 a8 bc 49 06 ec bb 5d d5 84 3c
       -0.01006283 -0.020609861 -0.0072028977 0.01621502
000190 4b 47 92 ba dd 09 31 bc 59 01 a4 bc 34 71 b3 bc
       -0.0011160163 -0.010805574 -0.020020174 -0.021904565
0001a0 a3 e8 0e 3d 72 7f 49 3d b0 3b f8 bb 62 1d 61 3d
       0.03488983 0.049193807 -0.0075754747 0.054959662
0001b0 93 ec 99 bc c9 e6 95 3c 13 37 00 3d 0c c6 a3 3c
       -0.018789565 0.018298524 0.031302523 0.019991897
0001c0 51 9a a2 3b d9 2c 52 bd ac 86 ec bb ad 5c 3e 3d
       0.0049622436 -0.0513123 -0.0072182026 0.0464751
0001d0 bb 19 c3 3c 2c 68 5d bc 94 dd 37 3d e6 e2 13 3d
       0.02381598 -0.013513606 0.044889048 0.03610506
0001e0 0b 26 8b bb 8b 4a c8 bc 24 29 2d 3d af 16 2e 3d
       -0.0042464784 -0.024449607 0.042275563 0.0425021
0001f0 7d 52 5a 3d 3c af 8c bb 4e c0 2e bb 5b cb 80 3c
       0.053301323 -0.0042933505 -0.0026664915 0.015721967
000200 ae 6d 3e bc 2f a3 75 bb fd 85 e3 3c b3 f7 21 bc
       -0.011622829 -0.0037481298 0.027773852 -0.009885716
000210 2c b8 0e 3d 4c 0a ae 3b 94 a7 3e 3d 91 1e 20 3d
       0.03484361 0.005311286 0.046546534 0.03909165
000220 de de 39 3d 00 e3 6d 3d d8 ff e4 3c cb d5 48 3d
       0.04537856 0.058077812 0.027954027 0.049032014
000230 ff 2a d0 bc 51 c2 33 bb 6d ca b9 bb 14 ac 8d bc
       -0.025411127 -0.0027429054 -0.005669883 -0.017293967
000240 9d 9b 6f 3c 4b c3 25 bc 0d e4 8c 3c 5a b6 fc bb
       0.014624503 -0.010117362 0.017198587 -0.0077121677
000250 e7 39 9a 3c 77 ab 0f 3d 15 59 81 3d d5 b6 0c 3d
       0.018826438 0.03507563 0.06315819 0.03435405
000260 cd 7b a5 3c 68 61 90 3d c3 52 ff 3c 3e 1d 37 3b
       0.020200634 0.07049829 0.031167394 0.0027941014
000270 bf 8b 0c bd 27 bb 1f bc 33 c6 c2 bc 9b 0b d9 bc
       -0.03431296 -0.00974921 -0.02377615 -0.026494792
000280 6c 15 cb 3c 9f 05 2c bc 1b 9c 13 bd 7e 47 2a 3b
       0.024790488 -0.010499387 -0.036037546 0.0025982554
000290 06 f9 08 3d 93 df 77 bc cf 0f 8a bb a0 e3 80 3d
       0.033440612 -0.015128988 -0.0042133103 0.06293416
0002a0 5a f0 16 3d 3c 78 ca bc ac 7c 70 3c 15 ac 3c 3d
       0.03685031 -0.024715535 0.014678162 0.046062548
0002b0 68 cd 34 bc 27 95 17 bd 3b 3b 17 3b 7f 7f ae 3c
       -0.011035301 -0.037007477 0.0023076076 0.02130103
0002c0 94 09 97 3c 28 ed bd 3b 26 86 ff bc e2 cb 43 bc
       0.018437184 0.0057960935 -0.031191897 -0.011950465
0002d0 3f 41 c3 bc c0 51 06 3c 1a 45 bb bc 71 16 a2 bc
       -0.023834823 0.008198202 -0.022860099 -0.019786092
0002e0 23 dd 00 bc 96 20 1d 3c 39 8d 1e bd 33 67 f7 3a
       -0.007865223 0.009590289 -0.0387089 0.001887536
0002f0 cb 69 23 3c 04 53 d3 3c 16 a6 55 3d 9e 44 e2 3c
       0.0099739535 0.02579642 0.052160345 0.02762061
000300 b8 77 03 3c b5 f0 3d bd d3 69 9f 3a 70 2f 7b bc
       0.008024149 -0.046372134 0.0012162275 -0.015331134
000310 da df 91 3c 7a 07 2e bd 7e 81 b1 bc 65 eb 07 bc
       0.017806936 -0.0424876 -0.021668192 -0.0082958685
000320 f4 35 22 3c 2d 83 c1 bc 98 ee dc 3c a2 38 2c 3c
       0.009900559 -0.02362212 0.02696924 0.010511549
000330 db 1d 70 3d d7 27 b1 bc a7 4a d5 39 7f 24 02 bd
       0.058622222 -0.021625442 0.00040682146 -0.031773087
000340 a7 73 2b 3c 62 5e 8f bc 59 93 93 bc 69 f3 12 3c
       0.010464585 -0.01750106 -0.018014597 0.008969166
000350 65 9b 77 3a 74 93 83 3c 99 8d c4 3c 2d 0f 2b 3c
       0.0009445458 0.016061522 0.0239933 0.01044063
000360 cd 83 93 3b 34 c8 e5 3c e0 7d 46 3c 1a 1d 69 3d
       0.004501796 0.028049566 0.012114972 0.05691252
000370 c3 85 35 bd 4b 75 04 bd e7 e1 1d bc 67 99 2f bc
       -0.04431702 -0.03233842 -0.009636379 -0.010717726
000380 50 a8 8f 3c 3a 1a a8 3b f9 e7 52 3d 41 62 62 ba
       0.017536312 0.0051300796 0.051490758 -0.0008635857
000390 5b 69 a9 3c 9e 65 36 3b dc c3 07 bc 20 98 79 3c
       0.02068012 0.0027831565 -0.008286443 0.015234023
0003a0 0d 16 14 3c 79 04 4c bd ff 36 6d 3c 7c 9c 5f bd
       0.00903846 -0.049808953 0.014478444 -0.054592595
0003b0 49 c6 8a 3b 1a eb e1 bc a1 0e 85 3c 36 7b 23 3c
       0.004235063 -0.027577925 0.016242327 0.009978106
0003c0 7b c7 d7 3a 9f 6d 8a 3c e3 09 71 3c 69 d5 97 bc
       0.0016462648 0.016897975 0.01471183 -0.01853438
0003d0 bd 76 2d bc 47 ee a8 bc 8e 9c f6 bb ee d5 4f 3c
       -0.010587391 -0.020621432 -0.007525987 0.012685282
0003e0 a5 09 4e 3c 4b 33 1c bd cd 90 c8 3c f6 6a 84 ba
       0.012575542 -0.038134854 0.024483109 -0.0010102678
0003f0 02 e1 4c 3c ad 7b b0 3c 2f b7 eb ba de ef 66 3b
       0.012504818 0.021543348 -0.001798367 0.0035238187

bias f4 [64]
000000 04 9c a0 bc 9d b9 23 3b 62 ee d1 bc 25 40 50 3c
       -0.019605644 0.002498246 -0.025626365 0.012710606
000010 83 3b 64 bc 96 14 22 3d e8 a2 8c bc 3d 20 98 bc
       -0.013930204 0.039570414 -0.017167524 -0.01857006
000020 b2 22 b3 3b 93 09 12 bc 6a fd cd bc 93 0b 3c bd
       0.0054667825 -0.0089134155 -0.025145251 -0.045909476
000030 5c 7a 82 3c 69 40 4b 3d 6e 08 2f 3b 64 f8 cd bb
       0.015927486 0.049621973 0.0026707905 -0.006285714
000040 ca 80 ca 3c c4 c3 47 3c 8b 95 c2 bc 55 53 0a 3d
       0.024719615 0.01219267 -0.023752948 0.033770878
000050 f3 57 38 bd f4 e2 8b 3c fe fc 9a 3c ae 7d e9 bc
       -0.04500575 0.017075993 0.018919464 -0.028502312
000060 bb fb eb 3c 67 f7 09 bd 76 ac 87 b9 09 68 d7 bc
       0.028806558 -0.033683207 -0.000258777 -0.026294725
000070 64 65 90 3d 6f d4 e5 3c 97 17 e4 bc e6 a4 a2 3c
       0.07050589 0.028055398 -0.02784328 0.01985402
000080 51 cd 32 bd b8 3a 26 3d e5 40 ae bb 46 a9 38 bd
       -0.043652836 0.040583342 -0.0053177946 -0.045083307
000090 71 77 b6 bc 28 b7 ce 3c 85 51 40 bd c7 47 49 bd
       -0.022273751 0.02523382 -0.046952743 -0.049140718
0000a0 6a f5 50 bd a9 93 9d bc 66 fd f7 bc f9 56 13 bd
       -0.051015295 -0.019235449 -0.030272197 -0.035971615
0000b0 1f 60 ad 3c e1 c6 0f bc d5 5c b0 bb c6 1e 0a bd
       0.021163998 -0.008775444 -0.00538216 -0.033720754
0000c0 ea 2c f6 bc d6 32 f0 bc 22 2f fc 3c ec 39 82 3d
       -0.030050714 -0.029321115 0.030784193 0.06358704
0000d0 db 9f 9c 3c 1e 52 02 bb 66 b1 9f bb 1c fe 8d bb
       0.019119194 -0.0019885371 -0.0048734425 -0.0043332707
0000e0 af 35 5b b7 70 57 2b bd 93 97 44 bd 15 2c 7b 3c
       -1.3065916e-05 -0.041831434 -0.047996115 0.015330334
0000f0 dd 39 04 3d c5 1f 3a bd 7a 1f b2 3c 82 55 f8 3c
       0.032281745 -0.045440454 0.021743525 0.03031421

weight f4 [10, 64]
000000 95 ba 1a 3d 30 9a 42 3e 9d ee eb bd 76 83 f7 bc
       0.037775595 0.1900413 -0.11520121 -0.030214053
000010 7d dd 2a be b1 19 50 be d3 e3 c1 3d 50 7c 4a 3e
       -0.16686054 -0.203223 0.09467282 0.19773984
000020 de f5 4a 3e db cb 2d 3d 8b f7 56 be 19 0a 35 3e
       0.19820353 0.04243074 -0.20992868 0.17679633
000030 05 34 91 bd e8 30 16 3d de 10 7d be 32 ea 4a 3e
       -0.0709 0.036667734 -0.24713466 0.19815901
000040 e1 96 30 3e 26 2d 6f be a0 bd 37 3e f7 9b 33 be
       0.17245056 -0.23357067 0.1794343 -0.17539965
000050 f5 d3 96 3c 2d 91 38 be d0 3a 80 bc 6b 2e 20 3e
       0.018411616 -0.1802413 -0.015653044 0.15642707
000060 24 ef f7 bd ab 61 05 bd 58 3f 20 be 52 cb f1 bd
       -0.12106159 -0.032563847 -0.15649164 -0.118063584
000070 01 c2 43 be 50 4b 97 bc ec 8b 57 bd 98 66 e4 3c
       -0.19116975 -0.018468529 -0.052623674 0.027880952
000080 e4 54 81 3e 88 47 4f be bb d1 a6 bd 96 42 f2 3c
       0.2526008 -0.20242131 -0.08145472 0.029572766
000090 2c 95 29 be fd af b5 bd ee 83 81 3e c6 80 4f be
       -0.16560811 -0.08871458 0.25295967 -0.20263967
0000a0 db 9a 60 3e 23 ad a7 bd b7 b9 c9 3d e6 03 0f 3e
       0.21934073 -0.0818732 0.098498754 0.13966331
0000b0 12 d2 55 3c 22 70 49 be ac 76 75 3d ce e5 99 bd
       0.013050573 -0.19671682 0.059927627 -0.07514535
0000c0 a2 81 6e 3e a5 d2 6e ba ca 70 4f be 3c bd c9 bd
       0.23291638 -0.0009110368 -0.2025787 -0.09850547
0000d0 64 86 cb 3d 94 75 c2 bc 12 fb eb 3d 8f ab 00 3d
       0.09937742 -0.023737706 0.11522497 0.03141361
0000e0 be 01 d9 3c ec c4 83 3e e9 6b fd 3d 48 31 79 be
       0.026490089 0.25736177 0.12374098 -0.24335206
0000f0 b9 55 f2 bd f5 f2 e5 ba c7 07 ed bd 51 b3 3d 3d
       -0.118327565 -0.001754372 -0.11573749 0.046313588
000100 65 c4 0b 3e 1a c3 38 bd 81 35 02 3e 7d 2c 52 be
       0.13649137 -0.04510794 0.12715723 -0.20524783
000110 ed ad 97 bc 69 01 6c 3d 16 38 9b bd f5 f2 64 be
       -0.018515551 0.057618532 -0.07579057 -0.22358306
000120 6b cc 70 be 87 ea 76 bc 0e f1 74 be 59 48 16 be
       -0.2351548 -0.015070564 -0.2392008 -0.14676036
000130 1f 13 b5 bd 29 11 27 be 4b a1 7f 3e 1f ef 9a bd
       -0.08841538 -0.1631514 0.24963872 -0.0756514
000140 7b 28 aa bd 45 55 75 3e 67 c2 9e 3d 9f 6d 22 be
       -0.08308502 0.23958309 0.07751923 -0.1586213
000150 b5 f2 0b be c9 6d 01 be 0d 01 2a bd 21 52 44 3e
       -0.13666804 -0.12639536 -0.04150491 0.19171955
000160 31 88 bc 3e 9e f0 73 3e fa 59 34 3e 84 aa 5b 3d
       0.36822656 0.23822257 0.17612448 0.053629413
000170 c3 d8 86 be eb 48 33 be 11 9c b7 bd bd c9 28 3e
       -0.2633725 -0.17508285 -0.08965314 0.16483207
000180 8c 94 60 3e 85 fe b4 3d 9d 0b a4 bd ae 91 61 be
       0.21931666 0.08837608 -0.080100276 -0.22028229
000190 f8 c0 c6 bd 73 de fc 3d a3 93 4d be 70 ac e0 bd
       -0.097047746 0.12347116 -0.2007585 -0.1097039
0001a0 b4 d0 ea 3d c9 ce 11 bd d8 9a 05 3d 3d dd 2f 3d
       0.11465588 -0.035597596 0.032618374 0.0429356
0001b0 78 25 65 be 81 a4 5f be 73 22 a9 bd af 06 76 3e
       -0.22377574 -0.21840097 -0.08258524 0.24025987
0001c0 40 98 18 bd ea 3d 24 3e 78 5d 33 be 3b 72 53 be
       -0.037254572 0.16039243 -0.17516124 -0.20649044
0001d0 20 10 a4 be 91 98 4b 3e 26 40 17 be 52 19 c6 bd
       -0.32043552 0.19882418 -0.14770564 -0.09672798
0001e0 20 01 a8 3e 35 fb 0f 3e 49 0f 63 3b f0 6a 96 3e
       0.32813358 0.14060672 0.0034646562 0.29378462
0001f0 ef 9a b6 be eb 42 03 be 74 6c 7b be df 91 52 be
       -0.3566508 -0.12818496 -0.2455309 -0.20563458
000200 3f 25 94 be 9e 0e 31 3b 1b c0 90 be c1 14 21 3e
       -0.28934667 0.002701677 -0.28271565 0.15730573
000210 bc 4e b7 bd c4 e2 ba bd c5 76 9a 3d e5 32 44 bd
       -0.08950564 -0.09125283 0.07542185 -0.0479001
000220 8e dc 0a 3c d7 55 e5 bd c6 e1 26 3e e7 da 58 be
       0.008475436 -0.11198013 0.16297063 -0.21177255
000230 e5 b7 a1 3c 09 ff 5e 3c ae 25 92 be 15 ed 55 3e
       0.019741008 0.01361061 -0.28544372 0.20891221
000240 4f 2c 86 bd 60 5d 15 be 84 8a 13 be 92 f3 ad 3d
       -0.0655142 -0.14586401 -0.14408308 0.08493723
000250 b1 bb 3c 3d 4e 57 a8 3d 1a d2 27 be 92 6a 74 be
       0.046077434 0.08219777 -0.16388741 -0.23868778
000260 aa f2 fb bc 48 7c 5e 3d 25 fb 0c be fa 3a d7 3d
       -0.03075536 0.054317743 -0.13767679 0.10509296
000270 fb 1b 22 be a2 bc 48 3e 57 02 39 bd 80 f2 3e 3e
       -0.15830986 0.19603208 -0.045168247 0.18647194
000280 20 da 5a 3e 06 34 a4 3d 07 d7 25 be 22 49 b3 bc
       0.2137227 0.08017735 -0.16195308 -0.021885458
000290 eb a6 5e 3e 76 46 c4 3d 87 2f 1c 3e ec 87 8f be
       0.21743362 0.09583752 0.15252505 -0.28033388
0002a0 b9 55 bd 3d b9 f5 c7 3d 52 1e 12 3d 19 cd 0b 3d
       0.09244866 0.09763665 0.035673447 0.034131143
0002b0 03 43 06 3e 9c 8e 5f 3e 7d be a7 3e 90 93 85 bc
       0.131115 0.21831745 0.3276252 -0.016305715
0002c0 65 e3 c1 3d 0f 78 7e 3e 1c 3e 77 3e d1 bf 19 3e
       0.094672 0.24850486 0.24144787 0.15014578
0002d0 87 ef d3 bd fe ab 2e 3e d7 f8 fe 3d d0 6f 0b 3e
       -0.103484206 0.17057797 0.12449806 0.13616872
0002e0 42 1e 16 3d 25 4f 07 be 1a f1 68 bd 92 f4 3f be
       0.03664995 -0.13213785 -0.056870557 -0.1874564
0002f0 42 e7 86 3e ca 9e 69 3d b4 f8 d1 3d a5 93 4a bd
       0.2634831 0.0570362 0.102525145 -0.04945721
000300 ab dd ff bd 2b db 21 3e ef 91 42 be af 47 16 be
       -0.12493452 0.15806262 -0.19000982 -0.14675783
000310 60 70 aa bd 4e 2f 2b 3e 83 54 40 bc 02 36 ef bc
       -0.08322215 0.16717264 -0.011738899 -0.029200558
000320 d9 54 17 be fc 76 1c 3e a8 d8 0e 3e 61 66 31 3c
       -0.1477846 0.15279764 0.13949835 0.010827632
000330 84 ef ea 3d d1 2c 4a be 7c 97 57 3e a0 f5 c4 bd
       0.11471465 -0.19743659 0.2105388 -0.09617162
000340 dd 9c e8 3d 4f 45 21 3e 3a 8d 40 bd 2d bd 00 bc
       0.11358044 0.15749095 -0.047009684 -0.007857603
000350 fa e8 1a 3c 0a 7e d1 3d 79 31 43 3e 1d 5b 3a 3c
       0.00945496 0.10229118 0.19061841 0.011374262
000360 5f a2 68 bd ae 2e fb bc 15 8d 03 be 34 da 38 be
       -0.056795474 -0.030661907 -0.12846787 -0.18051988
000370 d8 20 98 3d 22 83 7a 3d 58 d2 5e 3e e8 d4 a6 bd
       0.074281394 0.061160214 0.21759927 -0.081460774
000380 3c 53 a4 bd bd 88 02 3d e3 aa d5 3d df f1 b2 bd
       -0.08023688 0.031868685 0.10432985 -0.087375395
000390 00 9c 0e 3e 8c d2 97 3c e7 73 a5 3d f7 fe 8a 3d
       0.13926697 0.018533014 0.08078747 0.06786912
0003a0 84 51 19 3e d4 b7 47 3e 5d d4 8b be 83 0e f3 bc
       0.14972502 0.19503719 -0.27310458 -0.029670006
0003b0 88 25 0c 3d 8e d7 9a 3d e4 f7 0f 3e 40 8b 28 be
       0.03421548 0.07560645 0.14059407 -0.1645937
0003c0 ef f4 69 bd 10 63 ad bd 64 a9 23 be d7 d9 26 3d
       -0.057118353 -0.0846616 -0.15982586 0.040735092
0003d0 fa 7f e4 3d 06 ae 3b 3e 46 3d cc 3d ff 65 68 bd
       0.11157222 0.18328103 0.099726245 -0.056737896
0003e0 6a 2b b6 bd f5 d3 0f be de e6 f0 3d b2 40 3c bd
       -0.08894999 -0.14045699 0.117627844 -0.045960136
0003f0 30 ef ff 3c 2e d4 02 be d4 ea 99 3d ed 81 73 bd
       0.031241983 -0.12776253 0.07515493 -0.05945008

bias f4 [10]
000000 2a fa 8b bd fa 69 f3 3d 9b 35 9f bc 79 87 90 3d
       -0.068348244 0.11885448 -0.01943474 0.07057089
000010 2c 4b a8 3d b7 a8 da bd a5 ee c7 3d e5 ca c0 bc
       0.08217463 -0.10676711 0.09762315 -0.023534248
000020 31 dc 58 3b 46 a6 d3 3c
       0.0033090229 0.025836121
