try_train/cifar10_models/cifar10_net_5.pth (torch, 589388 bytes, 10 tensors)

weight f4 [32, 3, 5, 5]
00000000: e55d 1abc 6dad 133e 878f 063e 6884 4fbd
00000010: 235b 0f3e 7b24 8bbd 3431 babc 4768 b9bb
00000020: 1344 0d3e 9893 863d 4de6 9bbd fedf 203d
00000030: 3dad 8ebd 6d72 2e3c 350c d5bd e5fd 36bd
00000040: d6f4 14bd 26d6 0bbe 09a5 d9bd dbc7 eabd
00000050: 3884 d23d 5cbc 4abd 2511 03be c4bc 80bb
00000060: 7a1d 33bd e942 b3bd b0db f7bc f46c 68bd
00000070: 896e 98bd d328 b9bd 9eb4 6f3d df0b ccbd
00000080: 664a fabd bd57 ba3c 975a c7ba d9d8 a9bd
00000090: a9e5 673b a092 cfbd c005 8ebb f162 a2bd
000000a0: ff59 033e 6baf 0b3d d6df 91bd d25b a5bc
000000b0: 2275 10be f56b 133d c93e a03b 08ef e4bd
000000c0: cada f3bd 2238 503c c7bf 623c 9086 973d
000000d0: 3b64 043e abfe fd3a 073d bcbd 62d0 f4bb
000000e0: 7897 fd3b 36aa d73a c33c 82bc fb0c efbc
000000f0: 2f41 913d 56d6 9abc bd2c 9abd 2df1 cdbd
00000100: de63 89bd 34a8 d33d 51e4 ad3d ba6f 05bd
00000110: 97db c63b 5a2a 103b b4a0 163e 2670 983d
00000120: be5a b6bd 17f7 9cbd 9c57 d4bd e47a 03be
00000130: 1aa0 82bc f6e2 16be 1a69 2c3c 8e9b 10bd
00000140: dbfa 0b3d 0050 9fbc 2c33 8a3c 232c 83bd
00000150: 34ef 5e3d 4a43 833d 38cb 92bc 1cc6 033d
00000160: 7935 febc fd85 a23d 3337 b5bd 874b 10bd
00000170: 402d 32bd b5a0 b4bd 6871 57bc 0197 f4bc
00000180: e174 bbbd 5b02 18bd 2484 c4bd 25ff bcbd
00000190: 4ef1 c5bb 8eb2 6e3c b763 c4bd 9e15 673c
000001a0: 8e87 17be c5c5 33bd bada e8bc ecf9 673d
000001b0: 9ce2 e83d 0744 bf3c 7c46 0ebd 7f15 88bc
000001c0: f5e3 e7bc 0d65 d53d 0cf2 aa39 56c2 a33b
000001d0: 44fb 88bd 9b71 c0bd f986 90bd f7f2 96bd
000001e0: 1c6d 8fbd 8f29 06be b88f fdbd 410d 30be
000001f0: 5f2b 04be 4f22 45ba 249e f23d 7be7 13bc
00000200: 7a2f 6bbd e2b2 713c d556 113e d7f5 f23d
00000210: f0be 353e 8cff b53d d084 163d f877 463e
00000220: ebdf 3d3e f010 743e 9870 043e 1be2 173e
00000230: a454 2e3e 8b5a 363e 4b09 353e 0415 e23d
00000240: fa9b 3a3e f959 753c db10 b1bc 556a 9a3d
00000250: 7986 0c3e d0ad 503d 1981 913c 4873 afbc
00000260: 73d4 883c f10d 20bd b33d 93bc 8931 e93d
00000270: a59c e5bd 708a b03d 8eb0 783d e143 53bd
00000280: 1c2f 80bc 11fb 82bd b4e2 aebd d584 05bc
00000290: 37fd 613d ed71 f3bd 733d 663d ca21 973d
000002a0: 4e0b 5dbc fc71 b63c 0feb d7bd d259 96bd
000002b0: a47d 5fbc 03f7 54bd 1e5e d9bd b07b d93d
000002c0: 215d 56bc ca52 d63c ff5d 0e3d ce89 d4bb
000002d0: 687e 773d ea52 a7b8 9c0e 453c a6be 9f3d
000002e0: ce16 653d 64fe ec3c f002 8dbd e87f 033e
000002f0: 7823 ab3c 4185 99bd 2e85 b5bd c8e4 d4bc
00000300: 9c62 e13c 1c2d ce3d ea23 e33d 9bed 7cbc
00000310: 421d da3c 1951 c0bd 78a8 d93d 213a 933c
00000320: 0d54 b33c 358b b4bd b2fb e23d 18d7 9ebd
00000330: efa9 6e3c 8b4e b83d a7f4 a1bd cb33 e23c
00000340: 0c97 3cbd 9ee4 c23d 90c3 baba a9e2 8bbd
00000350: 98a1 05bd 6fab 86bd c44c 6f3d 97b5 733c
00000360: 11fe bebd fc4b f23d 6dfd c23d 478a d5bd
00000370: 29cf b9bd 5565 9d3d 878d dabd 1901 dfbd
00000380: f32b 00be b3c9 2abd 8d0d bf3d 2227 083e
00000390: a0af 04bc 8d9a e63d 5177 1bbd cebe 713d
000003a0: 57ff 18bd be65 973d 2399 70bd ea6e 9a3d
000003b0: 763f 7bbc 2568 993d da2f d93d 64d9 32bd
000003c0: 9c73 61bd b99b d1bd 6c10 e03b 33bf 203c
000003d0: cfd0 bb3d 7a43 5dbd 4033 85bd 76f9 26be
000003e0: ff99 93bc 922f e6bd 6b61 8cba 316e 63bc
000003f0: 43a2 f0bc d5b6 8f3d 7249 803d 911f 58bd
-0.0094218 0.14421625 0.13140689 -0.05066338 0.1399961 -0.067940675 -0.02272854 -0.005658183
0.137955 0.0657112 -0.07612286 0.039276116 -0.06966636 0.010647398 -0.10402719 -0.044675726
-0.036366306 -0.1365591 -0.10627181 -0.11463901 0.10279125 -0.04949604 -0.12799509 -0.0039287526
-0.043729283 -0.087529965 -0.030256122 -0.05674453 -0.07442958 -0.0904099 0.05852186 -0.09963202
-0.122212216 0.022746915 -0.0015209493 -0.082933135 0.003538469 -0.101353884 -0.0043341815 -0.07929028
0.128273 0.03410284 -0.071227714 -0.020185385 -0.14107183 0.035991628 0.004890297 -0.11178404
-0.11906965 0.012708696 0.013839669 0.07398713 0.1292886 0.0019378265 -0.091913275 -0.00747113
0.0077390037 0.0016453925 -0.015898114 -0.029180994 0.07092511 -0.018901031 -0.075280644 -0.10055766
-0.06708501 0.103348166 0.084908135 -0.032577254 0.0060686576 0.00219979 0.14709741 0.074432656
-0.089040264 -0.07664316 -0.10368273 -0.12839848 -0.015945483 -0.14735016 0.010523105 -0.0353046
0.03417478 -0.019447327 0.016870104 -0.06404903 0.05442734 0.06409319 -0.017919168 0.032171354
-0.031031357 0.079357125 -0.08848419 -0.03522828 -0.043500185 -0.08819715 -0.013149597 -0.02985716
-0.09153152 -0.03711162 -0.09595516 -0.092283525 -0.0060407287 0.014568938 -0.095893316 0.014104275
-0.14797804 -0.04388978 -0.02842461 0.05663483 0.11371347 0.023347868 -0.034735188 -0.016611813
-0.02830694 0.104196645 0.00032605266 0.004997532 -0.0668855 -0.093966685 -0.07056994 -0.073705606
-0.07003233 -0.13101791 -0.12380928 -0.17192556 -0.1290717 -0.0007520066 0.11846569 -0.009027357
-0.057418324 0.014752122 0.1419328 0.118632965 0.17748618 0.08886632 0.036747754 0.19381702
0.18542449 0.23834586 0.12933576 0.14832346 0.17024475 0.17807977 0.17679326 0.11039165
0.18223563 0.014975064 -0.021614483 0.075398125 0.13723172 0.05094701 0.017761754 -0.021417275
0.016702866 -0.039075796 -0.017973756 0.11386401 -0.11211518 0.08620155 0.06071525 -0.051578406
-0.015647464 -0.06395543 -0.08539334 -0.008149345 0.055173125 -0.11886964 0.056210946 0.073794916
-0.013491465 0.022271149 -0.10542881 -0.073413506 -0.013640795 -0.05199338 -0.106136546 0.10619295
-0.013083727 0.026162524 0.03475761 -0.006486154 0.060423285 -7.9786245e-05 0.012027409 0.07800035
0.05592995 0.028929897 -0.06885326 0.12841761 0.020890936 -0.07496119 -0.08863293 -0.025987998
0.02751284 0.10067198 0.110908344 -0.015437509 0.02662528 -0.09390468 0.10627836 0.017972054
0.021890664 -0.08815614 0.11083163 -0.077558696 0.0145668825 0.08999356 -0.07907992 0.027612587
-0.046042487 0.095162615 -0.0014248956 -0.06830341 -0.03262481 -0.06575667 0.05842282 0.014874837
-0.09325803 0.11830899 0.095209934 -0.10426765 -0.09072716 0.07685343 -0.106715254 -0.10888881
-0.12516765 -0.04169626 0.093287565 0.13296178 -0.008098513 0.11259947 -0.037955586 0.059019856
-0.037352886 0.07392453 -0.058739793 0.075406864 -0.0153349545 0.07490567 0.1060483 -0.04366435
-0.055041894 -0.1023478 0.006837895 0.00981121 0.091706865 -0.05401943 -0.06503916 -0.163061
-0.018017767 -0.11239542 -0.0010710185 -0.013881252 -0.029374247 0.07017294 0.062640086 -0.05276448

bias f4 [32]
00000000: 9f26 933d 59ed a8be 8c29 f0bc adf4 b23d
00000010: 0b9e 9e3b 26de cfbd e238 3b3d df46 25bd
00000020: 6239 f23b 20b5 ccbd 174c 25be 8fb1 1fbd
00000030: b987 053e 665a 94bc 8edb d1bd 4f66 7f3e
00000040: e7c3 a83d b427 ef3d 67e1 0dbe 37ff 48bd
00000050: b883 a93c dd81 883d 7559 1fbe bf1b 6ebd
00000060: 2d3e 133d bf87 94be e323 083c ea4c 04bd
00000070: e4a2 873e c636 a2bd fa97 9ebd 2fc8 53bd
0.07185101 -0.32993582 -0.029316686 0.087380745 0.0048406175 -0.10149793 0.045708545 -0.04035079
0.0073920945 -0.09995484 -0.16142307 -0.038987692 0.13040055 -0.018109512 -0.10246955 0.24941371
0.082404904 0.11677495 -0.13855515 -0.049071517 0.020692691 0.066653945 -0.15561469 -0.05813193
0.035947967 -0.29009816 0.008309337 -0.032299913 0.26491463 -0.079206035 -0.07743831 -0.05170458

weight f4 [32, 32, 5, 5]
00000000: 31bf 863b 55b1 9b3c c7ce 563c 26ee e6bc
00000010: 4012 b3bc 68fe 9fbc c9a6 323d 1b79 64bb
00000020: 973e 4b3c efe3 49bb 4819 5f3c 139c d63c
00000030: 91ea b23b 82ff 723c 5ed2 a0bb 5d65 efbc
00000040: add2 98bc 22b2 9b3c ad25 4f3d 3fdd 6f3d
00000050: bfb5 07bd 824a b0bc 9372 e2bb 0a63 523d
00000060: 4570 473d 75c7 25bc ab92 e6bb e591 ba3c
00000070: 1ba5 98bc 92d0 c2bc d088 e7bb 2f79 273c
00000080: 08b8 db3b 0324 9dbb 1f21 4abc b519 1b3c
00000090: a93f 3f3c c603 31bd a3e4 20bd 029b e33c
000000a0: 9aa3 323c 5f0e babc a41a babc a1a3 fcbc
000000b0: 264f 17bc 5095 d53c d3e6 d2bc 6ecb 243c
000000c0: 1f81 ce3c 94c9 0fbd 3b1b b53c 12fa dfbc
000000d0: 2892 99bc e4c2 a33c 33d4 bcbc 84c6 f6bc
000000e0: 2caf 10bd 521d 8c3c a940 d5bc 246c 7cbc
000000f0: 4b69 243a 2d07 cfbc 8db0 29bd fafa 063d
00000100: a01b b93c 507a f33c d941 1bbd bec1 3ebd
00000110: 9457 0e3b c249 fb3c 0d10 10bd d686 be3b
00000120: bb93 8b3a 2110 253c f365 04bd 6687 1f3c
00000130: b13a 723a 9b75 0c3d 2c51 723a 716e 143b
00000140: 0619 2cbd 4bf7 b6bc dc43 aebb 17bb fe3c
00000150: bb69 86bc cefd acbc 866e 8cbc c92f 5a3c
00000160: 2880 82bc 6a9f 4e3d 772a 283b 0235 34bd
00000170: 2e2b 45bd e8e9 d83c 8a06 243d 2344 d7bc
00000180: e466 113b c76e 58bc 6960 26bd d632 de3a
00000190: c4e3 f13c b869 f33c de60 adbc d5e5 e3bb
000001a0: 309a 00bd 8614 bfbb e741 9bbc 451b 80bb
000001b0: 2cd9 c2ba f776 123d 37f3 193c 2409 873b
000001c0: 0fe4 66bc 040b 033a baae 16bc d191 b13c
000001d0: 6884 1b3c eb4d f4bc a8f9 003d 774d f03c
000001e0: 72d8 86bc fb56 6a3a f916 c93c af5f d33c
000001f0: 749f 49bc 2843 c23b 6158 b23b f2c6 753c
00000200: e6cd 7bbb 52db 8a3b 47f0 113d 5ef2 e8bc
00000210: e33d 073d ac56 643c 6165 c5bc b3e5 8dbc
00000220: 3195 233c 0ac0 efbc 3cc3 d23b 806c 7fba
00000230: ee5d b5bb 27e6 32bd e46e 29bd 2a37 043d
00000240: 5f69 c13c e455 f8bc bb80 3cbb 8e2c f5bc
00000250: 1b7e f2bc 81be 813c f22c 2e3c 37b5 0f3d
00000260: a36d af3c 720e 433c 9461 56bc a684 d0bb
00000270: b10f 6fbc 8550 2cbc a2e5 c33c 7fbb 14bc
00000280: a688 ad3c c736 c6bc 540a 95ba 537d 1b3d
00000290: c09c 81bc edc5 2bbd 7353 d6bc 3cd1 b7bc
000002a0: 0908 843b b26c a83c 7de3 a1bc c979 dcbc
000002b0: 1bcc bebc 287b b8bc 57a9 0c3c 20a2 6cbc
000002c0: 7084 843c 0ec9 17bd 5bfe acbc 046c 033d
000002d0: bde7 a1bb de15 2bbc b15b 41bc 7db3 8c3c
000002e0: 2908 323c 79e6 4f3c 8bba e139 e0ff 09bc
000002f0: e026 f2bc 9214 f9bc 832d 3a3d 1389 553d
00000300: ec7d ef3c ccef 91bc fc16 c9bc 0262 c1bc
00000310: 6068 74bb 6cc2 a73c ae73 aebc c7e0 34bc
00000320: a3a0 543c 418a af3c 9715 1e3d ab7b ae3c
00000330: 1548 21bc 4c9b 0bbd 0966 ffbc 1d55 193c
00000340: b28f 5f3c 4193 413c 8584 ddbc 0cf6 9abb
00000350: cd4d 12bb 8792 d63c cd13 d2bc 801a 11bd
00000360: a0c1 863c 29de 4c3d 8d7c 793d 407c f43c
00000370: 82e4 9dbc 851e 34bd 9c57 913c cfa6 533d
00000380: 1f44 b83c 89b2 df3c 663a 50bb c7b9 36bc
00000390: cfcd 883c acfc 123c aaec 54bb fe7a 35bb
000003a0: 1a08 2fbc 7eab 8b3c f3c1 263d 9526 0a3d
000003b0: 7f4a 693c 4abe fcbc 90a8 81bc 0a66 843c
000003c0: 9c69 b9bc 28db 7abc cc7b 36bd 9ac1 3cbc
000003d0: caf6 dcbc 017e c53c f2db bb3c 0a45 2dbd
000003e0: 9273 3bbd 1b37 84bc 6a5e 153b 2039 0bbd
000003f0: bcbc 71bc a624 123d 8e3b 1a3d c757 59bb
0.0041121473 0.019005457 0.013110823 -0.02818973 -0.021859288 -0.01953049 0.04361609 -0.0034862224
0.012405059 -0.0030806025 0.013616867 0.026197469 0.0054600914 0.014831426 -0.00490789 -0.029223138
-0.018655146 0.019005839 0.05057304 0.058560606 -0.03313231 -0.021519903 -0.006910631 0.051363982
0.048691053 -0.010118355 -0.007036527 0.022774646 -0.018633416 -0.023781095 -0.00706587 0.0102217635
0.006705288 -0.0047955527 -0.012336998 0.009466578 0.011672893 -0.04321649 -0.039280545 0.027783874
0.010903263 -0.02271193 -0.022717781 -0.030839743 -0.009235179 0.026072174 -0.025744831 0.010058267
0.025208054 -0.03510435 0.022107711 -0.027340923 -0.01874645 0.019990392 -0.023050403 -0.030123957
-0.035323307 0.017103825 -0.026031809 -0.015406642 0.00062717934 -0.025271976 -0.041428138 0.032954194
0.02259618 0.02972141 -0.037904594 -0.046571486 0.002171968 0.030674819 -0.035171557 0.0058144135
0.0010648886 0.010074646 -0.03232379 0.009736871 0.0009240313 0.034291845 0.0009243663 0.0022648836
-0.04201605 -0.022334715 -0.005318148 0.03109507 -0.016407838 -0.021117117 -0.017142545 0.013317057
-0.01593025 0.050444998 0.0025660077 -0.043995865 -0.048136882 0.026478723 0.0400453 -0.026277607
0.0022186572 -0.013210005 -0.040619288 0.0016952406 0.029527552 0.029713497 -0.021164354 -0.0069548883
-0.031397045 -0.005831304 -0.018952323 -0.003909501 -0.0014865748 0.035757985 0.009396366 0.0041209627
-0.014092459 0.0004998895 -0.0091969315 0.021675976 0.009492017 -0.02982231 0.03148809 0.029333813
-0.016460631 0.00089393527 0.024547087 0.025802461 -0.012306083 0.005928416 0.0054426645 0.015001046
-0.0038422286 0.004237571 0.035629537 -0.028435882 0.033018004 0.01393668 -0.024096193 -0.017321443
0.0099843005 -0.029266376 0.006431965 -0.0009743646 -0.005534879 -0.04367652 -0.04136552 0.03227917
0.023609815 -0.030314393 -0.0028763253 -0.029928472 -0.029601147 0.01583791 0.010630833 0.03508493
0.021414584 0.0119052995 -0.013084788 -0.006363469 -0.0145911435 -0.010517244 0.023913208 -0.009077906
0.021183323 -0.024196042 -0.0011370876 0.037961315 -0.015821815 -0.041936804 -0.026162839 -0.022438638
0.004029278 0.020559642 -0.019761795 -0.02691354 -0.023290684 -0.022519663 0.008585296 -0.0144429505
0.016176432 -0.037056975 -0.02111738 0.032085434 -0.0049409554 -0.010442225 -0.011801646 0.01717543
0.010866203 0.012689226 0.0004305433 -0.008422822 -0.029559553 -0.030405317 0.04545356 0.052132677
0.029234849 -0.01781454 -0.024547093 -0.023606304 -0.0037293658 0.02047845 -0.021295395 -0.011039919
0.012977752 0.02142823 0.03859481 0.021299204 -0.009843846 -0.03408365 -0.031176584 0.0093586715
0.0136450995 0.011814893 -0.02704073 -0.004729038 -0.0022324205 0.026192917 -0.025644207 -0.035425663
0.01644975 0.050016556 0.060909797 0.029844403 -0.019274 -0.04397442 0.01774197 0.051672753
0.02249342 0.027306812 -0.003177309 -0.011152691 0.0166997 0.0089713745 -0.0032489696 -0.0027691717
-0.010683084 0.017049547 0.04071231 0.0337282 0.014238953 -0.030852456 -0.015827447 0.016161937
-0.022633366 -0.01531104 -0.044551656 -0.011520768 -0.026973147 0.024107935 0.022932027 -0.04230217
-0.045764513 -0.016139558 0.002279187 -0.033990026 -0.01475447 0.035679482 0.037654452 -0.0033163892

bias f4 [32]
00000000: b8cf c2bc b141 89bd 25ab 87bd f2fe ce3b
00000010: 401c b93c a421 c3bd 08f1 5fbd 6dda 883d
00000020: 9850 213d 0dc0 5dbd 617a 3a3c 8b06 9bbd
00000030: 0bb9 2238 4aa8 61bd 392d a8bc 50e5 e7bc
00000040: 6e9b 03bd b687 0abd f8b6 fdbb 3d18 373d
00000050: 0cdd 553d 9597 47bc bf10 90bc 7981 87bc
00000060: f2f7 053d 2333 86bc 0f1e 943c 1d3b 39bd
00000070: 2d0a 8e3c dd34 213d a7f5 03bd a09e 213b
-0.023780689 -0.06701983 -0.0662444 0.006317013 0.022596478 -0.09527901 -0.054673225 0.066822864
0.0393835 -0.054138232 0.0113817165 -0.07569607 3.8796145e-05 -0.055092134 -0.020529376 -0.028307587
-0.03213065 -0.03382083 -0.007742759 0.04470085 0.05221276 -0.012182136 -0.01758611 -0.01654123
0.032707162 -0.016381806 0.01808074 -0.04522239 0.017338837 0.039357055 -0.032216694 0.0024661198

weight f4 [64, 32, 5, 5]
00000000: 9205 003c 8fd6 943c 049f c6bc c35d b3bc
00000010: cb1f 2e3d f489 94bc 6bfe 0a3c fb15 28bd
00000020: fcec c13b 480c c53c 16fd e2bc 0fdb bbbc
00000030: 84a2 40bc 29fe cbbc e0e0 003c 297b 01bc
00000040: 0c90 013d 757b 663c b7b0 b73c b9b9 8f3b
00000050: e6a7 0ebd 16de 3bbc 3ef4 483c ab3d 05bd
00000060: 48a7 633c 49bd 903b f253 23bd c30b 413b
00000070: 6972 4e3b ed74 e83b d395 bebc 4e67 a5bc
00000080: fe69 ccbc 732b 1f3d 7414 043c 17cd 33bb
00000090: ef95 823c 63f0 043d 35cc a43c 946b 343d
000000a0: c925 fdbc 1940 0ebd 1f13 a7bc 115c c0bc
000000b0: e86f d83a ddbe ce3c 48e4 6a3c 77ab 783c
000000c0: eebe 003d 7196 73bc c1e1 c8bc ef9b 6abc
000000d0: 2b60 eabc ac9b a33c 3360 82bb 4724 f73c
000000e0: 0c3f 13bd 1f94 5ebc 6ed2 4d3c 278b 62ba
000000f0: 44e2 1fbb 89dc a6bb d589 963c 6d87 043d
00000100: f4db 433d 51d9 a43c a155 92bb 7123 223a
00000110: c421 183d 12f4 923c fdaa 96bc 746e 493c
00000120: 3182 213d 7243 26bc 19dc aebc 7138 913c
00000130: 8e3e 8a3c 8b66 4fbd f48f b2bb b48e 1f3b
00000140: 9777 e73c 95d0 95bb 654d 2abd f159 28bc
00000150: 6b58 8dbc 2eea f63c 0f38 26bd 6f9f b9bc
00000160: 4c8d b03c aa9c 0a3d d69d 27bd 6300 afbc
00000170: cd97 0abd 18df c3bc c853 c9bb 8fa7 c73c
00000180: d329 05bd b48a 003c ea35 123d f5b7 b5bc
00000190: dcfd ddbc 3120 42bc 6b69 023d 0a72 093d
000001a0: 1c92 803c b471 123c 6ef3 b3ba d539 673c
000001b0: 78fe 13bc 66fb 7cbc dfb0 29bc 2bbe 8f3c
000001c0: 08f8 643c 1798 113d 25bc d53b fc13 a6bb
000001d0: c951 c4bc 0bc9 aa3c 486b 66bc 980d ecbc
000001e0: 4aea 003d 088d f73c 4e35 e739 0b4d 993c
000001f0: 3f9a 863c d5c3 9bbc 06e7 32bd a316 1839
00000200: 720f 093c 61f3 ae3a 3b28 abbc f97b da3c
00000210: 0be1 293c b167 603b d4e4 5c3c aef1 113d
00000220: b076 13bb fd8f 703c d144 0c3d f1f1 ce3b
00000230: cbb3 94b9 eef5 e23c 95ab c83c a243 babb
00000240: cbb1 423c 3e10 923c 90f3 e7bc 595c fe3c
00000250: ac04 153c dd27 273d f6f2 67bc 73b3 e13c
00000260: 7380 c5b9 5bbe 9f3c 5864 bd3c 09e1 5cbc
00000270: 2e30 bf3b 642b a5bc 3958 89bc e5a3 a63c
00000280: d4ec bfbc 8bdf c53c c74c 143d ce64 3c3d
00000290: 705f 9f3c 043a 343c 8162 873c bc80 83bc
000002a0: c541 e03c c3bd 0a3c ae79 fa3c 1c1e 293c
000002b0: d295 8c3c af78 0b3d 9725 273d cc14 4d3b
000002c0: 365c 113b 0c7d c23c f3a0 06bc 547e 7e3c
000002d0: 91ae 16bd 75be 9ebc 4e6c 133d c0d0 6b3c
000002e0: 0b40 8ebb 31e3 71bb 86f4 123c 501a 8fbc
000002f0: 7e2e 6e3b 29d5 f63c 90ae fd3c bc93 063d
00000300: dd0e 383d 7b80 7bbc b694 653c ee23 a23b
00000310: e063 863c 7375 6b3c 0ca2 f33b 4682 0b3d
00000320: e6b6 993c 611b 413d 4881 013d 728c edbb
00000330: ef76 17bd 1ef1 c23b 330f 0b3d d5ad 34bc
00000340: 867d bfbc 1f32 aabc 9572 83bb ae05 d73c
00000350: 8ff6 d8bc 903d e5ba 7607 ebbc 4828 32bc
00000360: 6509 5c3d f2d9 303d 0c1d 053c 2c12 d83c
00000370: 38ac 02bb 2d42 203d 822b f73c a7c7 51bc
00000380: 9549 bb38 fb92 083c 0e3d b03c 2cf2 c13b
00000390: 0920 b93c f334 0a3d bafb 6f3b 93c2 0f3d
000003a0: 727d 593c d118 edbc 6f6b 8b3c ccb6 0f3d
000003b0: 6e24 5cbc f3b4 ccbc b446 14bd 03e3 1bbd
000003c0: 6242 b0bb 7bec 253d ec8c 643d e3ba 413d
000003d0: 5677 9fbc ef98 a83c be14 803c 0e6a 1e3c
000003e0: e957 01bd 7331 1ebc 634f a0bc 1403 c6bc
000003f0: 439d fbbc 49c2 0c3d a8af 7cbc fa9e cebc
0.007813828 0.018168716 -0.024245746 -0.021895295 0.04251079 -0.018132187 0.0084835095 -0.041036587
0.0059181433 0.024053708 -0.027708571 -0.022931604 -0.011757497 -0.024901466 0.007866114 -0.007902899
0.031631514 0.01406752 0.022423131 0.0043861535 -0.03482809 -0.011466524 0.012265263 -0.032529514
0.013894863 0.004417096 -0.03987498 0.0029456473 0.00315013 0.0070940168 -0.023264801 -0.020190861
-0.024952885 0.038859796 0.008061517 -0.0027435475 0.015940635 0.032455813 0.020116905 0.044047907
-0.030901806 -0.034729097 -0.02039486 -0.0234814 0.0016512843 0.025237495 0.014336653 0.015177599
0.031432085 -0.014867411 -0.02452171 -0.014319404 -0.02861031 0.019971691 -0.003978753 0.030168666
-0.035948798 -0.0135851195 0.012562377 -0.0008641951 -0.002439634 -0.005092208 0.01837627 0.032355715
0.047817186 0.020123156 -0.004465774 0.0006185091 0.037141576 0.017938647 -0.01839208 0.0122944005
0.0394308 -0.010147916 -0.021345185 0.017727109 0.016875532 -0.050634902 -0.0054492895 0.0024346532
0.028255267 -0.004571984 -0.041577715 -0.01027535 -0.017254075 0.030140962 -0.040580805 -0.022659032
0.02155175 0.033840813 -0.04092201 -0.02136249 -0.033836175 -0.02391009 -0.0061440207 0.02437189
-0.03251059 0.007845569 0.035695948 -0.022182444 -0.027098589 -0.011848495 0.031838816 0.03355602
0.01569467 0.008938242 -0.0013729164 0.014112909 -0.009032838 -0.015440797 -0.010357111 0.017546734
0.013975151 0.035545435 0.0065226727 -0.0050683003 -0.02396478 0.020847818 -0.014063664 -0.028815076
0.031473435 0.030218616 0.00044099469 0.018713495 0.016430972 -0.019014278 -0.043677352 0.00014504282
0.008365499 0.0013347679 -0.020893207 0.026670443 0.010368596 0.0034241492 0.013482291 0.035630874
-0.0022501163 0.014682767 0.034245316 0.0063154628 -0.00028362716 0.027705159 0.02449588 -0.005684332
0.011883209 0.01783001 -0.028314382 0.031049894 0.009095352 0.0408095 -0.0141570475 0.027551388
-0.0003767047 0.019499948 0.023119137 -0.013481387 0.005834601 -0.020162292 -0.0167657 0.020341823
-0.023428358 0.024154445 0.036206033 0.045994572 0.019454688 0.01100016 0.016526463 -0.016052596
0.027375111 0.008468094 0.0305756 0.01032212 0.017161284 0.03405064 0.040807333 0.0031292913
0.0022180206 0.023741268 -0.008217084 0.015533049 -0.036787573 -0.019377926 0.03599196 0.014393032
-0.0043411306 -0.0036909098 0.008969432 -0.017468601 0.003634363 0.03013094 0.030967027 0.032855734
0.04493605 -0.015350456 0.014012506 0.004948131 0.016405046 0.014371264 0.007435089 0.034059785
0.01876397 0.04714525 0.031617433 -0.0072494084 -0.03697866 0.0059491536 0.033950042 -0.011027773
-0.023375284 -0.020775853 -0.004011462 0.026247825 -0.026484756 -0.001748966 -0.028690081 -0.010873862
0.053719897 0.0431766 0.008124601 0.026375853 -0.0019939076 0.03912561 0.030172113 -0.0128039485
8.9305606e-05 0.008335824 0.021513488 0.0059187617 0.022598283 0.033741903 0.0036618547 0.03509767
0.013274537 -0.028942497 0.017019002 0.035086438 -0.01343642 -0.024988627 -0.03620024 -0.038058292
-0.005379007 0.04050873 0.055798456 0.04729737 -0.019466083 0.020580737 0.01563489 0.00966884
-0.03157798 -0.009655344 -0.019569105 -0.02417139 -0.030714637 0.034364972 -0.015422739 -0.02522229

bias f4 [64]
00000000: 1883 91ba c9a9 ccbc a1e1 57bd b551 473b
00000010: a4f5 e03b 6b44 cebc 7048 cfbc 1524 8c3c
00000020: bf46 a5bc f465 b8ba ca24 9abc d2be 2fbc
00000030: ff00 12bc dff4 5abc 778f dabc ac06 7d3c
00000040: 12be c4bc b5f2 b7bc 42e0 f6bc e427 aa3b
00000050: 0c0c a4bc cf34 dd3b be68 98ba 19ed 89bc
00000060: 0570 a5bb e5bd 9cbb 3d6a 8ebc 6e80 103c
00000070: d248 d83a db14 f2bc 708c 9e3b fd7f 2e3c
00000080: 73fb 0e3d 074a 9a3b a83d 2abc 2676 073c
00000090: 5ef9 393b a8d4 3bbd cc92 adbc 3890 4ebd
000000a0: 739b 8bbc 0f35 933a aa98 253d d54b 393c
000000b0: 6a81 0cbd 7765 e4bb b533 a9bb 597c a2bc
000000c0: ceae a9bb 4758 a53c 2613 59bd 0873 1dbd
000000d0: f7fc b1bc 5691 11bd ea36 c73c d15b 1e3d
000000e0: 563e f53c de5b 23bd 133b 133d 7dd4 fbbc
000000f0: 60db 20bd 718e 973c 0661 523c 67d5 493c
-0.0011101691 -0.024983304 -0.05270541 0.0030413691 0.00686522 -0.025179109 -0.025303096 0.017107049
-0.020175336 -0.001406847 -0.01881637 -0.010726647 -0.00891137 -0.013364046 -0.026679737 0.015443485
-0.024016414 -0.022454599 -0.030136231 0.0051927436 -0.020025276 0.00675068 -0.0011627895 -0.01683669
-0.005048754 -0.0047833794 -0.017384643 0.0088196825 0.0016501194 -0.02955096 0.004838519 0.010650632
0.03490777 0.004708532 -0.010390677 0.008267915 0.0028377394 -0.0458571 -0.021188162 -0.050430506
-0.017041897 0.0011231023 0.040428795 0.011309584 -0.034303106 -0.0069701034 -0.0051636347 -0.019834684
-0.005178309 0.020183695 -0.052996777 -0.03843978 -0.021727068 -0.035538994 0.024318177 0.03866178
0.02993695 -0.039882533 0.03594501 -0.03074097 -0.039271712 0.018500539 0.012840515 0.0123189455

weight f4 [64, 1024]
00000000: ee55 27bd 23b3 fe3b 9798 9d3c fc8f be3c
00000010: 0fde 303c bbcf e23c 194c 6e3c 66a2 79bc
00000020: 48dc f1ba 3cd4 4f3b 1cbf 143d c281 07bc
00000030: ef5f 45bc 6b75 36bd 9a3d 9a3b 38b2 aebc
00000040: bfbe a4bb 45f0 ca3c ef59 9fbc 5a22 76bb
00000050: 6e82 0aba 08f0 88bb 332b e93b b388 65bc
00000060: b553 84bc e151 3b3c ab5f e4bc 1472 0d3d
00000070: 42fc bf3c 74f4 b93a f6ac 7b39 b85c 95bc
00000080: 6e1f 31bb 9545 303c 0945 3dbc 751f 6dbc
00000090: b2d5 39bc 81cd 0a3d 495c a93c 7241 ad3c
000000a0: b180 9fbc 6407 c8bc 4bbb 69bc e8cf 23bc
000000b0: 52cd c53b adfc bd3c 798a 4b3c fc0e 9ebc
000000c0: b879 c7bc d8ca 37bc d912 bebb 1107 f3bc
000000d0: 83a2 fbbc e8a5 153c a60d e13c cbb2 4ebc
000000e0: 8498 4fbc 95e4 343c cfcd b63c 9802 fd3c
000000f0: fb63 8abb 9546 e03c 6575 003d 39ef d03c
00000100: fd65 cc3c c8b1 093c e3f5 2bb9 c9de a93c
00000110: 62cf 2abc 79df 96bc 633e 213c e149 a63c
00000120: 2b74 23bc c3b3 793c e1a3 0d3b 245c 63bc
00000130: 9309 d0bc 911c 913c 7e2d c3bc 8427 9d3c
00000140: 3020 a2bc 2ac8 a83c 5e3d 883c 8239 3dbc
00000150: 88cc f7bc 3705 803c 8511 553c 9adb 1c3c
00000160: 840d 25bb 826b e73c ba79 7cbb e44e 58bc
00000170: 5b84 fa3c 0e12 793c 0cb1 3c3c f614 933c
00000180: 3ab8 3fbc cd42 80bc e4e3 1abc cffe 983c
00000190: 5978 62bb 9087 87bc 3d4f 17bc 0b55 91bc
000001a0: bff2 0a3d b970 013d 8aac d8bc b18a e43c
000001b0: 355d fdbb 842d 643c d912 ff3c 8361 a2bc
000001c0: 4db0 4b3c b6ba 25bd 8da0 4ebb d381 e63c
000001d0: ea02 063d 8727 21bc da00 0a3d d088 973c
000001e0: 3fc1 193b 2868 bcbc 179a 0d3d e81e d63c
000001f0: 3faa 3a3d 1703 3fbc 50ad 70bc 6af8 833c
00000200: cea8 b4bc 24a8 823c 95f9 9d3c 8a4f 79bc
00000210: c30a ad3c eebc caba 4803 283d 95cf d33c
00000220: cadf 033d 783d 433d 060d d93c 4d4e 243d
00000230: 44fa 6abc b616 56bc c1fe 3bbc 2e6c 01bd
00000240: 906c 8d3c a180 25bc a8c8 453c 97a8 09bb
00000250: 97e5 fb3c 3546 f13c fd39 223d 5077 9b3c
00000260: 8561 363c 452c 543d cd19 f23c ceb3 d9bb
00000270: 2a5d 00bd 9f24 05bd bcef 06bd ef5c 87bc
00000280: 3a26 043d 16fa 9ebb 60c5 83bc dc66 82bc
00000290: 0d3c 023d d829 813c 71fc a53c e1e8 313d
000002a0: 3b1c fe3c 8515 95bc 1c79 5e3c c4fb 6c3c
000002b0: 19ab acbc b7e9 c0bb 77d3 333c e611 843c
000002c0: f649 973c 05e2 e33b 54dc dbbc f01e 8cbc
000002d0: db1a d2bc 6cd4 55bc b1f4 1fbc aa61 a1bc
000002e0: fbde fcbc 17a9 393b 155a a3bc f0bd 063c
000002f0: b784 c1bb 46e4 153c b568 e83c 6639 fa3b
00000300: 7996 093c 1c56 f1bc 9e9c 5b3c 1abf 09bc
00000310: e44b 953c 3487 e2bc b77d dcbc 4c17 593c
00000320: 0c64 933a ce56 fcbc 2897 b13c b23b 1bba
00000330: 593e fd3c 17e7 33bc c54a cdbc 8aa7 fbbc
00000340: 01dd c83b 04bf 56bc 94b5 40bc 4b0f 873c
00000350: 8345 06bc bab5 f23c 504b 0d3d f99a 743c
00000360: 80b4 2a3c cae7 7c3c d923 a7bb 26aa d43c
00000370: a89f 02bd 3444 b2bc 3060 cebb bf26 f9ba
00000380: 8291 643a 6cea feba 9851 f03c bebd 16bb
00000390: cfd7 d43c e07c bb3c 9b7b e9b9 3057 ea3c
000003a0: 1663 9c39 d52c c5bc b1ed 4e3c 00f8 12bd
000003b0: f8a6 5f3c 25ae 59bc c9b5 a03c d39a 483c
000003c0: 3df9 2d3c 10d0 a73c d2df d23c 4a0c b8bc
000003d0: 4b22 89bc 030b c2bc dfc8 583c 0082 453b
000003e0: bbec d33c aeab cbbc afe1 f93c d266 ac3b
000003f0: f5c0 6638 a54c 74bc cc04 83bc 2f0b 64bc
-0.040853433 0.0077728196 0.0192378 0.023262016 0.01079513 0.027686944 0.01454451 -0.015236473
-0.001845249 0.0031712195 0.03631507 -0.008270683 -0.012046798 -0.044545572 0.0047070505 -0.021325216
-0.0050276215 0.024772773 -0.019452063 -0.0037557096 -0.0005283718 -0.0041790046 0.0071157455 -0.014009642
-0.016153196 0.011433096 -0.02787765 0.03453262 0.023435716 0.0014187233 0.00024001658 -0.018232688
-0.002702679 0.010758777 -0.011552104 -0.014472832 -0.011342453 0.03388739 0.020673888 0.02114937
-0.019470545 -0.024417587 -0.0142658455 -0.009998299 0.006036439 0.023191774 0.012423151 -0.019294254
-0.024350032 -0.011217795 -0.0058005867 -0.029666455 -0.03071714 0.009133793 0.027472328 -0.01261587
-0.01267064 0.011040826 0.022314934 0.030885026 -0.0042233444 0.027377406 0.031361956 0.025504695
0.024950976 0.008404203 -0.00016399431 0.020736115 -0.0104254205 -0.018417107 0.009841534 0.0202989
-0.009976427 0.015240612 0.0021612572 -0.0138769485 -0.02539519 0.017713817 -0.023825403 0.019183882
-0.019790739 0.020603258 0.016630825 -0.011549355 -0.030248895 0.015627487 0.013004665 0.0095738415
-0.0025185058 0.028249506 -0.0038524703 -0.013202403 0.03058069 0.0152020585 0.011516821 0.01795433
-0.011701638 -0.015656853 -0.009453747 0.01867619 -0.0034556596 -0.016544133 -0.0092352005 -0.017740747
0.033922907 0.03160164 -0.02644946 0.027898164 -0.0077320584 0.013926867 0.031136917 -0.019821888
0.01243217 -0.040461265 -0.0031528801 0.028138077 0.032717623 -0.009836084 0.03369222 0.018497854
0.002346113 -0.022998884 0.03457078 0.026137784 0.045572516 -0.0116584515 -0.014689758 0.016109664
-0.022053149 0.015949316 0.019284049 -0.0152167175 0.021123296 -0.0015467682 0.041018754 0.025855819
0.032195844 0.047666043 0.026495468 0.040113736 -0.014341895 -0.013066938 -0.011474312 -0.03159731
0.01726368 -0.010101468 0.012071766 -0.0021005028 0.030749125 0.029452423 0.039606083 0.018977791
0.011131649 0.05180003 0.029553318 -0.006643749 -0.03133885 -0.032505628 -0.032943472 -0.016523806
0.03226302 -0.00485159 -0.016085327 -0.015918188 0.03179555 0.015767023 0.020261975 0.04343498
0.03101932 -0.018198738 0.013578679 0.0144643225 -0.02107768 -0.005887236 0.01097571 0.016121816
0.018467885 0.006954434 -0.02683846 -0.017104596 -0.025647571 -0.013051134 -0.009762929 -0.01969989
-0.030868044 0.0028329545 -0.019940415 0.008223996 -0.0059057134 0.009148663 0.02837024 0.007636237
0.008397692 -0.029460005 0.01340404 -0.008407379 0.018224664 -0.02765236 -0.026915414 0.013250183
0.0011245026 -0.03080311 0.021678522 -0.0005921676 0.030913519 -0.010980389 -0.025060067 -0.030719537
0.0061298613 -0.013107065 -0.011762042 0.016486784 -0.008195284 0.02962767 0.03449565 0.0149295265
0.010419011 0.015436122 -0.005100709 0.02596004 -0.03189054 -0.021761037 -0.0062980875 -0.001900874
0.0008719192 -0.0019448525 0.029335782 -0.0023001279 0.025981812 0.022886693 -0.00044533316 0.028606027
0.00029828463 -0.02406923 0.012629912 -0.035881042 0.013650648 -0.013286148 0.019617932 0.012243944
0.010618505 0.020484954 0.025741491 -0.022466797 -0.016739985 -0.023686891 0.013231485 0.00301373
0.025869718 -0.024862137 0.030503122 0.0052612806 5.501598e-05 -0.014910852 -0.015993498 -0.013918682

bias f4 [64]
00000000: 7528 c1bc ac22 cd3b fcba a5bc 053b 363c
00000010: c864 e6ba 17f1 153d 597b a8bc 5386 9abc
00000020: 1470 9dbc e068 b0bc 0f43 81bc e1be fdbc
00000030: ae74 e0ba cda2 1e3d b0db d039 fbdf d239
00000040: d63a 893b 1cb6 cb3c 3879 63bc 55ca e13c
00000050: 0750 c3bc 6ad0 823c 5abc 843c 4b81 0dbd
00000060: 1460 2a3d b91d 62bc eb5f 8cbb 7e0f 95bc
00000070: 8192 353d 6e44 ba3c 9b89 c5bc 84e8 2d3c
00000080: 3af1 d1bc 6bd6 d03c bb55 4dbc 6498 31bd
00000090: 9705 b7bb 081c eb3c 5022 0bbd f345 27bd
000000a0: 69fc 1dbd 737a a03b 3ba2 e6bc 328d 23bd
000000b0: b360 b53c b248 a33b 29a2 b13b 7bb1 a0bc
000000c0: e73e c4bc b729 a9bc cc9c b43c 1a0c 2d3d
000000d0: a82d f43b 7b08 2c3b 1f81 513b e46c 59ba
000000e0: 0cdd 1fbc f21c f7bc e480 29bd 61e6 593a
000000f0: 2641 073d e280 0ebd e789 c93c 8f4e ca3c
-0.023578862 0.0062602367 -0.020230763 0.01112247 -0.0017577643 0.036606874 -0.02056663 -0.018862879
-0.019218482 -0.021534383 -0.015779046 -0.030974807 -0.0017124617 0.038729478 0.00039836532 0.000402212
0.004187922 0.02486711 -0.013883881 0.0275623 -0.023841871 0.01596852 0.016203094 -0.03454713
0.041595533 -0.013801032 -0.0042838953 -0.018195864 0.04432917 0.022737708 -0.024113467 0.010614518
-0.025627721 0.025492867 -0.012532647 -0.04335822 -0.005585383 0.02869989 -0.03396827 -0.040838193
-0.038570795 0.0048974096 -0.02815353 -0.039929576 0.022140836 0.004983031 0.0054209423 -0.01961588
-0.023955775 -0.020649774 0.022047423 0.04224787 0.0074517317 0.0026250172 0.0031967831 -0.0008294119
-0.0097572915 -0.03016517 -0.041382685 0.0008312222 0.033021115 -0.03479088 0.02460189 0.024695663

weight f4 [10, 64]
00000000: 03e4 0d3d 85f6 fc3d f08e 4cbd 2001 16bd
00000010: a0d4 07be 1d1f e2bd 6fe8 683d 87d0 113e
00000020: 1411 ed3d 9834 f13c 5d35 39be 4366 c63d
00000030: 63c9 31bd 8041 403c 208b 19be bf98 fd3d
00000040: 3c13 023e 513b 2bbe c52b e33d 00a2 b7bd
00000050: 73be e8bc b9db 17be c18a d93b da85 063e
00000060: c37b fdbd fd51 6dbd 07d9 bbbd ec5c b4bd
00000070: 8ae3 edbd 2152 37bd bf73 23bd 8a57 5c3c
00000080: 713a 383e a483 00be 16a8 8cbd 3a45 e53b
00000090: bdb0 cfbd 45fd 93bd fb6f e83d 9619 93bd
000000a0: 998f 123e 377e acbd 1c4f 973d 1556 c83d
000000b0: ff77 423c 1583 0ebe d20f 833d cdb5 50bd
000000c0: ecbc 153e 6258 cb3b 4d19 2abe 7886 54bd
000000d0: 35d6 8e3d 844b 7dbc 7ec3 a63d aeaa 0a3d
000000e0: 3eb9 d63c 5081 4a3e daa2 c03d d716 19be
000000f0: 6acc f7bd 3d12 39bd 74dc bebd 2ad3 853d
00000100: 7507 c33d 3563 01bd 64c1 bb3d 1e1b f7bd
00000110: 1f49 74ba 510e 463c 93dd e2bc 621f 1abe
00000120: db62 f8bd 279e 44bc 57b0 2cbe 94e2 a6bd
00000130: 692b 08bd 8004 00be cb23 153e 27b4 b6bc
00000140: 6b62 57bd 5c9c 283e 5808 4d3d c4a0 e9bd
00000150: 0895 babd b281 c7bd ecc2 8ebc 3c8a 003e
00000160: fc88 793e 3446 113e 4727 da3d 02eb 353d
00000170: 956d 51be fda2 ddbd 0616 64bd ddd8 e63d
00000180: d5da 333e f6d9 093d ab81 9fbd 6f6c 00be
00000190: a22e 86bd 2291 903d dd83 b2bd 0a97 b1bd
000001a0: 409e c73d d0f5 04bc 7ad3 f93c 0cc1 873d
000001b0: e1d3 20be 1c59 1ebe 0e17 07bd a66a 423e
000001c0: c443 37bc 4182 ee3d 6fb8 0dbe 0645 17be
000001d0: 2688 66be 4dc0 0d3e df61 96bd 849c 09bd
000001e0: d370 4b3e 3f91 e33d 0eaa 003d 70a5 373e
000001f0: 71de 65be 76de cabd c4a3 3bbe b24b 20be
00000200: e8c2 39be c6f2 a63c 0e1b 1fbe 1f4d 003e
00000210: 2875 22bd 3a9e 80bd c3cb 603d 7c8d 21bd
00000220: 6746 a4bc 8fa7 e2bd 4278 c43d 6af8 1abe
00000230: ed24 bfbc ba6b c0bc 53b4 1bbe 76aa 013e
00000240: c338 a5bd 6ac4 b6bd 82a7 88bd f34f 773d
00000250: dc67 e83c bc78 6b3d 95fe ccbd 1af5 27be
00000260: 35c3 043d 2c80 853d 616c 80bd 4407 8f3d
00000270: 8305 00be 4941 d23d 5d21 f5bc 9f1f c43d
00000280: dc4d 0e3e 76ca 833d ecd1 efbd 2d2c dcbc
00000290: 5ec9 133e 236e 283d 0d79 c43d 12b8 0cbe
000002a0: 43fc 923d 01ef 543d 40c9 153d e5d8 083c
000002b0: fe22 bd3d e325 1a3e 052b 5b3e 79a9 9b3c
000002c0: 8043 0e3d 9a63 143e 41c8 0b3e 5abf 803d
000002d0: a4f3 6dbd 4717 cf3d 39a3 e73d 87d5 c73d
000002e0: 1a36 403d 6e2f 94bd b6e0 83bc e945 02be
000002f0: aef9 3e3e 346b 1c3d b7c1 933d 2e58 08bd
00000300: d17b e2bd 62f1 a63d f090 2ebe c5d1 d4bd
00000310: ec60 2abd b925 a73d 77b6 ff3b ac66 12bd
00000320: 3dae d7bd 3fb4 c23d 0bdd f53d 95e1 a7bc
00000330: 41d8 c03d 25dc fabd 3fec 0e3e 1689 7bbd
00000340: 729b b03d e097 0b3e 8918 87bd 821e c73a
00000350: a0c2 fe3c 24cd a83d 47fd 0a3e ddd8 23bc
00000360: 6f3f 36bd e7b5 b4bc cd0d a3bd f435 07be
00000370: f83d 753d 6ca7 723d 4d89 0e3e 27a8 4ebc
00000380: 9608 98bd 3e03 1d3d 4c9b 9d3d 11d0 78bd
00000390: 0ffd 013e 55a9 873d a4fd 613d e9cc 023d
000003a0: ed07 d13d b18d 153e 5307 16be b604 0cbd
000003b0: 3fa3 393d 6c82 653d 557c 033e 8245 11be
000003c0: 3c29 5abd f4ed 0cbd 33e6 87bd cd21 013d
000003d0: 14e2 8b3d 7073 f13d 45b9 813d 109d 61bd
000003e0: 2c59 c1bd 036a 1abe 6a05 933d 6fe4 f4bc
000003f0: c337 b63d 460e fbbd 40aa 513d a5af 08bd
0.034641277 0.12351707 -0.049941003 -0.036622167 -0.13264704 -0.11041091 0.05686229 0.14239703
0.11575523 0.029444024 -0.18086763 0.096874736 -0.043404948 0.011734366 -0.14994478 0.1238265
0.1270265 -0.16721846 0.11092333 -0.08966446 -0.028411126 -0.14829911 0.006638855 0.13136998
-0.12377121 -0.05793952 -0.09172254 -0.08806786 -0.11615665 -0.04475606 -0.039905306 0.013448605
0.17991044 -0.12550217 -0.06867997 0.006996778 -0.10141132 -0.07226042 0.113494836 -0.071826145
0.1431259 -0.08422511 0.07388136 0.09782044 0.01186943 -0.13917191 0.06399502 -0.05095463
0.14622849 0.0062056044 -0.16611214 -0.051886052 0.069744505 -0.015459899 0.08142756 0.03385418
0.026211377 0.19775891 0.094060615 -0.14950119 -0.12099536 -0.04518341 -0.09319392 0.06534417
0.09522907 -0.03158875 0.09167746 -0.12065719 -0.0009318757 0.012088374 -0.027693545 -0.15051034
-0.1212823 -0.012000597 -0.16864143 -0.08148685 -0.033244524 -0.12501717 0.14564435 -0.0223027
-0.052584093 0.16465896 0.050056785 -0.11407617 -0.09110457 -0.09741534 -0.01742693 0.12552732
0.24368662 0.14186937 0.10652023 0.044413574 -0.20451958 -0.10822103 -0.055685066 0.11271832
0.17563947 0.03365513 -0.07788404 -0.12541364 -0.06551863 0.07058932 -0.08716557 -0.086713865
0.09746981 -0.008115247 0.030496348 0.06628618 -0.15705825 -0.1546368 -0.03298097 0.18985996
-0.01118559 0.11645938 -0.13839887 -0.14772424 -0.22512874 0.13842888 -0.07342886 -0.03359653
0.19867258 0.11111688 0.031412177 0.17934203 -0.22448136 -0.09905712 -0.1832419 -0.15653875
-0.18140757 0.020379435 -0.15537664 0.1252942 -0.03966251 -0.06280179 0.054881822 -0.03944157
-0.020053102 -0.110671155 0.0959325 -0.15133825 -0.023333037 -0.023488868 -0.15205507 0.12662682
-0.08067467 -0.08924182 -0.066725746 0.06037898 0.028369837 0.05748819 -0.10009495 -0.16402093
0.032412726 0.065185875 -0.06270672 0.06983808 -0.12502103 0.102663584 -0.029923135 0.09576344
0.13896888 0.06435101 -0.11709961 -0.026876533 0.14432284 0.04112066 0.09593401 -0.13742092
0.07177021 0.051985744 0.03656888 0.008352493 0.0923519 0.15053515 0.2140313 0.01900171
0.03473234 0.1449112 0.1365061 0.062864974 -0.058093682 0.10111862 0.11310429 0.09757524
0.046926595 -0.07235609 -0.016098361 -0.12721981 0.18649933 0.038188174 0.072146825 -0.03328722
-0.11058772 0.08151509 -0.17047477 -0.10391573 -0.04159634 0.08161492 0.007803734 -0.035742447
-0.1053128 0.095070355 0.12005051 -0.020493308 0.09416247 -0.122490205 0.13957308 -0.061410032
0.08623399 0.13632154 -0.065964766 0.0015191587 0.031098664 0.082422525 0.1357318 -0.010000435
-0.04449409 -0.022059394 -0.07961617 -0.13204175 0.05987355 0.059241697 0.13919564 -0.012613333
-0.07423513 0.03833317 0.07695636 -0.060745303 0.1269419 0.066240944 0.05517353 0.0319337
0.1020659 0.14604832 -0.14651231 -0.03418418 0.0453217 0.056032583 0.12840398 -0.14186671
-0.05326198 -0.034406617 -0.06635704 0.031526376 0.0683023 0.11789596 0.063341655 -0.055081427
-0.09440836 -0.15079503 0.07178767 -0.029894082 0.088973545 -0.12258582 0.051187754 -0.033370633

bias f4 [10]
00000000: b49a 60bd 0b7b 0d3e 404e 743b 62e4 8b3d
00000010: d8ec fb3c d573 85bd 4558 523d d9ed debb
00000020: eb70 22bc dab7 db3c
-0.054835036 0.13816468 0.0037278086 0.0683067 0.030752584 -0.06516234 0.05135371 -0.006803256
-0.009914617 0.026821066
