try_train/cifar10_models/cifar10_net_38.pth (torch, 589402 bytes, 10 tensors)

weight f4 [32, 3, 5, 5]
-0.088920996 0.083583854 0.16792537 0.0026468008 0.13680442 -0.122525565 -0.097640336 -0.015269955
0.22571275 0.08511303 -0.080019526 0.016909443 -0.2106498 -0.0047720703 -0.09876479 0.079368904
0.02257506 -0.31745306 -0.2139061 -0.12601186 0.19864391 -0.047998905 -0.30724195 -0.11679123
-0.029977277 -0.13264816 -0.072232805 -0.036780827 -0.047609925 -0.09428604 0.07351869 -0.12645902
-0.12670672 0.10491341 0.032092944 0.025684107 0.07893552 -0.1935218 0.0069906916 -0.03969444
0.36554515 0.20553954 -0.17545904 -0.07651751 -0.09823993 0.23732947 0.11058401 -0.21101609
-0.16523212 0.08043986 -0.015030918 0.04809216 0.13977782 -0.006208401 -0.14516279 0.0229243
0.0016769363 -9.532507e-05 0.0408438 -0.036187097 0.18698575 0.06896696 -0.16534957 -0.10747209
-0.056875568 0.34342155 0.26328766 -0.1311819 -0.07139532 2.2455102e-05 0.35428533 0.1952508
-0.17685488 -0.1410832 -0.083746694 -0.12090362 -0.08443162 -0.20630538 0.0046428316 -0.022681667
-0.013396743 -0.07148223 -0.028592352 -0.08769689 0.023850309 0.0007254469 -0.068861514 -0.0379138
-0.0631165 0.052139923 -0.12950367 -0.13236044 -0.20429969 -0.19780138 -0.031706993 -0.012758131
-0.18318701 -0.2047912 -0.2094256 -0.085237116 -0.013452627 -0.013058647 -0.105875984 0.022354059
-0.1648383 -0.04594214 0.033952747 0.1500585 0.19467907 0.030930363 -0.03022591 0.07015543
0.07205466 0.20907152 0.041724645 0.011711055 -0.054551978 -0.12291755 -0.06601092 -0.028358368
-0.054893177 -0.188647 -0.24034618 -0.23804505 -0.109010585 -0.07784641 0.06166581 -0.04503435
-0.109593146 -0.10511995 0.113151096 0.2073975 0.3092506 0.17145306 -0.011462473 0.2052963
0.34905377 0.424732 0.2820105 0.1656619 0.18286848 0.2638921 0.23501463 0.16966029
0.20932865 0.030654483 -0.026287835 0.021405982 0.10598154 0.04566206 0.085998155 -0.16203077
0.06477212 -0.099929 -0.0606326 0.23277265 -0.30917034 0.10497351 -0.016441258 -0.094593994
0.045199722 -0.28263918 -0.08279489 -0.072326764 0.013006172 -0.14514238 -0.016943326 0.19835386
0.018437091 0.01389358 -0.12923023 -0.052072342 -0.023813482 -0.14645751 -0.18200961 0.2093713
-0.114588335 0.13537239 0.037927542 0.009953501 0.23963459 -0.13315646 0.12176993 0.080552526
0.07930347 0.16296788 -0.21168235 0.2212542 0.043001477 -0.041824628 -0.044759855 -0.022609306
0.24251482 0.21425703 0.16932963 0.0054301294 0.08824562 -0.05610445 0.05748021 -0.015672417
0.07219939 -0.20462836 0.17843008 -0.113693826 -0.006017878 0.2000762 -0.22881332 0.08471643
-0.098110616 0.0674188 0.089943685 -0.22983061 0.0033208025 -0.10472807 0.03554224 0.030871809
-0.11415712 0.2667898 0.14710738 -0.08385651 -0.08515218 0.11206586 -0.10652998 -0.18177332
-0.17145245 -0.039197642 0.103242286 0.15525895 0.033652946 0.13463856 -0.034601677 0.100186594
-0.010495058 0.045375843 -0.123338506 0.12695543 0.07281392 0.17732237 0.17089063 -0.019809486
-0.105177544 -0.18189575 -0.03632457 0.04208979 0.16700493 -0.11371432 -0.19299507 -0.29596388
-0.110700004 -0.13142046 -0.0036460606 -0.013639508 -0.016295763 0.09340965 0.08246362 -0.029488202
00000000: 361c b6bd 032e ab3d a1f4 2b3e f375 2d3b
00000010: 7516 0c3e afee fabd a8f7 c7bd d52e 7abc
00000020: 3e21 673e be4f ae3d 47e1 a3bd ac85 8a3c
00000030: 95b4 57be 075f 9cbb 3245 cabd 2a8c a23d
00000040: 55ef b83c 3589 a2be 330a 5bbe 4109 01be
00000050: 4f69 4b3e 809a 44bd d14e 9dbe 3e30 efbd
00000060: e892 f5bc ebd4 07be cbee 93bd 7ea7 16bd
00000070: a002 43bd 0a19 c1bd f890 963d 797e 01be
00000080: 68bf 01be d8dc d63d e473 033d 7a67 d23c
00000090: f2a8 a13d 942a 46be 2c12 e53b a396 22bd
000000a0: bc28 bb3e f578 523e 89ab 33be 36b5 9cbd
000000b0: 0432 c9bd 7f06 733e df79 e23d 9a14 58be
000000c0: 9c32 29be a7bd a43d 3d44 76bc 49fc 443d
000000d0: eb21 0f3e d86f cbbb 8ea5 14be becb bb3c
000000e0: a5cc db3a 42e9 c7b8 d44b 273d ec38 14bd
000000f0: 3179 3f3e 8d3e 8d3d 6651 29be 541a dcbd
00000100: 5bf6 68bd f3d4 af3e a4cd 863e 8c54 06be
00000110: b637 92bd f75d bc37 e364 b53e d3ef 473e
00000120: 7219 35be 1d78 10be 6383 abbd 519c f7bd
00000130: 7cea acbd b841 53be e522 983b e7ce b9bc
00000140: 037e 5bbc 4765 92bd 823a eabc 6d9a b3bd
00000150: b961 c33c eb2b 3e3a 4407 8dbd 804b 1bbd
00000160: 3943 81bd ac90 553d 9c9c 04be 7f89 07be
00000170: f033 51be 728c 4abe 31df 01bd 7b07 51bc
00000180: 6095 3bbe c9b4 51be aa73 56be cc90 aebd
00000190: 6868 5cbc eff3 55bc 82d5 d8bd dc1f b73c
000001a0: 5fcb 28be d32d 3cbd 0912 0b3d efa8 193e
000001b0: f359 473e ac61 fd3c 549c f7bc a6ad 8f3d
000001c0: 6591 933d d816 563e 76e7 2a3d badf 3f3c
000001d0: e571 5fbd 32bc fbbd bc30 87bd cf4f e8bc
000001e0: abd7 60bd ae2c 41be 4f1d 76be 15c2 73be
000001f0: f140 dfbd f06d 9fbd 4a95 7c3d f075 38bd
00000200: 5f72 e0bd 2149 d7bd c3bb e73d 0360 543e
00000210: 1856 9e3e 6491 2f3e 19cd 3bbc 3139 523e
00000220: 2db7 b23e 7976 d93e ae63 903e 46a3 293e
00000230: e041 3b3e de1c 873e ada7 703e 6dbb 2d3e
00000240: 405a 563e 1c1f fb3c 9659 d7bc 995b af3c
00000250: da0c d93d 2408 3b3d cd1f b03d 65eb 25be
00000260: 3fa7 843d 93a7 ccbd e459 78bd f45b 6e3e
00000270: 934b 9ebe 5afc d63d d1af 86bc 7fba c1bd
00000280: 5823 393d 15b6 90be 5e90 a9bd 0e20 94bd
00000290: d717 553c 34a0 14be bbcc 8abc 461d 4b3e
000002a0: 6209 973c e6a1 633c ee54 04be cf49 55bd
000002b0: 7e14 c3bc f5f8 15be ba60 3abe 6e65 563e
000002c0: 4aad eabd 0f9f 0a3e e959 1b3d 0214 233c
000002d0: c562 753e 2b5a 08be 8362 f93d b9f8 a43d
000002e0: dc69 a23d 0de1 263e 42c3 58be 7690 623e
000002f0: 5122 303d 4d50 2bbd 1c56 37bd 2737 b9bc
00000300: ce55 783e 3266 5b3e bf64 2d3e 3aef b13b
00000310: 1fba b43d c8cd 65bd 5e70 6b3d 7163 80bc
00000320: 46dd 933d 198a 51be 60b6 363e 4fd8 e8bd
00000330: 9f31 c5bb c6e0 4c3e 0a4e 6abe cf7f ad3d
00000340: 38ee c8bd de12 8a3d 6534 b83d b758 6bbe
00000350: d2a1 593b ac7b d6bd bd94 113d e0e6 fc3c
00000360: 35cb e9bd ac98 883e 51a3 163e f6bc abbd
00000370: 4464 aebd c982 e53d 642c dabd c922 3abe
00000380: 3b91 2fbe b58d 20bd b170 d33d 34fc 1e3e
00000390: acd7 093d b1de 093e 7dba 0dbd a12e cd3d
000003a0: 77f3 2bbc 05dc 393d e698 fcbd 9b00 023e
000003b0: 771f 953d ff93 353e f4fd 2e3e 8147 a2bc
000003c0: 5367 d7bd e142 3abe 13c9 14bd 5866 2c3d
000003d0: 5703 2b3e 0ee3 e8bd 80a0 45be 9488 97be
000003e0: afb6 e2bd 1693 06be bff2 6ebb 3e78 5fbc
000003f0: b17e 85bc 8f4d bf3d b0e2 a83d 3e91 f1bc

bias f4 [32]
0.17992312 -0.37143266 -0.03424671 0.13145314 -0.031367406 -0.10829714 0.0064013586 -0.09656505
0.10903018 -0.25885305 -0.20963903 -0.069591485 0.11166889 0.015807612 -0.25039944 0.28500268
-0.05025573 0.098814905 -0.24938768 -0.07637425 -0.13606834 0.025952157 -0.28527033 -0.25714257
0.05104991 -0.43421382 -0.027052684 -0.13214336 0.43379164 0.020302286 -0.17422596 -0.14977318
00000000: c43d 383e 6c2c bebe 4746 0cbd a79b 063e
00000010: 1c7b 00bd e4ca ddbd 7dc2 d13b e6c3 c5bd
00000020: 374b df3d 6388 84be 9dab 56be fb85 8ebd
00000030: a9b2 e43d f77e 813c 5b34 80be dfeb 913e
00000040: f4d8 4dbd 785f ca3d 7c5f 7fbe 1a6a 9cbd
00000050: 8055 0bbe 9e99 d43c f40e 92be 31a8 83be
00000060: b619 513d 4651 debe 979d ddbc 9750 07be
00000070: f019 de3e fb50 a63c 4a68 32be 245e 19be

weight f4 [32, 32, 5, 5]
0.025521023 0.03935577 -0.03339366 -0.065524414 -0.019119095 0.00102811 0.08491076 0.054699063
-0.01968822 -0.011943452 0.008895164 0.01159149 0.041477516 0.055686515 -0.038815998 -0.04683328
-0.016821902 0.008718962 0.07414655 0.066405624 -0.038981933 -0.048751727 -0.0061887656 0.10247629
0.10413363 0.02849505 -0.0038422921 0.03243534 0.024282126 0.02230067 0.03549711 -0.008744632
-0.03345369 0.03156588 0.07793137 0.088649906 0.04414592 -0.07481267 -0.05669573 0.09033819
0.079904124 0.023384605 -0.048467457 -0.099787876 -0.054274373 0.11237822 0.02814813 0.046532128
0.042567763 -0.009339542 -0.0028438268 -0.051122766 -0.05656524 -0.015004795 -0.06638452 -0.048797596
-0.05359896 -0.02997799 -0.07167738 -0.033137895 -0.0012279818 -0.045993865 -0.083567195 -0.010826955
0.022923132 0.021837959 -0.05046043 -0.06783292 -0.034458023 0.013026729 -0.012398336 0.03908446
0.0043966915 0.0032506338 -0.024215382 0.019015923 0.028402597 0.06739293 0.014377886 -0.005193192
-0.052196752 -0.032781605 0.0033033139 0.08997946 0.01311098 -0.010242836 -0.023065824 -0.044497754
-0.01693371 0.110368565 0.0091657415 -0.0415137 -0.10983405 -0.034266744 0.0132240765 0.02450142
0.018354278 -0.019086435 -0.08152157 0.021528352 0.011970733 0.013584112 -0.06413201 -0.048276283
-0.052605238 -0.015743673 -0.010326222 -0.023838397 -0.027035749 0.035796154 -0.024706474 0.01623603
-0.021338811 -0.008606064 0.03813746 -0.009128104 -0.011200691 -0.030015742 0.013408862 0.07034998
-0.058096334 -0.012416022 0.044009127 0.022144934 0.02589091 -0.006725537 -0.0146205975 0.00044429212
-0.0068962607 0.028084919 0.018843977 -0.044147838 -0.0013582235 -0.020159345 -0.016150443 -0.027025882
0.0065933806 -0.055264942 -0.01135979 -0.021830924 -0.037710756 -0.09145349 -0.12400371 -0.0038229742
0.029299108 -0.023732169 0.021564268 0.0011967005 -0.040630933 0.024176933 -0.038833186 -0.034517817
-0.05696979 -0.08506348 -0.045241423 -0.043388415 -0.087088175 -0.04891571 -0.044789378 -0.0353512
-0.0075712097 -0.058725458 -0.03487581 0.009365812 -0.03606484 -0.065383404 -0.042732287 -0.06492784
0.025806557 0.004778782 -0.02609433 -0.053788465 -0.04128226 -0.017334968 0.023264037 -0.017294206
-0.009583911 -0.06570529 0.007245977 0.06465726 0.024561161 0.008807704 -0.031733423 0.0250246
0.06583088 0.030371198 0.060600482 0.013021888 -0.052821606 0.01787297 0.044276033 0.08695761
0.07815732 -0.050066866 -0.016275093 -0.02536764 -0.010240521 0.024357969 -0.032028347 -0.008668435
0.029395401 0.014526559 0.0038342932 0.034055207 0.02568151 -0.038131792 -0.01667026 0.043244362
0.0023154651 0.011718687 -0.028451176 -0.020454912 0.050001584 0.052854467 -0.029475044 -0.026043808
0.004769336 0.03892929 0.098534815 0.022861637 -0.025609486 -0.038101528 0.0031573076 0.080201305
0.0313004 0.025861798 0.016152568 -0.001672102 0.0074009513 0.0015011511 0.010394315 0.0021271477
0.017517652 0.052798506 0.053937133 0.042365965 0.02368337 -0.03567426 0.054902706 0.047243178
-0.03060148 -0.006202379 -0.05816937 -0.0046167057 0.0051991106 0.032780793 0.028394837 -0.038269795
-0.06015216 -0.0072929487 0.020691276 -0.009390045 0.036100656 0.06725762 0.049125154 -0.011904161
00000000: 7711 d13c 8433 213d cac7 08bd aa31 86bd
00000010: a69f 9cbc a6c1 863a b1e5 ad3d 200c 603d
00000020: 3149 a1bc 78ae 43bc 06bd 113c 3cea 3d3c
00000030: 54e4 293d 8b17 643d 86fd 1ebd 41d4 3fbd
00000040: 16ce 89bc fad9 0e3c 25da 973d acff 873d
00000050: 85ab 1fbd e4af 47bd 21cb cabb 17df d13d
00000060: 0344 d53d 736e e93c f7ce 7bbb ebda 043d
00000070: 4feb c63c e5af b63c 6b65 113d a545 0fbc
00000080: bd06 09bd 394b 013d 7b9a 9f3d 158e b53d
00000090: 5ad2 343d 6337 99bd c839 68bd 3b03 b93d
000000a0: c6a4 a33d 1291 bf3c d085 46bd 965d ccbd
000000b0: ce4e 5ebd 8d26 e63d e896 e63c 7998 3e3d
000000c0: 895b 2e3d e104 19bc 7f5f 3abb 1b66 51bd
000000d0: f4b0 67bd acd6 75bc 9bf4 87bd fddf 47bd
000000e0: 958a 5bbd 6794 f5bc 97cb 92bd 9abb 07bd
000000f0: 3bf4 a0ba 1064 3cbd 4725 abbd 8a63 31bc
00000100: 4bc9 bb3c 85e5 b23c 99af 4ebd fceb 8abd
00000110: db23 0dbd 106e 553c 6422 4bbc 0717 203d
00000120: 1f12 903b 9608 553b 565f c6bc 48c7 9b3c
00000130: 90ac e83c 4e05 8a3d 3a91 6b3c a72b aabb
00000140: 43cc 55bd 0146 06bd 697c 583b 2747 b83d
00000150: 70cf 563c 91d1 27bc 8af4 bcbc 4743 36bd
00000160: 90b8 8abc ea08 e23d e82b 163c 450a 2abd
00000170: adf0 e0bd 495b 0cbd cca9 583c 34b7 c83c
00000180: b65b 963c 285b 9cbc c8f4 a6bd 3a5c b03c
00000190: e520 443c e58f 5e3c a557 83bd 5abd 45bd
000001a0: 9778 57bd e0f8 80bc 502f 29bc be48 c3bc
000001b0: 137a ddbc fd9e 123d 3b65 cabc 6c01 853c
000001c0: bbce aebc 7300 0dbc 0636 1c3d 0b8e 15bc
000001d0: 1a83 37bc 93e3 f5bc d8b0 5b3c a613 903d
000001e0: 6cf6 6dbd 926c 4bbc ea42 343d 4b69 b53c
000001f0: 2c19 d43c e561 dcbb 3b8b 6fbc e1ef e839
00000200: 07fa e1bb 5812 e63c af5e 9a3c 5dd4 34bd
00000210: 6b06 b2ba 3625 a5bc ef4d 84bc 6265 ddbc
00000220: 490d d83b 7e5d 62bd 6a1e 3abc c4d6 b2bc
00000230: 9876 1abd f84b bbbd a8f5 fdbd dd8a 7abb
00000240: af04 f03c f769 c2bc 8ca7 b03c 9bda 9c3a
00000250: 9f6c 26bd b40e c63c 8c0f 1fbd 8e62 0dbd
00000260: 2859 69bd c335 aebd 124f 39bd 0db8 31bd
00000270: 495b b2bd d75b 48bd 1175 37bd 6bcc 10bd
00000280: e917 f8bb 1b8a 70bd f0d9 0ebd 1073 193c
00000290: bab8 13bd bce7 85bd 0d08 2fbd e3f8 84bd
000002a0: 4668 d33c 5497 9c3b c7c3 d5bc 4b51 5cbd
000002b0: 9617 29bd 1002 8ebc 3994 be3c 94ac 8dbc
000002c0: d605 1dbc 7f90 86bd a96f ed3b 076b 843d
000002d0: 7d34 c93c 304e 103c e8fa 01bd 6400 cd3c
000002e0: 57d2 863d 05cd f83c 3638 783d c259 553c
000002f0: 785b 58bd 566a 923c c95a 353d d516 b23d
00000300: f210 a03d ea12 4dbd 5853 85bc cccf cfbc
00000310: dcc7 27bc 5d8a c73c 2830 03bd 0d06 0ebc
00000320: a0ce f03c ce00 6e3c c448 7b3b 797d 0b3d
00000330: 0862 d23c 1530 1cbd 1290 88bc 0021 313d
00000340: 0fbf 173b bcff 3f3c 7112 e9bc 0f91 a7bc
00000350: 76ce 4c3d ed7d 583d a675 f1bc d359 d5bc
00000360: 1748 9c3b 5274 1f3d 9fcc c93d 5448 bb3c
00000370: fcca d1bc 5910 1cbd d5ea 4e3b 9540 a43d
00000380: d934 003d 1fdc d33c 6452 843c 6f2a dbba
00000390: ae83 f23b 46c2 c43a eb4c 2a3c 9e67 0b3b
000003a0: 2e81 8f3c 3f43 583d 2fed 5c3d ef87 2d3d
000003b0: a003 c23c 2c1f 12bd a9e1 603d 1082 413d
000003c0: f4af fabc 533d cbbb 0143 6ebd bc47 97bb
000003d0: 4d5d aa3b 2745 063d 4a9c e83c cac0 1cbd
000003e0: 1c62 76bd b0f9 eebb c080 a93c b4d8 19bc
000003f0: 48de 133d 5dbe 893d 7537 493d ac09 43bc

bias f4 [32]
-0.18374005 -0.17266479 -0.17412674 -0.05220931 0.023746047 -0.26822114 -0.32356477 -0.07700907
-0.077861115 -0.0399665 -0.023234945 -0.0403002 -0.07373092 -0.13676456 -0.1931993 -0.13632342
-0.13590838 -0.14232641 -0.051369756 0.0015647783 0.0113213165 -0.13602805 -0.08932377 -0.2274
-0.015773006 -0.016413769 -0.008927995 -0.12359197 -0.15320502 0.06375037 -0.17472976 0.008059856
00000000: 5a26 3cbe 0acf 30be 484e 32be 6ed9 55bd
00000010: 1287 c23c 4854 89be 48aa a5be eeb6 9dbd
00000020: a675 9fbd eab3 23bd 3657 bebc d311 25bd
00000030: 3d00 97bd 020c 0cbe 0ad6 45be 5e98 0bbe
00000040: 912b 0bbe 04be 11be 1869 52bd 3f19 cd3a
00000050: 0b7d 393c f04a 0bbe 61ef b6bd 8cdb 68be
00000060: 6436 81bc 2b76 86bc ba46 12bc c91d fdbd
00000070: c7e1 1cbe 8e8f 823d 5cec 32be 7c0d 043c

weight f4 [64, 32, 5, 5]
-0.027175477 0.00473484 -0.05658698 -0.0456359 -0.021926774 0.022622172 0.049300667 -0.025135815
-0.09598708 0.043025907 -0.06947032 -0.0339638 -0.078267105 -0.01388834 0.036192127 -0.036622286
-0.033713482 -0.03244493 0.03256392 0.06360571 -0.072364315 -0.04736149 0.007739742 -0.013996618
0.0054945657 0.025238808 -0.040574487 -0.018096333 0.011611382 0.0237723 -0.01923884 -0.04668064
-0.042932842 0.036167674 0.028552542 -0.03702928 -0.036570556 -0.0115601765 -0.0011486716 0.052888457
-0.034747507 -0.054515023 -0.0074381325 0.028643517 0.054130767 0.021656169 0.006574882 -0.0030836088
-0.0027632127 -0.023501413 -0.04172439 -0.0044260225 -0.045529664 0.0047741323 -0.0005246839 0.014967859
-0.041986555 0.031615585 0.030540653 0.0045876605 -0.08413041 -0.05769546 -0.0034719422 0.08740533
0.05072384 0.008552708 -0.045619603 0.018945938 0.0515503 0.0099067595 -0.056925323 0.02373417
0.079091005 0.07133349 -0.018460639 -0.005624018 0.04742589 -0.065082856 0.011366975 0.016968388
0.07412018 0.0048693204 -0.038133647 -0.010389112 -0.023906223 0.012980021 -0.08535143 -0.0403687
0.007044813 0.045588143 -0.02274912 -0.019499052 0.00053374766 -0.007725414 -0.014764692 0.023604205
1.9127585e-05 0.015141894 0.027570218 -0.03434861 0.008433951 0.0084089255 0.004625437 0.024623893
0.008996565 0.003453774 -0.010896811 -0.036296964 0.0045348764 -0.031263772 -0.03316578 0.040990833
-0.006518987 0.056811456 0.046167318 0.018921727 -0.02855706 -0.007366909 -0.0060887183 -0.0013397692
0.027233392 0.07172977 -0.014963808 0.034260098 -0.001850488 -0.036129203 -0.02214714 0.013458323
-0.0047207354 -0.03348277 0.006021398 0.052960806 0.03984966 0.09231059 0.030919923 -0.02947567
-0.042125512 0.029922146 0.0975845 -0.0066709653 -0.006304781 0.011810975 0.00037673372 0.012981496
0.021200443 0.011350574 0.010636924 0.03605674 -0.00826899 0.03776416 -0.01190235 -0.01456619
-0.013124099 0.04080843 0.006463981 0.05249385 0.031945523 0.02497533 0.010188467 0.06672858
0.0042946218 0.03978941 0.042732373 0.03786467 0.07813101 0.017771292 -0.02250922 0.022907658
-0.0077942447 -0.005849318 0.015326303 -0.0028643513 0.04909198 0.019900227 0.05487672 0.026674774
0.019696262 0.02757764 -0.03908172 -0.06212749 -0.070561305 0.045592256 0.049230516 -0.031159613
-0.010170689 -0.075710535 -0.03770407 -0.048507523 -0.028474685 0.014880048 -0.022341443 -0.027445907
0.10271099 0.0022485692 -0.039408512 -0.07576438 -0.003958955 0.034804452 0.021229394 0.046348806
-0.010469466 0.07522011 0.0012460403 -0.013620414 -0.02994356 -0.031365182 0.062370036 -0.052799556
-0.029103532 0.019183781 0.025710313 0.034681242 -0.07626606 0.0010686986 -0.034822788 -0.008833579
0.1023401 0.057427112 -0.0145005165 -0.0010618123 -0.008052031 0.043310456 0.0085920915 -0.019222701
0.024766672 0.021008784 0.04418872 -0.00028272325 0.019680256 0.005707212 -0.029225226 0.041187182
-0.034613393 -0.022671299 0.047392488 0.057391115 -0.088034146 -0.023913212 -0.034641284 -0.033790197
-0.045589626 0.009552929 0.025296763 0.05828541 -0.033689477 0.038434193 -0.000115812 0.019918285
-0.062473483 0.019378394 -0.073442 -0.007485892 -0.034376934 0.043327708 -0.050633438 -0.0050590415
00000000: 1b9f debc b726 9b3b c0c7 67bd b6ec 3abd
00000010: c79f b3bc 2252 b93c 7fef 493d a0e9 cdbc
00000020: e094 c4bd ef3b 303d 7546 8ebd a01d 0bbd
00000030: 814a a0bd ec8b 63bc 323e 143d 4001 16bd
00000040: 2617 0abd fae4 04bd bf61 053d b643 823d
00000050: be33 94bd 1ffe 41bd a99d fd3b 1252 65bc
00000060: c20b b43b 9ec1 ce3c 6f31 26bd c33e 94bc
00000070: aa3d 3e3c 20be c23c c69a 9dbc 3334 3fbd
00000080: 59da 2fbd 8e24 143d 05e7 e93c 04ac 17bd
00000090: 02cb 15bd e566 3dbc 068f 96ba 91a1 583d
000000a0: 6753 0ebd 254b 5fbd 94bb f3bb cfa5 ea3c
000000b0: 39b8 5d3d 4768 b13c 1c72 d73b 5f16 4abb
000000c0: 0417 35bb 0986 c0bc 32e7 2abd 2b08 91bb
000000d0: 507d 3abd 5370 9c3b f18a 09ba c03b 753c
000000e0: 18fa 2bbd 587f 013d 6430 fa3c 1654 963b
000000f0: 904c acbd 1352 6cbd 8689 63bb 9101 b33d
00000100: cdc3 4f3d a820 0c3c 9fdb 3abd 8334 9b3c
00000110: 6826 533d f64f 223c 872a 69bd 296e c23c
00000120: 77fa a13d 4b17 923d c43a 97bc af49 b8bb
00000130: a641 423d 294a 85bd 8c3c 3a3c 4a01 8b3c
00000140: 52cc 973d d28e 9f3b 0732 1cbd 1837 2abc
00000150: fcd6 c3bc 27aa 543c bbcc aebd a659 25bd
00000160: 2dd8 e63b a2ba 3a3d 5d5c babc 7abc 9fbc
00000170: 33eb 0b3a 7825 fdbb 9be7 71bc 9b5d c13c
00000180: 2d74 a037 b515 783c f0da e13c 21b1 0cbd
00000190: 8e2e 0a3c 97c5 093c fa90 973b 0cb8 c93c
000001a0: 5466 133c b658 623b 8a88 32bc 20ac 14bd
000001b0: 4d99 943b 710e 00bd d7d8 07bd 01e6 273d
000001c0: 3a9d d5bb 21b3 683d f119 3d3d bd01 9b3c
000001d0: 7ff0 e9bc 1d66 f1bb df83 c7bb 329b afba
000001e0: 9018 df3c 0fe7 923d c22a 75bc 5154 0c3d
000001f0: 138c f2ba 37fc 13bd eb6d b5bc 4c80 5c3c
00000200: 66b0 9abb 3b25 09bd 264f c53b 6eed 583d
00000210: 6639 233d 560d bd3d c74b fd3c f676 f1bc
00000220: cd8b 2cbd 4a1f f53c 62da c73d 1d98 dabb
00000230: 5698 cebb d282 413c 5884 c539 57b0 543c
00000240: 8dac ad3c c2f7 393c 7e46 2e3c 3bb0 133d
00000250: a87a 07bc 98ae 1a3d 1302 43bc 07a7 6ebc
00000260: 7606 57bc be26 273d cdcf d33b cb03 573d
00000270: 4fd9 023d 1099 cc3c 87ed 263c fea8 883d
00000280: e6b9 8c3b 38fa 223d 2408 2f3d fc17 1b3d
00000290: 2703 a03d 1a95 913c 4165 b8bc d7a8 bb3c
000002a0: dd66 ffbb a3ab bfbb 2d1b 7b3c d7b7 3bbb
000002b0: ac14 493d cd05 a33c 69c6 603d 0e85 da3c
000002c0: 0e5a a13c 81ea e13c 2714 20bd 6579 7ebd
000002d0: 7282 90bd f2be 3a3d f0a5 493d 7242 ffbc
000002e0: f6a2 26bc 200e 9bbd 956f 1abd d3af 46bd
000002f0: be43 e9bc 72cb 733c 6705 b7bc 3dd6 e0bc
00000300: 245a d23d bb5c 133b d26a 21bd 5b2a 9bbd
00000310: 1fba 81bb 1d8f 0e3d 44e9 ad3c 3fd8 3d3d
00000320: 2088 2bbc 000d 9a3d 2d52 a33a 2828 5fbc
00000330: 324c f5bc c778 00bd b977 7f3d 5944 58bd
00000340: 886a eebc 4e27 9d3c 6f9e d23c eb0d 0e3d
00000350: 6131 9cbd 9313 8c3a 57a2 0ebd b7ba 10bc
00000360: b097 d13d b138 6b3d 9393 6dbc 822c 8bba
00000370: aaec 03bc 4e66 313d d8c5 0c3c ed78 9dbc
00000380: 7ae3 ca3c 9d1a ac3c 3bff 343d 793a 94b9
00000390: 7d38 a13c 9003 bb3b be69 efbc e4b3 283d
000003a0: c6c6 0dbd 29b9 b9bc a01e 423d f212 6b3d
000003b0: 3f4b b4bd a4e5 c3bc 05e4 0dbd 9767 0abd
000003c0: 30bc 3abd e383 1c3c 283b cf3c afbc 6e3d
000003d0: fafd 09bd 2c6d 1d3d 18e0 f2b8 ac2b a33c
000003e0: 32e4 7fbd 70bf 9e3c c268 96bd 374c f5bb
000003f0: d4ce 0cbd 6578 313d 0265 4fbd 51c6 a5bb

bias f4 [64]
-0.10346084 -0.13118242 -0.10216005 -0.04283114 -0.049224116 -0.12188841 -0.05385338 -0.049585458
-0.06801701 -0.05964535 -0.13369688 -0.09328402 -0.090073295 -0.082593866 -0.10036158 -0.06891061
-0.13017757 -0.09410518 -0.09751994 -0.102873884 -0.11461393 -0.05927281 -0.026332993 -0.124091044
-0.067285635 -0.013528451 -0.0855073 -0.052824207 -0.08506307 -0.08457631 -0.03059904 -0.056913693
-0.016682418 -0.05044457 -0.094371 -0.08946239 -0.057378825 -0.08689815 -0.08447185 -0.12672341
-0.13242291 -0.09511024 0.019304572 -0.024963805 -0.060826227 -0.031151267 -0.049551107 -0.09822465
-0.047896802 -0.0400926 -0.11783256 -0.12997836 -0.07623853 -0.14881447 -0.00414187 0.00972076
0.011824272 -0.13186002 0.000413575 -0.11629012 -0.090469174 -0.057501577 -0.047206208 -0.02884206
00000000: 47e3 d3bd af54 06be 4a39 d1bd b56f 2fbd
00000010: 3a9f 49bd a1a0 f9bd 5d95 5cbd 1f1a 4bbd
00000020: 814c 8bbd af4e 74bd d6e7 08be b10b bfbd
00000030: 5978 b8bd f926 a9bd 5f8a cdbd 0221 8dbd
00000040: 454d 05be 37ba c0bd 89b8 c7bd 8baf d2bd
00000050: b5ba eabd 0cc8 72bd 4ab8 d7bc 7223 febd
00000060: 0dcd 89bd 70a6 5dbc 741e afbd 325e 58bd
00000070: 8c35 aebd 5836 adbd d7aa fabc 551e 69bd
00000080: 91a9 88bc f79e 4ebd 9545 c1bd 0f38 b7bd
00000090: 0f06 6bbd a8f7 b1bd 94ff acbd c8c3 01be
000000a0: df99 07be 28c9 c2bd 9f24 9e3c e580 ccbc
000000b0: ec24 79bd f130 ffbc 1af6 4abd 012a c9bd
000000c0: 702f 44bd 2338 24bd 3252 f1bd 0c19 05be
000000d0: f222 9cbd d262 18be 86b8 87bb d343 1f3c
000000e0: 97ba 413c 5006 07be 19d5 d839 8429 eebd
000000f0: e747 b9bd c686 6bbd 4c5b 41bd 2f46 ecbc

weight f4 [64, 1024]
-0.052468948 -0.004332945 0.015101454 0.0046849833 0.0022928927 0.027217412 0.019291705 -0.010683492
-0.0050230958 0.018071681 0.045739274 -0.009925383 -0.052229244 -0.060293842 -0.00033012152 -0.043922678
-0.03604486 0.021311088 -0.03486637 -0.01919085 -0.012639496 -0.010973733 -0.020062415 -0.013545133
-0.038351685 0.030355452 -0.028333753 0.03981222 0.016427834 0.00908664 0.039957188 -0.0120322155
0.012094499 0.006215465 -0.043451127 -0.022869607 -0.046954133 0.007203117 0.042284783 0.038456034
-0.027715817 -0.0424911 -0.04760508 -0.016705556 0.006904463 0.024979219 0.028940229 -0.014530423
-0.009754216 -0.030007815 -0.03020418 -0.012908546 -0.034185413 -0.030126287 0.03531731 0.0136043355
-0.047297128 0.034016237 0.04242224 0.026462782 0.023792068 0.040890627 0.109068625 0.057475403
-0.0019762483 -0.015237409 0.022930799 0.029247947 -0.032176867 -0.020769903 0.019722348 0.07352591
0.008120283 0.06340332 -0.0066170404 0.026063344 -0.008984815 0.020996215 0.0021822972 0.00076364446
-0.026603881 0.06155535 0.014660117 -0.031821527 0.002374266 -0.012583254 0.041162305 0.0053151227
0.019780586 0.020194177 -0.018997824 0.015677858 0.04538079 0.049509794 0.051337093 0.043143332
-0.0057033314 -0.011384168 0.00093606225 0.011168284 0.0030673996 -0.018273033 -0.029358426 -0.0318974
0.035753053 0.04191398 0.0044221417 0.06906277 -0.017047007 0.020244574 0.038512938 0.039958335
0.0019124978 -0.050473657 -0.033367608 0.0376711 0.029569564 -0.0210858 0.052221958 0.045486577
0.00658173 -0.026789567 0.035288304 0.04662712 0.061442718 -0.016366757 0.01329586 0.011545251
0.0013744996 -0.004389602 0.038468856 -0.013009708 0.046510667 0.032313272 0.031818897 0.036122836
0.06120006 0.083355464 0.020566208 0.06715664 -0.040315382 -0.00079167716 -0.00093133864 -0.027264884
0.011714418 -0.015273275 0.028018707 -0.016190259 0.0057294397 0.029493295 0.0806311 0.03392011
0.021600746 0.0843707 0.025369216 0.008693289 -0.036518726 0.004474368 -0.017822625 -0.049834747
0.01898496 -0.0138400225 -0.06129157 0.0063475426 0.035605997 -0.033345953 -0.0023794638 0.0699418
0.03426809 -0.017854396 -0.0020986379 0.06278581 0.010890934 -0.043319173 -0.0011794729 0.04054855
0.002933308 0.011903531 -0.010389503 -0.016927596 -0.031150723 0.01117643 -0.034508068 -0.017340181
-0.000778435 0.0011293591 -0.048360005 -0.019849638 0.017983187 0.020458797 0.07066697 0.050976433
7.391243e-05 -0.055213194 0.011816925 -0.009416784 0.018371122 -0.06694196 -0.026238406 -0.03037413
0.028092341 -0.010150474 0.015975935 0.014581912 0.07974873 -0.038019218 0.018666463 -0.02808651
0.013289253 -0.028098626 -0.014455997 -0.0059784064 -0.00092886493 0.034317467 0.020655837 0.01083055
0.009082855 0.027992202 0.024021633 0.06310687 -0.058197033 -0.039490685 -0.011018475 -0.026110796
0.034787238 0.020939145 0.061429903 -0.008852822 0.0077762622 -0.0036933771 -0.026664807 0.0076974332
0.015927559 -0.05929753 0.025791433 -0.077210575 -0.012156134 -0.040276956 0.014975997 0.011047772
-0.0025366936 0.0064484044 -0.0078645 -0.030317042 0.02463011 -0.010215515 -0.02744014 0.013044842
-0.0014256873 -0.044681277 0.035949107 -0.02449414 0.01802186 0.060370006 -0.010628412 0.018857347
00000000: aee9 56bd 61fb 8dbb 176c 773c 7d84 993b
00000010: 5b44 163b 0df7 de3c a309 9e3c d009 2fbc
00000020: c898 a4bb 100b 943c 1b59 3b3d 139e 22bc
00000030: 55ee 55bd adf6 76bd 2914 adb9 44e8 33bd
00000040: c6a3 13bd 9794 ae3c 0ad0 0ebd 2136 9dbc
00000050: e315 4fbc 2ccb 33bc ef59 a4bc 68ec 5dbc
00000060: a816 1dbd ffab f83c 301c e8bc 2312 233d
00000070: aa93 863c 21e0 143c 26aa 233d c522 45bc
00000080: 0128 463c 19ab cb3b cff9 31bd 0b59 bbbc
00000090: fa52 40bd 2008 ec3b cf32 2d3d 1384 1d3d
000000a0: 480c e3bc 260b 2ebd 8bfd 42bd 17da 88bc
000000b0: d53e e23b 38a1 cc3c 0f14 ed3c 0311 6ebc
000000c0: 26d0 1fbc f3d2 f5bc c26e f7bc 5e7e 53bc
000000d0: 0106 0cbd 67cb f6bc e2a8 103d b8e4 5e3c
000000e0: a2ba 41bd 9c54 0b3d f1c2 2d3d 7ac8 d83c
000000f0: 95e7 c23c ee7c 273d 5f5f df3d 546b 6b3d
00000100: f283 01bb 53a6 79bc 5fd9 bb3c 6499 ef3c
00000110: e4cb 03bd a525 aabc c390 a13c c194 963d
00000120: ef0a 053c 9ad9 813d c2d3 d8bb cb82 d53c
00000130: 0c35 13bc 4100 ac3c df04 0f3b 502f 483a
00000140: 62f0 d9bc 7621 7c3d fd30 703c 4a57 02bd
00000150: 9399 1b3b fe29 4ebc ce99 283d 7b2a ae3b
00000160: e50a a23c 426e a53c 53a1 9bbc da6e 803c
00000170: 35e1 393d c8ca 4a3d d846 523d 10b7 303d
00000180: 03e3 babb a984 3abc 1362 753a 2efb 363c
00000190: 6d06 493b 54b1 95bc 1581 f0bc d9a6 02bd
000001a0: cb71 123d fead 2b3d 9de7 903b c870 8d3d
000001b0: 2aa6 8bbc f3d7 a53c bebf 1d3d 5aab 233d
000001c0: c7ac fa3a 77bd 4ebd 79ac 08bd 034d 1a3d
000001d0: df3b f23c 21bc acbc b1e6 553d 2250 3a3d
000001e0: 8eab d73b cb75 dbbc 788a 103d 14fc 3e3d
000001f0: 5cab 7b3d 9413 86bc e1d6 593c 4b28 3d3c
00000200: 8e28 b43a a7d6 8fbb 8591 1d3d ac26 55bc
00000210: f881 3e3d ec5a 043d 8854 023d 8af5 133d
00000220: eaac 7a3d 45b6 aa3d 777a a83c 6c89 893d
00000230: be21 25bd 8e88 4fba 1425 74ba 9b5a dfbc
00000240: d5ed 3f3c c23c 7abc 7d87 e53c 6fa1 84bc
00000250: 06be bb3b ec9b f13c eb21 a53d d0ef 0a3d
00000260: 0cf4 b03c 8cca ac3d 1ad3 cf3c 4c6e 0e3c
00000270: a994 15bd b89d 923b c100 92bc 851f 4cbd
00000280: 5986 9b3c 43c1 62bc df0c 7bbd 0cff cf3b
00000290: 98d7 113d c495 08bd c7f0 1bbb a53d 8f3d
000002a0: b25c 0c3d 6243 92bc 4d89 09bb d995 803d
000002b0: e36f 323c 726f 31bd 8b98 9aba 3d16 263d
000002c0: be3c 403b 0707 433c bc38 2abc beab 8abc
000002d0: cd2f ffbc 581d 373c 5558 0dbd ff0c 8ebc
000002e0: e30f 4cba 0107 943a 2415 46bd b59b a2bc
000002f0: 7a51 933c 3599 a73c d8b9 903d aacc 503d
00000300: 6f01 9b38 3b27 62bd c79b 413c db48 1abc
00000310: 097f 963c de18 89bd edf1 d6bc 2bd3 f8bc
00000320: e921 e63c 2c4e 26bc f7df 823c f9e8 6e3c
00000330: 4d53 a33d 0aba 1bbd 69ea 983c ae15 e6bc
00000340: 2bbb 593c 172f e6bc d9d8 6cbc 82e6 c3bb
00000350: 127f 73ba 7990 0c3d 6e36 a93c 9f72 313c
00000360: 41d0 143c e74f e53c 04c9 c43c 2d3e 813d
00000370: 0360 6ebd fcc0 21bd d586 34bc 4fe6 d5bc
00000380: 107d 0e3d 9288 ab3c ec9d 7b3d 6d0b 11bc
00000390: 04d0 fe3b 960c 72bb 2770 dabc c03a fc3b
000003a0: 837a 823c f8e1 72bd 8e48 d33c 9420 9ebd
000003b0: 852a 47bc 73f9 24bd e25d 753c b701 353c
000003c0: a83e 26bb 234d d33b 1bda 00bc 725b f8bc
000003d0: 16c5 c93c fa5e 27bc 25ca e0bc 08ba 553c
000003e0: 21de baba b703 37bd 5f3f 133d efa7 c8bc
000003f0: 94a2 933c 8a46 773d ca22 2ebc b97a 9a3c

bias f4 [64]
-0.017544255 0.007122407 -0.027240343 0.016556242 -0.023250306 0.048620142 -0.012603362 -0.0148018235
0.01551433 -0.0076250373 -0.025641486 -0.04633599 0.015687268 0.0538261 0.007107296 -0.005683724
0.027059555 0.0076190904 -0.021801177 0.037211813 -0.046860598 0.021149233 0.018068574 -0.034577224
0.02370179 -0.034954555 0.00013079726 -0.03233547 0.078850925 0.028874537 -0.02005626 0.019502012
-0.05474734 0.04305796 0.0038643281 -0.046749756 -0.02770886 0.024981048 -0.04661045 -0.05084843
-0.051120173 -0.023655163 -0.040890522 -0.044614684 0.020432696 -0.0101108225 -0.011413098 -0.043211788
-0.03280143 -0.026547289 0.033120792 0.06589297 0.028962458 4.6133235e-05 -0.0008238136 -0.0048072855
0.00547637 -0.041358583 -0.05114463 0.016541846 0.036824483 -0.042044297 0.0331908 0.031807005
00000000: f8b8 8fbc 1563 e93b 2427 dfbc f5a0 873c
00000010: 6d77 bebc ea25 473d 557e 4ebc 5983 72bc
00000020: d12f 7e3c 73db f9bb 180e d2bc cfca 3dbd
00000030: 9682 803c c278 5c3d 52e4 e83b 883e babb
00000040: 00ac dd3c 90a9 f93b 6298 b2bc 6a6b 183d
00000050: e6f0 3fbd 2841 ad3c 8c04 943c d9a0 0dbd
00000060: 422a c23c 822c 0fbd 9f26 0939 3372 04bd
00000070: 987c a13d 4b8a ec3c 074d a4bc afc2 9f3c
00000080: bf3e 60bd 8b5d 303d ab40 7d3b ac7c 3fbd
00000090: b1fd e2bc 0ea5 cc3c 99ea 3ebd 7146 50bd
000000a0: 6363 51bd 79c8 c1bc d27c 27bd e3bd 36bd
000000b0: 7862 a73c dda7 25bc 01fe 3abc d8fe 30bd
000000c0: cb5a 06bd b379 d9bc aba9 073d e5f2 863d
000000d0: ad42 ed3c 2f7f 4138 32f5 57ba 6f86 9dbb
000000e0: 1f73 b33b 9e67 29bd 087d 51bd c482 873c
000000f0: 45d5 163d a436 2cbd 14f3 073d 1048 023d

weight f4 [10, 64]
0.054839566 0.2320793 -0.12567559 -0.039925005 -0.1988235 -0.24950089 0.108973876 0.24338849
0.2299618 0.05798784 -0.25043565 0.25445053 -0.090269946 0.05049195 -0.28948775 0.24316992
0.21708965 -0.29113987 0.22815195 -0.22584485 0.042736623 -0.21836594 -0.018290961 0.20467624
-0.13606925 -0.036000486 -0.19429672 -0.12625666 -0.26198182 -0.03067885 -0.047405887 0.04536167
0.31863973 -0.27146438 -0.08769506 0.06271277 -0.21104468 -0.10973886 0.32429263 -0.25776887
0.27234575 -0.080091104 0.10326054 0.19599134 0.0061738957 -0.24754186 0.06627503 -0.106343545
0.29489392 -0.018338807 -0.27769095 -0.13788398 0.124328196 -0.033942036 0.14274162 0.0322081
0.045705777 0.32281902 0.16615868 -0.3023825 -0.16058022 0.002496991 -0.1312557 0.045919705
0.16530664 -0.07147633 0.16895099 -0.25909403 -0.03099251 0.064326376 -0.11477868 -0.28347445
-0.33224472 -0.003764313 -0.30615103 -0.20813341 -0.10633785 -0.2305969 0.3225447 -0.097159475
-0.07858775 0.28780246 0.08978769 -0.18754515 -0.17555329 -0.13695836 -0.056763645 0.25459638
0.452608 0.28998002 0.21893366 0.09180095 -0.29997405 -0.23433909 -0.09921899 0.18315402
0.29005438 0.12319434 -0.09812667 -0.27172977 -0.12245788 0.15110411 -0.27382898 -0.10786968
0.14242955 -0.038451564 0.027171293 0.07612509 -0.30355582 -0.26196915 -0.10862665 0.31108138
-0.04713459 0.19180872 -0.22442688 -0.23448513 -0.41124374 0.263348 -0.21072951 -0.13320735
0.42123583 0.19708781 0.0044183964 0.36853012 -0.46824828 -0.16617568 -0.32583597 -0.25639814
-0.3487175 -0.008216626 -0.34254065 0.19811945 -0.114690304 -0.097522736 0.09683068 -0.059615817
0.008452541 -0.13275217 0.21651568 -0.26896283 0.02533133 0.030892767 -0.34659335 0.26336625
-0.07254377 -0.1780276 -0.18137503 0.12577957 0.057116784 0.10412724 -0.220806 -0.3001297
-0.038426183 0.061007004 -0.17852888 0.15922716 -0.15869118 0.23094167 -0.048897583 0.23091295
0.26050925 0.11009075 -0.19325699 -0.016686914 0.2623016 0.13255456 0.17020492 -0.32499436
0.11977164 0.12094467 0.028787768 0.03290593 0.1231239 0.28990775 0.411606 -0.021327827
0.11701235 0.29717055 0.2986744 0.21380144 -0.12659743 0.2261177 0.15087081 0.18188551
0.03813839 -0.14519042 -0.06270401 -0.23157135 0.3125746 0.059164193 0.12684888 -0.06789827
-0.16052715 0.19378647 -0.24070618 -0.18682474 -0.105327375 0.24387819 -0.019784493 -0.023077386
-0.19061647 0.21075691 0.21307988 0.02754708 0.12540594 -0.24962682 0.2684084 -0.116810344
0.11861769 0.22011201 -0.04712467 -0.0014020244 0.036618803 0.1345943 0.23640224 -0.003683436
-0.0723347 -0.04556948 -0.20371522 -0.21750459 0.10138402 0.08508086 0.28040603 -0.13198176
-0.0882953 0.039678082 0.13962619 -0.107119 0.18408509 0.026825886 0.1131678 0.089605026
0.18351977 0.25969 -0.3704281 -0.058368277 0.04998205 0.108805306 0.16567644 -0.21948096
-0.06426192 -0.101340026 -0.18950713 0.01935448 0.14591688 0.21489921 0.116789296 -0.06479309
-0.14568032 -0.15767428 0.15832695 -0.06789736 0.056773584 -0.13669042 0.09670845 -0.062223677
00000000: 749f 603d 32a6 6d3e 1ab1 00be 6788 23bd
00000010: 6398 4bbe 297d 7fbe b22d df3d d53a 793e
00000020: 1b7b 6b3e a884 6d3d 1a39 80be 5747 823e
00000030: 73df b8bd a6d0 4e3d bd37 94be 8901 793e
00000040: c04c 5e3e 4910 95be aaa0 693e df43 67be
00000050: 990c 2f3d 529b 5fbe edd6 95bc a696 513e
00000060: bd55 0bbe 3f75 13bd b8f5 46be 6d49 01be
00000070: 7b22 86be 3652 fbbc ad2c 42bd 29cd 393d
00000080: bf24 a33e 61fd 8abe 7899 b3bd 8e6f 803d
00000090: 191c 58be c4be e0bd af09 a63e 48fa 83be
000000a0: e770 8b3e ce06 a4bd 437a d33d f4b1 483e
000000b0: 644e ca3b 9d7b 7dbe 34bb 873d a5ca d9bd
000000c0: 56fc 963e 443b 96bc 822d 8ebe 7531 0dbe
000000d0: c89f fe3d ce06 0bbd dc2a 123e a4ec 033d
000000e0: fb35 3b3d 8948 a53e 8025 2a3e e1d1 9abe
000000f0: 246f 24be 8fa4 233b e567 06be 4d16 3c3d
00000100: 2546 293e 2f62 92bd 7d01 2d3e f9a7 84be
00000110: 01e4 fdbc 8cbd 833d 1611 ebbd 9023 91be
00000120: fb1b aabe b1b2 76bb d4bf 9cbe ed20 55be
00000130: a9c7 d9bd 9821 6cbe 9424 a53e 8cfb c6bd
00000140: 9df2 a0bd d85a 933e 9ce2 b73d d60b 40be
00000150: 3ec4 33be d03e 0cbe ff80 68bd 755a 823e
00000160: 3cbc e73e 4378 943e 2530 603e 2302 bc3d
00000170: 3396 99be 96f6 6fbe 5333 cbbd ba8c 3b3e
00000180: 0282 943e 504d fc3d a3f6 c8bd 2a20 8bbe
00000190: 32cb fabd 09bb 1a3e 5033 8cbe c7ea dcbd
000001a0: 0dd9 113e 637f 1dbd 5596 de3c 79e7 9b3d
000001b0: ab6b 9bbe d220 86be a677 debd 0f46 9f3e
000001c0: 3310 41bd 8169 443e 29d0 65be df1c 70be
000001d0: 8a8e d2be 8dd5 863e 7ac9 57be 8267 08be
000001e0: 39ac d73e 63d1 493e 32c8 903b fbaf bc3e
000001f0: 3dbe efbe f529 2abe f9d3 a6be 9e46 83be
00000200: 1a8b b2be 079f 06bc 7d61 afbe d3df 4a3e
00000210: c0e2 eabd 00ba c7bd 2a4f c63d b72f 74bd
00000220: 877c 0a3c 2ff0 07be 49b6 5d3e 7fb5 89be
00000230: a683 cf3c d412 fd3c af74 b1be f1d7 863e
00000240: d491 94bd de4c 36be 60ba 39be 5ccc 003e
00000250: 4af3 693d aa40 d53d f81a 62be 9aaa 99be
00000260: c664 1dbd 7be2 793d 46d0 36be 720c 233e
00000270: f17f 22be f97b 6c3e d548 48bd 7274 6c3e
00000280: 7861 853e 4277 e13d 29e5 45be ffb2 88bc
00000290: 654c 863e 62bc 073e 334a 2e3e a965 a6be
000002a0: d54a f53d d7b1 f73d 53d4 eb3c 5ec8 063d
000002b0: 6228 fc3d ca6e 943e 06be d23e b2b7 aebc
000002c0: 2ca4 ef3d bd26 983e daeb 983e c4ee 5a3e
000002d0: c2a2 01be 668b 673e e17d 1a3e 3240 3a3e
000002e0: 0037 1c3d ccac 14be f66a 80bd 0a21 6dbe
000002f0: c709 a03e 2756 723d ace4 013e 400e 8bbd
00000300: 3b61 24be f66f 463e ae7b 76be fc4e 3fbe
00000310: e1b5 d7bd 34bb 793e 1713 a2bc c90c bdbc
00000320: f730 43be a9d0 573e 9d31 5a3e 6aaa e13c
00000330: 6a6a 003e 2c9e 7fbe d36c 893e 433a efbd
00000340: d5ed f23d 0b65 613e cc05 41bd 22c4 b7ba
00000350: 99fd 153d 17d3 093e 6e13 723e cd65 71bb
00000360: 3724 94bd 10a7 3abd b99a 50be 86b9 5ebe
00000370: 6da2 cf3d e03e ae3d 6191 8f3e 3a26 07be
00000380: 2bd4 b4bd 7c85 223d 2bfa 0e3e 3561 dbbd
00000390: cd80 3c3e f6c1 db3c 85c4 e73d d782 b73d
000003a0: 9bec 3b3e 16f6 843e c0a8 bdbe 9313 6fbd
000003b0: fab9 4c3d 51d5 de3d 16a7 293e 9ebf 60be
000003c0: c19b 83bd 5c8b cfbd 280e 42be 498d 9e3c
000003d0: 3c6b 153e 8a0e 5c3e 3a2f ef3d 3db2 84bd
000003e0: 392d 15be 5e75 21be 7620 223e c50d 8bbd
000003f0: 6b8b 683d 93f8 0bbe 140f c63d 41de 7ebd

bias f4 [10]
-0.070299424 0.104554795 -0.023058714 0.08846173 0.10357114 -0.11633183 0.09178592 -0.025235968
-0.006271184 0.030587442
00000000: 25f9 8fbd d320 d63d a1e5 bcbc 6c2b b53d
00000010: 1b1d d43d 623f eebd 42fa bb3d a9bb cebc
00000020: 817e cdbb 8492 fa3c
