try_train/cifar10_models/cifar10_net_14.pth (torch, 589402 bytes, 10 tensors)

weight f4 [32, 3, 5, 5]
000000 9d 66 2d bd b9 2e f9 3d 28 cc 03 3e d3 79 1b bd
       -0.042334188 0.12167115 0.12870848 -0.037957978
000010 b8 c6 22 3e 9f 1a aa bd a3 37 3e bd 52 7b 01 bd
       0.15896118 -0.08305859 -0.046439778 -0.031611748
000020 35 21 12 3e 64 ae a8 3d 80 c3 7c bd 6a 17 ef 3c
       0.1427048 0.08236387 -0.06170988 0.02918597
000030 2a 62 0e be 95 9e 04 bd 62 cf e9 bd ae 0c e3 3c
       -0.13904634 -0.032377798 -0.11416508 0.027716007
000040 3c 7f 03 bb c9 7b 4d be ce 08 25 be a8 21 f0 bd
       -0.0020064851 -0.20066752 -0.1611664 -0.117251694
000050 62 31 24 3e 68 9d 17 bd aa 7d 4c be a2 85 81 bd
       0.16034463 -0.03701535 -0.19969812 -0.063243166
000060 9f 78 3a bd b4 c9 cd bd c8 5b 2b bd 17 88 78 bd
       -0.04552519 -0.100482374 -0.041835576 -0.06067666
000070 75 c4 8c bd 08 69 95 bd 35 e3 aa 3d 22 c0 bf bd
       -0.06873409 -0.07295424 0.083441176 -0.09362818
000080 5e cf 08 be a9 f3 1a 3d b7 39 e5 3c 46 06 f1 bb
       -0.13360354 0.03783003 0.027981622 -0.007355484
000090 99 9e 39 3d 9a d7 09 be b1 10 8d bc 96 62 72 bd
       0.045317266 -0.13461152 -0.017219873 -0.05917605
0000a0 cc 39 86 3e 75 80 00 3e c9 25 b7 bd 62 46 11 bd
       0.2621597 0.12549002 -0.08942754 -0.035467513
0000b0 aa cb d9 bd 73 c0 1b 3e 81 d8 94 3d a1 54 0a be
       -0.10634549 0.15210132 0.07267857 -0.13508846
0000c0 7c b1 09 be 08 f2 49 3d 51 92 2c 3b 20 ab 77 3d
       -0.13446611 0.049303085 0.0026332329 0.060465932
0000d0 54 56 ee 3d 2f d5 99 bb b3 7a b6 bd 40 22 aa 3c
       0.116375595 -0.004694603 -0.08910122 0.020768285
0000e0 75 6e 72 3c 0d b9 61 bc b1 b4 11 bc 0c 60 31 bc
       0.014796843 -0.01377703 -0.008893178 -0.010826122
0000f0 d2 b0 15 3e b2 3c c4 3c b6 bd dd bd 70 03 ec bd
       0.14618233 0.023954723 -0.108272 -0.11524093
000100 80 0e 5c bd 43 03 6f 3e fd 9a 32 3e b1 93 47 bd
       -0.053724766 0.23341088 0.17441936 -0.048724834
000110 04 a8 2f bc 1b 41 db 3c 65 ce 83 3e 9b b8 10 3e
       -0.01072121 0.026764443 0.25743404 0.14132921
000120 2e ce df bd c7 37 c3 bd 6f 9c a5 bd b8 45 12 be
       -0.109279975 -0.09532123 -0.08086478 -0.14284408
000130 81 f7 4b bd 02 6c 35 be 40 99 85 bc dd 1d 6e bd
       -0.049796585 -0.17716983 -0.016308427 -0.05813395
000140 ac ce 42 3c 47 28 21 bd 10 be e1 3b 5b f9 99 bd
       0.011890095 -0.039345052 0.0068891123 -0.07518264
000150 8c 82 29 3d c3 7c 40 3d d6 a7 13 bd d1 57 8c 3c
       0.041384265 0.046993982 -0.036048733 0.017131718
000160 82 94 33 bd 9a f5 98 3d 03 b3 ef bd cf 3a ba bd
       -0.0438428 0.0746872 -0.11704066 -0.09093248
000170 9b f7 e7 bd 63 26 15 be 83 1b 28 bd ab 17 84 bd
       -0.11326524 -0.14565425 -0.041041862 -0.06449827
000180 c2 ec 23 be 40 fd ff bd 7c ca 25 be b1 8e eb bd
       -0.16008285 -0.124994755 -0.16190523 -0.115018256
000190 d3 2d 1c bc f0 3f 5f 3c 9e 34 bb bd 7c c9 5c 3c
       -0.00953241 0.013626084 -0.09140895 0.013475772
0001a0 57 12 23 be b6 60 00 bd 00 fd 4e 3c 93 b1 ea 3d
       -0.15924965 -0.03134223 0.012633562 0.11459651
0001b0 3f 77 27 3e a5 c7 4d 3d 91 eb ce bb 83 d1 17 3d
       0.16354083 0.050239224 -0.006314703 0.03706504
0001c0 6b 37 15 3d 0d 92 28 3e 30 3a 3f 3d 89 63 87 3c
       0.036429804 0.16461964 0.04668635 0.016526954
0001d0 9c 8c 77 bd f7 b7 c8 bd 5d b8 87 bd 80 5e 6c bd
       -0.06043683 -0.098007135 -0.066269614 -0.05770731
0001e0 eb c3 a9 bd 23 bc 26 be 17 6f 30 be dc e7 4d be
       -0.082893215 -0.16282706 -0.17229877 -0.20107979
0001f0 4b 65 02 be e8 d6 cc bc e4 c2 e0 3d 6a 68 4d bc
       -0.12733953 -0.025004819 0.109746724 -0.012537101
000200 9d 83 9b bd 87 df fa bc 0f 4a 18 3e 94 77 2c 3e
       -0.075934626 -0.030624164 0.14872001 0.1684249
000210 e2 6d 7b 3e 70 96 0d 3e 28 d0 33 3d 43 40 66 3e
       0.24553636 0.13826919 0.043899685 0.22485451
000220 12 77 84 3e 3e 6d a5 3e 13 85 4c 3e c8 34 3c 3e
       0.25872093 0.32309908 0.19972639 0.1837951
000230 7d 77 3d 3e 72 ea 51 3e ac bd 48 3e 78 da 03 3e
       0.18502612 0.2049959 0.19603604 0.12876308
000240 01 84 44 3e 6b c4 5e 3b 74 45 1e bd 73 e7 33 3d
       0.1919098 0.0033991586 -0.038640454 0.0439219
000250 6d 12 ef 3d 02 0f 33 3d 7c e9 06 3d d1 cb b1 bd
       0.11673436 0.043715484 0.03293751 -0.08681453
000260 96 03 ac 3c 7e 4c 8a bd 65 93 69 bd 0e 76 21 3e
       0.020997804 -0.06752871 -0.057025332 0.1576769
000270 59 25 44 be 49 12 92 3d ae 8d 11 3d e9 ca ab bd
       -0.19154872 0.07132394 0.035535507 -0.083883114
000280 c9 90 d1 ba a3 20 09 be 23 95 b7 bd 36 cc 8b bc
       -0.0015988584 -0.13391356 -0.089639924 -0.017065149
000290 33 41 14 3d 7c 16 1e be da c3 cb 3c f5 e5 ed 3d
       0.03619499 -0.15438265 0.024873663 0.116161264
0002a0 76 33 5e 3c 27 a4 c9 3b 28 1f f9 bd 8f 58 9d bd
       0.013562074 0.0061536017 -0.12164146 -0.07682907
0002b0 93 e0 ee bc 04 73 a4 bd 8a 8e 14 be 81 a5 17 3e
       -0.02915982 -0.0802975 -0.145075 0.14809228
0002c0 cb e5 52 bd c4 0f 82 3d f3 c4 30 3d 05 d9 ea bb
       -0.05148868 0.06350663 0.043156575 -0.007166984
0002d0 d4 d3 10 3e 82 26 30 bd 65 21 26 3d bb 60 c9 3d
       0.14143306 -0.043005474 0.04055919 0.09832903
0002e0 c4 3a 8e 3d 1c ba ac 3d b9 cd c7 bd ad 33 2c 3e
       0.069448024 0.08433935 -0.09756035 0.16816588
0002f0 1f 9e 73 3d 4e 6f 3c bd e2 1b a5 bd 1d 7f 57 bc
       0.059476968 -0.046004586 -0.08061959 -0.013152865
000300 6b af ec 3d f9 90 33 3e dc 95 10 3e ec e2 96 3b
       0.11556896 0.17535771 0.14119667 0.004604688
000310 41 47 75 3d 8e 99 95 bd 7a 91 ee 3d 67 32 94 3c
       0.059882406 -0.07304679 0.11648841 0.01809044
000320 63 98 24 3d a1 2c 0d be e0 41 04 3e e5 85 b5 bd
       0.04018439 -0.13786556 0.12915754 -0.08863429
000330 ec 34 2b bb 09 08 14 3e 85 0e 09 be e0 fd 09 3d
       -0.0026124073 0.1445619 -0.13384445 0.03368938
000340 85 b8 53 bd a1 ff b1 3d fc 8b 0e 3d 01 17 e2 bd
       -0.051689643 0.086913355 0.03480147 -0.11039544
000350 60 4f a3 bc 23 45 75 bd 3a 0d 72 3d 29 1d 21 3c
       -0.01993531 -0.059880387 0.059094645 0.0098336125
000360 50 ec bf bd b2 93 34 3e ee 69 0b 3e c6 8c cb bd
       -0.09371245 0.17634466 0.13614628 -0.0993896
000370 8d 38 a9 bd b3 09 c4 3d e6 a8 d7 bd 07 8c f2 bd
       -0.08262739 0.095721625 -0.10530262 -0.11843114
000380 aa 4a 11 be 56 84 36 bd bf 1b d9 3d a2 b4 1b 3e
       -0.14188638 -0.0445598 0.10600995 0.15205625
000390 42 44 7d 3c 94 a5 05 3e e0 6a f3 bc 0e 5a bd 3d
       0.015458168 0.13051444 -0.029714048 0.09245692
0003a0 f3 54 c6 bb 5e 91 a8 3d 38 a2 8c bd 06 0c cb 3d
       -0.006052607 0.082308516 -0.06866878 0.09914403
0003b0 7f 45 4f 3c 23 23 e1 3d df 65 07 3e be ba ed bc
       0.0126508465 0.1099303 0.13222454 -0.02901971
0003c0 c2 c0 a3 bd 78 74 11 be 62 68 da bc d1 9e 79 3a
       -0.0799575 -0.14204586 -0.026661102 0.00095222617
0003d0 c0 bb e1 3d 11 f5 c9 bd 93 d4 08 be 03 e2 6f be
       0.110221386 -0.09861196 -0.1336234 -0.2342606
0003e0 f0 57 9f bd 1d 13 07 be 50 5a 11 bc 04 44 15 bc
       -0.077804446 -0.13190885 -0.00887163 -0.0091104545
0003f0 62 cb 9b bc 40 70 b2 3d 4d 17 a7 3d c0 72 12 bd
       -0.019017879 0.08712816 0.08158741 -0.035753965

bias f4 [32]
000000 d3 a4 24 3e 54 63 c2 be bd 9d ec ba 6b 0a 0b 3e
       0.160785 -0.37966406 -0.0018052381 0.13578193
000010 a2 dd 7d 3b a2 8c a7 bd 8f 52 4a 3d 3d 37 a3 bd
       0.003873684 -0.081811205 0.04939514 -0.0796952
000020 29 95 aa 3d bf 33 2a be b9 60 42 be 74 09 b0 bd
       0.08329231 -0.16621302 -0.1898221 -0.08595553
000030 9d 97 41 3e 23 b3 0f ba 7d 41 41 be 7b 88 9a 3e
       0.18905492 -0.00054817105 -0.18872638 0.3018225
000040 d4 21 5b 3d ab ee fc 3d b9 a5 48 be fb fa 3b bd
       0.053499058 0.1235021 -0.19594468 -0.04589365
000050 0c c3 32 bd cd 28 7b 3d 0c 43 55 be 46 ad 26 be
       -0.043643042 0.061318208 -0.20826358 -0.16277036
000060 2a b9 7c 3d 68 bc b8 be 2d d5 da bb 01 56 8b bd
       0.061700024 -0.36081243 -0.0066782446 -0.06803513
000070 40 12 c8 3e 37 63 f9 bc ce 17 d1 bd e3 97 f9 bd
       0.39076424 -0.030442817 -0.102096185 -0.12187173

weight f4 [32, 32, 5, 5]
000000 0b a6 b8 3b b8 b9 28 3d 5e 34 a2 3a 19 d4 5f bd
       0.0056350282 0.04119274 0.0012375226 -0.05464563
000010 0e 26 bf bc b0 26 0f bd 63 47 8f 3d 28 84 ef 3c
       -0.023333576 -0.034949005 0.06996038 0.029237822
000020 e4 7d 9e 3b fc a4 fc bc 4a 12 72 bc c4 29 dc 3c
       0.0048367847 -0.03084039 -0.014774868 0.026875384
000030 e1 90 25 3d 71 8b 1d 3d 91 0f ca bc e3 b2 28 bd
       0.04042137 0.03846306 -0.024665626 -0.041186225
000040 6c 76 de bc af 9e de 3c 49 db ab 3d 76 47 8e 3d
       -0.027156077 0.027175276 0.08391435 0.06947224
000050 e0 c9 0a bd 57 b2 e7 bc ec c9 99 bc 15 2d 9e 3d
       -0.03388393 -0.028283281 -0.018773042 0.077234425
000060 3d c1 98 3d 9a 04 1e bc be 5b 93 bc dd 32 ce 3c
       0.07458732 -0.009644652 -0.017988082 0.025170738
000070 de 89 58 bb 87 92 3d bc f4 cc 33 3c 83 33 c7 bb
       -0.003304116 -0.011570579 0.010974158 -0.0060791387
000080 bc 3f 5c bc 76 96 c0 3b 18 00 80 3c 69 47 2a 3d
       -0.01344293 0.0058773113 0.015625045 0.04157201
000090 eb 20 ca 3c 87 88 81 bd 5c 94 7c bd 91 56 1f 3d
       0.0246739 -0.06324869 -0.061664924 0.038900916
0000a0 15 df 22 3d 24 e3 e0 3a 3d 94 df bc 6d 87 86 bd
       0.03976353 0.0017157537 -0.027292365 -0.06568799
0000b0 01 0b f3 bc 76 00 5d 3d 8d 12 02 3c 9d b3 22 3d
       -0.029668333 0.053955518 0.007938993 0.039722074
0000c0 82 73 11 3d 20 d7 df bc 70 67 0d 3c b7 9a 22 bd
       0.035510547 -0.02732426 0.008630618 -0.03969833
0000d0 8a c1 e6 bc f1 35 df 3b 43 85 30 bd 59 04 28 bd
       -0.028168458 0.0068118502 -0.04309584 -0.04101977
0000e0 e2 06 51 bd 97 1d 35 3a cf 59 06 bd b0 8c ad bc
       -0.051031955 0.0006909011 -0.032800492 -0.02118525
0000f0 8d f7 be 3b c5 68 f1 bc f7 c1 77 bd aa c8 b8 3c
       0.00582785 -0.029468903 -0.060487714 0.022556622
000100 a8 8b e6 3c bc db 18 3d 15 1b 02 bd 49 ab 54 bd
       0.028142765 0.03731893 -0.03176411 -0.051921163
000110 f9 a8 35 bc bd 3a db 3c 26 c8 ad bc e8 15 98 3c
       -0.0110876495 0.026761407 -0.021213602 0.018565133
000120 f2 6c d4 3b 59 22 ff 3b 48 24 f3 bc 5d 2b 71 bb
       0.006482714 0.007786077 -0.029680386 -0.0036799528
000130 b1 9e 20 3c 7d cc 66 3d b1 d4 3e 3c b2 48 b3 bb
       0.00980346 0.05634736 0.011647389 -0.0054713124
000140 12 8c 5c bd 18 01 0f bd fa 84 83 3b e9 73 8a 3d
       -0.05384452 -0.034913152 0.004013655 0.06760389
000150 f8 80 31 3b e0 07 42 bc 6a 49 bd bc 11 84 cf bb
       0.0027084928 -0.011842698 -0.023106296 -0.006332882
000160 27 d3 d1 ba d9 6d a6 3d 47 15 ab 3c 69 b6 00 bd
       -0.0016008363 0.081264205 0.02088417 -0.03142396
000170 79 ff 88 bd d8 c1 ef 3b 62 15 63 3d 95 d0 7a bc
       -0.066893525 0.007316809 0.055440314 -0.015308519
000180 44 ed 8d 3c 3c 95 65 bc 62 c4 58 bd e9 3d 6b 3c
       0.017325051 -0.014012631 -0.05292166 0.014358022
000190 d5 5b da 3c 7d a3 e1 3c 89 e9 fc bc 4b ff 9b bc
       0.026655117 0.027543778 -0.030873077 -0.019042632
0001a0 65 ed 12 bd b8 ec 33 bc 9a 39 89 bc 64 8c 1c bc
       -0.03587093 -0.010981731 -0.0167511 -0.009554956
0001b0 00 fe 10 bc 86 b4 14 3d 20 67 85 3a d4 be 19 3c
       -0.008849621 0.036304973 0.0010177828 0.009383876
0001c0 b5 ec 8e bc 0a 61 6b bb b6 8c 82 3b 2b cc 5d 3c
       -0.017446855 -0.0035915994 0.003984059 0.013537447
0001d0 b7 ef 33 3c 51 a8 ed bc 4e 50 d7 3c b1 46 45 3d
       0.010982445 -0.029010924 0.02628341 0.04816312
0001e0 df 37 d8 bc 47 9b 63 39 c5 01 04 3d f4 82 d8 3c
       -0.026393829 0.00021706252 0.03222825 0.02642963
0001f0 a0 60 b7 3b be 2b 3b 3b 77 95 7f bc d3 7c 19 bc
       0.0055962354 0.0028560008 -0.0155996 -0.009368139
000200 85 0a 6b bc f7 c8 12 3c c5 04 09 3d 8b 21 1e bd
       -0.01434577 0.008959047 0.033451814 -0.038606208
000210 a6 87 f5 3b 88 a7 8f bc 35 01 04 bd 0c 21 91 bc
       0.007492977 -0.01753594 -0.032227714 -0.017715953
000220 d8 d1 03 b9 12 d4 2d bd 0d 2a 32 bc 80 f6 32 bc
       -0.00012571306 -0.042438574 -0.0108742835 -0.010923028
000230 b5 2c 83 bc 07 86 89 bd cf 1b 80 bd a2 24 76 3c
       -0.016012529 -0.06715017 -0.06255304 0.015023382
000240 e1 96 85 3c 9a 56 27 bd 3e 34 5d bc 56 25 27 bd
       0.016307296 -0.040854074 -0.013501225 -0.04080709
000250 23 7f 2c bd f9 ba 9b 3c 45 05 a8 bc 32 f3 18 3c
       -0.042113435 0.019010054 -0.020510325 0.009335326
000260 e6 2c a0 bb 0f 96 76 bc 5a 0d 42 bd da dd f6 bc
       -0.004888165 -0.015050425 -0.047376014 -0.030135084
000270 ca 76 25 bd 99 93 14 bd ae 31 44 3c 9b b0 07 bd
       -0.04039649 -0.036273573 0.011974735 -0.03312741
000280 28 79 75 3b df c3 30 bd 2a ff c7 bc e0 4f 07 3d
       0.0037456248 -0.043155547 -0.024413664 0.03303516
000290 5b 11 0c bd 59 c6 60 bd 24 26 25 bd 9a 2f 34 bd
       -0.03419624 -0.05487666 -0.040319577 -0.04399071
0002a0 ca a7 5f 3b 81 cf 0a 3c 6e 39 d8 bc e9 c2 2c bd
       0.003412711 0.008472324 -0.026394572 -0.04217807
0002b0 d2 d1 18 bd c9 54 de bc 3f 36 f1 3a 7e 30 fb bb
       -0.037309475 -0.027140038 0.0018403007 -0.007665693
0002c0 0e ec 11 bb 66 f8 67 bd 1c 46 d4 ba 4d 9f 64 3d
       -0.0022265944 -0.056633376 -0.0016195211 0.055815984
0002d0 43 a8 98 3c 2b 2e b4 39 80 0f 1a bd 86 da 67 3c
       0.018634921 0.00034366673 -0.03761244 0.014151221
0002e0 54 78 4d 3d e1 bd 07 3d 85 48 20 3d fa 28 e7 bb
       0.050163582 0.033140067 0.03913166 -0.0070544453
0002f0 1a a2 5a bd 2d 2f 5c bc d3 4d 27 3d 00 da a7 3d
       -0.05337725 -0.013438982 0.040845703 0.08195877
000300 80 c3 6a 3d fe 10 f3 bc 7b 49 e6 bc 0f bf 20 bd
       0.05731535 -0.029671188 -0.02811121 -0.039244708
000310 bc 2a 2a 3b a7 13 50 3d 65 13 09 bc 59 31 88 bb
       0.0025965413 0.050799992 -0.00836644 -0.0041562733
000320 06 97 71 3c cd 17 f3 3c 18 08 c7 3c 5c 09 0c 3c
       0.014745479 0.029674435 0.024295852 0.008547153
000330 48 5a 33 bb 63 07 3d bd 58 4e 8a bc da 2b b1 3c
       -0.0027367044 -0.046149623 -0.01688306 0.021627355
000340 22 c0 aa 3a a8 ca 2e 3b 9e cb 48 bd c4 15 b8 bb
       0.0013027231 0.0026671086 -0.04902231 -0.005617829
000350 4a 07 a2 3c 1a b6 fb 3c dd 9c 2b bd fd 91 4f bd
       0.019778866 0.030726481 -0.041897643 -0.050676335
000360 f5 ab d7 3b eb 63 77 3d 05 ce a3 3d a5 e4 d1 3c
       0.006581778 0.060398024 0.079982795 0.025621722
000370 26 da bb bc 09 57 41 bd 1c 9f 84 3c 83 d3 9a 3d
       -0.02293117 -0.047202144 0.01618915 0.07559874
000380 8b 97 07 3d 84 05 72 3c d3 f3 7f ba e5 21 80 3a
       0.033103507 0.014771823 -0.00097638107 0.0009775726
000390 9b 12 b1 3c 63 41 55 3b d9 ab d4 bb 84 ac 2c bc
       0.021615317 0.0032540194 -0.0064902124 -0.010539178
0003a0 39 14 60 bb 70 cd 1f 3d 51 d0 42 3d de d8 31 3d
       -0.003419174 0.03901428 0.047561947 0.04341971
0003b0 9b 83 0a 3c 8c 01 2d bd 0e c4 9c 3b d5 5f 19 3d
       0.008454229 -0.042237803 0.0047841137 0.03744491
0003c0 db 23 36 bc 58 7d 39 bc 3d 4d 69 bd 8d 48 56 bc
       -0.011116947 -0.011321388 -0.056958426 -0.013078821
0003d0 db cc 17 bc c3 d0 f3 3c b4 4f e7 3c 68 f7 1e bd
       -0.00926515 0.029762631 0.028236248 -0.038810164
0003e0 53 bb 5e bd c4 f0 35 bc a9 fa c5 bb eb a3 f3 bc
       -0.054377865 -0.011104766 -0.006041844 -0.029741248
0003f0 a8 35 ff 3b 45 63 48 3d 7e 11 0c 3d 21 d8 3f bc
       0.0077883787 0.048922796 0.03419637 -0.011709244

bias f4 [32]
000000 96 a3 a6 bd f3 73 e6 bd 89 bd b6 bd 62 a2 aa bc
       -0.0813667 -0.11252584 -0.0892287 -0.020829383
000010 e7 0a 3e 3d 83 0c 34 be fb 7d 0e be b0 a5 17 3d
       0.046397116 -0.17582898 -0.13915245 0.037023246
000020 4a d1 b0 ba be 22 70 bd 32 81 13 3d 87 91 92 bd
       -0.0013490107 -0.058626883 0.036011882 -0.071566634
000030 a9 76 6f bc 02 c1 c2 bd 1b c1 c1 bd 79 8c 87 bd
       -0.014615693 -0.095094696 -0.0946066 -0.0661859
000040 b0 ee 5e bd 31 e5 9c bd ca 17 5a 3b 4e 14 29 3c
       -0.05442685 -0.07660902 0.003327834 0.010319782
000050 e1 cd 85 3d 1b 04 30 bd ca 43 43 bd 01 c6 c6 bd
       0.06533409 -0.042972665 -0.04767207 -0.09705735
000060 38 dc 19 3d e1 0d 29 bd 08 7c 07 3d a6 31 83 bd
       0.037563533 -0.041273 0.03307727 -0.06405954
000070 d1 40 30 bd 3c f3 a1 3d 03 4b b7 bd 67 a0 ca 3c
       -0.043030564 0.079077214 -0.08949854 0.024734689

weight f4 [64, 32, 5, 5]
000000 66 5f bb ba 86 9f 4c 3c b4 40 1d bd 26 27 da bc
       -0.0014295399 0.012489205 -0.038391784 -0.026629996
000010 da 8a d8 3c 4e 25 c0 bc 1e 2e 9e 3c 83 9f 2e bd
       0.026433397 -0.023455288 0.0193091 -0.04263259
000020 28 6e ac bc a5 b5 de 3c ff ff 64 bd 69 4d 31 bd
       -0.02104862 0.027186224 -0.0559082 -0.043286715
000030 cc f9 3f bd a9 b3 2b bd 15 16 e3 3b 2b 7b 93 bc
       -0.046869084 -0.041919384 0.0069301226 -0.018003067
000040 04 71 95 39 8c 2c da bc e3 0c 19 3c 53 67 fa 3b
       0.00028503698 -0.02663257 0.009341451 0.0076417117
000050 09 0c 10 bd 07 61 bd bc a8 20 70 b9 50 fa dd bc
       -0.035167728 -0.023117555 -0.00022900349 -0.027096897
000060 d1 09 26 3c dd 4b b2 3b 86 fc 34 bd 75 b3 48 3b
       0.010134176 0.0054411725 -0.044186138 0.0030624543
000070 bc 93 88 3c 6f 5d bc 3c b9 1d 87 bc f6 3e 07 bd
       0.016672008 0.022993771 -0.016493665 -0.03301903
000080 8a bc 18 bd af 0e 1b 3d dc 5b 90 3c 7c be 19 bc
       -0.03728918 0.0378558 0.017621927 -0.009383794
000090 e9 60 36 bb 11 ed 1c 3c 43 47 82 3c 51 94 5d 3d
       -0.002782876 0.009578005 0.01590312 0.054096524
0000a0 69 40 fe bc 33 52 5c bd be a1 06 bd 1e 5f 86 bc
       -0.031036573 -0.05378933 -0.032869093 -0.016402777
0000b0 80 c8 92 3c cd e2 f7 3c 72 c2 0c 3c 12 5e bb 3b
       0.017917871 0.030259514 0.008591281 0.005718001
0000c0 d1 d0 da 3c fd 9d 37 bc 3c 60 00 bd 55 3d 19 bc
       0.0267109 -0.011207101 -0.031341776 -0.009353002
0000d0 f8 c2 25 bd 3e 1e bc 3b 50 97 13 bc 6e 01 19 3d
       -0.04046914 0.00574091 -0.009008244 0.03735488
0000e0 5e dd 1e bd 66 96 ac bc a5 e1 d7 3b 22 4e 6c 3b
       -0.03878533 -0.02106781 0.006588178 0.0036057313
0000f0 52 cd 0d bd fa 44 ee bc d1 7c fd ba 09 53 08 3d
       -0.034619637 -0.029085625 -0.0019339566 0.033282313
000100 a2 bf 34 3d eb 2c 01 bb e5 cb e5 bc dd 9f 20 bc
       0.044128068 -0.001971061 -0.028051326 -0.009803739
000110 c3 64 39 3d bc 3b e7 3c 90 88 e0 bc 74 0d 84 3b
       0.04526211 0.028226726 -0.027408868 0.004029924
000120 a5 84 0e 3d b2 93 01 bc f8 30 d0 bc a7 36 4e 3c
       0.03479447 -0.007908748 -0.025413975 0.012586272
000130 25 64 2d 3c 7e 69 7e bd 11 6b 82 3c 23 24 9f 3c
       0.010582958 -0.062112324 0.015920194 0.019426411
000140 fb 65 14 3d c1 95 75 bc 58 87 6e bd 34 84 80 bb
       0.03623007 -0.014989317 -0.058234543 -0.00392201
000150 9d 02 31 bc f5 57 e8 3c 0c 1a 5c bd db b3 34 bd
       -0.010803846 0.028362254 -0.053735778 -0.044116836
000160 aa 78 a3 3c 71 ae 0d 3d bc 64 25 bd 67 16 cd bc
       0.019954998 0.03459019 -0.04037927 -0.025035096
000170 de 5c 41 bd fa 09 f7 bc 57 14 15 bc 6a d1 d6 3c
       -0.047207706 -0.030156124 -0.009099088 0.026222903
000180 22 6b 91 bc d5 c0 69 3c 9c a4 15 3d 39 b6 8f bc
       -0.01775128 0.014267166 0.036533937 -0.017542945
000190 6d d5 ea bc 0d 14 5b bc 4e 4e bc 3c 87 2a fe 3c
       -0.028666222 -0.01337148 0.022986557 0.031026138
0001a0 61 44 4e 3c d4 3b 5f 3b 4e 5b 92 ba 0b 3e a6 3b
       0.012589545 0.003406276 -0.0011166127 0.005073314
0001b0 64 ba ac bb f7 39 69 bc f6 93 6c bc fc 8c c9 3c
       -0.005271243 -0.014235011 -0.0144395735 0.02460336
0001c0 69 1f bd ba 73 13 1f 3d 5e d3 28 3c 7f 72 83 bb
       -0.0014428917 0.038836908 0.0103043 -0.0040114517
0001d0 75 60 b4 bc ce 50 04 3c 80 65 5b bc d3 27 c7 bc
       -0.02201865 0.008075906 -0.013390899 -0.024310982
0001e0 14 81 da 3c f9 51 27 3d e9 9a b9 bb 3e 11 6b 3c
       0.026672877 0.04084966 -0.0056642187 0.014347373
0001f0 4c 77 0b 3c fe 06 f8 bc e4 c6 3e bd b3 12 cd 3b
       0.008512329 -0.030276772 -0.046576396 0.0062583326
000200 09 f4 8f 3c 9b 90 31 3a f9 b8 c3 bc 78 9a d7 3c
       0.01757242 0.0006773562 -0.023891913 0.026318774
000210 0b e0 55 3c 5a 15 b9 3c 86 04 de 3c d9 ac 5f 3c
       0.013053904 0.022593189 0.027101766 0.01365205
000220 9b 5f 99 bc e9 61 a1 3b 44 2b 5f 3d 0c a5 93 3c
       -0.018722346 0.004925002 0.05448462 0.018023036
000230 db 10 56 bb 25 ea 71 3c 1b ec 8c 3c 7c 8f ad 3a
       -0.0032663855 0.014765297 0.017202428 0.0013241614
000240 35 8f c2 3c d7 e4 a6 3c 78 f7 9f bc 93 97 fe 3c
       0.023749927 0.020372791 -0.019527182 0.031078136
000250 aa 58 01 3c c9 00 0e 3d 87 cc b4 bb 1e 0c 08 3d
       0.007894674 0.034668718 -0.0055175456 0.03321468
000260 ee f8 f0 bb d4 95 b4 3c 3e 77 b1 3b 23 b0 2d 3c
       -0.0073538935 0.0220441 0.005415826 0.010601076
000270 d9 73 d4 3a 3e 57 5e bc 2f 43 3c 3c 55 f1 13 3d
       0.0016208842 -0.013570605 0.011490627 0.036118824
000280 db f9 b8 bc 3a 9f 2f 3b 38 67 bf 3b 2c 1d 1d 3d
       -0.022580078 0.0026797787 0.005841162 0.0383579
000290 08 1b cc 3c 8f b5 52 bb 2d c1 4d bc d6 2f 0f bd
       0.024915233 -0.0032151674 -0.012558264 -0.03495773
0002a0 70 62 cc b7 3b 22 b5 bb 18 1d ab 3c 4f 94 15 3c
       -2.4364534e-05 -0.005527762 0.020887896 0.009129598
0002b0 6b b2 a8 3c 32 82 11 3d c8 92 47 3d c5 9e 51 bc
       0.020592889 0.035524555 0.048723966 -0.012794201
0002c0 83 00 09 3c d2 95 56 3c 20 ac f2 bc c5 26 c2 bc
       0.008361938 0.013097243 -0.029623091 -0.023700127
0002d0 3a 7c 58 bd a7 ce 47 bc f8 ff f6 3c 35 39 06 3b
       -0.052852847 -0.012195266 0.030151352 0.0020480875
0002e0 ee 51 f0 bb db a8 04 bd 8a 15 83 bb c9 ce 0d bd
       -0.0073339855 -0.032387596 -0.0040003704 -0.034621034
0002f0 cb 53 8c bc 88 f1 a9 3c d5 a4 6b 3c 1a 2b d5 3c
       -0.0171298 0.020745054 0.014382561 0.026021529
000300 41 59 22 3d 61 6a d6 bc bc 27 7a 3c cd 86 ef bb
       0.0396359 -0.026173772 0.0152682625 -0.0073097707
000310 93 a1 4f 3c c6 ef 9e b9 e1 79 16 3c 8c 50 d5 3c
       0.0126728 -0.00030314754 0.009184332 0.026039384
000320 3e eb 7b 3c 23 1f 3c 3d e6 93 2f 3c 52 74 8e bc
       0.01537591 0.04592813 0.010716414 -0.01738945
000330 78 d3 1e bd e1 44 56 3a b4 30 e8 3c be 7d fb bc
       -0.03877589 0.0008173716 0.028343536 -0.030699607
000340 a6 f4 e7 bc c2 1b af bc 2e 81 49 ba fe 02 04 3d
       -0.0283149 -0.02137554 -0.0007686791 0.032229416
000350 20 ef 1f bd bb c1 2b bc 88 66 f1 bc e9 16 65 bc
       -0.039046407 -0.010483201 -0.029467836 -0.013982513
000360 d2 9a 8f 3d 25 06 2e 3d 7f aa 5c 3b f9 b5 a1 3c
       0.070119515 0.04248633 0.003367096 0.019740092
000370 5d 67 8f bc e6 c9 0f 3d f6 f8 8a 3c ce 2c 9f bc
       -0.017505342 0.035104655 0.016964417 -0.019430544
000380 36 2f d8 3b ad cd 7c 3c f2 e1 fb 3c 06 e2 76 3c
       0.006597425 0.015429896 0.030747388 0.015068537
000390 6d ec c8 3c ad b5 d0 3c 9a 8f a3 39 50 fa f8 3c
       0.0245268 0.025477255 0.00031196774 0.030392796
0003a0 06 a7 c8 3b 2f ba bc bc 33 3b d5 3c 89 13 fb 3c
       0.0061234264 -0.023037998 0.026029205 0.030648964
0003b0 da 88 1c bd df 40 33 bd c3 fe 46 bd a4 b7 1c bd
       -0.03821645 -0.043763038 -0.048582803 -0.03826107
0003c0 5f fe 95 bc bf f3 c7 3c 64 4b 46 3d 0d b3 59 3d
       -0.01830977 0.02440822 0.04841174 0.05314927
0003d0 3e b3 91 bc bb 73 8e 3c a1 00 1b bc 32 a4 b8 bb
       -0.017785665 0.017389169 -0.009460599 -0.005634808
0003e0 20 f2 16 bd ff 07 2a bc 11 b9 0e bd 5d 60 0d bd
       -0.036852002 -0.010377883 -0.03484446 -0.034515727
0003f0 dc 6b 48 bd 01 25 08 3d 45 d1 cf bc 93 ce b0 bc
       -0.048930988 0.033238415 -0.025368342 -0.021582877

bias f4 [64]
000000 aa 09 42 bd 7b df 9a bd 9d 4f 98 bd 9e c1 9a bb
       -0.047372498 -0.07562157 -0.0743706 -0.004722788
000010 78 d8 ee bb 30 70 7f bd 51 7f d2 bc e0 77 f4 3b
       -0.0072889887 -0.06236285 -0.025695475 0.0074605793
000020 55 13 e7 bc c2 d1 bd bc 24 45 8d bd e3 84 43 bd
       -0.02820746 -0.02317131 -0.06897953 -0.047734153
000030 91 09 25 bd d9 43 0c bd 37 d3 5e bd b9 2e c8 ba
       -0.040292326 -0.034244392 -0.05440065 -0.0015272713
000040 1e e0 6c bd a4 79 39 bd a7 72 4f bd b8 de 33 bd
       -0.057830922 -0.04528202 -0.05064645 -0.043913573
000050 84 d1 25 bd 4e 5d ab bb 47 01 a4 bc 2f 5a a2 bd
       -0.040483013 -0.0052296286 -0.02002014 -0.079273574
000060 63 72 4a bd 23 da c6 bb 87 07 50 bd 15 72 32 bc
       -0.049425494 -0.0060684844 -0.05078843 -0.010891457
000070 46 5c 11 bd 71 d4 46 bd 28 f5 0f bc 63 6f d5 bb
       -0.03548839 -0.048542444 -0.008786477 -0.0065135225
000080 b4 4a 63 3c 8f e1 7b bc 88 21 56 bd be ac 64 bc
       0.013872791 -0.015373602 -0.05227807 -0.013957201
000090 f4 9c 82 bb bc e9 83 bd 3f b3 70 bd 3c e4 b5 bd
       -0.0039859954 -0.06441066 -0.058764692 -0.08881423
0000a0 ee c7 5b bd df eb 38 bd 11 e1 5a 3d 50 39 6e ba
       -0.053657465 -0.04514682 0.053437296 -0.000908752
0000b0 a6 85 fd bc 82 65 1e bc d4 60 ad bc 5b 01 79 bd
       -0.030947518 -0.009667756 -0.021164335 -0.06079231
0000c0 9b 52 66 bc 3f 71 c6 bb 86 a2 9d bd 86 28 81 bd
       -0.014057781 -0.0060559805 -0.076970145 -0.06306557
0000d0 05 15 21 bd a5 12 a8 bd a9 02 a8 3c 69 db f2 3c
       -0.039326686 -0.08206681 0.020509081 0.029645639
0000e0 7c 91 11 3d da 9e 8f bd 34 d0 19 3d be ab 97 bd
       0.035539135 -0.070127204 0.037552074 -0.07405804
0000f0 e6 05 5b bd ec 9e 38 bb ff f4 41 bb f5 aa 17 3c
       -0.053472422 -0.0028170897 -0.0029595492 0.009257068

weight f4 [64, 1024]
000000 c6 ea 55 bd ee 51 06 3c 43 76 8a 3c f2 ac 47 3c
       -0.05222585 0.0081982445 0.016902095 0.0121872295
000010 2a fc 8c bb 16 ac ce 3c 86 ac 8e 3c af 90 b1 bc
       -0.0043025212 0.025228541 0.01741625 -0.021675436
000020 e2 35 81 bc 50 b1 e9 bb 0a 53 19 3d 8c 7b 1c bc
       -0.015772764 -0.007131733 0.037432708 -0.00955094
000030 34 81 d6 bc 85 9d 65 bd e2 ec a7 ba 35 53 0e bd
       -0.026184656 -0.056058425 -0.0012811685 -0.03474732
000040 e4 6b f8 bb b1 33 c0 3c ad 08 ab bc bb b7 c8 39
       -0.007581221 0.023462148 -0.02087816 0.00038283863
000050 10 b4 3b 3b 84 be 18 bc 18 92 38 bc 1c 43 0b bc
       0.002864126 -0.009322766 -0.0112653 -0.008499887
000060 f6 a0 76 bc 3d 91 b0 3c a7 f7 f4 bc ad b1 4d 3d
       -0.0150530245 0.02155363 -0.029903246 0.050218273
000070 dc d5 7c 3c 56 17 83 37 0e 8d a8 3b 5c ad 9d bc
       0.015431847 1.5627284e-05 0.005143768 -0.019247703
000080 1e 41 16 3c 65 f3 80 bb 12 b2 e8 bc 81 77 42 bc
       0.009170799 -0.003935265 -0.028405223 -0.011869312
000090 bf ad a8 bc 73 78 af 3c 3a cc 80 3c aa 86 cf 3c
       -0.020590661 0.02141974 0.015722383 0.025332768
0000a0 3d cb 86 bc d0 48 12 bd af 69 00 bd 0f b8 6f bc
       -0.016454333 -0.03571397 -0.031350788 -0.014631285
0000b0 3e 04 fe 3b a8 92 d2 3c 5e a3 1a 3c fc 63 89 bc
       0.0077519706 0.025704697 0.009438364 -0.01677131
0000c0 fc 30 a7 bc 95 e1 eb bc 4b 57 73 bc 2f f7 d8 bc
       -0.0204091 -0.02879409 -0.014852355 -0.026485054
0000d0 11 f0 e4 bc b8 b5 b2 b9 77 44 c6 3c dc d6 10 bb
       -0.027946504 -0.00034086197 0.024202568 -0.0022100722
0000e0 ba 10 b4 bc 6a 85 9c 3c f6 70 c8 3c 6c 71 04 3d
       -0.021980632 0.019106586 0.024467926 0.03233473
0000f0 72 9b 29 3c fe 95 09 3d c4 b5 6a 3d 6c d4 00 3d
       0.010352002 0.03359031 0.05730225 0.03145258
000100 0a 90 8c 3c 5f 8b cd bb b3 69 6b 3c 4c 12 09 3d
       0.017158527 -0.006272718 0.014368462 0.033464715
000110 a3 f1 b0 bc 40 8e 5b bc 08 7d 8b 3c 40 08 3f 3d
       -0.021599596 -0.013400614 0.017027393 0.046638727
000120 cb 98 c0 3b c1 2e 3f 3d 63 2b b6 3b a4 f5 aa 3b
       0.0058775893 0.046675447 0.0055593713 0.005217271
000130 dc c4 a2 bc a0 a4 ac 3c d9 b3 8a bc 93 11 50 3c
       -0.01986926 0.021074593 -0.016931461 0.0126995025
000140 b9 1a 71 bc 00 df b5 3c 4b 41 00 3c d4 31 85 bc
       -0.014715844 0.022201061 0.007828067 -0.016259111
000150 01 8d 9b bc 2a 69 2a 3c 2e 28 91 3c e8 b1 2a 3c
       -0.018988134 0.01040105 0.017719354 0.010418393
000160 f4 82 55 bb 88 29 09 3d 09 d8 05 bc 5c 29 1a bc
       -0.0032579275 0.033486873 -0.008169183 -0.009409275
000170 d9 bc 27 3d 7d e6 c5 3c fe 40 e2 3c 76 19 aa 3c
       0.040951584 0.024157757 0.027618881 0.020764094
000180 fb ea 4d bc f4 7b ab bc 5e 1f 56 bc 48 49 9c 3c
       -0.012568231 -0.020933129 -0.013069002 0.019077912
000190 5d 17 42 ba fc 46 35 bc 7e a4 93 bc 34 1d d7 bc
       -0.0007403994 -0.011064287 -0.018022772 -0.026259042
0001a0 74 1b 1b 3d 08 2c 31 3d ba a2 51 bc b9 31 47 3d
       0.03786798 0.043254882 -0.012795145 0.048631404
0001b0 94 d0 82 bc f7 bf 75 3c c9 c4 01 3d 72 9b da 3b
       -0.015968598 0.014999381 0.03168181 0.0066713626
0001c0 6a 4e 22 3c 07 18 49 bd a2 a6 5f ba 7b 86 36 3d
       0.009906391 -0.04909518 -0.0008531605 0.044561844
0001d0 b8 82 f2 3c 93 83 07 bc 5d 66 22 3d 96 68 f2 3c
       0.029603347 -0.008271116 0.039648402 0.029590886
0001e0 20 66 1e bb a3 11 ad bc c8 21 41 3d 64 1e 32 3d
       -0.0024169758 -0.021126574 0.047151357 0.043486014
0001f0 fe 2b 58 3d 78 f3 e1 bb 06 b5 17 bc e5 ce 89 3c
       0.05277633 -0.006895479 -0.009259468 0.016822288
000200 e2 e7 7e bc f0 90 0c bb 04 c7 a6 3c 41 bb 22 bc
       -0.015558215 -0.0021448694 0.02035857 -0.00993234
000210 a3 c9 ed 3c 61 a1 66 3b 1b 69 4c 3d 5f 1b 26 3d
       0.029026812 0.0035191404 0.049904924 0.040553447
000220 eb 1b 2a 3d 0d 11 52 3d bd 41 d8 3c 8b c2 31 3d
       0.04153053 0.051285792 0.026398534 0.04339842
000230 43 b7 95 bc 39 96 8c bb b1 ae d9 bb f7 1a b3 bc
       -0.018275863 -0.004290369 -0.0066431393 -0.021863444
000240 fe 5c 84 3c 30 5a 16 bc 75 0f 73 3c 58 cc ff bb
       0.016157623 -0.009176776 0.014835228 -0.007806342
000250 d9 ea de 3c da 53 0b 3d ab e1 65 3d 8b 36 01 3d
       0.027211593 0.034015514 0.056123417 0.031546157
000260 d0 7c 9a 3c e8 d6 8c 3d b0 ee 09 3d e1 1f 14 3a
       0.018858343 0.068769276 0.033674896 0.0005650502
000270 6c 55 f5 bc 76 e2 83 bc 87 aa be bc 1e d1 93 bc
       -0.029947959 -0.016099196 -0.023274673 -0.01804405
000280 08 5a ea 3c b6 5c ba bb 7e d3 c7 bc 72 90 58 bb
       0.028607383 -0.0056873215 -0.02439284 -0.003304508
000290 d5 7b 1a 3d b2 29 ca ba ae 78 9a ba d6 75 75 3d
       0.03771575 -0.0015423803 -0.0011785233 0.05992683
0002a0 e1 51 05 3d db 12 d6 bc 81 a4 86 3c 96 69 09 3d
       0.03254879 -0.026132038 0.016435863 0.03354796
0002b0 3b fc cb bc d7 33 f0 bc 2c af b5 3b 2e 2a 99 3c
       -0.024900546 -0.029321594 0.0055445638 0.01869687
0002c0 cd 35 b2 3c 11 69 dd 3b 66 38 f0 bc de 15 10 bc
       0.02175417 0.0067569097 -0.029323768 -0.008794276
0002d0 37 c8 7b bc 2f 8b 97 3b 24 72 72 bc 17 d1 85 bc
       -0.015367559 0.0046247463 -0.014797721 -0.016335053
0002e0 94 9d 39 bc 41 45 33 3c 1c d6 0c bd 4b 05 17 3c
       -0.011329073 0.010941804 -0.034383878 0.009217571
0002f0 3c ba d9 3b f2 c4 b4 3c 3d f7 32 3d a6 11 8e 3c
       0.0066445153 0.022066567 0.043692816 0.0173424
000300 21 ea 15 3c e9 2e 39 bd 0d 89 ac 3b d8 de 49 bc
       0.009150059 -0.045210753 0.005265361 -0.0123211965
000310 65 bf 9d 3c 85 93 12 bd 95 3b ac bc d8 dd 90 ba
       0.019256303 -0.035785217 -0.021024505 -0.0011052443
000320 af ba 8e 3b c7 74 cd bc b7 a4 ef 3c d7 e6 0c 3c
       0.0043557505 -0.025080098 0.029253347 0.008599958
000330 f6 ed 41 3d 51 78 52 bc 98 d1 32 bc ef 75 02 bd
       0.047346078 -0.0128460685 -0.010914229 -0.03185075
000340 42 bd 15 3c 14 71 6d bc 15 d7 74 bc a7 f3 63 3c
       0.009139361 -0.014492292 -0.014943858 0.013913072
000350 e7 bb e0 ba 63 59 93 3c b9 b9 08 3d 3c 05 3f 3c
       -0.0017145843 0.017986959 0.033380244 0.011658963
000360 a5 20 13 3c 11 ce bb 3c 3b eb 1b 3c fc d5 4b 3d
       0.008979951 0.022925409 0.0095165325 0.04976462
000370 9d 78 1b bd 09 30 eb bc 2a 1e 05 bc 18 a4 d1 bb
       -0.037956823 -0.028709428 -0.008124867 -0.0063977353
000380 b3 52 65 3c df df 66 3b 3b 17 33 3d c7 ba 17 bb
       0.013996768 0.0035228652 0.043723326 -0.00231521
000390 8a aa c5 3c 5f 2b 44 3c 35 2c 81 ba 87 c2 a7 3c
       0.02412917 0.011973231 -0.0009855094 0.0204785
0003a0 c9 fc c2 3b 33 65 18 bd 55 c1 4c 3c 4b 51 37 bd
       0.0059505445 -0.037205886 0.012497266 -0.04475526
0003b0 1d f9 f4 3b aa ef 9b bc c5 dd a7 3c 30 df 3d 3c
       0.0074759857 -0.01903518 0.02049149 0.011588857
0003c0 7f ed af 3b f9 38 a5 3c 14 6f de 3c c3 e2 90 bc
       0.005368888 0.020168768 0.027152576 -0.017686253
0003d0 4e a0 90 bc c4 a8 c1 bc d0 50 a5 3b 2d 41 f9 3b
       -0.017654564 -0.023640044 0.005045034 0.0076066465
0003e0 93 7e a9 3c 01 7e fb bc d9 b6 bf 3c 95 f6 93 3b
       0.020690238 -0.030699732 0.023402618 0.004515479
0003f0 0e 7f 29 3c da 1d 96 3b 96 c6 32 bb 5f 43 ec bb
       0.010345234 0.0045811953 -0.002727901 -0.0072101797

bias f4 [64]
000000 d9 71 a5 bc 1b 1f f2 3a f0 6d c1 bc 92 de 33 3c
       -0.020195888 0.0018472405 -0.023611993 0.010978358
000010 93 42 1f bc 31 4b 1e 3d cf f8 9f bc c0 c7 a4 bc
       -0.009720462 0.038645927 -0.01952782 -0.02011478
000020 ec b3 17 bb b7 f1 27 bc 6f c0 c6 bc b0 6b 39 bd
       -0.0023148013 -0.0102505 -0.024261681 -0.045268714
000030 b9 cd 57 3c da 0d 3b 3d 74 ad 8e 3b 71 2b d9 bb
       0.013171607 0.045667507 0.0043541733 -0.006627493
000040 b0 d9 ad 3c 0e 56 8b 3c 31 f7 c1 bc b9 1b 04 3d
       0.021221966 0.017008808 -0.02367744 0.032253
000050 29 99 2e bd 75 71 88 3c ef 9e a0 3c c0 7d e1 bc
       -0.042626534 0.016655663 0.019607035 -0.027525783
000060 d0 3d 05 3d 60 8e fc bc 5b 8f 6e 39 8c 39 bf bc
       0.032529652 -0.030829608 0.00022750853 -0.02334287
000070 46 f1 86 3d f5 74 d4 3c 2b 75 e7 bc 07 41 94 3c
       0.06588988 0.025934676 -0.028254112 0.018097414
000080 cb 0d 21 bd fe 0e 1f 3d fa 29 06 bc d8 f3 3a bd
       -0.039319795 0.038832657 -0.008188719 -0.045642704
000090 ee eb 97 bc f8 d3 d4 3c a1 a8 41 bd b3 ba 3b bd
       -0.018545117 0.02597998 -0.047279958 -0.045832347
0000a0 c0 bc 4a bd 29 62 6e bc 60 45 ec bc 00 1e 0e bd
       -0.049496412 -0.01454977 -0.028841674 -0.03469658
0000b0 d1 e1 a0 3c 85 b8 cc bb ce ce 2c bb 94 fd ef bc
       0.019638928 -0.0062475824 -0.0026368382 -0.02929572
0000c0 a4 46 f4 bc 93 de ec bc f7 b2 e6 3c 25 42 77 3d
       -0.02981884 -0.028914725 0.028161509 0.060365815
0000d0 b1 43 76 3c 7c 7d a2 b9 5f c0 bb bb 9d 2d 86 bb
       0.015030787 -0.0003099254 -0.0057297195 -0.004094793
0000e0 0b 36 17 bb ee a5 27 bd 3c dd 3c bd 91 d5 7e 3c
       -0.0023072984 -0.040929727 -0.046109423 0.015553848
0000f0 ca cb f7 3c a5 ed 3b bd 6c 0e a2 3c 84 d0 e8 3c
       0.030248541 -0.045880932 0.019782268 0.02841974

weight f4 [10, 64]
000000 fa db b8 3c 43 f2 34 3e db a9 e1 bd 72 6e c3 bc
       0.02256583 0.1767054 -0.110187255 -0.023856375
000010 58 dc 25 be 28 b0 33 be db 66 af 3d 10 71 36 3e
       -0.16197336 -0.17547667 0.0856454 0.17816567
000020 a4 f8 3a 3e 87 e7 1e 3d 24 1c 40 be d7 52 1e 3e
       0.18258911 0.03879502 -0.18760735 0.15461288
000030 db 40 5b bd cb 62 f1 3c ce 47 69 be 72 21 3b 3e
       -0.053528648 0.029466053 -0.22781298 0.18274477
000040 31 f6 23 3e 31 28 5f be 0d 43 2f 3e 97 d5 13 be
       0.16011883 -0.21792676 0.17115422 -0.14436947
000050 ae d8 f3 3b 84 0a 26 be e2 d6 c3 bb c2 9f 14 3e
       0.0074416017 -0.16214949 -0.0059765438 0.14514068
000060 7a 9d fb bd 24 c8 28 bd fe 52 11 be fc f7 e3 bd
       -0.12285896 -0.041206494 -0.14191815 -0.11131284
000070 9c c6 25 be bf b6 52 bc 58 31 54 bd 52 0f 7f 3c
       -0.16189045 -0.012860953 -0.05180487 0.0155676175
000080 30 a5 66 3e e4 5f 36 be 82 c1 96 bd 9b 2b bb 3c
       0.22523952 -0.17810017 -0.073611274 0.022847941
000090 47 eb 0e be 8e 23 a5 bd 2e de 63 3e 7d 8b 30 be
       -0.13956939 -0.08063422 0.22252724 -0.1724071
0000a0 59 44 50 3e e0 42 a3 bd 1a 67 b2 3d 34 b9 01 3e
       0.20338573 -0.0797174 0.08711071 0.12668306
0000b0 cb 5c 8c 3c f3 81 37 be 12 8e 87 3d 38 9f a5 bd
       0.01713409 -0.17920665 0.06618895 -0.08087009
0000c0 0d d0 55 3e 36 bb f0 3a 16 65 39 be 93 54 ac bd
       0.20880146 0.001836634 -0.18104967 -0.08414569
0000d0 54 6e b5 3d f6 75 de bc 26 51 da 3d f8 f6 27 3d
       0.08858934 -0.027155858 0.10660009 0.041007012
0000e0 21 3f d7 3c 59 0e 70 3e 1c f4 db 3d a2 c2 68 be
       0.02627522 0.23442973 0.107399195 -0.22730497
0000f0 38 79 d6 bd 46 7a 0e bc fc b3 d2 bd f2 74 3b 3d
       -0.104723394 -0.008696144 -0.102882355 0.045765825
000100 68 30 f8 3d 15 9c 12 bd 1a 11 f9 3d be 96 41 be
       0.12118608 -0.035793383 0.12161465 -0.1890516
000110 7b ad 39 bc 37 4d 52 3d f4 9f 75 bd c2 27 53 be
       -0.011332865 0.05134317 -0.059966996 -0.20620635
000120 72 f4 42 be 94 2f 85 bc 05 30 5f be a2 37 02 be
       -0.19038561 -0.016258039 -0.21795662 -0.12716535
000130 99 18 a3 bd ae 9c 0f be 7d d8 65 3e 61 c4 8a bd
       -0.07963676 -0.14024612 0.22445865 -0.067757376
000140 7c e3 a7 bd f5 56 62 3e 14 d2 88 3d e9 45 1a be
       -0.08197686 0.22103484 0.06680694 -0.15065731
000150 12 73 0a be 8a fe f8 bd f3 4a 0a bd 7e 1c 32 3e
       -0.13520458 -0.121579245 -0.033762883 0.17393681
000160 04 b4 ac 3e 15 ae 5d 3e 78 df 26 3e 18 27 1d 3d
       0.3373109 0.21648438 0.16296184 0.03836736
000170 32 a0 7d be 1e 09 1c be b4 fe ad bd 45 01 1e 3e
       -0.24768141 -0.15237853 -0.084958464 0.15430172
000180 c6 8e 44 3e 47 3b 92 3d 16 15 97 bd 0b 53 51 be
       0.19195089 0.071402125 -0.07377069 -0.20441835
000190 5b 15 b3 bd 34 99 e4 3d 4f 15 35 be 78 40 e6 bd
       -0.087443076 0.11162034 -0.1768391 -0.11242765
0001a0 6f 6f cf 3d 6b fb 0a bd 9e 21 f3 3c db 5c 0c 3d
       0.10128676 -0.033931177 0.029679116 0.03426824
0001b0 5d c8 48 be 6a b5 54 be 5f bc a1 bd 55 3f 63 3e
       -0.19607683 -0.20772329 -0.07897257 0.22192128
0001c0 71 8b d4 bc 1d a2 1a 3e 1d 41 1b be 61 e4 3e be
       -0.025945397 0.15100904 -0.15161557 -0.18641807
0001d0 3c ea 92 be d9 9d 30 3e d7 2e 02 be e2 97 b1 bd
       -0.28694332 0.17247714 -0.1271318 -0.086715475
0001e0 c3 9c 96 3e 48 62 05 3e 44 5b fb 3b f9 58 87 3e
       0.29416475 0.13025773 0.007670792 0.26435068
0001f0 6e c4 a0 be 9a d9 ee bd 82 81 65 be fd 3e 33 be
       -0.31399864 -0.11662598 -0.22412685 -0.17504497
000200 b6 6f 87 be c4 f9 16 bb fd de 84 be cd 22 0c 3e
       -0.26452416 -0.0023037056 -0.25951377 0.1368515
000210 61 da 93 bd 5f d8 c1 bd 8f c7 76 3d 40 d9 36 bd
       -0.07219387 -0.09465098 0.060248908 -0.04464078
000220 e2 ab 13 3c 72 1a c8 bd 83 7c 14 3e 0d e4 43 be
       0.009013148 -0.09770669 0.14500622 -0.19129963
000230 74 45 c3 3c b8 31 62 3b 50 6f 78 be b4 8f 38 3e
       0.023836829 0.0034514498 -0.24261212 0.18023568
000240 68 21 6f bd e2 ac ff bd 08 b8 03 be 3b 5e 8c 3d
       -0.058381468 -0.12484147 -0.12863171 0.068539105
000250 13 47 20 3d 26 49 a1 3d 08 13 0c be a5 82 59 be
       0.03913028 0.0787528 -0.13679135 -0.21241243
000260 58 80 5d bc 71 26 57 3d 55 dd fc bd 41 d1 a9 3d
       -0.013519369 0.052526895 -0.12346903 0.08291865
000270 33 59 17 be af 41 36 3e da 1a 37 bd 74 24 27 3e
       -0.1478012 0.17798494 -0.044703342 0.163225
000280 58 c0 3e 3e 00 00 94 3d 4d aa 19 be 0f 96 93 bc
       0.18628061 0.072265625 -0.15006371 -0.01801589
000290 4b bf 4d 3e 93 c7 a0 3d 2a 91 09 3e e1 04 82 be
       0.20092504 0.07850566 0.13434282 -0.25394347
0002a0 fb d5 9f 3d 1e 4c a6 3d 70 24 27 3d ce 12 11 3d
       0.078044854 0.08119987 0.040806234 0.035418324
0002b0 ec b6 09 3e 2b 67 40 3e b6 67 99 3e 97 a1 18 bc
       0.13448685 0.18789355 0.29961938 -0.00931587
0002c0 f0 29 ac 3d 02 6b 5a 3e ec 79 64 3e 83 78 00 3e
       0.084064364 0.21329883 0.22312135 0.12545972
0002d0 09 76 b7 bd b0 34 12 3e ec df ed 3d 96 b8 eb 3d
       -0.0895806 0.14277911 0.11614975 0.11509816
0002e0 ea a7 f7 3c 4a 27 03 be 8f 79 4e bd 91 39 31 be
       0.030231435 -0.12807956 -0.050408896 -0.17307116
0002f0 c0 28 80 3e f1 ef 42 3d 70 b6 92 3d 7e fc 23 bd
       0.2503109 0.047592107 0.071637034 -0.040035717
000300 ec 73 e6 bd a5 03 ff 3d 7b 18 39 be f4 d5 03 be
       -0.11252579 0.12451867 -0.18075745 -0.12874585
000310 1d 66 92 bd d7 9f 05 3e 7e db fb bb a4 ef ae bc
       -0.07148383 0.13049255 -0.0076860776 -0.021354504
000320 db 6d 00 be 81 82 01 3e c9 98 f4 3d e8 43 90 3a
       -0.12541907 0.1264744 0.11943204 0.0011006566
000330 4d ea eb 3d c6 b3 2a be d6 8a 39 3e 80 3e ac bd
       0.11519299 -0.1667014 0.18119368 -0.084103584
000340 cc 14 e3 3d 73 cd 09 3e 32 41 5b bd d1 85 e7 bb
       0.11087951 0.13457279 -0.053528972 -0.0070655127
000350 25 52 39 3c db 70 b4 3d 90 96 2a 3e f5 27 f4 3b
       0.011311089 0.08810588 0.16658998 0.0074510523
000360 7b f0 67 bd e2 f7 28 bd c7 19 e8 bd b0 dd 20 be
       -0.056625824 -0.041252024 -0.11333042 -0.15709567
000370 96 a0 7d 3d 2b 71 70 3d 73 bc 48 3e c9 ec 57 bd
       0.061920725 0.058701675 0.19603138 -0.05271605
000380 c9 11 9b bd e6 5b e8 3c 9b b8 b0 3d ff 38 92 bd
       -0.075717516 0.028364133 0.08628961 -0.071397774
000390 48 6a f9 3d ae 75 90 3c ef 2e 9f 3d a1 0d 84 3d
       0.12178475 0.017634239 0.07772624 0.06447912
0003a0 c7 38 04 3e 7d 31 2e 3e 29 6b 60 be b4 c1 f4 bc
       0.12912284 0.17011066 -0.21915878 -0.029877521
0003b0 de d7 d5 3c d5 a8 89 3d 6d 0f 11 3e 8b 65 13 be
       0.02610391 0.06721655 0.1416604 -0.14394204
0003c0 1c 3b 3e bd d5 34 9c bd a3 13 11 be 06 91 46 3d
       -0.04644309 -0.076272644 -0.14167647 0.04847815
0003d0 c9 21 cd 3d e1 85 24 3e 27 0d bb 3d 4c 81 34 bd
       0.1001621 0.16066696 0.09133368 -0.04406862
0003e0 95 aa ac bd 13 c6 11 be 6b 20 cd 3d 28 88 2c bd
       -0.084309734 -0.14235716 0.10015949 -0.042122036
0003f0 bd 1f 1d 3d 70 ad 07 be 62 9f 7e 3d af 1f 5a bd
       0.038360346 -0.13249755 0.062163718 -0.053252872

bias f4 [10]
000000 80 a4 91 bd 0b e8 03 3e ad 80 92 bc 26 63 8b 3d
       -0.07111454 0.12881486 -0.017883623 0.068060204
000010 58 40 93 3d 26 a2 ca bd 41 4e be 3d 66 b2 ae bc
       0.07190007 -0.098942086 0.092922695 -0.021325301
000020 95 bf d7 3b f3 2b b5 3c
       0.0065841177 0.022115683
