try_train/cifar10_models/cifar10_net_40.pth (torch, 589402 bytes, 10 tensors)

weight f4 [32, 3, 5, 5]
00000000: bbc5 babd 245b a83d 3fea 2f3e cb6f ce3b
00000010: 5e8a 0b3e 0359 ffbd f3d7 cebd 447b 73bc
00000020: 1e63 6b3e 874d ac3d 661a a8bd 3cfc 823c
00000030: c053 5dbe eb04 70bb c805 c8bd 7da9 a83d
00000040: 719e bf3c fd0d a7be 14e8 5ebe 5900 03be
00000050: c85d 4e3e eebb 47bd 4d43 a1be cc0b f6bd
00000060: 9ff7 edbc c276 07be 50f2 93bd a42f 0cbd
00000070: 89b8 3dbd 1bc2 c2bd 2e83 993d 757e 02be
00000080: 10a6 01be fc79 db3d 7b90 013d bf68 e23c
00000090: 77a4 a73d e63e 4abe e9b2 ff3b fa93 1bbd
000000a0: 3daa be3e eaa1 573e 8c5c 3abe 2e82 a3bd
000000b0: 08bb cbbd b37c 7a3e e30f ea3d 6a66 5dbe
000000c0: 65ba 2abe 3ca4 a83d bb12 60bc 2090 4a3d
000000d0: b08c 113e 4ca2 d6bb 7b1b 18be 5a7b cb3c
000000e0: e607 2f3b e671 953a 60e6 2c3d a494 1ebd
000000f0: 32b7 413e e970 973d b6df 2bbe 53a7 dabd
00000100: 55b4 64bd 4a76 b33e 3d7b 8a3e efd6 0abe
00000110: e1fd 98bd 6974 21bb 7c19 b93e 4131 4d3e
00000120: ee51 39be 28ca 12be 28a1 aabd f83e f8bd
00000130: 0e89 b4bd 6325 55be f959 d03b 23b7 8abc
00000140: c757 7dbc 577c 98bd 276a f2bc 5916 b5bd
00000150: e0db c33c 59c4 1bbb 7957 92bd 8932 24bd
00000160: 91db 82bd 52eb 523d 9c9b 03be 437a 0abe
00000170: 76de 57be 2fab 4ebe 516d f0bc 95fe d6bb
00000180: 97f4 3cbe e9b2 56be 50c8 59be e06d a7bd
00000190: 1139 7cbc 2f4d 87bc 5834 ddbd f265 ad3c
000001a0: 057a 28be 33f6 42bd 73d8 093d bc5f 1c3e
000001b0: a7f1 473e d570 e93c 2c66 05bd a1c8 903d
000001c0: 6094 993d 8269 583e 6cd9 243d 37e5 503c
000001d0: e2b7 5ebd 47bd ffbd f30b 89bd f573 d0bc
000001e0: b4ba 51bd b893 43be 103a 7bbe d418 77be
000001f0: b070 dbbd afe6 a5bd 17fe 6c3d 5cca 44bd
00000200: 33e6 e7bd ed58 ddbd bd8d e53d ec85 563e
00000210: 4cda a03e 9301 313e 97b4 75bc f0a3 513e
00000220: 47de b53e a698 dd3e e641 933e 8f16 273e
00000230: 9858 3d3e 1bc6 893e 1cc4 733e 8c69 303e
00000240: 18fc 573e 119d 0b3d 591e d1bc 5060 9e3c
00000250: e208 d63d c696 3a3d 9674 b53d a0fd 2bbe
00000260: b541 8b3d ef16 cfbd f22b 77bd bb0d 723e
00000270: b1f4 a2be 8fcb dd3d d7e5 9bbc f8b2 c0bd
00000280: f7c1 3c3d 429a 96be 85c9 a4bd 5899 9bbd
00000290: 1e0e 423c bb72 13be ef75 a8bc 9f47 513e
000002a0: c48e 973c 668b 803c 627b 04be d76a 54bd
000002b0: 88c4 bdbc c4fb 18be 4a14 3cbe e05f 5a3e
000002c0: 8590 f4bd b703 0f3e 105a 1a3d bb04 303c
000002d0: 8f04 7b3e 9160 0fbe 2048 033e ab6d a43d
000002e0: 2150 a53d d502 2a3e 89e3 61be 2b17 683e
000002f0: ab30 2b3d 4b89 2bbd 398f 2cbd f0cf c4bc
00000300: 08e5 803e d575 5d3e 377e 2f3e 118a b03b
00000310: 6289 b53d d611 5fbd 7633 5f3d 94a5 95bc
00000320: 327e 9a3d a6a7 55be a243 3a3e e8d0 e9bd
00000330: 1415 a9bb 9cfc 503e 67ad 70be 6011 b73d
00000340: 393a cbbd 094f 8a3d 2858 be3d 6a0b 74be
00000350: 1356 d73b f3d2 dbbd 7eea 093d 4619 0a3d
00000360: 3d67 edbd 58d6 8b3e c1aa 163e 444e aabd
00000370: b696 acbd 92da e53d fddf d8bd 4514 3dbe
00000380: 43f1 31be d57e 25bd 2941 d13d aa84 1f3e
00000390: 55c0 173d 6734 0b3e 9f24 10bd 109d d03d
000003a0: 8d1f 2abc 9389 313d 5bd6 01be aa77 033e
000003b0: d8f1 9e3d 523b 393e 33bf 2f3e efa6 b1bc
000003c0: 097c dbbd 556f 3ebe e47b 1cbd 8ce6 3a3d
000003d0: 669d 2f3e c0de e9bd 7b83 49be a53a 9abe
000003e0: df92 e4bd 647f 04be bdab 9cbb 9473 71bc
000003f0: 687a 84bc 048b c33d 46e5 aa3d 4cc7 e8bc
-0.09119745 0.08220509 0.17179202 0.006299948 0.13627002 -0.124681495 -0.10099783 -0.014860932
0.22987029 0.08413225 -0.0820816 0.015989415 -0.2161398 -0.0036624025 -0.09766728 0.08235452
0.02339098 -0.3262786 -0.21768218 -0.12793101 0.20152962 -0.048763208 -0.3149666 -0.12013969
-0.029048739 -0.13228896 -0.07223952 -0.03422512 -0.046318565 -0.09509679 0.07495724 -0.12743552
-0.12661004 0.10716626 0.031631928 0.027637837 0.08185666 -0.19750556 0.00780331 -0.03798292
0.37239257 0.21057859 -0.18199366 -0.07983814 -0.09947783 0.24461631 0.114288114 -0.21621099
-0.16672666 0.0823445 -0.013676341 0.049453855 0.14213824 -0.006550109 -0.14854233 0.024839092
0.0026707589 0.0011401742 0.04221189 -0.038715973 0.1891754 0.07394583 -0.16784558 -0.10676446
-0.05583604 0.35051185 0.27047148 -0.13558553 -0.074702986 -0.0024636036 0.36152256 0.2003832
-0.1809766 -0.14334929 -0.08331519 -0.12121385 -0.088152036 -0.20815043 0.006358382 -0.01693303
-0.015462822 -0.07445591 -0.029591633 -0.08842153 0.023908556 -0.0023768155 -0.0714559 -0.040087257
-0.06389535 0.05149395 -0.12852329 -0.13523202 -0.21080956 -0.20182489 -0.029349001 -0.0065611103
-0.18452679 -0.20966686 -0.2126782 -0.08175254 -0.015394465 -0.016516296 -0.108009994 0.021166775
-0.16452797 -0.047598075 0.033653688 0.15270895 0.19525777 0.028496185 -0.03256814 0.07069517
0.074990034 0.21133998 0.040246412 0.012749962 -0.054374583 -0.12487274 -0.06691732 -0.025445918
-0.051203445 -0.19099319 -0.24533868 -0.24130565 -0.10714853 -0.0810064 0.057859506 -0.048044547
-0.11323204 -0.10807977 0.11208675 0.20949525 0.31416547 0.17285757 -0.014996669 0.20472693
0.35521147 0.43280524 0.28761214 0.16317199 0.18490827 0.26908955 0.23805279 0.17227763
0.2109226 0.034085337 -0.025527166 0.019333035 0.10450913 0.045553945 0.08860128 -0.16795969
0.06799642 -0.10111796 -0.060344644 0.2363805 -0.3182731 0.10829841 -0.019030495 -0.094091356
0.046083417 -0.29414564 -0.08046249 -0.075976074 0.011844186 -0.14399235 -0.020564048 0.20437478
0.018500693 0.01569147 -0.12937692 -0.051859703 -0.023165002 -0.14939791 -0.18367115 0.21325636
-0.119416274 0.13966261 0.037683547 0.010743315 0.24513458 -0.14001681 0.12820482 0.0802873
0.08071924 0.16602643 -0.22059454 0.22665088 0.04179446 -0.04187898 -0.042128775 -0.024024934
0.25174737 0.2162698 0.17137991 0.0053875525 0.08864094 -0.05446037 0.054492436 -0.01826743
0.07543601 -0.20864734 0.18189862 -0.11416799 -0.0051599834 0.20408863 -0.23503648 0.08938861
-0.099232145 0.06753356 0.09294158 -0.23832479 0.00657154 -0.10733595 0.033670895 0.03371551
-0.11591957 0.2731197 0.14713575 -0.08315709 -0.08427183 0.112233296 -0.105895974 -0.18464763
-0.1737719 -0.04040416 0.102175064 0.15577951 0.037048656 0.13594209 -0.035191175 0.10186207
-0.010383499 0.04334409 -0.12679426 0.12838617 0.07760972 0.18089035 0.1716278 -0.021686045
-0.10717017 -0.18597157 -0.03820409 0.045630023 0.17149886 -0.11419439 -0.19679062 -0.30122867
-0.11160826 -0.1293922 -0.004781215 -0.014737029 -0.01617165 0.095479995 0.08344512 -0.028415345

bias f4 [32]
00000000: 43cb 3d3e 3264 c0be d794 07bd 0ec5 033e
00000010: d2ba 0dbd 1f34 e1bd 5514 ff3b c295 cbbd
00000020: 63c1 e83d 5227 86be dbf1 59be ae30 8dbd
00000030: 068f de3d 1f22 873c 2900 81be 1079 923e
00000040: 2146 64bd 1da6 c83d aa61 80be e463 9cbd
00000050: f311 10be 0db2 c13c 1dc2 93be c963 85be
00000060: 92b2 513d f791 e0be 6239 e3bc 060e 0cbe
00000070: 39e6 e13e 2521 bc3c 054c 34be c8f1 1abe
0.1853457 -0.37576443 -0.03310093 0.12868139 -0.034601994 -0.109962694 0.007784406 -0.099406734
0.113650106 -0.26201874 -0.21283667 -0.068940505 0.10867123 0.016495762 -0.25195435 0.28607988
-0.055730943 0.097973086 -0.25074512 -0.0763624 -0.14069347 0.023644472 -0.28859034 -0.26052693
0.05119569 -0.43861362 -0.027737323 -0.13677225 0.44120958 0.022965023 -0.17607124 -0.15131295

weight f4 [32, 32, 5, 5]
00000000: 6afb dd3c a86f 1a3d a494 16bd f81d 8dbd
00000010: 2dba 9abc 0899 853b 3303 af3d 105a 5d3d
00000020: 76ee c0bc 9dd8 1abc b222 223c a512 093c
00000030: 854f 2e3d 695f 653d 121a 22bd 7d25 45bd
00000040: 0191 8bbc 4d36 0e3c 3d6a 983d 5087 853d
00000050: 41e0 26bd 21e6 57bd e2f7 b6bb 9b24 db3d
00000060: 7da2 d73d bec6 093d 0627 b5b9 1bcc 0b3d
00000070: 416a e23c 46da ab3c 5194 0e3d b33a 33bc
00000080: 1d02 16bd a2c3 fc3c b326 a63d 6209 ba3d
00000090: 4ca1 363d 7366 99bd 57c4 71bd 6724 bd3d
000000a0: 368c a53d 502a cc3c 7fd1 44bd f117 cfbd
000000b0: 6843 61bd 0e40 ea3d 14d0 f33c d8bb 423d
000000c0: 5029 2c3d 4cab 18bc 8e76 9fbb ca17 55bd
000000d0: 62db 6abd edac 70bc 4c0d 8bbd f14d 51bd
000000e0: d206 58bd f3c4 f3bc e751 98bd 5cef 08bd
000000f0: 4a0d 44bb df27 3abd 6302 abbd 2e4f 47bc
00000100: 03e3 c33c d683 a23c 0a1c 51bd c7d7 8cbd
00000110: cf51 11bd 4792 533c 12cf 56bc 368a 2d3d
00000120: 26cc a93b a1e2 603b d669 b4bc 1367 b23c
00000130: 6d14 eb3c 0ab8 873d 51f3 833c 4488 bebb
00000140: 89ac 63bd dbfb 0ebd c66a 273b 3157 b93d
00000150: e484 5b3c e48d 16bc 88f1 c7bc 6607 3cbd
00000160: 2724 8fbc b266 e63d 3a25 343c 94d8 27bd
00000170: 59ca e6bd 98aa 17bd febc 273c 58c5 e73c
00000180: 7dfe 993c 110d 96bc 1dd6 adbd 4c58 b63c
00000190: a8dc 263c 3d5f 5a3c a33a 89bd 43d0 42bd
000001a0: 49b3 63bd a227 7cbc 958e 11bc 7bc0 cabc
000001b0: f991 dfbc 4faf 133d 8de1 dabc 0677 923c
000001c0: 39f5 9cbc 47fb ddbb 5323 2c3d a076 27bc
000001d0: 7eb4 51bc 9317 f8bc 4b76 3d3c 96f7 913d
000001e0: ca2c 73bd 552f 59bc dff8 323d b428 ad3c
000001f0: c934 de3c 9b26 b7bb 45aa 51bc 5748 023b
00000200: b796 d4bb 8fba f43c 8cb5 923c a908 40bd
00000210: 9125 ebba ec89 aabc 51ae 55bc aeed f4bc
00000220: 7cf9 043c 27fb 5ebd b474 37bc c97c c2bc
00000230: cc9d 17bd 2eb0 b9bd dd0f 04be 0973 30bb
00000240: 60db e83c 271c b5bc 47e3 d73c 8436 ba3b
00000250: 6690 25bd 0b7a c93c d95f 24bd 070b 12bd
00000260: 00e5 6ebd a3cc b3bd dd43 3abd 038f 31bd
00000270: 4f43 b9bd 93ac 41bd 2d57 48bd d3d5 12bd
00000280: 55d3 d3bb 1377 6dbd befd 07bd 17d1 f43b
00000290: 5a39 12bd 208c 87bd 42c8 2ebd 1436 82bd
000002a0: cbc5 d93c c684 f43b aa82 e2bc 7a44 5abd
000002b0: 2beb 2fbd 660f 8dbc 3c59 d73c 9843 96bc
000002c0: 6e90 febb 2205 88bd 73a2 133c a3dc 843d
000002d0: b0ad c13c 8e7c 0b3c 319d 02bd 7911 c13c
000002e0: 084f 883d b31d fc3c 1d99 783d bb01 7c3c
000002f0: 7fe7 56bd b7bb 9e3c dfc2 393d 1dfc b13d
00000300: 0ecf a03d 5ceb 54bd 640c 62bc 7057 cebc
00000310: 0062 2fbc 1a07 a43c a196 10bd eccf 35bc
00000320: d426 003d 9da3 473c c96b 0c3b 4b5b 0a3d
00000330: 59fe f13c 29f0 18bd 1c40 94bc 0151 333d
00000340: d008 c039 78c8 373c b634 dbbc 7445 aebc
00000350: 8ef1 523d 7752 603d 4216 f2bc c56c bdbc
00000360: aec7 863b 09d6 173d 55fa cc3d ab19 ad3c
00000370: 845a dcbc b724 20bd 741b 303b 3038 a53d
00000380: 65ee f93c 8cc3 cd3c c59c 8d3c 3236 0abb
00000390: 99f3 c23b 6641 073a 5f0c 3f3c a001 8c3b
000003a0: f73a 963c 5104 613d 6644 603d ef04 243d
000003b0: ab8a cd3c 99f3 11bd 7f23 6e3d fff9 393d
000003c0: 0265 04bd c305 debb 1076 72bd b536 a9bb
000003d0: 4609 6c3b 19a8 083d ff3e fb3c f3a8 22bd
000003e0: a413 76bd 0453 f7bb 0f3f c63c 30cd 21bc
000003f0: 0682 153d 19db 8c3d b035 553d 6f7f 43bc
0.027097423 0.03770414 -0.03676285 -0.06890482 -0.018887604 0.0040770806 0.08545532 0.05404097
-0.023551207 -0.009451059 0.009895967 0.008366262 0.042556304 0.055999193 -0.039575644 -0.048131455
-0.017036917 0.0086799385 0.07442138 0.065199494 -0.04074121 -0.052709702 -0.005583749 0.10700341
0.10529039 0.0336368 -0.00034552085 0.034130197 0.027638556 0.020978104 0.034809414 -0.010939288
-0.03662311 0.030855004 0.0811285 0.09083821 0.04458742 -0.07490244 -0.059025135 0.09235459
0.08083384 0.02492252 -0.048051354 -0.10111988 -0.054995924 0.11437999 0.029762305 0.047542423
0.042031586 -0.009318184 -0.0048664277 -0.05202464 -0.057338126 -0.014689666 -0.067896456 -0.05109972
-0.05274088 -0.029756999 -0.07437497 -0.033431396 -0.0029915147 -0.04544818 -0.083500646 -0.012164874
0.023911959 0.019838255 -0.05105213 -0.06877094 -0.03547841 0.012913293 -0.013110893 0.042368136
0.005181807 0.003431477 -0.022023123 0.021777665 0.028696263 0.066268995 0.016107233 -0.005814584
-0.055584464 -0.034908157 0.002554582 0.090498336 0.013398383 -0.009189103 -0.024407163 -0.045905493
-0.017473293 0.11250056 0.010995204 -0.04097803 -0.112690635 -0.037027925 0.01023793 0.028292343
0.018798107 -0.018316777 -0.084881045 0.0222589 0.0101844445 0.013328371 -0.06700637 -0.047561895
-0.0555909 -0.015390309 -0.008884092 -0.024749985 -0.027291285 0.03605586 -0.02671888 0.01787902
-0.0191599 -0.0067743394 0.042025875 -0.0102211535 -0.01279938 -0.030284679 0.011563848 0.071273014
-0.059368886 -0.013255914 0.043694373 0.021137573 0.02712478 -0.005589319 -0.012796943 0.0019879544
-0.006487693 0.029874114 0.017908834 -0.04688326 -0.0017940273 -0.02081772 -0.013042049 -0.02989849
0.008116122 -0.054438736 -0.011197258 -0.023741143 -0.03701572 -0.09066807 -0.12896676 -0.0026924035
0.028424919 -0.02210815 0.026353491 0.0056827683 -0.040420912 0.024594327 -0.04013047 -0.035655048
-0.05832386 -0.08779266 -0.045474876 -0.043349277 -0.09046041 -0.04728372 -0.048911262 -0.03584845
-0.0064644017 -0.057974886 -0.03320097 0.0074712145 -0.035699226 -0.066185236 -0.04267145 -0.06357971
0.026583573 0.007462117 -0.027650196 -0.05328796 -0.042948883 -0.017219257 0.026287667 -0.018342778
-0.007768682 -0.06641604 0.009010899 0.064873956 0.023642391 0.008513583 -0.03188819 0.023567902
0.06655699 0.03077588 0.060692895 0.015381272 -0.052466866 0.019376619 0.04535186 0.08690665
0.078519925 -0.05198227 -0.0137968995 -0.025188178 -0.010704517 0.020022918 -0.0352999 -0.011096936
0.03128703 0.012185005 0.002142655 0.03377847 0.029540228 -0.03733841 -0.018096976 0.043778423
0.0003662766 0.011217229 -0.026758533 -0.021273352 0.051499896 0.054766145 -0.029551629 -0.023123154
0.004113159 0.037069354 0.100086845 0.021130404 -0.02689863 -0.039097514 0.0026871832 0.080673575
0.030509183 0.025117658 0.017286668 -0.0021089432 0.0059494493 0.00051595864 0.011660664 0.0042726547
0.018338664 0.054935757 0.05475273 0.040043768 0.025090536 -0.035632703 0.05813932 0.04540443
-0.03232289 -0.006775589 -0.059194624 -0.0051639923 0.003601627 0.033363435 0.030669687 -0.039711904
-0.060077325 -0.007547738 0.02419999 -0.009875581 0.036500953 0.06877727 0.052053154 -0.011932238

bias f4 [32]
00000000: 6afc 3ebe f152 32be e13d 3abe 7850 5ebd
00000010: 3592 9f3c d2da 8bbe 98f0 aabe 811a b0bd
00000020: 8832 a9bd 870e 33bd 0dab dbbc 1257 28bd
00000030: 6221 9ebd 1206 0dbe 7f1e 4bbe bd3a 0fbe
00000040: 50e7 12be fb32 15be bce8 70bd f169 fc39
00000050: 661e b83b 14aa 14be 2c21 bbbd 0654 71be
00000060: 3fb5 a4bc cf27 89bc 1daf 69bc ffb6 03be
00000070: 3932 22be 0bbf 713d b101 37be 31e0 523b
-0.18650976 -0.17414452 -0.18187667 -0.05427596 0.019478897 -0.27315384 -0.33386683 -0.08598805
-0.08261591 -0.043715026 -0.026814962 -0.04109866 -0.07721211 -0.13771847 -0.19835852 -0.1398725
-0.14346051 -0.14570229 -0.058815703 0.00048144118 0.005618858 -0.14518005 -0.091371864 -0.23567209
-0.020105956 -0.016742615 -0.014262942 -0.12862776 -0.15839471 0.059020083 -0.17871739 0.0032177086

weight f4 [64, 32, 5, 5]
00000000: a6af ccbc 03da 2b3b 92d9 65bd 3d41 42bd
00000010: b427 96bc 5454 bb3c 4f4c 533d 3290 c7bc
00000020: cb30 cfbd 145a 383d 5d41 8cbd f50b 11bd
00000030: f362 a7bd 1344 24bc c1bf 2e3d ab9e 10bd
00000040: 6654 0fbd 634a f4bc 0510 033d 70f7 843d
00000050: f600 99bd 17ec 37bd e079 c73b f1e7 53bc
00000060: c672 0a3c 87db e93c 4669 16bd 9901 99bc
00000070: 09b8 373c f8d9 cb3c 9e40 a0bc 66ad 45bd
00000080: 7fb1 2bbd c9e6 063d 1ed0 f03c 980b 16bd
00000090: 60b1 15bd edae f7bb 3c63 bdba 79c5 563d
000000a0: 6f84 1abd 3766 5dbd 76d4 e9bb 25aa ff3c
000000b0: 2bc6 633d 8cf9 a13c 6f7b 003c c2d8 00bb
000000c0: 3d9e 6cbb f8fe d4bc 95ec 32bd b8b9 9cba
000000d0: 704d 3fbd 43e1 dd3a 4f22 803a ff05 1d3c
000000e0: 4d30 28bd a085 0d3d 1e24 c53c ef7b e43b
000000f0: bafe b1bd c8d9 68bd b77a 04bb 982b b83d
00000100: b08c 5c3d 740d 1d3c 0ad2 36bd cc68 ac3c
00000110: 173f 5f3d 5b3e 333c de93 6bbd 15e6 bc3c
00000120: 6de7 a33d 2794 9d3d 5ace a0bc 9775 dbbb
00000130: 5ceb 4b3d 941a 85bd e6f9 2a3c 555a 783c
00000140: 7011 a03d b827 993b aa22 17bd 5668 31bc
00000150: 065a bdbc 3222 383c 1b56 b1bd 9b70 27bd
00000160: a66e f93b 346b 3a3d 8776 abbc 7429 b7bc
00000170: 80cf b43b 1937 abbb c3c1 73bc 65fd ce3c
00000180: d24f 0f3b c2a1 713c 9be3 dc3c 43a2 00bd
00000190: 7002 553c 46bb cd3b 4f99 603b 74fb b53c
000001a0: 97cc 263c 5ee1 a13b bea8 29bc 3d85 29bd
000001b0: e4f1 a63b d817 08bd 1797 11bd bf3d 2b3d
000001c0: 057b d8bb a9cf 663d 4f1b 4a3d bcce ab3c
000001d0: 1d3e 01bd 51e1 05bc 3708 cfbb 4da6 04bb
000001e0: 6a01 d63c 9bee 9b3d 4be3 8dbc 82ac 083d
000001f0: 1d3d 67bb 0549 1ebd 7938 a8bc 6058 643c
00000200: 5e1d babb 6aec 0abd 75ea 3e3c 050f 6a3d
00000210: 4a4d 213d ca07 ce3d 1dba 043d 833e 02bd
00000220: 819a 2dbd c3e9 fd3c 924b c73d bbc2 0abc
00000230: 8055 0bbc e5d3 453c 051d 3ebb 88a1 443c
00000240: dc91 b83c 3e9d fa3b 03de 643c 6cfd 173d
00000250: 9611 27bc dc7d 213d c1dc 22bc a8ad aebc
00000260: 1250 3abc 4e21 273d 36fb e63b ecec 653d
00000270: cbfd 123d 464a d63c f63f f93b de62 8d3d
00000280: 17ca 76b9 7dcf 343d 704a 313d 12cb 2d3d
00000290: f007 a73d b41f a33c f85b b2bc b7bb b73c
000002a0: a0aa a3bb 4d18 76bb fbc5 783c 5cc0 b9bb
000002b0: fabf 543d df7e 893c 5c08 603d 0def f63c
000002c0: d76f a13c 0533 e23c e0f3 24bd 73cc 81bd
000002d0: 5222 95bd 573c 473d e418 393d 254f 15bd
000002e0: fef1 08bc e26d 97bd effc 24bd 0c9a 4cbd
000002f0: 5ed9 efbc db08 9b3c 9d15 c1bc 5c1f 04bd
00000300: c0a8 d73d 7ba4 803b f5c9 35bd f0af a9bd
00000310: 7379 0bbc fddb 0a3d 538c aa3c 0c39 373d
00000320: 6cf5 1ebc 92ff a43d 39dd 1ebb cc7b 3abc
00000330: 4671 ffbc 4ab5 06bd 844f 813d 3541 62bd
00000340: 61fa e5bc dbb1 a93c d277 e93c de0c 0d3d
00000350: 443e 9ebd 88f9 493a e55c 12bd 5c05 15bc
00000360: 3974 d03d b833 663d 8ff9 b8bc e41b 47bb
00000370: 65fd 12bc 8364 303d 51b5 3e3c 9063 94bc
00000380: e0b0 c33c 1bf0 b43c 7f4e 373d f537 e03a
00000390: 3401 ad3c ef1c 0c3c 1012 11bd d777 2b3d
000003a0: 129e 19bd f89b b7bc 1804 463d 5861 7f3d
000003b0: 6d73 babd 5787 b4bc b208 01bd d011 08bd
000003c0: 6f8f 3fbd 2473 323c 5bea c73c 0882 673d
000003d0: 3f7c 0cbd 8c7b 283d 3b85 893a 287b a23c
000003e0: 6568 78bd 3e37 b83c ed88 98bd 2e15 a4bb
000003f0: 3c94 06bd d8fc 323d a499 5dbd e704 9cb8
-0.0249861 0.0026222474 -0.056115694 -0.047425497 -0.018329479 0.02286736 0.051586445 -0.02436075
-0.101167284 0.04500778 -0.068484046 -0.035411794 -0.0817317 -0.010025996 0.04266334 -0.035307568
-0.034992598 -0.029820627 0.0319977 0.064925075 -0.074708864 -0.044902887 0.0060875267 -0.012933717
0.008450216 0.028547062 -0.03672149 -0.01867752 0.011213311 0.024884209 -0.019562062 -0.04826107
-0.04191732 0.032934938 0.029396113 -0.03663215 -0.03654611 -0.0075586946 -0.001444913 0.05243442
-0.037723955 -0.054052558 -0.007135923 0.03120906 0.05560891 0.019772314 0.007841929 -0.0019660448
-0.003610506 -0.026000485 -0.043682653 -0.0011957204 -0.04670471 0.0016928095 0.000977585 0.009583949
-0.04106169 0.034551263 0.024065074 0.006972782 -0.08691163 -0.056848317 -0.0020214745 0.0899269
0.053845108 0.009585727 -0.044633903 0.021046065 0.054503527 0.01094016 -0.057514064 0.02305893
0.08003125 0.076942734 -0.019629646 -0.0066973674 0.049785003 -0.0649921 0.010435557 0.015158256
0.07815826 0.0046739243 -0.036898293 -0.010828098 -0.023114216 0.011238622 -0.086590014 -0.040878873
0.0076120673 0.045512393 -0.020930542 -0.022358634 0.0055179 -0.005225074 -0.014877739 0.025267312
0.0021867645 0.014748039 0.026964 -0.031404745 0.013001069 0.0062784282 0.0034271067 0.022214629
0.010180614 0.004940196 -0.010355173 -0.04138683 0.0050947536 -0.033225864 -0.03554448 0.041806933
-0.006606462 0.056350384 0.04934245 0.020972602 -0.031553376 -0.008171395 -0.006318118 -0.0020240725
0.026123721 0.0761387 -0.017320296 0.03336764 -0.003528423 -0.038643856 -0.02053474 0.013937086
-0.0056797704 -0.03391687 0.011652579 0.05714323 0.03938035 0.100600794 0.032404054 -0.031797897
-0.042383675 0.030995255 0.09731211 -0.008469279 -0.0085042715 0.012074445 -0.0029008996 0.012001403
0.022530489 0.0076481393 0.013968947 0.037106916 -0.010197064 0.03942667 -0.009940327 -0.02132304
-0.011371629 0.040803246 0.0070489896 0.05613415 0.035886567 0.026158463 0.0076065017 0.06903623
-0.00023535673 0.04414319 0.04328388 0.04242999 0.08155811 0.019912578 -0.02177237 0.022428377
-0.0049947053 -0.0037551105 0.015183921 -0.005668683 0.051940896 0.01678413 0.054695472 0.030143285
0.01970665 0.027612219 -0.04027164 -0.06337824 -0.07281937 0.04864153 0.045189753 -0.03645243
-0.008358477 -0.07394005 -0.04028028 -0.049951598 -0.029278453 0.018925121 -0.023569876 -0.03225647
0.105302334 0.0039258576 -0.044382054 -0.082855105 -0.0085128425 0.033901203 0.020818865 0.04473214
-0.009702068 0.08056559 -0.0024240746 -0.011382055 -0.031181943 -0.032887734 0.063139945 -0.055237968
-0.028073492 0.02071469 0.028499518 0.0344361 -0.0772672 0.00077047246 -0.035733122 -0.009095516
0.10178418 0.056201667 -0.022579936 -0.0030381614 -0.008971547 0.043064605 0.011639909 -0.018113881
0.023888052 0.022087147 0.044752594 0.001710652 0.021118738 0.00855182 -0.035417616 0.041862335
-0.037504263 -0.022413239 0.048343748 0.062348694 -0.09104047 -0.022037191 -0.031502433 -0.033220112
-0.04676765 0.0108917095 0.024403742 0.05652049 -0.034298178 0.04113345 0.0010491976 0.019834116
-0.060646433 0.022487279 -0.074479915 -0.0050074076 -0.03285621 0.04369816 -0.0541016 -7.439573e-05

bias f4 [64]
00000000: 2e3f dcbd baf6 08be 9a39 d4bd 47c4 3ebd
00000010: 5b94 50bd c719 02be 32e0 66bd d903 59bd
00000020: 6ed7 93bd 386f 78bd 91c6 0cbe 3d1c c7bd
00000030: 7093 c0bd 24b2 adbd 5be2 d4bd e2a2 95bd
00000040: 0434 09be d66b c6bd de1d d1bd 5abb dabd
00000050: 049d f5bd dd54 83bd a4e8 dcbc 0bc6 00be
00000060: e7be 89bd 970c 73bc d93a b4bd 3c1e 67bd
00000070: 37df b2bd 6b6f b2bd f285 00bd 6421 76bd
00000080: 079a 9fbc d3ea 55bd 0f78 c6bd ef4e c0bd
00000090: 48d5 76bd 695b b3bd bfe4 b1bd 42ae 04be
000000a0: b306 0ebe d16b c9bd bfc9 843c 36de d3bc
000000b0: c7e6 81bd c3ed 0abd a731 58bd fc83 cbbd
000000c0: 767c 4dbd 2d04 2cbd 8c4f f7bd 8ce6 0abe
000000d0: ce72 a0bd fe37 1bbe 48e3 dbbb 0551 143c
000000e0: a632 223c 3076 0bbe 39a9 f7ba 0163 f2bd
000000f0: 4210 c1bd 63c1 76bd 64c5 49bd fb80 03bd
-0.10754238 -0.13375369 -0.10362549 -0.046573903 -0.050922733 -0.12705146 -0.056366153 -0.052982185
-0.07218824 -0.06065294 -0.13747622 -0.09722183 -0.094031215 -0.08481243 -0.103947364 -0.07306458
-0.13398749 -0.09688537 -0.10210775 -0.10680266 -0.11992839 -0.06412671 -0.0269664 -0.12575547
-0.06725865 -0.014834545 -0.08800287 -0.056425318 -0.08733981 -0.087126575 -0.03137774 -0.060090438
-0.019482626 -0.0522259 -0.09690868 -0.093900554 -0.060261995 -0.087576695 -0.08686208 -0.12957099
-0.13869743 -0.098350175 0.016209481 -0.025862794 -0.063428454 -0.033918153 -0.052781727 -0.099372834
-0.050167523 -0.04199617 -0.12075719 -0.13564509 -0.07834397 -0.15158078 -0.0067104436 0.00905252
0.009899771 -0.13619304 -0.0018895037 -0.1183529 -0.09426929 -0.06024302 -0.049260512 -0.032105427

weight f4 [64, 1024]
00000000: 3cd2 55bd 7497 acbb d148 663c a73d 643b
00000010: 44d7 463b 5c3f e13c 96b0 9b3c 1941 1ebc
00000020: 5895 a7bb 377a 993c ef8a 383d 3639 0cbc
00000030: 1ae7 5abd 3189 7cbd 9768 a33a e4ee 36bd
00000040: 82f0 1abd b160 ac3c d39b 13bd ee37 b6bc
00000050: 1d6d 70bc 202a 3dbc f612 93bc f830 5ebc
00000060: 0fcf 24bd 67cb 003d 3a8c e0bc 52ca 213d
00000070: 59fc 893c 767b 183c 5081 273d d19d 34bc
00000080: 21a7 4a3c ff65 e63b d80e 38bd 65f0 bfbc
00000090: de12 46bd 5a34 f93b 3191 3d3d d5a6 1a3d
000000a0: 7469 ddbc 2c83 30bd a710 48bd 5f08 81bc
000000b0: 3e0f f33b 1711 bf3c 93a2 f43c 8473 84bc
000000c0: adbf 19bc 89c6 eabc 8fa4 03bd f7f5 53bc
000000d0: a5b8 0ebd 69cc fcbc ecc3 193d 321e 723c
000000e0: 6012 49bd 2aaa 093d 6b06 353d 5c96 d13c
000000f0: 9bd2 c93c 51d1 263d 0bd3 e53d 6430 793d
00000100: 5f2d 88bb 1c29 8ebc 9584 b83c c31a ef3c
00000110: 73f2 08bd b505 b3bc aa7f a13c c370 993d
00000120: cf46 0b3c c5b5 823d 52e3 efbb eb49 e43c
00000130: e742 02bc 23f3 ab3c c52c 843b cd6e e73a
00000140: 854b ecbc ea55 813d 3d9a 703c b0f7 04bd
00000150: d589 943b 1bd6 63bc 8540 2c3d 941e ab3b
00000160: 04a0 a93c 7cdb a33c dafc 92bc 2b51 853c
00000170: d608 3a3d f3d2 4d3d 79be 543d 2757 3b3d
00000180: 6dd6 9ebb e51e 1fbc 5661 273a fb91 293c
00000190: 03a3 9f3b caf6 92bc 17f5 f6bc 3255 07bd
000001a0: ae33 143d 6fbf 273d a5bc 9c3b 46e6 8f3d
000001b0: 5514 90bc 591e 9f3c 4dfb 1f3d 86f2 283d
000001c0: 336e 003b 7dd5 4fbd 8f69 11bd 516f 123d
000001d0: c335 fe3c b638 b4bc 5727 583d ab82 413d
000001e0: 2ec2 df3b ba91 d4bc 5590 0f3d 1446 453d
000001f0: 37bd 7a3d da5a 99bc 7da3 7a3c 974f 393c
00000200: 6073 003b 6bf1 87bb c3fb 1e3d 594e 50bc
00000210: 136d 433d 9802 093d 8213 003d f4f8 163d
00000220: a657 7e3d c89e ac3d 77e3 a33c d006 8e3d
00000230: 021f 2cbd 900b 3fb9 17b3 b5b9 06ee e6bc
00000240: bbc4 303c 84f7 8dbc 167a fe3c 201e 96bc
00000250: 581a 953b 2a13 ed3c e527 a73d e5e4 073d
00000260: 800c af3c d98c af3d 52bb d43c 7d65 213c
00000270: 38a7 15bd fe57 9b3b 3f1f 92bc fa79 52bd
00000280: 1b74 983c 8c86 61bc 72f5 81bd 5360 c43b
00000290: d1a5 0f3d 7d9e 11bd 32f2 1fba cc2c 903d
000002a0: 6393 083d d071 86bc c5d8 1fbb bd64 823d
000002b0: fc9d 3e3c 6711 30bd 1515 0ebb 34fe 313d
000002c0: b37b 533a 6023 513c cafd dfbb e268 89bc
000002d0: ac7f 01bd 2c35 413c 82c9 0bbd 5d1d 8dbc
000002e0: ac90 2ab9 fcfd c23a d686 4fbd 9508 adbc
000002f0: b83b 9b3c 3bf5 a83c 416e 943d c363 553d
00000300: 2129 94b8 7308 61bd 64b5 4c3c 23e6 fdbb
00000310: 607c 9c3c c00e 8cbd 8872 d7bc b1bc 05bd
00000320: c032 f53c fd6a 10bc 01e7 683c d42e 623c
00000330: db13 a83d f776 1ebd 89e3 9f3c fb40 e5bc
00000340: 5578 603c e3e3 eebc 398d 5abc b7e7 d1bb
00000350: bb66 88ba 29e2 153d 44a5 a33c 0f89 363c
00000360: d7c8 303c 63d8 d83c 74ee c63c c091 823d
00000370: d28f 73bd 2eb0 25bd 1d76 24bc 598d e3bc
00000380: 4012 193d fc6d c03c 6861 7f3d 168d 28bc
00000390: 77ea dd3b 1750 07bb de6e e7bc 2326 fe3b
000003a0: 536b 773c 7a43 71bd dd63 dc3c 302c a1bd
000003b0: 13ad 78bc 1059 2ebd d73a 5c3c 79ac 173c
000003c0: b340 0ebb 156b a73b bfd3 02bc b053 fbbc
000003d0: 6347 f03c fa3e 36bc 42bb eabc 600a 5e3c
000003e0: a3ba 0ebb 8331 3ebd 1170 0d3d 4525 e2bc
000003f0: cf2b 9e3c 792f 7e3d 8748 44bc 0f16 a43c
-0.05220245 -0.005267078 0.014055447 0.0034826787 0.003034071 0.027496032 0.019005101 -0.009659075
-0.0051142387 0.018735034 0.045054372 -0.008558562 -0.053443052 -0.061654273 0.0012467083 -0.044661418
-0.037827022 0.0210422 -0.036037277 -0.022243466 -0.014674452 -0.011545688 -0.017953377 -0.01356148
-0.04023653 0.03144398 -0.027410615 0.03949959 0.016843962 0.009306779 0.040894806 -0.0110239545
0.012368948 0.007031202 -0.04493603 -0.023430059 -0.048357837 0.0076051177 0.046281043 0.03775676
-0.027027823 -0.043093845 -0.048844006 -0.015751062 0.0074175885 0.023323579 0.029862678 -0.016168363
-0.009384078 -0.028659122 -0.032139357 -0.012937061 -0.03484406 -0.03085919 0.03754036 0.014777707
-0.04908979 0.033609547 0.044195574 0.025584392 0.024636557 0.040726963 0.11221894 0.060837165
-0.0041557993 -0.017353587 0.022524158 0.029187566 -0.033434343 -0.021853307 0.019714195 0.07492211
0.008500769 0.06382326 -0.0073208 0.027867278 -0.007950521 0.02098996 0.0040336573 0.0017656923
-0.028844604 0.06315215 0.014685211 -0.032462776 0.0045330324 -0.013906027 0.042053718 0.005222151
0.020706184 0.02000212 -0.017942835 0.016274055 0.045418583 0.050250005 0.05193946 0.04573741
-0.004847339 -0.009711956 0.00063850486 0.010349746 0.0048717274 -0.017939944 -0.030146165 -0.033040233
0.036182098 0.04095405 0.0047832304 0.07026343 -0.01758782 0.01942365 0.03905802 0.041246913
0.0019596934 -0.050740708 -0.03550106 0.03575069 0.031031495 -0.021999698 0.052771892 0.047243755
0.006828568 -0.025948394 0.035049755 0.048162535 0.061215606 -0.01872008 0.015297768 0.01131048
0.001960002 -0.0041486523 0.038814317 -0.012713992 0.047711443 0.03344974 0.031268604 0.036858514
0.062095307 0.084287226 0.020005925 0.06934893 -0.04202176 -0.00018219487 -0.00034656443 -0.02818967
0.010789092 -0.017329939 0.031064074 -0.018324912 0.0045502596 0.028939802 0.08161906 0.033177275
0.021368265 0.085717864 0.025968228 0.009850857 -0.036536425 0.004740714 -0.017837165 -0.051385857
0.01861005 -0.013764989 -0.06345643 0.005992928 0.035070244 -0.035551537 -0.00061014586 0.07039794
0.033343684 -0.016411692 -0.002439068 0.063668706 0.011634346 -0.042985346 -0.0021680046 0.043455318
0.0008067444 0.012764782 -0.006835674 -0.016773645 -0.031615898 0.011792462 -0.03412772 -0.017225916
-0.00016266358 0.0014876719 -0.0506657 -0.021122256 0.018949375 0.020624747 0.07247592 0.052097093
-7.064851e-05 -0.0549397 0.012494419 -0.0077483817 0.019102275 -0.06838751 -0.02629973 -0.032650653
0.029931426 -0.0088145705 0.014215232 0.01380511 0.08206912 -0.038687672 0.019517677 -0.027985087
0.013700564 -0.0291614 -0.013339334 -0.0064057964 -0.0010406593 0.036592636 0.019976266 0.011141076
0.010790071 0.026470369 0.024283625 0.06375456 -0.05946333 -0.04045122 -0.010037926 -0.02777736
0.03737092 0.023489945 0.062348753 -0.010287544 0.006772335 -0.0020647103 -0.028251108 0.007756011
0.015101272 -0.05890224 0.026903087 -0.07869756 -0.015177983 -0.042565405 0.013441763 0.009257429
-0.0021706044 0.0051092007 -0.0079850545 -0.030679554 0.029330915 -0.011123413 -0.028653745 0.013552278
-0.0021778725 -0.046433937 0.034530703 -0.027605662 0.019307999 0.062056992 -0.0119801825 0.02003005

bias f4 [64]
00000000: 54d9 90bc b760 fa3b 93c2 e2bc 9d28 893c
00000010: ce7c c5bc 1959 4a3d f93f 4abc d274 6fbc
00000020: e586 853c 370a f3bb 8609 d1bc 34b9 3ebd
00000030: d818 803c 758f 5d3d edaa f83b 4bae bcbb
00000040: b016 de3c 2379 f03b 823d b3bc 86f5 193d
00000050: 7492 40bd 889c b13c 4c56 933c 9f1f 10bd
00000060: 1491 bf3c 4321 0fbd a284 ae38 40b3 06bd
00000070: 0e06 a33d e705 ee3c f13e 9ebc 90f1 9f3c
00000080: effb 63bd 0563 313d bd5d 953b 0e26 41bd
00000090: 3dc9 e4bc 632b ce3c 936d 3fbd aeb4 51bd
000000a0: 54b8 51bd 74bf c3bc 4cdd 2bbd ef00 3abd
000000b0: c192 a73c 48b7 27bc bcaa 40bc 4eda 34bd
000000c0: 67c7 06bd 8e87 d5bc 99f5 093d 119a 873d
000000d0: 259a f33c 53a4 9d39 65ed 36ba 261e a3bb
000000e0: b3c3 c63b 286e 29bd 0fe6 52bd 9cdb 873c
000000f0: 469f 193d b9a1 2bbd 1755 0c3d df51 033d
-0.017681755 0.007640924 -0.02768067 0.016742999 -0.024107363 0.049401376 -0.012344354 -0.0146152545
0.016299674 -0.007416989 -0.025517236 -0.046563342 0.015636846 0.05409189 0.0075887353 -0.005758082
0.027110428 0.0073386594 -0.021879915 0.037587665 -0.04701467 0.021681085 0.017985485 -0.035186406
0.023384608 -0.03494383 8.321671e-05 -0.03288579 0.07960139 0.029055549 -0.019317122 0.019524366
-0.055660184 0.043307323 0.0045582936 -0.047155432 -0.02792799 0.025167173 -0.046735357 -0.0511977
-0.05120118 -0.023895003 -0.041959092 -0.045411047 0.02045572 -0.010236569 -0.011759456 -0.044153504
-0.03290501 -0.026065614 0.033681486 0.06621183 0.029736588 0.00030067805 -0.00069781236 -0.004977959
0.0060658096 -0.04136482 -0.051488932 0.01658421 0.03750541 -0.041902278 0.034260835 0.0320605

weight f4 [10, 64]
00000000: 84bb 623d efbb 733e 8310 03be 3477 29bd
00000010: b77b 51be e5fc 81be 006e e13d 16b2 7e3e
00000020: 9e93 703e 07b6 773d a818 82be 0ccd 863e
00000030: 9cf9 bcbd 7f9d 543d 965c 97be 961e 7f3e
00000040: 787e 633e b007 99be fd1c 6f3e 1c62 6cbe
00000050: 92ee 353d 27ac 62be 940d 94bc 4caa 563e
00000060: f104 0ebe 8643 18bd 0917 4cbe cb9d 03be
00000070: a163 89be 112c fcbc 101b 3bbd 348d 3a3d
00000080: f1a3 a63e cde0 8ebe e827 b2bd 5072 863d
00000090: d803 5cbe 1dd7 e3bd ec63 aa3e 3db3 86be
000000a0: 957f 8e3e 92fe a5bd bf10 d13d 364d 4e3e
000000b0: 80ff ea3b da7f 82be 7131 883d 7235 e4bd
000000c0: ec9d 9a3e e82d a3bc 74cc 91be 9747 12be
000000d0: e3c2 013e 5d95 15bd 9ba2 153e a0d1 0a3d
000000e0: 7689 483d 2f03 aa3e 2609 2f3e f0cc 9ebe
000000f0: d938 28be 0933 8e3b 812b 06be c8c3 423d
00000100: a31f 2c3e 3f3f 97bd 64b6 303e feb1 88be
00000110: 5fdb 05bd 4c71 853d f3f0 f4bd bf10 95be
00000120: fd15 afbe 6059 17bb 67eb 9fbe e052 5bbe
00000130: 1fea ddbd 8741 74be d3da a93e b8ea cdbd
00000140: ace0 a1bd 1250 963e 5669 b83d d885 45be
00000150: 1d71 38be 3a32 0ebe f2c2 6dbd 3828 863e
00000160: bb65 ed3e 0b0f 983e cac0 643e b3cf c63d
00000170: 0058 9cbe c3ef 77be 964f cebd 2fa8 3f3e
00000180: 5e32 983e 01e7 013e 2ba5 cdbd c544 8ebe
00000190: 9272 01be 7400 1e3e f318 90be 94c8 debd
000001a0: 5b0b 153e c8e0 1dbd 016e d23c 5b79 a13d
000001b0: a238 a0be 0e3c 89be eaf2 e3bd 1e9f a23e
000001c0: 27dc 44bd a2f0 473e d9fc 6abe 8c99 73be
000001d0: 1ced d7be 36e5 8a3e 8b2e 5ebe ae1b 0dbe
000001e0: 104c dd3e 8c51 4e3e f46d 9e3b 04d3 c13e
000001f0: 756b f6be e57f 2ebe ae99 abbe 1c24 86be
00000200: e2e1 b5be 6f1f 23bc 3640 b2be 815d 503e
00000210: 7b2e efbd 38ab c6bd 5ed3 ca3d b2a4 7abd
00000220: bc4f 0c3c 7b98 0abe 3584 643e 64be 8cbe
00000230: d9c0 d03c 5c8b 083d 7ce1 b3be 8257 8a3e
00000240: 9069 9abd 1f39 3abe d75b 3bbe cbac 053e
00000250: c5f4 6b3d 7c78 da3d 6388 68be 2066 9dbe
00000260: ce76 21bd 5875 803d 6c5f 3bbe 6f94 283e
00000270: 153d 23be 0b8c 703e ba5d 4abd 78f1 703e
00000280: b112 883e 00f7 e63d b446 49be e74f 82bc
00000290: 3ebc 883e b4fb 093e 2b1d 313e c882 a9be
000002a0: 6067 fb3d f80f fc3d fd6b ea3c e542 043d
000002b0: 2e65 fd3d d628 993e 9752 d73e 93da acbc
000002c0: 511b f23d 9c1c 9b3e 3a80 9c3e 851e 613e
000002d0: 6fab 03be 9e1a 6e3e 2f0f 1e3e 6205 3f3e
000002e0: eb4d 163d f725 17be 5e57 83bd 53a2 71be
000002f0: e3cd a23e 2193 783d d25e 053e ae07 91bd
00000300: a3ec 28be 9b8e 483e 2a6f 7bbe 3b9c 42be
00000310: a95d d6bd 1d75 7f3e 7d5e afbc 575a bfbc
00000320: 7caf 48be 2409 5c3e 11fb 623e c0c2 e53c
00000330: 46f6 013e a211 82be bd9d 8b3e b463 f4bd
00000340: 0f10 f03d 895c 693e ef84 45bd 59e2 0aba
00000350: 86ea 243d 5209 0e3e 0db6 763e adf6 cabb
00000360: 9b95 97bd a526 40bd 8e16 57be bfdb 62be
00000370: ef93 d73d 7b3f b33d 4f2a 933e 060b 0dbe
00000380: d2f9 b8bd 127e 213d 64b5 103e f121 debd
00000390: cd74 423e c2f8 dc3c 1b7d ed3d fc95 bd3d
000003a0: 8681 3e3e 55ab 883e 44a2 c2be 6b91 7bbd
000003b0: a62e 513d cd59 e73d 69b5 2c3e 2e17 64be
000003c0: a2cf 82bd 9b35 d1bd fbae 44be 5046 983c
000003d0: 1355 173e d650 5f3e fe61 f23d 1d44 85bd
000003e0: 76fa 1abe 16d3 23be 01d0 253e 9410 93bd
000003f0: 9e63 733d 8c03 0ebe 0e30 ca3d 443a 80bd
0.05535461 0.2380216 -0.12799267 -0.041373447 -0.2045735 -0.25388256 0.11007309 0.24872622
0.23493811 0.06047633 -0.25409436 0.26328313 -0.09227297 0.051908012 -0.29562825 0.24914011
0.22216213 -0.29888678 0.23350902 -0.23084301 0.04441697 -0.22135983 -0.01807288 0.209634
-0.13869072 -0.03717377 -0.19930662 -0.12853162 -0.26833823 -0.030782731 -0.045680106 0.045544818
0.32546952 -0.27905884 -0.08699018 0.06564772 -0.21485841 -0.11125014 0.3327936 -0.26308623
0.27831712 -0.08105196 0.10208272 0.20146641 0.0071715713 -0.25488168 0.06650055 -0.111430064
0.3019861 -0.01991935 -0.28476298 -0.14285122 0.12672 -0.036519397 0.1461281 0.03389132
0.048959218 0.33205554 0.17093334 -0.3101573 -0.16427936 0.00433958 -0.13102533 0.047549993
0.16808943 -0.0738511 0.17257077 -0.26698297 -0.03267991 0.0651575 -0.1196002 -0.2911434
-0.34196463 -0.0023094043 -0.31234285 -0.21418333 -0.10835671 -0.23853122 0.33174762 -0.10054535
-0.07904181 0.29357964 0.09004466 -0.19289339 -0.180119 -0.13886347 -0.058047242 0.2620256
0.46366677 0.29698977 0.22339168 0.09707584 -0.3053589 -0.24212556 -0.100737736 0.187165
0.29725927 0.12685777 -0.10041269 -0.27786842 -0.12641361 0.1542986 -0.28144035 -0.10878101
0.14555113 -0.038544446 0.02568722 0.07884475 -0.31293207 -0.2680363 -0.111303166 0.31762022
-0.048061516 0.19525388 -0.22948016 -0.23789042 -0.42173088 0.27128 -0.21697442 -0.1378009
0.43222094 0.20148295 0.004834885 0.37856305 -0.48128858 -0.17040975 -0.33515686 -0.26199424
-0.35523897 -0.009956225 -0.34814614 0.20348169 -0.11678787 -0.09700626 0.09903596 -0.061192222
0.008563932 -0.13534729 0.22316058 -0.27489007 0.025482582 0.03333603 -0.35132968 0.27019888
-0.07539666 -0.18185852 -0.18296753 0.13054197 0.057606477 0.10667512 -0.22708277 -0.30741978
-0.03941994 0.062723815 -0.1829812 0.16462873 -0.1594127 0.23490922 -0.04940579 0.23529613
0.2657676 0.1127758 -0.19655877 -0.015907241 0.26706117 0.13474923 0.17296283 -0.3310759
0.122755766 0.12307733 0.028615946 0.032290358 0.12372814 0.29913968 0.420552 -0.021100318
0.118216164 0.30295265 0.3056658 0.21984299 -0.12858365 0.23252341 0.1543548 0.18654397
0.036695402 -0.14760576 -0.06413148 -0.23597078 0.31797704 0.060687188 0.13024452 -0.07081543
-0.1649652 0.1958565 -0.24554124 -0.1900491 -0.10467083 0.24947019 -0.02140736 -0.023358507
-0.19598192 0.21487862 0.22166087 0.028046966 0.12691602 -0.25404078 0.27268782 -0.11933079
0.11721813 0.22789206 -0.04822248 -0.00052980107 0.04026272 0.13870743 0.24092884 -0.006193957
-0.07401582 -0.046911854 -0.21004698 -0.22154139 0.10526263 0.08752342 0.28743216 -0.13773736
-0.090320244 0.03942687 0.14131695 -0.108463176 0.18989868 0.026974086 0.115961276 0.09257123
0.18604097 0.26693216 -0.38014424 -0.06141798 0.051069878 0.11296425 0.16866077 -0.22274467
-0.06387259 -0.102153026 -0.19207375 0.018588215 0.14778547 0.2180818 0.11835097 -0.06507132
-0.15134606 -0.15998492 0.16192628 -0.071808964 0.059421174 -0.1386854 0.09872447 -0.06261113

bias f4 [10]
00000000: 62be 90bd a228 d43d 553e bcbc 3f30 b83d
00000010: 885d d73d 307e efbd 4d75 bb3d 4e56 d0bc
00000020: c79d f0bb f5f6 fa3c
-0.07067563 0.103593126 -0.022978941 0.08993577 0.105158865 -0.1169399 0.09153233 -0.025431778
-0.0073430273 0.030635336
