try_train/cifar10_models/cifar10_net_44.pth (torch, 589402 bytes, 10 tensors)

weight f4 [32, 3, 5, 5]
0	0xbdc9c105	-0.09851269
1	0x3da2aeaf	0.079434745
2	0x3e3600ec	0.17773789
3	0x3c803868	0.015651897
4	0x3e0cd9ab	0.13754909
5	0xbe0543be	-0.13014123
6	0xbddc15ab	-0.1074632
7	0xbc72b03c	-0.014812525
8	0x3e74dfaa	0.23913446
9	0x3da8c458	0.082405746
10	0xbdb3a7dd	-0.08772252
11	0x3c65b6d8	0.014020644
12	0xbe69eb7d	-0.22843738
13	0xbafc68d4	-0.0019257315
14	0xbdc2854b	-0.0949808
15	0x3db3f76e	0.08787428
16	0x3cd746d3	0.026278889
17	0xbeb0f05a	-0.34558374
18	0xbe67565e	-0.2259154
19	0xbe06c5bb	-0.13161366
20	0x3e540c30	0.20707774
21	0xbd4883e0	-0.04895389
22	0xbea982e8	-0.33107686
23	0xbe021695	-0.12703927
24	0xbcf0527c	-0.029336207
25	0xbe09390c	-0.13400668
26	0xbd94931d	-0.07254622
27	0xbcfc150d	-0.030771757
28	0xbd2d92c0	-0.04237628
29	0xbdc5bc29	-0.09655029
30	0x3d9b528f	0.07584106
31	0xbe05bfaf	-0.13061403
32	0xbe035eee	-0.12829182
33	0x3de469c5	0.111529864
34	0x3cf1ba83	0.029507881
35	0x3cf0b3b9	0.029382573
36	0x3daf3f77	0.08557027
37	0xbe54c08b	-0.20776574
38	0x3c159af5	0.009131183
39	0xbd0cd878	-0.03438613
40	0x3ec4a86b	0.38409743
41	0x3e605388	0.21906865
42	0xbe4b03d2	-0.19825676
43	0xbdb1fd9f	-0.086909525
44	0xbdd19490	-0.10233414
45	0x3e8445be	0.2583446
46	0x3df8eef5	0.121549524
47	0xbe697025	-0.22796686
48	0xbe2cf1a8	-0.1688906
49	0x3dad0d87	0.08449846
50	0xbc5e2533	-0.013558674
51	0x3d527832	0.05138416
52	0x3e14a56a	0.14516225
53	0xbbcb6a20	-0.0062077194
54	0xbe1e0607	-0.15431987
55	0x3cd9b5b2	0.026575897
56	0x3b613016	0.0034360937
57	0x3b0b3552	0.0021241498
58	0x3d3aeeac	0.04563777
59	0xbd315fc0	-0.043304205
60	0x3e446c49	0.19181933
61	0x3daa48cf	0.083146684
62	0xbe31d469	-0.17366184
63	0xbdd55123	-0.10415866
64	0xbd553aae	-0.052057914
65	0x3eba7a81	0.36421588
66	0x3e92688b	0.28595385
67	0xbe14b9ee	-0.14524052
68	0xbda42525	-0.08014897
69	0xbbcfa152	-0.0063363696
70	0x3ec0c4e4	0.37650216
71	0x3e596f20	0.21233797
72	0xbe41b95a	-0.18918362
73	0xbe158213	-0.146004
74	0xbdab211a	-0.08355923
75	0xbdfb456e	-0.12269102
76	0xbdc44636	-0.09583704
77	0xbe575cc3	-0.2103148
78	0x3c211d86	0.009833699
79	0xbbf2204f	-0.0073891054
80	0xbc9ceedb	-0.019156864
81	0xbda36514	-0.079782635
82	0xbcf689c0	-0.030094981
83	0xbdb6f9bb	-0.08934351
84	0x3cb77a30	0.02239713
85	0xbc1e46ae	-0.009660406
86	0xbd9d631c	-0.07684919
87	0xbd309e07	-0.043119457
88	0xbd86bbcb	-0.065787874
89	0x3d457731	0.048209373
90	0xbe034c22	-0.12822011
91	0xbe11fc8c	-0.14256495
92	0xbe656f96	-0.22405848
93	0xbe57b937	-0.21066748
94	0xbcd989cd	-0.026554966
95	0x3bbf146b	0.0058312914
96	0xbe3fa0cd	-0.18713684
97	0xbe5f1f63	-0.21789317
98	0xbe60e2bf	-0.21961497
99	0xbd99a10c	-0.075014204
100	0xbc9b865e	-0.01898497
101	0xbcbdfec2	-0.023192767
102	0xbde21e2c	-0.11040911
103	0x3c981ce2	0.01856846
104	0xbe28d3b8	-0.16487014
105	0xbd4b35f9	-0.04961202
106	0x3d0afc7f	0.033932205
107	0x3e23bee3	0.15990786
108	0x3e4983c2	0.19679168
109	0x3cb9d488	0.02268435
110	0xbd1c2e8b	-0.038130324
111	0x3d915f5d	0.07098267
112	0x3da7c0b9	0.08191056
113	0x3e5ce8e8	0.21573222
114	0x3d1055be	0.03523802
115	0x3c6ee27d	0.014580366
116	0xbd61df94	-0.05514486
117	0xbe03a198	-0.12854612
118	0xbd8c2ad3	-0.068441056
119	0xbca9e6e3	-0.020739978
120	0xbd2fb2f3	-0.04289527
121	0xbe47c9a8	-0.1951052
122	0xbe81deac	-0.25365198
123	0xbe7d7ddb	-0.24755041
124	0xbdd301bb	-0.103030644
125	0xbdaee64b	-0.08540019
126	0x3d5336d5	0.051565964
127	0xbd53d8bf	-0.051720377
128	0xbdf3aa41	-0.11897708
129	0xbde90297	-0.11377447
130	0x3de75bbf	0.11296796
131	0x3e5cb21d	0.2155232
132	0x3ea726c8	0.32646775
133	0x3e36e763	0.17861705
134	0xbcae36b1	-0.021266313
135	0x3e51b186	0.20477876
136	0x3ebc360c	0.36759984
137	0x3ee6ea81	0.45100787
138	0x3e9a617f	0.3015251
139	0x3e220830	0.15823436
140	0x3e430682	0.19045451
141	0x3e8f1596	0.27946156
142	0x3e7b5077	0.24542414
143	0x3e3843d1	0.1799462
144	0x3e5c5ca8	0.2151972
145	0x3d31353a	0.04326365
146	0xbcb93acf	-0.02261105
147	0x3c95b355	0.018273989
148	0x3dd67f35	0.104734816
149	0x3d469ab0	0.048487365
150	0x3dbfa930	0.09358442
151	0xbe3764ac	-0.17909497
152	0x3d97a3b0	0.07404268
153	0xbdd461d4	-0.10370222
154	0xbd76f816	-0.060295187
155	0x3e7978c5	0.24362476
156	0xbeabfd1e	-0.3359155
157	0x3de9bfd0	0.114135385
158	0xbcca4601	-0.024691584
159	0xbdc099fa	-0.09404369
160	0x3d47d2dc	0.048785076
161	0xbea1ec6b	-0.31625685
162	0xbd9a32c3	-0.07529213
163	0xbdaa5010	-0.08316052
164	0x3c0eb35c	0.008709755
165	0xbe0fe909	-0.1405374
166	0xbce26bf6	-0.02763937
167	0x3e5dd162	0.21661904
168	0x3c98694f	0.018604903
169	0x3ca3fb98	0.02001743
170	0xbe036480	-0.12831306
171	0xbd53e83f	-0.05173516
172	0xbca8ded2	-0.020614062
173	0xbe1dbbaa	-0.1540362
174	0xbe3da94a	-0.1852161
175	0x3e634b59	0.22196712
176	0xbe032fd9	-0.12811221
177	0x3e16f8ca	0.14743343
178	0x3d15d60e	0.03658109
179	0x3c36103b	0.011112268
180	0x3e836e39	0.2567003
181	0xbe1ce3ef	-0.15321325
182	0x3e0f5f74	0.14001256
183	0x3da225c3	0.07917359
184	0x3da8ac14	0.08235946
185	0x3e31f413	0.17378263
186	0xbe736568	-0.23769152
187	0x3e732b9d	0.23747106
188	0x3d211edf	0.03933608
189	0xbd2f9d24	-0.04287447
190	0xbd1320ec	-0.03592007
191	0xbce1072b	-0.027469238
192	0x3e8a27ac	0.26983392
193	0x3e61d12f	0.22052453
194	0x3e3464cb	0.17616574
195	0x3bd94f3a	0.006631759
196	0x3db61185	0.0889006
197	0xbd4c1c20	-0.04983151
198	0x3d5040ea	0.050843157
199	0xbcacbab8	-0.021085128
200	0x3da866ac	0.08222708
201	0xbe5e3b44	-0.21702296
202	0x3e3f8780	0.18704033
203	0xbdee96e9	-0.116498776
204	0xbbc7d324	-0.006098168
205	0x3e59c343	0.21265893
206	0xbe7d7b41	-0.24754049
207	0x3dc6d674	0.097088724
208	0xbdd2a24f	-0.10284864
209	0x3d862cae	0.06551491
210	0x3dcd4f13	0.10024848
211	0xbe82cce4	-0.25546944
212	0x3c4d9223	0.012547049
213	0xbde719f8	-0.1128425
214	0x3ce5636e	0.028001513
215	0x3d242ddd	0.0400828
216	0xbdf77b6b	-0.12084087
217	0x3e91d08a	0.28479415
218	0x3e16eee0	0.14739561
219	0xbda8a4ec	-0.08234581
220	0xbda71bc8	-0.08159596
221	0x3de507e0	0.11183143
222	0xbdd46403	-0.10370638
223	0xbe40e4ba	-0.18837252
224	0xbe35b8bb	-0.1774625
225	0xbd2e276e	-0.04251807
226	0x3dcd0488	0.1001063
227	0x3e201b9b	0.1563553
228	0x3d36712c	0.044541523
229	0x3e0df48e	0.13862821
230	0xbd0dd391	-0.034625594
231	0x3dd8cb11	0.10585607
232	0xbc19abca	-0.009379337
233	0x3d21712d	0.039414573
234	0xbe0a17d4	-0.13485652
235	0x3e079598	0.13240659
236	0x3db2740d	0.08713541
237	0x3e40def8	0.18835056
238	0x3e314f5e	0.17315432
239	0xbcdbe252	-0.026841316
240	0xbde5dc85	-0.112237014
241	0xbe473877	-0.19455133
242	0xbd2f08df	-0.04273307
243	0x3d5360cf	0.051605996
244	0x3e366c24	0.1781469
245	0xbde86c8e	-0.1134883
246	0xbe4ee292	-0.20203617
247	0xbe9f74aa	-0.31143695
248	0xbde9a9b4	-0.114093214
249	0xbe015bde	-0.12632701
250	0xbbc34862	-0.0059595564
251	0xbc7f7679	-0.015592211
252	0xbc7df88b	-0.015501152
253	0x3dcfb221	0.10141397
254	0x3dafc696	0.08582799
255	0xbcc9c66a	-0.024630744

bias f4 [32]
0	0x3e4aa3fb	0.19789116
1	0xbec47a06	-0.38374346
2	0xbd012fdf	-0.031539794
3	0x3e02eb3c	0.12785047
4	0xbd2bc0d4	-0.041931942
5	0xbde8574f	-0.11344778
6	0x3bf3eca2	0.0074439803
7	0xbdd632f5	-0.10458938
8	0x3dfcb86b	0.123398624
9	0xbe88fb71	-0.26754335
10	0xbe5d5d91	-0.21617724
11	0xbd834891	-0.06410325
12	0x3dd47123	0.103731416
13	0x3ca510de	0.020149644
14	0xbe824cda	-0.25449258
15	0x3e94b4c6	0.2904417
16	0xbd88e321	-0.066839464
17	0x3dcc4c85	0.099755324
18	0xbe829ca7	-0.2551014
19	0xbd957ca7	-0.07299166
20	0xbe1b218d	-0.15149517
21	0x3cb160d7	0.021652622
22	0xbe94988a	-0.29022628
23	0xbe87c21c	-0.2651528
24	0x3d56b1fa	0.052415825
25	0xbee51a3b	-0.44746575
26	0xbd0247d0	-0.031806767
27	0xbe14b938	-0.1452378
28	0x3eeb1a6a	0.4591859
29	0x3cd3cc56	0.02585427
30	0xbe3ab23b	-0.18232052
31	0xbe1ffa62	-0.15622857

weight f4 [32, 32, 5, 5]
0	0x3d051cee	0.032498293
1	0x3d13536d	0.035968233
2	0xbd367242	-0.04454256
3	0xbd956076	-0.07293789
4	0xbca4148b	-0.020029327
5	0x3c18f772	0.009336339
6	0x3db68554	0.08912149
7	0x3d4f0caf	0.050549205
8	0xbd009c52	-0.03139908
9	0xbb89ebf5	-0.0042090365
10	0x3c433247	0.0119138425
11	0x3ba48738	0.005021002
12	0x3d3de22e	0.04635828
13	0x3d6841e3	0.05670346
14	0xbd2150ee	-0.03938382
15	0xbd566387	-0.05234101
16	0xbc84c1cc	-0.01620569
17	0x3c196c09	0.0093641365
18	0x3d9dd7a0	0.07707143
19	0x3d83d050	0.06436217
20	0xbd2e6471	-0.042576257
21	0xbd7533f6	-0.059864007
22	0xbb86e109	-0.0041161817
23	0x3dec0c29	0.11525757
24	0x3ddb3c0e	0.10704814
25	0x3d2e17ba	0.042503096
26	0x3bf23b79	0.0073923436
27	0x3d1dfb8d	0.038569976
28	0x3d0c043b	0.034183722
29	0x3ca4d02c	0.020118795
30	0x3d21760b	0.039419215
31	0xbc687f18	-0.014190458
32	0xbd2c6ded	-0.04209702
33	0x3cfd9a6a	0.03095742
34	0x3dba39f5	0.09093086
35	0x3dc0741b	0.09397145
36	0x3d2ce1c6	0.0422075
37	0xbda0a270	-0.078434825
38	0xbd82966a	-0.063763455
39	0x3dc8b2e5	0.097997464
40	0x3daa9684	0.0832949
41	0x3ce61c5c	0.028089695
42	0xbd3cd7de	-0.046104304
43	0xbdd55a90	-0.10417664
44	0xbd66c4d2	-0.056340046
45	0x3df4839e	0.119391665
46	0x3d0e717f	0.034776207
47	0x3d54a672	0.051916547
48	0x3d2364ec	0.03989117
49	0xbbe78e39	-0.007066515
50	0xbc0a2b1c	-0.00843313
51	0xbd5cd6bd	-0.053915728
52	0xbd6fdf3e	-0.05856251
53	0xbc6672a9	-0.014065423
54	0xbd92af5f	-0.07162356
55	0xbd6768fa	-0.056496598
56	0xbd52bb73	-0.051448297
57	0xbcfaa352	-0.030595455
58	0xbda04fa5	-0.07827691
59	0xbd15a7f1	-0.036537115
60	0xbb97b3c9	-0.0046295864
61	0xbd3fb448	-0.04680279
62	0xbdaadf09	-0.08343322
63	0xbc469c4f	-0.012122228
64	0x3cc56230	0.024094671
65	0x3c7edeb7	0.015556029
66	0xbd555c2a	-0.052089848
67	0xbd907d46	-0.07055144
68	0xbd0f2971	-0.03495163
69	0x3c4352ab	0.011921565
70	0xbc7f42cf	-0.015579893
71	0x3d44c617	0.048040476
72	0x3bb3abf1	0.0054831435
73	0x3b86b2fc	0.004110692
74	0xbc8f0a8c	-0.017461084
75	0x3cda4b15	0.02664713
76	0x3cf94eb3	0.030433035
77	0x3d849205	0.064731635
78	0x3ca12ddd	0.01967519
79	0xbbf99cdd	-0.0076175765
80	0xbd74143b	-0.059589606
81	0xbd28ccfd	-0.041211117
82	0xba87064a	-0.0010301557
83	0x3dbd7627	0.092510514
84	0x3c81e321	0.015855374
85	0xbbe890e0	-0.0070973486
86	0xbcda0bd9	-0.026616978
87	0xbd480d29	-0.048840676
88	0xbc9c093a	-0.019047368
89	0x3defec70	0.11715019
90	0x3c6329f2	0.013864981
91	0xbd26a1c9	-0.040681634
92	0xbdf30260	-0.11865687
93	0xbd2709f5	-0.04078098
94	0x3b981238	0.0046408437
95	0x3d0bd932	0.03414268
96	0x3c9d181a	0.019176532
97	0xbc7cf4ef	-0.015439256
98	0xbdb26de2	-0.08712365
99	0x3cd2f307	0.02575065
100	0x3c10145b	0.008793916
101	0x3c2f9d77	0.010718695
102	0xbd933279	-0.07187361
103	0xbd408dba	-0.04701016
104	0xbd7b3064	-0.061325446
105	0xbc84542a	-0.016153414
106	0xbc0ccef5	-0.008594264
107	0xbcd4fec5	-0.02600039
108	0xbceff694	-0.029292382
109	0x3d0c22e3	0.034212958
110	0xbcf69444	-0.030099995
111	0x3ca92080	0.02064538
112	0xbc734728	-0.014848508
113	0xbb7b06ab	-0.0038303535
114	0x3d4142bc	0.047182783
115	0xbc3b5138	-0.011432938
116	0xbc835b91	-0.016034873
117	0xbcfe03da	-0.031007696
118	0x3c1ba25f	0.0094991615
119	0x3d9321e0	0.071841955
120	0xbd79f542	-0.06102491
121	0xbc81eb9b	-0.015859416
122	0x3d30eac3	0.043192636
123	0x3caa0f8c	0.020759366
124	0x3cf6bfd7	0.030120773
125	0xbb924b8f	-0.0044645737
126	0xbc3a57d3	-0.011373478
127	0x3bb6f91f	0.005583897
128	0xbbeb1cc0	-0.007175058
129	0x3d025f1b	0.03182898
130	0x3c8dd7a3	0.017314738
131	0xbd4c3924	-0.04985918
132	0xbaf5a932	-0.0018742441
133	0xbcb6ac66	-0.022299003
134	0xbbccfeaa	-0.0062559443
135	0xbcff83e9	-0.03119083
136	0x3c0e5552	0.008687334
137	0xbd57c148	-0.05267456
138	0xbc3ea1dc	-0.01163527
139	0xbcd7265a	-0.026263405
140	0xbd184244	-0.03717257
141	0xbdb56a74	-0.08858195
142	0xbe0b8156	-0.13623556
143	0xbae52768	-0.0017483057
144	0x3cc7e153	0.024399435
145	0xbca5b084	-0.02022577
146	0x3d0a0618	0.033697218
147	0x3c15cc6d	0.009142977
148	0xbd327d4b	-0.04357652
149	0x3caf8092	0.021423612
150	0xbd33b1cf	-0.043870743
151	0xbd107b79	-0.035274003
152	0xbd79bd50	-0.060971558
153	0xbdbb54c1	-0.09147025
154	0xbd4982c6	-0.04919698
155	0xbd2f6fae	-0.042831115
156	0xbdc95f9a	-0.09832688
157	0xbd368c0e	-0.04456716
158	0xbd59fa31	-0.053217117
159	0xbd1db367	-0.03850117
160	0xbb82f5c4	-0.0039965827
161	0xbd6e74a7	-0.058216717
162	0xbcf5d605	-0.030009279
163	0x3bc4397b	0.0059882975
164	0xbd175681	-0.03694773
165	0xbd8f105e	-0.06985544
166	0xbd3182b5	-0.043337543
167	0xbd7d62c4	-0.06186177
168	0x3cf5b744	0.029994614
169	0x3c6ccf2f	0.014453693
170	0xbd042b54	-0.032267883
171	0xbd59a6bf	-0.053137537
172	0xbd3bad5d	-0.04581963
173	0xbc8cb147	-0.017174376
174	0x3d03e35e	0.032199256
175	0xbcad319c	-0.02114182
176	0xbbaae511	-0.005215295
177	0xbd869eb3	-0.06573238
178	0x3c7d8271	0.015472994
179	0x3d804f2f	0.06265103
180	0x3cbc5c33	0.022993183
181	0x3c167d4d	0.0091851475
182	0xbd023019	-0.03178415
183	0x3cb154f8	0.021646962
184	0x3d8ad7a6	0.06779413
185	0x3cf22eb4	0.029563285
186	0x3d6de5c3	0.058080446
187	0x3c8da6f5	0.017291525
188	0xbd5451e6	-0.051835917
189	0x3cb4b877	0.022060616
190	0x3d434d6d	0.04768126
191	0x3dae52b0	0.08511865
192	0x3d9ffadd	0.0781152
193	0xbd64f79e	-0.05590021
194	0xbbfbef5c	-0.007688446
195	0xbcd6229d	-0.026139552
196	0xbc27082d	-0.01019482
197	0x3c4120d3	0.011787611
198	0xbd214b6b	-0.039378565
199	0xbc797649	-0.015225955
200	0x3d12bee0	0.035826564
201	0x3c27ae3f	0.010234415
202	0xb97a56a2	-0.00023874131
203	0x3d0fa9f3	0.035074186
204	0x3d14c8cd	0.03632431
205	0xbd0f1f53	-0.034941982
206	0xbc96823c	-0.018372647
207	0x3d3320a9	0.04373232
208	0xbb624967	-0.0034528614
209	0x3c1c12b8	0.009525947
210	0xbcbe4779	-0.02322744
211	0xbcb877c7	-0.022518052
212	0x3d5bf8e3	0.053704154
213	0x3d6e8937	0.058236327
214	0xbcf96651	-0.030444296
215	0xbc979a58	-0.018506214
216	0x3b9a16f6	0.004702444
217	0x3d0a4b6d	0.033763338
218	0x3dd21a7b	0.10258957
219	0x3c8b0247	0.01696886
220	0xbcf915ff	-0.030405996
221	0xbd296c89	-0.041363273
222	0x3b04d05f	0.00202658
223	0x3da92057	0.082581215
224	0x3ce5ebf6	0.028066617
225	0x3cc153dd	0.02359956
226	0x3c9c134f	0.019052176
227	0xbb8b1ea0	-0.004245594
228	0x3b643cde	0.0034826319
229	0xba96bd5d	-0.0011500526
230	0x3c4c5b0b	0.012472878
231	0x3bbed3e5	0.0058235996
232	0x3c942841	0.0180856
233	0x3d6d008a	0.057861842
234	0x3d639506	0.05556204
235	0x3d0ae2d4	0.033907726
236	0x3ce266c9	0.027636902
237	0xbd14cdef	-0.036329206
238	0x3d826eb7	0.063687734
239	0x3d266082	0.04061938
240	0xbd1290e8	-0.035782725
241	0xbc08a251	-0.0083394805
242	0xbd81b328	-0.063329995
243	0xbba18ca5	-0.004930096
244	0x3a23ef2e	0.0006253597
245	0x3d0c5e35	0.03426953
246	0x3d0ca797	0.034339514
247	0xbd3150ed	-0.043290067
248	0xbd7537a1	-0.059867505
249	0xbc0aad3a	-0.008464152
250	0x3d054aad	0.03254192
251	0xbc145375	-0.009053101
252	0x3d10eb3a	0.03538058
253	0x3d8fd2b6	0.07022612
254	0x3d69a17a	0.05703876
255	0xbc5424e4	-0.012948249

bias f4 [32]
0	0xbe44d0d3	-0.19220285
1	0xbe3695fe	-0.17830655
2	0xbe4b58ae	-0.19858047
3	0xbd73fc74	-0.05956693
4	0x3c318e4d	0.01083715
5	0xbe8fe512	-0.28104454
6	0xbeb5a5cd	-0.35478058
7	0xbdd2dbc5	-0.10295824
8	0xbdb9ec74	-0.09078303
9	0xbd5201c2	-0.051271208
10	0xbd15adff	-0.03654289
11	0xbd38e9c5	-0.045144815
12	0xbdaf32a3	-0.0855458
13	0xbe0b6845	-0.13613994
14	0xbe5526c8	-0.20815575
15	0xbe1861d2	-0.14881065
16	0xbe211f4e	-0.15734598
17	0xbe1ced65	-0.15324934
18	0xbd950ba6	-0.072776124
19	0xbb304435	-0.0026896123
20	0xbba1022d	-0.0049135895
21	0xbe23dffb	-0.1600341
22	0xbdc5064d	-0.096203424
23	0xbe811438	-0.25210738
24	0xbce02e5e	-0.02736586
25	0xbc911723	-0.017711228
26	0xbcc62fd1	-0.024192723
27	0xbe0db73d	-0.13839431
28	0xbe2a61ad	-0.16638823
29	0x3d4e3ac2	0.050349005
30	0xbe408767	-0.18801652
31	0xbb8b39d3	-0.0042488365

weight f4 [64, 32, 5, 5]
0	0xbc9ad116	-0.018898528
1	0x3905d134	0.00012761803
2	0xbd4cd37d	-0.05000638
3	0xbd6ab765	-0.057303805
4	0xbc590013	-0.013244647
5	0x3ca13d8c	0.019682668
6	0x3d592821	0.053016786
7	0xbcc40ffd	-0.023933405
8	0xbdd9da51	-0.10637344
9	0x3d4eea16	0.05051621
10	0xbd8b4a68	-0.06801301
11	0xbd0eddc1	-0.03487945
12	0xbdba0799	-0.090834804
13	0xb917b677	-0.00014468456
14	0x3d5a8fa0	0.053359628
15	0xbcffbed8	-0.031218931
16	0xbd19e32b	-0.03757016
17	0xbc99f402	-0.01879311
18	0x3cd532c0	0.026025176
19	0x3d8959fd	0.06706617
20	0xbd980f62	-0.07424809
21	0xbd282589	-0.04105142
22	0xbad07609	-0.0015904318
23	0xbb99a66c	-0.0046890285
24	0x3c6fac3c	0.014628466
25	0x3d0680b3	0.03283758
26	0xbcd0d20e	-0.025490787
27	0xbcb013f1	-0.021493884
28	0x3c11f261	0.008907885
29	0x3cd1d6e5	0.025615165
30	0xbc9e4b12	-0.019322906
31	0xbd53b169	-0.051682863
32	0xbd253bef	-0.04034036
33	0x3cd84cd6	0.026403826
34	0x3cfcb213	0.030846631
35	0xbd16cd6f	-0.03681701
36	0xbd165569	-0.036702547
37	0xb97aec9e	-0.00023930005
38	0xbb046f2a	-0.002020786
39	0x3d46e832	0.048561282
40	0xbd1efc5a	-0.03881488
41	0xbd4ea446	-0.050449632
42	0xbbd5cff3	-0.0065250336
43	0x3d0f4b5b	0.034983974
44	0x3d6fb224	0.058519498
45	0x3c2b2370	0.010445461
46	0x3c56a3c0	0.0131005645
47	0x3a0b93a2	0.0005324428
48	0xbb9526fe	-0.0045517674
49	0xbce3eb91	-0.027822288
50	0xbd4349a5	-0.047677655
51	0x3b126d61	0.0022343027
52	0xbd457776	-0.04820963
53	0xbbdb9b43	-0.0067018582
54	0x3927e006	0.00016009816
55	0x3abf43a1	0.0014592299
56	0xbd215e3c	-0.03939651
57	0x3d39817c	0.0452895
58	0x3c31d83d	0.010854778
59	0x3c838177	0.016052945
60	0xbdb8e13c	-0.09027335
61	0xbd68c10d	-0.056824733
62	0xb91f90c1	-0.00015217347
63	0x3dbe06b5	0.09278623
64	0x3d60854a	0.054814614
65	0x3c65e3b0	0.014031336
66	0xbd2f8d75	-0.042859513
67	0x3ccf0729	0.025271969
68	0x3d7224f0	0.059117258
69	0x3c4c4ac9	0.012469002
70	0xbd75b920	-0.059991002
71	0x3cd4a6a4	0.025958367
72	0x3d99c8af	0.075089805
73	0x3db0052f	0.08594739
74	0xbc9a832e	-0.01886138
75	0xbc266388	-0.010155566
76	0x3d5f879c	0.054572687
77	0xbd7d8fe6	-0.06190481
78	0x3c2d8d7e	0.010592816
79	0x3c72b095	0.014812608
80	0x3da86020	0.082214594
81	0x3b89517a	0.004190621
82	0xbd080ab1	-0.03321332
83	0xbc1b9012	-0.009494798
84	0xbcbc810f	-0.023010759
85	0x3bb71250	0.0055869
86	0xbdb787eb	-0.08961471
87	0xbd25934c	-0.040423676
88	0x3c4837da	0.012220347
89	0x3d386bac	0.04502456
90	0xbcaa1250	-0.020760685
91	0xbcd7215c	-0.026261024
92	0x3c496e30	0.012294337
93	0xb9c7cfbd	-0.00038111015
94	0xbc76b127	-0.015056885
95	0x3ce0faa6	0.027463268
96	0x3bc029be	0.005864351
97	0x3c6cbede	0.014449803
98	0x3cc63960	0.02419728
99	0xbcc78ce2	-0.02435917
100	0x3cbac624	0.022799559
101	0x3b346c99	0.002753055
102	0x3b40264d	0.0029319704
103	0x3c9692db	0.018380573
104	0x3c285974	0.010275234
105	0x3c133e80	0.008987069
106	0xbc42bfdb	-0.011886562
107	0xbd4b5aef	-0.049647268
108	0x3c1b6f6c	0.009487014
109	0xbd04ca40	-0.032419443
110	0xbd10b2da	-0.035326816
111	0x3d38f049	0.04515103
112	0xbc097e9a	-0.008392001
113	0x3d63f4d5	0.055653412
114	0x3d599953	0.053124737
115	0x3cefd99e	0.029278573
116	0xbd10655f	-0.035252925
117	0xbc346551	-0.011010484
118	0xbc189b06	-0.009314304
119	0xbb542f38	-0.0032376777
120	0x3cb457de	0.022014555
121	0x3dae986d	0.08525167
122	0xbcc75917	-0.024334474
123	0x3d02903e	0.03187584
124	0xbb81c33b	-0.003960041
125	0xbd320396	-0.04346045
126	0xbc58b72f	-0.013227268
127	0x3c7451f7	0.01491212
128	0xbc00cde7	-0.007861591
129	0xbd0b70e6	-0.034043215
130	0x3cab3bd0	0.020902544
131	0x3d8099ea	0.06279357
132	0x3d15728f	0.036486205
133	0x3defedbd	0.11715267
134	0x3d22d9e5	0.03975858
135	0xbd07fb74	-0.03319879
136	0xbd2b55f8	-0.041830033
137	0x3d0160d1	0.031586472
138	0x3dcf2e75	0.10116283
139	0xbc051310	-0.008122221
140	0xbc06f607	-0.008237368
141	0x3c4414c6	0.011967843
142	0xbc3fdfc7	-0.0117110675
143	0x3c3ab8f6	0.011396637
144	0x3cdf54f8	0.027262196
145	0xbb7bb85a	-0.0038409443
146	0x3ccaffce	0.02478018
147	0x3d1e02a5	0.03857674
148	0xbc3465a7	-0.011010564
149	0x3d37241f	0.044712182
150	0xbb5b82e6	-0.003349477
151	0xbd167393	-0.036731314
152	0xbc0b4ebe	-0.00850266
153	0x3d240156	0.040040337
154	0x3c085432	0.008320855
155	0x3d844cee	0.06459986
156	0x3d353022	0.044235356
157	0x3ccaf87c	0.02477669
158	0x3c16af31	0.009197042
159	0x3d91f7ab	0.07127317
160	0xbb9efb9b	-0.004851771
161	0x3d447367	0.04796162
162	0x3d41790d	0.047234584
163	0x3d4a64ea	0.049412645
164	0x3dbf6ffa	0.0934753
165	0x3cc59044	0.024116643
166	0xbca6ffcb	-0.020385643
167	0x3c8c65c8	0.017138377
168	0xba035518	-0.00050099334
169	0x3a8dc527	0.0010816202
170	0x3c8bf141	0.017082812
171	0xbc39bdf5	-0.011336793
172	0x3d6b9337	0.057513442
173	0x3c8168bd	0.015797013
174	0x3d6975c3	0.056997072
175	0x3d08d0ea	0.03340236
176	0x3c9c1e45	0.019057402
177	0x3d0812c5	0.033221025
178	0xbd306494	-0.04306467
179	0xbd81c679	-0.06336684
180	0xbd9a1843	-0.07524159
181	0x3d67968e	0.056540065
182	0x3d1b1701	0.037863735
183	0xbd31387c	-0.04326676
184	0xbbcf0507	-0.006317738
185	0xbd8b7f22	-0.06811358
186	0xbd3ca70f	-0.046057757
187	0xbd57c786	-0.052680515
188	0xbcf16ae3	-0.029469913
189	0x3cb06953	0.021534598
190	0xbcbe4168	-0.023224548
191	0xbd38d433	-0.045124244
192	0x3de68a69	0.112568684
193	0x3c260ea9	0.010135331
194	0xbd573397	-0.052539434
195	0xbdbab72d	-0.09116969
196	0xbc477248	-0.012173243
197	0x3ce32786	0.027728807
198	0x3cbcbf79	0.02304052
199	0x3d392c78	0.045208424
200	0xbc026803	-0.007959369
201	0x3dc0640b	0.09394082
202	0xbc2403f6	-0.01001071
203	0xbb5b9745	-0.0033506912
204	0xbcf4e5d4	-0.029894747
205	0xbd0fd9a9	-0.035119686
206	0x3d8609e0	0.06544852
207	0xbd7abc58	-0.061214775
208	0xbcc5d0c7	-0.024147404
209	0x3cc3fbb4	0.023923732
210	0x3d05672b	0.03256909
211	0x3d03cecb	0.032179635
212	0xbd9931ab	-0.074801765
213	0x39016924	0.00012341567
214	0xbd1bf705	-0.038077373
215	0xbbaa6116	-0.005199562
216	0x3dd07b25	0.10179738
217	0x3d5a735f	0.053332683
218	0xbd17c8fe	-0.037056915
219	0xbc22e879	-0.009943121
220	0xbba9cc50	-0.0051818267
221	0x3d318d74	0.04334779
222	0x3c84666e	0.016162124
223	0xbc98c471	-0.018648358
224	0x3ccfb8b9	0.025356637
225	0x3cb6cc3e	0.022314187
226	0x3d40207a	0.046905972
227	0x3b91a434	0.0044446234
228	0x3cc12f73	0.023582196
229	0x3c55b6b9	0.013044053
230	0xbd4737be	-0.048637144
231	0x3d20ff2a	0.039305843
232	0xbd27f322	-0.041003354
233	0xbcbe57c4	-0.02323521
234	0x3d3f3df8	0.046689957
235	0x3d9359de	0.07194875
236	0xbdc2ef23	-0.09518268
237	0xbc8bc83c	-0.017063253
238	0xbcd15bbd	-0.02555644
239	0xbd0788ec	-0.033089563
240	0xbd303445	-0.043018598
241	0x3c6ca37f	0.014443277
242	0x3cc0372f	0.023463814
243	0x3d6194d9	0.055073593
244	0xbd0b25ea	-0.033971705
245	0x3d32235a	0.043490745
246	0x3bf4ef46	0.0074748127
247	0x3cac2497	0.021013541
248	0xbd6a4a74	-0.05719991
249	0x3cea7024	0.028617926
250	0xbd96be30	-0.07360494
251	0x385132b3	4.98767e-05
252	0xbcf2bf70	-0.0296323
253	0x3d38da95	0.04513033
254	0xbd718b3a	-0.058970667
255	0x3bdda2fc	0.006763814

bias f4 [64]
0	0xbdec7440	-0.115456104
1	0xbe0d7d94	-0.13817436
2	0xbdd919ba	-0.1060061
3	0xbd5b488a	-0.053535976
4	0xbd5f744b	-0.054554265
5	0xbe0d6c78	-0.13810909
6	0xbd7d2a1c	-0.061807737
7	0xbd7439cf	-0.059625443
8	0xbda74eea	-0.081693485
9	0xbd7fe47e	-0.062473767
10	0xbe15532b	-0.14582507
11	0xbdd6786d	-0.10472188
12	0xbdcee0bb	-0.10101458
13	0xbdb73460	-0.089455366
14	0xbde28918	-0.11061305
15	0xbda612bc	-0.08109042
16	0xbe10e267	-0.14148866
17	0xbdd0a2e3	-0.10187318
18	0xbde308cf	-0.110856645
19	0xbdea58d5	-0.114427246
20	0xbe051447	-0.12996016
21	0xbd95cfa2	-0.073149934
22	0xbce30b03	-0.027715212
23	0xbe05335e	-0.13007876
24	0xbd88f112	-0.066866055
25	0xbc8806b2	-0.016604755
26	0xbdbdbc08	-0.0926438
27	0xbd83794f	-0.06419622
28	0xbdbacfd8	-0.09121674
29	0xbdbc72b6	-0.09201567
30	0xbd04981f	-0.032371636
31	0xbd8824e9	-0.06647665
32	0xbcc5e877	-0.0241587
33	0xbd63f712	-0.055655546
34	0xbdcffa4e	-0.10155164
35	0xbdd1275b	-0.102125846
36	0xbd875ce3	-0.066095136
37	0xbdb6e774	-0.08930865
38	0xbdbbbb22	-0.09166552
39	0xbe0a2146	-0.13489255
40	0xbe1b0f13	-0.15142469
41	0xbdd571d2	-0.104221
42	0x3c250de9	0.010074117
43	0xbcdabdfb	-0.026701918
44	0xbd8b3e7e	-0.06799029
45	0xbd225aba	-0.039637305
46	0xbd73e4b4	-0.05954428
47	0xbdd141b1	-0.10217608
48	0xbd5ce558	-0.053929657
49	0xbd386c20	-0.04502499
50	0xbe01abb6	-0.12663159
51	0xbe160ef7	-0.14654146
52	0xbda807ad	-0.08204589
53	0xbe21130f	-0.15729927
54	0xbc45780c	-0.012052547
55	0x3c04d716	0.008107921
56	0x3bcc2045	0.0062294328
57	0xbe13b079	-0.14422788
58	0xbbc9b8d9	-0.0061560688
59	0xbdfa268e	-0.12214385
60	0xbdd2372d	-0.1026443
61	0xbd862c42	-0.0655141
62	0xbd599f61	-0.05313051
63	0xbd1eb913	-0.03875072

weight f4 [64, 1024]
0	0xbd56c88c	-0.05243735
1	0xbba2a3c0	-0.004963368
2	0x3c33a0eb	0.010963659
3	0x3ab3e434	0.0013724626
4	0x3b805be2	0.0039172033
5	0x3ce4f381	0.027948143
6	0x3c9551a7	0.018227411
7	0xbbea1769	-0.007143904
8	0xbbd55d98	-0.0065114014
9	0x3c88eaa0	0.01671344
10	0x3d311e45	0.043241758
11	0xbba91140	-0.005159527
12	0xbd69bee8	-0.057066828
13	0xbd82cdb6	-0.063868925
14	0x3b6a81c6	0.0035782917
15	0xbd3b9b6f	-0.04580253
16	0xbd2a1612	-0.041524954
17	0x3cb14098	0.021637246
18	0xbd1f4f97	-0.038894262
19	0xbce18db4	-0.02753339
20	0xbc9b6960	-0.018971145
21	0xbc535bf2	-0.012900339
22	0xbc827adc	-0.015927725
23	0xbc5e2ab0	-0.013559982
24	0xbd305202	-0.04304696
25	0x3d063af9	0.032771084
26	0xbccbd404	-0.02488137
27	0x3d29ee72	0.041487165
28	0x3c8d30ff	0.017235277
29	0x3c1a57f8	0.009420387
30	0x3d2a9ff8	0.041656464
31	0xbc0d66d9	-0.008630478
32	0x3c523d5f	0.012832015
33	0x3c0c75f5	0.008573045
34	0xbd4245d0	-0.04742986
35	0xbcbbadb8	-0.022909984
36	0xbd5385f4	-0.05164142
37	0x3bfed9f8	0.0077774487
38	0x3d6250fc	0.055253014
39	0x3d14670c	0.036231086
40	0xbcd683c6	-0.026185881
41	0xbd3298a2	-0.043602593
42	0xbd56bf9a	-0.05242882
43	0xbc744763	-0.014909598
44	0x3c053d9b	0.008132364
45	0x3ca5fe3c	0.02026283
46	0x3d02f7ee	0.031974725
47	0xbcab8dab	-0.020941576
48	0xbc1066e6	-0.008813595
49	0xbcdb022a	-0.02673443
50	0xbd1098ef	-0.0353021
51	0xbc615e62	-0.013755413
52	0xbd123035	-0.035690505
53	0xbd050dd8	-0.032483906
54	0x3d290243	0.041261923
55	0x3c881339	0.016610729
56	0xbd528729	-0.05139843
57	0x3d08cd09	0.03339866
58	0x3d42f0ba	0.047592856
59	0x3cb5401c	0.022125296
60	0x3cd900ba	0.026489604
61	0x3d28dde2	0.04122723
62	0x3df18d4c	0.11794528
63	0x3d869ef7	0.06573289
64	0xbc05e341	-0.008171857
65	0xbca2df94	-0.019882001
66	0x3cb292af	0.02179846
67	0x3ce81db4	0.028334476
68	0xbd157fa9	-0.0364987
69	0xbcc12569	-0.023577409
70	0x3c9ecf69	0.01938601
71	0x3d9e2854	0.07722536
72	0x3c080dcc	0.008304071
73	0x3d83cdba	0.064357236
74	0xbc16fb72	-0.009215223
75	0x3cfa49c6	0.030552756
76	0xbbaff788	-0.005370084
77	0x3ca12b4e	0.01967397
78	0x3bf82975	0.0075733014
79	0x3b7efded	0.0038908676
80	0xbd0afb0a	-0.033930816
81	0x3d877b38	0.06615299
82	0x3c665ba7	0.014059938
83	0xbd0b29fa	-0.03397558
84	0x3c020a13	0.007936972
85	0xbc87d4c5	-0.016580949
86	0x3d352a3d	0.044229735
87	0x3bcfa35a	0.0063366117
88	0x3cb89bd4	0.022535242
89	0x3ca28cc9	0.019842522
90	0xbc66677d	-0.0140627595
91	0x3c94edd2	0.018179808
92	0x3d34fd85	0.044187088
93	0x3d51b4d8	0.051197857
94	0x3d5db8a7	0.054131176
95	0x3d539ced	0.051663328
96	0xbb590639	-0.0033115281
97	0xbbd9abb7	-0.0066427845
98	0xbadffc52	-0.0017088747
99	0x3c02a6fe	0.007974384
100	0x3c0b16a0	0.008489281
101	0xbc8169e0	-0.015797555
102	0xbd001b8c	-0.03127627
103	0xbd1424e1	-0.036167983
104	0x3d1d504f	0.038406666
105	0x3d2475d2	0.040151425
106	0x3bcf1997	0.006320189
107	0x3d95fcc4	0.07323602
108	0xbc94668b	-0.018115303
109	0x3c9dea8e	0.019276883
110	0x3d220618	0.039556593
111	0x3d3075e2	0.04308117
112	0x3aa80897	0.0012819943
113	0xbd512a5c	-0.051065788
114	0xbd209d42	-0.039212473
115	0x3d02afbf	0.031905886
116	0x3d0cc366	0.034366034
117	0xbcc1bc9d	-0.023649508
118	0x3d5b1a59	0.053491924
119	0x3d4c40f7	0.049866643
120	0x3bf9209c	0.0076027643
121	0xbcc21e1f	-0.023696003
122	0x3d0aa829	0.033851776
123	0x3d51fbe9	0.05126563
124	0x3d783975	0.06060167
125	0xbcb574c5	-0.022150407
126	0x3ca58c54	0.020208515
127	0x3c4dc32a	0.012558738
128	0x3af6b07f	0.001882091
129	0xbb6faf37	-0.0036572942
130	0x3d1a00f1	0.037598554
131	0xbc45e55f	-0.012078612
132	0x3d4aac21	0.04948056
133	0x3d09d730	0.033652484
134	0x3cf47bba	0.029844154
135	0x3d1e23c9	0.038608346
136	0x3d81e5e9	0.0634268
137	0x3db06af9	0.086141534
138	0x3c92fb8d	0.017942214
139	0x3d978560	0.07398486
140	0xbd36ac13	-0.044597697
141	0x3ac8c5e8	0.001531777
142	0x3a91e106	0.0011129684
143	0xbcf74ed3	-0.030188954
144	0x3c02232f	0.007942959
145	0xbcadfa08	-0.021237388
146	0x3d1a9a63	0.03774489
147	0xbcb70493	-0.022341048
148	0x3aba9d8b	0.0014237625
149	0x3ce7a3cc	0.028276347
150	0x3daaac9b	0.08333703
151	0x3d084d59	0.03327689
152	0x3cae6987	0.021290554
153	0x3db4d212	0.0882913
154	0x3cdd1306	0.02698661
155	0x3c34691b	0.011011387
156	0xbd123283	-0.035692703
157	0x3ba6733b	0.0050796545
158	0xbc90e261	-0.01768607
159	0xbd5b4efc	-0.053542122
160	0x3c99316d	0.018700326
161	0xbc5dcbf1	-0.013537393
162	0xbd8cc789	-0.06873996
163	0x3bafa77c	0.005360542
164	0x3d0b7ec4	0.03405644
165	0xbd20a601	-0.039220814
166	0x3b726805	0.003698827
167	0x3d91b140	0.07113886
168	0x3d068ea8	0.03285089
169	0xbc60ca2d	-0.013720077
170	0xbb8ec8a6	-0.0043574153
171	0x3d8682fa	0.065679505
172	0x3c4032f5	0.011730899
173	0xbd2dbe51	-0.042417828
174	0xbb88c3b0	-0.0041737184
175	0x3d47110f	0.048600253
176	0xbb295d42	-0.002584294
177	0x3c764581	0.015031219
178	0xba0cf032	-0.0005376368
179	0xbc8b3783	-0.016994243
180	0xbd03107a	-0.031998135
181	0x3c5be461	0.013421149
182	0xbd07c165	-0.03314342
183	0xbc923d12	-0.017851386
184	0x3aadeed7	0.0013270032
185	0x3b3dcc1f	0.0028960777
186	0xbd5cd7bf	-0.05391669
187	0xbcbf7936	-0.023373228
188	0x3cb347d0	0.021884829
189	0x3ca79375	0.020456055
190	0x3d9a799e	0.07542728
191	0x3d5cf33a	0.053942896
192	0xbaee854c	-0.0018197685
193	0xbd5a5eaf	-0.053312954
194	0x3c505f4e	0.012718035
195	0xbb98bbed	-0.0046610744
196	0x3ca5f0d5	0.02025644
197	0xbd92dffc	-0.07171628
198	0xbce0f672	-0.027461264
199	0xbd19d571	-0.03755707
200	0x3d059fd9	0.032623146
201	0xbbe17758	-0.006880682
202	0x3c2be705	0.010492091
203	0x3c52d63d	0.012868461
204	0x3db261eb	0.087100826
205	0xbd248e48	-0.040174752
206	0x3cac894e	0.021061566
207	0xbce54998	-0.027989194
208	0x3c6e6e13	0.014552611
209	0xbd00c5a4	-0.031438485
210	0xbc27b965	-0.010237073
211	0xbbc11f4d	-0.005893624
212	0xbaa4e959	-0.001258175
213	0x3d27ff48	0.04101494
214	0x3c93c6a6	0.018039059
215	0x3c53517d	0.012897846
216	0x3c6c0220	0.0144048035
217	0x3cbb6bf5	0.022878626
218	0x3cbb38ee	0.022854295
219	0x3d84776f	0.06468093
220	0xbd7d3aea	-0.061823763
221	0xbd30d879	-0.043175194
222	0xbbfa4248	-0.007637296
223	0xbd00c21a	-0.03143511
224	0x3d2e8c2d	0.04261415
225	0x3cea26ef	0.028583018
226	0x3d82cdc0	0.063869
227	0xbc5afe3b	-0.013366277
228	0x3bcd7ccb	0.00627098
229	0x3ab07e8c	0.0013465448
230	0xbcf943a9	-0.03042777
231	0x3c0ed9f1	0.0087189535
232	0x3c5054f4	0.012715567
233	0xbd70290c	-0.058632895
234	0x3cf19174	0.029488303
235	0xbda5e0cb	-0.080995165
236	0xbcb07e87	-0.021544708
237	0xbd3faf17	-0.046797838
238	0x3c1ed3af	0.009694024
239	0x3bc18e7a	0.005906877
240	0xbad6a823	-0.0016377013
241	0x3b455076	0.0030107773
242	0xbc075492	-0.008259909
243	0xbcfd34b8	-0.030908927
244	0x3d1c7ff9	0.03820798
245	0xbc5d03f6	-0.013489714
246	0xbd016ad3	-0.031596016
247	0x3c7ca512	0.015420215
248	0xbb2b8579	-0.0026172085
249	0xbd452c97	-0.048138227
250	0x3d06cc02	0.0329094
251	0xbd0aae6c	-0.033857748
252	0x3cb2244e	0.021745827
253	0x3d84f192	0.064913884
254	0xbc75cc27	-0.015002287
255	0x3caf633c	0.021409623

bias f4 [64]
0	0xbc9471c4	-0.018120654
1	0x3c0b9c57	0.008521161
2	0xbcea4709	-0.028598325
3	0x3c8ef227	0.017449452
4	0xbcd25e8e	-0.025679853
5	0x3d5018a9	0.050804768
6	0xbc426f56	-0.011867365
7	0xbc6643b0	-0.014054224
8	0x3c91f259	0.017815756
9	0xbbe69354	-0.007036606
10	0xbccf0df4	-0.025275208
11	0xbd42139b	-0.04738198
12	0x3c7c768e	0.015409125
13	0x3d5f5e95	0.05453356
14	0x3c0ab66a	0.008466342
15	0xbbbcbdf3	-0.0057599484
16	0x3cdef33a	0.027215589
17	0x3bd98253	0.0066378503
18	0xbcb78600	-0.022402763
19	0x3d1dd124	0.03852953
20	0xbd420986	-0.047372364
21	0x3cbb9c51	0.022901686
22	0x3c91f165	0.017815301
23	0xbd15dc6f	-0.036587175
24	0x3cb80d1c	0.022467189
25	0xbd0fef0e	-0.03514009
26	0x36a5fc61	4.946764e-06
27	0xbd09e608	-0.03366664
28	0x3da69540	0.08133936
29	0x3cf0218a	0.029312868
30	0xbc921e6a	-0.017836768
31	0x3ca03430	0.019556135
32	0xbd6b6ce6	-0.0574769
33	0x3d33efaf	0.043929752
34	0x3bbbd7f5	0.005732531
35	0xbd445891	-0.047936026
36	0xbce768d8	-0.028248236
37	0x3cd033dc	0.025415353
38	0xbd418000	-0.04724121
39	0xbd53d60c	-0.051717803
40	0xbd532a37	-0.05155393
41	0xbcc8572d	-0.024455631
42	0xbd33d6eb	-0.043906134
43	0xbd4032c6	-0.04692342
44	0x3ca6efa7	0.020377947
45	0xbc26f653	-0.010190564
46	0xbc46ad3e	-0.012126265
47	0xbd3c2eec	-0.045943186
48	0xbd074bf2	-0.03303141
49	0xbccd439f	-0.025056658
50	0x3d0f9d3f	0.03506207
51	0x3d899311	0.06717504
52	0x3d009398	0.031390756
53	0x3a717a10	0.0009211609
54	0xba1ab0d1	-0.00059009815
55	0xbba81b1c	-0.005130185
56	0x3be96d8f	0.007123656
57	0xbd2a5d21	-0.04159272
58	0xbd556edd	-0.05210768
59	0x3c8962a5	0.01677067
60	0x3d201ca9	0.039089832
61	0xbd2b4012	-0.04180915
62	0x3d15d7ff	0.036582943
63	0x3d05b4c5	0.0326431

weight f4 [10, 64]
0	0x3d69965c	0.05702816
1	0x3e7efe64	0.2490173
2	0xbe081ac0	-0.13291454
3	0xbd3331cf	-0.043748673
4	0xbe5d3f06	-0.21606073
5	0xbe8722b5	-0.26393667
6	0x3de8e292	0.1137134
7	0x3e852cdb	0.26010785
8	0x3e7a79f6	0.24460587
9	0x3d853601	0.06504441
10	0xbe8651f8	-0.26234412
11	0x3e8f4f50	0.27990198
12	0xbdc520a5	-0.09625367
13	0x3d5937ed	0.05303185
14	0xbe9d6608	-0.30741906
15	0x3e85e4b3	0.26151046
16	0x3e6fd5bb	0.23421375
17	0xbea0d0c6	-0.31409281
18	0x3e7964ec	0.24354905
19	0xbe776c63	-0.2416244
20	0x3d401f58	0.04690489
21	0xbe69444b	-0.22779958
22	0xbc997151	-0.018730791
23	0x3e5fb6a0	0.2184701
24	0xbe13a349	-0.14417757
25	0xbd2325d9	-0.039831016
26	0xbe55998b	-0.20859353
27	0xbe086cdf	-0.13322781
28	0xbe9075fd	-0.28215018
29	0xbd04cadb	-0.03242002
30	0xbd30424b	-0.043031972
31	0x3d3aecf5	0.045636136
32	0x3eae1638	0.34001327
33	0xbe964b25	-0.29354206
34	0xbdb0f9ac	-0.08641371
35	0x3d91156f	0.07084166
36	0xbe666e4b	-0.22503011
37	0xbde98421	-0.11402155
38	0x3eb2f265	0.34950557
39	0xbe8c2c14	-0.2737738
40	0x3e947c56	0.2900111
41	0xbdadccf2	-0.08486356
42	0x3dcf12f5	0.10111038
43	0x3e58a9c4	0.2115851
44	0x3c1a7e24	0.009429488
45	0xbe8a00f8	-0.26953864
46	0x3d8a18bc	0.06742999
47	0xbdf4de0e	-0.11956416
48	0x3ea22628	0.31669736
49	0xbcb50807	-0.022098554
50	0xbe98a003	-0.2980958
51	0xbe1c2fcf	-0.15252613
52	0x3e06c812	0.13162258
53	0xbd2c859b	-0.042119604
54	0x3e1ba121	0.15198185
55	0x3d17a1ed	0.03701966
56	0x3d645f30	0.05575484
57	0x3eb3b60a	0.35099822
58	0x3e397fca	0.18115154
59	0xbea6dabe	-0.32588762
60	0xbe31a197	-0.17346798
61	0x3beb3449	0.0071778637
62	0xbe051434	-0.12995988
63	0x3d4c5321	0.049883965
64	0x3e320deb	0.17388122
65	0xbda0207b	-0.07818695
66	0x3e3896cd	0.18026276
67	0xbe904fc8	-0.28185868
68	0xbd169bfe	-0.03676986
69	0x3d8bcf50	0.06826651
70	0xbe043751	-0.12911727
71	0xbe9c5979	-0.30537012
72	0xbeb91c34	-0.3615433
73	0xba6ddccd	-0.00090737344
74	0xbea6e216	-0.32594365
75	0xbe67f302	-0.22651294
76	0xbde65e54	-0.112484604
77	0xbe81d301	-0.25356296
78	0x3eb3dee1	0.3513098
79	0xbddae47d	-0.10688112
80	0xbda5be54	-0.08092943
81	0x3e9c1123	0.30481824
82	0x3dbb99ee	0.09160219
83	0xbe4fb68e	-0.20284483
84	0xbe4246e2	-0.18972352
85	0xbe1285ed	-0.14308901
86	0xbd7ef036	-0.0622408
87	0x3e8d34f7	0.2757947
88	0x3ef9b068	0.487674
89	0x3e9fe55c	0.31229675
90	0x3e6dc79c	0.23220676
91	0x3ddd02df	0.10791563
92	0xbea29015	-0.3175055
93	0xbe840ffc	-0.25793445
94	0xbdd76c40	-0.10518694
95	0x3e481915	0.19540818
96	0x3e9fa36e	0.31179374
97	0x3e096845	0.13418682
98	0xbdd94978	-0.10609716
99	0xbe952763	-0.29131612
100	0xbe0944bc	-0.13405126
101	0x3e243984	0.16037565
102	0xbe98a1b3	-0.29810867
103	0xbde69c7e	-0.11260317
104	0x3e1ba533	0.15199737
105	0xbd25216d	-0.04031508
106	0x3cb92792	0.022601876
107	0x3daad8c0	0.08342123
108	0xbeaa6dcd	-0.33286896
109	0xbe903748	-0.28167176
110	0xbdec8e40	-0.115505695
111	0x3ea95b73	0.33077583
112	0xbd48d307	-0.049029376
113	0x3e5076b0	0.20357776
114	0xbe7556e8	-0.23958933
115	0xbe7b43d0	-0.24537587
116	0xbee31aa8	-0.44356275
117	0x3e937876	0.28802842
118	0xbe6b7308	-0.229931
119	0xbe16c5f0	-0.14723945
120	0x3ee9edf4	0.45689356
121	0x3e595bb0	0.21226382
122	0x3bae11c6	0.0053121774
123	0x3ecc6450	0.39920282
124	0xbf01fbe3	-0.50774974
125	0xbe366d55	-0.17815144
126	0xbeb44ad3	-0.35213336
127	0xbe8bfba5	-0.27340427
128	0xbebd4e5a	-0.3697384
129	0xbc6a6d2b	-0.014308254
130	0xbeb8b4ea	-0.36075526
131	0x3e5b620c	0.2142412
132	0xbdf43444	-0.119240314
133	0xbdc802f5	-0.09766189
134	0x3dd35123	0.1031821
135	0xbd85a552	-0.06525673
136	0x3c2a037e	0.010376809
137	0xbe110d58	-0.14165246
138	0x3e7254e9	0.23665203
139	0xbe928f03	-0.28624734
140	0x3cd17606	0.025568973
141	0x3d1ecbe7	0.038768675
142	0xbeb9a27e	-0.36256784
143	0x3e90a80f	0.2825322
144	0xbdab068e	-0.083508596
145	0xbe41973a	-0.18905345
146	0xbe3f2da9	-0.18669762
147	0x3e0e1d5f	0.13878392
148	0x3d75f12b	0.06004445
149	0x3de54ebc	0.11196658
150	0xbe75a6f5	-0.2398947
151	0xbea5b8c5	-0.3236753
152	0xbd229e17	-0.039701547
153	0x3d8964d8	0.067086875
154	0xbe45088f	-0.19241546
155	0x3e33c6ee	0.17556354
156	0xbe25be08	-0.16185772
157	0x3e7ad251	0.24494292
158	0xbd50af07	-0.05094817
159	0x3e7bc3d8	0.24586427
160	0x3e8d71d8	0.27625918
161	0x3df1eec5	0.1181312
162	0xbe519818	-0.20468175
163	0xbc6d4b3d	-0.01448327
164	0x3e8e3417	0.27774116
165	0x3e105e35	0.14098437
166	0x3e3851e8	0.17999995
167	0xbeb0bb28	-0.3451779
168	0x3e029def	0.1275556
169	0x3e0331d8	0.12811983
170	0x3ceb3a17	0.028714223
171	0x3cfaa97e	0.030598398
172	0x3e0278d5	0.12741406
173	0x3ea2a236	0.31764382
174	0x3ee06985	0.43830505
175	0xbca403cd	-0.020021344
176	0x3df6619f	0.120303385
177	0x3ea21186	0.31653994
178	0x3ea43c00	0.32077026
179	0x3e6c51db	0.230781
180	0xbe099e1d	-0.13439222
181	0x3e79a881	0.24380685
182	0x3e250811	0.16116358
183	0x3e47d98c	0.19516581
184	0x3d0513e1	0.03248966
185	0xbe1d27d8	-0.1534723
186	0xbd8c086e	-0.06837545
187	0xbe7b16c1	-0.24520399
188	0x3ea911ce	0.33021396
189	0x3d859708	0.065229475
190	0x3e0c0ba0	0.1367631
191	0xbd9aedb8	-0.075648725
192	0xbe308b19	-0.17240562
193	0x3e4da632	0.2008293
194	0xbe8269e0	-0.254714
195	0xbe47e357	-0.19520317
196	0xbdd6115a	-0.10452528
197	0x3e858cbc	0.26083934
198	0xbcc9c0b1	-0.024628015
199	0xbcb5402d	-0.022125328
200	0xbe53e2c2	-0.2069197
201	0x3e6519cf	0.22373126
202	0x3e734c80	0.23759651
203	0x3cefb9ca	0.029263396
204	0x3e0563d4	0.13026363
205	0xbe869f68	-0.26293492
206	0x3e8f66f1	0.28008226
207	0xbdfbaf1f	-0.12289261
208	0x3deac834	0.11463967
209	0x3e77d5cd	0.24202652
210	0xbd545893	-0.051842283
211	0x3a3ef077	0.0007283757
212	0x3d489492	0.048969813
213	0x3e17084e	0.14749262
214	0x3e80246d	0.2502779
215	0xbc35fed8	-0.011108123
216	0xbda2093d	-0.07911918
217	0xbd48a8ef	-0.048989233
218	0xbe639664	-0.22225338
219	0xbe6b0fc5	-0.22955234
220	0x3dec9383	0.11551573
221	0x3dbe4cde	0.09292005
222	0x3e9ace7b	0.30235657
223	0xbe18a38a	-0.14906135
224	0xbdc505ed	-0.09620271
225	0x3d1c1340	0.038104296
226	0x3e15a198	0.14612424
227	0xbde20ea3	-0.11037948
228	0x3e4d89ec	0.20072144
229	0x3cdce5fc	0.026965134
230	0x3df73a43	0.120716594
231	0x3dcb13c6	0.09915881
232	0x3e42d43f	0.19026278
233	0x3e8fd966	0.2809555
234	0xbecca0db	-0.39966473
235	0xbd8a6ac5	-0.06758646
236	0x3d5cab84	0.053874508
237	0x3df7c2a7	0.12097674
238	0x3e32950c	0.1743967
239	0xbe6b2098	-0.22961652
240	0xbd7f684a	-0.062355317
241	0xbdd7cc38	-0.105369985
242	0xbe495f2b	-0.1966521
243	0x3c9a2a7b	0.018819084
244	0x3e1e0bd2	0.15434197
245	0x3e67cced	0.22636767
246	0x3df4c2a1	0.11951185
247	0xbd85ad23	-0.06527164
248	0xbe257c9b	-0.16160814
249	0xbe28f866	-0.16501006
250	0x3e2d3ad0	0.16916966
251	0xbda26eb1	-0.07931269
252	0x3d8740ed	0.066041805
253	0xbe14ee16	-0.14543948
254	0x3dd5c3ee	0.10437761
255	0xbd7f90be	-0.062393896

bias f4 [10]
0	0xbd92e5aa	-0.07172711
1	0x3dd03b24	0.1016753
2	0xbcb8bb76	-0.022550326
3	0x3dbd53ee	0.09244524
4	0x3dde1fa9	0.108458824
5	0xbdf14c41	-0.117821224
6	0x3dba90ec	0.09109673
7	0xbcd4536f	-0.02591869
8	0xbc141ad9	-0.009039604
9	0x3cf8524a	0.030312676
