try_train/cifar10_models/cifar10_net_43.pth (torch, 589402 bytes, 10 tensors)

weight f4 [32, 3, 5, 5]
000000 00 6f c6 bd be cc a3 3d 6f 8e 34 3e 34 41 5b 3c
       -0.0968914 0.07998036 0.17632459 0.013382245
000010 0b 4a 0c 3e 3c 26 04 be 11 0b d9 bd 81 6a 77 bc
       0.1370012 -0.1290521 -0.10597814 -0.015101076
000020 d9 76 72 3e 40 69 a9 3d 17 2a b1 bd 4a e3 6c 3c
       0.2367815 0.08272028 -0.08650606 0.014458487
000030 3e d9 66 be 16 5e 09 bb 99 90 c3 bd 86 26 b1 3d
       -0.22543809 -0.002096062 -0.09549064 0.08649926
000040 a3 e0 d0 3c 08 3a ae be b9 c0 64 be f9 9c 05 be
       0.02549774 -0.3402865 -0.22339143 -0.13048162
000050 ae 22 52 3e df 13 4a bd 79 66 a7 be 52 4c 00 be
       0.20521042 -0.049335357 -0.32695368 -0.12529114
000060 a1 48 f0 bc 5c c8 08 be d5 3e 94 bd 98 9c 00 bd
       -0.029331507 -0.13357681 -0.07238547 -0.03139934
000070 ba e7 30 bd 09 2b c5 bd 17 11 9b 3d 98 b9 04 be
       -0.04318974 -0.09627349 0.07571619 -0.12961423
000080 b1 f5 02 be 52 79 e2 3d 5b ef f5 3c e6 a9 ed 3c
       -0.12789036 0.11058296 0.03002136 0.029011678
000090 b7 df ad 3d e4 f9 51 be dc 4d 14 3c d4 37 10 bd
       0.08489936 -0.20505482 0.009051766 -0.03520949
0000a0 64 45 c3 3e cd 64 5e 3e c1 35 46 be 7d e3 ad bd
       0.38138878 0.2171814 -0.19356443 -0.084906556
0000b0 da 1f d0 bd 70 5d 82 3e 68 d7 f4 3d 9d 41 66 be
       -0.10162325 0.25461912 0.11955148 -0.22485967
0000c0 0a b9 2c be 1f 12 ab 3d 25 60 5f bc b1 95 50 3d
       -0.16867462 0.08353066 -0.0136337625 0.050924007
0000d0 c1 dd 13 3e 36 d8 cc bb 84 bf 1c be 5f cc d5 3c
       0.14440061 -0.0062513603 -0.15307432 0.026098428
0000e0 ba fe 58 3b 31 05 cd 3a 44 48 36 3d 49 6f 2e bd
       0.0033110813 0.0015641806 0.04450251 -0.0425866
0000f0 56 c1 43 3e 7b b1 a5 3d eb a5 30 be 7e 5e d7 bd
       0.1911672 0.08090492 -0.17250793 -0.1051607
000100 dc 16 5b bd 29 c8 b8 3e 82 69 90 3e 32 21 12 be
       -0.053488597 0.3609021 0.28205496 -0.14270476
000110 72 00 a2 bd 38 9f c0 bb 4b bd be 3e cd 37 56 3e
       -0.07910241 -0.0058783554 0.37253794 0.20919724
000120 b4 93 3f be 9e 44 15 be 92 e6 ab bd a0 da fa bd
       -0.18708688 -0.14576957 -0.08393587 -0.12248731
000130 8b 58 bf bd 49 c3 56 be a1 a7 15 3c af 01 1c bc
       -0.0934306 -0.20972933 0.009134204 -0.009521886
000140 48 19 99 bc b3 fb 9f bd 26 02 f6 bc 85 af b6 bd
       -0.018688813 -0.0781168 -0.030030321 -0.089201964
000150 6b 39 b6 3c 60 e0 00 bc f5 80 9a bd d7 c0 2e bd
       0.022244176 -0.007865995 -0.07544128 -0.042664375
000160 1d 81 85 bd f7 95 47 3d b6 ff 02 be 14 9e 0f be
       -0.06518767 0.048727002 -0.12792858 -0.14025146
000170 43 22 62 be 77 6b 55 be 58 08 e1 bc 8b 39 37 3b
       -0.22083382 -0.20841776 -0.027469799 0.0027957882
000180 5d a7 3e be cd 5e 5d be aa 77 5f be d8 8a 9d bd
       -0.18618532 -0.21618195 -0.21822992 -0.07692498
000190 34 15 94 bc 2a 4b ab bc 74 b9 e0 bd 54 4a a1 3c
       -0.018076517 -0.020909864 -0.109728724 0.019688763
0001a0 af 45 28 be ba b1 4a bd 0d 79 0c 3d e9 ef 21 3e
       -0.16432832 -0.0494859 0.03429513 0.15814175
0001b0 35 5e 49 3e e7 38 c4 3c ac 41 16 bd b5 dc 91 3d
       0.19664843 0.023952914 -0.036683723 0.07122175
0001c0 c0 12 a4 3d d2 2c 5c 3e 50 64 15 3d b4 bb 6b 3c
       0.08011389 0.21501473 0.03647262 0.014388014
0001d0 c1 a0 5e bd f6 9f 02 be 26 0a 8b bd 03 7f b4 bc
       -0.054352526 -0.12756333 -0.06789045 -0.02203322
0001e0 93 2f 39 bd 4d 94 46 be d2 04 81 be 52 4c 7c be
       -0.045211386 -0.1939251 -0.2519899 -0.24638489
0001f0 3b aa d5 bd be ef ac bd 8e 7e 5b 3d 9d 3a 50 bd
       -0.104328595 -0.08444165 0.05358749 -0.050837148
000200 80 70 f0 bd 42 24 e6 bd 14 c3 e5 3d 14 6b 5b 3e
       -0.11740208 -0.112373844 0.11218849 0.21427566
000210 c8 84 a5 3e d6 53 35 3e f2 4a a6 bc 9e 68 51 3e
       0.32327867 0.17707762 -0.020299409 0.20450065
000220 eb a2 ba 3e 73 62 e4 3e d8 94 98 3e 91 dd 22 3e
       0.36452422 0.4460636 0.2980106 0.15904833
000230 52 b7 41 3e f8 f7 8d 3e e5 56 79 3e 41 48 36 3e
       0.18917587 0.27728248 0.24349554 0.17801
000240 f3 f7 5a 3e ea 4b 27 3d 78 6c bd bc eb 1c 94 3c
       0.21383648 0.04084388 -0.023123011 0.018080195
000250 8b 59 d5 3d 2e fa 41 3d 7d 7a bd 3d ae 88 34 be
       0.104174696 0.04735773 0.092518784 -0.17630264
000260 3c 5a 95 3d 72 69 d2 bd db ba 75 bd fa 9f 77 3e
       0.072926015 -0.10274018 -0.059992652 0.2418212
000270 ed 9a a9 be 5e 98 e7 3d 53 a3 bd bc 37 48 c0 bd
       -0.33126011 0.113083586 -0.023149168 -0.09388774
000280 86 4a 44 3d 37 14 9f be a3 70 9c bd fa a3 a6 bd
       0.047922634 -0.3107011 -0.07638671 -0.08136745
000290 98 a8 1a 3c 24 06 11 be fc 4c d5 bc 72 c8 5a 3e
       0.00943961 -0.14162499 -0.026037686 0.21365526
0002a0 be 24 99 3c e9 b0 9a 3c 82 04 04 be 5b e1 54 bd
       0.018694278 0.018883185 -0.12892345 -0.05197273
0002b0 1e 74 af bc 7e e3 1c be 76 90 3d be 9e 4b 61 3e
       -0.021417674 -0.15321156 -0.18512139 0.22001502
0002c0 81 e5 00 be ea 66 15 3e 52 f9 17 3d a5 c4 37 3c
       -0.12587549 0.1459004 0.037103005 0.011216317
0002d0 5c fa 81 3e 26 30 19 be 0b c5 0c 3e b5 d0 a2 3d
       0.25386322 -0.14959773 0.13747041 0.07949964
0002e0 18 f0 a7 3d 99 dc 2f 3e 53 cc 6e be 5c af 70 3e
       0.08200091 0.17173995 -0.23320131 0.23504394
0002f0 54 7d 23 3d b3 ff 2e bd 37 ac 19 bd c0 03 d9 bc
       0.039914444 -0.042724323 -0.037517752 -0.026491046
000300 b4 f8 87 3e 86 d3 60 3e ee 17 33 3e 11 1e c6 3b
       0.26556933 0.2195569 0.17489597 0.0060460647
000310 85 c5 b5 3d ce 4f 51 bd bc 3d 52 3d 17 26 aa bc
       0.088755645 -0.0511015 0.051328406 -0.020770116
000320 61 31 a5 3d 06 0b 5c be 0f 6d 3e 3e 4b 65 ed bd
       0.08066059 -0.2148858 0.1859629 -0.11591586
000330 a5 89 be bb 85 5a 57 3e cc 2c 7a be d5 38 c3 3d
       -0.0058147484 0.21030624 -0.24431151 0.09532324
000340 96 1e d1 bd 0b 1f 87 3d 28 df c8 3d 44 9a 80 be
       -0.10210912 0.06597718 0.09808189 -0.25117695
000350 10 62 35 3c 46 c1 e4 bd df 3d f0 3c f1 ca 1c 3d
       0.011070743 -0.111696765 0.029326377 0.038279478
000360 14 1b f5 bd dd 56 90 3e 86 c1 16 3e 33 28 a9 bd
       -0.11968055 0.2819127 0.14722261 -0.082596205
000370 ef 03 a9 bd 9c ee e4 3d 54 de d5 bd e4 6c 40 be
       -0.082527034 0.111783236 -0.10442796 -0.18791538
000380 26 18 35 be 08 8b 2b bd 6e 22 ce 3d e2 2f 20 3e
       -0.17684993 -0.041880637 0.10065161 0.15643266
000390 b7 dc 2f 3d 11 22 0d 3e 30 14 0f bd 51 55 d6 3d
       0.0429351 0.13782527 -0.03493136 0.104654916
0003a0 d6 b5 1f bc a5 b2 26 3d f5 35 08 be 98 2b 06 3e
       -0.009747943 0.040697712 -0.13301833 0.13102567
0003b0 4d 60 ac 3d a7 bc 3e 3e 00 16 31 3e 43 91 d2 bc
       0.084168054 0.18626653 0.17293549 -0.025704032
0003c0 2a 56 e3 bd be 77 45 be 04 9f 2a bd 54 2c 4f 3d
       -0.11100419 -0.1928396 -0.041655555 0.050579384
0003d0 13 00 35 3e d1 3a e9 bd b6 0a 4e be ac 28 9e be
       0.1767581 -0.113881715 -0.20121273 -0.30890405
0003e0 a9 c1 e7 bd b3 22 02 be 22 1c b4 bb 12 63 7c bc
       -0.113162346 -0.12708549 -0.0054965178 -0.01540448
0003f0 8a fc 7e bc 5e ce cc 3d 7f da ad 3d ab c1 d0 bc
       -0.01556314 0.10000299 0.084889404 -0.025482973

bias f4 [32]
000000 15 fb 46 3e 55 27 c3 be c0 d9 02 bd 9b cc 03 3e
       0.19431718 -0.38115945 -0.031945944 0.1287102
000010 96 93 24 bd 1f 65 e6 bd e8 b9 f4 3b f8 87 d4 bd
       -0.04017981 -0.11249756 0.007468451 -0.103774965
000020 b9 34 f7 3d ef 07 88 be dd 51 5c be 53 c8 85 bd
       0.12070603 -0.26568553 -0.21515603 -0.065323494
000030 46 c1 d7 3d ca 99 9a 3c d2 0f 82 be a5 3f 94 3e
       0.10534911 0.01887216 -0.25402695 0.28954807
000040 cb 38 82 bd 57 3b cb 3d f6 17 82 be aa c3 97 bd
       -0.06358489 0.099234276 -0.25408906 -0.07410367
000050 b4 f5 17 be d9 9d b2 3c 6b 90 94 be 64 3b 87 be
       -0.14839822 0.021803783 -0.29016432 -0.264125
000060 66 27 53 3d 81 12 e4 be 3b b1 fc bc 8b ad 12 be
       0.051551245 -0.44545367 -0.030846229 -0.14324014
000070 71 57 e9 3e de cc c7 3c 06 e2 38 be 34 ab 1e be
       0.45574525 0.02438968 -0.18054971 -0.15494996

weight f4 [32, 32, 5, 5]
000000 32 fe f8 3c 86 9e 13 3d c7 9f 2b bd 91 6a 93 bd
       0.030394647 0.03603985 -0.041900422 -0.0719806
000010 43 ef 9f bc 36 fe fb 3b c7 04 b4 3d 6e 60 57 3d
       -0.019523269 0.0076902164 0.08789974 0.052582197
000020 0d 3b ee bc 0d 1f bf bb eb 30 39 3c 81 46 bf 3b
       -0.029080892 -0.005832559 0.011303167 0.005837262
000030 24 30 3c 3d 8a be 65 3d 3c 53 20 bd 3b cf 51 bd
       0.045944348 0.056089915 -0.03914188 -0.05122302
000040 f7 93 85 bc b2 4c 18 3c 6c e1 9b 3d 51 e9 84 3d
       -0.016305907 0.009295629 0.07611355 0.06489814
000050 64 48 2d bd 3c d4 6f bd 86 e4 98 bb 50 b0 e8 3d
       -0.042305365 -0.05855201 -0.004665914 0.11361754
000060 37 ee db 3d 31 b0 26 3d 62 dc b0 3b f4 ee 17 3d
       0.10738795 0.040695373 0.0053973654 0.037093118
000070 4b 20 04 3d 55 4e a3 3c 6d c8 18 3d 16 04 5c bc
       0.03225736 0.019934813 0.037300516 -0.013428709
000080 7c 58 26 bd f4 e0 ff 3c 6c b8 b5 3d d6 94 bf 3d
       -0.04061173 0.031235196 0.08873066 0.0935456
000090 8e 04 33 3d 30 91 9d bd 54 62 7f bd 0e 81 c7 3d
       0.043705516 -0.07693708 -0.062349632 0.09741412
0000a0 56 2c a9 3d 4b b7 db 3c 02 9d 41 bd 65 b0 d3 bd
       0.082604095 0.0268208 -0.047268875 -0.10336379
0000b0 40 1a 65 bd 21 41 f1 3d cf 41 07 3d 11 e6 4d 3d
       -0.055933237 0.117800005 0.033021744 0.050268237
0000c0 5a f0 24 3d cb f4 04 bc ef 89 f9 bb 2b cc 5a bd
       0.04026828 -0.008115004 -0.00761532 -0.053417366
0000d0 c2 37 6f bd cf 7e 69 bc 68 1e 91 bd 9a 79 62 bd
       -0.058402784 -0.014251425 -0.07085878 -0.05529175
0000e0 bc ad 53 bd 0b 30 f9 bc 2b ce 9e bd be e4 11 bd
       -0.051679358 -0.030418416 -0.07754167 -0.035618536
0000f0 a6 f4 91 bb 8a 55 3c bd 07 cd aa bd f5 d4 4a bc
       -0.004454213 -0.045980014 -0.08339887 -0.0123798745
000100 24 57 c4 3c e8 ac 86 3c 07 9d 52 bd 2c c7 8f bd
       0.023967333 0.01643987 -0.051419284 -0.07020411
000110 4f a2 0f bd d0 9a 44 3c 39 22 75 bc c7 83 40 3d
       -0.0350669 0.011999801 -0.014961773 0.047000673
000120 16 38 b2 3b bf 08 7c 3b 55 fb 9a bc 0c 5e d1 3c
       0.005438815 0.0038457362 -0.018918673 0.02555754
000130 bf 0b f7 3c de 4b 85 3d 98 74 98 3c 39 67 f7 bb
       0.030156968 0.06508611 0.018610284 -0.007550147
000140 bc a0 71 bd 69 d3 22 bd b2 a8 4b b7 bc a0 bc 3d
       -0.05899118 -0.039752398 -1.213902e-05 0.09210345
000150 93 b4 7c 3c a7 fe ef bb 8e 12 d4 bc 77 75 43 bd
       0.015423912 -0.007324058 -0.025887754 -0.047719445
000160 1d a4 9b bc 52 d4 ec 3d f2 16 5e 3c f5 5a 27 bd
       -0.018999154 0.115639344 0.013555275 -0.040858228
000170 c7 93 f0 bd d4 79 24 bd d7 a5 ca 3b 46 77 07 3d
       -0.11746936 -0.040155247 0.0061843204 0.033072732
000180 61 75 9b 3c 0a b8 85 bc a0 15 b2 bd cb 8b cb 3c
       0.018976869 -0.016323108 -0.08695531 0.024846932
000190 07 71 1d 3c d1 03 43 3c e8 f8 90 bd 91 aa 40 bd
       0.009609467 0.011902765 -0.07078725 -0.047037665
0001a0 0a d6 76 bd ce 2e 7b bc b0 dd 04 bc a4 8e d3 bc
       -0.060262717 -0.015330983 -0.008109495 -0.025824852
0001b0 61 f2 eb bc 75 36 0e 3d 02 9e ed bc 0d 8f a7 3c
       -0.028802099 0.034719903 -0.029006008 0.020453954
0001c0 51 38 85 bc 2e 69 94 bb f5 95 3c 3d 57 ba 31 bc
       -0.016262205 -0.00452914 0.046041448 -0.01084765
0001d0 f1 67 71 bc c0 ff fd bc 0e 27 27 3c 91 86 92 3d
       -0.014734254 -0.03100574 0.010202182 0.07154573
0001e0 cd fc 76 bd b2 8c 71 bc 85 ce 31 3d c7 c0 ae 3c
       -0.060299683 -0.014743017 0.043409843 0.021332158
0001f0 5e d8 ef 3c 90 2c 94 bb 73 fe 3e bc 49 4d 7a 3b
       0.029277977 -0.004521914 -0.011657345 0.0038193038
000200 e3 da e1 bb 64 da 02 3d 7d 18 90 3c 34 01 48 bd
       -0.0068925484 0.031946555 0.017589802 -0.048829272
000210 2b df 10 bb e4 bb b3 bc 6d 6a f5 bb bc fd fd bc
       -0.0022105675 -0.02194018 -0.0074894936 -0.031004779
000220 2e 8c 0b 3c f7 b2 59 bd 39 c7 39 bc 65 73 d0 bc
       0.008517308 -0.05314919 -0.011339002 -0.02544565
000230 21 d8 17 bd 91 9f b6 bd e0 b2 09 be e7 c2 12 bb
       -0.03707135 -0.089171536 -0.13447142 -0.0022394003
000240 f4 0d cd 3c 94 6a a2 bc 72 42 04 3d 3a cf 11 3c
       0.025031067 -0.019826211 0.03228993 0.008899504
000250 bf 93 2e bd 10 18 b6 3c f1 8d 30 bd d1 00 10 bd
       -0.04262137 0.02222827 -0.043104116 -0.03515703
000260 bb ee 78 bd 1b 2f b9 bd 5d 1b 47 bd 3b 78 31 bd
       -0.060774546 -0.09042188 -0.04861008 -0.04332755
000270 95 6c c4 bd 1e ba 3b bd 53 45 55 bd 34 25 1b bd
       -0.09591023 -0.045831792 -0.052068066 -0.037877277
000280 dc 2a a3 bb ba 45 6b bd ae 19 ff bc 55 70 d8 3b
       -0.0049794745 -0.057439543 -0.031140175 0.006605188
000290 d7 0d 18 bd aa b1 8d bd f3 b4 2f bd 60 cc 7f bd
       -0.037122574 -0.06918652 -0.042897176 -0.062450767
0002a0 9d 90 eb 3c 49 4c 42 3c 8d c2 fd bc dd b0 59 bd
       0.02875548 0.011859008 -0.030976558 -0.053147186
0002b0 90 41 38 bd 5e f0 8b bc 3d 50 f7 3c 0a 14 a6 bc
       -0.0449844 -0.01708239 0.030189628 -0.020273227
0002c0 7d 5a ba bb 0f be 87 bd 62 9a 5e 3c 3d 01 81 3d
       -0.0056870566 -0.06628048 0.013586612 0.06299064
0002d0 62 1b ba 3c 64 fd 13 3c 04 49 03 bd c0 ca b3 3c
       0.022718135 0.009032581 -0.032052055 0.021947265
0002e0 4a 4c 8a 3d 79 bd fa 3c 83 58 73 3d e0 42 8e 3c
       0.06752832 0.030607926 0.059410583 0.017365873
0002f0 3e 21 53 bd eb d9 af 3c d5 ba 40 3d 68 60 af 3d
       -0.051545374 0.021466216 0.047053177 0.0856331
000300 d1 12 a0 3d 14 d5 61 bd 90 eb 1c bc 02 b6 d0 bc
       0.07816089 -0.055134848 -0.009577647 -0.025477413
000310 81 9c 28 bc 37 66 65 3c 9d 18 1e bd 85 8d 6a bc
       -0.01029122 0.014001421 -0.03859769 -0.014315967
000320 d4 53 0c 3d 97 ea 2a 3c 57 9d 44 3a 0c e3 0d 3d
       0.034259632 0.010431907 0.0007500252 0.034640357
000330 05 fc 0f 3d 3b 17 13 bd 01 ca 97 bc 12 d9 34 3d
       0.035152454 -0.035910826 -0.01852894 0.044152327
000340 17 56 14 bb ae 34 25 3c 3c 0d c6 bc df 26 b6 bc
       -0.0022634321 0.010083361 -0.024176233 -0.022235332
000350 b6 5a 5b 3d 03 e0 6b 3d fc 10 f5 bc cb 11 a0 bc
       0.053553306 0.05758668 -0.029915325 -0.019539734
000360 67 c6 95 3b b7 54 0e 3d d4 6d d0 3d e2 f4 93 3c
       0.0045707705 0.03474876 0.10177198 0.018061105
000370 d9 2b f3 bc 9b 6b 27 bd 11 35 07 3b 81 bf a7 3d
       -0.029683994 -0.040874105 0.0020630995 0.08190823
000380 67 6e ec 3c c6 91 c7 3c 32 f2 9b 3c 04 7f 6e bb
       0.028861238 0.024361502 0.019036386 -0.0036391625
000390 49 29 8a 3b a3 81 4c ba 79 a1 4d 3c c6 37 c8 3b
       0.0042163474 -0.00078013 0.012550705 0.0061101643
0003a0 84 8b 96 3c 0e c0 6a 3d 1e 7c 62 3d b0 87 12 3d
       0.018377073 0.057312064 0.05529415 0.035773933
0003b0 d1 e1 de 3c 8f 56 13 bd f8 e9 7e 3d dc 12 2b 3d
       0.027207287 -0.03597122 0.06223485 0.041766033
0003c0 b8 f9 0e bd 50 5c f6 bb 71 de 7e bd ed 7d a0 bb
       -0.03490612 -0.0075183287 -0.062223855 -0.004897824
0003d0 e9 a9 b8 3a 92 81 0c 3d 22 06 0a 3d 88 e7 2d bd
       0.0014088723 0.034303255 0.033697255 -0.042457134
0003e0 dc 89 75 bd 61 58 07 bc 39 95 fa 3c ca ae 13 bc
       -0.059945926 -0.008260817 0.030588733 -0.009013841
0003f0 61 d4 14 3d 88 ba 90 3d 56 51 64 3d f7 be 4d bc
       0.036335353 0.07066828 0.05574163 -0.012557737

bias f4 [32]
000000 56 8a 43 be d8 ce 35 be ed 53 46 be 48 16 6e bd
       -0.1909574 -0.17754686 -0.19367953 -0.058126718
000010 a7 c1 5b 3c 0d 19 8f be 3c d5 b2 be 8c 04 cb bd
       0.01341287 -0.279488 -0.3492831 -0.099129766
000020 ed c2 b5 bd 11 df 49 bd 0b d2 0a bd da d1 34 bd
       -0.0887507 -0.049285 -0.03389172 -0.044145443
000030 55 3c aa bd 9a 0d 0c be d4 e7 52 be 7a 02 16 be
       -0.08312289 -0.13677064 -0.20596248 -0.14649382
000040 fb b0 1d be 2f b4 1a be a9 28 8f bd 41 0e b5 ba
       -0.15399544 -0.15107797 -0.06990177 -0.0013813452
000050 e3 b2 02 bb 26 88 20 be 71 3d c2 bd 3c 6b 7e be
       -0.001994305 -0.15676937 -0.09484375 -0.24845594
000060 c7 9e d1 bc e2 ad 8d bc a4 13 b0 bc 06 1d 0b be
       -0.025588406 -0.017294828 -0.02149374 -0.1358529
000070 eb a3 28 be 37 69 57 3d c8 9f 3d be 3d cf 3c bb
       -0.1646878 0.052590575 -0.18517983 -0.0028810047

weight f4 [64, 32, 5, 5]
000000 a7 11 a9 bc dc 32 f2 39 81 51 51 bd f4 ed 62 bd
       -0.0206383 0.0004619573 -0.05110312 -0.05540271
000010 f5 42 69 bc 69 dc a9 3c 31 4d 54 3d ad 43 c2 bc
       -0.014237155 0.020734983 0.051831428 -0.023713911
000020 e9 c5 d8 bd 86 02 49 3d 30 77 8a bd 75 ad 0d bd
       -0.10584623 0.049074672 -0.067610145 -0.03458925
000030 80 4d b6 bd a6 71 2a bb 33 4f 4e 3d 03 74 05 bd
       -0.08901501 -0.002600768 0.0503685 -0.03258134
000040 04 bc 15 bd 6f b2 ab bc ee ec e1 3c 99 02 87 3d
       -0.03655626 -0.020959107 0.027578797 0.06592292
000050 f2 f6 98 bd 21 c2 2a bd 38 f9 94 3a 17 00 e7 bb
       -0.07468976 -0.041689042 0.0011365777 -0.0070495713
000060 ac 26 52 3c 62 d2 01 3d 0e 32 e9 bc 4f b1 a9 bc
       0.012826603 0.031694777 -0.02846625 -0.02071443
000070 f7 1c 14 3c fb ae d4 3c 42 73 9a bc cf e6 50 bd
       0.009040109 0.025962343 -0.018853787 -0.051001366
000080 5d df 23 bd 09 53 e1 3c d7 4c fc 3c ee 26 15 bd
       -0.040007938 0.027505415 0.030798359 -0.03641408
000090 8f e8 17 bd e4 e1 21 bb d0 18 e0 ba 97 bb 4c 3d
       -0.03708702 -0.0024701292 -0.0017097238 0.049983587
0000a0 2e 48 1f bd cd 1f 52 bd a1 5b db bb be 69 0b 3d
       -0.038887195 -0.05129986 -0.0066942726 0.03403639
0000b0 ef 67 6c 3d 1a a0 55 3c b4 1f 46 3c 16 f8 ac b9
       0.057716306 0.0130386595 0.01209252 -0.00032991235
0000c0 52 f3 93 bb b3 ba e2 bc 99 1c 3f bd 32 74 f9 3a
       -0.00451509 -0.027676916 -0.046658132 0.0019031821
0000d0 d7 81 45 bd aa 4f 9b bb 7f d6 ea 38 7e 46 2b 3b
       -0.048219528 -0.0047397213 0.000111979425 0.0026134546
0000e0 dc ef 24 bd e9 12 2f 3d 76 1d 67 3c 6d 93 4f 3c
       -0.04026781 0.042742644 0.014106145 0.012669426
0000f0 ef 7b b7 bd 7f 7f 68 bd 95 83 6d ba 99 b8 bc 3d
       -0.08959185 -0.056762215 -0.000906044 0.09214897
000100 76 39 61 3d 45 1e 5e 3c 51 74 2c bd 31 18 c5 3c
       0.05498644 0.0135570215 -0.042103115 0.024059387
000110 4f d8 6e 3d 22 c6 4f 3c 31 73 75 bd 50 61 cd 3c
       0.058311757 0.012681516 -0.05992431 0.025070816
000120 af 32 9c 3d 79 1e ac 3d 16 3c a4 bc 87 ed 1b bc
       0.07626855 0.0840425 -0.020048182 -0.00951708
000130 a8 f3 58 3d 13 80 7f bd 37 a9 2f 3c 06 3a 6b 3c
       0.052966744 -0.062378 0.010721496 0.014357096
000140 28 d9 a6 3d ae 6a a0 3b e8 71 0a bd 2f 08 15 bc
       0.08146888 0.0048955297 -0.033800036 -0.009096189
000150 2f 89 be bc f2 52 ef 3b df 9a b5 bd bf 86 27 bd
       -0.023258774 0.007303589 -0.0886743 -0.04089999
000160 80 6f 2e 3c 73 47 3a 3d 2f 5b a6 bc 7d e9 d0 bc
       0.010646701 0.045478296 -0.020307152 -0.02550196
000170 62 1e 2b 3c d2 22 c5 ba 89 e9 6c bc 7c d4 db 3c
       0.010444256 -0.0015040284 -0.014459976 0.026834719
000180 5c c2 a7 3b a2 e3 68 3c 99 a8 c8 3c 97 19 d5 bc
       0.005119605 0.014214428 0.024494456 -0.026013179
000190 41 d2 a6 3c 8a 82 6f 3b 80 5a 24 3b 1a d5 9f 3c
       0.020363929 0.0036546313 0.0025078356 0.019510794
0001a0 0d 87 2b 3c fd 0f f7 3b 3a 48 40 bc d9 b1 42 bd
       0.01046921 0.0075397477 -0.01173597 -0.04753289
0001b0 4d 68 09 3c c6 af 06 bd f8 e8 10 bd 74 37 34 3d
       0.008386684 -0.032882474 -0.035378426 0.043998197
0001c0 6f 8b fa bb 4a da 64 3d a7 cd 54 3d 89 a1 d8 3c
       -0.0076460163 0.05587224 0.051953938 0.026444213
0001d0 57 df 0d bd 36 f9 2e bc b7 45 0b bc c2 48 57 bb
       -0.03463682 -0.010679534 -0.008500508 -0.0032849764
0001e0 7a c4 bf 3c 70 89 ab 3d b7 9d bb bc 3b 25 05 3d
       0.023409117 0.083758235 -0.022902353 0.03250621
0001f0 a3 a4 62 bb 10 7b 2d bd 21 c4 7e bc 40 d6 74 3c
       -0.0034582994 -0.04235369 -0.01554969 0.014943659
000200 0a 82 fb bb 23 37 0c bd f0 77 9a 3c 7b 59 7e 3d
       -0.007675414 -0.03423227 0.018856019 0.062097054
000210 f1 db 1c 3d bd 10 e7 3d d6 7a 19 3d 67 33 02 bd
       0.03829569 0.112824894 0.03747066 -0.031787302
000220 d0 5c 2b bd b0 bf 02 3d 63 3b ce 3d 1c 4f 0f bc
       -0.04183656 0.03192109 0.10069921 -0.0087468885
000230 78 0b 0d bc 44 00 40 3c 93 5b 19 bc 2a e3 38 3c
       -0.008608691 0.011718813 -0.009360212 0.011284629
000240 b9 d6 d2 3c eb f7 9e ba d0 78 ab 3c 44 25 1c 3d
       0.025737153 -0.0012128329 0.020931631 0.038121477
000250 cd 51 35 bc e8 d1 34 3d fd 84 9e bb 7c 6d 07 bd
       -0.011066866 0.044145495 -0.004837631 -0.033063397
000260 52 0c 12 bc 8a 68 28 3d a4 f8 fc 3b 8b 29 7c 3d
       -0.00891407 0.04111532 0.00772007 0.061563056
000270 95 c0 2d 3d 7a b4 c8 3c c4 c7 0e 3c 7b aa 92 3d
       0.04241999 0.02450012 0.00871462 0.07161423
000280 6b 90 74 bb 03 4a 41 3d 8e c8 3b 3d bf d7 41 3d
       -0.0037317525 0.047189724 0.04584556 0.047324892
000290 cb 8a b7 3d 44 46 c0 3c fd 5e a7 bc e7 67 94 3c
       0.089620195 0.023471005 -0.020431036 0.01811595
0002a0 1c fd 00 bb 29 43 6b 3a af d0 8a 3c 09 b5 21 bc
       -0.0019682115 0.0008974546 0.016945211 -0.009869822
0002b0 24 f6 67 3d 25 a7 7c 3c 9f d4 69 3d 19 22 07 3d
       0.056631222 0.01542071 0.057087537 0.032991502
0002c0 d0 eb 98 3c 8f d5 fe 3c 87 8d 30 bd c5 77 80 bd
       0.018667132 0.031107692 -0.04310372 -0.06272844
0002d0 17 c3 98 bd 83 79 5c 3d 81 b8 21 3d 7a 85 2b bd
       -0.074590854 0.05382682 0.039482597 -0.04187534
0002e0 eb 90 b8 bb d4 fd 8c bd 2c 72 38 bd 6a c9 54 bd
       -0.00563251 -0.068843514 -0.045030758 -0.051949896
0002f0 da 9c ef bc ac 41 a9 3c 19 9c be bc e5 ca 2d bd
       -0.029249597 0.020661198 -0.023267793 -0.042429823
000300 4a 0b e3 3d f8 de fa 3b 24 4a 50 bd 19 71 b6 bd
       0.110861376 0.0076559745 -0.050851956 -0.089082904
000310 7c 06 44 bc 20 9d f9 3c 22 fb af 3c 98 be 38 3d
       -0.011964437 0.03047043 0.021482054 0.04510364
000320 92 a1 0d bc 0a 92 b6 3d 12 54 08 bc 61 0c a9 bb
       -0.008644478 0.089145735 -0.008320825 -0.0051589464
000330 dd d4 f7 bc be 69 0e bd 6a 97 83 3d d9 38 75 bd
       -0.030252868 -0.034768812 0.06425364 -0.059868667
000340 05 bb d2 bc db 89 be 3c 2e 3f 02 3d d3 fe 07 3d
       -0.025723943 0.023259094 0.031798534 0.033202004
000350 33 5f 9a bd 9d 4c 05 ba c1 ba 1b bd dd da d1 bb
       -0.07537689 -0.00050849636 -0.0380199 -0.0064042644
000360 ad 86 d1 3d f9 ec 60 3d 12 79 10 bd b3 85 06 bc
       0.102307655 0.054913495 -0.03527171 -0.008210587
000370 51 ae d5 bb c9 a9 33 3d 3e 2b 81 3c e6 b2 93 bc
       -0.0065210243 0.04386309 0.01576769 -0.018029641
000380 a9 bb cc 3c 24 b1 b7 3c 8c 0a 3e 3d 55 ed 65 3b
       0.024991827 0.022423334 0.046396777 0.0035084088
000390 de dd ba 3c 4c d4 3e 3c 92 11 3a bd 28 f2 24 3d
       0.022810873 0.011647295 -0.045426913 0.04027
0003a0 d4 2d 25 bd fd 06 be bc 95 29 41 3d 89 75 8e 3d
       -0.04032691 -0.023196692 0.047158796 0.06956012
0003b0 6a 20 c1 bd d0 fe 93 bc ae dd dc bc 8f e6 02 bd
       -0.094300106 -0.01806584 -0.026961174 -0.03195816
0003c0 db ed 34 bd c9 e7 62 3c a7 99 c1 3c 53 4a 64 3d
       -0.04417215 0.013849207 0.023632837 0.055734944
0003d0 b0 0b 0e bd 5f d4 32 3d fc ef b6 3b dc 88 a7 3c
       -0.034679115 0.043659564 0.0055828076 0.020451002
0003e0 2a e2 6b bd 60 51 e2 3c bb aa 98 bd 4d ec 9b ba
       -0.057588734 0.027626693 -0.07454439 -0.0011895985
0003f0 e8 68 f9 bc 1f af 36 3d 5e 28 6d bd e4 c1 9d 3b
       -0.030445531 0.044600602 -0.057899825 0.0048143733

bias f4 [64]
000000 12 74 e8 bd c4 6a 0c be fd db d7 bd 6b 5f 54 bd
       -0.11350264 -0.13712603 -0.10540006 -0.05184881
000010 7b 61 5b bd 49 84 0a be 71 29 77 bd a9 65 6d bd
       -0.05355976 -0.13527025 -0.060342256 -0.05795828
000020 1a 42 a2 bd 9c d4 7d bd 1c 14 13 be 15 9e d2 bd
       -0.07922764 -0.06197034 -0.1436314 -0.10284058
000030 9e 94 cb bd 84 db b4 bd 42 22 df bd 99 e7 a1 bd
       -0.09940456 -0.08830932 -0.10895206 -0.07905502
000040 ab ed 0e be ea f9 cd bd 37 ad de bd 87 75 e6 bd
       -0.1395785 -0.10057433 -0.10872882 -0.11252885
000050 b6 9d 02 be 53 77 91 bd d3 47 e1 bc 31 e4 03 be
       -0.12755474 -0.071028374 -0.027500069 -0.12880017
000060 64 21 89 bd a5 b1 85 bc 9f 63 bb bd fc fd 7e bd
       -0.06695822 -0.01632006 -0.091498606 -0.062253937
000070 75 f7 b8 bd 88 f1 b9 bd a4 cb 03 bd 0b f9 84 bd
       -0.09031574 -0.090792716 -0.03217663 -0.06492814
000080 02 36 bd bc f9 b0 60 bd 11 b7 cd bd 8e 28 cd bd
       -0.023097042 -0.054856274 -0.10044683 -0.10017501
000090 b3 66 84 bd f3 c5 b5 bd a5 39 b9 bd eb bf 08 be
       -0.06464901 -0.088756464 -0.09044198 -0.13354461
0000a0 73 d3 17 be a3 97 d2 bd ae fc 3c 3c ad 6d da bc
       -0.14826755 -0.10282829 0.011534853 -0.026663626
0000b0 56 24 89 bd de 51 1c bd 06 bb 6c bd 8d b0 cf bd
       -0.06696384 -0.038164012 -0.057795547 -0.10141096
0000c0 e8 7b 59 bd 2b 5d 35 bd e9 1d 00 be 03 60 13 be
       -0.05309668 -0.044278305 -0.1251141 -0.14392094
0000d0 fc 53 a6 bd 54 ab 1f be b2 5a 2f bc 2f 7a 08 3c
       -0.081214875 -0.155927 -0.010702776 0.008329912
0000e0 8b 75 ea 3b ac bb 11 be 63 f2 a9 bb 41 45 f8 bd
       0.0071551255 -0.14231747 -0.0051863655 -0.12122584
0000f0 4f de cd bd 38 6f 83 bd 89 d3 55 bd 59 33 18 bd
       -0.100521676 -0.06417698 -0.05220369 -0.037158344

weight f4 [64, 1024]
000000 03 8e 56 bd 7e ff a7 bb 0e 4b 41 3c c2 29 db 3a
       -0.052381527 -0.0051268926 0.01179768 0.0016720819
000010 8e df 79 3b 4c 6a e4 3c 9c 9f 96 3c ff d9 00 bc
       0.0038127634 0.027882718 0.018386655 -0.007864474
000020 bb c7 c9 bb c5 0c 8f 3c 81 33 33 3d 5a d6 c1 bb
       -0.006157843 0.017462144 0.04375029 -0.0059154453
000030 cf 57 65 bd cd 7b 81 bd 74 5b 49 3b e4 1e 3a bd
       -0.055991944 -0.06322441 0.0030724676 -0.045439616
000040 f0 81 26 bd a8 39 af 3c 7e 84 1c bd 0a f1 d6 bc
       -0.04065126 0.021389797 -0.038212292 -0.026237983
000050 f7 0b 92 bc 7c 55 4e bc fe 4e 85 bc 8d f4 5d bc
       -0.01782797 -0.012593623 -0.016273018 -0.013547075
000060 05 7e 2e bd 9f 6a 05 3d 6c 10 d2 bc db f4 26 3d
       -0.04260065 0.032572385 -0.025642596 0.040760856
000070 5f d1 8a 3c 0f bc 17 3c 5a e6 29 3d 73 c9 18 bc
       0.016945539 0.009261145 0.041479446 -0.009325373
000080 d2 95 50 3c f7 83 05 3c d9 50 40 bd b3 10 bf bc
       0.012731032 0.008149139 -0.046952102 -0.023323392
000090 53 c9 4f bd 2d a6 fd 3b 39 24 59 3d 98 78 16 3d
       -0.050729107 0.007740757 0.05301306 0.0367361
0000a0 1e 09 d8 bc 48 ab 32 bd 9e c8 52 bd a7 26 75 bc
       -0.026371535 -0.043620378 -0.051460855 -0.014962829
0000b0 2b c0 05 3c 0e 96 ab 3c d8 fe 00 3d f1 30 a3 bc
       0.008163492 0.020945575 0.031493038 -0.019920798
0000c0 60 c4 14 bc 84 4d df bc 5d b9 0d bd a2 58 5e bc
       -0.009080023 -0.027258642 -0.034600604 -0.013570936
0000d0 91 00 12 bd e4 61 04 bd 14 b5 24 3d 6b a0 85 3c
       -0.03564507 -0.03231992 0.040211752 0.016311845
0000e0 b7 68 50 bd 05 47 08 3d d0 17 3f 3d 11 a1 bd 3c
       -0.050881114 0.033270855 0.04665357 0.023148092
0000f0 94 d4 d5 3c d3 18 28 3d 8a f3 ee 3d 33 cd 84 3d
       0.026102342 0.0410393 0.11667545 0.06484451
000100 b2 51 eb bb 22 70 a0 bc 6a 92 b3 3c 98 99 ea 3c
       -0.0071813697 -0.01958472 0.021920402 0.028637692
000110 11 13 12 bd 7f 5f be bc 50 2d a0 3c a5 47 9d 3d
       -0.035662714 -0.023238895 0.019552857 0.07679681
000120 6a 1f 0d 3c a6 b4 83 3d a5 f7 0c bc 64 94 f5 3c
       0.008613447 0.0643094 -0.008603965 0.029977985
000130 fb 95 c7 bb 32 70 a5 3c 06 fc db 3b 7a bc 61 3b
       -0.006090877 0.0201951 0.006713393 0.0034444616
000140 01 f1 04 bd f4 17 86 3d d5 4d 6a 3c 0c 3b 0a bd
       -0.0324564 0.065475374 0.014300783 -0.033747718
000150 29 da e5 3b c6 2a 84 bc 91 48 32 3d 24 dd c6 3b
       0.007014532 -0.016133677 0.043526236 0.0060688425
000160 d8 a8 b4 3c 0b 7a a2 3c fc f2 74 bc a7 39 92 3c
       0.022053167 0.019833585 -0.01495051 0.017849756
000170 41 a3 37 3d 39 ae 51 3d 34 ab 5b 3d 9c 74 4d 3d
       0.044833425 0.051191542 0.05363007 0.050160035
000180 90 df 75 bb 2e bc f1 bb 8a b9 76 ba 78 56 0b 3c
       -0.0037517287 -0.007377169 -0.0009411803 0.0085045025
000190 c1 bf fb 3b a1 ee 87 bc 44 83 fe bc 5e 3b 10 bd
       0.007682771 -0.01659328 -0.031068452 -0.035212867
0001a0 38 f8 1a 3d b0 e1 24 3d 41 df c4 3b 26 cf 94 3d
       0.037834376 0.040254295 0.0060080593 0.07266073
0001b0 2d b8 93 bc ee f8 9a 3c 5e d4 21 3d ce c5 2e 3d
       -0.018032158 0.018917527 0.03950917 0.04266911
0001c0 a0 b7 b0 3a 64 5f 51 bd 72 2f 1d bd 1a 07 07 3d
       0.0013482459 -0.051116362 -0.038375326 0.032965757
0001d0 69 f0 08 3d ba e3 bd bc dd 36 5a 3d 31 91 49 3d
       0.033432398 -0.023179878 0.053274978 0.04921073
0001e0 df 77 f7 3b b6 01 c6 bc 88 2d 0c 3d 79 e5 4e 3d
       0.0075521315 -0.024170738 0.03422311 0.05051181
0001f0 8c fd 78 3d 9b 9e b0 bc bb 67 9d 3c 15 9c 48 3c
       0.060788676 -0.021560004 0.019214502 0.012244244
000200 27 56 0a 3b 6a 96 78 bb dd f7 1b 3d 9a 0a 4b bc
       0.002110848 -0.003793145 0.038078178 -0.012392664
000210 31 e5 48 3d 97 77 0a 3d 49 2c f8 3c 01 4b 1c 3d
       0.0490467 0.033805456 0.030294554 0.038157467
000220 8a 37 81 3d b9 7e af 3d 63 5f 99 3c f9 11 95 3d
       0.06309421 0.08569092 0.018722242 0.07278819
000230 f4 a3 34 bd 65 05 8c 3a bb 3c 51 3a e4 be f2 bc
       -0.04410167 0.001068276 0.0007981767 -0.02963204
000240 ea f9 10 3c 3c 6a a5 bc b1 68 14 3d 1d de af bc
       0.008848647 -0.020192258 0.036232654 -0.021468217
000250 b6 d9 02 3b b7 d7 e5 3c 6c e1 a9 3d 85 8a 07 3d
       0.0019966192 0.028056962 0.08294949 0.033091087
000260 5f fa ae 3c 6d f0 b3 3d 57 99 da 3c 4c 2a 34 3c
       0.02135962 0.08786092 0.026684446 0.0109964125
000270 6e 22 13 bd 29 75 a7 3b 83 a0 91 bc c6 88 59 bd
       -0.035921507 0.005110402 -0.017776733 -0.053108953
000280 36 0f 98 3c 0c 0f 5f bc bf 00 8a bd 4b 52 b0 3b
       0.01856194 -0.013614427 -0.067384236 0.005380904
000290 ce 60 0d 3d d8 aa 1c bd de df 23 3b 17 44 91 3d
       0.03451615 -0.038248867 0.0025005261 0.07093065
0002a0 4d 8f 06 3d 69 5c 69 bc 7c d3 73 bb 58 92 85 3d
       0.032851506 -0.014243224 -0.0037204912 0.065220535
0002b0 b5 c3 40 3c 24 35 2e bd 5b 94 78 bb 12 72 42 3d
       0.01176541 -0.042531148 -0.0037930224 0.047472067
0002c0 79 54 e2 ba aa ca 69 3c ba 95 e6 ba 1a f6 89 bc
       -0.0017267606 0.01426951 -0.0017592229 -0.016840983
0002d0 85 0d 03 bd 8c 4e 4f 3c af 77 08 bd a3 a2 8f bc
       -0.031995315 0.012653004 -0.033317264 -0.017533606
0002e0 10 89 6f 3a 50 9b 2c 3b 9d 0d 5a bd 5f 44 bc bc
       0.00091375504 0.002633769 -0.05323564 -0.02298182
0002f0 c5 aa ad 3c 72 f0 a9 3c b7 67 99 3d 24 98 5a 3d
       0.021199593 0.020744536 0.07490485 0.05336775
000300 42 9c c8 ba 63 d0 5c bd bf c5 52 3c 1d 3d af bb
       -0.0015305358 -0.05390967 0.012864529 -0.0053478614
000310 3a 81 a3 3c 4d 21 91 bd c0 6d df bc 79 5f 15 bd
       0.019959081 -0.0708643 -0.027274013 -0.036468003
000320 6a 23 03 3d d0 40 ee bb 19 83 3c 3c cc 34 55 3c
       0.032016195 -0.00727091 0.0115058655 0.013013076
000330 46 ed af 3d 6a 8f 22 bd 69 5e aa 3c ad d5 e4 bc
       0.08590178 -0.03968755 0.020796971 -0.02793392
000340 69 da 6a 3c f5 e5 fb bc b0 39 36 bc 0f 96 cc bb
       0.0143343 -0.0307493 -0.011122152 -0.0062434743
000350 02 13 88 ba a3 34 24 3d 04 0e 99 3c 8c e6 49 3c
       -0.0010381641 0.04008926 0.018683441 0.012323033
000360 22 3e 5c 3c 93 b7 c1 3c a5 2c bf 3c e4 5c 84 3d
       0.013442548 0.023647105 0.023336718 0.0646303
000370 b8 f3 7a bd b4 cf 2d bd c3 97 06 bc bb da fb bc
       -0.061267585 -0.04243441 -0.008214894 -0.030743947
000380 b8 15 29 3d 54 3f e0 3c 9e 4b 82 3d f6 e5 50 bc
       0.04128048 0.027373947 0.06362079 -0.012750139
000390 3f 70 c8 3b 08 bb 33 3a c1 3e f4 bc 45 04 0a 3c
       0.0061168964 0.0006856178 -0.02981508 0.0084238695
0003a0 88 f6 5b 3c d4 89 70 bd 1f 79 ed 3c 80 ed a4 bd
       0.013425477 -0.058725193 0.02898842 -0.08053112
0003b0 34 37 a3 bc a2 78 3b bd fc 04 31 3c b4 6d d2 3b
       -0.019923784 -0.04576934 0.010804411 0.006421769
0003c0 b8 17 d8 ba 00 88 69 3b 6e 17 06 bc 6d f2 fc bc
       -0.0016486561 0.003563404 -0.008184297 -0.030877316
0003d0 6e e3 13 3d 72 11 53 bc 9d b6 fd bc 46 f6 71 3c
       0.036105566 -0.012882577 -0.030970866 0.014768189
0003e0 6a ea 28 bb a7 32 43 bd 6a a1 07 3d bc c9 04 bd
       -0.0025774487 -0.047655728 0.03311292 -0.03241895
0003f0 eb a1 ad 3c 41 b4 83 3d d5 a9 68 bc ca df ac 3c
       0.021195373 0.06430865 -0.014200647 0.021102805

bias f4 [64]
000000 a0 5e 93 bc 95 4c 08 3c 7c 2b e8 bc 67 6b 8d 3c
       -0.017989457 0.00831904 -0.028341047 0.017263127
000010 f7 26 cf bc 0e ac 4e 3d e9 67 44 bc d2 a1 68 bc
       -0.025287135 0.050457053 -0.011987665 -0.014198737
000020 08 ca 8e 3c b9 7c ea bb 25 a9 cf bc 8f 1d 41 bd
       0.01743032 -0.0071559814 -0.02534921 -0.04714733
000030 7f b4 7c 3c 44 f3 5e 3d 34 4e 07 3c 28 b9 bc bb
       0.015423893 0.054431215 0.008258391 -0.005759377
000040 26 6a de 3c 80 9c df 3b d6 32 b6 bc 6f d2 1c 3d
       0.027150225 0.006824076 -0.022241037 0.038286623
000050 8b 93 41 bd 31 0d b9 3c 5a 32 92 3c 6d 6c 14 bd
       -0.04725985 0.022589298 0.017846275 -0.036236215
000060 74 22 ba 3c d7 91 0f bd c2 bc 17 38 d7 25 09 bd
       0.022721507 -0.035051193 3.6177e-05 -0.033483353
000070 8a 9e a5 3d 4b 77 ef 3c 99 19 95 bc f8 0b a0 3c
       0.080868796 0.029231688 -0.018200682 0.019536957
000080 a8 8f 69 bd be 2f 33 3d ea 8e b2 3b 58 9e 43 bd
       -0.057021767 0.043746702 0.0054491656 -0.04775843
000090 71 d1 e6 bc d6 c6 cf 3c 6f f6 40 bd 84 4e 53 bd
       -0.028176041 0.025363367 -0.047110017 -0.05158855
0000a0 8c c9 52 bd 1f 16 c7 bc e5 de 31 bd 9e bf 3e bd
       -0.05146174 -0.02430254 -0.04342546 -0.04656946
0000b0 9a 17 a7 3c bb 84 27 bc 24 cb 45 bc 95 52 3a bd
       0.020396996 -0.0102245165 -0.012072358 -0.045488913
0000c0 bb 28 07 bd dd 2f cf bc 3d 2f 0e 3d b6 f9 88 3d
       -0.032997828 -0.025291378 0.03471302 0.066882536
0000d0 36 b3 fd 3c 45 d0 43 3a 42 5f 20 ba ae 3a a7 bb
       0.030969243 0.0007469694 -0.000611771 -0.0051034307
0000e0 90 69 e1 3b 67 f2 29 bd c0 d5 54 bd f5 f0 88 3c
       0.006879039 -0.04149094 -0.05196166 0.01671646
0000f0 c4 79 1e 3d b1 38 2b bd f5 83 13 3d f7 26 05 3d
       0.038690343 -0.041802112 0.036014516 0.032507863

weight f4 [10, 64]
000000 d5 2b 66 3d b0 3d 7c 3e ba c4 06 be 8c 88 31 bd
       0.056194145 0.24632907 -0.13160983 -0.043343112
000010 3f 30 5a be a8 b3 85 be 68 95 e6 3d 9b 8e 83 3e
       -0.21307467 -0.2611363 0.11258966 0.25694737
000020 29 a3 77 3e 9a ec 82 3d 33 22 85 be bb 33 8d 3e
       0.24183334 0.063927844 -0.26002654 0.2757853
000030 d0 1d c3 bd 31 72 57 3d d7 de 9b be 6b 4a 84 3e
       -0.09527171 0.052599136 -0.3044345 0.25838026
000040 63 7f 6c 3e 21 cf 9e be da df 76 3e 7d 7e 74 be
       0.23095469 -0.31017402 0.2410883 -0.23876376
000050 bc 1f 3e 3d e5 62 67 be 68 ad 96 bc 3c ba 5d 3e
       0.046416983 -0.22596319 -0.018393233 0.21653074
000060 48 fc 11 be 79 6d 1f bd 10 3b 53 be fb 1b 07 be
       -0.14256394 -0.03892276 -0.20628 -0.13194267
000070 0e a9 8e be fd 0a 03 bd 9c 91 32 bd 8d 17 3a 3d
       -0.27863353 -0.0319929 -0.043595895 0.045432616
000080 96 3a ac 3e 00 70 94 be 62 27 b1 bd 76 85 8e 3d
       0.33638448 -0.289917 -0.0865009 0.069590494
000090 e0 5a 63 be 0b c3 e7 bd 9d cd b0 3e c4 a6 8a be
       -0.22202635 -0.11316498 0.3453187 -0.27080357
0000a0 04 2f 93 3e 53 c3 aa bd 93 1c cf 3d 87 3d 56 3e
       0.28746808 -0.083380364 0.10112872 0.20921908
0000b0 f6 d6 0f 3c 9f 12 88 be 02 e0 89 3d 33 02 f1 bd
       0.008779278 -0.26576707 0.06732179 -0.117679976
0000c0 82 2b a0 3e 85 cf b1 bc 2a 18 97 be 85 c7 19 be
       0.31283194 -0.021705398 -0.29510623 -0.15017517
0000d0 45 5f 05 3e 29 a5 26 bd 07 63 1a 3e 8b d9 14 3d
       0.13024624 -0.040684853 0.15076838 0.036340278
0000e0 97 86 5d 3d 86 3a b1 3e e2 1f 37 3e 2a e5 a4 be
       0.054083433 0.34614962 0.17883256 -0.32206088
0000f0 48 71 2f be 28 21 d6 3b 63 34 05 be 73 0f 4a 3d
       -0.17133057 0.0065347143 -0.13008265 0.04933114
000100 35 63 30 3e 74 9b 9e bd 63 4f 36 3e 87 88 8e be
       0.17225344 -0.07744494 0.17803721 -0.27838537
000110 09 4b 12 bd 73 a6 89 3d c7 f1 01 be c6 98 9a be
       -0.03571609 0.06721201 -0.12689887 -0.30194682
000120 e4 81 b6 be 4d 7c 81 ba 3b fa a4 be 3b c3 64 be
       -0.35645974 -0.0009878963 -0.3222216 -0.223401
000130 2c f0 e3 bd 36 ca 7f be 80 40 b1 3e e4 c7 d7 bd
       -0.111297935 -0.24979481 0.34619522 -0.10536173
000140 bb ad a4 bd 9d a1 9a 3e b1 1c ba 3d b0 42 4d be
       -0.08040949 0.30201426 0.09087504 -0.2004497
000150 79 98 3f be 6c 6b 11 be 56 6a 7a bd 8c 65 8b 3e
       -0.18710507 -0.14201134 -0.061136566 0.27225912
000160 86 7d f6 3e e6 dc 9d 3e e5 4f 6b 3e 9e 31 d7 3d
       0.48142642 0.30832595 0.22979696 0.105075106
000170 ca eb a0 be 81 11 82 be b7 1d d5 bd 54 67 46 3e
       -0.31429893 -0.2540398 -0.10406058 0.19375354
000180 f0 c3 9d 3e ad e2 07 3e 95 eb d5 bd 3e 5e 93 be
       0.3081355 0.13270064 -0.10445324 -0.2878284
000190 0b 52 07 be 01 d1 22 3e eb 69 96 be 10 a9 e4 bd
       -0.1321489 0.15900041 -0.29377684 -0.111650586
0001a0 43 a6 19 3e d5 5b 22 bd c4 9c c0 3c 9a 49 a8 3d
       0.1500483 -0.03963836 0.023512252 0.082171634
0001b0 a2 ba a7 be 78 7f 8e be 76 7b ea bd e5 c9 a7 3e
       -0.32759577 -0.27831626 -0.114493296 0.3277122
0001c0 1b 60 47 bd a6 30 4e 3e 35 59 72 be d6 29 79 be
       -0.048675638 0.20135745 -0.23666842 -0.24332365
0001d0 73 60 e0 be 76 42 91 3e 6e 49 68 be b3 82 14 be
       -0.43823585 0.28371018 -0.22684261 -0.14502983
0001e0 76 9f e6 3e 3f fe 55 3e 3b 23 ac 3b bd b6 c9 3e
       0.45043534 0.20897768 0.0052532232 0.3939723
0001f0 fe 2b 00 bf b2 af 34 be 91 31 b2 be 03 87 8a be
       -0.50067127 -0.17645147 -0.3480344 -0.2705613
000200 c1 5b bb be 47 8d 5a bc b1 2d b7 be b6 b2 58 3e
       -0.3659344 -0.013339347 -0.35777047 0.21161923
000210 16 2d f3 bd bb b3 c7 bd 76 fb d0 3d 16 88 83 bd
       -0.11873834 -0.09751078 0.10204212 -0.06422441
000220 37 f5 24 3c 01 39 0f be b0 d3 6e 3e 0e 3a 91 be
       0.010068229 -0.13986589 0.2332294 -0.28364605
000230 9f 40 d3 3c 69 3d 19 3d 9b 30 b8 be 51 0a 8f 3e
       0.02578765 0.03741208 -0.35974583 0.27937558
000240 70 dd a5 bd c4 d6 3f be aa 78 3e be c1 3f 0c 3e
       -0.080988765 -0.1873427 -0.18600717 0.13696195
000250 d8 07 72 3d 28 be e2 3d ca 5f 72 be 07 82 a3 be
       0.05908951 0.11071426 -0.23669353 -0.3193514
000260 fb 10 23 bd 25 48 86 3d dd b0 42 be 99 2e 31 3e
       -0.039811116 0.06556729 -0.1901278 0.17302932
000270 9a be 24 be a5 18 78 3e 1d e3 4e bd 15 1b 79 3e
       -0.16088334 0.24228151 -0.05050956 0.24326737
000280 9f 23 8c 3e cf 63 ef 3d 01 ac 4f be 47 95 72 bc
       0.27370927 0.11688959 -0.20280458 -0.014806098
000290 02 ae 8c 3e fd ab 0e 3e af fd 35 3e a0 e4 ae be
       0.27476507 0.13932796 0.17772554 -0.34158802
0002a0 52 37 01 3e 9b a5 01 3e 58 fa ea 3c 56 a6 00 3d
       0.1261876 0.1266083 0.028683826 0.03140863
0002b0 d4 56 01 3e 86 29 a0 3e 42 2f de 3e b2 ae a7 bc
       0.12630779 0.3128168 0.4339543 -0.020469043
0002c0 39 8d f5 3d 16 23 a0 3e 5e 59 a2 3e 85 d7 69 3e
       0.11989827 0.31276768 0.31708807 0.2283612
0002d0 79 ef 07 be 7a db 76 3e 38 fc 22 3e 2a b1 45 3e
       -0.13274945 0.24107161 0.15916526 0.19305864
0002e0 d9 75 0a 3d c0 ad 1b be 12 c4 89 bd 8f 75 78 be
       0.033803795 -0.15202999 -0.067268506 -0.24263595
0002f0 ff 72 a7 3e 33 65 82 3d 83 2c 0a 3e 16 53 98 bd
       0.32704923 0.063669585 0.13493542 -0.074377224
000300 43 96 2e be 03 6e 4c 3e 4f 43 81 be 16 03 47 be
       -0.17049508 0.19963841 -0.25246665 -0.19434771
000310 5d e7 d5 bd a1 f8 83 3e e3 8c c4 bc 2f 74 b8 bc
       -0.1044452 0.25775626 -0.023992961 -0.022516338
000320 1e 28 51 be 4f 9f 62 3e 17 43 6f 3e cc 01 ee 3c
       -0.2042546 0.22131084 0.23365436 0.029053591
000330 39 63 04 3e 6f 9d 85 be 79 68 8e 3e 23 0b fa bd
       0.12928475 -0.26096675 0.2781408 -0.122091554
000340 3c 55 eb 3d ea 7b 74 3e 62 79 4f bd d3 55 12 3a
       0.114908665 0.23875394 -0.05065287 0.0005582247
000350 c2 a1 3f 3d 10 cd 14 3e 84 e3 7d 3e ee 33 1f bc
       0.046785124 0.1453135 0.24793822 -0.009716971
000360 a7 6b 9f bd 5f c6 46 bd 45 64 60 be 37 1a 69 be
       -0.07784205 -0.048529025 -0.2191325 -0.22763906
000370 6a da e6 3d 9e aa bb 3d 7c d5 98 3e 5f 20 16 be
       0.11272128 0.09163402 0.29850376 -0.14660786
000380 88 b5 c1 bd 9a 2b 1c 3d 07 17 14 3e 35 bb e0 bd
       -0.094584525 0.03812752 0.14461909 -0.10973207
000390 98 37 4b 3e 43 12 db 3c 99 17 f5 3d 51 1a c8 3d
       0.19845426 0.026742106 0.119673915 0.097706445
0003a0 94 b9 41 3e e9 12 8e 3e f6 1c ca be 8e d4 86 bd
       0.18918449 0.27748802 -0.3947522 -0.0658351
0003b0 58 19 5a 3d 47 d2 f3 3d 3d 3b 31 3e e6 31 69 be
       0.053246826 0.119053416 0.17307754 -0.22772941
0003c0 6c e8 80 bd a9 3d d6 bd 40 37 48 be 05 78 97 3c
       -0.06294331 -0.104609795 -0.19552326 0.018489847
0003d0 12 09 1c 3e 23 4f 65 3e 64 9c f4 3d a3 25 85 bd
       0.15237835 0.2239347 0.11943892 -0.06501319
0003e0 29 25 23 be 48 81 27 be 4b 46 2b 3e ba 18 9f bd
       -0.15932144 -0.1635791 0.16726033 -0.07768388
0003f0 50 04 83 3d 2d cf 12 be b9 b0 d2 3d 5b 71 7f bd
       0.06397307 -0.14336844 0.102876134 -0.062363964

bias f4 [10]
000000 2f 55 92 bd a0 3c d1 3d 3b c6 b9 bc 1b 0a bc 3d
       -0.07145154 0.102166414 -0.022677531 0.09181615
000010 eb 76 dc 3d 31 cf f0 bd 2a b6 ba 3d 47 12 d3 bc
       0.10764869 -0.117582686 0.09116776 -0.025765551
000020 92 0b 0e bc eb 2f f9 3c
       -0.008669751 0.030418357
