try_train/cifar10_models/cifar10_net_50.pth (torch, 589402 bytes, 10 tensors)

weight f4 [32, 3, 5, 5]
0	0xbddcfb50	-0.107901216
1	0x3d9d4efb	0.0768108
2	0x3e3f3267	0.1867157
3	0x3cda6f2b	0.026664337
4	0x3e1313f3	0.14363079
5	0xbe0ac885	-0.13553055
6	0xbdecfde4	-0.11571863
7	0xbc2d9331	-0.010594175
8	0x3e80d630	0.25163412
9	0x3da9bedd	0.082883574
10	0xbdc1183f	-0.09428453
11	0x3c0e197c	0.008673068
12	0xbe796260	-0.24353933
13	0xbb5bf15e	-0.0033560614
14	0xbdbec6b2	-0.09315242
15	0x3dc8a35e	0.09796785
16	0x3d079e9d	0.03311025
17	0xbebf4a2f	-0.37361285
18	0xbe78bf8d	-0.24291821
19	0xbe0974a0	-0.13423395
20	0x3e5949da	0.21219578
21	0xbd44a066	-0.04800453
22	0xbeb7027a	-0.35744077
23	0xbe11300e	-0.14178488
24	0xbce43e00	-0.027861595
25	0xbe0b6ff0	-0.1361692
26	0xbd93e6e5	-0.07221774
27	0xbcd4ae81	-0.025962116
28	0xbd1f25dc	-0.038854465
29	0xbdc16ecd	-0.09444962
30	0x3d9e0f1e	0.07717727
31	0xbe0b19f4	-0.13584119
32	0xbe02733e	-0.12739274
33	0x3dee8917	0.116472416
34	0x3cf16f7c	0.029472105
35	0x3d0079a4	0.031366006
36	0x3db19550	0.08671057
37	0xbe62149a	-0.22078171
38	0x3bed325a	0.0072386684
39	0xbd01c719	-0.031684015
40	0x3ecdcee7	0.40196916
41	0x3e6f9496	0.23396525
42	0xbe61ba13	-0.22043638
43	0xbdcae11c	-0.099062175
44	0xbdd3d712	-0.10343756
45	0x3e8d0316	0.27541417
46	0x3e094e08	0.13408673
47	0xbe7bc27a	-0.24585906
48	0xbe30e7f7	-0.17275988
49	0x3db9f50b	0.09079941
50	0xbc7ae74d	-0.0153139355
51	0x3d56c95e	0.052438132
52	0x3e19442c	0.14967412
53	0xbc05374d	-0.0081308605
54	0xbe23d743	-0.16000085
55	0x3ce693ad	0.02814659
56	0x3b218ff7	0.002465246
57	0x3be10124	0.006866591
58	0x3d499da3	0.0492226
59	0xbd420004	-0.047363296
60	0x3e4766f5	0.19472869
61	0x3dbe7543	0.0929971
62	0xbe367e13	-0.17821531
63	0xbdd1856f	-0.102305286
64	0xbd4554cb	-0.048176568
65	0x3ec4a702	0.38408667
66	0x3e9efcba	0.3105219
67	0xbe20f7d7	-0.15719543
68	0xbdb6ee61	-0.08932186
69	0xbc0d7279	-0.008633249
70	0x3eca114d	0.39466324
71	0x3e6a00e3	0.22851901
72	0xbe51be55	-0.20482762
73	0xbe1c1d79	-0.15245618
74	0xbda9a07c	-0.08282563
75	0xbdf808ce	-0.12111054
76	0xbddb53b8	-0.107093275
77	0xbe59e54a	-0.21278873
78	0x3c29b096	0.010357043
79	0x3b63af76	0.0034742034
80	0xbcc23315	-0.023705998
81	0xbdb3d86a	-0.08781512
82	0xbd051e50	-0.03249961
83	0xbdbc602c	-0.09198031
84	0x3cb53376	0.022119265
85	0xbcb1d9a7	-0.02171023
86	0xbda95920	-0.08268952
87	0xbd3a6dda	-0.04551492
88	0xbd8a11ca	-0.06741674
89	0x3d351340	0.04420781
90	0xbe09e1d5	-0.13465054
91	0xbe205bb5	-0.15659983
92	0xbe79a915	-0.24380906
93	0xbe658e6c	-0.22417611
94	0xbcc78e8e	-0.024359968
95	0x3c833df8	0.01602076
96	0xbe49fa70	-0.1972444
97	0xbe6de50d	-0.23231907
98	0xbe6dde10	-0.23229241
99	0xbd89bafe	-0.06725119
100	0xbc986a67	-0.018605424
101	0xbcfe992f	-0.031078903
102	0xbde440aa	-0.11145146
103	0x3c38f764	0.011289451
104	0xbe2c6fd2	-0.16839531
105	0xbd56b251	-0.05241615
106	0x3d08749f	0.033314344
107	0x3e2caba7	0.16862355
108	0x3e4a01f9	0.19727315
109	0x3c529316	0.012852451
110	0xbd408c0d	-0.047008563
111	0x3d93f97f	0.07225322
112	0x3dbfa089	0.093567915
113	0x3e652ed7	0.22381149
114	0x3ce5880f	0.02801898
115	0x3c5f5d7b	0.013633127
116	0xbd703ecf	-0.05865365
117	0xbe08aa2d	-0.13346167
118	0xbd8f5b29	-0.06999809
119	0xbc7884a1	-0.01516834
120	0xbd0bb50f	-0.034108218
121	0xbe502184	-0.20325285
122	0xbe87dce6	-0.2653572
123	0xbe83c427	-0.2573559
124	0xbdc7eed4	-0.0976235
125	0xbdb059f7	-0.086109094
126	0x3d332eff	0.04374599
127	0xbd6034ff	-0.05473804
128	0xbe0283eb	-0.12745635
129	0xbdf87398	-0.12131423
130	0x3deb93bc	0.115027875
131	0x3e647c70	0.22313094
132	0x3eb012f1	0.3438945
133	0x3e42705d	0.18988176
134	0xbce36558	-0.027758285
135	0x3e524dbf	0.2053747
136	0x3ec60ecd	0.38683167
137	0x3ef64c24	0.48104966
138	0x3ea6c013	0.32568416
139	0x3e1c1234	0.15241319
140	0x3e4a8c85	0.19780166
141	0x3e967f89	0.29394177
142	0x3e842633	0.25810394
143	0x3e45a927	0.19302808
144	0x3e62c3bf	0.22144984
145	0x3d5afdc3	0.053464662
146	0xbcaa6a6e	-0.020802703
147	0x3c8fc00a	0.017547626
148	0x3dd726f1	0.10505474
149	0x3d57d411	0.052692477
150	0x3dd04b5b	0.10170623
151	0xbe43704a	-0.19085804
152	0x3da89fe0	0.08233619
153	0xbdd9396b	-0.10606655
154	0xbd7f7a8b	-0.062372725
155	0x3e825765	0.25457302
156	0xbeb9bb55	-0.36275735
157	0x3df0d728	0.11759788
158	0xbd034368	-0.032046705
159	0xbdc041d2	-0.09387554
160	0x3d55ea27	0.05222526
161	0xbeb28b6b	-0.34871992
162	0xbd8f2b46	-0.06990676
163	0xbdb728ba	-0.08943315
164	0x3c138ae3	0.009005281
165	0xbe0c3eab	-0.13695781
166	0xbd0f609d	-0.035004247
167	0x3e718678	0.23586452
168	0x3cbe297f	0.023213146
169	0x3cf0c622	0.029391352
170	0xbe0563e8	-0.13026392
171	0xbd5d2e3b	-0.053999167
172	0xbca1d682	-0.019755606
173	0xbe248970	-0.16068053
174	0xbe4080d9	-0.18799151
175	0x3e6ea00f	0.23303245
176	0xbe0e481f	-0.138947
177	0x3e217f21	0.15771152
178	0x3d160890	0.03662926
179	0x3c1b0864	0.00946245
180	0x3e8b8a4c	0.2725395
181	0xbe33521d	-0.17511792
182	0x3e1d998f	0.15390609
183	0x3da3de57	0.08001392
184	0x3daf3563	0.085551046
185	0x3e3bdaf4	0.18345243
186	0xbe871852	-0.26385742
187	0x3e81687b	0.25275025
188	0x3d26be4a	0.040708818
189	0xbd2214e1	-0.039570693
190	0xbce92f1f	-0.028464852
191	0xbcfc55b7	-0.03080259
192	0x3e985d15	0.29758516
193	0x3e6c1a34	0.2305687
194	0x3e3ddb3e	0.18540666
195	0x3bcbf957	0.006224792
196	0x3db304e8	0.0874117
197	0xbd36a878	-0.044594258
198	0x3d3a6f2f	0.04551619
199	0xbcd070d4	-0.025444426
200	0x3db95772	0.09049882
201	0xbe6a3074	-0.22870046
202	0x3e461138	0.19342506
203	0xbdf1149f	-0.11771511
204	0xbc1f8a44	-0.009737555
205	0x3e66a1db	0.2252268
206	0xbe8924ce	-0.26785892
207	0x3ddaab77	0.106772356
208	0xbdd4f1e7	-0.10397702
209	0x3d851fb3	0.06500187
210	0x3de2d74e	0.11076222
211	0xbe9000d6	-0.28125638
212	0x3cb35bd4	0.021894373
213	0xbdef4fb3	-0.11685123
214	0x3cc47a06	0.023983967
215	0x3d48ef09	0.049056087
216	0xbe01b2e1	-0.12665893
217	0x3e9b19fe	0.30293268
218	0x3e193a63	0.14963679
219	0xbda4de2c	-0.080501884
220	0xbda24d13	-0.07924857
221	0x3ddec841	0.10878039
222	0xbdcfe2c0	-0.10150671
223	0xbe469f3c	-0.1939668
224	0xbe3af978	-0.18259227
225	0xbd3fc7f4	-0.04682155
226	0x3dc39758	0.09550351
227	0x3e1db5ab	0.15401332
228	0x3d5c3fa6	0.053771637
229	0x3e13599e	0.14389655
230	0xbd06e694	-0.03293474
231	0x3de50076	0.111817285
232	0xbbda5b35	-0.0066637048
233	0x3d11c5bf	0.035588976
234	0xbe10d0b6	-0.14142117
235	0x3e10731d	0.14106412
236	0x3dd34c93	0.1031734
237	0x3e4e1d20	0.20128298
238	0x3e368dc8	0.17827523
239	0xbd034b3c	-0.03205417
240	0xbdf88d07	-0.12136274
241	0xbe53a43c	-0.20668119
242	0xbd47d964	-0.048791304
243	0x3d6f8f1d	0.058486093
244	0x3e3ee5b7	0.18642317
245	0xbde9169d	-0.11381266
246	0xbe595bbb	-0.21226399
247	0xbea835c1	-0.3285351
248	0xbdf8852f	-0.12134778
249	0xbdfcfaf9	-0.12352557
250	0xbbe7c1d7	-0.007072668
251	0xbc7e4bc3	-0.015520993
252	0xbc6395ca	-0.013890693
253	0x3de3e1f8	0.111270845
254	0x3dbbafea	0.09164412
255	0xbca46968	-0.020069793

bias f4 [32]
0	0x3e5a5780	0.21322441
1	0xbecf5e4a	-0.40501624
2	0xbce3c9a2	-0.027806107
3	0x3e02c6fe	0.12771222
4	0xbd55270a	-0.052039184
5	0xbde517c8	-0.111861765
6	0x3b676697	0.003530895
7	0xbde23135	-0.11044542
8	0x3e113c37	0.14183126
9	0xbe8f5190	-0.27991915
10	0xbe67ed16	-0.22649035
11	0xbd7eecdd	-0.06223761
12	0x3dca0d57	0.098658256
13	0x3c9e4856	0.019321602
14	0xbe863449	-0.26211765
15	0x3e9923e8	0.29910207
16	0xbda84559	-0.08216352
17	0x3dd0da81	0.10197926
18	0xbe875507	-0.26432058
19	0xbd81d83b	-0.06340071
20	0xbe24da0e	-0.16098806
21	0x3c8e65f1	0.017382594
22	0xbe98061b	-0.29692158
23	0xbe8cb7ec	-0.2748407
24	0x3d50cff1	0.05097956
25	0xbeedc4be	-0.46439165
26	0xbd15e6de	-0.036597125
27	0xbe231ea5	-0.15929659
28	0x3efd5f47	0.49486753
29	0x3cee0c88	0.02905871
30	0xbe45100c	-0.19244403
31	0xbe2b284d	-0.16714592

weight f4 [32, 32, 5, 5]
0	0x3d24542b	0.04011933
1	0x3cf24798	0.029575154
2	0xbd67f389	-0.056628738
3	0xbdadb32f	-0.08481442
4	0xbccc878e	-0.024966981
5	0x3c6f26ee	0.014596684
6	0x3dbe38db	0.09288188
7	0x3d29c365	0.04144611
8	0xbd365d37	-0.04452249
9	0x3b9247be	0.0044641187
10	0x3c7447e7	0.014909721
11	0x3b2208ae	0.0024724412
12	0x3d4e0933	0.05030174
13	0x3d76853a	0.06018565
14	0xbd1df3ba	-0.038562514
15	0xbd66bfad	-0.05633514
16	0xbc8d1d14	-0.01722578
17	0x3c3fcd29	0.011706629
18	0x3d9a4f40	0.07534647
19	0x3d808d66	0.062769696
20	0xbd53d6df	-0.05171859
21	0xbd9e7ffe	-0.07739256
22	0xbb31f328	-0.002715299
23	0x3df5f750	0.12010062
24	0x3de021eb	0.10943969
25	0x3d5df8e8	0.054192454
26	0x3c8971d1	0.016777905
27	0x3d3a9492	0.045551844
28	0x3d20934f	0.039202984
29	0x3c946723	0.018115586
30	0x3d3bb40a	0.045825996
31	0xbcbe1c89	-0.023206966
32	0xbd4d05d7	-0.050054397
33	0x3d02990b	0.031884234
34	0x3dd7034d	0.104986764
35	0x3dcf817b	0.10132118
36	0x3d13dbfb	0.03609846
37	0xbda82677	-0.082104616
38	0xbd89a3d5	-0.067207016
39	0x3dd1e081	0.10247899
40	0x3dbf5db0	0.09344041
41	0x3d11e9ab	0.035623234
42	0xbd28af20	-0.041182637
43	0xbdda4f6e	-0.10659681
44	0xbd6dafd2	-0.058029003
45	0x3e00f87b	0.12594788
46	0x3d21d1f1	0.039506856
47	0x3d803bbe	0.06261395
48	0x3d082c83	0.033245575
49	0xbba05b30	-0.004893683
50	0xbc182909	-0.009287127
51	0xbd73a874	-0.05948682
52	0xbd7a79ed	-0.061151434
53	0xbc20ee4b	-0.0098224385
54	0xbd998630	-0.07496297
55	0xbd73587d	-0.05941056
56	0xbd5f3456	-0.05449327
57	0xbd060cd5	-0.03272708
58	0xbdaa3c67	-0.08312302
59	0xbd1fba5f	-0.038996097
60	0xbb8940b0	-0.0041886196
61	0xbd54f7aa	-0.051994003
62	0xbda6050b	-0.081064306
63	0xbbe7d1c5	-0.007074567
64	0x3cc9677f	0.024585484
65	0x3bf0e204	0.007351162
66	0xbd6ccdf9	-0.05781362
67	0xbd956176	-0.0729398
68	0xbd09a79a	-0.033607103
69	0x3c5a8eef	0.013339742
70	0xbc998214	-0.018738784
71	0x3d577656	0.05260309
72	0x3b1fd3f3	0.0024387806
73	0x3b284632	0.0025676605
74	0xbc2fdf12	-0.010734336
75	0x3cf4dd54	0.029890694
76	0x3cfcd8ce	0.0308651
77	0x3d8441f9	0.06457896
78	0x3cc3fb18	0.023923442
79	0xbc275d99	-0.0102151865
80	0xbd8abd98	-0.067744434
81	0xbd4c4192	-0.04986722
82	0xbbfbbcf8	-0.007682439
83	0x3dc483d5	0.095954575
84	0x3c94cf34	0.018165208
85	0xbad94d10	-0.0016578753
86	0xbcd80eb8	-0.026374206
87	0xbd54adaa	-0.05192343
88	0xbca448c8	-0.020054236
89	0x3dff55c4	0.1246753
90	0x3c83e1fe	0.016098972
91	0xbd1e86c1	-0.03870273
92	0xbe048e59	-0.12944926
93	0xbd2ab5c7	-0.041677263
94	0xbbd02c36	-0.0063529266
95	0x3d2d933d	0.042376745
96	0x3ca530f3	0.020164942
97	0xbc1289c8	-0.008943982
98	0xbdbf0438	-0.093269765
99	0x3cd4cbdc	0.025976114
100	0x3bbc12d6	0.00573955
101	0x3b8bf5ec	0.0042712595
102	0xbda0d426	-0.07852964
103	0xbd3941e7	-0.045228865
104	0xbd881df6	-0.066463396
105	0xbca4b4ab	-0.02010568
106	0xbb91ad8e	-0.004445738
107	0xbcdc7e93	-0.026915824
108	0xbceba954	-0.028767265
109	0x3d00f424	0.03148283
110	0xbd03fef3	-0.03222556
111	0x3ce2099f	0.027592478
112	0xbc061812	-0.00818445
113	0x3998518f	0.00029052465
114	0x3d519391	0.05116612
115	0xbc51ae23	-0.012797865
116	0xbcbe0e22	-0.023200098
117	0xbcf49f76	-0.029861193
118	0x3c0b1835	0.008489658
119	0x3d8a3cc8	0.06749874
120	0xbd88cb69	-0.066794224
121	0xbcb336b1	-0.021876665
122	0x3d214727	0.039374497
123	0x3cbd030f	0.023072748
124	0x3d0abfe1	0.033874396
125	0xbb7f379b	-0.0038943056
126	0xbc35517a	-0.011066789
127	0x3c513415	0.012768765
128	0xbc1e6282	-0.009667041
129	0x3ced2a6c	0.028950892
130	0x3c7b409b	0.015335227
131	0xbd691aa5	-0.056910176
132	0xbb9138a1	-0.0044317995
133	0xbcd8d914	-0.026470698
134	0xbb04ef37	-0.0020284185
135	0xbce87e53	-0.028380549
136	0x3b9bd230	0.004755281
137	0xbd3a1dcd	-0.045438576
138	0xbc15c963	-0.009142253
139	0xbd132e50	-0.03593284
140	0xbd260330	-0.040530384
141	0xbdb57d01	-0.08861733
142	0xbe1035d4	-0.14083034
143	0x3b5e68ed	0.0033937052
144	0x3c9f6515	0.01945738
145	0xbc94db40	-0.018170953
146	0x3d50052c	0.050786182
147	0x3bd8411d	0.006599559
148	0xbd53271a	-0.051550962
149	0x3c87438d	0.016511703
150	0xbd23f51c	-0.040028676
151	0xbd057bdb	-0.03258882
152	0xbd7d7d45	-0.061887044
153	0xbdc98fa0	-0.098418474
154	0xbd6aac07	-0.057292964
155	0xbd168aab	-0.036753338
156	0xbdd67869	-0.10472185
157	0xbcfe3f6d	-0.031036103
158	0xbd767450	-0.060169518
159	0xbd258efe	-0.04041957
160	0x3af6ad5b	0.0018819975
161	0xbd6753f9	-0.056476567
162	0xbc9ff5e1	-0.019526424
163	0x3a05fb87	0.0005111028
164	0xbd27f0da	-0.04100118
165	0xbd93274d	-0.071852304
166	0xbd458c72	-0.048229642
167	0xbd72541b	-0.05916224
168	0x3d131dec	0.035917208
169	0x3c9671b1	0.01836476
170	0xbd1c41af	-0.03814858
171	0xbd6e396d	-0.058160234
172	0xbd51d645	-0.051229734
173	0xbc85ae03	-0.016318327
174	0x3d233561	0.039845828
175	0xbcdab2b3	-0.026696539
176	0xba893e0e	-0.0010470764
177	0xbd8331c0	-0.064059734
178	0x3cd6d9a3	0.026226824
179	0x3d80643b	0.062691174
180	0x3c9d7f48	0.019225731
181	0x3bcc9b50	0.0062441006
182	0xbd1c6c9b	-0.03818951
183	0x3ca23df6	0.019804936
184	0x3d92b363	0.071631216
185	0x3d03fdc1	0.03222442
186	0x3d5c2ed0	0.05375558
187	0x3c87d4c2	0.016580943
188	0xbd57bc10	-0.052669585
189	0x3ccc942a	0.024972994
190	0x3d570bd5	0.05250152
191	0x3db44179	0.088015504
192	0x3da11000	0.0786438
193	0xbd75e143	-0.06002928
194	0xbb1e892a	-0.0024190643
195	0xbcf4a694	-0.029864587
196	0xbc066a91	-0.008204118
197	0xbb5cd215	-0.0033694555
198	0xbd379541	-0.044820074
199	0xbce94e56	-0.028479736
200	0x3d29b04f	0.041427907
201	0x3c12fcd2	0.00897141
202	0xbc1183e4	-0.008881543
203	0x3cfc5ce8	0.03080602
204	0x3d1fbbe8	0.03899756
205	0xbcfa4448	-0.030550137
206	0xbc97f790	-0.018550664
207	0x3d3a7e0f	0.045530375
208	0xbc68b816	-0.014204046
209	0x3bd576ff	0.0065144296
210	0xbc72dcf2	-0.014823185
211	0xbcb92938	-0.022602662
212	0x3d62656f	0.055272516
213	0x3d85e790	0.06538308
214	0xbceed3ad	-0.02915367
215	0xbc534ee6	-0.012897229
216	0x3bcc07c7	0.006226513
217	0x3cf80d9c	0.030279927
218	0x3dd9a3b2	0.106269255
219	0x3c546593	0.01296367
220	0xbd179282	-0.037004955
221	0xbd46cdc7	-0.04853609
222	0x3b001a58	0.0019546952
223	0x3da97450	0.08274138
224	0x3cccc0bf	0.024994252
225	0x3cb26671	0.021777363
226	0x3c8fdadb	0.017560413
227	0xbb85b524	-0.0040804315
228	0xba970814	-0.0011522793
229	0xbbcb7471	-0.0062089493
230	0x3c5c8248	0.013458796
231	0x3bf5f00f	0.007505424
232	0x3c9b80a8	0.018982247
233	0x3d7cab2a	0.061686672
234	0x3d63ccfa	0.055615403
235	0x3ca9a2b6	0.02070747
236	0x3d01a319	0.031649683
237	0xbd1e9cc5	-0.038723726
238	0x3d92ce82	0.071682945
239	0x3d13d06f	0.03608745
240	0xbd10cda9	-0.035352383
241	0xbc34fc56	-0.01104649
242	0xbd942aed	-0.0723475
243	0xbbeb657c	-0.0071837287
244	0xbb1aea11	-0.002363805
245	0x3d11af73	0.035567712
246	0x3d1065c3	0.035253298
247	0xbd503f18	-0.05084142
248	0xbd7207f5	-0.05908962
249	0xbc009e69	-0.007850268
250	0x3d21ef14	0.039534643
251	0xbc4c4a14	-0.0124688335
252	0x3d057b45	0.032588262
253	0x3d89618f	0.06708061
254	0x3d7e7714	0.06212528
255	0xbc706c40	-0.014674246

bias f4 [32]
0	0xbe4ee17c	-0.20203203
1	0xbe3d8ac1	-0.18509962
2	0xbe648fe6	-0.22320518
3	0xbd89e1f4	-0.0673255
4	0xbad4672c	-0.0016205064
5	0xbe94c49a	-0.29056245
6	0xbec42869	-0.3831208
7	0xbdfbd3a2	-0.12296225
8	0xbdccac28	-0.09993774
9	0xbd847604	-0.06467822
10	0xbd4bfebe	-0.049803488
11	0xbd60ab6d	-0.054850984
12	0xbdc978c9	-0.09837491
13	0xbe07d19e	-0.13263556
14	0xbe642d43	-0.22282891
15	0xbe246768	-0.16055071
16	0xbe31a997	-0.1734985
17	0xbe27fccc	-0.16405028
18	0xbdb7ce13	-0.089748524
19	0xbc0392c5	-0.008030598
20	0xbcaba913	-0.020954644
21	0xbe349ff0	-0.17639136
22	0xbddffa76	-0.109364435
23	0xbe8d2367	-0.27566072
24	0xbd192d60	-0.03739679
25	0xbca834fc	-0.020533077
26	0xbd14ee2d	-0.036359955
27	0xbe1cc1e8	-0.15308344
28	0xbe2ebe28	-0.17064726
29	0x3d28f531	0.041249458
30	0xbe50302c	-0.20330876
31	0xbc7773cf	-0.0151032945

weight f4 [64, 32, 5, 5]
0	0xbc15ecd5	-0.009150703
1	0xbbe4c83e	-0.0069818785
2	0xbd24eea6	-0.040266655
3	0xbd8c3ce7	-0.06847554
4	0xbbb89e2a	-0.005634089
5	0x3c5ccfe7	0.013477302
6	0x3d81ad0d	0.06331835
7	0xbceafa3f	-0.02868378
8	0xbdede979	-0.11616797
9	0x3d646f8f	0.055770453
10	0xbd7b8b9e	-0.061412446
11	0xbd065859	-0.0327991
12	0xbdd51ff7	-0.104064874
13	0x3c1f67e1	0.0097293565
14	0x3d71eae9	0.05906192
15	0xbc95e919	-0.018299626
16	0xbd26dbf0	-0.040737092
17	0xbc09c8cd	-0.008409691
18	0x3ca29dd5	0.01985065
19	0x3d8d7c37	0.06908458
20	0xbd9010db	-0.07034465
21	0xbcef65b4	-0.0292233
22	0xbc3c35c5	-0.011487429
23	0x3bad5273	0.0052893697
24	0x3c99527a	0.018716086
25	0x3d102d2a	0.03519932
26	0xbb98bdc0	-0.004661292
27	0xbcc3d357	-0.023904486
28	0x3c4df484	0.012570504
29	0x3cde5057	0.027137918
30	0xbcb9abf3	-0.022665
31	0xbd6f8c75	-0.05848356
32	0xbd4f681e	-0.050636403
33	0x3cb6af3e	0.022300359
34	0x3d06bb20	0.0328933
35	0xbd0a1b14	-0.03371723
36	0xbd0cf4b0	-0.03441304
37	0x3c96746c	0.018366061
38	0xbb728921	-0.0037008005
39	0x3d3434dc	0.043995723
40	0xbd2ea06b	-0.042633455
41	0xbd4f8e22	-0.050672658
42	0xbc11a209	-0.00888873
43	0x3d162814	0.036659315
44	0x3d81caab	0.06337484
45	0xbb333cd2	-0.0027349484
46	0x3ca2bc07	0.019865049
47	0x3b2cd78a	0.0026373588
48	0xbb79405b	-0.0038032744
49	0xbcef208f	-0.02919033
50	0xbd77077e	-0.06030988
51	0x3b398dba	0.0028313235
52	0xbd1f813b	-0.038941603
53	0xbc87c731	-0.016574474
54	0xb90dda61	-0.0001352816
55	0xbbb129ab	-0.0054065785
56	0xbcf4e593	-0.029894626
57	0x3d5b0957	0.053475704
58	0xbbb97da1	-0.005660728
59	0x3cc52554	0.024065651
60	0xbdbada9c	-0.09123728
61	0xbd86f8f6	-0.06590454
62	0x3a6f48c8	0.0009127972
63	0x3dc20217	0.09473055
64	0x3d5ef649	0.054434095
65	0x3c490f7e	0.01227176
66	0xbd3038d9	-0.043022964
67	0x3d087947	0.033318784
68	0x3d82ff93	0.06396403
69	0x3baa13d4	0.005190352
70	0xbd8003ee	-0.062507495
71	0x3cc28b6a	0.023748118
72	0x3d906f8d	0.070525266
73	0x3dc21a61	0.094776876
74	0xbc3e1963	-0.011602732
75	0xbc888f41	-0.016669871
76	0x3d817122	0.063204065
77	0xbd6e026f	-0.05810779
78	0x3c531595	0.0128835635
79	0x3c814e1e	0.01578432
80	0x3db89641	0.09013034
81	0x3ba310ed	0.004976383
82	0xbcd0b5df	-0.025477348
83	0xbbd88425	-0.0066075497
84	0xbca9c1c5	-0.02072228
85	0xbb2161c8	-0.0024624933
86	0xbdbba92d	-0.09163127
87	0xbd239a7e	-0.039942257
88	0x3c9bf464	0.019037433
89	0x3d1bcc66	0.038036726
90	0xbcad64c8	-0.02116622
91	0xbd0dd1fd	-0.03462409
92	0x3cb977a8	0.022640064
93	0x3b103276	0.0022002733
94	0xbc8d2892	-0.01723126
95	0x3cda90d9	0.026680397
96	0x3bea5ef2	0.0071524316
97	0x3c802752	0.01564375
98	0x3cd84278	0.026398882
99	0xbc929abd	-0.01789605
100	0x3cf0f907	0.02941562
101	0xbbf8e96b	-0.007596185
102	0x39791370	0.00023753732
103	0x3cb2b760	0.021815956
104	0x3c5f7363	0.01363835
105	0x3c9c0908	0.019047275
106	0xbbc6fa0d	-0.006072289
107	0xbd765e89	-0.06014875
108	0x3c92ed5b	0.017935446
109	0xbce81a38	-0.028332815
110	0xbd0c8106	-0.034302734
111	0x3d57eb48	0.052714616
112	0xbc944419	-0.018098878
113	0x3d67e4d2	0.056614704
114	0x3d6ab72f	0.057303604
115	0x3d240612	0.04004485
116	0xbd0e023a	-0.034670092
117	0xbc811fd5	-0.015762249
118	0xbc3d9330	-0.011570737
119	0xbc341246	-0.010990685
120	0x3c357cab	0.011077086
121	0x3dc52f4d	0.096281625
122	0xbd0263cc	-0.031833455
123	0x3ce9d48e	0.028543737
124	0xbbe58b44	-0.007005127
125	0xbd53737a	-0.0516238
126	0xbad22fb8	-0.001603595
127	0x3c99feab	0.018798193
128	0xbbde2cca	-0.0067802416
129	0xbcd6c083	-0.026214844
130	0x3d0740f5	0.033020932
131	0x3d87cfe6	0.0663145
132	0x3ce14362	0.027497951
133	0x3e0f5abd	0.13999458
134	0x3d239417	0.03993615
135	0xbd0fbb44	-0.0350907
136	0xbd552cee	-0.0520448
137	0x3d0161d5	0.03158744
138	0x3dcc274a	0.09968431
139	0xbb8e886b	-0.0043497584
140	0xbbc02325	-0.0058635646
141	0x3c9be130	0.019028276
142	0xbc9e9220	-0.019356787
143	0x3be0fbc6	0.006865951
144	0x3d12a3d2	0.035800762
145	0xbc714504	-0.014725927
146	0x3d22a376	0.03970667
147	0x3d39964a	0.045309342
148	0xbc381425	-0.011235272
149	0x3d45d8a2	0.0483023
150	0x3bf10644	0.0073554832
151	0xbd5d9201	-0.05409432
152	0xbb2b19da	-0.0026107938
153	0x3d136e72	0.035994
154	0x3babb948	0.005240593
155	0x3d8b388c	0.06797895
156	0x3d47eb97	0.04880866
157	0x3cb7c0d9	0.022430824
158	0x3c48b9bd	0.012251315
159	0x3d979e09	0.0740319
160	0xbc00ef8e	-0.007869614
161	0x3d5a8f5a	0.053359367
162	0x3d5d81b6	0.05407878
163	0x3d7a3f97	0.0610958
164	0x3dd5df89	0.104430266
165	0x3cc75bdb	0.024335792
166	0xbcec7e72	-0.028868888
167	0x3c623074	0.013805497
168	0x3c82dd72	0.015974734
169	0x3beb69a7	0.0071842256
170	0x3cae51df	0.021279274
171	0xbc987ec6	-0.018615138
172	0x3d83b9e9	0.06431944
173	0x3c98c990	0.0186508
174	0x3d59b7bb	0.053153735
175	0x3ce6bee8	0.028167203
176	0x3c9bc58b	0.019015094
177	0x3d53b2dc	0.051684245
178	0xbd4ced7c	-0.05003117
179	0xbd723ffd	-0.059143055
180	0xbda3d2d8	-0.079992
181	0x3d89c86e	0.06727682
182	0x3ca48570	0.02008316
183	0xbd5f0dae	-0.054456405
184	0xbc74ca3a	-0.014940793
185	0xbd81e572	-0.06342591
186	0xbd6284fa	-0.055302598
187	0xbd71bdba	-0.059018828
188	0xbcee04fd	-0.029055113
189	0x3ccdb747	0.025111808
190	0xbcae4a9a	-0.021275807
191	0xbd68a7d3	-0.056800675
192	0x3e031006	0.12799081
193	0x3c930cf9	0.017950522
194	0xbd6b41e1	-0.057435874
195	0xbdbfd77c	-0.09367272
196	0xbc95a3e1	-0.01826662
197	0x3caf5273	0.02140162
198	0x3d042edf	0.032271262
199	0x3d475003	0.04866029
200	0xbb6268b5	-0.0034547274
201	0x3df6359f	0.12021946
202	0xbcb1a60e	-0.021685626
203	0x3b7e5f78	0.0038814228
204	0xbcf704d3	-0.030153668
205	0xbce58a96	-0.028020184
206	0x3d8ee879	0.069779344
207	0xbd91a216	-0.071109936
208	0xbc97775a	-0.018489528
209	0x3cee5500	0.029093266
210	0x3d1120db	0.035431724
211	0x3cdb9e13	0.026808774
212	0xbda0a69d	-0.07844279
213	0xbb921d28	-0.004459042
214	0xbd18a816	-0.037269674
215	0x38875181	6.452483e-05
216	0x3dd1ccb0	0.10244119
217	0x3d5eb876	0.054375134
218	0xbd474a99	-0.048655126
219	0xbcb9f331	-0.02269897
220	0xb7b2d3d5	-2.1317896e-05
221	0x3d045382	0.0323062
222	0x3ca45b25	0.020062992
223	0xbcd1926f	-0.02558252
224	0x3cf9e43e	0.030504342
225	0x3caf0d40	0.021368623
226	0x3d531a39	0.05153868
227	0x3c856398	0.016282842
228	0x3d0d8847	0.034553792
229	0x3ca24cf4	0.019812085
230	0xbd838e84	-0.06423667
231	0x3d20fae9	0.039301787
232	0xbd13c59f	-0.036077138
233	0xbcdec479	-0.027193295
234	0x3d30c642	0.043157823
235	0x3daf877f	0.08570766
236	0xbddf591a	-0.10905667
237	0xbc141574	-0.009038318
238	0xbc96a981	-0.018391373
239	0xbd2555db	-0.04036508
240	0xbd2cf6a2	-0.042227395
241	0x3c910271	0.01770136
242	0x3cccbfb9	0.024993764
243	0x3d3ebffc	0.04656981
244	0xbcdde6a1	-0.027087511
245	0x3d2255e6	0.0396327
246	0x3c875729	0.016521053
247	0x3c9bd6d6	0.01902334
248	0xbd51c068	-0.051208884
249	0x3cf5cb8e	0.030004289
250	0xbd8ee26e	-0.06976782
251	0x3bff50ed	0.0077916295
252	0xbcbd316e	-0.023094859
253	0x3d5477a0	0.051871896
254	0xbd928784	-0.07154754
255	0x3c624b60	0.013811916

bias f4 [64]
0	0xbe017a5e	-0.12644336
1	0xbe1271f9	-0.1430129
2	0xbddd8a62	-0.1081741
3	0xbd7c3722	-0.061576016
4	0xbd79cd8d	-0.060987044
5	0xbe1ee67d	-0.15517612
6	0xbd8fd5e7	-0.070232205
7	0xbd8ae035	-0.06781045
8	0xbdc67e66	-0.09692077
9	0xbd828483	-0.06372931
10	0xbe23a18f	-0.15979598
11	0xbdebe221	-0.1151774
12	0xbde1e0c7	-0.11029201
13	0xbdc59613	-0.09647765
14	0xbdf6e9f9	-0.120563455
15	0xbdbcbc22	-0.09215571
16	0xbe1c405d	-0.15258928
17	0xbde1a9e5	-0.11018733
18	0xbdfbedcd	-0.12301216
19	0xbe004c03	-0.12528996
20	0xbe13a647	-0.14418899
21	0xbdaddccb	-0.084893785
22	0xbce90dcc	-0.028448962
23	0xbe0ccddb	-0.13750403
24	0xbd85d75f	-0.065352194
25	0xbc87e6ca	-0.016589541
26	0xbdcadce6	-0.09905414
27	0xbd9b891d	-0.07594512
28	0xbdc43a4e	-0.09581433
29	0xbdca383f	-0.09874009
30	0xbd0a5fb9	-0.033782694
31	0xbd9ce06f	-0.07659995
32	0xbcf4f239	-0.029900657
33	0xbd782bde	-0.06058871
34	0xbdda2896	-0.106522724
35	0xbde7122d	-0.11282764
36	0xbd96fe60	-0.07372737
37	0xbdbd163c	-0.092327565
38	0xbdcc4d84	-0.099757224
39	0xbe11c31c	-0.14234585
40	0xbe2e0509	-0.16994108
41	0xbde5b5cb	-0.11216315
42	0x3b08700b	0.0020818736
43	0xbcd67be4	-0.026182123
44	0xbd97b053	-0.07406678
45	0xbd49fbda	-0.04931245
46	0xbd8fe018	-0.07025164
47	0xbddb4708	-0.107069075
48	0xbd6c380f	-0.05767065
49	0xbd44664b	-0.047949117
50	0xbe0acb10	-0.13554025
51	0xbe25bc2e	-0.16185066
52	0xbdb19302	-0.08670618
53	0xbe29b746	-0.1657382
54	0xbc9e554a	-0.019327778
55	0x3bf64a2d	0.0075161667
56	0x3a443e0e	0.00074860535
57	0xbe1fb375	-0.15595801
58	0xbc4b69b2	-0.012415336
59	0xbe0245c5	-0.12721927
60	0xbdebb931	-0.11509932
61	0xbd966a1d	-0.07344458
62	0xbd6bd1ae	-0.057573013
63	0xbd40ce0f	-0.047071513

weight f4 [64, 1024]
0	0xbd586ee2	-0.05284012
1	0xbb3c7b93	-0.002876018
2	0x3ba34117	0.0049821245
3	0xbb14b5d4	-0.0022691386
4	0x3b1f5f02	0.0024318104
5	0x3cf85aaa	0.03031667
6	0x3c94b07e	0.018150564
7	0xbb2c4c97	-0.0026290768
8	0xbc173250	-0.009228304
9	0x3c6ca64e	0.014443947
10	0x3d2297ff	0.039695736
11	0xbba0b36d	-0.0049042017
12	0xbd82ec10	-0.063926816
13	0xbd889f14	-0.06670967
14	0x3be67e98	0.007034134
15	0xbd45738c	-0.048205897
16	0xbd3c68de	-0.045998447
17	0x3cc52b0c	0.024068378
18	0xbd2b7de2	-0.041868098
19	0xbd0eb8eb	-0.03484432
20	0xbcbdf4c5	-0.023188004
21	0xbc722870	-0.014780149
22	0xbc5a5f02	-0.013328316
23	0xbc7bcda7	-0.015368856
24	0xbd396b6f	-0.045268472
25	0x3d0c2df0	0.034223497
26	0xbcbb7c71	-0.022886487
27	0x3d39933d	0.045306433
28	0x3c9f86a9	0.01947339
29	0x3c3f52bc	0.01167744
30	0x3d2b06b9	0.041754458
31	0xbb4eafc4	-0.003153787
32	0x3c55cc46	0.013049191
33	0x3c298987	0.0103477305
34	0xbd4cf336	-0.05003663
35	0xbc9d7cd8	-0.01922457
36	0xbd6c5f3e	-0.057708018
37	0x3bd758fb	0.0065718866
38	0x3d8a6afa	0.067586854
39	0x3d15e92c	0.036599323
40	0xbccd4baa	-0.025060493
41	0xbd3891dd	-0.04506098
42	0xbd75e7e6	-0.06003561
43	0xbc831247	-0.015999926
44	0x3c27dde7	0.010245777
45	0x3c908385	0.017640838
46	0x3d10fca8	0.0353972
47	0xbcd201cb	-0.02563562
48	0xbc1337f9	-0.008985513
49	0xbcca1842	-0.02466977
50	0xbd226602	-0.039648063
51	0xbc723516	-0.0147831645
52	0xbd13480f	-0.035957392
53	0xbd099957	-0.033593502
54	0x3d4bdb81	0.049769882
55	0x3c9fe509	0.019518392
56	0xbd58141e	-0.05275356
57	0x3d0d10dd	0.03443991
58	0x3d5065c0	0.050878286
59	0x3c854009	0.016265886
60	0x3cdc1489	0.02686526
61	0x3d316fab	0.043319385
62	0x3e0073fb	0.12544243
63	0x3d8f0d29	0.06984932
64	0xbc543a42	-0.012953343
65	0xbca3441d	-0.01992994
66	0x3ca3aefa	0.019980896
67	0x3cd8d248	0.026467457
68	0xbd2723f4	-0.040805772
69	0xbceb0697	-0.028689666
70	0x3cb1c586	0.021700632
71	0x3da85e1a	0.082210734
72	0x3c14a0f8	0.009071581
73	0x3d80706b	0.06271442
74	0xbc4a40ab	-0.01234452
75	0x3d166c50	0.03672439
76	0xba601bdb	-0.00085490727
77	0x3c81bced	0.015837157
78	0x3c4f5e05	0.012656693
79	0x3baaad3c	0.0052086394
80	0xbd2a3e94	-0.041563585
81	0x3d8d6489	0.06903941
82	0x3c371e84	0.011176709
83	0xbd1bcda3	-0.038037907
84	0x3c612862	0.013742538
85	0xbca6b329	-0.020349102
86	0x3d470795	0.048591215
87	0x3c0cc4c0	0.008591831
88	0x3cc90b00	0.024541378
89	0x3ca99ea4	0.020705529
90	0xbc22d70a	-0.009938965
91	0x3c9b7511	0.01897672
92	0x3d23e57a	0.040013768
93	0x3d55a9c7	0.052163865
94	0x3d717bd3	0.05895598
95	0x3d7e720d	0.062120486
96	0x3af7d35a	0.0018907592
97	0xbb28d985	-0.0025764417
98	0xbb73b824	-0.0037188614
99	0x3b9f87c8	0.0048684813
100	0x3c423d84	0.011855487
101	0xbc315fe6	-0.010826087
102	0xbd01242f	-0.031528648
103	0xbd2bc466	-0.041935347
104	0x3d1d7619	0.038442705
105	0x3d240e74	0.040052846
106	0x3bafdfb4	0.0053672437
107	0x3d9d29f5	0.07674018
108	0xbca44316	-0.02005152
109	0x3cb000cf	0.02148476
110	0x3d1be89c	0.03806363
111	0x3d371302	0.04469586
112	0x3b0bd960	0.0021339282
113	0xbd50e2d2	-0.050997563
114	0xbd32f081	-0.043686394
115	0x3ce500de	0.027954515
116	0x3d22080b	0.03955845
117	0xbcd9a7eb	-0.026569327
118	0x3d58fecd	0.052977372
119	0x3d59b2e8	0.053149134
120	0x3c0304da	0.007996762
121	0xbcb0ee74	-0.021598078
122	0x3cf3137d	0.029672379
123	0x3d619732	0.05507583
124	0x3d6fe7f9	0.058570836
125	0xbccbaa00	-0.024861336
126	0x3cc4b3ae	0.02401146
127	0x3c4bd5a0	0.012441069
128	0x3a7c81f8	0.0009632404
129	0xbaeec67b	-0.0018217111
130	0x3d0d1a70	0.03444904
131	0xbc45a15f	-0.0120624
132	0x3d54a236	0.05191251
133	0x3d08f7b3	0.03343935
134	0x3cdab4ba	0.026697505
135	0x3d292a73	0.04130025
136	0x3d85bf72	0.06530656
137	0x3db54786	0.08851533
138	0x3c5d3e1a	0.013503576
139	0x3d9df7ed	0.07713304
140	0xbd382dee	-0.044965677
141	0x394f0762	0.00019743809
142	0x3b91246c	0.0044293907
143	0xbd11814c	-0.035523698
144	0x3b4f0a7a	0.0031591938
145	0xbcd56da4	-0.026053257
146	0x3d395dd9	0.045255516
147	0xbcdf33ca	-0.027246375
148	0xbb0125e3	-0.001970642
149	0x3cf91c18	0.030408904
150	0x3dabc2e4	0.08386782
151	0x3d10c81c	0.03534709
152	0x3cbe3fda	0.023223806
153	0x3dbdc550	0.0926615
154	0x3ce19875	0.027538517
155	0x3c3d64f0	0.01155971
156	0xbd124196	-0.03570708
157	0x3ba6426b	0.0050738356
158	0xbc820801	-0.015872957
159	0xbd6440d7	-0.0557259
160	0x3c97a891	0.018512996
161	0xbc4b9631	-0.012425945
162	0xbd9be66f	-0.07612311
163	0x3bcabcdf	0.006187066
164	0x3d000da1	0.031262998
165	0xbd366e46	-0.04453876
166	0x3c186642	0.009301724
167	0x3d9371d0	0.071994424
168	0x3d038290	0.032106936
169	0xbc72a874	-0.01481067
170	0xbbeccaee	-0.0072263395
171	0x3d90db8f	0.070731275
172	0x3c354921	0.011064799
173	0xbd330ede	-0.04371535
174	0xbc035b37	-0.008017353
175	0x3d5a6d1c	0.05332671
176	0xbb9f6450	-0.004864253
177	0x3c9d6caa	0.019216854
178	0x3bc7fcb0	0.0061031207
179	0xbc91fc8d	-0.01782062
180	0xbd04e5d7	-0.032445755
181	0x3c948c26	0.018133234
182	0xbd026af2	-0.031840272
183	0xbcaeee8d	-0.021353984
184	0x3aa0aa7c	0.001225784
185	0x3b8c3f15	0.004279981
186	0xbd75cb8d	-0.060008574
187	0xbce23b4b	-0.027616164
188	0x3cd81b02	0.026380066
189	0x3c90f0c4	0.017692931
190	0x3da4fb29	0.080557175
191	0x3d6f1ff5	0.058380086
192	0xbb8f6170	-0.004375629
193	0xbd4cbc8b	-0.049984496
194	0x3c34ee88	0.011043198
195	0xbb327bc6	-0.002723442
196	0x3cb7ffe3	0.022460883
197	0xbd97e29a	-0.07416268
198	0xbcfa4297	-0.03054933
199	0xbd3536dd	-0.044241775
200	0x3d0a697f	0.033792015
201	0xbbaef2a2	-0.0053389827
202	0x3bb7da4c	0.00561074
203	0x3c469b36	0.012121966
204	0x3dc20937	0.09474414
205	0xbd359e27	-0.04434028
206	0x3cc56c07	0.024099363
207	0xbce0983a	-0.027416337
208	0x3c65fb00	0.014036894
209	0xbd110601	-0.035406116
210	0xbbff6d28	-0.007794995
211	0xbb309166	-0.0026942133
212	0xba8c3d0f	-0.0010699349
213	0x3d31b4d4	0.04338534
214	0x3c7f361f	0.015576868
215	0x3c7a0d3c	0.015261944
216	0x3c96ab17	0.018392129
217	0x3c81e6f7	0.015857203
218	0x3cb532e7	0.022118999
219	0x3d88baa8	0.06676227
220	0xbd7bb38b	-0.061450522
221	0xbd4544c5	-0.048161287
222	0xbb9ecff8	-0.004846569
223	0xbd0c52aa	-0.034258522
224	0x3d4b3c26	0.04961791
225	0x3d1673c1	0.036731485
226	0x3d855e59	0.06512136
227	0xbc958bb2	-0.018255088
228	0x3bf32139	0.007419732
229	0x3b8cf360	0.0043014735
230	0xbd0bfd66	-0.034177206
231	0x3c203ac8	0.00977964
232	0x3bdfbd63	0.0068279966
233	0xbd76c41e	-0.060245626
234	0x3cf9c8e3	0.030491298
235	0xbdadfee8	-0.08495885
236	0xbcfb371f	-0.030665932
237	0xbd4fe621	-0.050756577
238	0x3bc63d2d	0.006049773
239	0x3bd71314	0.0065635536
240	0xbaad0e72	-0.0013203158
241	0x3a29f6e7	0.00064836297
242	0xbbdef810	-0.0068044737
243	0xbcfa35a8	-0.030543163
244	0x3d42e158	0.047578186
245	0xbc8b1243	-0.016976481
246	0xbd0cd233	-0.03438015
247	0x3c95630d	0.018235708
248	0xbaffa5fc	-0.0019504423
249	0xbd5552d8	-0.05208096
250	0x3d06698d	0.032815505
251	0xbd1c8564	-0.03821315
252	0x3cd16cce	0.025564577
253	0x3d8e1f82	0.069396034
254	0xbca84061	-0.02053851
255	0x3cc10069	0.023559766

bias f4 [64]
0	0xbc991264	-0.018685527
1	0x3c1b9c8d	0.009497774
2	0xbcf428c3	-0.029804593
3	0x3c99f1b1	0.018792005
4	0xbce27697	-0.027644439
5	0x3d56eeca	0.05247382
6	0xbc37c356	-0.011216005
7	0xbc5542ea	-0.013016442
8	0x3ca6663f	0.020312427
9	0xbbd3bdcb	-0.006461834
10	0xbcce1b00	-0.025159359
11	0xbd47ea51	-0.048807446
12	0x3c78dafa	0.015188927
13	0x3d62a438	0.055332392
14	0x3c1c5a85	0.009543066
15	0xbbbe0100	-0.005798459
16	0x3ce1b3f0	0.027551621
17	0x3bafc637	0.005364205
18	0xbcc136ca	-0.023585696
19	0x3d23f5a2	0.040029176
20	0xbd452607	-0.04813197
21	0x3cca0fc4	0.02466572
22	0x3c90d82f	0.01768121
23	0xbd1df88f	-0.038567122
24	0x3ca96c32	0.020681474
25	0xbd13214e	-0.035920434
26	0x39003765	0.00012227667
27	0xbd0dcb0e	-0.034617476
28	0x3dacbcbd	0.084344365
29	0x3cf272f8	0.029595837
30	0xbc82aff1	-0.015953036
31	0x3ca09fc9	0.019607441
32	0xbd772a82	-0.060343273
33	0x3d382ef1	0.04496664
34	0x3bed64bd	0.007244675
35	0xbd484337	-0.048892226
36	0xbcec53de	-0.028848585
37	0x3cd0f5d9	0.025507854
38	0xbd4625de	-0.048375957
39	0xbd55f082	-0.05223132
40	0xbd578cc0	-0.052624464
41	0xbcd2b8f5	-0.02572296
42	0xbd3d1bac	-0.046168968
43	0xbd483b65	-0.048884768
44	0x3ca5ea29	0.020253258
45	0xbc255299	-0.010090494
46	0xbc4ea0a7	-0.012611545
47	0xbd463812	-0.048393317
48	0xbd07f19f	-0.033189412
49	0xbcc3295a	-0.023823429
50	0x3d19438e	0.03741794
51	0x3d8d60ba	0.06903215
52	0x3d0b4226	0.03399863
53	0x3ac7c008	0.0015239725
54	0xba496dfe	-0.00076839316
55	0xbbab9b78	-0.005237039
56	0x3c0a7905	0.008451705
57	0xbd2d0eec	-0.04225056
58	0xbd592c7c	-0.05302094
59	0x3c8df520	0.017328799
60	0x3d2a323b	0.04155181
61	0xbd2bfc4a	-0.04198865
62	0x3d234aa0	0.03986609
63	0x3d0a2143	0.033723127

weight f4 [10, 64]
0	0x3d706f5a	0.058699943
1	0x3e89c02e	0.26904434
2	0xbe10f30b	-0.14155214
3	0xbd3c3af3	-0.045954656
4	0xbe70b1a5	-0.23505266
5	0xbe8fb22e	-0.28065628
6	0x3df4eedc	0.11959621
7	0x3e9070b4	0.28210986
8	0x3e841fd7	0.25805542
9	0x3d92cd55	0.0716807
10	0xbe8d794f	-0.27631614
11	0x3e99f5d6	0.3007037
12	0xbddb6159	-0.10711927
13	0x3d57f42f	0.052723106
14	0xbea72f35	-0.32653204
15	0x3e8f4a96	0.27986592
16	0x3e819aa6	0.253133
17	0xbeacd1b9	-0.33753756
18	0x3e848412	0.25882012
19	0xbe842dc0	-0.25816154
20	0x3d57c7dd	0.05268084
21	0xbe756a5f	-0.23966359
22	0xbcae3238	-0.02126418
23	0x3e6e9a09	0.23300947
24	0xbe203a59	-0.15647258
25	0xbd3b73b0	-0.045764625
26	0xbe65ccf1	-0.2244146
27	0xbe0dac13	-0.13835172
28	0xbe9b53a5	-0.30337253
29	0xbd17827f	-0.036989685
30	0xbd14b73c	-0.03630756
31	0x3d2eb2eb	0.0426511
32	0x3eb91c6a	0.3615449
33	0xbea2e405	-0.3181459
34	0xbdb60cda	-0.0888917
35	0x3d9ef5f1	0.07761753
36	0xbe755046	-0.23956403
37	0xbdfa83d3	-0.12232175
38	0x3ebe6899	0.37189177
39	0xbe943328	-0.2894528
40	0x3e9d3001	0.30700687
41	0xbdbe16bf	-0.09281682
42	0x3dcb69a1	0.099322565
43	0x3e66d09c	0.22540516
44	0x3c2233b6	0.009900024
45	0xbe94f2f4	-0.2909161
46	0x3d928cce	0.071557626
47	0xbe04ab46	-0.1295596
48	0x3eaf9274	0.34291422
49	0xbcc904c7	-0.02453841
50	0xbea2409d	-0.3168992
51	0xbe2b4930	-0.16727138
52	0x3e106cac	0.14103955
53	0xbd4bb2ce	-0.04973107
54	0x3e23cd99	0.15996398
55	0x3d2cd627	0.04219642
56	0x3d814072	0.0631112
57	0x3ec29cf5	0.38010374
58	0x3e49edd1	0.19719626
59	0xbeb3af56	-0.35094708
60	0xbe3b73c3	-0.18305878
61	0x3c3220d2	0.010872083
62	0xbe05202c	-0.13000554
63	0x3d6243e6	0.055240534
64	0x3e3dd5e0	0.18538618
65	0xbda5d24d	-0.08096752
66	0x3e463387	0.19355594
67	0xbe9bf7eb	-0.30462584
68	0xbd267ff8	-0.040649384
69	0x3d92d739	0.07169957
70	0xbe142e70	-0.1447084
71	0xbea59a95	-0.323445
72	0xbec7e68d	-0.39043084
73	0x3a741b92	0.00093119696
74	0xbeb325aa	-0.34989673
75	0xbe777226	-0.24164638
76	0xbdf516ab	-0.11967214
77	0xbe8ce029	-0.2751477
78	0x3ec3350d	0.38126412
79	0xbdeeba96	-0.11656682
80	0xbdb02310	-0.08600438
81	0x3ea59d83	0.32346734
82	0x3dc3baac	0.09557089
83	0xbe5fceac	-0.21856183
84	0xbe510556	-0.20412192
85	0xbe1bb693	-0.15206365
86	0xbd89c952	-0.06727852
87	0x3e99420c	0.29933202
88	0x3f06a76a	0.52599204
89	0x3eac470f	0.33647963
90	0x3e7be05b	0.24597304
91	0x3dfa9f40	0.12237406
92	0xbeac6603	-0.3367158
93	0xbe907b3f	-0.2821903
94	0xbde43e88	-0.111447394
95	0x3e50f5ef	0.20406316
96	0x3eac26d0	0.33623362
97	0x3e118e5c	0.14214462
98	0xbdeca605	-0.11555103
99	0xbea11de5	-0.3146812
100	0xbe13f35f	-0.14448307
101	0x3e2d3eb8	0.16918457
102	0xbea65fce	-0.32494968
103	0xbdf78d7f	-0.12087535
104	0x3e26c4f7	0.16286074
105	0xbd3298e5	-0.043602843
106	0x3ca6cc9f	0.020361243
107	0x3dbed486	0.093178794
108	0xbeb92043	-0.36157426
109	0xbe9c067f	-0.30473706
110	0xbdfaf6cf	-0.12254106
111	0x3eb2a522	0.3489161
112	0xbd4aaceb	-0.049481314
113	0x3e5ed0bf	0.21759318
114	0xbe829f8a	-0.25512344
115	0xbe85a1ca	-0.26099998
116	0xbef3e1df	-0.47633263
117	0x3e9eb1af	0.30994937
118	0xbe80847d	-0.2510108
119	0xbe26398d	-0.16232891
120	0x3efd560e	0.49479717
121	0x3e70ec31	0.235276
122	0x3bf2a7de	0.0074052652
123	0x3edaab95	0.42709032
124	0xbf0ccf53	-0.5500385
125	0xbe4455b5	-0.1917332
126	0xbec0a564	-0.37626183
127	0xbe93d19f	-0.28870866
128	0xbec82ac5	-0.3909513
129	0xbc99fe4b	-0.018798014
130	0xbec40b3c	-0.3828982
131	0x3e6d0d4f	0.23149608
132	0xbe01e552	-0.12685135
133	0xbdc9e5af	-0.09858262
134	0x3de45121	0.111482866
135	0xbd87ea60	-0.066365
136	0x3c57cba2	0.013171108
137	0xbe1b6bad	-0.15177794
138	0x3e836ef4	0.25670588
139	0xbe998856	-0.2998683
140	0x3cda2ec7	0.026633633
141	0x3d37fc41	0.044918302
142	0xbec32131	-0.3811126
143	0x3e9b1351	0.30288175
144	0xbdc6dca6	-0.09710054
145	0xbe4d4fe8	-0.20050013
146	0xbe452f73	-0.19256382
147	0x3e1747f6	0.14773545
148	0x3d8bdbc1	0.06829024
149	0x3df55fb2	0.11981143
150	0xbe84b4db	-0.25919232
151	0xbeb4e912	-0.3533407
152	0xbd230987	-0.039804008
153	0x3d9f27cc	0.077712625
154	0xbe5589b4	-0.20853311
155	0x3e459822	0.19296315
156	0xbe2d1c80	-0.16905403
157	0x3e84df12	0.2595144
158	0xbd4d439c	-0.050113305
159	0x3e87e421	0.26541236
160	0x3e9689d1	0.2940202
161	0x3e004c94	0.12529212
162	0xbe5c5da9	-0.21520104
163	0xbc62f87b	-0.013853188
164	0x3e96b445	0.2943441
165	0x3e1bdfee	0.15222141
166	0x3e495c65	0.19664152
167	0xbebdcc43	-0.37069902
168	0x3e0c423a	0.13697138
169	0x3e0c1755	0.13680775
170	0x3cd22170	0.02565071
171	0x3cde7066	0.027153205
172	0x3e07266c	0.1319825
173	0x3eb0445d	0.34427157
174	0x3ef003f6	0.46878022
175	0xbc94bf66	-0.018157672
176	0x3e045d31	0.12926175
177	0x3eae3dd7	0.34031555
178	0x3eafc471	0.3432956
179	0x3e7be632	0.24599531
180	0xbe13a4e1	-0.14418365
181	0x3e87227c	0.26393497
182	0x3e32b89b	0.17453234
183	0x3e534f27	0.20635663
184	0x3cdd74b0	0.02703318
185	0xbe24e97b	-0.1610469
186	0xbd9944d3	-0.0748383
187	0xbe84c852	-0.25934082
188	0x3eb444b3	0.35208663
189	0x3d9186d6	0.07105796
190	0x3e183067	0.14862214
191	0xbdab0234	-0.083500296
192	0xbe3efade	-0.18650386
193	0x3e54c6db	0.20778982
194	0xbe8a6007	-0.27026388
195	0xbe4f9d67	-0.20274888
196	0xbdd7f7e0	-0.10545325
197	0x3e8f742e	0.28018326
198	0xbcfb81fe	-0.030701634
199	0xbcb4bd7f	-0.022063015
200	0xbe646c46	-0.22306928
201	0x3e76b83d	0.24093719
202	0x3e84b30e	0.25917858
203	0x3d0294f7	0.031880345
204	0x3e0ed016	0.13946566
205	0xbe8c5add	-0.27413073
206	0x3e958fc6	0.29211253
207	0xbe01d041	-0.12677099
208	0x3dec9a55	0.11552874
209	0x3e844aab	0.25838217
210	0xbd77a27a	-0.060457684
211	0x3ab7f15b	0.0014033722
212	0x3d6bbd27	0.057553437
213	0x3e257e28	0.16161406
214	0x3e86227f	0.26198193
215	0xbc853b52	-0.016263638
216	0xbdae1277	-0.08499616
217	0xbd4f25bd	-0.0505731
218	0xbe75f399	-0.24018706
219	0xbe7798ef	-0.24179433
220	0x3e065106	0.13116845
221	0x3dcef2c5	0.10104898
222	0x3ea3ae3a	0.31968862
223	0xbe23b1d2	-0.15985802
224	0xbdd489ae	-0.10377823
225	0x3d271d85	0.040799636
226	0x3e1b6eea	0.15179029
227	0xbde567db	-0.112014495
228	0x3e5c523c	0.21515745
229	0x3ce59734	0.0280262
230	0x3e02ebef	0.12785314
231	0x3dd75e19	0.105159946
232	0x3e4a893e	0.19778916
233	0x3e9a3736	0.30120248
234	0xbedb3d72	-0.42820317
235	0xbd962bee	-0.07332598
236	0x3d6f7c85	0.05846836
237	0x3e05f189	0.1308042
238	0x3e3c28cf	0.18374942
239	0xbe78be04	-0.24291235
240	0xbd7c36a4	-0.061575547
241	0xbde2d7d5	-0.11076323
242	0xbe52f376	-0.20600685
243	0x3cd19a80	0.025586367
244	0x3e2a115b	0.16608183
245	0x3e761571	0.24031617
246	0x3df77742	0.120832935
247	0xbd8696bb	-0.06571718
248	0xbe323e6f	-0.17406629
249	0xbe32c5f4	-0.17458326
250	0x3e37c13c	0.17944807
251	0xbdb53e90	-0.088498235
252	0x3d9aa367	0.07550698
253	0xbe21518b	-0.15753762
254	0x3de4ac76	0.11165707
255	0xbd84a51f	-0.06476807

bias f4 [10]
0	0xbd964f50	-0.073393464
1	0x3dca43ae	0.0987619
2	0xbcb5d784	-0.022197492
3	0x3dc2b939	0.09507985
4	0x3de81a3a	0.11333127
5	0xbdf32800	-0.11872864
6	0x3dba7b5f	0.091055624
7	0xbcda2eb3	-0.026633596
8	0xbc309035	-0.010776569
9	0x3cf28402	0.029603962
