try_train/cifar10_models/cifar10_net_46.pth (torch, 589402 bytes, 10 tensors)

weight f4 [32, 3, 5, 5]
000000 40 52 d0 bd a7 68 a1 3d 8a b2 39 3e 39 09 a2 3c
       -0.10171938 0.07881289 0.18134513 0.019779788
000010 3e d0 0e 3e 6a 97 06 be cc f9 df bd 3b b1 55 bc
       0.13946626 -0.13143697 -0.10936317 -0.013042743
000020 83 93 79 3e 90 e5 a8 3d 3e 86 b9 bd 77 09 4d 3c
       0.24372678 0.082469106 -0.09058808 0.012514464
000030 b6 8a 6f be 29 2f 19 bb 5e ab c0 bd df c6 b8 3d
       -0.23392758 -0.0023374057 -0.09407686 0.09022307
000040 2f 4f e5 3c 76 29 b6 be 67 7f 6d be 3b 7d 08 be
       0.02799186 -0.35578507 -0.23193131 -0.13329022
000050 27 4c 56 3e eb 8d 48 bd 77 10 ae be 88 f8 06 be
       0.20927487 -0.04896347 -0.33996937 -0.13180745
000060 98 21 f2 bc 31 2b 0a be c8 66 94 bd da d1 eb bc
       -0.029557034 -0.13493039 -0.072461665 -0.028786588
000070 d1 53 29 bd be 57 c5 bd fe d0 9c 3d 1a 15 07 be
       -0.0413397 -0.09635876 0.076570496 -0.13191643
000080 d1 e1 02 be 10 ee e7 3d 6d f3 ed 3c a8 20 f0 3c
       -0.12781455 0.11324704 0.029046739 0.029312447
000090 2d d9 af 3d 8c e6 59 be 64 39 07 3c 0b bb 08 bd
       0.08586345 -0.21279353 0.008253429 -0.033381503
0000a0 62 28 c7 3e 84 54 64 3e 79 fd 53 be 61 12 bc bd
       0.38897997 0.22297865 -0.20702161 -0.09183193
0000b0 fd 49 d4 bd 52 80 87 3e 02 40 00 3e ea de 6f be
       -0.10365675 0.26465088 0.12524417 -0.23424879
0000c0 84 31 2e be 24 78 b0 3d 2d 01 62 bc f8 20 56 3d
       -0.17011076 0.08616665 -0.013794226 0.052277535
0000d0 02 ca 16 3e 1d 3e dc bb 81 36 20 be d1 a0 e2 3c
       0.14725497 -0.0067212717 -0.15645792 0.027664574
0000e0 bc 0a 81 3b a5 0e 8c 3b ae 90 42 3d f7 b7 36 bd
       0.003938047 0.0042742067 0.04750126 -0.044609036
0000f0 e1 b8 44 3e d7 f6 b0 3d 1d e3 33 be 78 97 d3 bd
       0.1921115 0.08640831 -0.17567106 -0.10331625
000100 55 c9 4d bd 3b 75 bd 3e e0 68 96 3e 3c 71 19 be
       -0.050240833 0.37003502 0.29376888 -0.14984602
000110 d4 e7 aa bd 8a 41 fd bb fa 1f c4 3e f6 35 5f 3e
       -0.08344999 -0.00772876 0.38305646 0.21797928
000120 f7 98 46 be c5 2f 17 be 40 05 ab bd a1 b6 f9 bd
       -0.19394289 -0.14764316 -0.08350611 -0.12193037
000130 85 c2 ca bd 73 6b 57 be 5a 1c 3e 3c 3a cf 2a bb
       -0.09900383 -0.21037082 0.011603439 -0.0026063458
000140 77 e2 a3 bc 92 24 a7 bd 8a a8 f6 bc 70 12 b8 bd
       -0.020005448 -0.08161272 -0.030109663 -0.08987892
000150 f9 f9 bd 3c 6e 51 5c bc 56 cc 9f bd e8 0a 33 bd
       0.023190485 -0.013447149 -0.07802646 -0.043711573
000160 18 cc 88 bd c1 0b 43 3d a0 ea 04 be 57 d2 15 be
       -0.06679553 0.04761863 -0.12980127 -0.1463102
000170 99 de 6b be 52 6d 5c be 27 01 cb bc e6 f4 2e 3c
       -0.23034133 -0.21526077 -0.024780823 0.0106785055
000180 b5 74 41 be ea 18 63 be ea 5f 64 be d1 7d 92 bd
       -0.18892176 -0.22177473 -0.22302213 -0.07152904
000190 03 76 a0 bc 0b 9e d7 bc a3 31 e3 bd 2f 18 8a 3c
       -0.019587522 -0.026320478 -0.11093452 0.016857235
0001a0 04 8f 29 be a2 25 4c bd 8b c5 0c 3d 41 2c 27 3e
       -0.16558462 -0.049840577 0.03436808 0.16325475
0001b0 d3 be 49 3e 27 cc a6 3c a4 cb 26 bd 3f b9 93 3d
       0.197017 0.02036102 -0.04072155 0.07213067
0001c0 d6 b8 af 3d 1a 04 5f 3e 03 4c 09 3d ba 5f 6d 3c
       0.085801765 0.21778908 0.033519756 0.014488155
0001d0 ee 0a 65 bd fe a4 05 be c8 50 8e bd a6 2b 93 bc
       -0.055918626 -0.13051221 -0.069490016 -0.01796515
0001e0 e4 08 1f bd 40 a0 49 be 00 c8 83 be 0f 58 80 be
       -0.038826838 -0.19690037 -0.25738525 -0.25067183
0001f0 9e c9 cd bd 5f 35 b1 bd 25 68 46 3d e0 89 58 bd
       -0.10048221 -0.08652758 0.048439164 -0.052865863
000200 a0 df f8 bd 59 6f ee bd b6 cd e9 3d bf c0 5f 3e
       -0.12152028 -0.11642332 0.114161894 0.2185087
000210 1d 43 aa 3e b4 4b 3a 3e f6 c9 bb bc 5e d1 51 3e
       0.33254328 0.18192941 -0.02292345 0.20490023
000220 a3 b7 bf 3e 1f f6 eb 3e e2 29 9e 3e 9c bc 20 3e
       0.3744479 0.46086213 0.3089133 0.15696949
000230 c3 08 45 3e ef 83 91 3e 17 2c 7f 3e 1b 2b 3c 3e
       0.19241624 0.2842097 0.24919163 0.18375818
000240 29 0a 5f 3e bd 01 42 3d 41 be af bc 8d 4c 93 3c
       0.2178122 0.04736494 -0.021453025 0.017980838
000250 56 86 d6 3d 71 11 4e 3d eb 59 c5 3d bb 02 3c be
       0.10474841 0.050309602 0.09636291 -0.18360417
000260 fa d2 9d 3d f7 fc d7 bd 45 4e 7b bd 97 9a 7d 3e
       0.07706256 -0.10546296 -0.06135394 0.24766003
000270 71 7a b0 be 71 4d ee 3d 22 93 e0 bc 52 ce c0 bd
       -0.34468415 0.116358645 -0.027413908 -0.094143525
000280 6d 2f 4e 3d e7 68 a7 be 8a f7 94 bd 4c d2 af bd
       0.050338197 -0.32697222 -0.07273777 -0.08585033
000290 3c 85 05 3c 8e 51 0e be 67 ad f9 bc 76 61 64 3e
       0.008149441 -0.13898298 -0.030478192 0.22302803
0002a0 ea 39 9f 3c 71 bc bd 3c 71 c8 03 be 61 15 55 bd
       0.019436795 0.023161145 -0.12869431 -0.05202234
0002b0 e0 49 9f bc 10 e1 1f be 57 e1 3d be fc 5e 67 3e
       -0.019444406 -0.15613198 -0.18542992 0.22594827
0002c0 21 35 07 be 76 9d 1a 3e 66 24 12 3d 5c a7 2b 3c
       -0.13203861 0.15099129 0.035679244 0.010476913
0002d0 7b 61 86 3e a1 16 24 be e8 d0 14 3e f2 d0 a1 3d
       0.26246247 -0.16024257 0.14532816 0.07901181
0002e0 55 b5 aa 3d 43 bd 35 3e ab 44 7c be 23 b0 78 3e
       0.083353676 0.17747979 -0.2463557 0.24285941
0002f0 d9 e1 1f 3d bc 65 2d bd 51 64 08 bd b0 8a ee bc
       0.039033744 -0.04233335 -0.033298794 -0.029118866
000300 e5 b4 8e 3e 61 8c 64 3e a6 b7 37 3e 52 8d d5 3b
       0.27872387 0.22319175 0.1794115 0.006517091
000310 c2 9d b5 3d 91 84 42 bd c8 ef 49 3d ae 76 b2 bc
       0.088679805 -0.047489706 0.04930094 -0.021785107
000320 45 52 ae 3d ff 8f 62 be 50 e5 41 3e a5 b0 f0 bd
       0.085117854 -0.22125243 0.18935132 -0.11752442
000330 6c 81 f2 bb 77 93 5e 3e 9e 14 82 be df b2 ce 3d
       -0.007400682 0.21735941 -0.25406355 0.10092711
000340 2f fd d3 bd 9a 39 85 3d a6 5e d5 3d 9b 2e 87 be
       -0.10351025 0.06505127 0.104184434 -0.26402745
000350 a5 41 81 3c b8 30 eb bd d7 ae d3 3c de a0 30 3d
       0.015778372 -0.11483902 0.025840206 0.043122165
000360 76 59 fc bd 2f bb 94 3e 6e 4d 17 3e ad 14 a7 bd
       -0.12321751 0.2904906 0.14775631 -0.081582405
000370 ca 83 a5 bd 90 be e3 3d 68 eb d1 bd 78 66 42 be
       -0.080817774 0.11120331 -0.10249978 -0.18984401
000380 93 db 36 be d3 79 32 bd 87 ee ca 3d 23 cd 1f 3e
       -0.17857198 -0.043573212 0.09908777 0.15605597
000390 48 36 45 3d ea 33 10 3e 47 78 0f bd 40 7f db 3d
       0.04814747 0.14082304 -0.035026815 0.107176304
0003a0 0c 83 16 bc ef 4d 18 3d 5b 8f 0d be 49 07 0a 3e
       -0.009186517 0.0371837 -0.13824217 0.13479342
0003b0 34 13 bd 3d 26 47 45 3e 00 dd 32 3e ba 3c ec bc
       0.09232178 0.19265422 0.17467117 -0.02883755
0003c0 00 44 ec bd 75 96 4b be 99 4b 38 bd f0 18 5d 3d
       -0.115364075 -0.19881614 -0.04499397 0.05397886
0003d0 ee 28 39 3e d1 f3 e8 bd 9d f5 51 be 3c 36 a2 be
       0.1808202 -0.11374629 -0.2050385 -0.31682003
0003e0 01 29 ed bd a3 b6 fe bd ca 50 d6 bb 2f 52 80 bc
       -0.115800865 -0.12437179 -0.0065403925 -0.015664188
0003f0 7e 1e 76 bc 1b 17 d7 3d f7 88 b4 3d 07 c3 c2 bc
       -0.015021918 0.10502454 0.088151865 -0.023774637

bias f4 [32]
000000 5f 26 51 3e 7d f5 c7 be 43 56 ec bc 5b aa 02 3e
       0.20424794 -0.3905448 -0.028849727 0.12760298
000010 3f 99 3c bd 00 12 ea bd 9f 18 eb 3b d1 e9 d8 bd
       -0.046044584 -0.114292145 0.007174566 -0.10591472
000020 e4 77 03 3e b6 7e 8a be e6 7f 60 be c9 7f 82 bd
       0.12838703 -0.27049798 -0.2192379 -0.06372029
000030 03 0a d3 3d 1c 81 a6 3c e4 44 83 be 33 17 96 3e
       0.10304644 0.020325236 -0.25638497 0.29314575
000040 ca a0 94 bd dc a4 ce 3d 79 99 83 be 45 14 8d bd
       -0.072572306 0.10090038 -0.25703028 -0.06888632
000050 ad 8b 1e be 12 c1 a4 3c be 3f 95 be f5 ac 88 be
       -0.1548297 0.020111594 -0.29150194 -0.26694456
000060 aa 94 58 3d 85 93 e7 be 8d 53 07 bd 4d 5d 19 be
       0.052876152 -0.45229736 -0.033038665 -0.14976998
000070 7f 37 f0 3e e5 eb e0 3c 22 b1 3d be 74 4b 23 be
       0.4691734 0.027456233 -0.18524602 -0.15946752

weight f4 [32, 32, 5, 5]
000000 4c c6 0a 3d 2a c8 0c 3d 9e be 47 bd 93 8b 9b bd
       0.033880517 0.03437058 -0.04876577 -0.07594981
000010 9f c5 ab bc b9 a4 4f 3c 2d 8b bc 3d 2d b7 42 3d
       -0.020968257 0.01267355 0.09206233 0.04753797
000020 24 80 15 bd b3 30 5f ba 47 70 67 3c 1e a3 94 3b
       -0.036499158 -0.00085140317 0.01412589 0.0045360466
000030 52 a1 47 3d 1d 98 6b 3d 8f 22 1f bd 7f cf 59 bd
       0.04873783 0.057518113 -0.038851317 -0.0531764
000040 3b 8f 83 bc a5 a1 27 3c 86 df 9d 3d 1a d6 84 3d
       -0.016059509 0.01023141 0.07708649 0.06486149
000050 bd 70 34 bd 80 b5 83 bd d7 4d 28 bb 3e f0 f0 3d
       -0.044052828 -0.06431103 -0.0025681162 0.117645726
000060 37 b6 dc 3d c7 30 3a 3d a8 14 2c 3c 81 7d 26 3d
       0.10776942 0.045456674 0.010502972 0.040647034
000070 1a 22 15 3d 99 e6 9d 3c 85 b5 2d 3d 86 fd 86 bc
       0.036409475 0.019274997 0.04240944 -0.016478311
000080 d3 a6 36 bd b2 40 fc 3c db 2c c4 3d f4 9c c6 3d
       -0.04459269 0.030792568 0.09578868 0.09697905
000090 d4 12 26 3d 56 67 a4 bd 53 ad 84 bd 4f 87 cd 3d
       0.0405453 -0.08027522 -0.064783715 0.10035574
0000a0 40 0c b1 3d 31 77 f9 3c f6 28 35 bd 32 e7 d5 bd
       0.086449146 0.030452343 -0.044228517 -0.10444488
0000b0 f7 26 65 bd 18 81 fa 3d a2 c4 17 3d 1f 8c 61 3d
       -0.055945363 0.12231654 0.037052758 0.05506527
0000c0 46 04 1e 3d 6c d1 c5 bb d0 00 17 bc 7d 1b 63 bd
       0.038578294 -0.006036928 -0.009216502 -0.055446137
0000d0 2d bc 73 bd 02 b1 54 bc 61 6f 96 bd f1 2f 6d bd
       -0.05950563 -0.012981655 -0.073454626 -0.05790705
0000e0 f0 f2 54 bd 95 c7 fd bc 1f eb a2 bd 7e 80 1c bd
       -0.051989496 -0.030978957 -0.07955002 -0.038208477
0000f0 2b 36 76 bb 09 6f 45 bd 32 5d a8 bd c3 a6 2f bc
       -0.0037568908 -0.048201595 -0.082209006 -0.010720911
000100 bb db c7 3c eb f9 58 3c 30 0e 58 bd 5a ff 90 bd
       0.024396768 0.013243179 -0.052747905 -0.070799544
000110 ec 92 0c bd 02 9f 43 3c e5 f3 8b bc da 33 4f 3d
       -0.034319803 0.011939766 -0.017084071 0.05058656
000120 ea 4d af 3b a6 15 7f 3b 8a 2c 79 bc 10 8e e8 3c
       0.0053498643 0.0038922816 -0.015208373 0.028388053
000130 8c 05 f8 3c 56 1f 82 3d 54 68 ae 3c 45 92 0a bc
       0.030276082 0.06353633 0.021289982 -0.008457725
000140 cc 67 80 bd 48 51 35 bd 66 24 2f bb d1 20 bf 3d
       -0.06269798 -0.04426697 -0.0026724576 0.09332431
000150 ca 3a 82 3c 10 56 b4 bb 4f 13 d9 bc 70 0e 4d bd
       0.015897173 -0.0055034235 -0.026498465 -0.050062597
000160 3f d2 9c bc 32 8c f5 3d 03 1c 72 3c ba 4b 23 bd
       -0.019143222 0.11989631 0.014777186 -0.03986714
000170 c8 9b fa bd cd e9 27 bd 30 d6 0d 3b 29 7f 14 3d
       -0.12236744 -0.040994454 0.0021642558 0.036254082
000180 68 19 9d 3c 7a fa 5b bc bc 0d b4 bd 80 d4 d5 3c
       0.019177154 -0.0134264175 -0.08791682 0.026102304
000190 93 62 02 3c 96 0e 10 3c 19 fa 95 bd e9 81 3e bd
       0.007958072 0.00879254 -0.07323093 -0.04651061
0001a0 9c 4d 82 bd da e8 8d bc 4b 32 ff bb 13 49 d4 bc
       -0.06362459 -0.017322946 -0.007787978 -0.02591375
0001b0 cd 9e f4 bc 99 6a 06 3d a8 fb 00 bd fb b9 bb 3c
       -0.029860878 0.032816503 -0.031489998 0.02291583
0001c0 b2 a0 4e bc fb 98 25 bb 16 43 46 3d e2 39 4e bc
       -0.012611555 -0.0025268185 0.048403822 -0.0125870425
0001d0 a3 25 91 bc 9a 3e fc bc dd 2a 18 3c f0 69 90 3d
       -0.017718142 -0.03079157 0.009287563 0.07051456
0001e0 ef 3c 82 bd 11 cb 8e bc 4c bf 2b 3d 5e bb ad 3c
       -0.063592784 -0.017430814 0.04193048 0.021207508
0001f0 9b fc f6 3c be 0c 7c bb 00 86 2f bc da 11 fc 3b
       0.030149749 -0.0038459743 -0.0107131 0.0076925578
000200 8d 19 13 bc 52 64 fd 3c 1b e8 89 3c 6c d5 5a bd
       -0.00897826 0.030931626 0.01683431 -0.05342619
000210 29 65 2e bb 7e 3f bc bc 8e 66 85 bb 7a 2d ff bc
       -0.002661059 -0.022979494 -0.0040710634 -0.031149615
000220 b6 62 09 3c c3 8b 4e bd 4b 39 29 bc 98 d6 ea bc
       0.008385351 -0.050426256 -0.010328601 -0.02866678
000230 53 d6 1b bd 12 1e b3 bd 00 31 0d be 81 00 20 ba
       -0.038046192 -0.0874597 -0.13788223 -0.0006103591
000240 07 50 b8 3c d2 fa a5 bc da 3c 1f 3d 69 f3 0e 3c
       0.022499098 -0.020261202 0.038876392 0.008725026
000250 05 02 3c bd 00 f7 a9 3c 3b 9d 32 bd 2e 69 12 bd
       -0.045900363 0.020747662 -0.043606978 -0.03574484
000260 fa 10 7a bd 24 51 bf bd ca 81 5c bd 21 f6 27 bd
       -0.061051346 -0.09341648 -0.053834714 -0.04100621
000270 f4 06 d3 bd 6c d1 28 bd c5 d7 64 bd 35 4e 29 bd
       -0.103040606 -0.041215345 -0.055869836 -0.04133435
000280 cd 45 22 bb ed ae 6f bd 28 4f dc bc 63 e6 95 3b
       -0.0024760843 -0.05851643 -0.026893213 0.0045745834
000290 e9 25 1e bd e2 3e 91 bd b7 1e 34 bd d5 32 76 bd
       -0.038610373 -0.07092072 -0.043974604 -0.06010707
0002a0 06 2d 04 3d 9f 8b 82 3c 9d 01 0e bd f9 c4 5c bd
       0.0322695 0.015935717 -0.034669507 -0.053898785
0002b0 a4 ec 3d bd 1a 6d 8d bc 6c 3d 11 3d 72 54 ba bc
       -0.046368256 -0.017263938 0.035458967 -0.022745345
0002c0 6d 53 94 bb d7 75 84 bd 4c 6d 96 3c f8 dc 7d 3d
       -0.0045265467 -0.06467789 0.018362664 0.06197831
0002d0 7f 73 b2 3c 68 7b 08 3c 77 0f 07 bd 8d 9d a9 3c
       0.021783588 0.008330204 -0.032973733 0.020705009
0002e0 cf 83 8c 3d 24 cd f0 3c 53 e1 64 3d 56 b4 88 3c
       0.06861078 0.029394694 0.05587895 0.016687553
0002f0 da 40 56 bd ff 85 b9 3c 2f c2 49 3d 43 98 ae 3d
       -0.05230794 0.022646902 0.049257454 0.08525135
000300 07 fc 9e 3d af 30 69 bd 84 c6 a6 bb e9 d7 dc bc
       0.07762914 -0.056931194 -0.005089583 -0.026958423
000310 df 6d 17 bc 77 f7 e9 3b d5 0f 28 bd 90 1a 9f bc
       -0.009242504 0.007140096 -0.041030724 -0.019421846
000320 43 64 19 3d 0f 68 1f 3c 9c 5b 56 bb 79 23 0e 3d
       0.037449133 0.009729399 -0.0032708412 0.034701798
000330 42 96 1b 3d 4d 74 09 bd 54 51 97 bc cb cd 2d 3d
       0.037985094 -0.03355818 -0.018471397 0.042432588
000340 84 04 cd bb a4 c2 11 3c b9 0e a5 bc a2 49 b6 bc
       -0.006256642 0.008896504 -0.020148622 -0.022251908
000350 66 0d 5e 3d 2e a5 76 3d da 74 f8 bc dd e2 84 bc
       0.054211996 0.06021612 -0.030329157 -0.016221458
000360 d9 49 9f 3b f5 be 05 3d 22 ce d4 3d 51 b0 83 3c
       0.0048610982 0.032652814 0.10390879 0.016075285
000370 ca 97 04 bd 70 62 33 bd 7a 0f 18 3b 2c 85 a9 3d
       -0.03237132 -0.04379505 0.0023202584 0.08277354
000380 ca d9 e3 3c 6c 51 bb 3c fe 9c 9d 3c e0 c1 93 bb
       0.02781381 0.022865973 0.019239899 -0.0045091957
000390 75 05 06 3b d6 87 4c bb 85 a7 5c 3c 6a 50 c1 3b
       0.002045003 -0.0031208894 0.013467674 0.0058994787
0003a0 a7 89 93 3c e5 93 6f 3d 9d 93 62 3d 31 9e f3 3c
       0.018009974 0.058490653 0.055316556 0.029738517
0003b0 78 9b f0 3c b0 69 18 bd 3e 1a 87 3d 17 ec 1d 3d
       0.029371008 -0.037210166 0.06596802 0.03855523
0003c0 92 5f 14 bd 6f c2 0f bc af 55 86 bd b8 34 b9 bb
       -0.036223955 -0.008774384 -0.065593116 -0.0056520365
0003d0 cc d6 3b ba ab 16 0d 3d a2 f1 10 3d 21 e4 3a bd
       -0.0007165491 0.034445446 0.03538669 -0.045627717
0003e0 81 f8 72 bd 25 01 11 bc 8f 93 10 3d 09 e0 26 bc
       -0.059319023 -0.0088503705 0.035296973 -0.01018525
0003f0 18 0e 0a 3d f1 d4 8f 3d 2a 29 74 3d a6 88 72 bc
       0.033704847 0.07023037 0.05960957 -0.014803087

bias f4 [32]
000000 08 67 48 be f3 84 38 be 1d cb 53 be 44 f6 7f bd
       -0.19570553 -0.18019466 -0.2068295 -0.062490717
000010 7c 81 d6 3b 43 aa 91 be 5a c0 ba be e5 6f e2 bd
       0.0065461975 -0.28450212 -0.36474878 -0.110564984
000020 20 6c c0 bd 65 e0 63 bd 7e 25 2a bd d3 e4 44 bd
       -0.09395623 -0.05563392 -0.04153966 -0.048069786
000030 71 e0 b7 bd 32 80 0a be 7e 4c 5a be e5 66 1c be
       -0.08978356 -0.13525465 -0.21318242 -0.15273626
000040 d9 2b 27 be f3 6d 21 be 61 6b a1 bd 41 2a 96 bb
       -0.1632532 -0.15764599 -0.07881809 -0.004582674
000050 33 37 29 bc aa 7e 29 be 54 6e cc bd 61 29 85 be
       -0.010328102 -0.16552225 -0.09981981 -0.26008132
000060 c2 89 fd bc 09 6d 9e bc b4 32 e8 bc de 3a 13 be
       -0.030949477 -0.019339101 -0.02834449 -0.14377925
000070 d5 3e 2d be 20 51 3f 3d 9e 8f 46 be 42 88 05 bc
       -0.169185 0.046708226 -0.19390723 -0.008150162

weight f4 [64, 32, 5, 5]
000000 34 65 89 bc 96 7c b7 b9 84 7e 42 bd 04 39 81 bd
       -0.01677189 -0.00034997304 -0.047483936 -0.06309703
000010 7c 9b 1c bc 18 fb 99 3c f1 4a 68 3d de 3c c9 bc
       -0.009558555 0.018796489 0.056712095 -0.024565157
000020 7e 7d df bd 3e 27 5d 3d 85 b9 89 bd ad de 10 bd
       -0.109126076 0.053992502 -0.06724838 -0.03536861
000030 83 e6 c3 bd be 4f 71 3b 57 95 62 3d 3c 6c e1 bc
       -0.09565451 0.0036821212 0.055318203 -0.02751743
000040 fe 21 22 bd a8 bf 4e bc 52 a7 c3 3c 47 76 88 3d
       -0.0395832 -0.012618937 0.023883495 0.066631846
000050 8f 42 95 bd 43 33 1a bd 8c 50 ce bb d2 2d 5e ba
       -0.07288086 -0.037646543 -0.006296223 -0.00084754557
000060 be e4 8c 3c 13 a8 10 3d 93 27 9f bc ba 99 bd bc
       0.017198917 0.035316538 -0.01942805 -0.023144592
000070 24 62 1f 3c c6 d6 d3 3c 9d dc a3 bc eb f5 58 bd
       0.009727988 0.025859248 -0.020002658 -0.0529689
000080 a3 ee 2a bd 5f 67 c6 3c 10 fc 03 3d 85 41 17 bd
       -0.041731488 0.024219213 0.032222807 -0.03692772
000090 1b 61 14 bd c2 d4 b8 3b 62 61 b4 ba 22 18 43 3d
       -0.03622542 0.005640597 -0.0013761932 0.047630437
0000a0 75 b4 22 bd b1 ac 4f bd 97 f2 ff bb 02 54 0e 3d
       -0.03972288 -0.0507018 -0.0078109014 0.034748085
0000b0 10 21 71 3d db 0e b8 3b 8f 6e 71 3c 17 22 ca 3a
       0.05886942 0.0056170053 0.014735832 0.0015421537
0000c0 f4 1e 6d bb c9 77 df bc 63 ee 52 bd e0 65 36 3b
       -0.003618178 -0.027278798 -0.051496875 0.0027831718
0000d0 58 74 3f bd 05 a6 19 bc 76 00 1e 39 8d d5 0a ba
       -0.046741813 -0.009377961 0.00015068226 -0.0005296104
0000e0 45 0c 1a bd fc 57 4a 3d 45 28 7f 3b b1 51 9c 3c
       -0.037609357 0.049400315 0.0038933915 0.019081922
0000f0 64 ac bc bd ae 52 71 bd 73 67 61 3a 7e bd c0 3d
       -0.092125684 -0.05891674 0.0008598484 0.09411143
000100 c7 b9 60 3d 43 55 42 3c f2 5f 2d bd a0 43 e9 3c
       0.05486467 0.011861148 -0.04232783 0.028474629
000110 af 57 7b 3d c0 08 31 3c 01 8e 78 bd 19 0c d2 3c
       0.06136292 0.010805309 -0.0606823 0.025640534
000120 58 9a 96 3d 6f 32 b6 3d b5 6a 89 bc e7 ce 50 bc
       0.073536575 0.08896338 -0.016774515 -0.012744642
000130 ff 25 6a 3d d4 a7 7a bd af 0a 31 3c 73 1d 7c 3c
       0.057165142 -0.06119521 0.01080577 0.015387881
000140 a1 99 ad 3d b4 72 9f 3b 74 6c f2 bc 5f 21 f2 bb
       0.08476568 0.0048659686 -0.02959273 -0.007389232
000150 2c 97 b9 bc e5 ca 18 3b 4f 1e b8 bd e1 15 24 bd
       -0.022655092 0.0023314294 -0.08990156 -0.040059928
000160 73 81 7b 3c 1d 8a 31 3d 68 73 ac bc eb 50 eb bc
       0.015350687 0.043344606 -0.021051124 -0.028725108
000170 e6 ca 6f 3c 82 ae 09 39 32 34 8d bc e7 2f e8 3c
       0.014635777 0.00013130347 -0.017236803 0.028343154
000180 ea b5 c6 3b 61 b8 68 3c 78 8a cb 3c 96 8d b7 bc
       0.0060641663 0.014204116 0.0248463 -0.02240638
000190 05 0b c8 3c 78 d2 41 ba 63 11 46 3b 33 40 91 3c
       0.024419317 -0.0007393728 0.0030222766 0.017730808
0001a0 d0 c1 2a 3c b1 fa 45 3c b1 91 39 bc 5d a8 58 bd
       0.010422185 0.012083695 -0.011326239 -0.05289494
0001b0 a8 4b 3f 3c 37 1d 03 bd 10 a3 0e bd 08 c8 41 3d
       0.011675753 -0.032010283 -0.034823477 0.047309905
0001c0 7e c5 27 bc 9d 38 60 3d 7b 3c 62 3d 41 49 0d 3d
       -0.010239957 0.05474149 0.05523346 0.03449369
0001d0 5a 2d 10 bd 4f 19 55 bc a1 3f 2b bc e3 c3 af bb
       -0.0351995 -0.013006522 -0.010452182 -0.0053639277
0001e0 a9 2c a1 3c 80 08 b6 3d 9b bd dc bc c0 b1 fa 3c
       0.019674616 0.0888834 -0.02694588 0.030602336
0001f0 7f 6a 96 bb 08 fc 44 bd 65 2d 18 bc 9c b1 89 3c
       -0.004590332 -0.04809192 -0.009288167 0.016808324
000200 35 14 e3 bb d5 5b fb bc d1 c2 d3 3c c4 9f 82 3d
       -0.006929899 -0.030683437 0.025849732 0.06378129
000210 d0 f6 05 3d da 1b fe 3d df c6 2a 3d d7 29 12 bd
       0.032706082 0.12407656 0.041693565 -0.035684433
000220 c0 25 33 bd cb 64 06 3d 71 e0 ce 3d e2 a3 0a bc
       -0.043737173 0.032810967 0.101014026 -0.008461924
000230 f8 b1 00 bc 07 af 58 3c 37 b8 88 bc 75 2e 10 3c
       -0.007854931 0.0132253235 -0.016689403 0.008800139
000240 ee 63 f8 3c 92 28 ec bb cb 25 03 3d 59 f9 2e 3d
       0.030321088 -0.007206985 0.032018464 0.042718265
000250 37 29 28 bc a7 d6 3f 3d ed 07 15 3a c2 08 2f bd
       -0.010263733 0.046835568 0.000568508 -0.04273296
000260 ab d3 ea bb 23 10 18 3d 89 a9 fb 3b 45 b5 88 3d
       -0.007166346 0.037124764 0.0076801223 0.066751994
000270 ae 73 40 3d 35 6f be 3c 64 b6 34 3c b5 08 92 3d
       0.04698532 0.023246387 0.011029813 0.07130567
000280 1e 39 96 bb 42 ea 48 3d ed 39 49 3d 60 de 58 3d
       -0.0045844456 0.04905153 0.049127508 0.05294645
000290 ec 6e ca 3d ab 1a d5 3c 93 b5 b5 bc b5 52 80 3c
       0.09884438 0.026013693 -0.022181308 0.015664438
0002a0 79 4c a3 3b 76 35 3d 3b 92 7a 8c 3c f1 bc 75 bc
       0.0049834815 0.0028870977 0.01714829 -0.01499866
0002b0 2e 5f 74 3d 3b 82 88 3c d8 44 62 3d 85 66 03 3d
       0.059661083 0.016663661 0.055241436 0.032080192
0002c0 56 31 a1 3c 88 6f 16 3d 07 1b 3b bd 88 dd 82 bd
       0.019676846 0.03672746 -0.045680072 -0.0638991
0002d0 22 1f 9b bd 0c fc 7f 3d 75 3c 03 3d f5 51 44 bd
       -0.075742975 0.06249623 0.03204008 -0.047929723
0002e0 c5 0a 0e bc 70 2b 87 bd 4a c2 48 bd 95 18 5c bd
       -0.00866956 -0.06600082 -0.049013413 -0.05373438
0002f0 16 84 f3 bc d1 ec b6 3c a1 94 b6 bc 9c fd 52 bd
       -0.02972607 0.02232972 -0.022287669 -0.051511392
000300 e3 66 f3 3d 07 c5 6a 3c c9 e8 62 bd 63 17 bf bd
       0.118848585 0.014329202 -0.055397782 -0.093306325
000310 f6 c0 51 bc e3 9e c5 3c 02 08 e1 3c eb 23 39 3d
       -0.012802353 0.024123615 0.027469639 0.04520027
000320 28 0c ee bb 3a 19 d4 3d ad 6e 56 bc 94 9f ec b9
       -0.0072646327 0.10356374 -0.013087911 -0.00045132323
000330 13 2e ef bc 11 a5 08 bd 49 5c 8a 3d 8d b0 81 bd
       -0.029196775 -0.033360545 0.06755883 -0.063325025
000340 ee af b3 bc 5e 9b cb 3c 3e ca 10 3d 90 26 f8 3c
       -0.021934476 0.024854358 0.035349123 0.030291826
000350 c0 a7 95 bd f7 b0 84 b9 7f 25 20 bd e7 4e 42 bb
       -0.073073864 -0.0002530885 -0.03909826 -0.002964908
000360 08 20 cf 3d 27 ed 59 3d d9 93 25 bd e8 d7 5b bc
       0.10113531 0.05320468 -0.0404242 -0.013418175
000370 81 44 67 bb d2 b9 27 3d 00 b1 90 3c c4 ad 9d bc
       -0.0035288634 0.040948696 0.017662525 -0.019247897
000380 69 53 df 3c a8 a5 b5 3c 18 6b 45 3d d2 d1 f1 3b
       0.027261453 0.022173718 0.048197836 0.007379749
000390 ea 1c e0 3c b0 a1 82 3c 62 a1 66 bd fd 1b 1c 3d
       0.027357537 0.01594624 -0.05630625 0.03811263
0003a0 81 78 2b bd 45 58 d7 bc f3 b4 38 3d 84 1a a0 3d
       -0.04186297 -0.026287207 0.04509444 0.078175575
0003b0 49 36 ca bd 1a 12 64 bc 3e 31 ac bc 7f fd 10 bd
       -0.09873635 -0.013920331 -0.021019574 -0.035398003
0003c0 15 ae 31 bd 8a 33 7b 3c 54 a5 c9 3c 76 42 5b 3d
       -0.04337891 0.015332112 0.024614967 0.05353018
0003d0 8e 07 fe bc 1c 90 2d 3d 9a 44 3b 3c bb 00 b3 3c
       -0.031009462 0.04237376 0.01142993 0.021850934
0003e0 ff 5a 5b bd ea 72 f3 3c 81 d5 97 bd de e9 e8 3a
       -0.053553578 0.029717881 -0.074137695 0.0017769893
0003f0 33 a8 ea bc 00 11 3a 3d 8c 44 82 bd 32 62 0d 3c
       -0.028644657 0.04542637 -0.063607305 0.008629369

bias f4 [64]
000000 f0 15 f4 bd c4 51 0f be b4 ca da bd b5 c0 68 bd
       -0.11918247 -0.13996035 -0.10683194 -0.056824405
000010 4b f7 67 bd ff 40 13 be 84 a0 84 bd da c1 80 bd
       -0.05663232 -0.14380263 -0.064759284 -0.06286974
000020 72 09 b2 bd cc 7e 81 bd 63 cc 19 be e3 bc dd bd
       -0.08693208 -0.06323013 -0.15019374 -0.10827043
000030 2f 3c d5 bd 19 22 bc bd d8 e6 e8 bd 60 f9 ad bd
       -0.1041187 -0.09186191 -0.11372155 -0.0849483
000040 b6 b7 14 be b3 bc d5 bd 88 d4 eb bd 3b d7 f1 bd
       -0.14523205 -0.10436382 -0.115151465 -0.1180863
000050 83 de 09 be ec 4e 9e bd e0 42 e4 bc 68 b2 07 be
       -0.13463788 -0.07729897 -0.02786392 -0.1325165
000060 fd 11 88 bd 00 1b 8d bc 89 28 c2 bd 65 9e 8b bd
       -0.06644056 -0.017224789 -0.09480388 -0.06817321
000070 44 6e be bd d4 56 c1 bd 09 f4 05 bd 48 e1 8e bd
       -0.09298375 -0.09440389 -0.032703433 -0.06976563
000080 06 90 d6 bc ba b4 69 bd 09 dd d3 bd 67 7a d8 bd
       -0.026191723 -0.05705712 -0.103448935 -0.105702214
000090 e6 cf 8c bd 14 a3 b8 bd fd 8c c0 bd 18 b0 0c be
       -0.06875591 -0.0901548 -0.094018914 -0.1373905
0000a0 04 69 21 be 2e ff da bd a0 27 ed 3b ce 45 da bc
       -0.15762717 -0.10693203 0.0072373897 -0.026644614
0000b0 cf 4f 8f bd 4c 6c 2e bd e0 02 81 bd a9 ca d4 bd
       -0.06997644 -0.04258375 -0.062993765 -0.10390217
0000c0 80 48 63 bd 75 67 3d bd a5 98 04 be b0 80 1b be
       -0.055489063 -0.046241242 -0.12948854 -0.15185809
0000d0 90 3b ab bd 98 11 24 be 77 92 72 bc 85 d3 00 3c
       -0.0836097 -0.16022336 -0.014805428 0.00786293
0000e0 82 87 90 3b c8 8e 17 be 12 77 03 bc 66 d1 fd bd
       0.004410685 -0.1480056 -0.008023994 -0.12393455
0000f0 ab 45 db bd 01 78 8b bd 57 c0 60 bd 0e 8f 2b bd
       -0.107066475 -0.06809998 -0.05487093 -0.041884474

weight f4 [64, 1024]
000000 87 86 58 bd 3e ba 94 bb 3c c6 10 3c 1f 41 fb 39
       -0.05286267 -0.0045388034 0.008836325 0.0004792297
000010 a7 18 83 3b 33 13 e9 3c 0d 3a 91 3c 0f e5 b3 bb
       0.0040007415 0.028451538 0.017727876 -0.0054899524
000020 e6 25 f7 bb fe 36 7d 3c f1 51 2e 3d ec 0b 8b bb
       -0.0075423596 0.015455006 0.042558614 -0.0042433646
000030 11 da 71 bd 58 bf 84 bd 7c fa 93 3b d5 5d 3f bd
       -0.059045855 -0.064818084 0.004515944 -0.046720345
000040 9b 85 31 bd 4e cd b6 3c 27 11 25 bd 7f 99 f4 bc
       -0.043340307 0.022314694 -0.04029956 -0.029858349
000050 cc 2f a8 bc 7d 23 58 bc 12 0e 76 bc 15 bb 60 bc
       -0.020530604 -0.013192055 -0.015018003 -0.013716479
000060 d5 6f 34 bd 1e 37 08 3d 26 9f c7 bc e9 71 30 3d
       -0.044051964 0.03325569 -0.02436788 0.043077383
000070 12 a6 90 3c c8 ff 25 3c 97 d4 2a 3d fb 74 e6 bb
       0.017657313 0.010131784 0.041706648 -0.007032988
000080 e9 e6 52 3c d3 42 1a 3c a1 04 45 bd 8c 13 b1 bc
       0.012872436 0.009415346 -0.048100118 -0.021615766
000090 c5 b0 5b bd 51 3f fd 3b a4 60 73 3d 14 10 13 3d
       -0.053635377 0.007728495 0.059418336 0.035904005
0000a0 b5 35 d4 bc 3b 40 32 bd af 4c 5f bd ca 90 73 bc
       -0.025904516 -0.043518286 -0.05451649 -0.014866063
0000b0 7a 20 0b 3c 8f 71 9e 3c c1 91 07 3d 1e 4e bd bc
       0.00849163 0.019341258 0.033097986 -0.023108538
0000c0 76 c8 0b bc 43 b0 d3 bc e5 9c 16 bd ec f4 6a bc
       -0.00853168 -0.025840884 -0.03677072 -0.0143406205
0000d0 a4 d6 12 bd 7a c0 06 bd c3 1c 33 3d 43 3a 8e 3c
       -0.03584923 -0.032898404 0.0437286 0.017361766
0000e0 c5 88 54 bd 29 aa 0b 3d 84 ac 4b 3d 73 20 a5 3c
       -0.051888246 0.034097824 0.04972507 0.020157075
0000f0 d0 ff dc 3c 81 11 2a 3d 3f 9b f7 3d a3 c4 89 3d
       0.02697745 0.0415206 0.12090158 0.067269586
000100 33 79 20 bc e9 c0 a7 bc 52 f1 af 3c 24 d4 e2 3c
       -0.009794521 -0.020477729 0.021477375 0.027689047
000110 65 3b 1d bd 0e 7e cc bc 94 4b 9f 3c b0 88 a1 3d
       -0.03838672 -0.024962451 0.019445218 0.07887399
000120 39 04 07 3c fa 1b 83 3d 6e 5e 24 bc fc 1e 04 3d
       0.008240753 0.064018205 -0.010032279 0.03225611
000130 56 e3 76 bb f5 a8 98 3c 88 91 16 3c b2 30 8c 3b
       -0.0037672124 0.018635252 0.009189971 0.004278266
000140 ff 11 17 bd 8b 40 8a 3d 47 50 5a 3c 52 01 10 bd
       -0.036882397 0.06750592 0.013324804 -0.03515751
000150 8f 6e 21 3c 7d a3 92 bc 71 9a 3a 3d 70 fb e0 3b
       0.009853019 -0.017900223 0.045557443 0.006865911
000160 25 5a bb 3c 66 19 a5 3c ff e5 4f bc 91 d1 96 3c
       0.022870133 0.020153712 -0.012689113 0.018410476
000170 86 cd 2f 3d 1c dd 52 3d 4a 0c 62 3d dd db 61 3d
       0.04292061 0.051480398 0.0551875 0.05514132
000180 87 98 08 bb 64 14 a3 bb e4 af 1d bb 2c 05 e0 3b
       -0.0020842867 -0.004976796 -0.0024061138 0.006836554
000190 e3 b8 1f 3c 1f 9b 64 bc 8a 37 01 bd 2a 80 1c bd
       0.00974867 -0.013952999 -0.031547107 -0.038208164
0001a0 45 33 1f 3d 09 20 23 3d 6e 08 dc 3b ed f0 98 3d
       0.038867254 0.039825473 0.006714872 0.07467828
0001b0 db 4c 97 bc 65 78 a4 3c 30 41 20 3d 7b 23 33 3d
       -0.018469265 0.02007694 0.039124668 0.04373501
0001c0 17 ef c0 3a e9 de 4f bd f1 4c 28 bd 7d 40 f7 3c
       0.0014719692 -0.050749693 -0.041089002 0.030182118
0001d0 74 68 14 3d 54 39 c7 bc ab 4b 5b 3d 46 03 52 3d
       0.036232427 -0.024319328 0.05353896 0.051272653
0001e0 22 c8 00 3c 75 ff bb bc 6e 7e 06 3d 7a 41 58 3d
       0.007860215 -0.02294896 0.032835416 0.05279682
0001f0 f5 ca 74 3d 1d 0c bd bc dc 8b b3 3c a9 6c 53 3c
       0.059763867 -0.023077065 0.021917276 0.012904325
000200 8b 36 ba 3a 1e 8c 56 bb e5 fe 14 3d 34 4f 40 bc
       0.0014206929 -0.0032737325 0.0363759 -0.0117376335
000210 78 f8 4d 3d 75 71 07 3d aa 57 ea 3c e8 0c 22 3d
       0.050285786 0.033067185 0.028606255 0.03956309
000220 0b 13 83 3d 7a 90 b1 3d 70 f4 87 3c e7 4f 9b 3d
       0.064001165 0.08670135 0.01659605 0.075835995
000230 d0 f6 38 bd 74 8f 01 3b 62 2e 06 3b 60 e7 01 bd
       -0.045157254 0.0019769343 0.0020474424 -0.031714797
000240 30 b6 d2 3b ba af bc bc b5 d7 26 3d e2 15 c5 bc
       0.00643041 -0.023033012 0.040733058 -0.024058286
000250 ab 7a 70 39 98 ae ec 3c 24 92 ab 3d 46 bd 08 3d
       0.00022933881 0.028891847 0.083774835 0.03338363
000260 99 b6 b0 3c fd d3 b6 3d 1d 5d df 3c a8 fc 3a 3c
       0.021571444 0.08927152 0.02726608 0.011412777
000270 ee 63 12 bd 04 df 98 3b 4c e8 8f bc a9 78 5f bd
       -0.03573983 0.0046652574 -0.017566822 -0.05455843
000280 01 78 9a 3c fa 2e 57 bc 5d 54 92 bd 75 82 b4 3b
       0.01885605 -0.013133759 -0.07144997 0.0055087158
000290 cd 2d 09 3d eb 28 28 bd 5f 1b ca 3b 4b 01 93 3d
       0.033490945 -0.041054647 0.0061678137 0.07177981
0002a0 dc 08 07 3d 39 78 5c bc ec e1 bb bb 61 e9 88 3d
       0.032967433 -0.013456398 -0.005733719 0.066851385
0002b0 60 c7 38 3c 9b 79 2e bd 87 f8 a5 bb 49 6d 4e 3d
       0.011278003 -0.04259644 -0.005065027 0.05039719
0002c0 3b 95 80 bb 33 12 87 3c 3d b4 bd 3a 6f b2 8e bc
       -0.0039240397 0.01648817 0.0014473271 -0.017419068
0002d0 5c 7e 03 bd 43 46 6e 3c fb 9f 04 bd 2d f3 9a bc
       -0.032102928 0.014543119 -0.03237913 -0.018914783
0002e0 c0 0f ec 3a 89 70 62 3b 45 79 63 bd c0 80 c5 bc
       0.0018010065 0.003455194 -0.055535574 -0.024109244
0002f0 af 00 c0 3c 02 ec 9f 3c 20 44 9d 3d c9 67 62 3d
       0.023437826 0.019521717 0.076790094 0.05527476
000300 98 0e 32 bb 3c 08 57 bd ef 50 43 3c 6e 42 69 bb
       -0.0027169343 -0.052498087 0.011921152 -0.0035592574
000310 a6 a8 ad 3c 1f 26 95 bd 12 0b e9 bc f2 32 22 bd
       0.021198582 -0.07282662 -0.028447662 -0.039599366
000320 5c 08 09 3d 75 ae d4 bb b6 7a 0d 3c a9 67 4f 3c
       0.033455238 -0.0064905235 0.008635214 0.012658992
000330 22 dc b7 3d 51 3d 28 bd bb 9c b3 3c 93 8f e4 bc
       0.08977534 -0.0410741 0.02192532 -0.027900493
000340 07 d1 73 3c 1a 21 06 bd 92 f6 0b bc 2a 7e a0 bb
       0.014881379 -0.03274641 -0.008542674 -0.0048978524
000350 c2 a6 a7 ba de 8c 2d 3d fe ab 8d 3c 5c 37 62 3c
       -0.0012790787 0.04237067 0.017293926 0.013807144
000360 58 51 83 3c 9d f4 a9 3c 3a ef b5 3c 66 f5 84 3d
       0.016029999 0.020746524 0.022208799 0.064921185
000370 47 4e 7e bd 1a 57 36 bd 65 a2 d6 bb 01 de 04 bd
       -0.06208637 -0.04451666 -0.0065501207 -0.032438282
000380 26 d0 36 3d 38 85 00 3d 49 fb 83 3d 1a 05 74 bc
       0.0446321 0.031377047 0.06444413 -0.014893794
000390 df d7 d4 3b a6 5d 35 3b 5f 03 03 bd d1 9c 1a 3c
       0.0064954604 0.0027674227 -0.031985637 0.009436802
0003a0 9e f7 2c 3c 90 c0 71 bd e1 40 f7 3c 14 c3 a7 bd
       0.010557083 -0.059021533 0.030182304 -0.08191505
0003b0 9d f8 c7 bc 80 81 47 bd cc d3 09 3c aa 22 af 3b
       -0.02441054 -0.048707485 0.008412313 0.0053447085
0003c0 c3 0e 95 ba e9 10 1e 3b 73 75 04 bc 68 6a fb bc
       -0.0011372197 0.0024118966 -0.008084643 -0.030690387
0003d0 73 7a 2c 3d e7 69 6d bc d6 02 05 bd 76 b4 88 3c
       0.042108964 -0.014490581 -0.032473408 0.016687613
0003e0 75 84 3b bb 96 fc 4a bd ad 6d 07 3d cb 45 13 bd
       -0.0028612886 -0.04955729 0.03306358 -0.03595523
0003f0 f6 8e bd 3c b2 9a 87 3d 2f 2f 88 bc b7 cc b6 3c
       0.023139458 0.06621303 -0.016624061 0.022314413

bias f4 [64]
000000 7c e6 96 bc 62 6d 12 3c ee fb ed bc ce 5b 92 3c
       -0.01842045 0.008937212 -0.029050793 0.017866042
000010 5b 52 d8 bc 90 7e 52 3d 54 3f 3f bc 3b 75 61 bc
       -0.026406458 0.05139023 -0.011672813 -0.01376086
000020 1b db 97 3c c3 94 e0 bb 60 71 ce bc 2b 60 44 bd
       0.018537095 -0.0068536713 -0.025200546 -0.047943275
000030 2a fe 79 3c f5 34 60 3d 73 ec 10 3c 49 8c bb bb
       0.015258351 0.054738004 0.008845436 -0.0057235104
000040 b6 8a df 3c 36 3b cb 3b ab a1 ba bc a5 fe 1f 3d
       0.027287822 0.006202127 -0.022782167 0.039061207
000050 bb 10 43 bd a9 e0 c0 3c 81 05 91 3c e8 9a 18 bd
       -0.047623377 0.023544626 0.01770282 -0.037257105
000060 92 c7 b3 3c f8 a9 10 bd eb 25 99 34 51 15 0b bd
       0.021945748 -0.035318345 2.852606e-07 -0.033955876
000070 9c 6f a8 3d a2 05 f1 3c 53 97 8c bc 02 61 a0 3c
       0.08224413 0.029421631 -0.017162 0.019577507
000080 bf db 6e bd e1 52 35 3d 03 87 ca 3b b6 02 46 bd
       -0.058315035 0.044268493 0.0061806454 -0.04834243
000090 95 4b e8 bc 32 ed d0 3c e5 12 43 bd a5 d6 54 bd
       -0.028356353 0.025503729 -0.04762544 -0.051962513
0000a0 e2 2f 54 bd ca 0c cb bc 15 6f 37 bd 65 df 42 bd
       -0.051803477 -0.024786372 -0.04478367 -0.047576327
0000b0 07 66 a6 3c 45 ee 25 bc 40 db 47 bc 0c bb 3f bd
       0.020312322 -0.010127609 -0.012198269 -0.04680924
0000c0 db 66 07 bd 09 f8 c8 bc 1c d0 12 3d f5 d1 8a 3d
       -0.033057075 -0.024532335 0.035843 0.067783274
0000d0 7e e6 03 3d a1 3f a0 3a 85 79 24 ba 76 81 a8 bb
       0.032202236 0.0012225994 -0.00062742113 -0.005142386
0000e0 bb 34 fb 3b 64 e3 2a bd c5 a7 56 bd 15 40 8a 3c
       0.007666198 -0.041720763 -0.05240609 0.01687626
0000f0 78 6b 23 3d 6a 66 2b bd 8e 97 1a 3d e4 22 07 3d
       0.039897412 -0.041845717 0.03774219 0.03299226

weight f4 [10, 64]
000000 28 18 6b 3d 41 09 83 3e dc c1 0b be 7e 4c 37 bd
       0.057396084 0.25592998 -0.1364817 -0.044750683
000010 f5 fc 63 be 9c 03 8a be ae 2e ed 3d 83 e9 88 3e
       -0.22264464 -0.2695588 0.11581169 0.26740655
000020 b2 8e 7f 3e 88 62 8a 3d 5c 78 88 be e1 23 93 3e
       0.24956778 0.067570746 -0.26654327 0.2873831
000030 ec e6 ca bd a4 2f 5b 3d 7f 96 a0 be 18 3b 89 3e
       -0.09907326 0.05351223 -0.3136482 0.26802897
000040 49 be 76 3e b2 0c a5 be e7 17 7e 3e 4e eb 7c be
       0.24096026 -0.32236248 0.24813806 -0.24699137
000050 31 b1 45 3d 68 ed 6c be c9 16 a6 bc a1 0f 64 3e
       0.048264686 -0.23137438 -0.020274537 0.22271587
000060 08 e5 17 be 30 06 2b bd fe 32 5b be d8 79 0a be
       -0.14833462 -0.041753948 -0.2140617 -0.13523042
000070 cb 3c 94 be 90 bd 07 bd 7b 54 29 bd cc 67 3a 3d
       -0.2895263 -0.033139765 -0.041340332 0.045509145
000080 1e 2a b2 3e b7 7a 9a be f7 fb b2 bd 99 53 96 3d
       0.34797758 -0.3017175 -0.08739465 0.07340164
000090 36 68 6b be 82 da ed bd 2e ed b6 3e f9 4a 8f be
       -0.22988972 -0.11613943 0.3572783 -0.27986887
0000a0 8d 6e 97 3e 59 31 b3 bd 19 11 ce 3d fe 69 5d 3e
       0.2957653 -0.08749647 0.10061855 0.21622464
0000b0 84 ce 29 3c 23 a3 8d be cb 1a 8d 3d a1 3b fe bd
       0.010364179 -0.27663526 0.06889876 -0.12413717
0000c0 0f 7b a6 3e 7c e3 b5 bc 9e 90 9b be 7b b4 20 be
       0.3251576 -0.0222032 -0.30383772 -0.15693848
0000d0 04 31 0a 3e f8 a7 37 bd 26 83 1e 3e 1c 29 1f 3d
       0.1349526 -0.04483792 0.15479717 0.038857564
0000e0 d9 35 70 3d 05 93 b8 3e 63 ff 3e 3e 14 58 ab be
       0.058645103 0.36049667 0.1865211 -0.33465636
0000f0 95 b8 34 be 17 86 07 3c 03 40 04 be 3f 61 55 3d
       -0.17648537 0.008271716 -0.12915044 0.052094694
000100 f9 49 35 3e 7c bd a2 bd d1 33 3d 3e 5d 22 94 be
       0.17704 -0.079462975 0.18476798 -0.28932467
000110 e6 6a 1c bd 5a 22 8e 3d 96 73 09 be dd a9 9f be
       -0.038187884 0.06940146 -0.13422999 -0.31184283
000120 af 0e be be d2 22 71 b9 6c 0f ab be 0e f8 6d be
       -0.37120578 -0.00022996523 -0.33410203 -0.23239157
000130 4a 3a ec bd 03 b9 85 be 28 e2 b8 3e 3c 5b e1 bd
       -0.11534555 -0.26117715 0.36110044 -0.1100373
000140 2a b3 a8 bd c7 36 9f 3e dc 1f be 3d a9 07 55 be
       -0.08237298 0.3109648 0.092834204 -0.20803703
000150 3c 8b 47 be 66 2e 15 be 57 cf 82 bd c3 44 91 3e
       -0.19486707 -0.14568481 -0.06387203 0.28372774
000160 3b 05 00 3f 32 fd a3 3e 40 6d 72 3e 91 70 e7 3d
       0.5000798 0.3202911 0.23674488 0.11300767
000170 96 c7 a5 be 72 e2 87 be f7 f3 db bd a8 e8 4a 3e
       -0.32378834 -0.26539952 -0.10739892 0.19815314
000180 99 95 a3 3e cf 2c 0c 3e 5a dc e0 bd ee 1e 99 be
       0.3195007 0.13688968 -0.10979529 -0.2990641
000190 d8 d9 0c be 3f f4 26 3e 18 48 9d be 1b e8 eb bd
       -0.13754976 0.1630411 -0.30719066 -0.1151888
0001a0 09 2e 1f 3e 5e 02 2a bd 74 7b b1 3c 64 c7 b0 3d
       0.15544905 -0.041506164 0.021665312 0.08631781
0001b0 fe 8e af be d0 0f 94 be 82 84 f0 bd 30 91 ac 3e
       -0.34288782 -0.28918314 -0.11744024 0.3370452
0001c0 5f 3c 48 bd 43 25 55 3e 87 df 7a be 33 fd 7f be
       -0.0488857 0.20814995 -0.24499331 -0.24998932
0001d0 0a 89 e8 be 2b 57 97 3e 0c cf 72 be 49 c9 1b be
       -0.45417053 0.2955869 -0.23711795 -0.15213503
0001e0 3f 65 f0 3e 37 f2 60 3e d0 1f c4 3b c5 4a d1 3e
       0.46952245 0.21967398 0.0059852377 0.40877357
0001f0 a3 83 05 bf 1b d9 3a be 8a a2 b8 be 8f 99 8e be
       -0.52153987 -0.18246882 -0.36061507 -0.2785153
000200 78 d7 c0 be 1b 6a 85 bc 31 df bb be fb e0 60 3e
       -0.3766439 -0.016285947 -0.3669372 0.21960823
000210 4b 5e f7 bd 74 9e c7 bd e5 f9 d7 3d a2 ad 88 bd
       -0.12078532 -0.097470194 0.105457105 -0.06673743
000220 fd fe 36 3c 27 34 14 be 7a f1 78 3e a0 0b 95 be
       0.011169192 -0.1447302 0.24310866 -0.29110432
000230 81 ed d0 3c 32 3a 28 3d 82 6b bc be 2c ab 93 3e
       0.025503876 0.041071124 -0.36800772 0.2884153
000240 2e 5b b4 bd a5 14 45 be 1e ed 40 be 6c 69 11 3e
       -0.08806454 -0.19246157 -0.18840453 0.14200372
000250 d5 75 7e 3d 07 9a ea 3d 61 f3 7b be 74 5b aa be
       0.062124092 0.1145516 -0.2460456 -0.33272898
000260 61 80 21 bd 5b fa 8e 3d b9 ab 49 be 88 6d 39 3e
       -0.039429072 0.06981345 -0.19694413 0.18108189
000270 55 5c 27 be 37 14 80 3e 23 9a 50 bd a6 f6 80 3e
       -0.16343816 0.25015423 -0.050928246 0.25188178
000280 ea 07 90 3e 56 ca f7 3d 82 95 54 be 4d 0b 6a bc
       0.28131038 0.120991394 -0.20760158 -0.014284921
000290 7c 1d 91 3e 08 11 14 3e 36 9c 3d 3e e9 9f b4 be
       0.28342807 0.14459622 0.18516621 -0.35278252
0002a0 6d 85 05 3e ff f6 05 3e de fc e4 3c 8c c7 ed 3c
       0.13039179 0.13082503 0.027952608 0.029025815
0002b0 b5 2f 04 3e 37 3c a7 3e 8c ff e4 3e a8 64 9d bc
       0.12908824 0.32663128 0.44726217 -0.019213036
0002c0 07 4f f9 3d e0 f0 a5 3e 8c e1 a7 3e 9f a3 71 3e
       0.121732764 0.32410336 0.32789266 0.23597573
0002d0 dd 98 0c be 2a 04 80 3e bf 73 29 3e ee e6 4b 3e
       -0.13730188 0.25003177 0.1654806 0.19912311
0002e0 5c aa fa 3c 57 06 20 be 68 29 91 bd 73 84 7f be
       0.030598812 -0.15627418 -0.07087976 -0.24952869
0002f0 7e 78 ac 3e 22 68 8a 3d 50 46 10 3e 5b e4 9f bd
       0.33685678 0.06758143 0.14089322 -0.07807227
000300 4a 4b 35 be 6a 7a 50 3e 81 d4 84 be 8d fc 49 be
       -0.17704502 0.20359197 -0.25943378 -0.19725247
000310 3b fe d5 bd a7 6d 88 3e 66 f1 d5 bc db 04 b1 bc
       -0.10448881 0.26646158 -0.026116084 -0.02160876
000320 67 49 59 be a2 22 6a 3e 1f 96 7a 3e 08 7a f2 3c
       -0.21219407 0.22864774 0.24471329 0.029599205
000330 88 a6 07 3e a3 66 88 be 06 25 91 3e 05 bf fd bd
       0.1324712 -0.26640806 0.2834856 -0.1238995
000340 bf d6 e9 3d 8a e0 7d 3e f9 ac 5e bd f8 22 a2 3a
       0.11417913 0.24792686 -0.05436418 0.0012370041
000350 fd 7a 57 3d 3a ce 1b 3e 39 6a 82 3e 31 fc 5c bc
       0.052607525 0.15215388 0.25471666 -0.0134878615
000360 f6 ab a6 bd 00 ef 4b bd 15 21 6a be 12 61 6f be
       -0.08138268 -0.049788475 -0.22864182 -0.23376873
000370 d6 3f f7 3d 71 35 c3 3d 21 57 9e 3e c7 66 1d be
       0.120727226 0.095316775 0.3092585 -0.15371238
000380 58 81 ca bd b6 02 1b 3d b1 90 17 3e d0 14 e4 bd
       -0.098879516 0.037844382 0.14801289 -0.11136782
000390 8c b8 52 3e a2 cb de 3c 59 45 fb 3d 6f 20 d0 3d
       0.20578212 0.027196709 0.122690864 0.10162436
0003a0 40 2f 45 3e ec 93 93 3e eb 7a d1 be e3 c7 8e bd
       0.19256306 0.28823793 -0.4091409 -0.06971719
0003b0 8b 8a 62 3d 77 fd fd 3d 9d e5 35 3e 46 21 6f be
       0.055307906 0.1240186 0.17763372 -0.23352537
0003c0 53 b7 7a bd 0b cd db bd 82 23 4c be 44 d9 a5 3c
       -0.061209988 -0.10732468 -0.1993542 0.020245202
0003d0 bc 23 22 3e 11 59 6c 3e f6 f7 f4 3d 9a db 85 bd
       0.15833944 0.23080851 0.11961357 -0.06536026
0003e0 59 ed 29 be 62 e9 2b be 99 e9 30 3e 71 58 a9 bd
       -0.16594447 -0.16788247 0.1727661 -0.08268822
0003f0 48 33 8e 3d e2 62 19 be ca 2b db 3d 31 21 80 bd
       0.06943375 -0.14979127 0.107017115 -0.06256331

bias f4 [10]
000000 9c 0b 94 bd 71 70 ce 3d ec 45 b6 bc d8 69 bf 3d
       -0.07228777 0.1008004 -0.022250138 0.0934636
000010 f1 6b e1 3d 20 12 f2 bd ec 56 ba 3d 4b 24 d6 bc
       0.11006916 -0.11819863 0.0909861 -0.026140353
000020 67 b0 1f bc fc 6c f5 3c
       -0.009746647 0.029959194
